pre-trained-tp2/tiny_DnCNN_n2n_l2_usp_2000.pt (torch, 90338 bytes, 37 tensors)

weight f4 [13, 1, 3, 3]
000000 57 d5 64 bd db d8 52 be cc 53 78 be 6e 41 1d bb
       -0.05586752 -0.20590536 -0.24250716 -0.0023995298
000010 30 74 ae bb 0a 5c 9d bd e6 8c 82 3d d2 a1 02 3e
       -0.005323909 -0.07683571 0.063745305 0.12757042
000020 01 ba 1f 3e 12 0e 48 bd a7 42 c7 bd 56 20 74 bd
       0.15598299 -0.048841543 -0.0972951 -0.05960115
000030 64 c6 13 bd 44 5e 38 be 3f 30 72 bd 0e 23 16 bd
       -0.036077872 -0.1800471 -0.059128042 -0.036654525
000040 49 e4 3d bd 5f 6b 22 bd eb cb 03 be 07 76 b3 3e
       -0.046360288 -0.03965318 -0.12870757 0.35050985
000050 ec dc e3 bc 4f cb f7 3d d8 8b 59 3d a5 af 8e 3e
       -0.027815305 0.12099325 0.05311188 0.2786838
000060 be c8 2b bd 96 51 a8 3d ed 05 12 be 93 37 d8 ba
       -0.04193949 0.08218686 -0.14260073 -0.0016496055
000070 20 bb 91 be ba 15 27 bc ae a3 49 bc 60 6e 0e be
       -0.28463078 -0.010198051 -0.012307091 -0.13909292
000080 70 f4 de 3e c8 44 16 bb 34 64 ef 3a 71 78 13 3c
       0.43545866 -0.002292918 0.0018264116 0.009000883
000090 d2 7d b0 3b ce 24 cb 3d da 82 0e 3d af db c7 3d
       0.0053860927 0.09919129 0.03479276 0.09758698
0000a0 fd 94 f4 be 4e 34 5b 3d 9f b8 19 3d 13 4f df 3d
       -0.4776992 0.05351668 0.037529584 0.10903754
0000b0 fc d5 49 3d a8 46 da 3b ed 64 51 3e c8 98 7f 3c
       0.049276337 0.006661255 0.20448656 0.015600391
0000c0 6a 40 3b 3c 62 8e 3d 3e f3 81 cf be b1 4c 46 3c
       0.011428932 0.18511346 -0.4052883 0.012103246
0000d0 aa 74 2c 3c 4f e3 c1 bb ec 10 0c 3b 2c 78 66 3d
       0.010525862 -0.00591699 0.002137239 0.05626695
0000e0 7c 74 0d 3d 6c a8 c2 be fe e7 e0 3c b9 14 6c 3d
       0.034534916 -0.3801912 0.027454372 0.05763695
0000f0 b3 00 b8 bc 5e de be bc d7 29 01 3d 3f b4 d2 3d
       -0.02246127 -0.023299392 0.031534042 0.102882855
000100 a6 44 86 be 78 82 8e 39 05 4a 61 bd dc d1 8f 3e
       -0.2622425 0.00027181557 -0.05500223 0.28089797
000110 31 2d 81 be c8 3f 80 3d 43 54 49 be 24 6b 32 be
       -0.2522979 0.06262165 -0.1966105 -0.17423683
000120 7c 51 4e bd 44 63 c0 bd 12 90 3f bd ee 92 a7 bd
       -0.05037068 -0.093939334 -0.046768256 -0.081823215
000130 16 6a f0 3e 43 a3 c4 bd 70 1b 40 bd dd c5 a3 bd
       0.46955937 -0.09601452 -0.046901166 -0.07996724
000140 85 59 06 bd 72 86 3b 3b 53 25 8a bb 71 58 ad 3b
       -0.032800216 0.0028614071 -0.004215875 0.005290084
000150 b1 26 78 bd e8 b2 f8 3e 6a ba c3 3c 94 34 14 bd
       -0.060583774 0.48573995 0.0238926 -0.036182955
000160 58 8e 77 bd 7c 52 27 bd b2 2e a5 3e 24 f2 1d be
       -0.060438484 -0.040850148 0.32262188 -0.154244
000170 e5 db 74 3c 57 de c6 3d 05 37 a8 3d ba 8d be bd
       0.014945005 0.09710377 0.08213619 -0.09304376
000180 8b 6e 0e 3e ce cf 3a 3e 7f 0b e7 3c 4b 6b 0b bc
       0.13909356 0.18243334 0.028203724 -0.008509467
000190 74 e8 d6 bd db 8a be bc a3 e6 e5 bd f8 5e 85 3e
       -0.10493556 -0.02325957 -0.11225631 0.26049018
0001a0 2f 97 5e bd d7 ee b0 bc 4a 54 5d bd 7f 13 8d bb
       -0.0543434 -0.021598263 -0.054035462 -0.0043053026
0001b0 5b ed a2 3b 4d 32 9f bd 71 4a 36 bd 44 86 fa 3e
       0.0049721426 -0.07773266 -0.044504587 0.48930562
0001c0 61 63 f7 bc 03 6f 9c bd 64 53 0c 3d 1e 81 d8 3c
       -0.030198755 -0.07638361 0.034259215 0.026428755
0001d0 cd e8 3d bd
       -0.046364594

bias f4 [13]
000000 3f f0 2c 3d d0 cd 67 3d b2 df a4 3d 37 28 9e 3d
       0.042221304 0.056592762 0.08050479 0.07722514
000010 6e a7 ac 3d ff 8f 99 3d 1f c7 ba 3d f9 be 1a 3d
       0.08430372 0.07498168 0.091200106 0.037779782
000020 db 41 b2 3d 21 fe a0 3d 0f ff 21 3d 29 8a a9 3d
       0.08703967 0.07860971 0.039549883 0.08278305
000030 b0 00 cd 3d
       0.10009897

weight f4 [13]
000000 c1 4e 3b 3e b3 43 69 3e 44 48 e6 3e d3 d9 d6 3e
       0.18291761 0.22779731 0.4497701 0.41963062
000010 03 1b d3 3e f2 0b ab 3e 1b af b3 3e 2d 58 4f 3e
       0.41231546 0.3340755 0.35094532 0.2024848
000020 dc 8d d0 3e 2d ed c4 3e 9d f9 5c 3e 84 ec 6e 3e
       0.4073323 0.384622 0.21579595 0.23332411
000030 0a 00 01 3f
       0.50390685

bias f4 [13]
000000 63 40 af 3e d9 9a b2 bc 17 f0 cd bd e0 ca 99 ba
       0.3422881 -0.021802353 -0.10055559 -0.0011733435
000010 44 61 4f 3e bd c0 a2 3d 7a a4 03 bd cf 6a 17 3d
       0.20251948 0.07946918 -0.03213928 0.036967095
000020 32 38 a6 3e 8a 03 d9 3d 81 10 40 3d 70 db 0e be
       0.3246475 0.10596378 0.04689074 -0.13950896
000030 93 ad 6a 3d
       0.05729444

running_mean f4 [13]
000000 e1 1f 85 bd 81 79 5a be 60 1f a8 3e 07 5d 97 3d
       -0.06500221 -0.21335413 0.32836437 0.073907904
000010 bf 6a a6 3d 2c 1f bd 3d 1a 19 bd bb f8 f7 37 be
       0.08125829 0.09234461 -0.0057708146 -0.17965686
000020 b8 41 8b 3d c2 74 67 3e 56 9d 9f 3e 0e 37 01 3d
       0.06799644 0.22603133 0.31174725 0.031546645
000030 9c dc 66 3e
       0.22545093

running_var f4 [13]
000000 3e b6 2f 3c 66 90 15 3c cd 44 91 3c 45 d1 7a 3c
       0.010724602 0.009128666 0.017733002 0.015308683
000010 fb 64 58 3c f6 b1 4e 3c eb 90 16 3c 14 38 9f 3c
       0.013207669 0.012615671 0.009189825 0.01943592
000020 b3 10 55 3c 2b 4d 62 3c 9c f5 93 3c a2 96 a7 3b
       0.01300447 0.013812344 0.018061452 0.0051143924
000030 82 5d 7c 3c
       0.015403153

weight f4 [13, 13, 3, 3]
000000 e4 4f 97 b9 5b b6 92 3d 57 04 a2 3c 19 fc 3f bd
       -0.00028860488 0.07163688 0.01977746 -0.04687128
000010 c4 35 97 bc 41 fe 2b 3c 1c 64 aa bc 56 ac 2a bd
       -0.018458255 0.010497631 -0.020799689 -0.04166826
000020 68 4f f3 3c ac d1 dc bb ac 49 68 3c 7d 7a 08 3b
       0.02970095 -0.006738862 0.014177721 0.0020824962
000030 22 82 65 3d 8e 02 04 3d 57 72 96 3d 6c fe c0 3c
       0.056032307 0.032229 0.07346027 0.023558818
000040 ab b5 c5 3c 86 62 83 3d 9b 6c 6a 3b de 7a 55 3c
       0.024134478 0.06415276 0.00357703 0.013029782
000050 0b d5 3b bc ef 4d 05 3c 3d 70 b0 3b 09 2b 5d 3c
       -0.011464368 0.008136257 0.0053844736 0.01349903
000060 0f 12 a5 3c a1 e6 c1 bd fd 99 9b bd 95 98 10 3e
       0.020150213 -0.09467817 -0.0759773 0.14120705
000070 90 c6 8c bb 38 76 09 bd 56 17 be 3d 0f f6 5b bd
       -0.0042961314 -0.033560008 0.09281795 -0.053701457
000080 01 0e 00 3d ea a8 38 bd 7c 3f 3c bd ab 7a 2a 3d
       0.031263355 -0.045082964 -0.04595898 0.04162089
000090 1e c6 31 3d fd a5 0a 3d 2a c2 6c 3c 2e 7b 17 3c
       0.04340183 0.033849705 0.014450589 0.009245677
0000a0 08 b8 97 3d 7b 1e 35 3d 61 a2 50 bc 83 e4 72 bc
       0.07408148 0.04421852 -0.012734027 -0.014824989
0000b0 90 cc 2e 3b aa 6f 42 bd 47 82 95 3b 96 c7 b3 bc
       0.0026672222 -0.047469772 0.0045626494 -0.021945756
0000c0 c2 c3 b4 bc 23 6d 2e 3e 05 fa 16 bc 04 84 3e 3d
       -0.022066 0.1703382 -0.009214883 0.04651262
0000d0 3b c9 9b 3d c0 b1 da bc 22 dc 07 3d c2 90 ca 3d
       0.07606741 -0.026696086 0.03316892 0.098908916
0000e0 01 c5 99 3c 40 b2 28 3d cc 1f 60 3d d8 00 69 bb
       0.018770697 0.041185617 0.054717824 -0.0035553481
0000f0 27 7f a3 bb 2b d6 1c bb a7 37 0b 3d 12 a2 09 bd
       -0.004989523 -0.0023931365 0.03398862 -0.033601828
000100 7a f1 e1 3d 6a 1e fa bc 9c 4f 32 3d b9 b0 18 bd
       0.11032386 -0.03053208 0.043532953 -0.03727791
000110 16 15 f6 3d 9d 24 67 3d be bd 9e bd a3 b8 63 3d
       0.120157406 0.0564314 -0.07751034 0.055596005
000120 28 c5 af 3c 5b 48 db 3d 75 b1 62 bc 9e b4 c3 bc
       0.021456316 0.1070716 -0.013836254 -0.023889836
000130 59 04 09 3e 8f e4 45 3b 3b a3 08 bd 06 67 97 bc
       0.13380565 0.0030196046 -0.033358794 -0.018481743
000140 82 27 69 bc 78 f1 55 3d 56 99 8f 3d 23 22 01 3d
       -0.014230611 0.052232236 0.070116684 0.031526696
000150 ac aa 94 3d 91 15 ce 3d 78 51 ec bb 14 30 52 3c
       0.072591156 0.10062707 -0.0072118603 0.0128288455
000160 c3 c5 88 3d 07 1a 54 bc 5d b3 76 bd ec ad 90 bd
       0.06678345 -0.0129456585 -0.060229648 -0.07064423
000170 96 b8 67 bd f0 9f c2 bc e8 f8 a4 bd b7 81 37 3d
       -0.05657252 -0.023757905 -0.080552876 0.04480144
000180 91 0c 5e bd f3 cb d9 bd a0 bd ae bc 83 82 9e 3c
       -0.054211203 -0.10634603 -0.021330655 0.019349342
000190 bf 44 40 3d be f4 06 ba eb a8 d1 3d 40 ab d2 3d
       0.04694056 -0.0005148164 0.10237297 0.102865696
0001a0 48 cc 8a bb e8 e4 25 3d 3e 2a f8 3c c7 38 8e 3d
       -0.004235778 0.040501505 0.03029358 0.06944423
0001b0 23 4b e0 ba 9a 32 be bd d3 bf 15 3e 63 4f 79 3d
       -0.0017112236 -0.09286995 0.14623956 0.060866725
0001c0 31 c1 01 bd 61 d2 7c 3d df 25 98 bc 85 88 05 b9
       -0.031678382 0.06172407 -0.018572746 -0.00012734726
0001d0 86 ad 12 bd 45 aa c9 bc 91 b0 03 3d b9 5a 0a 3c
       -0.035810016 -0.024617324 0.03215081 0.0084444815
0001e0 2e 28 71 3c e1 e7 1d 3d 60 24 23 3c 5c 57 64 bc
       0.014719052 0.038551215 0.009957403 -0.013936844
0001f0 5c 13 68 bb 25 c5 0c 3d 20 77 65 3b 9d 51 08 3d
       -0.003541193 0.0343677 0.003501363 0.033280957
000200 94 43 06 bc 49 33 2d bc f6 6b af 3c 0b 6b 2b bc
       -0.008194823 -0.010571309 0.021413784 -0.010462533
000210 e6 b0 a7 bc fc 42 9f 3c 0a d6 35 3c 32 90 90 bc
       -0.020470094 0.01944112 0.011098394 -0.017646883
000220 91 a8 40 3c 64 38 45 3c 7d ef 98 3b d9 77 c5 bc
       0.011758939 0.01203737 0.004667221 -0.024105
000230 17 10 d1 3c b6 4f c2 3c 9a 41 02 3d 9f de a5 3b
       0.025520368 0.02371965 0.031800844 0.005061939
000240 61 0b 21 bb 9a 95 21 bc c6 32 0f bc 45 fe c4 bc
       -0.0024573433 -0.009862328 -0.008740133 -0.024047026
000250 17 3f 37 bd 1c 53 83 3c cf 98 93 3d 58 c5 37 3d
       -0.0447379 0.01603084 0.0720688 0.044865936
000260 60 3b 9a bc ce da 2c bd 7c 47 5d bc fb 2a ca bc
       -0.01882714 -0.042200856 -0.013505813 -0.024678698
000270 3b 6a a2 3b d9 5e 0d 3d 87 dc 45 bb 1b 80 99 3c
       0.0049565113 0.034514282 -0.003019126 0.018737843
000280 bb 7b b9 3d 35 53 35 3d f6 10 fa bc bb 89 5f bd
       0.09056803 0.044268806 -0.030525666 -0.05457471
000290 34 bb 2d bc 56 95 f5 bc 56 6c d5 3b db 18 79 bc
       -0.010603715 -0.029978435 0.006513159 -0.01520368
0002a0 d4 e2 dc 3a e9 36 9d bb 9b aa e3 bc 1f 38 f4 bb
       0.0016852268 -0.0047978056 -0.027791312 -0.007452979
0002b0 67 e6 5e bc 05 d1 0f bd 6e 53 c9 bc b9 a7 26 bd
       -0.013604737 -0.035111446 -0.024575915 -0.040687297
0002c0 5b 16 64 bd e8 40 1f 3b 71 6c d3 3c 1b 71 9e bc
       -0.055685382 0.0024300162 0.025808545 -0.019341042
0002d0 c0 b7 a6 bb 6b 25 20 3d 23 60 6b 3c e7 f6 87 bc
       -0.0050878227 0.039098185 0.0143661825 -0.016597224
0002e0 5c ca ec bc 51 cd de bc d5 7e ec bb 92 bb 99 3d
       -0.028905086 -0.027197512 -0.007217268 0.07506479
0002f0 a6 bf b6 3c 91 af 89 bc f4 f8 50 bd f2 c7 67 ba
       0.022308182 -0.01680735 -0.05101867 -0.0008841745
000300 40 a1 41 bc 1d 09 a6 bc 27 a4 93 bb 9d 2f ad ba
       -0.01181823 -0.020268017 -0.0045056525 -0.0013213042
000310 a5 0f 15 3e 66 e8 5d bc eb 4f b8 39 cd 50 fb 3c
       0.14556749 -0.013544178 0.00035154758 0.030678177
000320 c1 fb f7 3a 8a 82 ee 3c 88 ff 0a bd 8b 92 c4 bc
       0.0018919633 0.02911498 -0.0339351 -0.023995658
000330 04 2a 4b 3d a4 b8 2b 3e 4f 25 91 bb 7f f6 b7 bb
       0.049600616 0.16769654 -0.0044294964 -0.0056141014
000340 b5 b6 56 3c 66 24 42 bd a3 70 27 3c 5f 20 67 3d
       0.013105084 -0.047397994 0.010219726 0.056427356
000350 31 ce 7c 3d c2 40 e2 3c b4 05 1e 3d ce 7a bf 3d
       0.061720077 0.02761877 0.038579658 0.09349595
000360 bd ef 57 3d e9 6b 1c 3d d4 4c 20 3c 67 20 61 3c
       0.052718867 0.03818885 0.009783942 0.0137406355
000370 63 e6 b3 bc 72 1f 20 bc 16 de 83 3c 3f 31 ac 3d
       -0.021960443 -0.009773122 0.01609711 0.084078304
000380 a7 c1 0b bd 7b 98 2f bb 30 5e b1 bb 7b 56 9d 3c
       -0.03412023 -0.0026793766 -0.0054128394 0.019206276
000390 99 c1 b7 3c a9 85 8a 3c a1 3e 87 3d 3f e8 d4 3b
       0.022431182 0.016909437 0.066037424 0.0064974125
0003a0 64 a5 23 bd 6f e3 ce 3d c9 6d e5 bc 2a 7d 44 bd
       -0.03995265 0.10101973 -0.028006451 -0.04797093
0003b0 19 9e a4 bc 9c d3 82 3c c1 ca 13 3d 99 06 61 bd
       -0.020094918 0.015970044 0.036082033 -0.054937933
0003c0 f7 19 fe 3d 54 bf 0d 3e 44 60 c0 3c 76 c8 98 bb
       0.12407296 0.13842517 0.023483403 -0.0046625687
0003d0 0c f3 e2 3b cb 79 2f 3c 17 ea ed bc fd c4 09 3e
       0.006925946 0.01071019 -0.029042287 0.13454051
0003e0 3a 77 56 bc af 25 87 3d 06 01 89 3d 99 f5 b2 3c
       -0.013089949 0.065989845 0.06689648 0.021845626
0003f0 c9 b9 da 3b 16 7b 75 3b 63 a9 20 3c 01 7a c0 3c
       0.0066749793 0.0037457398 0.00980601 0.023495676

bias f4 [13]
000000 f8 83 dd 3c 82 fc b3 3c a8 33 51 3d 10 e8 24 3d
       0.027040467 0.021970991 0.051074654 0.040260375
000010 f5 97 c7 3c 77 47 1f 3d 43 54 de 3c a5 59 5b 3d
       0.024364451 0.038886514 0.027139788 0.05355229
000020 00 34 66 3d 78 c8 89 3d 86 5b e1 3c 69 14 ae 3c
       0.056201935 0.067276895 0.027509462 0.021249967
000030 e6 92 02 3d
       0.031878375

weight f4 [13]
000000 e8 f0 8e 3e d5 17 2f 3e d1 50 f3 3e a9 08 a7 3e
       0.27918172 0.17098935 0.47522596 0.32623795
000010 a3 8f 3e 3e ad 99 2f 3e 29 0b 3c 3e 9c 2c 47 3e
       0.1860948 0.17148466 0.18363632 0.19450611
000020 53 2c 74 3e e8 ac 4e 3e 97 05 62 3e 22 ac 2c 3e
       0.23845033 0.20183146 0.22072445 0.16862538
000030 bd 02 f5 3e
       0.47853652

bias f4 [13]
000000 cd 2d 26 3e 62 70 01 3d cd bc 15 3d 31 d3 c0 bd
       0.16228409 0.031601317 0.036557008 -0.094152816
000010 3b e7 84 3e ff 9f 40 3e 27 e1 82 3e fa 50 87 3c
       0.25957665 0.18811034 0.25562403 0.016518105
000020 d9 9f 95 3a 4c fc f3 3d c3 b4 d8 3d 0a 88 9b 3e
       0.0011415436 0.11913356 0.105813526 0.30377227
000030 9d 23 de 3e
       0.43386546

running_mean f4 [13]
000000 91 54 a2 3e a8 1b 42 3e fd 15 82 3e 0d ac a2 3d
       0.31705144 0.18955863 0.254074 0.07942972
000010 b1 30 bc 3d 05 83 64 3d f2 e7 8e bd 5b 40 19 3e
       0.09188975 0.055789012 -0.06977834 0.14965956
000020 96 03 a3 3e e0 8c 69 3e f7 2b 2b 3d 15 81 3d 3e
       0.31838673 0.22807646 0.041789975 0.18506272
000030 f0 4f f3 3e
       0.47521925

running_var f4 [13]
000000 bc 5a 6a 3d a1 09 e7 3c 04 59 57 3d 52 05 0d 3d
       0.057215437 0.028202834 0.052575126 0.034428902
000010 eb aa 07 3d 85 6a 3c 3c 09 d1 d6 3c 4c c4 e1 3b
       0.033121984 0.011500006 0.026222723 0.0068898555
000020 3e c7 15 3c f9 c7 9c 3b 02 53 2f 3d 82 cf f5 3c
       0.009141741 0.004784581 0.04280377 0.030006174
000030 fe af 0e 3e
       0.13934323

weight f4 [13, 13, 3, 3]
000000 2e 13 ac bb fc 1b 60 3c 5f 4f 8b 3c 9e d6 df 3b
       -0.00525131 0.013678547 0.01700562 0.0068310043
000010 63 08 b3 3c a7 cb 82 3c f0 59 01 3d ee 0c 1c 3d
       0.021854585 0.01596625 0.03157991 0.03809827
000020 45 35 05 3d bb a6 b7 ba d6 72 33 3c 39 30 fb 3c
       0.032521505 -0.0014011482 0.010952672 0.030662643
000030 a0 5e 0a 3c db 26 e8 b9 eb a7 c9 3c 39 94 b1 3b
       0.008445412 -0.00044279438 0.024616202 0.005419281
000040 f1 35 05 bb 29 3d d0 3b e3 e7 d7 bb d8 e1 fb 3c
       -0.002032634 0.006354947 -0.0065889223 0.03074734
000050 42 ff 2f 3b c6 d4 06 b9 7f a1 9f bc 27 3b 77 b9
       0.0026855026 -0.000128585 -0.019486187 -0.00023577792
000060 38 ab 58 3c d0 88 7e 3c d2 d9 41 bc 0c bb 5f 3d
       0.0132244155 0.015535548 -0.011831718 0.05462174
000070 5a 3f ec 3c b9 a2 9f 3c 49 af 67 bd c4 0f 60 3d
       0.028838802 0.019486772 -0.05656365 0.054702535
000080 48 1d 30 3d 42 3b ed 3d 31 6c 83 3d 7b 8f 57 3d
       0.042996675 0.11583568 0.0641712 0.052627068
000090 86 a8 1a 3c 23 13 27 3c 9d b9 57 3c 44 81 29 bb
       0.009439593 0.010197434 0.013166812 -0.0025864402
0000a0 56 48 a9 3c 42 6e d8 bb db 68 f5 bc ff 6c 4c bc
       0.020664375 -0.0066049406 -0.029957226 -0.012477159
0000b0 a7 84 89 3b 08 12 1d bc 7c 05 3b 3c cd 60 7b 3b
       0.0041967216 -0.0095868185 0.011414882 0.0038357258
0000c0 4b ca 27 bd ef 30 14 3c 68 80 fd 39 10 f2 03 3d
       -0.040964406 0.00904487 0.0004835159 0.03221327
0000d0 26 f4 2b 3b 51 40 34 3d 29 d3 5a 3c 52 f0 db bd
       0.0026238053 0.04400665 0.013356009 -0.10739197
0000e0 05 be c4 3c fc 77 ed bc a0 56 9e bd c2 55 5f bd
       0.02401639 -0.028987877 -0.07731366 -0.054525144
0000f0 84 09 28 3d a1 9c 9e bc 8c 79 b1 3d 79 52 d1 3c
       0.0410247 -0.019361796 0.08665761 0.025552021
000100 49 7e 77 bc 86 c6 3c bc c0 44 44 3c 76 2b 56 bb
       -0.015105792 -0.011521941 0.011979282 -0.0032679713
000110 8e 39 a2 3b c3 ae a5 3c e7 90 a4 37 a5 28 59 bc
       0.0049507087 0.020224934 1.9617799e-05 -0.013254319
000120 69 90 80 bd 94 95 b2 bd 94 dd f5 bc 22 52 71 bd
       -0.06277544 -0.08719936 -0.030012883 -0.05891622
000130 af ee ec bc 07 ee 5a bd 48 4d 8d bd f2 c1 85 bd
       -0.028922407 -0.053449657 -0.06899506 -0.06531133
000140 92 f7 40 bd 79 78 b3 3c 53 53 3e 3d 93 f0 67 3d
       -0.0471111 0.021908032 0.046466183 0.056625914
000150 d8 c3 a5 3c f3 fd c6 3c 7d d0 d7 3c 49 c4 d9 3b
       0.020234987 0.024291014 0.026344532 0.0066457135
000160 b6 b8 be bc 15 17 53 3d fb 71 df 3b 9f 2f 8a bc
       -0.023281436 0.051535685 0.0068190075 -0.01686841
000170 8b 92 95 bb 39 c0 7d bc 34 8f 17 bd d0 e3 8d 3c
       -0.0045645884 -0.015487724 -0.037001804 0.017320544
000180 a3 0c 6c 3d 0b 0e ed 3d d4 0d 4c 3d 9d 58 5c bc
       0.05762924 0.11574944 0.049817875 -0.013448861
000190 d0 53 bd 3c 3b d5 06 3a 0d c9 15 bd f4 b1 c4 3d
       0.023111254 0.0005143468 -0.03656869 0.09604254
0001a0 ca 56 48 3d e7 d9 cd bc 88 ab ad 3c ac ce 91 3d
       0.048910893 -0.025128318 0.021199957 0.07119498
0001b0 52 d2 b4 bc 13 90 49 bd 13 2f fa bc 48 47 86 bd
       -0.022072945 -0.049209666 -0.030540025 -0.065565646
0001c0 0d 0b 99 3e 9d 09 94 bd a1 7d 5c bd 77 06 eb bd
       0.29891244 -0.07228396 -0.053830747 -0.114758424
0001d0 bf 6e 8e bd ec 47 a9 3c e2 d4 9f 3c 4a ff 42 3d
       -0.06954717 0.020664178 0.01951069 0.047606744
0001e0 26 62 1f 3d ad 79 b5 bc 2f 2b db 3d 1e 1b ac 3a
       0.03891196 -0.022152746 0.10701596 0.001313064
0001f0 98 af ed 3a b1 8a 9f bc d6 35 85 bb 49 19 42 bd
       0.0018133996 -0.019475313 -0.0040652556 -0.047387395
000200 5b 46 01 3d 68 6f ea 3b 3b 2b 56 3a 67 3a 47 3c
       0.031561237 0.007154394 0.0008169894 0.01215992
000210 3e 08 45 bc bb 22 a4 bc 26 6b 92 bb 67 db 0f 3c
       -0.012025891 -0.020036092 -0.0044683395 0.008780337
000220 07 03 e0 3d ad 54 d1 bb 20 bd cc 3c 06 fb 96 3c
       0.109380774 -0.006388268 0.024992526 0.018430244
000230 99 fa f4 bb cf cf 3a 3c e7 80 99 3c 23 f6 ca 3b
       -0.0074761626 0.0114020845 0.018738223 0.0061938926
000240 c5 98 88 3d 70 2c e2 3d 71 3d 23 3c 78 34 b5 3c
       0.066697635 0.11043632 0.009963379 0.022119746
000250 e0 8f 03 bd 4c 76 b6 ba 37 e6 09 3c 6b cd 0f bd
       -0.03211963 -0.0013920753 0.008416704 -0.03510801
000260 3e 27 db bb 7c 30 38 bd 85 d6 d6 3b 7a 90 e7 bb
       -0.0066880276 -0.044968113 0.0065563344 -0.0070667835
000270 8d 25 df bc 28 71 77 bc 43 2e 2c 3d 96 71 11 3d
       -0.027239585 -0.015102662 0.042036306 0.035508715
000280 c3 9c 94 bc f2 73 0b 3d 0e 59 62 3c 2d da 5e 3d
       -0.018141156 0.03404612 0.013815178 0.054407287
000290 26 ab 2e 3d 8c c2 d7 39 1d ed bf bc 60 c2 66 3d
       0.04264369 0.00041152944 -0.023428494 0.056337714
0002a0 5a 3a db 3a c3 09 3f 3d 92 b6 03 3d 18 49 90 3c
       0.0016725764 0.04664017 0.032156534 0.017612979
0002b0 b2 ab 8c 3d 5d 9a 91 bc d9 99 4a 3c 61 a6 01 3c
       0.06868686 -0.017773801 0.012365782 0.007913203
0002c0 3c 2a 25 3c fb 1d 01 bc ef 36 c5 bc dc a3 d5 3b
       0.01008087 -0.007880683 -0.024074046 0.0065197777
0002d0 ba 0c 0f 3d 2d 69 56 bc 11 c3 6f 3b 97 33 0a bc
       0.034924246 -0.013086599 0.0036584774 -0.008435152
0002e0 83 fb 2f bc 55 bf 02 bc fc cf a4 3c 9c a5 35 3b
       -0.010741117 -0.007980187 0.020118706 0.002771712
0002f0 b0 2c 1d 3d 22 9e 9f bd 7d 5f 8c bc f3 2f 6c bd
       0.038372695 -0.07793833 -0.017135376 -0.057662915
000300 53 f3 c1 bd 28 49 ae bc ac a9 17 bd e8 af 55 bc
       -0.094702385 -0.021275118 -0.037027046 -0.013042428
000310 f8 db 56 bd dd 94 e8 3b ba 99 5a 3d a6 4b 0f 3d
       -0.052455872 0.007097824 0.05336926 0.034984253
000320 aa 54 60 3b 52 a8 d4 3c 5a e8 85 3c 10 9d c2 ba
       0.0034230151 0.025959168 0.016346145 -0.0014847834
000330 b6 ee 3d bc c3 dd 19 bc a8 25 2b bc 64 20 82 3c
       -0.011592558 -0.009391251 -0.01044599 0.015884586
000340 0f 1f 97 3b df 1c 0e bd 81 a7 77 37 21 d4 04 bd
       0.004611857 -0.034695502 1.4761347e-05 -0.032428864
000350 b7 aa 55 3d 10 2d ef 3b a2 15 9b 3c d7 a2 34 bd
       0.05216476 0.007299073 0.018931214 -0.04410061
000360 26 08 2d 3d bc 46 89 bd c5 11 2b 3d 8e 94 0a 3c
       0.0422441 -0.06702945 0.041764993 0.00845827
000370 64 9e f9 3c 0a 24 53 bd ee 77 a2 bc 80 42 3a bd
       0.030471034 -0.05154804 -0.019832578 -0.045473576
000380 31 58 ea 3c f4 6b 56 bd d5 49 24 be 71 71 58 3c
       0.028606506 -0.052349046 -0.1604379 0.01321064
000390 2d 9c 10 bd 9c 8c 81 bc ec c8 c1 bc a8 ea 5c 37
       -0.03530519 -0.015814118 -0.023655377 1.3167657e-05
0003a0 08 68 1a bd 6f 3f 44 39 91 7c 6c 3c 73 8c 0e bd
       -0.03769687 0.00018715647 0.014433996 -0.03480191
0003b0 4f cc 46 bd 8f 37 6b bd a8 38 84 bd 4f e3 3c bd
       -0.048534688 -0.05742603 -0.06456119 -0.046115216
0003c0 58 4f 51 3c c1 37 c0 3c 7b 19 ca 3c 97 b1 e5 bb
       0.012775265 0.023464086 0.024670353 -0.0070096957
0003d0 ed ea 25 bd e5 00 10 bd d1 ea be bc c4 f7 cb 3d
       -0.040507246 -0.035157103 -0.023305329 0.09959367
0003e0 39 2a 45 bb 13 50 9e 3c ed db 00 3d 8f f6 3f 3d
       -0.003008498 0.019325292 0.031459738 0.046865996
0003f0 83 cd 73 3d 68 b7 8f bc 67 aa 42 3c a9 9f a4 3d
       0.059522163 -0.01754351 0.011881447 0.08038265

bias f4 [13]
000000 a7 74 11 3d 2a af e2 3c dc e4 9d 3c d3 56 f3 3c
       0.03551164 0.027671415 0.019274168 0.029704487
000010 17 fc c4 3c a3 44 6f 3d 0e 0c 7e 3d 0c f0 ca 3c
       0.024045987 0.058415066 0.062023215 0.024772666
000020 9e 5f b9 3c 11 28 a3 3d 2f df d2 3c 6b a8 70 3d
       0.022628602 0.079666264 0.025741188 0.058754366
000030 37 0c 0e 3d
       0.034679618

weight f4 [13]
000000 42 6b ae 3e ec b4 2f 3e 47 23 eb 3d ff f1 d7 3e
       0.34066206 0.1715886 0.11481338 0.42176816
000010 ec 8d 2d 3e 87 dc e8 3e aa 37 9b 3e e8 6c 45 3e
       0.1694867 0.4548075 0.30315906 0.19279826
000020 a6 c8 e1 3d 52 d1 e5 3e c1 ef 4f 3e c9 4d 2c 3e
       0.11024599 0.4488626 0.20306303 0.16826548
000030 08 e7 d4 3e
       0.41582513

bias f4 [13]
000000 48 11 23 3e e0 3b dc 3d 88 59 ae 3e 1a f1 aa 3e
       0.15924561 0.10753608 0.34052682 0.3338707
000010 5f 40 65 3e dd 46 27 bd 02 81 cc bd 31 19 ba 3e
       0.22387837 -0.040839065 -0.09985544 0.36347345
000020 53 75 ac 3e a8 ee 19 be 96 73 91 3d 24 3f 83 3d
       0.3368326 -0.15032446 0.071021244 0.064085275
000030 62 a9 8d 3e
       0.2766829

running_mean f4 [13]
000000 ea cf b0 3d 06 2a 1c 3c b7 72 01 be 7a 67 d7 3d
       0.086334065 0.009531504 -0.12641416 0.105177835
000010 f3 f0 74 3d 38 7b 60 be 04 33 49 3e fa 3a a6 3d
       0.0598001 -0.21922004 0.19648367 0.08116718
000020 f3 f7 55 3d 5b 7c 73 bd ce 69 fd 3e 84 7d ad 3b
       0.052238416 -0.059444766 0.49494785 0.0052945036
000030 16 b6 4e 3e
       0.20186648

running_var f4 [13]
000000 70 09 2d 3d d4 31 b5 3c 23 12 a1 3c 25 f4 f4 3d
       0.04224533 0.022118486 0.019661969 0.119606294
000010 bd ac f3 3c 2a 7d f7 3c 72 d7 3f 3c fb 57 f1 3c
       0.029745454 0.03021105 0.011709081 0.029460898
000020 8d 20 5f 3c c2 73 a9 3c db fe f6 3c 7a d2 93 3b
       0.013618601 0.02068508 0.030150821 0.0045111747
000030 34 2a a0 3d
       0.078205496

weight f4 [13, 13, 3, 3]
000000 21 3f bf bc 5d d9 32 bd ce 9a 7a bd 69 10 7a bd
       -0.023345532 -0.043664325 -0.06118279 -0.061050806
000010 b0 08 35 bd c5 51 06 bd b8 f7 fd bc aa 70 ce bc
       -0.04419774 -0.032792825 -0.03100191 -0.025200207
000020 81 11 2e bd 62 80 57 bb e7 b1 f0 bb da 03 b5 bc
       -0.04249716 -0.0032882919 -0.0073454264 -0.022096563
000030 9d 98 30 bc 7d e4 ec bc bf 38 ab bb 48 4c 8c bc
       -0.010778573 -0.028917545 -0.0052252705 -0.017126217
000040 89 20 fe bc 95 bb a0 3c f9 76 6a bd d6 5f f3 bc
       -0.031021373 0.019620696 -0.057242367 -0.029708784
000050 de 9e 2a bb ec 5f 75 bd 98 40 5b 3b a4 b7 2d bb
       -0.0026034634 -0.05990593 0.003345525 -0.0026507163
000060 26 88 f6 bc c0 19 35 3c 97 4f 88 bc df d1 ae bc
       -0.030094218 0.011053503 -0.016639514 -0.021340309
000070 b8 f1 93 bd e9 26 f7 3b 16 42 24 3d c4 8f 84 3d
       -0.072238386 0.0075424802 0.040102087 0.064727336
000080 7b a9 00 bd 93 59 b5 bc 82 d5 fe 3b 11 49 c1 bc
       -0.03141163 -0.022137439 0.007776917 -0.023594411
000090 3f 22 aa 3a b1 d7 40 3d 69 63 25 3d 87 83 57 3c
       0.0012980177 0.0470807 0.040378008 0.013153917
0000a0 10 09 a5 3d 06 35 f0 3c 32 b5 10 3d c2 ab 35 3d
       0.08058369 0.029322159 0.03532905 0.044353254
0000b0 91 6d 6b 3b ab 9d b3 bb 38 b3 04 3c c6 64 9d 3b
       0.003592346 -0.005481442 0.00809937 0.004803273
0000c0 3c ac c3 3c 09 35 80 3c e8 96 00 3b 51 85 1f bd
       0.023885839 0.01565029 0.0019621197 -0.0389455
0000d0 9e 84 dd 3c da be a8 bc 12 1c fd 3c 79 91 b5 3c
       0.027040776 -0.020598818 0.030897174 0.022164093
0000e0 48 fa 3e 3b 92 bb 96 bc b1 85 0b bd 24 f1 39 b7
       0.0029140878 -0.018399987 -0.034063045 -1.1083004e-05
0000f0 c1 1f 5e 3d 98 8b e7 bc 82 21 4f bd 51 fb d0 bc
       0.0542295 -0.028264806 -0.050569065 -0.025510462
000100 da 4a 3e bc 19 96 3e bc 83 4b c5 bd 54 46 2a 3d
       -0.011614526 -0.011632466 -0.09633543 0.041570976
000110 d0 5e 3a bd 38 79 5e bd 18 0d 85 bc 04 4c 8b 3c
       -0.045500576 -0.054314822 -0.016241595 0.01700402
000120 c1 51 9c 3c 90 58 84 3c 7b 15 de bc c9 36 60 ba
       0.019081952 0.016155511 -0.027109852 -0.00085530855
000130 55 9c cb 3b 66 45 a2 3a 8e 62 34 bb 96 73 c1 bb
       0.0062137046 0.0012380301 -0.0027524563 -0.0059036715
000140 8e ba 1f 3b 38 e2 bb 3c 83 73 d7 3d a8 30 73 3d
       0.002437267 0.022935018 0.10520079 0.059372574
000150 36 65 85 3d 51 f3 83 3b 4d ff fa 3c ad 42 5a 3d
       0.06513445 0.0040268083 0.030639315 0.053286243
000160 27 c3 71 3d e2 49 81 3d 92 41 76 bd 43 64 4c bd
       0.059024002 0.0631292 -0.060121126 -0.049900305
000170 09 f0 ca bc 3f 58 82 bb 9a 3d 83 bd 14 06 a3 bc
       -0.02477266 -0.003977805 -0.06408234 -0.01990036
000180 85 cb a2 ba 92 10 23 bc 2e 03 fb bb d1 bc 96 3c
       -0.0012420273 -0.009952681 -0.007660291 0.018400582
000190 d8 15 a3 3a 99 5f 4a bc f4 88 da 3c 3c 99 9e 3c
       0.0012442423 -0.012351894 0.026676632 0.019360177
0001a0 7d 20 97 bb 4f 33 0c 3c 4a 3a e2 bb 58 15 90 3c
       -0.004612027 0.008557155 -0.0069039213 0.017588302
0001b0 2e 99 e1 bc 0d fa 61 bd 91 5b ce 3b 5b 69 55 bc
       -0.027538862 -0.055170108 0.0062975367 -0.013025607
0001c0 65 ee 25 bd f1 56 88 bd d4 60 2d bd dc 9a 5d bc
       -0.040510554 -0.06657208 -0.04232867 -0.013525691
0001d0 eb 02 09 bd b1 28 21 3d ff 58 10 be 3b af 43 3d
       -0.03345005 0.039345447 -0.1409645 0.047774535
0001e0 3d a0 df 3c 90 5a 40 3e 87 7e 5c 3d 34 30 3e bd
       0.027298087 0.18784547 0.053831603 -0.04643269
0001f0 57 b6 53 3c a3 6d 61 bd 87 1c 9e bc 69 d7 7f bd
       0.012921891 -0.0550362 -0.019300712 -0.06246129
000200 97 67 1f bd a0 cd 39 be 5f 30 66 3d 85 d8 a7 bd
       -0.03891715 -0.18144846 0.056198474 -0.08195595
000210 01 5c 32 bc 0a 03 a4 bd 17 41 85 bd d1 d3 34 bd
       -0.010886193 -0.08008392 -0.065065555 -0.044147316
000220 15 45 18 bd cd de 35 bd 8b fd 82 bd 1d 9c 93 bc
       -0.037175257 -0.044401933 -0.06396016 -0.018018777
000230 5f f5 ae 3c f3 89 bd 3b 9d 38 71 bc 32 91 f1 3c
       0.021357236 0.005784267 -0.01472297 0.02948818
000240 a1 6c 15 3d 5c 50 13 be 7c ca b1 3c f7 7a 87 3c
       0.03648055 -0.14386123 0.021702997 0.016538126
000250 aa e2 87 bd 8a 62 41 3c b8 4b 28 3d 96 d8 f5 3c
       -0.066350296 0.011803279 0.041087836 0.030010503
000260 69 70 96 3c fe b9 49 3d a1 85 f0 bd a2 3c b6 3d
       0.018364148 0.04924964 -0.11744238 0.088982835
000270 2f 72 99 3d 82 1f 6e 3d bb 9f 35 3c 92 80 85 3d
       0.07492482 0.058135517 0.011085446 0.065186635
000280 02 33 59 3d 47 4f 3b 3d 03 cc 6d bc a2 0a b4 bc
       0.05302716 0.0457299 -0.014513972 -0.021977726
000290 93 49 fe bb 01 01 29 bd 43 79 97 bc 76 ef 12 bd
       -0.0077602356 -0.041260723 -0.01849044 -0.0358729
0002a0 da f5 be bb 3d 73 d7 3b ff b9 e7 bc 78 ad 0d be
       -0.0058276476 0.006575017 -0.028286932 -0.13835704
0002b0 4a b9 11 3c f9 b9 bb bd ac 41 20 3d 71 4a 43 3d
       0.008894274 -0.09166331 0.03912513 0.047678415
0002c0 72 f0 17 3d 39 bc c7 bc e1 ad 35 bd 1b 95 1d bd
       0.03709454 -0.024381744 -0.044355277 -0.038472276
0002d0 cb 48 aa bc 9c b6 1a 3d f6 db 06 bd 74 35 95 bc
       -0.020786664 0.037771806 -0.032924615 -0.018213965
0002e0 26 9a 62 3d 1f 2a ed bd af 08 de bc 50 42 ea bc
       0.05532279 -0.115802996 -0.02710375 -0.028596073
0002f0 7e 6f 59 bd f7 23 09 3c 9c 15 10 3e d9 10 9a 3d
       -0.053084843 0.008370391 0.14070743 0.07522745
000300 44 23 41 bd f5 21 24 bc 15 8e ac bc 4a 89 a4 bc
       -0.047152773 -0.010017862 -0.021063844 -0.020084996
000310 be 94 d3 bd a8 a3 9d 3b 7f 89 20 be 92 bc 1a 3e
       -0.10331105 0.004810769 -0.1567745 0.15110996
000320 31 49 1f be 24 f4 b3 bd 25 9d 2c be 78 4c 9c bd
       -0.15555264 -0.087868005 -0.16856821 -0.07631773
000330 f4 b7 ff 3b 70 9e 8c bd b9 69 6b 3b 08 ba 63 3d
       0.0078039113 -0.06866157 0.003592117 0.055597335
000340 f1 05 00 3e 92 18 1d 3d ed bb 20 bc a8 b7 1c 3d
       0.12502266 0.03835351 -0.00981043 0.038261086
000350 8c 3b 19 3d ce 1f 0a bd 65 30 e4 3c 8d a8 87 bc
       0.037410304 -0.033721738 0.027855108 -0.016559863
000360 70 ff 5d bd 11 93 2a bc 34 97 8e 3d 56 b7 a3 bd
       -0.054198682 -0.01041104 0.069624335 -0.07993953
000370 94 56 12 bd 7d e3 00 3e d6 22 45 bd f4 df 9f b9
       -0.0357271 0.1258678 -0.048128925 -0.000304937
000380 77 3e 81 3d 7f 97 af 3d 5d cc 39 3e b2 fb 11 3d
       0.06310742 0.085738175 0.18144365 0.035640426
000390 00 36 96 3c e0 14 04 3d cd ee 43 3c 6f 1f ef bb
       0.018336296 0.03224647 0.01195879 -0.0072974483
0003a0 43 55 12 3c ed 31 1c bc fa 41 27 bd 3e 7a 72 bc
       0.008931461 -0.009533388 -0.040834405 -0.014799653
0003b0 1b 4f 94 bd c5 c3 40 3c 67 ee 3f bd 1f 4a 23 bd
       -0.07241651 0.011765425 -0.046858218 -0.03986561
0003c0 ee 02 b4 3c 63 2b 84 3a b7 16 2b bd 1e 9d bb bd
       0.021974053 0.0010083731 -0.04176971 -0.09160827
0003d0 6f fe 9f bd 34 19 4c bd 75 5e 35 bb b2 9f 54 bd
       -0.07812201 -0.049828723 -0.002767471 -0.05191011
0003e0 40 9b 05 bc 92 fb e7 bc 81 e0 b4 bd d0 3a 1b bd
       -0.00815469 -0.0283182 -0.08831883 -0.037897885
0003f0 6d 82 a5 bc 8e 3f 90 3d fe 98 16 3d 96 1c a2 bb
       -0.020203793 0.07043372 0.036767 -0.0049472554

bias f4 [13]
000000 8b c8 0b 3d e3 f3 84 3d e4 48 45 3d d6 2e 37 3d
       0.0341268 0.0649183 0.048165217 0.0447224
000010 46 1a d7 3c c0 3e 3d 3d 1c 11 03 3d f8 d0 54 3d
       0.026257645 0.04620242 0.03199874 0.0519571
000020 91 3b 2f 3d 73 ba 91 3d 23 69 af 3d c9 ee b2 3d
       0.042781416 0.071156405 0.08564975 0.08736951
000030 21 dc 06 3d
       0.032924775

weight f4 [13]
000000 d9 1c 16 3e aa 50 01 3f eb e7 f5 3e a5 ce bd 3e
       0.14659442 0.5051371 0.48028502 0.3707172
000010 45 18 0d 3e 98 71 d4 3e f4 f2 6b 3e 31 ef 0d 3f
       0.1377879 0.41492915 0.23041898 0.554431
000020 22 5d 9a 3e 54 76 98 3e 6d 3a 28 3f a8 e4 70 3e
       0.3014918 0.29777777 0.6571415 0.23524725
000030 85 f3 29 3f
       0.66387206

bias f4 [13]
000000 d1 e6 35 3e 43 09 9d be 43 d9 65 3d 86 2e bb 3d
       0.1776383 -0.3067113 0.0561154 0.09139733
000010 b6 c0 5b 3d 5a 0e bd 3d 3b b2 f6 bc 3c 2b 90 3e
       0.05365058 0.09231253 -0.030114284 0.28157985
000020 95 1f 3c 3e 75 e3 1a 3e cd 7b 7b be 7d c0 db bd
       0.18371423 0.1512583 -0.24558945 -0.107300736
000030 7e a4 94 3e
       0.29031748

running_mean f4 [13]
000000 04 35 3b be ba ad 75 3b 92 da 54 3e b4 c2 6a 3e
       -0.18281943 0.0037487582 0.20786503 0.22925836
000010 bc 91 3b 3e 16 02 52 3e 46 26 84 3e c6 2a 03 bf
       0.18317312 0.20508608 0.2581045 -0.5123714
000020 94 a9 b5 3d 57 98 81 3e 23 76 b9 3d d0 ba a2 3d
       0.08870235 0.2531154 0.09055736 0.07945788
000030 da 0b 8a 3e
       0.26962167

running_var f4 [13]
000000 1c 15 11 3c 66 3e 0a 3d ec ee 5b 3d da ab 17 3d
       0.0088551305 0.033750914 0.05369465 0.037029125
000010 d8 fb 79 3c 0e 02 34 3d ab 57 f5 3c 1c 2b 89 3d
       0.015257798 0.043947272 0.02994903 0.066976756
000020 85 5d e1 3c 42 a9 2f 3c 87 31 07 3d c6 fa 6f 3b
       0.027510414 0.010721507 0.033006217 0.0036617978
000030 69 35 4f 3e
       0.20235218

weight f4 [13, 13, 3, 3]
000000 36 d5 6a 3d df 80 49 3b b2 ba 0f 3d ba b4 8b 3d
       0.05733224 0.003074698 0.035090156 0.0682158
000010 38 95 21 bb b0 b4 ce 3c 2b 35 ac 3d bf 47 e3 3d
       -0.0024655592 0.025232643 0.084085785 0.11097669
000020 8e 9c 8a 3d f4 2a 4f bb 8d ed 0c 3d 25 2b b7 bb
       0.06768142 -0.0031611295 0.034406234 -0.00558986
000030 ac 06 1a 3d c9 19 32 3e 0e af 90 3d 56 13 04 3d
       0.03760402 0.17392649 0.07064639 0.032245003
000040 f8 5d 8a 3e 48 62 38 3d 54 53 82 3c f8 e6 44 3b
       0.27024817 0.045015603 0.015908875 0.0030044895
000050 17 9f 8d bc 94 51 1a 3d 95 5c a3 bc ff ea d8 3c
       -0.017287774 0.037675455 -0.019941607 0.026479242
000060 7e af 44 bc 6f af 52 bc 93 5c 1e 3d 1c 14 8a bc
       -0.012004731 -0.012859209 0.038662504 -0.016855292
000070 08 f2 80 bd 71 e4 a2 bc ce 05 4a bc 51 a5 e2 3c
       -0.06296164 -0.01988432 -0.0123304855 0.02766672
000080 23 25 79 bd 0f 57 20 bd 0e 80 d8 3d 72 fc c4 bc
       -0.060826432 -0.039145526 0.105712995 -0.024046157
000090 58 74 27 3b e3 31 83 3c 57 ad 43 bb b1 63 b1 3d
       0.0025551524 0.016014999 -0.0029857957 0.08661593
0000a0 a3 03 13 3d c6 7e 41 3d 34 6d ba 3d 5d fc e6 3c
       0.03589214 0.04724004 0.0910286 0.028196508
0000b0 76 b8 c1 3c 0b 96 81 3d 7a 8b 42 3d 9a 10 83 3d
       0.023647528 0.063274466 0.047496296 0.06399651
0000c0 55 5d 51 3c 8e 46 44 3d e6 e8 72 3c 2e 6d 44 bd
       0.0127786 0.04791885 0.014826035 -0.047955684
0000d0 5e 43 75 bc 40 17 58 3c 55 b3 6f bb 7b 16 12 bc
       -0.014969675 0.013189137 -0.0036575396 -0.008916493
0000e0 01 d2 49 3c d8 1a 15 3c b6 83 27 bd fe b1 82 3b
       0.012318135 0.009100638 -0.040897094 0.0039885035
0000f0 36 3f 34 bc 18 c5 c0 bc 1d 9d 3d bc d2 31 95 bb
       -0.011001399 -0.023531482 -0.011573103 -0.004553058
000100 3b 3a 44 bd 9a 8c 2c bb e0 cd 7b 3c b4 90 19 3d
       -0.047907095 -0.0026328922 0.015368909 0.037491515
000110 d0 7d 15 bc a3 44 e1 bb 9f 83 7b 3c 92 e5 53 3b
       -0.009124234 -0.006874637 0.015351205 0.003233288
000120 26 e3 0d 3d d2 45 3a 3d a4 87 08 3c 0b 4e d8 3c
       0.034640454 0.045476742 0.0083331205 0.026404401
000130 50 4f 51 bc a0 7f 88 3c 46 55 79 bb bd 6c ce 3c
       -0.012775257 0.016662419 -0.0038045212 0.025198335
000140 3e 1e 14 3b 38 bd 22 3c b8 80 3d 3c 52 7d 69 3b
       0.0022601034 0.009932809 0.0115663335 0.0035627675
000150 9a 42 c1 3c 14 d9 3f bc cd 0d c3 3a 6a 95 50 3d
       0.023591328 -0.01170947 0.0014881432 0.050923742
000160 43 3c ee 3c ed a8 5e bb 15 f7 36 bb 98 87 2f bc
       0.02908147 -0.00339752 -0.0027918268 -0.01071348
000170 ce 61 8b 3b 6f 6e 46 bd b0 e1 89 bd e0 b4 1c bb
       0.0042536026 -0.04844516 -0.067324996 -0.002391152
000180 d0 fa 51 bd fe fd 35 be ae d7 e2 bc 6e e3 6d bb
       -0.051264584 -0.17772672 -0.027690735 -0.0036298889
000190 8b 30 e5 3b f3 1a ce bc f3 91 cf 3b c8 51 f4 3c
       0.006994312 -0.025159335 0.006334537 0.029824153
0001a0 1a 7e 1d 3c a6 93 96 bc 33 3b c3 3c 44 74 8d 3c
       0.0096125845 -0.018380951 0.02383194 0.017267354
0001b0 e1 61 00 bd 66 6b 42 bc cd 17 31 bd 08 8c ba bb
       -0.031343345 -0.011866426 -0.04323559 -0.0056929626
0001c0 1d 4f bd 3d e6 e5 54 3c 4f 5a 2a 3b d3 1e 5f 3e
       0.09243605 0.012994265 0.002599377 0.21789102
0001d0 29 8e 22 3a 4c 85 82 3d f5 6a 0b 3c a5 3a 83 3d
       0.0006200993 0.063730806 0.008509387 0.0640767
0001e0 68 df 44 bc 25 ae ac bd 9c 2c 90 3d 19 47 b7 3d
       -0.012016155 -0.08431653 0.070397586 0.08949108
0001f0 e6 1f 01 bd dd 88 20 3d 3c 7e 00 3d e6 89 9a 3d
       -0.03152456 0.039193023 0.031370386 0.07545833
000200 18 a1 db 3c 5a 13 03 3e 14 2e 5f 3e f1 28 d8 3d
       0.026810214 0.12800351 0.21794921 0.10554684
000210 1f ca 54 3e 63 94 89 3d 2a 44 54 3e 0b 38 c3 3c
       0.20780228 0.06717756 0.20729128 0.023830434
000220 bd 11 86 3d 76 11 8f 3b 82 3b 1e bb a2 6d 13 3d
       0.06546352 0.004366095 -0.0024144356 0.035993226
000230 a7 0b 2b 3c d1 19 2b 3d e2 53 8b bb 5b 66 fb 3c
       0.01043979 0.041772667 -0.004251943 0.030688455
000240 0d e4 19 bd 3d ad ac bd 64 50 fa bc 34 58 d8 bd
       -0.037571 -0.0843148 -0.030555911 -0.105636984
000250 72 0e 89 bd 04 ad 63 bd 78 97 12 be 70 69 71 3d
       -0.06692208 -0.055584922 -0.14315593 0.058938444
000260 54 91 c9 bd 10 cf e7 bc 3a ad a8 bc 4e 3f ed bc
       -0.09842172 -0.028296977 -0.020590413 -0.02896085
000270 fc 5a 19 3b ec f8 d9 bb 6d 45 b5 bc 6e e5 6b 3c
       0.0023400178 -0.0066519883 -0.022127831 0.014397962
000280 08 34 7f bc 2e a9 2f bd 60 6d 8d 3d 09 6f b4 3d
       -0.01557637 -0.04288595 0.06905627 0.08810241
000290 29 6d 1d 3d 24 f6 ac 3c 94 01 db bd 37 2c 8c 3c
       0.03843418 0.021113463 -0.106936604 0.017110927
0002a0 7d 0e c1 3c d4 7c 62 3c 81 f1 c6 3c ff 10 54 3c
       0.023566479 0.013823707 0.02428508 0.012943505
0002b0 c6 86 7b 3b 56 b9 bc bb af af fc 3a 5c 3c ee 3b
       0.0038379892 -0.0057593985 0.0019278432 0.007270379
0002c0 a3 f3 0d 3c e9 f2 e0 3c b5 d4 97 3c 24 d1 90 3c
       0.008664045 0.027459579 0.018534044 0.017677851
0002d0 4f 81 94 bc 4d b0 92 bd 79 13 ac bc ac c6 10 bc
       -0.018128065 -0.07162533 -0.021005379 -0.00883643
0002e0 44 34 83 3e c5 1e f7 bc da 63 b5 ba 3c 0c d4 bb
       0.25625813 -0.03016604 -0.0013838962 -0.006471185
0002f0 8d 09 dc bb f2 19 f8 bc 93 1d a6 bb 48 89 64 3c
       -0.0067150057 -0.03028581 -0.0050694435 0.013948746
000300 98 21 ac 3c 29 86 fe bd e9 76 2a 3d ed a1 f9 3c
       0.021012112 -0.12427933 0.041617308 0.03047272
000310 7c 44 85 3d d7 11 ff 3c 88 90 24 3c 69 ea 66 3c
       0.06507203 0.031136436 0.010044225 0.014093974
000320 3a 6f 55 3d 46 6e 71 bb 9d 76 af 3d 17 b6 5e 3d
       0.052108027 -0.003683941 0.085675456 0.054372873
000330 f8 6a a9 3b 55 d6 bb 3c da 34 0d 3d 8b 9b f3 3b
       0.0051702224 0.02292935 0.03447423 0.0074343137
000340 df 3a 91 bc 79 be 1f 3c 80 89 27 bd 1c f9 18 be
       -0.017728267 0.009750002 -0.040902615 -0.14938778
000350 90 dc 86 bd 6e 21 9e bd 25 e9 5f 3e 79 d4 ec bd
       -0.06585038 -0.0772122 0.21866281 -0.115639634
000360 9b 83 55 bc 09 32 93 bc 3d 8f 51 3c 6b d5 98 3c
       -0.0130318655 -0.017968195 0.012790498 0.018656453
000370 9f 15 d4 bc d7 72 43 be 71 44 48 bb b4 3e 12 3c
       -0.025889216 -0.19086777 -0.0030558372 0.008926082
000380 a7 1c 44 3c 0d 75 a5 bc 66 80 93 3b a4 fd 6c bc
       0.011969722 -0.020197416 0.0045013903 -0.0144647695
000390 3c 92 ae 3b e2 4c 06 3d 8f 19 a4 3c 0d 8c e7 bc
       0.005327491 0.032788165 0.020031719 -0.028265024
0003a0 7b 4b 2c bd e6 54 07 bd 9e 85 4e 3b 9e 1c 0f 3c
       -0.04206417 -0.03303995 0.0031512748 0.00873485
0003b0 b0 14 86 3c ee af 19 3d 80 95 a1 bc 27 5d 9c bc
       0.016367286 0.037521295 -0.019724607 -0.019087387
0003c0 e0 1b 70 3c 6e 1e 13 3b 01 31 01 3d ef f7 55 3c
       0.014655083 0.0022448557 0.031540874 0.0130596
0003d0 fa 2a 5a 3c 75 70 f2 bb 0a 29 97 bc b0 58 8f bc
       0.0133159105 -0.00739866 -0.018452186 -0.017498344
0003e0 7c 5a 9d 3a 30 24 d3 bc b9 1f e0 3b bd 17 ef 3c
       0.0012005116 -0.025774091 0.006839719 0.029186124
0003f0 1a ee 15 3d 59 16 4a bc 7a da 24 3c de 8b c8 39
       0.036604024 -0.01233443 0.0100618545 0.00038251182

bias f4 [13]
000000 4f 2b 20 3d b4 c9 96 3d 89 3a f9 3c e8 db 0e 3d
       0.039103802 0.073626906 0.03042342 0.034877688
000010 c6 bf f9 bc 2a 0a 79 3c 42 79 9c 3c e7 86 2f 3d
       -0.030486953 0.015200177 0.019100789 0.042853262
000020 aa 7a 1f 3d 70 88 a4 3c b0 76 03 3d 58 a1 30 3d
       0.03893534 0.02008459 0.03209561 0.04312262
000030 74 6a 8c 3c
       0.017140605

weight f4 [13]
000000 4b fa 94 3e 31 d3 00 3f c8 06 66 3e d1 d6 c5 3e
       0.29097208 0.5032225 0.22463524 0.38640454
000010 b0 f2 c5 be 57 24 4f 3e bb a6 38 3e 53 8d ef 3e
       -0.38661718 0.20228706 0.18032353 0.4678751
000020 22 42 d0 3e eb e6 95 3e 6e ce ec 3e cf 54 18 3f
       0.40675455 0.2927774 0.46251243 0.5950441
000030 45 d5 7a 3e
       0.24495418

bias f4 [13]
000000 de 17 2e 3e 16 e9 18 be 18 58 cc bd 41 6c e5 3d
       0.17001292 -0.14932665 -0.0997774 0.112022884
000010 8e 4e df 3e 77 f6 1c 3f fb a1 57 3e 76 71 81 3d
       0.4361462 0.61313576 0.21057884 0.06320469
000020 43 cd 79 3e 21 48 bf 3e c8 fe d6 3e 72 28 9f bd
       0.24394707 0.37359717 0.41991258 -0.07771386
000030 55 ce f6 3d
       0.120510735

running_mean f4 [13]
000000 23 db a6 3e 2a 34 54 3e 63 8d b4 3e 87 81 77 3e
       0.32589063 0.20723024 0.3526412 0.24170505
000010 c1 06 92 3e 45 67 5a 3d 28 55 54 3e f8 c2 a9 3e
       0.28520778 0.05332114 0.2073561 0.33156562
000020 51 a5 2b 3e eb 12 0e 3f 84 d0 d3 3d 6f 51 eb 3e
       0.16762282 0.55497617 0.103425056 0.45960566
000030 64 a1 c1 be
       -0.37818444

running_var f4 [13]
000000 82 cc 02 3d b7 eb c7 3c 63 1f d9 3c 35 a2 85 3d
       0.031933315 0.02440439 0.026504224 0.06525079
000010 bb 77 bd 3d 12 e9 c8 3d 2e 1e 48 3d 0a 1c 63 3d
       0.092513524 0.0981008 0.048856907 0.055446662
000020 20 23 85 3d 5d f0 d2 3d 06 6d e5 3d 2f 5d e5 3d
       0.0650084 0.10299752 0.11202435 0.11199414
000030 6a 5b ea 3d
       0.11443217

weight f4 [13, 13, 3, 3]
000000 e0 29 83 3c 8f e5 4f 3d a8 04 a8 3c 7f a2 47 bc
       0.016011178 0.050756034 0.020510033 -0.012184738
000010 f7 7f a1 bc 15 ed 5d bc ea da 87 bc 9c a9 af bd
       -0.019714339 -0.013545294 -0.016583879 -0.08577272
000020 48 07 e4 bc a1 fc 08 bd 04 a5 b3 bd b3 df 8f bc
       -0.027835503 -0.03344405 -0.087717086 -0.017562723
000030 e8 54 b3 bd fb ac ef 3b e4 b6 ad bd 8d 65 1a bd
       -0.08756429 0.007314322 -0.08482149 -0.037694503
000040 52 1c d7 bd f7 33 2f bd 9e b6 59 bc ef 38 da bd
       -0.105034485 -0.042774167 -0.013288168 -0.106553905
000050 6f a3 74 bc 64 3a 43 bd 27 aa 71 bd 25 6f c1 bc
       -0.014931544 -0.047663108 -0.05900016 -0.023612568
000060 a5 bc 39 bd c1 5a a9 bd ff cb c9 bc df 0c 02 3d
       -0.04534592 -0.08269263 -0.024633406 0.031750556
000070 f0 8d a5 3b 76 18 04 bd ec 07 c1 bc f2 7d 1c be
       0.0050523207 -0.03224989 -0.023563348 -0.1528242
000080 ef eb 30 bd 1e d3 5f 3d 65 ac b1 bd 4e 2f f4 3c
       -0.043193754 0.054644696 -0.0867546 0.029807713
000090 24 5a 9e bc 19 b5 48 bd 8d bc 98 bc 7e a2 ca bd
       -0.019330092 -0.049000833 -0.018644596 -0.09894274
0000a0 ba e2 88 be 2b cd 74 bd fd 36 8f 3b eb c0 39 bd
       -0.2673548 -0.059765976 0.004370569 -0.045349997
0000b0 2e e1 b8 3c 8b 7b d3 ba da 40 a7 bc 99 2f 5a bb
       0.022568312 -0.0016134841 -0.020416666 -0.003329253
0000c0 a5 05 b5 ba 89 76 03 3e 07 fc a1 bd ea 00 66 bc
       -0.0013810886 0.12838186 -0.079093985 -0.014038304
0000d0 59 3d a7 bd de d9 7f 3d db 32 10 bd a3 61 4c bd
       -0.08165998 0.062463634 -0.03520475 -0.0498978
0000e0 81 b3 03 bc cb 3b 19 3d b5 bb f4 3c 14 67 bd bc
       -0.008038403 0.03741054 0.029874662 -0.02312044
0000f0 dd b9 c5 3c a0 c8 a5 bc 05 55 f5 bb f7 24 0b 3d
       0.024136478 -0.020237267 -0.0074869418 0.0339708
000100 ac b7 87 3c ad 6a 0b 3c fc bb f2 3c 28 0f 7a 3d
       0.016567074 0.00850932 0.029630654 0.06104961
000110 8d 05 1c 3d a3 65 68 3c 32 dd 4d 3d 11 95 d9 3c
       0.03809123 0.014184388 0.050259776 0.026560338
000120 89 80 7e 3b 4a 7b 1a 3c 2c 82 2f 3c 19 10 b7 3d
       0.0038833937 0.009428808 0.010712188 0.08938617
000130 91 f0 28 3c e8 38 73 3b 27 4e 62 3d 44 d7 3e 3d
       0.010311262 0.0037112776 0.055250313 0.046592012
000140 91 22 d7 3c ed ed 90 bc 29 f9 8f 3c ac 25 16 bd
       0.0262616 -0.017691577 0.017574864 -0.03665702
000150 68 97 59 3d 4e cf 83 3e 3b 04 a7 3d 26 ce 67 bb
       0.053122908 0.25744098 0.08155104 -0.0035370677
000160 dc 62 24 3e 87 36 92 3c fa b3 fe bc 4f c8 b4 bd
       0.16053337 0.017848266 -0.031091679 -0.08827268
000170 11 c0 2a bd 87 70 42 bd 5f 14 1b 3e 2b 31 f4 bd
       -0.041687075 -0.047470596 0.1514449 -0.119234405
000180 0d 9c 6d bc c6 a5 f4 bd d5 55 82 bd cb 8f 1f 3a
       -0.014502537 -0.11945681 -0.063640274 0.00060867955
000190 56 de 27 3d bc f3 84 3d 17 84 14 bd 81 68 d8 bc
       0.04098352 0.06491801 -0.036258783 -0.026417019
0001a0 85 c8 80 bc dd 48 e5 3c 2b 87 0e bd bb a5 84 3c
       -0.015720615 0.027988845 -0.034796875 0.016192308
0001b0 49 71 a6 bc ba f0 50 bc 0e d5 60 bd f8 36 10 bd
       -0.02031769 -0.012752706 -0.054890685 -0.035208672
0001c0 c5 b1 02 bd 76 c7 b5 bc 06 ef b3 3c d2 d9 07 be
       -0.031907815 -0.022189837 0.021964561 -0.13266686
0001d0 cf 16 d2 bc b7 08 0c 3d 8f d9 4c 3d df cb 29 3d
       -0.025645642 0.034188 0.050012168 0.041454192
0001e0 00 82 17 3c 15 fb 01 bd 49 97 22 3d 68 7e ca bc
       0.009247303 -0.03173359 0.039695058 -0.024718478
0001f0 31 e6 f9 bc 07 e4 ef 3c 40 42 12 bd 41 f3 62 bd
       -0.030505272 0.029283537 -0.035707712 -0.055407766
000200 5b 94 34 bd f4 60 50 bd 01 e5 bb bd b2 d1 6d bd
       -0.044086795 -0.05087371 -0.091745384 -0.05806131
000210 23 79 21 bd 61 55 7c bd 63 9f 0f 3c d4 43 6a 3d
       -0.039422166 -0.06160486 0.008766028 0.057193592
000220 8d 65 33 3d 35 49 14 3b 3c fe ed 3c 13 b8 c7 bd
       0.04379802 0.0022626643 0.029051892 -0.09751906
000230 69 e4 18 bd d1 a6 1e 3c 60 21 ed bc e8 e4 c7 bd
       -0.037327204 0.009683327 -0.028946579 -0.09760457
000240 22 55 4e bd 37 b4 fb bd f7 ed 2a bd 48 98 5f bc
       -0.050374158 -0.12290233 -0.041730847 -0.0136471465
000250 cc 84 b4 bd 0f e2 c1 bd 9f cf ad bc 30 b7 c5 bd
       -0.088143915 -0.094669454 -0.021217166 -0.09654081
000260 fe 10 8d bc 26 a5 7c 3b 2e bb e2 3c bc 36 94 3b
       -0.017220017 0.0038550585 0.027677145 0.0045231264
000270 f8 bc 98 3c 4c 07 db bc 85 43 43 3c 5f a7 6f bd
       0.018644795 -0.026736878 0.011917953 -0.058509227
000280 13 88 f9 3d 46 fd c4 bc c4 ae 87 bd bf 33 05 3d
       0.12184157 -0.024046551 -0.06625131 0.032520052
000290 0f 8f 4d bd 87 e2 79 bd 57 bb 27 3e 2f 8b 3f bc
       -0.05018526 -0.06100705 0.16380058 -0.011690899
0002a0 a4 21 82 bd d1 c7 00 be cc 10 55 bd e4 14 44 bc
       -0.06354073 -0.12576224 -0.052017972 -0.011967871
0002b0 ae 61 d6 bc a5 8d 17 3c 2f ba 8b 3d 3f ca 58 3d
       -0.026169624 0.009250079 0.06822621 0.052927252
0002c0 9b f3 66 ba 1e 37 14 bd 35 88 90 3c 5d 58 17 bb
       -0.0008810104 -0.036185376 0.017643074 -0.002309344
0002d0 4b 92 c3 bc f7 a8 9a 3d 88 5d 2c 3d fa 5d 1f 3d
       -0.023873469 0.07551759 0.042081386 0.038907982
0002e0 9f c9 92 bc 6d ff b7 ba 01 7d 22 3e aa 86 98 bd
       -0.017918406 -0.0014037915 0.15867998 -0.0744756
0002f0 76 f0 88 3d ba 52 92 bc 6e b5 56 bc c4 f1 9c bd
       0.06686489 -0.017861713 -0.01310478 -0.07663301
000300 a1 6f cb bd 8b e1 a9 bd 43 85 80 bc 7e a9 8e bd
       -0.09933401 -0.08294972 -0.015688544 -0.06965922
000310 92 4c f6 bb 6f 93 aa bd c6 7c fa bc 67 bd 9b 3d
       -0.007516452 -0.08328902 -0.030577075 0.07604485
000320 3f 29 06 bd fa 2d b4 bc d6 4f 09 3e ae 0b b3 3c
       -0.03275418 -0.02199458 0.13409361 0.021856155
000330 9c 90 85 3c 35 bc 9c 3d 31 8d b6 bc a3 33 94 3c
       0.016304307 0.07653085 -0.022284122 0.018091029
000340 b4 8a 81 3c 40 bc c1 3c ad c2 a3 3c ac b9 89 3e
       0.01581321 0.023649335 0.01999029 0.2689947
000350 c9 c1 5f 3b 51 85 f0 bc b3 b1 bd 3d 4e da c1 bb
       0.0034142605 -0.029360445 0.09262409 -0.0059159165
000360 f2 9c 1c 3d 27 c7 c6 3c 77 c8 9f bc cc 5a 0d 3c
       0.038235612 0.024264885 -0.019504769 0.008627605
000370 23 b9 05 be 8e eb 28 3c 1e c2 36 bd b3 cc cd 3c
       -0.13058905 0.010310067 -0.04461872 0.025122022
000380 4e 66 b0 3b 16 62 e2 3b b6 15 3e 3d 6f dc 03 3a
       0.0053832894 0.0069086654 0.046407424 0.00050301006
000390 af b9 b9 3c 3e da 97 3d 90 7c 13 3d b5 2b 5f bd
       0.022671549 0.07414673 0.036007464 -0.05448504
0003a0 70 05 4c 3c 98 48 81 3d e0 9a cd 3c 91 de 55 bd
       0.012452468 0.06312674 0.025098264 -0.05221421
0003b0 47 12 de 3a 29 4f 39 3d 23 64 26 3e 97 c0 07 3b
       0.0016942703 0.04524151 0.16249137 0.0020714158
0003c0 b1 85 00 3d 54 15 99 3d 30 7f ef 3b 64 20 df 3c
       0.031377498 0.07474771 0.007308863 0.027237125
0003d0 45 20 8e 3d 82 10 9d 3c 99 ca 84 3d 06 e7 ac 3e
       0.06939749 0.01917291 0.06483955 0.33770007
0003e0 97 f0 85 3d 4b b2 57 3a 3a ec 8c 3d bc f7 81 3c
       0.065400295 0.0008228167 0.06880994 0.0158652
0003f0 a9 9b 8f bd cc 51 d2 bc 9e 0c 46 bd 72 b9 c4 bc
       -0.07012112 -0.02567377 -0.048351876 -0.024014208

bias f4 [13]
000000 4b c9 68 3d 6d 64 57 3d 6b 32 d2 3c 4c d1 04 80
       0.056832593 0.052586008 0.025658807 -4.42424e-40
000010 f5 56 e3 3c cc 07 cb 3c a6 19 ac 3c 48 95 d9 3c
       0.027751425 0.024783991 0.021008324 0.02656044
000020 d0 d4 d8 3c 1a ac 62 3d 6e cd 6d 3c dd 0d ed 3c
       0.026468664 0.05533991 0.01451431 0.028937275
000030 78 62 b5 3c
       0.02214168

weight f4 [13]
000000 67 05 32 3f 01 f8 33 3f 70 76 eb 3e 47 b9 58 bb
       0.69539493 0.703003 0.45988798 -0.0033069418
000010 0b 64 ae 3e 23 53 d9 3e 03 e8 9d 3e 57 88 84 3e
       0.34060702 0.4244624 0.30841073 0.2588527
000020 6e 03 9f 3e 79 81 59 3f 20 f8 8d 3e 56 a9 b4 3d
       0.31057304 0.84963185 0.27728367 0.08821361
000030 10 bd 8d 3e
       0.27683306

bias f4 [13]
000000 3e 91 c5 bd b1 ec 93 bd 94 34 08 3e 84 04 08 bd
       -0.096468434 -0.0722288 0.13301307 -0.03320743
000010 c2 26 b5 bd a6 7b a3 bd 2e 44 6a be bb b6 9b bc
       -0.08845283 -0.079825684 -0.22877571 -0.019008031
000020 dd 9c c2 bd fa c1 2b bd 0b 82 fb 3d 95 f8 63 bd
       -0.095025755 -0.041933037 0.12280663 -0.05565699
000030 5a 27 1f 3d
       0.038855888

running_mean f4 [13]
000000 70 7d 51 be 16 87 b1 3a 05 1d 55 bc 89 3b 0a 39
       -0.20458007 0.0013544287 -0.013007407 0.00013182884
000010 ee d2 3b 3e 0d 76 87 be 3b 3e a6 be 58 6a 56 be
       0.18342182 -0.26457253 -0.32469353 -0.20939004
000020 18 6c 06 bf 14 f9 1d 3e c2 05 38 be ac 36 98 bd
       -0.5250869 0.15427047 -0.17970946 -0.07432303
000030 6d aa 37 3e
       0.17936106

running_var f4 [13]
000000 d3 da b5 3d 00 df d9 3d 3f ba 2b 3e ff 4a 9c 32
       0.08879628 0.10638237 0.16770266 1.8194894e-08
000010 2a 3e ac 3d 89 e6 12 3e 0f 67 e5 3d 92 14 43 3d
       0.08410294 0.14345755 0.112012975 0.04762704
000020 c7 c0 a3 3d 88 f9 03 3e 19 18 61 3e e5 21 93 3b
       0.07995754 0.12888157 0.21981849 0.0044901245
000030 f1 3f c7 3d
       0.09728993
