pre-trained-tp2/tiny_DnCNN_n2n_l1_usp_2000.pt (torch, 158469 bytes, 87 tensors)

dncnn.0.conv.weight f4 [13, 1, 3, 3]
000000 64 00 9e 3d 31 26 dc 3d 76 00 c7 3d 74 c0 dc b9
       0.07714918 0.10749472 0.09716885 -0.0004210506
000010 00 f6 3d bf dc e6 78 3d e1 59 b2 3d db b0 0f 3e
       -0.7420349 0.06076704 0.08708549 0.14032309
000020 63 8b d3 3d df 40 12 bd b4 c8 8a bd 44 01 05 bd
       0.1032932 -0.035706397 -0.06776562 -0.03247191
000030 1c 55 eb bd bc 20 d6 3e c1 d2 ac bd 28 3e 0f bd
       -0.11490843 0.4182185 -0.084386356 -0.034971386
000040 a8 a8 62 bd 34 66 dd bc ad 7e 1a bd 5d c2 b4 bd
       -0.055336624 -0.027026273 -0.037718464 -0.08826134
000050 e7 75 ae bd 40 c2 ea bb 3e 43 9c bd 04 84 d0 bd
       -0.08518582 -0.0071642697 -0.07630013 -0.1018143
000060 2f 43 f5 3e f6 fe da bc e0 39 51 bd 41 97 0d 3d
       0.4790282 -0.026732903 -0.051080585 0.034568075
000070 a9 20 c7 3d cd 0e 9e 3d 9d 0e b3 3d 0c 37 14 bf
       0.09723026 0.07717667 0.08743022 -0.57896495
000080 8e 10 fd 3d 68 73 9f 3d 6e 68 e2 3d dc b2 c9 3d
       0.12356673 0.07785684 0.11055075 0.09848568
000090 3c 1d c3 3b ed 9e 6e 3c 50 22 77 3c c1 c9 09 3c
       0.0059544127 0.014564258 0.015083864 0.008409918
0000a0 ad 60 02 3f 2d d4 15 bf 4f cf 86 3b 24 67 11 3c
       0.50928766 -0.5852688 0.0041140686 0.008874688
0000b0 73 47 19 3c a9 b3 46 bd 77 b0 b8 bd d1 5e bb bd
       0.009355414 -0.04851118 -0.09018033 -0.09148944
0000c0 ee f8 c7 3b 09 6b 2b 3f 33 88 53 bd bb b8 88 bd
       0.006102673 0.669602 -0.05164356 -0.066758595
0000d0 45 df f1 bd cd ee d8 bd b2 97 2b 3b 87 51 4c ba
       -0.118101634 -0.10592423 0.0026182947 -0.0007794131
0000e0 02 5c 9c 3a 60 54 f3 3a b3 d1 73 3c 41 0b bb 3a
       0.0011929276 0.0018564574 0.014881539 0.0014270322
0000f0 d6 7a 89 3b 1a 77 ee be e7 af e8 3e 7e 9e 11 bf
       0.0041955514 -0.46575242 0.45446703 -0.56882465
000100 4a 3f 99 3d b6 9f 12 3d 01 4f b2 3d f5 32 cf 3d
       0.074827746 0.035796843 0.08706475 0.10117141
000110 12 c4 66 3d 59 1c 08 3e 8a 7b c5 3d 60 db 66 3d
       0.05633933 0.13292064 0.09642704 0.056361556
000120 a7 0a c4 bc e8 fb 18 3c 89 62 1c 3c 9e ac 8f 3e
       -0.02393086 0.009337403 0.009544977 0.28061384
000130 cc dd 29 bf e1 2d b2 bd e3 02 64 3d 1a 20 22 3e
       -0.6635406 -0.08700157 0.055666815 0.15832558
000140 27 de 17 3d 6a 8a b2 be fe 33 c4 bc ca 52 3f bc
       0.037077095 -0.34871227 -0.023950573 -0.011677453
000150 9d 15 91 bc a8 8b ef 3e a2 e2 f1 bc 00 d0 f1 bc
       -0.017710501 0.46786237 -0.029527012 -0.029518127
000160 a6 3b a9 bc 6d 8e 51 bc 68 19 23 3c 7b 4f e6 3e
       -0.020658325 -0.012790305 0.009954788 0.44982514
000170 a9 8b 88 3c 8b 88 9f bd f2 6d cb bd 09 cd a9 bd
       0.016668158 -0.077897154 -0.0993308 -0.082910605
000180 3f 98 dc bd ed 95 02 be ce ec f2 bd e7 51 55 3d
       -0.10771226 -0.12752505 -0.11861573 0.05208006
000190 95 ee aa bc 1e b4 83 bd 8d d7 bc 3d e1 76 18 be
       -0.020865718 -0.06430839 0.092208005 -0.14889099
0001a0 ac 56 17 be 50 7d 02 bc d6 75 23 be 5a 47 57 be
       -0.14779156 -0.007964447 -0.1596292 -0.21023312
0001b0 e3 62 95 bd 82 6f 8f ba c4 92 5e 3d b5 86 ec bd
       -0.07294252 -0.0010943266 0.054339185 -0.11549131
0001c0 30 0a 26 3e 05 71 2b 3e 01 b0 24 3d 58 52 47 3e
       0.16214824 0.16742332 0.040206913 0.19465005
0001d0 ad d8 84 3e
       0.2594656

dncnn.0.conv.bias f4 [13]
000000 bf e7 82 3d 49 ea d3 3d a7 96 1c 3d 15 ef b8 3d
       0.06391858 0.10347421 0.03822961 0.09029976
000010 ee 05 59 3d f0 c3 78 3d 92 7b 8a 3d ad e4 19 3d
       0.05298417 0.060733736 0.067618504 0.037571598
000020 4f 9a 06 3d 44 16 23 3d 28 d0 21 3d 7b 27 10 3d
       0.032862004 0.039816156 0.039505154 0.0351939
000030 c1 f1 21 3d
       0.039537195

dncnn.0.bn.weight f4 [13]
000000 d7 48 e2 3e cc 91 d4 3e 31 fe 46 3e 00 a6 10 3f
       0.44196197 0.41517484 0.19432904 0.56503296
000010 c7 33 cd 3e 6f bf ca 3e 46 ac ce 3e 60 37 57 3e
       0.40078565 0.39599177 0.4036581 0.21017218
000020 05 7f 70 3e c1 04 60 3e 14 1a 4b 3e ab ce 37 3e
       0.23485954 0.21876813 0.19834167 0.17949931
000030 52 a3 54 3e
       0.20765427

dncnn.0.bn.bias f4 [13]
000000 5a 83 0e 3e d6 2f ad be 93 86 30 3e d3 9b 04 bf
       0.13917294 -0.33825558 0.17238836 -0.5180027
000010 58 dd a7 3d 07 14 f9 bd 7e a1 b9 3d e5 b4 09 3e
       0.08196515 -0.12162023 0.09064005 0.13447912
000020 01 a6 4f 3f 94 e6 03 3e 40 c7 40 3e 05 01 b9 3c
       0.81112677 0.12880927 0.18826008 0.022583494
000030 23 59 1c bd
       -0.038170945

dncnn.0.bn.running_mean f4 [13]
000000 fd 5b a6 3c e7 57 c1 3d ad ed 13 3d 0b f8 0c 3e
       0.020307535 0.09440594 0.036115337 0.13766496
000010 c3 d4 5d 3d a3 cf f1 3d 16 31 8d 3d aa 28 99 3d
       0.054157984 0.11807182 0.06894128 0.07478459
000020 ef 6f 9b bd 64 a2 1a 3d a4 0c ab bc 48 1f 75 be
       -0.07589709 0.037752524 -0.020880051 -0.23937714
000030 3c 67 b1 3e
       0.34649074

dncnn.0.bn.running_var f4 [13]
000000 a6 86 00 3d a7 5a 29 3c 8e 8b 77 3c 11 81 a9 3c
       0.03137841 0.010336555 0.015108956 0.020691426
000010 68 d8 f8 3c ac 21 d0 3c d0 18 aa 3c b7 e0 a7 3c
       0.030376628 0.025406681 0.020763785 0.020492895
000020 13 66 ea 3c 77 0d 94 3c b5 c3 7f 3c 13 8e 6a 3c
       0.028613126 0.018072827 0.015610625 0.0143161
000030 c3 49 9e 3c
       0.019322282

dncnn.1.conv.weight f4 [13, 13, 3, 3]
000000 f1 8e 1a 3e 84 ee e3 3d 66 41 b7 3d 11 20 ca 3d
       0.1509359 0.111294776 0.08948021 0.098693974
000010 29 93 35 3e 5d 99 f7 3d 41 18 e6 bc 26 26 47 3d
       0.17731918 0.120897986 -0.028087737 0.048620366
000020 b7 c4 f6 bd f2 1f 6d 3d 3a 53 f6 3d ac 6a 9d 3d
       -0.12049239 0.057891794 0.12027593 0.07686362
000030 1d 85 8b 3d b6 17 06 3e da 39 f8 3d 52 f3 a7 3c
       0.06812499 0.13094983 0.12120409 0.020501766
000040 65 33 d2 bd 08 0c de 3c 0a b0 05 be bf 70 8c bd
       -0.10263709 0.027105346 -0.13055435 -0.06857442
000050 21 94 0c 3d f8 7a c9 bd 9f 49 cd bd 88 7b 0f 3e
       0.034320954 -0.098379076 -0.10023808 0.14011967
000060 2d 44 2a bd 21 b0 ce bc 77 11 c2 3b 4c 36 c2 bd
       -0.041568924 -0.02523047 0.005922492 -0.094830126
000070 70 25 14 be 57 9a 00 be dd 65 fc bd 02 32 01 be
       -0.14467406 -0.12558876 -0.123241164 -0.12616733
000080 7a a7 d7 bd 2c d4 5f bd 81 1b fd bd ca f1 59 bd
       -0.105299905 -0.054645702 -0.123587616 -0.053209104
000090 fc 7f 5d 3c 45 d9 3a 3c 59 f3 e1 3c b0 52 52 bc
       0.013519283 0.01140434 0.027581858 -0.012837097
0000a0 ee 35 2f 3c bd 71 14 3c 0d 0d 69 bd 18 b4 c3 3e
       0.01069401 0.00906032 -0.05689721 0.38223338
0000b0 5e de 2e 3d 7a cc 9a bd e8 4e aa bc 8d 61 5d 3c
       0.042692535 -0.07558532 -0.020789579 0.013512027
0000c0 54 e5 54 bd ff cf d8 bd b7 85 48 bd ca 00 28 3c
       -0.051976517 -0.10586547 -0.048955645 0.010254094
0000d0 ad 84 94 3c ec 40 fd 3d 1b 84 56 3c fb cb 12 bd
       0.018129671 0.123658985 0.01309302 -0.035839062
0000e0 63 87 a4 bc 23 d8 20 3e 58 1f b5 be 0c 6c 72 bd
       -0.020084089 0.1570745 -0.35375476 -0.059185073
0000f0 bb 98 b2 3b 00 68 1c bb 3f 42 25 3b f6 ad bb 3d
       0.005450336 -0.00238657 0.0025216488 0.0916404
000100 e4 af f7 3d 5b 28 c6 3d 22 dd b4 3d 72 9d 95 3d
       0.12094095 0.09675666 0.0883124 0.07305421
000110 1b be 81 3d 09 6f 53 3d 66 b3 95 bb 44 cc ca b9
       0.06335088 0.051619563 -0.004568505 -0.00038680632
000120 46 fa 97 bc ff fe f1 3d 60 a8 83 3c 5e 59 ac 3c
       -0.018551957 0.11816215 0.016071498 0.021038707
000130 6d 4a 98 bc 22 3b 88 bd c5 cf 66 bd 17 06 22 be
       -0.018590176 -0.06651904 -0.05635049 -0.15822636
000140 ec 12 09 be 85 20 01 bd 98 19 7e bd 2f 54 a6 bd
       -0.13386124 -0.031525154 -0.062036127 -0.081215255
000150 0e 95 0c bc bc aa 43 bd 4b be aa bd d3 58 ae bc
       -0.008580459 -0.047770247 -0.08337077 -0.021282589
000160 f7 11 df 3d d6 9b 71 bd 6a 83 c0 bd fe a3 33 be
       0.108920984 -0.058986507 -0.09400065 -0.17543027
000170 2e 20 e3 bd 4a 62 f1 bd 51 a6 d2 bd 44 b0 01 be
       -0.11090122 -0.11786325 -0.102856286 -0.12664896
000180 0f 14 93 bd 1e b8 bd bd 53 83 db bd 0c c1 46 3d
       -0.0718156 -0.09263633 -0.107184075 0.048523948
000190 75 f1 a4 3d 4b 28 d4 3d 3a af 89 3d 7a 34 e4 3d
       0.08053867 0.10359248 0.06722875 0.111428216
0001a0 0d d7 48 3a 66 8b c9 3c 31 c3 de bc 03 d8 6b bd
       0.00076614396 0.024602603 -0.027192684 -0.05757905
0001b0 bb 80 81 bd 5e dd d0 bd 73 c2 65 bd 33 d0 28 bd
       -0.063233815 -0.101984724 -0.056093644 -0.04121418
0001c0 25 05 50 bd 94 2d 51 3c be 65 bc bc 24 cc 1c 3d
       -0.050786156 0.012767214 -0.022997733 0.03828062
0001d0 04 20 21 bd 93 35 29 bb 4b 06 25 bb f7 d3 7d 3c
       -0.039337173 -0.0025819286 -0.0025180753 0.015492431
0001e0 85 fb 85 3d 45 d3 61 3e 08 7a 77 3d fa 3c b0 3b
       0.06542114 0.22053249 0.060419112 0.0053783627
0001f0 80 8a 01 be bc 8e 51 bd e2 ac 3a bc 9d 1e 72 bd
       -0.1265049 -0.051161513 -0.011393758 -0.059111226
000200 c1 38 e3 bc 01 b3 44 bd 9e 5d 17 3e 5d e3 0e 3d
       -0.027737023 -0.048022274 0.14781806 0.0348848
000210 3f 67 54 3d 8c 6d 14 bc 34 d4 d7 3d 99 7e 88 bb
       0.051856276 -0.009059321 0.105385214 -0.0041654822
000220 45 5c f7 bc 35 ce 97 3d a2 a4 0e bd fe 9f 63 3d
       -0.030195365 0.07412378 -0.034824975 0.055572502
000230 44 c7 5d 3d 0a 08 41 bd 68 b1 83 bd b1 6e 80 bd
       0.054145113 -0.047126807 -0.06430322 -0.06271113
000240 79 3c 32 bc 7e b8 a4 3b ac 6d 77 bc 8d 1d 16 3b
       -0.010878676 0.005026876 -0.015101831 0.0022905797
000250 d9 d9 5c 3d 43 61 a4 bc 2d 38 71 bd 61 58 b9 bb
       0.053918693 -0.02006591 -0.058891464 -0.0056562875
000260 09 3c 0e bd 8a e5 02 3d de 0b 8d 3c 9c 2b 10 3c
       -0.034725223 0.031957187 0.017217573 0.00879946
000270 b3 e5 e8 3d 85 ab bf bd 63 43 b4 3b 03 a5 84 be
       0.11371937 -0.09358887 0.005501197 -0.25907144
000280 7a 56 18 3e 67 af a4 3b 58 ea b0 3c d9 c6 fe 3b
       0.14876738 0.0050257924 0.021596119 0.0077751693
000290 74 f5 2b 3c 55 42 63 bd c4 62 45 bd b2 2f a7 bd
       0.010495532 -0.05548318 -0.048189893 -0.08163394
0002a0 9c 12 13 3b 8a 17 13 3e 5a 72 55 3d b9 eb 2f be
       0.0022441512 0.14364448 0.052111007 -0.17179765
0002b0 1a 08 95 3d 15 a7 b9 bc 47 11 42 3e 0f f0 8c be
       0.07276936 -0.022662679 0.18951903 -0.275269
0002c0 a9 95 20 bd 0e db 8e bc 59 e4 13 bd 9f 3b 5d bc
       -0.039205227 -0.017438438 -0.03610644 -0.013502984
0002d0 45 9d 8b bb 10 66 ad 3c d9 3d cb 3b 5e 97 ae 3c
       -0.0042606913 0.021166831 0.006202441 0.021312412
0002e0 84 ae 8f 3c c1 e3 ae 3c 41 9e 04 3d bf bd 76 3d
       0.01753927 0.021348836 0.032377485 0.06023955
0002f0 bf 25 52 3e 6c ed 6b 3c c6 7b ed 38 f9 b2 b0 3c
       0.20522211 0.0143998675 0.00011324095 0.021569716
000300 5a b1 53 3d 7e c7 bd 3e a4 ff a3 bc d1 13 70 bd
       0.051682808 0.37066263 -0.02001936 -0.05861265
000310 e3 76 3d be 4d 0e d3 3d 2a 2b 58 bc 86 80 12 bd
       -0.18502383 0.10305462 -0.013193885 -0.0357671
000320 ea b2 99 bb f0 e0 22 bc 84 0f c6 bd 50 3e 09 bd
       -0.0046905177 -0.009941325 -0.09670928 -0.03350669
000330 be 22 a8 3a a3 ce e7 3d 23 78 93 3d 21 e0 45 3c
       0.0012827737 0.1131871 0.07200649 0.012077362
000340 f8 c9 65 3c 37 f9 c5 bb 43 f3 d9 bd b3 e0 20 bd
       0.014025204 -0.0060416716 -0.106421016 -0.03927679
000350 77 6d b6 bb 02 9b 11 be 70 09 f1 bc cf ea 85 bd
       -0.0055672484 -0.14219287 -0.029423445 -0.06538927
000360 58 89 87 3d dd fe 5b 3d 97 83 fc 3b 60 52 cc 3c
       0.06617993 0.053709853 0.0077061164 0.024941623
000370 3f c6 6a 3d df 53 52 bc 1b ed 8d bd 6f ff 81 bc
       0.05731797 -0.012837379 -0.0692999 -0.01586887
000380 43 ce f8 3c e9 30 a1 3c b4 6c 37 3d 88 48 91 3c
       0.03037179 0.019676642 0.0447814 0.01773478
000390 66 df 95 3d 7b c3 29 3d f4 e6 b8 3c c3 47 52 bc
       0.073180005 0.04144619 0.022571065 -0.012834492
0003a0 19 49 2c bc 83 92 96 bd e1 60 e0 bc dd 14 06 bc
       -0.010515475 -0.07352164 -0.027389945 -0.008183685
0003b0 26 02 bf bc 30 81 50 3b 2e 53 84 3e 7b 38 01 be
       -0.023316454 0.0031815283 0.2584471 -0.12619202
0003c0 ad 49 ac 3d de a2 1a 3d 62 0c 62 bd 18 92 01 be
       0.0841249 0.03775298 -0.05518759 -0.12653387
0003d0 1d c6 44 bd 8a 65 88 3c 54 0d a2 bd 25 a4 9d 3b
       -0.048040498 0.01664998 -0.079126984 0.0048108273
0003e0 87 02 a0 3d 01 38 aa bd 8c 05 bb 3d 00 58 44 3d
       0.07812982 -0.08311463 0.09131917 0.047935486
0003f0 95 2e a0 3d 31 39 a8 3d d6 20 9b 3d cd 16 86 3d
       0.07821385 0.082140334 0.07574622 0.06547318

dncnn.1.conv.bias f4 [13]
000000 01 e8 08 3d 59 75 c4 3c 39 f7 9c 3c ce 54 b2 3c
       0.03342438 0.023981737 0.019160854 0.021768954
000010 94 d3 5e 3d de 66 3b 3d a5 7b 7b 3d f0 31 70 3d
       0.054400995 0.0457524 0.061397213 0.058641374
000020 24 e3 8a 3d 9a 1d d7 3c ea 61 ff 3c 89 b5 94 3c
       0.06781605 0.026259232 0.031174619 0.018152969
000030 72 45 9b 3c
       0.018954013

dncnn.1.bn.weight f4 [13]
000000 c1 aa b5 3e cc 3a bd 3e e3 8d 36 3e f5 3f a8 3e
       0.35481837 0.3695892 0.17827563 0.32861295
000010 b5 65 12 3f 9a 34 38 3e e0 3a 22 3f 27 74 12 3f
       0.5718644 0.17988816 0.63371086 0.57208484
000020 16 76 db 3e 5c 31 cf 3e 7f 69 cc 3e f0 7b b1 3e
       0.4286353 0.40467346 0.39924237 0.3466487
000030 9c 0f 4d 3e
       0.20025486

dncnn.1.bn.bias f4 [13]
000000 c6 20 ed 3d 07 51 cd 3d 06 d2 6c 3e aa d7 0b 3e
       0.11578517 0.1002522 0.23126993 0.13656488
000010 f6 47 70 be b0 17 7e 3e 82 a1 b2 be b0 0b 8e be
       -0.23464951 0.24813724 -0.34888846 -0.27743292
000020 fa 1c 25 bf 78 b0 56 3e ab f0 09 be ca e3 03 3e
       -0.6449734 0.20965755 -0.13470714 0.12879863
000030 41 2e 36 3f
       0.7116433

dncnn.1.bn.running_mean f4 [13]
000000 35 7f 6f be 09 71 81 3e 38 0a 44 be 77 8f a5 3e
       -0.2338837 0.2528155 -0.19144523 0.32336017
000010 64 54 8c 3d 62 f4 de bc a4 1a cc bc 7b 0c a4 bd
       0.06852034 -0.02721614 -0.024915047 -0.08010193
000020 97 da 82 3e 02 9c c4 3d e7 ca 09 be cf 0a 28 be
       0.25557396 0.09600069 -0.13456307 -0.16410373
000030 eb fd eb be
       -0.46092162

dncnn.1.bn.running_var f4 [13]
000000 46 e5 88 3d 4c 7e 1f 3e b7 68 2c 3d 72 95 fa 3d
       0.066843554 0.15575522 0.04209205 0.12235536
000010 6f e5 80 3d 4d 8c 06 3c 28 7f 81 3d eb 73 28 3d
       0.06293761 0.008212161 0.06323081 0.041126173
000020 76 60 a4 3c 95 04 10 3e af 93 c0 3d fb a0 4f 3e
       0.020065527 0.14064248 0.094031684 0.20276253
000030 e2 9c 91 3d
       0.07110001

dncnn.2.conv.weight f4 [13, 13, 3, 3]
000000 2c 2f 1f 3e b0 d2 af 3d 1a 67 d6 ba a5 17 dc bd
       0.15545338 0.08585107 -0.0016357631 -0.10746697
000010 36 b8 e1 bd dd bc 08 be e1 77 2d be 5f 7a 58 be
       -0.110214636 -0.13353296 -0.16940261 -0.21140431
000020 8f 5e 36 be 7c b3 58 bd ff 05 d5 3c 2a 58 63 bd
       -0.17809509 -0.052905545 0.026003836 -0.055504
000030 5b 14 4a bd 3a c6 e8 bd 45 4c 29 bd a3 71 bc bc
       -0.04933582 -0.11365934 -0.041332502 -0.023003405
000040 96 25 8c bd 9b 03 21 3b 70 69 ea 3c 5b fb 8f 3b
       -0.068431064 0.00245688 0.02861473 0.0043939776
000050 98 fc 34 bd 22 36 a2 bd 1e c2 9c bd b9 1a 35 bd
       -0.044186205 -0.07920481 -0.076542124 -0.044214938
000060 35 79 6a bc 59 73 91 3c fe a7 14 bc 56 f4 92 3c
       -0.014311125 0.017755197 -0.009073256 0.017938774
000070 74 7f d2 3c 18 a1 ce 3c 00 54 71 bc da 44 94 be
       0.02569554 0.0252233 -0.0147295 -0.2895878
000080 7d 05 ca 3d ab 4d 6b bc 52 bb 14 bd 3c 05 0f 3d
       0.09864328 -0.014361779 -0.036311455 0.0349171
000090 cf 08 e5 3d 32 b0 02 3d 47 82 98 bc 1d 3f d4 3d
       0.11183321 0.031906314 -0.018616809 0.103636004
0000a0 d1 59 ef bd 38 5b 56 bd e3 d0 69 3b cf f2 09 be
       -0.11687053 -0.052333087 0.0035677485 -0.1347153
0000b0 25 c6 16 bd bd a6 f0 3b fc a6 a5 bc ad 6b 45 bd
       -0.03681006 0.0073440955 -0.020221226 -0.04819839
0000c0 a2 0a 1b 3d aa 60 13 be d9 0f 46 be 72 b1 d7 3c
       0.037851937 -0.14392343 -0.19341983 0.02632973
0000d0 7b 55 a2 bd 5f 0f cc bd 3e 8d 2a bc ca 08 a4 3d
       -0.0792646 -0.09963869 -0.010409651 0.08009489
0000e0 db e0 e3 3d 67 f7 bd 3d ff 25 50 3e 21 85 72 3e
       0.11126872 0.09275704 0.20326994 0.23683597
0000f0 f4 75 26 3e ad 7c 7b 3e 86 2d 1c 3e b3 4e 5b 3d
       0.16255933 0.24559279 0.15251741 0.05354185
000100 8c 3c 77 3e e0 6e b2 ba 9e 96 cf 3c 24 7f 12 3d
       0.2414419 -0.0013613366 0.025340375 0.035765782
000110 2e c9 8d 3c 40 9d ba bc fe 30 17 3d 62 04 59 3b
       0.017307844 -0.02278006 0.036911957 0.0033114185
000120 74 ed 36 bd b6 41 18 bd 58 4c 88 bc 49 eb 54 bd
       -0.044660047 -0.03717204 -0.016637966 -0.051982198
000130 26 72 19 3d 13 4a 87 bd b2 a6 d5 bc 10 b2 0f bd
       0.037462376 -0.066059254 -0.026080463 -0.035081923
000140 2e 67 3f bc ad d8 87 bc e0 cf 5f bd b0 99 26 3c
       -0.011682315 -0.016582811 -0.054641604 0.010168478
000150 ab 4c 13 3d 41 bb 3d be e2 af d3 3c 3b 8e e8 bc
       0.03596179 -0.18528463 0.025840703 -0.028388133
000160 80 8b b2 bc 00 f8 a3 3d 03 3d 98 bb f6 63 3b 3d
       -0.021795034 0.080062866 -0.004645945 0.045749627
000170 2b 44 82 3d 89 4b 36 3e 1b 50 fd 3e 6d cc f6 3d
       0.06360658 0.17802252 0.49475178 0.1205071
000180 16 a3 39 3e 2f 4e de 3d e2 21 83 bb 62 d1 c1 3d
       0.18128619 0.10854756 -0.004001842 0.09463765
000190 90 45 f3 bd 07 52 4d 3c 49 eb 18 bd 01 25 94 3e
       -0.11878502 0.012531764 -0.03733376 0.28934482
0001a0 10 9f 24 bd d0 4f d7 bc e2 4f ab bd 38 0e 82 bd
       -0.040190756 -0.026283175 -0.08364846 -0.06350368
0001b0 1d d8 46 3e ac b5 d3 ba 73 86 a3 3c f1 bf 5a 3e
       0.19418378 -0.0016152165 0.019961571 0.21362282
0001c0 9a 22 54 be 88 dc 53 bd fc 73 a4 3d a3 80 4e 3e
       -0.20716324 -0.051723987 0.08029935 0.20166259
0001d0 c6 93 49 3d 56 b0 49 bd 5a 0d 1b bd d4 6e 0d bd
       0.049213193 -0.049240433 -0.03785453 -0.034529522
0001e0 a6 10 be bd 3f e1 97 bc 49 a1 91 bd d5 70 3c bb
       -0.09280519 -0.018540023 -0.07110841 -0.0028753777
0001f0 ac 68 48 3d 1f 57 6a 3c af ac a3 3c 92 dc 9e 3d
       0.048927948 0.014302998 0.019979803 0.07756914
000200 4d c1 9b 3b 17 57 48 bc a1 ec 1a bc 8f 74 13 bd
       0.004753268 -0.012227795 -0.009455831 -0.03599983
000210 4a 04 af 3c c8 40 c9 3a 16 ec 3b 3d 28 b7 9c bc
       0.02136435 0.0015354389 0.045879446 -0.019130304
000220 51 09 db 3d da 74 e0 3c 87 5b 37 3d 68 d6 aa ba
       0.10695136 0.02739947 0.04476502 -0.0013033869
000230 37 6e d9 3d 9b cd 09 3d f0 25 7f 3e 75 2f bf bd
       0.10616725 0.033643346 0.24916816 -0.093352236
000240 09 81 d4 bc 63 25 88 bd 62 a5 bf bc 0b 50 d3 bc
       -0.025940435 -0.06647756 -0.02339429 -0.025795003
000250 2f 60 23 be ac c9 5e bd cf a7 8e bd 5a af 78 3e
       -0.1595466 -0.054391548 -0.06965601 0.24285641
000260 d1 22 d8 bd 33 3e 44 3d f9 8e a6 3d 9d 76 be 3c
       -0.10553516 0.04791088 0.081327386 0.023249919
000270 33 12 ff 3d 43 cb 02 3e 48 d6 45 3d 3e e9 a5 bd
       0.12454643 0.1277285 0.048300058 -0.08101128
000280 53 ae a4 3d 0a a4 e0 3c fc 57 c3 bb fe c7 88 bc
       0.08041062 0.02742197 -0.0059614163 -0.016696926
000290 08 d8 98 3c 70 5d c4 bc 2b f0 28 bd 33 8e 9e 3d
       0.0186577 -0.023970336 -0.041244667 0.07741966
0002a0 26 31 2a bd 2e b1 a3 bc 56 a1 56 3d 00 ce 41 3d
       -0.041550778 -0.019981947 0.052399956 0.047315598
0002b0 44 b2 18 3c 02 52 e6 3c 18 1e 1c bd 23 41 3d be
       0.009319846 0.028115276 -0.038114637 -0.18481879
0002c0 85 93 3d 3d 9f e0 95 bc 3a 51 15 bd 8f 6e f1 ba
       0.046283264 -0.018295584 -0.036454417 -0.001841979
0002d0 a7 64 d7 bc 01 72 40 bd ca 32 fa 3c 10 ec e8 3d
       -0.026293112 -0.046983723 0.030541796 0.1137315
0002e0 94 41 66 be 5d bc 7e 3c 1d 68 81 3d ad 57 88 3c
       -0.22485954 0.015547839 0.06318686 0.01664337
0002f0 07 f7 30 3d 5a 3e dd bc dc 99 4f bb 68 b9 4c 3b
       0.043204334 -0.02700727 -0.00316774 0.003123844
000300 33 66 92 bc cc 76 50 3b 67 11 3c 3d 29 98 33 bd
       -0.017870998 0.003180909 0.045915034 -0.043846283
000310 84 9d 56 bd bf c8 c1 3c e4 1e ad bc 57 27 a2 bd
       -0.052396312 0.023655294 -0.021132894 -0.0791766
000320 8c 19 8d bd 9d 7f 33 bb 78 5d 21 3d f0 3b 19 bd
       -0.06889638 -0.0027389296 0.03939578 -0.037410676
000330 06 04 28 3c 2e 03 00 3e 7b 77 5e 3d e5 4d 2e 3d
       0.0102548655 0.12501213 0.054313164 0.042554755
000340 8a 67 54 3d ce 1c 6e 3c 7e 33 08 bd ba d0 6b bd
       0.051856555 0.014533235 -0.03325223 -0.057572104
000350 08 66 46 bd 34 ac c6 ba 6b 78 64 bc 04 3a c3 3c
       -0.04843715 -0.0015157522 -0.0139447255 0.023831375
000360 91 83 e8 bc 4d 7f 81 bd b3 90 12 bd e1 d4 9e 3b
       -0.028383048 -0.06323109 -0.035782527 0.0048471545
000370 52 b3 29 3a 7f c2 c2 bc 86 26 64 39 be e2 ae bd
       0.0006473559 -0.023774384 0.00021758126 -0.085393414
000380 2d df 32 bd 92 26 2d bc 33 b9 28 3d 1e 44 fd 3c
       -0.04366987 -0.010568278 0.041192245 0.03091627
000390 f0 de 34 3c 91 49 81 3e 27 fe 08 3e 78 23 3d be
       0.011039481 0.2525144 0.13378201 -0.18470562
0003a0 36 22 73 3e fb 6a 5d 3d cd 74 1a be bb 1b a4 3d
       0.23743519 0.054057103 -0.15083618 0.08013102
0003b0 59 2f 0b be 0b 2e 63 bd 13 34 88 3a 1d 3f 52 bd
       -0.1359228 -0.055463832 0.0010391496 -0.05132972
0003c0 9b e8 48 3d 5c 33 3f 3c fb 5e 5d 3c 88 ff ad 3c
       0.049049955 0.01166996 0.013511415 0.02124001
0003d0 17 bd 66 3e 95 b8 8a bd 58 c4 2e bd 69 0b 2e be
       0.2253307 -0.067734875 -0.042667717 -0.1699654
0003e0 d9 ad 42 3d da 45 e4 bc 09 ae 37 bd fc 0b c2 bc
       0.047529075 -0.02786534 -0.044843707 -0.023687355
0003f0 3e a3 f0 bc 55 b6 2c 3e a2 e5 2c bd 97 b4 af bc
       -0.029374715 0.16866429 -0.042211182 -0.021448417

dncnn.2.conv.bias f4 [13]
000000 ff 43 c3 3c 72 ac cc 3c 81 be a4 3c ae d5 ed 3c
       0.023836134 0.024984572 0.02011037 0.029032554
000010 4f 60 8c 3d 61 7d 88 3d 13 79 67 3d 9a 89 e4 3c
       0.06854307 0.06664539 0.05651195 0.027897645
000020 de 56 0b 3d 1b e6 d6 3c 0c c4 bb 3c 64 c4 71 3c
       0.03401839 0.02623277 0.02292063 0.014756296
000030 9b 78 30 3d
       0.04308377

dncnn.2.bn.weight f4 [13]
000000 32 0a ca 3e 79 e5 8e 3e 16 f4 d7 3e 90 5f d6 3e
       0.39460903 0.2790945 0.4217841 0.41869783
000010 d8 68 1b 3f 58 46 4c 3f c4 52 6a 3e e3 bc 15 3f
       0.60706854 0.79794836 0.22883135 0.58491343
000020 15 ab 90 3e 5a 30 b5 3e 3e c5 2a 3e ee 10 46 3e
       0.28255525 0.35388452 0.16676804 0.19342396
000030 6d 78 6a 3e
       0.22897501

dncnn.2.bn.bias f4 [13]
000000 46 d7 4b 3e 25 b9 9c 3e b7 99 50 3e 90 e1 1e 3d
       0.19906339 0.30610004 0.20371138 0.038789332
000010 ed fc b2 be 8c f1 18 bf 57 5b 9c 3c db d0 50 3e
       -0.34958592 -0.5974357 0.019086523 0.20392172
000020 17 b7 1a 3b 68 56 b1 3e 4a ec 06 3f dd ae 3a 3f
       0.0023607665 0.34636235 0.527043 0.7292307
000030 35 0c cc 3d
       0.09963266

dncnn.2.bn.running_mean f4 [13]
000000 3a 79 40 3e f7 6f d6 3e 96 fd 85 be f5 60 a6 be
       0.18796244 0.41882297 -0.26170033 -0.32495847
000010 54 2e dd 3d c3 16 ce 3e 09 f7 28 3d d8 34 da 3e
       0.10799852 0.4025174 0.041251216 0.42618442
000020 7a 1c a4 3e 85 e9 ff be 8c 38 92 be 99 61 55 3e
       0.32052976 -0.4998285 -0.28558767 0.20838012
000030 ea 57 2b 3f
       0.6693102

dncnn.2.bn.running_var f4 [13]
000000 c9 7e 2a 3e 2b 72 75 3d f7 d0 87 3e d7 c8 d2 3d
       0.16649927 0.059923332 0.26526615 0.102922134
000010 da 6c 52 3d f5 d4 bb 3d 62 24 15 3c 59 c6 7a 3e
       0.05137334 0.09171478 0.009102913 0.24489726
000020 c9 c4 1a 3d c3 d6 c9 3d d6 55 01 3d b2 f1 c4 3d
       0.037785325 0.09855416 0.031576 0.09616412
000030 df e2 6a 3c
       0.014336317

dncnn.3.conv.weight f4 [13, 13, 3, 3]
000000 a8 69 f1 3c b0 55 52 3c ef 74 44 3c bf c8 2f bd
       0.029469326 0.012837812 0.01199077 -0.042916056
000010 55 6b 58 3d 2a f2 c0 3d bc 1a 71 be 65 1c b7 3d
       0.052836735 0.09421189 -0.23545355 0.08940963
000020 6e 42 e2 3d b3 33 db bd 88 25 e3 bc a9 57 41 3b
       0.11047827 -0.1070322 -0.027727857 0.0029501712
000030 98 56 7b 3d e7 5c 07 be 9e b0 58 bc 5c 58 84 bd
       0.06136188 -0.13219033 -0.013225703 -0.06462166
000040 65 c4 19 3d 97 88 16 3d 8a 68 5a bc 0d fc dc 3b
       0.037540812 0.036751356 -0.013330588 0.006743914
000050 e0 15 37 bc 89 83 b9 bc 09 27 09 bd f0 d9 41 bd
       -0.011174649 -0.022645729 -0.033484492 -0.047326982
000060 3b 75 10 3e 56 26 f6 bd 08 19 b9 bd a7 6f 2b 3c
       0.1410722 -0.12019031 -0.090379775 0.010463632
000070 37 47 a3 3c 9d 09 0f 3b 76 7a aa 3d 25 51 db 3d
       0.019931419 0.0021825798 0.08324139 0.107088365
000080 00 00 88 3d b9 59 96 3d 5e fb 37 3e 7f fd c7 3d
       0.06640625 0.07341332 0.17966983 0.097651474
000090 06 e6 1e bd 8b 92 ca bc 92 35 1e 3b 60 57 2c bd
       -0.038793586 -0.02472808 0.0024140817 -0.042075515
0000a0 d2 9d 8d bd b3 52 15 bd 50 e0 51 3c 19 25 42 bd
       -0.069148675 -0.03645582 0.012809828 -0.04739866
0000b0 b8 71 4e bd 9a 45 11 3d f0 fd 15 be bb 06 ce bd
       -0.05040142 0.035466768 -0.1464765 -0.100598775
0000c0 b9 56 78 bd 55 27 41 be ae e2 18 be c5 58 ff 3c
       -0.06062958 -0.1886266 -0.14930221 0.031170258
0000d0 cf 5d 1e bd 07 47 52 bd 70 ee b6 bb c7 93 3d ba
       -0.03866368 -0.05133727 -0.005582623 -0.00072317984
0000e0 60 8a 82 3b 46 6f 62 3d 9e 16 9e 3c 98 ae 37 3c
       0.0039837807 0.0552819 0.019297894 0.01121106
0000f0 f5 3e 05 3d bc 62 7b bc b6 3b e0 bc d7 50 e2 3c
       0.032530744 -0.015343364 -0.027372222 0.027626438
000100 2b f9 66 3d e1 60 33 3c 76 db a4 3d 5d 9d 55 3e
       0.05638997 0.010948391 0.08049671 0.2086081
000110 45 42 f3 3d 0f 18 cb be 89 ea 0a 3e 21 11 ee 3d
       0.11877874 -0.39666793 0.1356603 0.11624361
000120 d0 24 7c bd 0c b2 82 bd c4 4c 89 bc 65 bf 80 bd
       -0.061558545 -0.06381616 -0.016760238 -0.062865056
000130 1c ec d0 bd 6e 40 6e bd 3d 37 1d 3d d5 8c ac bc
       -0.10201284 -0.058166914 0.038382757 -0.021063248
000140 46 15 36 bd 3f ff 83 3d 7e 3b 41 3d 03 f6 d0 b9
       -0.04445388 0.06445169 0.047175877 -0.00039856145
000150 27 36 0f 3d 98 39 23 3d 95 22 52 3b b9 bb f2 bc
       0.034963753 0.039849848 0.003206407 -0.029630529
000160 12 20 00 bd 8b 7f f5 ba 44 a3 d1 3d 67 7f b4 bb
       -0.031280585 -0.0018730027 0.102362186 -0.0055083516
000170 97 ce 5e bd fe a8 dd 3d dc 41 a1 3d 72 36 76 3b
       -0.05439624 0.10823248 0.0787389 0.0037569073
000180 e5 b5 af 3d bd 1a ab 3d 58 4e 83 3c 9d 14 b7 bc
       0.085796155 0.08354709 0.016028568 -0.022348696
000190 8d 8d 83 bd fd 1b 5c 3a 92 b8 57 3d 6d c3 9e bd
       -0.06423483 0.00083965046 0.052666254 -0.07752118
0001a0 51 06 5b bd 92 ed a3 3d 17 bf a5 bc ac 13 7f bd
       -0.05347282 0.08004297 -0.02023272 -0.06227462
0001b0 39 76 bb bc 3f e4 09 bd 9c c3 86 bc f5 29 3b bd
       -0.022883521 -0.033664938 -0.016450696 -0.04569431
0001c0 fa 85 34 bd fc 7f e2 bc a1 0c 9b bd aa ea 1a bd
       -0.044073083 -0.027648918 -0.07570768 -0.03782145
0001d0 7c fe 2b bd d2 8e 76 3c e7 df d9 3c fe ec 33 3c
       -0.041990742 0.015048699 0.026596023 0.010981796
0001e0 cb 99 ce bc a8 f4 fc 3a 23 89 a1 be eb d5 cd 3c
       -0.025219819 0.0019298987 -0.3154994 0.025126418
0001f0 9e 89 d6 3d 1e b0 82 3c d9 e9 1d bc b2 fd 13 3d
       0.10475467 0.01595312 -0.009638273 0.036130615
000200 f8 82 3e 3e 22 70 0e 3d 46 af 5c 3d 95 00 c0 3d
       0.18604648 0.034774907 0.05387809 0.09375111
000210 cf 36 f6 bc 34 3a 0e 3d ae e4 1f 3d 32 d1 5a 3b
       -0.030055432 0.034723476 0.039036445 0.003338885
000220 62 94 a7 bb de a3 f0 bc 24 75 96 3b 48 5f 40 3e
       -0.005114124 -0.029375013 0.004591601 0.18786347
000230 74 38 3a be 04 a0 af ba a9 50 ad 3a 8e 1c 9c 3d
       -0.18185598 -0.0013399129 0.0013222891 0.07622634
000240 b3 42 78 3c cb 6e c6 3d 5f 81 83 bd 93 f6 d8 3a
       0.015152621 0.09689101 -0.0642116 0.0016552977
000250 c5 b7 03 3e 98 94 8a bd d2 ba 92 bb ca 34 cb 3c
       0.12863071 -0.06766623 -0.004477837 0.024805445
000260 c5 d3 f3 3c c0 cf 6e 3c f2 be 25 3c 5f a3 4c 3d
       0.029764066 0.014575899 0.010116326 0.04996049
000270 14 96 82 3d ca e3 49 3e dc db 9f 3d 5b c2 2a 3d
       0.063762814 0.19715801 0.07805607 0.041689258
000280 32 d6 65 ba 46 ba 8e bb d3 8b 75 3d 65 4a 56 3d
       -0.00087675743 -0.0043557016 0.0599478 0.052317042
000290 b8 fe d4 bd 00 14 e7 3b 3f e0 ca bd da 56 9a 3d
       -0.10400146 0.0070519447 -0.09906053 0.07536097
0002a0 0d c9 ab bb b7 0d 98 bc db 5f 45 ba 11 e5 cc bc
       -0.005242473 -0.018561227 -0.0007529237 -0.025011571
0002b0 65 69 bd ba 91 34 5c 3c 90 75 16 bd 14 22 65 bd
       -0.0014450966 0.013440267 -0.03673321 -0.055940703
0002c0 90 61 a6 bc b5 4c 4a bc 53 bf ff bd c8 2c bb bd
       -0.020310193 -0.01234739 -0.12487664 -0.09139401
0002d0 fd d3 03 bd 87 78 72 bd 16 3b c7 bd 09 be b2 bd
       -0.03218459 -0.059196975 -0.097280666 -0.087276526
0002e0 25 ea 08 be 1e e4 96 3e ba 0f bb bb 3d e2 96 3d
       -0.13370569 0.29470915 -0.005708662 0.0736737
0002f0 b9 58 ac ba 77 d9 59 3d 2e 2d f6 3d 62 a0 27 3e
       -0.0013149 0.053185906 0.12020336 0.16369775
000300 0a a6 16 3d 19 66 45 3d bc 73 e0 bb f3 ec ca 3c
       0.03677944 0.04819307 -0.006849734 0.02477119
000310 bf 43 71 3c b3 44 6f 3d b1 7d 0f be f7 85 0b bd
       0.014725625 0.058415126 -0.14012791 -0.034063306
000320 80 e3 a4 bd 9f ac 82 bc 6e 54 35 3e 77 39 ea 3b
       -0.08051205 -0.015951453 0.17707989 0.0071479636
000330 56 cb 29 3d 58 7a 3b 3d b7 38 90 3c 93 3d 46 bb
       0.041453682 0.045770973 0.017605169 -0.0030249103
000340 1a c6 a9 bd 38 d6 ba be fd 9f 35 3c 88 22 cc bd
       -0.08289738 -0.3649156 0.011085507 -0.09967524
000350 0d 5a 0a bd 01 17 98 bc b1 c5 cd 3c a9 8d 7d 3d
       -0.033777285 -0.018565657 0.02511868 0.061902676
000360 0c cd 34 bd a6 72 34 bc 9d a6 44 bd 5e 94 7f bb
       -0.04414086 -0.011013662 -0.048010457 -0.0038998346
000370 bb 34 c4 bd 46 b8 bf be fb 6c d4 3c 55 07 95 3d
       -0.0958037 -0.37445277 0.025930872 0.07276789
000380 70 2b 08 3c 6e 27 8d bc 5f bf 24 3d 1d c0 89 bb
       0.008311138 -0.017230716 0.04022157 -0.00420381
000390 5b 3d 64 bc ca fb 40 3e aa 4e 25 bd d5 6f e6 bb
       -0.013930644 0.1884605 -0.040358223 -0.0070323744
0003a0 3c c4 9b bc 16 53 b0 bd 89 64 e2 3b c7 49 91 3c
       -0.01901447 -0.086095974 0.0069089574 0.017735375
0003b0 30 33 28 3c d3 68 91 3d 96 da 32 3e f6 e6 b0 3d
       0.01026611 0.07100072 0.17466196 0.08637802
0003c0 b3 f3 dd 3c 92 4a da 3d 6d fa 63 3d 20 01 24 bd
       0.027093744 0.106587544 0.055658747 -0.040040135
0003d0 56 10 a9 bd aa b6 f0 bc a5 d2 3c b9 a1 34 86 bd
       -0.08255069 -0.029383976 -0.00018007548 -0.06553007
0003e0 20 c0 42 bd cd 5d 51 3d ff 64 ec 3c 17 e9 80 3c
       -0.047546506 0.051114846 0.028856752 0.015736146
0003f0 2a 43 bf 3b b5 66 34 3c c0 85 8e 3c cc 18 9b bd
       0.005836864 0.011010815 0.017397761 -0.07573089

dncnn.3.conv.bias f4 [13]
000000 0b e5 46 3d f9 11 bf 3c eb 45 0c 3d f3 6a af 3c
       0.048558276 0.023324 0.034246366 0.021413302
000010 55 42 27 3d 87 86 99 3c c0 32 51 3d e7 7d cf 3c
       0.040834744 0.018740905 0.05107379 0.02532859
000020 73 bc 93 3c 45 3c 40 3d e5 33 19 3d 08 c9 9c 3c
       0.018034196 0.046932478 0.037403006 0.019138828
000030 37 31 29 3d
       0.0413067

dncnn.3.bn.weight f4 [13]
000000 fc 9c b5 3e 8d d8 f0 3e c0 bb 40 3f c6 9b bb 3e
       0.35471332 0.47040215 0.75286484 0.36642283
000010 65 70 11 3f b3 b3 1c 3f 52 c7 99 3e ff e9 90 3e
       0.56812125 0.612117 0.30034882 0.28303525
000020 35 26 f2 3e cd 88 3f 3f b2 a1 ec 3e c9 22 5a 3e
       0.47294775 0.74818116 0.46217114 0.21302332
000030 2f 23 2c 3f
       0.67241186

dncnn.3.bn.bias f4 [13]
000000 64 b3 df 3c 6e 7d 28 3e da e8 24 bd d0 cd 40 3e
       0.02730722 0.16454098 -0.040261127 0.18828511
000010 b3 ab 81 be bd 62 50 3e 58 67 2c bd c5 cb 54 bf
       -0.2532631 0.20350166 -0.042090744 -0.8312343
000020 09 65 8c 3e b2 42 f4 be 43 f5 ad 3e e2 20 99 3e
       0.27420834 -0.47707134 0.33976182 0.299079
000030 9b 9f 83 be
       -0.25707707

dncnn.3.bn.running_mean f4 [13]
000000 26 7e 14 3e 77 66 b6 be 47 63 af bc 7e 58 8c 3f
       0.14501247 -0.3562505 -0.021409644 1.0964506
000010 df 62 a1 be c3 65 8a bf 89 34 8d be 0b 58 47 3f
       -0.31520745 -1.0812305 -0.27579144 0.7786872
000020 b1 fb d0 be ad 5d 27 bf 04 81 0a 3f 4f a0 89 be
       -0.40817025 -0.6537731 0.5410311 -0.26880118
000030 14 a4 0d bf
       -0.5532849

dncnn.3.bn.running_var f4 [13]
000000 65 b0 0d 3d 87 f1 59 3e 21 9c 78 3e b1 d4 33 3e
       0.03459205 0.21283542 0.24278308 0.17561604
000010 b1 0c bc 3d 8a f0 fc 3e 7d 50 97 3c 7d 12 33 3d
       0.09182108 0.49402267 0.018470997 0.043718804
000020 8c fe e8 3e e6 08 15 3e 44 4f bc 3d 25 2f 8e 3d
       0.45506704 0.14554176 0.09194806 0.06942586
000030 d6 20 06 3e
       0.13098463

dncnn.4.conv.weight f4 [13, 13, 3, 3]
000000 b6 43 3a bc 37 06 19 bd dd a6 15 be e6 96 0b bc
       -0.011368683 -0.037359443 -0.14614435 -0.008519864
000010 64 11 76 bd 3a 3b ef 3c c5 5d 4a 3c 46 3b fa bc
       -0.06007518 0.029203046 0.012351458 -0.030545842
000020 63 52 bc bb a0 06 ce 3c f1 db 7d 3c ac f2 b7 bc
       -0.005747126 0.025149643 0.015494333 -0.022454582
000030 8a 63 05 be ff 26 ca bd 46 80 c2 3c d0 0f 30 3d
       -0.13026252 -0.09870719 0.023742806 0.04298383
000040 8e e7 0d bd f0 39 6b 3d fe 0c 37 bd 73 21 50 bd
       -0.034644656 0.0574283 -0.044690125 -0.05081315
000050 00 8b 93 bd e6 38 b1 bd a9 01 80 be 89 0f 88 be
       -0.072042465 -0.08653431 -0.25001267 -0.26574352
000060 35 dd c6 bd d3 61 0f be 19 7b 1c be ec 66 ca 3c
       -0.09710161 -0.1400216 -0.15281333 0.02470728
000070 4d 76 23 3d 32 12 fb 3c 58 c0 ce 3d 11 b9 71 3d
       0.039907742 0.030648325 0.100952804 0.059014384
000080 d2 a6 07 3d 03 52 ad 3c 14 ce c2 3d 42 a1 38 3d
       0.033118077 0.02115727 0.095119625 0.045075662
000090 92 27 8f bd ce 08 c4 3d cf c0 e2 3d 58 8e 4a be
       -0.06989969 0.09571992 0.110719316 -0.19780862
0000a0 4b 76 77 3b 27 1a 6e 3c 8e 1a 59 be 06 fc bb bd
       0.0037759717 0.014532602 -0.21201536 -0.09178929
0000b0 d0 b3 cc bc 27 60 1c bd f3 8d da bd 58 78 de bd
       -0.024988085 -0.038177636 -0.10671606 -0.108627975
0000c0 89 25 bc bd 44 c1 45 be ec b9 1c be c8 8a 89 bd
       -0.09186847 -0.19312006 -0.15305299 -0.067159235
0000d0 1b 37 3d 3d c8 e3 04 bd 69 0e 7e bc 0e 14 ce bd
       0.04619513 -0.03244379 -0.015506365 -0.10062419
0000e0 bb 35 be bd a2 51 36 bd 0a 52 03 be dd 16 22 be
       -0.09287592 -0.044511445 -0.12824264 -0.15829034
0000f0 df b9 75 3d b8 60 94 3b 96 b0 8a bd bb a9 96 bd
       0.059991714 0.0045281313 -0.06771962 -0.07356592
000100 29 04 0e bd 60 72 53 bd e3 ef 63 bd 25 12 b9 bd
       -0.034671936 -0.05162275 -0.055648696 -0.09036664
000110 d5 18 0f 3d 81 84 87 bc ab 49 42 bd d3 c0 3a 3c
       0.03493579 -0.016542675 -0.047433536 0.011398512
000120 22 26 d8 3c 10 52 62 3c 6c 7f 10 3d f9 49 d2 3d
       0.02638537 0.013813511 0.03527777 0.102680154
000130 a0 33 26 3e d7 b0 66 3e 17 60 b1 3d ff 70 2b 3e
       0.16230631 0.22528397 0.08660906 0.16742323
000140 f7 44 ca 3d 59 cf 69 3c 78 1a 4e bd 81 94 0d bd
       0.09876435 0.014270627 -0.05031821 -0.034565452
000150 4c ae a7 3d 39 42 03 3d 22 b7 83 3c 2c df c5 3b
       0.08187541 0.032045577 0.016078535 0.006038567
000160 bb f6 5a 3c 51 b7 3c 3d ad d7 2c bc ae 14 bd 3d
       0.013364489 0.04607326 -0.010549468 0.0923246
000170 9f 85 37 3d a4 7a b6 3c 8f 45 39 3d 11 b9 72 3c
       0.044805165 0.022275276 0.045232352 0.014814631
000180 92 ae bc 3b e1 f8 e6 3c 4c ef 6b 3c 95 69 75 3c
       0.005758115 0.028194847 0.014400315 0.014978786
000190 8e dd d2 bc 2a ef 0c 3c ec 78 2b bd be cc 4d bc
       -0.025740411 0.008601943 -0.041863367 -0.012561021
0001a0 d5 8a c3 bd f1 db 39 3d a6 7b 77 bc 10 69 8f bc
       -0.095479645 0.045375768 -0.015105164 -0.017506152
0001b0 c9 e1 5d 3d 96 c0 09 3e a4 a3 a0 3d da 4a fe 3d
       0.054170404 0.13452372 0.07843712 0.124166206
0001c0 53 19 c6 3e e3 a1 61 3e fa e1 b1 3d e3 1c db 3c
       0.38691196 0.22034411 0.0868568 0.026747173
0001d0 80 24 01 3e 63 ce 0c 3c c6 a8 52 bd d2 84 b6 3d
       0.1261158 0.008594128 -0.051430486 0.08912052
0001e0 40 9d e3 3b 29 f1 ce 3d 75 af 73 3b f7 be 3a 3c
       0.006946236 0.101045914 0.0037183438 0.011398069
0001f0 81 0a da bb 63 5f 1e bd 0a 61 5e 3c 1f 8e c8 bc
       -0.006654084 -0.038665187 0.013572941 -0.024481831
000200 3f 0b b5 3c 98 86 f6 3e 31 9d a3 3c 01 22 0e 3d
       0.02210009 0.48149562 0.019972416 0.034700397
000210 da 53 2f 3e e0 eb f6 3d 9a 15 c3 3d f7 d9 2d be
       0.1712183 0.12056708 0.095256045 -0.16977678
000220 35 70 1f be 48 12 3b bd de 51 1f be 2d 31 d0 bd
       -0.15570147 -0.04567173 -0.15558574 -0.101656295
000230 0f 99 30 3b 8a b1 3c be b3 40 1c be 9d cd 3d be
       0.0026946699 -0.18427101 -0.15259056 -0.18535466
000240 ec 3c 06 bc 06 b0 80 3d 89 04 7e 3c 15 3b d1 bd
       -0.008193236 0.06283574 0.015504011 -0.10216347
000250 01 73 8e 3e 7b 78 a9 3d c6 46 4f bc dc bd 4a 3e
       0.27822116 0.08274933 -0.012651151 0.19798988
000260 36 78 d4 3d 52 50 42 bc c2 79 f5 bc bb 42 4b bd
       0.10374491 -0.01185997 -0.029965285 -0.049624186
000270 e6 7a 13 be 0f e1 54 bd 17 b8 e1 bc c4 2f 14 bd
       -0.14402351 -0.051972445 -0.027553601 -0.036178365
000280 9b 83 ab bd c4 f5 34 bd 2c 2d 06 be eb 15 7b be
       -0.08374711 -0.044179693 -0.13103169 -0.2452008
000290 04 44 d4 bd 8f 18 50 be 18 af 16 3f 6a ff 32 be
       -0.103645355 -0.20321868 0.5886092 -0.17480245
0002a0 fb f1 1b be df c1 31 be 7f 8d 28 bd df e8 78 bd
       -0.15229027 -0.17359112 -0.041150566 -0.06076896
0002b0 f5 98 c4 bc 11 54 36 3c bc 92 44 bc cf 56 88 be
       -0.023998717 0.011128441 -0.011997875 -0.2662873
0002c0 ff 09 53 bd 8a ec 49 3a 79 73 19 bd 3f fc 74 bd
       -0.051523205 0.00077027886 -0.03746364 -0.059810873
0002d0 05 ed 14 3c 3c a3 25 3d 6e 09 74 bc 0d de 11 be
       0.009089713 0.040438876 -0.014894826 -0.14244862
0002e0 e4 55 e3 bc 69 7d 3a bd 53 84 19 bd 00 73 01 bd
       -0.027750917 -0.045529757 -0.03747971 -0.031603813
0002f0 09 24 e9 3b 3c d4 2e 3e fe 0f fc 3d d6 df f0 3c
       0.0071148914 0.17073148 0.12307738 0.029403608
000300 62 92 b2 3e 01 99 f3 bd d6 29 87 3d d9 7d 63 3e
       0.34877306 -0.118944176 0.065997764 0.22215976
000310 aa 69 1f 3e 16 c8 25 3d 8a 2d 8e 3e bc 18 aa 3e
       0.15567651 0.04047402 0.2776912 0.33221996
000320 b8 cc d4 3e 83 08 00 3e fc d4 96 3e 5a d6 d9 3d
       0.41562438 0.12503247 0.2945937 0.106365874
000330 71 ea 02 3d d9 95 91 3d bf bf 82 3d a4 6a 11 bd
       0.031961862 0.07108659 0.06384229 -0.03550209
000340 9d 8e b5 3d 96 a8 56 3d 51 d8 92 ba 4d 53 bb 3c
       0.08865092 0.05240687 -0.0011203383 0.02286687
000350 40 37 86 3d 59 10 47 bd 78 21 bc 3b 1d aa 24 3b
       0.06553507 -0.048599575 0.0057412945 0.002512581
000360 ed 3c a1 bd 06 fa b5 3d 62 ef 0e bb 3a 0b 33 bd
       -0.07872949 0.08885579 -0.0021810164 -0.04371188
000370 a3 9b 28 3c 74 8a c9 3d 1e b0 4c 3d 80 4c 15 3d
       0.010291013 0.09840861 0.049972646 0.03644991
000380 af de 9e bd d5 2e b4 3d 03 e1 3a 3e 47 03 e6 3d
       -0.07757317 0.08797995 0.18249898 0.11231094
000390 0f aa c6 3d 22 e7 bc 3e 6c e2 3e 3e 6d 6d 15 3e
       0.09700405 0.3689509 0.1864106 0.14592524
0003a0 bb f0 58 3e d1 5d ea 3d cc c8 91 3c 9e a0 ef bc
       0.21185581 0.11443675 0.017795943 -0.029251393
0003b0 ea 0f db bc 71 88 54 3b 05 fa 62 b8 c2 aa 13 bd
       -0.026740987 0.0032429958 -5.4115448e-05 -0.03605152
0003c0 47 9c 09 bc 3c cf 23 bd 43 80 2b bc 02 b5 24 3d
       -0.008399076 -0.039992556 -0.010467592 0.040211685
0003d0 be 46 15 bd 0b c4 9b bc 85 4e 60 bb 04 74 33 3d
       -0.036444418 -0.019014379 -0.0034226489 0.043811813
0003e0 f8 5e f9 bb 1b 02 7e bd e3 80 c9 bc 12 2d c2 3c
       -0.007610198 -0.062013727 -0.02459759 0.023703132
0003f0 eb dd 0b 3d be 7f 60 3d 2d c3 c1 bb b9 10 2b 3d
       0.034147184 0.054809324 -0.0059131593 0.041763995

dncnn.4.conv.bias f4 [13]
000000 38 59 b0 3c 1c 93 13 3c 40 de 33 3d 84 03 4f 3d
       0.021526918 0.009007242 0.043913126 0.050540462
000010 72 65 b9 3b 3e 5c cd 3b b7 7b 88 3d e6 cd 9d 3c
       0.005657845 0.0062670996 0.06664222 0.01926322
000020 35 a7 06 3c 2a 07 ea 3c e0 47 32 3d 43 30 a0 3c
       0.008218576 0.02856787 0.043525577 0.019554263
000030 21 7a 2c 3d
       0.04210866

dncnn.4.bn.weight f4 [13]
000000 a6 eb 15 3e 82 04 a3 3e cb 64 58 3e 94 0c bf 3e
       0.14640674 0.31839377 0.211322 0.37314284
000010 60 4d 07 3e 3c e2 d3 3d c1 5a 95 3e 63 fe 17 3f
       0.1321311 0.10345885 0.29170802 0.5937254
000020 9a 18 79 3e 1f 29 12 3e 97 af 47 3e 9b be 9e 3e
       0.24325791 0.14273499 0.19500576 0.31004795
000030 f7 13 69 3e
       0.22761522

dncnn.4.bn.bias f4 [13]
000000 a0 71 f4 3d aa f3 ea 3e 4a 46 b2 be db 4e 09 bf
       0.11935735 0.45889026 -0.3481925 -0.5363595
000010 5d 95 e8 3e 7e 95 0d 3f 3e f2 cb be 52 d1 73 be
       0.45426455 0.5530623 -0.39833254 -0.23810318
000020 cb 32 be 3e 16 4c 1a 3d 30 9d 92 be 6c 65 52 be
       0.37148127 0.037670217 -0.2863555 -0.20546502
000030 0c 75 22 be
       -0.15864962

dncnn.4.bn.running_mean f4 [13]
000000 d9 50 a7 3c 7a c3 26 3f d9 23 c4 bd 23 f4 60 be
       0.020424293 0.65142024 -0.0957715 -0.21968131
000010 6f f2 78 3e bf 05 1d 3e 74 21 e0 bc f5 3b 58 3d
       0.24311231 0.15334223 -0.027359702 0.052791554
000020 49 7c ff 3e b6 ac f0 3d d7 cb 28 3c 6c e4 ef bd
       0.4989951 0.11751692 0.010302505 -0.1171349
000030 49 71 62 bd
       -0.05528382

dncnn.4.bn.running_var f4 [13]
000000 b1 34 d9 3c 60 d0 1c 3f a8 f8 3f 3c 21 50 dd 3c
       0.026514383 0.61255455 0.011716999 0.027015748
000010 f9 5d 9a 3e bd 67 27 3e 47 4a 41 3c d1 a0 10 3f
       0.3014982 0.16348167 0.011797494 0.56495386
000020 ed 64 02 3f e6 4b 8a 3c 39 87 2f 3c c8 dc 18 3e
       0.5093525 0.016881894 0.010713392 0.14927971
000030 29 c8 73 3c
       0.014879265

dncnn.5.conv.weight f4 [13, 13, 3, 3]
000000 69 8e d8 bb 8b b1 21 bd 99 4d 70 b8 3e 42 c2 3d
       -0.0066087735 -0.03947596 -5.7292727e-05 0.09485291
000010 36 39 fd 3d 23 53 40 bd 5b 82 2a 3e 7a c4 a6 3e
       0.12364428 -0.046954285 0.16651289 0.32571775
000020 5d c2 49 3d 43 91 e4 3b 54 ca 8e bc d6 6e 3f bc
       0.049257625 0.0069753244 -0.017430462 -0.01168414
000030 1c 47 ef bd 2e d7 f6 bd b2 5a 4a bc 59 93 5c be
       -0.11683485 -0.12052761 -0.012350725 -0.21540584
000040 d6 ca b6 bd ff 97 d7 bd 35 ee 8a bc b0 06 b0 3c
       -0.08925407 -0.10527038 -0.01695929 0.021487564
000050 53 e3 a7 b8 3c 0e b6 bc 66 aa a6 bb b5 ab a9 bc
       -8.005523e-05 -0.022223584 -0.005086231 -0.02071176
000060 03 d0 8a 3d fa dd 67 3d 4e b3 4c 3d ae 82 b5 3b
       0.06777956 0.056608178 0.049975686 0.00553926
000070 b0 33 d1 bc 92 05 94 bb ef c3 a1 3c bb eb c0 3c
       -0.025537342 -0.0045172656 0.019746749 0.023549905
000080 41 a0 cb 3c d5 00 42 bc 81 74 84 3d bd 65 30 3d
       0.024856688 -0.011841019 0.06467534 0.043065775
000090 03 c0 e0 bc 1a 3d 90 3d 74 ab c7 3d 98 06 07 be
       -0.027435308 0.07042904 0.09749499 -0.13186109
0000a0 dc 8b 88 3e ee 49 2b 3d 1d 36 07 be 87 2c 9b bc
       0.26669204 0.04181855 -0.13204236 -0.01894213
0000b0 77 f4 ba 3d c3 a0 07 3d 8d b1 91 3d 69 9f 79 3c
       0.09128659 0.0331123 0.07113943 0.01523576
0000c0 13 b0 e9 3c 23 5b c3 be ac f4 43 3d a7 15 a0 be
       0.028526342 -0.3815547 0.04784076 -0.3126652
0000d0 cb 8b 4f 3d 54 f3 1d 3e 7a fe 39 3c a3 87 40 3c
       0.050670426 0.15424854 0.011352176 0.011751088
0000e0 be 11 ab 3b 30 11 b5 3d d2 50 42 3d ba bd 80 3c
       0.005220621 0.08841169 0.047440358 0.015715469
0000f0 0c 42 0b bd 59 08 e9 bd 5d 98 08 be 1b cf 80 3d
       -0.033998534 -0.11378545 -0.13339372 0.06289502
000100 3f e9 76 3e 00 46 6d 3d 62 9e b3 3e 5c ce 28 3f
       0.24112414 0.057928085 0.35081774 0.6593988
000110 96 ec 8b 3e a8 1c bf 3d 86 8c 83 3e 10 ed a7 3d
       0.27328938 0.093316376 0.25693148 0.08199513
000120 3a 3e a7 bd ab 4e 41 be 3e 7c 11 be c6 e5 bd be
       -0.08166166 -0.18877666 -0.14207551 -0.37089366
000130 7d a4 75 3f 46 2d 4a be e8 0b 16 be eb bd 8b be
       0.95954114 -0.19743833 -0.1465298 -0.27293333
000140 90 a6 f2 bd 39 05 10 bd 77 94 4a 3c 92 ea 01 3c
       -0.118481755 -0.03516123 0.012364498 0.007929461
000150 ff f2 07 bd 5f ef 90 bb 56 50 8c 3c ff b0 2d be
       -0.033190724 -0.0044230665 0.01712815 -0.1696205
000160 5c ab 2b 3e b4 f8 bf 3c 96 0d 23 3c 82 87 a4 bd
       0.16764587 0.02343402 0.00995197 -0.080336586
000170 4d 2c e1 ba 45 c3 1e bd a8 f8 0a 3d 10 5e 4a bd
       -0.001717934 -0.038760442 0.033928543 -0.04940611
000180 4e 4b 9f bc 17 07 b7 bd 37 d4 b5 bc 85 85 1a bc
       -0.019445088 -0.08936899 -0.022195918 -0.009431248
000190 62 80 84 3c 1c 0b 64 3b 42 ef 3a 3d 32 7e d9 3d
       0.016174499 0.003479666 0.04563833 0.10619773
0001a0 06 32 fd 3c d7 52 01 3e d4 54 30 be 11 95 b5 3d
       0.030907642 0.12629257 -0.1721986 0.08866323
0001b0 89 23 99 3c c3 23 c3 3b 8f 5f 82 3c 64 07 1f 3d
       0.018693702 0.005955191 0.015914707 0.038825408
0001c0 fe 20 e3 bd fa c2 f8 bb 3d 0b 95 bd 7d 57 1d be
       -0.11090277 -0.0075916024 -0.07277534 -0.15365405
0001d0 ff 0b 95 bd ed 89 a7 bd 96 7b 88 bd c6 bc da bd
       -0.07277679 -0.08180604 -0.06664197 -0.10680537
0001e0 fe b7 34 3e c0 54 3d 3e 39 53 00 3e ee 6c 8a 3d
       0.17648312 0.18489361 0.12531747 0.06759058
0001f0 da b1 8a 3d 2b 0b 07 3c 73 90 6e bc 64 72 e3 bc
       0.06772204 0.008242409 -0.014560807 -0.027764507
000200 3e 11 8d 3d da 8a eb 3c c6 31 99 bd dc f5 ac 3d
       0.06888054 0.028752733 -0.07480197 0.084453315
000210 ea 2b b7 bc a6 19 ba bc fe b4 60 3c 63 88 bb 3c
       -0.022359807 -0.022717308 0.013715027 0.022892183
000220 44 c6 1a bd a0 d3 2a 3d b1 d4 38 be 44 cd 1e bc
       -0.037786737 0.041705728 -0.18049885 -0.009692494
000230 2b 31 b8 3c 43 35 dd 3b 8e 3a f4 3d c4 fa d5 3c
       0.022484383 0.006750734 0.11925231 0.02612055
000240 22 e0 01 bc 27 85 d5 3c ba a4 7c bc 2d 58 bf bd
       -0.007926973 0.026064469 -0.015420133 -0.0934299
000250 f9 45 18 be 56 6c 7c bd 5d e6 d3 3c 10 90 63 3c
       -0.14870442 -0.061626755 0.025866682 0.013889328
000260 05 c6 ae 3d c9 1f b8 bd 39 c4 90 be 88 13 90 bc
       0.08533863 -0.089904375 -0.28274706 -0.017587438
000270 74 17 4a 3d c8 87 e6 ba 79 f7 d9 3b 5d 8e 89 3d
       0.049338773 -0.0017588073 0.0066518155 0.06716607
000280 53 1d da 3c 83 7b 96 3d 1d 70 e5 be 5f 66 11 bf
       0.026625311 0.07347777 -0.44812098 -0.5679683
000290 03 f2 9d be 86 f7 2f 3c 25 b1 1a be 62 cc b1 3c
       -0.30848703 0.0107401665 -0.15106638 0.021703903
0002a0 a9 17 9a 3d 56 a6 9c bd 9b b8 b5 bc 21 f2 ae bd
       0.07524044 -0.076489136 -0.022182753 -0.08542276
0002b0 30 cb 95 bd 75 25 98 bd f7 5e 08 3f 62 a7 94 3e
       -0.073141456 -0.07429019 0.53269905 0.29033953
0002c0 39 64 5e 3d b6 3e 83 bd 65 2f f5 bc 4c bc 1b bd
       0.0542948 -0.064084455 -0.029929826 -0.03802137
0002d0 4d 1e 69 3d 93 6f e7 3d 4e ec 04 3d c2 e8 99 bc
       0.056913663 0.11300578 0.03245192 -0.018787745
0002e0 aa 46 ad bd f9 4d 8a 3c 8e ff 89 3b fe 10 21 3d
       -0.08460744 0.016882883 0.0042113727 0.039322846
0002f0 57 62 a8 3c 21 67 14 be b6 9a c3 be ff 96 1a be
       0.020554705 -0.14492466 -0.38203973 -0.15096663
000300 bf 47 46 bc 12 d8 ac 3d 5a 43 9c bc 77 7a 4d 3c
       -0.012102067 0.0843965 -0.019075084 0.012541405
000310 a9 eb 53 bd cd 21 72 bd c0 e3 2d 3c d4 dd 22 3d
       -0.051738415 -0.059114266 0.010613382 0.039762333
000320 3c 09 91 3d 27 9b 1e bd 6d 7b 73 3d 49 3d b7 3c
       0.070818394 -0.038722184 0.05944388 0.02236809
000330 5c 7c 3a 3d 76 31 a2 3b 94 2e 29 bd b0 00 07 3c
       0.045528755 0.004949744 -0.041304186 0.00823991
000340 3e 8f 6b bc 9c 7f 3b bb b1 0c 24 3d 2b 64 db bc
       -0.014377413 -0.0028609997 0.040051166 -0.026781162
000350 6f 55 72 bc 29 0a 1d 3d ac e9 c9 bc 29 b9 40 3d
       -0.014790877 0.038339768 -0.024647556 0.047051582
000360 ff 5c 0b 3a ac 94 6d bb 0e 9f d8 37 da 26 ff 3a
       0.00053162867 -0.0036251945 2.5823272e-05 0.0019466535
000370 0b 12 3c be 33 53 03 3b 51 6d 07 3d ef bf 63 3d
       -0.18366258 0.0020038604 0.033063237 0.055602964
000380 4c 35 76 bc 01 eb 84 3c de f4 3e 3d 99 15 6d bd
       -0.015027355 0.01622534 0.046620242 -0.057881925
000390 ee 9a 45 ba 89 a4 44 bd 2f 65 2a bd c2 0b 33 3d
       -0.000753804 -0.048008475 -0.041600402 0.043712385
0003a0 29 f0 28 ba 04 33 1e bd 85 28 ea bc 01 e5 8f 3d
       -0.0006444478 -0.03862287 -0.028583774 0.07026101
0003b0 78 20 cf 3c 18 5f 28 bd 68 9e 00 bd b0 c0 3b 3d
       0.025284037 -0.041106313 -0.031401068 0.045838058
0003c0 d2 bb 22 3d 68 ff a1 3b 68 0f 2c 3d 77 c8 84 3d
       0.0397299 0.004943777 0.04200688 0.06483548
0003d0 89 7f a5 3d c6 bd 45 3c cf ab dc 3c 34 e6 b9 3e
       0.08080966 0.012069171 0.026937393 0.36308444
0003e0 fa f1 f5 bc 21 34 73 bb 14 89 51 bd 82 16 64 bb
       -0.03002261 -0.0037109929 -0.05115612 -0.0034803455
0003f0 5a fe 4c 3d a5 e3 41 3d e2 fd fb 3c 83 00 d1 3d
       0.050047256 0.04733624 0.03076071 0.10205176

dncnn.5.conv.bias f4 [13]
000000 dc f2 c2 3c b9 57 c0 3c 74 1e 18 3c 82 05 02 3d
       0.023797445 0.02347933 0.009284604 0.031743534
000010 b8 c8 02 3d cc 25 5f 3c e8 d9 e4 3a a7 0a b8 3c
       0.0319297 0.013619851 0.0017459961 0.022466017
000020 3f 21 2b 3d 4c 63 11 3b e7 bb 16 3d 33 1a d3 3b
       0.041779753 0.002218443 0.03680029 0.006442332
000030 7e 04 7b 3c
       0.015320895

dncnn.5.bn.weight f4 [13]
000000 e6 bb f8 3e 04 cd 6f 3e 92 57 c4 3d 46 73 79 3e
       0.48580855 0.23418051 0.09587015 0.2436038
000010 b3 f6 ea 3e 38 63 08 3e 34 84 02 3c 93 da ec 3e
       0.45891342 0.13319099 0.00796609 0.4626051
000020 62 9e 18 3f ad 6b 37 3e 66 08 12 3f 41 52 84 3c
       0.59616673 0.17912169 0.57044065 0.016152503
000030 ec 03 41 3e
       0.18849152

dncnn.5.bn.bias f4 [13]
000000 95 39 84 bd f4 a6 8a be 12 c6 b9 bc bb 31 0e be
       -0.064562954 -0.270805 -0.022677455 -0.13886158
000010 47 c4 21 be 0f eb 37 be f3 5a 80 bc 4b 42 37 be
       -0.1579753 -0.17960761 -0.015668368 -0.17896383
000020 69 10 0a be 62 d9 5f bd cd b7 1a be 01 67 d4 bc
       -0.13482822 -0.05465067 -0.15109177 -0.025928022
000030 b1 f6 8d bd
       -0.06931818

dncnn.5.bn.running_mean f4 [13]
000000 45 19 17 be 58 27 80 bf 01 9c 1e bb 78 50 15 be
       -0.14755733 -1.0012007 -0.0024201872 -0.14581478
000010 99 14 61 be d0 ff a0 be 97 6a 9f bd 26 70 c1 bd
       -0.21980514 -0.3144517 -0.07784002 -0.09445219
000020 12 40 c9 3d a6 fe 6c bb 1c 2d ea bd 83 1c 80 bd
       0.098266736 -0.0036162524 -0.11434385 -0.06255438
000030 b0 fa 10 be
       -0.1415813

dncnn.5.bn.running_var f4 [13]
000000 41 5c 9b 3e d8 df 6c 3d 9f b3 89 3d 2c 44 fe 3c
       0.30343822 0.05783066 0.06723713 0.031038366
000010 dc 86 e6 3d f6 1f 33 3d 6a c2 6c 3c ec 24 87 3e
       0.11256191 0.043731652 0.014450649 0.26395357
000020 3a c6 c3 3d 64 81 a0 3c da 4a 1a 3e 81 75 34 3b
       0.09559293 0.019592948 0.15067616 0.0027535858
000030 35 1e 7c 3d
       0.061552245
