pre-trained-tp2/tiny_DnCNN_0000.pt (torch, 51794 bytes, 37 tensors)

weight f4 [13, 1, 3, 3]
0.1533204 -0.1906031 -0.105047315 0.23195282 0.3171545 0.14065251 -0.25794834 -0.271192
-0.17724101 0.17211577 0.013178587 -0.20247433 0.12279895 0.20007285 -0.18197918 0.06868982
-0.024253875 -0.25886032 -0.2858356 -0.32057795 0.13323382 0.01048854 -0.04243031 -0.2969465
-0.2949894 0.041044474 0.07746956 -0.14810964 0.104706615 0.018024057 0.13750112 -0.15156035
-0.23042655 -0.06551811 -0.119713396 -0.033367127 0.25422904 0.27429685 -0.10706644 0.19973227
-0.065599054 0.24826756 0.14941835 0.25850108 0.058769822 -0.28136575 -0.008649021 -0.15393671
-0.14070253 -0.07339081 0.2398707 0.05222109 0.1103687 -0.28114867 0.16472372 -0.22274122
-0.22997853 0.10473025 0.05819705 -0.20539972 -0.29363534 -0.27202055 -0.011085063 -0.2711961
-0.061800867 -0.026956916 -0.14442238 0.249517 0.17092863 -0.19316046 -0.11084323 -0.092368096
-0.16954236 -0.05881238 0.2078698 0.278322 -0.039227575 -0.24008426 -0.2624775 -0.32143825
-0.32286856 -0.24008755 -0.1154304 0.22954598 -0.12246077 -0.31080544 0.31232265 0.24623421
-0.2436732 0.07254335 0.01723373 -0.08167741 -0.044117004 0.020258427 -0.11904816 0.29460242
-0.25419053 -0.034393907 -0.24919257 0.21145609 0.17254415 -0.23075247 0.14534423 -0.24550867
0.09500742 0.0109451115 -0.17310867 0.18799093 0.052038908 0.12846386 0.28776988 -0.062707424
0.24015984 -0.001919955 -0.11568272 0.28530422 0.086985946
00000000: 0600 1d3e 762d 43be 0c23 d7bd 0a85 6d3e
00000010: 1362 a23e 3607 103e ce11 84be aed9 8abe
00000020: ab7e 35be 1e3f 303e 00eb 573c 6e55 4fbe
00000030: 047e fb3d e6df 4c3e c058 3abe 40ad 8c3d
00000040: 10b0 c6bc 5789 84be 0b59 92be cb22 a4be
00000050: 726e 083e 20d8 2b3c 68cb 2dbd 5f09 98be
00000060: da08 97be 401e 283d 5ca8 9e3d 0eaa 17be
00000070: 6c70 d63d 30a7 933c 18cd 0c3e a332 1bbe
00000080: f0f4 6bbe 5c2e 86bd 4c2c f5bd f8ab 08bd
00000090: 4f2a 823e a370 8c3e a645 dbbd 9e86 4c3e
000000a0: cc58 86bd da39 7e3e 2001 193e 415a 843e
000000b0: a0b8 703d 2c0f 90be a0b4 0dbc 96a1 1dbe
000000c0: 5314 10be ec4d 96bd aaa0 753e c8e5 553d
000000d0: fc08 e23d b8f2 8fbe 56ad 283e 4616 64be
000000e0: 7e7f 6bbe d07c d63d 0860 6e3d 4e54 52be
000000f0: 5f57 96be 4746 8bbe 209e 35bc 37da 8abe
00000100: e822 7dbd c0d4 dcbc 76e3 13be 6281 7f3e
00000110: ea07 2f3e dbcb 45be c601 e3bd 7c2b bdbd
00000120: 839c 2dbe 40e5 70bd d2db 543e 3980 8e3e
00000130: 18ad 20bd a6d8 75be 7363 86be 8e93 a4be
00000140: 074f a5be 83d9 75be c666 ecbd 1a0e 6b3e
00000150: b6cc fabd e421 9fbe c1e8 9f3e d224 7c3e
00000160: 7885 79be 9c91 943d c02d 8d3c 7c46 a7bd
00000170: 08b4 34bd 00f5 a53c 86cf f3bd 21d6 963e
00000180: 4325 82be a0e0 0cbd 562c 7fbe f287 583e
00000190: 6aaf 303e 604a 6cbe 1ed5 143e a066 7bbe
000001a0: 4093 c23d 2053 333c 6643 31be b280 403e
000001b0: c026 553d 088c 033e 9356 933e c06c 80bd
000001c0: 76ec 753e 00a7 fbba 10eb ecbd 6513 923e
000001d0: b025 b23d

bias f4 [13]
0.20633999 -0.29817706 0.16115394 -0.07498285 0.21186212 -0.17144267 -0.10600631 0.058336616
-0.028208733 0.057900935 -0.06657991 0.32401565 0.08566046
00000000: ca4a 533e aaaa 98be 8a05 253e 9c90 99bd
00000010: 62f2 583e ab8e 2fbe d619 d9bd 60f2 6e3d
00000020: 0016 e7bc 8829 6d3d 0c5b 88bd 61e5 a53e
00000030: c06e af3d

weight f4 [13]
0.8494051 0.33055866 0.6609895 0.91577166 0.59095514 0.817964 0.02901858 0.5301836
0.50163305 0.80155534 0.8684622 0.16402763 0.37946165
00000000: 9d72 593f fc3e a93e 9c36 293f 0370 6a3f
00000010: d648 173f 1766 513f 60b8 ed3c 1dba 073f
00000020: 066b 003f bb32 4d3f 8a53 5e3f dcf6 273e
00000030: cc48 c23e

bias f4 [13]
0.0 0.0 0.0 0.0 0.0 0.0 0.0 0.0
0.0 0.0 0.0 0.0 0.0
00000000: 0000 0000 0000 0000 0000 0000 0000 0000
00000010: 0000 0000 0000 0000 0000 0000 0000 0000
00000020: 0000 0000 0000 0000 0000 0000 0000 0000
00000030: 0000 0000

running_mean f4 [13]
0.0 0.0 0.0 0.0 0.0 0.0 0.0 0.0
0.0 0.0 0.0 0.0 0.0
00000000: 0000 0000 0000 0000 0000 0000 0000 0000
00000010: 0000 0000 0000 0000 0000 0000 0000 0000
00000020: 0000 0000 0000 0000 0000 0000 0000 0000
00000030: 0000 0000

running_var f4 [13]
1.0 1.0 1.0 1.0 1.0 1.0 1.0 1.0
1.0 1.0 1.0 1.0 1.0
00000000: 0000 803f 0000 803f 0000 803f 0000 803f
00000010: 0000 803f 0000 803f 0000 803f 0000 803f
00000020: 0000 803f 0000 803f 0000 803f 0000 803f
00000030: 0000 803f

weight f4 [13, 13, 3, 3]
0.010306105 0.083375864 0.034659468 0.045761324 0.09026284 -0.057804037 -0.009466626 -0.022743165
0.08542279 0.079099335 0.012473479 -0.031071287 0.08546869 -0.0013456494 -0.029706873 0.046966247
-0.07928712 0.0065974444 0.057465516 -0.0023890883 -0.07670158 -0.03355199 0.043006487 0.033612527
-0.063184015 -0.0058301464 0.0056732073 -0.04456433 0.038703717 0.08212335 0.08060085 -0.017451487
-0.019434676 -0.021297596 -0.013795108 0.07589053 0.0010913908 0.023166664 -0.011546239 0.087379985
-0.05245251 -0.08394594 0.057242386 -0.08102982 0.053271122 -0.041921142 0.033533536 0.0035624877
0.01746963 0.074845605 -0.07163136 -0.064422086 -0.03686571 -0.082673356 -0.024634264 -0.072575286
-0.019633234 0.0014210492 -0.066614784 0.046072014 -0.026331514 -0.03276025 0.072705396 -0.03034632
0.012889087 -0.04037057 -0.0034388602 0.06926494 0.045893975 0.07250876 0.055386014 -0.013909899
0.056910284 0.0798771 -0.022145435 0.024458647 0.03615316 -0.024499662 0.08842733 -0.018838413
-0.025676355 0.08959065 0.06357554 -0.033609364 0.048652254 -0.035381228 0.052488454 -0.0016924813
0.079008915 0.027680606 0.064118646 -0.06996074 0.00048607588 0.057665847 -0.04205435 0.013136201
-0.08613341 -0.058984056 0.065649115 0.017780408 -0.023593403 -0.0890332 0.044490285 -0.03247709
0.076269485 0.011228204 -0.06662909 -0.041660003 -0.023674354 -0.07491046 0.057176344 -0.026666768
0.026309013 0.04837478 0.041853912 -0.022552557 -0.057606455 -0.016681217 0.01887326 -0.009926505
0.031463154 0.006869085 -0.005637765 -0.047841262 -0.073303 0.04340809 -0.066228546 -0.0103805885
-0.05494633 -0.075344644 0.012120195 -0.08951189 0.0030216798 -0.030667182 -0.026745833 0.074208505
-0.010543101 0.046852596 0.056754656 0.04206709 0.016431175 0.06308345 -0.039566066 -0.06490622
-0.090758994 -0.065770485 -0.020688005 0.033611633 0.05980978 0.009337425 -0.050018232 -0.07840902
-0.017144725 0.014414787 -0.080020264 0.039749764 0.05958716 -0.06382025 0.06703139 0.04162144
0.09226527 -0.06336531 0.00846269 -0.049835585 0.023758091 -0.07656205 -0.06570537 0.055776186
-0.08995311 0.01788181 0.020811446 -0.062129743 -0.060205285 0.012020424 0.01715517 0.019607991
0.027856156 0.037719674 -0.024682201 -0.030072153 -0.04667232 -0.03446978 -0.0013236627 -0.018239714
0.01376991 0.0355796 -0.030182548 -0.038084667 -0.042212714 0.07274694 -0.008490361 -0.011875108
0.06785049 -0.006940685 0.04133635 -0.06485629 0.037112333 -0.015455082 0.076519154 -0.06638266
0.012171604 -0.07686357 0.01247751 0.08051235 0.08498231 0.04803861 0.015629902 -0.052970115
0.09027905 0.008774161 -0.029114924 0.051323675 0.034565113 0.028606668 -0.08240427 0.03798502
-0.084492795 0.042333238 -0.032144897 0.013977878 0.052924924 0.04638005 -0.062466286 0.0073881596
-0.020810515 0.049330644 -0.059681814 0.03392046 -0.016789936 0.033426784 -0.06547019 -0.050547335
0.0082068 0.08313318 -0.088540494 0.07509307 -0.02608104 0.04838469 -0.0781404 -0.049728427
0.024978079 -0.007244885 -0.08283123 -0.085787766 -0.015528724 0.046524964 0.045221128 -0.028993309
0.04593406 0.07174223 0.05705481 0.047175385 0.06462147 0.068916 0.012500323 -0.083030626
00000000: f0da 283c f7c0 aa3d 16f7 0d3d 3a70 3b3d
00000010: b9db b83d edc3 6cbd e819 1bbc e04f babc
00000020: 25f2 ae3d d5fe a13d 905d 4c3c 3689 febc
00000030: 350a af3d 8060 b0ba d45b f3bc ae5f 403d
00000040: 4961 a2bd 602f d83b f660 6b3d 4092 1cbb
00000050: b815 9dbd d06d 09bd 9227 303d 4aad 093d
00000060: 9f66 81bd d00a bfbb 50e6 b93b 1689 36bd
00000070: ca87 1e3d 4930 a83d 0f12 a53d 6cf6 8ebc
00000080: 7835 9fbc 4c78 aebc e004 62bc 7f6c 9b3d
00000090: 000d 8f3a 04c8 bd3c 702c 3dbc 47f4 b23d
000000a0: 71d8 56bd d9eb abbd fe76 6a3d f6f2 a5bd
000000b0: d232 5a3d 81b5 2bbd 765a 093d a078 693b
000000c0: 781c 8f3c a748 993d 76b3 92bd baef 83bd
000000d0: 8000 17bd a650 a9bd cccd c9bc 5aa2 94bd
000000e0: e0d5 a0bc 8042 ba3a 556d 88bd 02b6 3c3d
000000f0: 30b5 d7bc 9d2f 06bd 91e6 943d d898 f8bc
00000100: c02c 533c 9c5b 25bd 805e 61bb c7da 8d3d
00000110: 52fb 3b3d 797f 943d 72dc 623d 58e6 63bc
00000120: c21a 693d 9b96 a33d 586a b5bc 805d c83c
00000130: 5615 143d 84b3 c8bc 6319 b53d 0453 9abc
00000140: 3857 d2bc 4d7b b73d e533 823d f9a9 09bd
00000150: 9647 473d e8eb 10bd 22fe 563d 40d6 ddba
00000160: 6dcf a13d 70c2 e23c a350 833d 9447 8fbd
00000170: 00d8 fe39 0633 6c3d 2f41 2cbd 3839 573c
00000180: b766 b0bd 4499 71bd 0b73 863d 38a8 913c
00000190: f446 c1bc 0a57 b6bd 723b 363d b206 05bd
000001a0: 2d33 9c3d 80f6 373c d574 88bd aea3 2abd
000001b0: b8f0 c1bc a86a 99bd be31 6a3d 4474 dabc
000001c0: 0086 d73c a224 463d 026f 2b3d 24c0 b8bc
000001d0: bff4 6bbd 0ca7 88bc 189c 9a3c c8a2 22bc
000001e0: 82df 003d 1016 e13b 00bd b8bb 33f5 43bd
000001f0: e21f 96bd aecc 313d d5a2 87bd 5813 2abc
00000200: 670f 61bd 4b4e 9abd c893 463c 0352 b7bd
00000210: 6007 463b be39 fbbc 141a dbbc a1fa 973d
00000220: f8bc 2cbc 82e8 3f3d 9277 683d 8a4e 2c3d
00000230: ac9a 863c e531 813d 0710 22bd 8ded 84bd
00000240: dadf b9bd adb2 86bd e479 a9bc 5aac 093d
00000250: 1afb 743d 00fc 183c ebdf 4cbd e994 a0bd
00000260: 1873 8cbc 002c 6c3c aae1 a3bd a6d0 223d
00000270: aa11 743d 31b4 82bd c147 893d 3e7b 2a3d
00000280: 93f5 bc3d acc5 81bd 18a7 0a3c 6620 4cbd
00000290: 54a0 c23c 90cc 9cbd 8990 86bd 9275 643d
000002a0: 5639 b8bd e07c 923c c47c aa3c c27b 7ebd
000002b0: d199 76bd 50f1 443c 0089 8c3c f0a0 a03c
000002c0: 9832 e43c f27f 1a3d 5432 cabc e059 f6bc
000002d0: 7a2b 3fbd 2f30 0dbd c07e adba 746b 95bc
000002e0: 309b 613c eabb 113d 6441 f7bc abfe 1bbd
000002f0: 3de7 2cbd 59fc 943d 281b 0bbc d08f 42bc
00000300: 33f5 8a3d b06e e3bb 4e50 293d 60d3 84bd
00000310: 1a03 183d 5037 7dbc 13b6 9c3d a2f3 87bd
00000320: 686b 473c a66a 9dbd 786e 4c3c a9e3 a43d
00000330: 350b ae3d 22c4 443d 480a 803c 31f7 58bd
00000340: 39e4 b83d 80c1 0f3c 6c82 eebc c638 523d
00000350: 2694 0d3d 8858 ea3c 92c3 a8bd 2e96 1b3d
00000360: 8f0a adbd 9e65 2d3d 5eaa 03bd 7803 653c
00000370: cec7 583d 02f9 3d3d a6dc 7fbd 6018 f23b
00000380: d07a aabc ee0e 4a3d eb74 74bd 2ef0 0a3d
00000390: 0c8b 89bc 86ea 083d 3c15 86bd b90a 4fbd
000003a0: d075 063c bb41 aa3d b854 b5bd 65ca 993d
000003b0: e8a7 d5bc 062f 463d 1308 a0bd 09b0 4bbd
000003c0: d49e cc3c 8066 edbb 6ba3 a9bd 7fb1 afbd
000003d0: 306c 7ebc f690 3e3d ca39 393d 6083 edbc
000003e0: 5a25 3c3d 97ed 923d 4eb2 693d fa3a 413d
000003f0: 4358 843d d523 8d3d 28ce 4c3c f60b aabd

bias f4 [13]
0.08912865 0.011187591 -0.0096441135 0.06306759 0.0152675435 0.019610077 -0.0647257 0.08720646
-0.08741499 -0.06452656 0.048430853 0.012564324 -0.020344123
00000000: 1589 b63d 284c 373c 5802 1ebc 9529 813d
00000010: b824 7a3c 50a5 a03c e88e 84bd 4d99 b23d
00000020: a106 b3bd 8026 84bd 6e5f 463d 98da 4d3c
00000030: b8a8 a6bc

weight f4 [13]
0.08571088 0.5140486 0.33692706 0.97600985 0.65060043 0.42737752 0.9384472 0.7616374
0.83994555 0.21421415 0.3606301 0.936073 0.53766775
00000000: 3089 af3d b098 033f b481 ac3e c8db 793f
00000010: c08d 263f 3ad1 da3e 133e 703f abfa 423f
00000020: ac06 573f f45a 5b3e 82a4 b83e 7ba2 6f3f
00000030: 98a4 093f

bias f4 [13]
0.0 0.0 0.0 0.0 0.0 0.0 0.0 0.0
0.0 0.0 0.0 0.0 0.0
00000000: 0000 0000 0000 0000 0000 0000 0000 0000
00000010: 0000 0000 0000 0000 0000 0000 0000 0000
00000020: 0000 0000 0000 0000 0000 0000 0000 0000
00000030: 0000 0000

running_mean f4 [13]
0.0 0.0 0.0 0.0 0.0 0.0 0.0 0.0
0.0 0.0 0.0 0.0 0.0
00000000: 0000 0000 0000 0000 0000 0000 0000 0000
00000010: 0000 0000 0000 0000 0000 0000 0000 0000
00000020: 0000 0000 0000 0000 0000 0000 0000 0000
00000030: 0000 0000

running_var f4 [13]
1.0 1.0 1.0 1.0 1.0 1.0 1.0 1.0
1.0 1.0 1.0 1.0 1.0
00000000: 0000 803f 0000 803f 0000 803f 0000 803f
00000010: 0000 803f 0000 803f 0000 803f 0000 803f
00000020: 0000 803f 0000 803f 0000 803f 0000 803f
00000030: 0000 803f

weight f4 [13, 13, 3, 3]
0.0029131323 0.08951249 0.003256455 0.017898306 0.06891964 -0.08193462 -0.028684564 0.05885703
-0.026973866 -0.061393753 -0.08511488 -0.065090045 -0.0060664117 -0.04886149 0.0003715381 -0.033652324
-0.0105147585 0.012787774 -0.02954413 -0.04502096 0.0076304525 -0.010945141 -0.0064828917 -0.0012577176
0.076262854 0.060688205 -0.017621793 0.060765006 -0.01990655 -0.027354687 -0.089068726 0.04729923
0.027077384 -0.00073031336 -0.0367966 -0.060268167 -0.010968484 -0.03401734 -0.08861464 0.051350825
0.06547535 -0.07964209 -0.010593586 -0.06130217 -0.042336553 -0.037063163 -0.030443888 0.02552174
0.05473376 0.038828485 -0.030291114 -0.005959451 -0.03709111 0.020945996 0.0017245412 0.036026664
0.062261485 0.034385897 0.0023333356 -0.045645084 -0.0012286901 0.08566827 -0.079576224 -0.021556586
0.08784949 0.007940546 -0.036908276 -0.056771226 0.050359778 0.084012695 0.009034559 -0.012014352
-0.06294651 0.082251824 0.087471835 0.02491872 0.07709988 0.07251655 0.006706044 0.029995337
-0.04565983 -0.004062727 -0.086375475 0.052106358 -0.057975136 0.06461503 -0.07751833 -0.085187815
-0.007633917 0.020377755 0.081896774 0.08152007 0.06922909 0.06020785 0.018998526 -0.07607481
-0.0069194958 -0.06795914 0.057652853 0.005460039 0.060629852 0.013483807 0.03325052 0.07922944
0.008806504 -0.023531117 0.038170494 0.042931832 -0.08165498 -0.03785033 -0.028812416 0.09075736
-0.092351705 0.06403791 -0.028643578 -0.005617209 -0.020501234 -0.08843504 -0.08436977 -0.0691135
0.03659878 -0.07332973 -0.01173199 0.056075342 -0.03721825 0.009413898 -0.02155415 0.08396172
-0.026059158 0.04778277 0.042720683 0.018695377 0.06885425 -0.032149043 -0.08239701 -0.064792424
0.023400746 0.07202301 0.08133463 0.004547827 0.06910635 0.049156763 -0.045685243 -0.092000656
-0.010339767 8.136779e-05 -0.06318853 0.047218226 0.029540703 -0.05402433 0.090267874 0.08780039
0.009037241 -0.040594038 -0.029100075 -0.019252963 0.06742767 -0.088862635 -0.06321512 0.06675958
-0.038376138 0.038633384 0.09034274 0.03762508 -0.00011128932 -0.028900303 -0.013509557 -0.016643018
0.025181465 -0.054331582 -0.06564748 -0.054428864 -0.041114356 0.005305618 -0.059243202 -0.07101077
0.063673176 -0.020513847 -0.023200013 -0.087799 -0.046854187 0.015260808 -0.08688142 0.020625748
0.0777897 0.05922521 -0.022807837 0.091034345 -0.0021128058 0.0026642233 -0.0067193136 0.008030124
-0.00641194 0.051394023 -0.086418346 -0.058234084 0.037523426 0.06637839 -0.08139301 -0.048307702
-0.01084435 -0.08309839 -0.07766147 -0.04897894 0.08427868 0.084444545 0.013693064 -0.070336565
0.061702766 0.00062610954 0.086881764 0.045714743 0.0037090853 0.08371056 -0.060566835 0.05059033
0.057100557 0.015377343 0.0361894 -0.080392756 -0.0218075 0.04220105 0.031433485 0.00095412135
-0.063731775 0.014953852 -0.07519919 -0.004055351 0.065798305 -0.01875253 0.08058401 -0.06443548
0.06669129 0.048984252 -0.02752626 0.08520255 0.08978494 -0.08828542 0.032449648 0.03563363
0.04785814 -0.07047575 0.013515145 -0.06550968 -0.060288005 0.0906133 0.082216404 0.08957205
-0.01384946 0.030106358 0.022429302 0.042755537 0.018188111 0.017347917 -0.0038346201 -0.08184507
00000000: 40ea 3e3b 5352 b73d 406a 553b 789f 923c
00000010: bd25 8d3d 57cd a7bd e4fb eabc 1214 713d
00000020: 4cf8 dcbc 0478 7bbd b650 aebd ee4d 85bd
00000030: c0c8 c6bb fc22 48bd 00cb c239 05d7 09bd
00000040: 1846 2cbc d083 513c 8806 f2bc e667 38bd
00000050: e008 fa3b 4053 33bc 706e d4bb 00da a4ba
00000060: b32f 9c3d 3294 783d 945b 90bc bae4 783d
00000070: 1013 a3bc f016 e0bc aa69 b6bd d6bc 413d
00000080: 64d1 dd3c 8072 3fba 08b8 16bd c1db 76bd
00000090: 28b5 33bc c455 0bbd 987b b5bd 3e55 523d
000000a0: f117 863d 641b a3bd b890 2dbc fc17 7bbd
000000b0: 1869 2dbd 8bcf 17bd 7665 f9bc f812 d13c
000000c0: 8230 603d 9e0a 1f3d 1225 f8bc 8047 c3bb
000000d0: d9ec 17bd f096 ab3c 000a e23a b290 133d
000000e0: e605 7f3d 3ad8 0c3d e0ea 183b 57f6 3abd
000000f0: 000c a1ba d972 af3d dcf8 a2bd 7097 b0bc
00000100: 6fea b33d 1019 023c 222d 17bd f288 68bd
00000110: 0e46 4e3d d90e ac3d b005 143c d8d7 44bc
00000120: 1aea 80bd a573 a83d 6f24 b33d 5822 cc3c
00000130: 8be6 9d3d 8f83 943d 60be db3b c8b8 f53c
00000140: cd05 3bbd a020 85bb a0e5 b0bd 7a6d 553d
00000150: 5677 6dbd e354 843d eec1 9ebd f376 aebd
00000160: f025 fabb 40ef a63c 7fb9 a73d fff3 a63d
00000170: fbc7 8d3d 829c 763d cca2 9b3c 1ccd 9bbd
00000180: f0bc e2bb 292e 8bbd 6625 6c3d 20ea b23b
00000190: 0257 783d 30eb 5c3c b231 083d 0b43 a23d
000001a0: 2849 103c 54c4 c0bc aa58 1c3d 4ad9 2f3d
000001b0: ba3a a7bd f308 1bbd 0408 ecbc ffde b93d
000001c0: e422 bdbd 4f26 833d f0a5 eabc 9010 b8bb
000001d0: 34f2 a7bc 6e1d b5bd 0fca acbd 618b 8dbd
000001e0: 9ae8 153d e62d 96bd 8837 40bc 42af 653d
000001f0: 2a72 18bd c03c 1a3c 5492 b0bc 1ff4 ab3d
00000200: 047a d5bc deb7 433d e2fb 2e3d 0c27 993c
00000210: 7503 8d3d b7ae 03bd c3bf a8bd e4b1 84bd
00000220: ecb2 bf3c cd80 933d c592 a63d f005 953b
00000230: a187 8d3d 9a58 493d 7320 3bbd d76a bcbd
00000240: 2068 29bc 00a4 aa38 fd68 81bd e667 413d
00000250: 58ff f13c 9e48 5dbd 5dde b83d b1d0 b33d
00000260: f010 143c ef45 26bd 4863 eebc 64b8 9dbc
00000270: 8517 8a3d 9dfd b5bd ee76 81bd 3fb9 883d
00000280: 4c30 1dbd 0a3e 1e3d 9d05 b93d c21c 1a3d
00000290: 0064 e9b8 54c0 ecbc 3057 5dbc f056 88bc
000002a0: 5c49 ce3c cb8a 5ebd 3072 86bd cdf0 5ebd
000002b0: 8767 28bd c0da ad3b 00a9 72bd 186e 91bd
000002c0: 1567 823d a80c a8bc f40d bebc f6cf b3bd
000002d0: 2dea 3fbd 7808 7a3c e3ee b1bd 54f7 a83c
000002e0: 3550 9f3d 2296 723d 80d7 babc 3770 ba3d
000002f0: 0077 0abb 409a 2e3b b02d dcbb c890 033c
00000300: 401b d2bb 8a82 523d 1afc b0bd dd86 6ebd
00000310: 2ab2 193d 65f1 873d 61b1 a6bd 4cde 45bd
00000320: 80ac 31bc 7d2f aabd fa0c 9fbd 249e 48bd
00000330: 4d9a ac3d 43f1 ac3d e058 603c 9e0c 90bd
00000340: 0abc 7c3d 8021 243a 11ef b13d 623f 3b3d
00000350: 2014 733b 7170 ab3d ee14 78bd ce37 4f3d
00000360: 46e2 693d 40f1 7b3c 563b 143d f5a4 a4bd
00000370: a4a5 b2bc 02db 2c3d 66c0 003d 001e 7a3a
00000380: ce85 82bd 0001 753c 0802 9abd c0e2 84bb
00000390: 43c1 863d e89e 99bc 3b09 a53d c0f6 83bd
000003a0: 7195 883d b6a3 483d c07e e1bc ad7e ae3d
000003b0: 2be1 b73d fcce b4bd ece9 043d 92f4 113d
000003c0: e606 443d 9755 90bd a06e 5d3c f029 86bd
000003d0: 8ef0 76bd 7793 b93d 1361 a83d 8d71 b73d
000003e0: d8e8 62bc 9ca1 f63c a8bd b73c 6e20 2f3d
000003f0: 3cff 943c 381d 8e3c 404e 7bbb 639e a7bd

bias f4 [13]
0.06414489 0.01613903 -0.062319588 0.051066466 -0.04119837 -0.03087509 0.06104427 -0.016032077
-0.027504109 0.044864886 0.08163314 0.04563003 0.03504861
00000000: 655e 833d 0036 843c d342 7fbd 122b 513d
00000010: 9fbf 28bd c2ed fcbc 8e09 7a3d b455 83bc
00000020: 4c50 e1bc 3ec4 373d 472f a73d 8ee6 3a3d
00000030: 228f 0f3d

weight f4 [13]
0.30723202 0.6348809 0.49101067 0.8273828 0.43797648 0.7436057 0.8625626 0.35225242
0.6399924 0.15552568 0.7006675 0.88903064 0.4332099
00000000: 844d 9d3e 8e87 223f c065 fb3e 5ccf 533f
00000010: 743e e03e f15c 3e3f e7d0 5c3f 6e5a b43e
00000020: 8bd6 233f 2042 1f3e f25e 333f 8397 633f
00000030: b0cd dd3e

bias f4 [13]
0.0 0.0 0.0 0.0 0.0 0.0 0.0 0.0
0.0 0.0 0.0 0.0 0.0
00000000: 0000 0000 0000 0000 0000 0000 0000 0000
00000010: 0000 0000 0000 0000 0000 0000 0000 0000
00000020: 0000 0000 0000 0000 0000 0000 0000 0000
00000030: 0000 0000

running_mean f4 [13]
0.0 0.0 0.0 0.0 0.0 0.0 0.0 0.0
0.0 0.0 0.0 0.0 0.0
00000000: 0000 0000 0000 0000 0000 0000 0000 0000
00000010: 0000 0000 0000 0000 0000 0000 0000 0000
00000020: 0000 0000 0000 0000 0000 0000 0000 0000
00000030: 0000 0000

running_var f4 [13]
1.0 1.0 1.0 1.0 1.0 1.0 1.0 1.0
1.0 1.0 1.0 1.0 1.0
00000000: 0000 803f 0000 803f 0000 803f 0000 803f
00000010: 0000 803f 0000 803f 0000 803f 0000 803f
00000020: 0000 803f 0000 803f 0000 803f 0000 803f
00000030: 0000 803f

weight f4 [13, 13, 3, 3]
0.04328362 -0.034737498 -0.06265588 -0.03343011 0.043008618 0.056677215 -0.016843773 0.019031577
-0.033119254 0.088880874 0.046572663 -0.033083227 -0.016869642 0.024024278 -0.085200466 -0.085141875
-0.047265697 0.046436004 -0.027762823 0.019500926 0.06931756 0.015084527 -0.055126928 -0.02450934
0.07715688 -0.05620935 -0.063895255 0.083022825 0.083396055 -0.005006112 -0.090101466 -0.030482791
-0.09200396 0.066923 0.03939449 -0.08163145 -0.085759185 0.09090746 0.017314069 0.07476435
0.017379045 0.07917442 -0.0011065677 -0.054472465 0.024403758 0.07629121 -0.06521587 -0.00017116219
-0.00065745413 0.09108604 -0.02498348 0.052872486 -0.028091013 0.020536661 0.09050036 0.06517067
0.003165774 -0.030917268 -0.03165397 -0.0039616376 -0.016851082 -0.031154513 0.022999212 0.07784473
-0.0329984 -0.043844026 -0.057796765 0.045363568 -0.001596719 -0.084579386 0.009869419 -0.079212956
0.06762368 -0.013649091 0.044421934 0.0050274357 -0.0688844 -0.040490333 0.06858859 0.03339935
-0.05075585 -0.045166977 -0.035473175 0.035903923 0.07124924 -0.06936841 -0.06416385 0.05109442
-0.0131500885 -0.07344475 0.072479926 0.08166041 0.05329474 0.063653894 -0.033527438 -0.044928648
-0.023861215 -0.05026023 -0.021455549 0.07755921 0.073931 -0.03019337 -0.028437093 0.07605099
0.05158455 -0.08970833 0.068015926 -0.09204639 0.0023828745 0.014034003 -0.019463412 -0.00849738
0.018844925 -0.063146114 -0.031180128 0.06612826 0.025129631 0.012502439 0.031265184 -0.021591902
0.026794396 -0.020390771 0.01666937 -0.08612367 -0.03319671 -0.011668555 0.03281968 0.024047688
-0.06067908 0.0063447803 -0.021593235 -0.020705976 -0.07000975 0.05336281 0.024617895 0.04772655
0.020847514 0.00013573468 -0.03025014 0.05453918 -0.050830286 0.04962989 0.032700323 0.067164384
0.078555055 -0.083460376 0.04157237 0.04571981 -0.03232841 -0.020421237 -0.041680876 0.082324766
0.048734 -0.061256625 -0.055660196 0.080336355 0.046375565 0.042378925 -0.053706676 -0.05476241
-0.07039165 0.044619 0.08610576 0.0047997013 -0.06010915 0.04713116 0.082129754 0.03597211
-0.04037716 0.05408009 -0.0018445924 0.011425577 0.013726801 -0.07549382 -0.042298477 0.06345122
-0.022806533 -0.08783735 -0.08856142 -0.04950563 0.0141615495 0.06826595 -0.0735216 0.013062172
0.009576052 0.0075507984 -0.06932776 0.0016389415 -0.03923256 -0.025743805 0.03252481 -0.05022323
0.0415392 -0.019441172 -0.038225405 -0.06375365 -0.045403264 -0.06774752 -0.07626029 -0.07444094
-0.05495691 -0.026487418 0.06423918 -0.03768746 0.07735949 -0.050409433 0.06447602 0.073085494
0.06780141 -0.029988281 0.003626041 0.045448415 -0.012999333 0.07345077 -0.07674321 -0.051200777
-0.052357443 -0.037114684 0.005683571 0.02862247 -0.044128794 -0.027204737 0.026176289 -0.027008563
0.021392837 0.042994432 -0.06874907 0.04170365 0.0045159906 -0.051799618 -0.010665588 -0.011413895
0.028679729 0.041354083 -0.018265836 -0.06470527 0.088153414 -0.059440497 -0.026861243 -0.050820664
-0.0715349 0.09086674 -0.08916651 -0.0120745525 0.047272988 0.038908772 -0.04443211 0.053150065
0.05272741 -0.08019127 -0.0542075 0.018392563 -0.0814126 0.010679595 -0.09077103 0.031317458
00000000: 2a4a 313d e848 0ebd ba51 80bd 03ee 08bd
00000010: ce29 303d 5e26 683d f4fb 89bc 1ce8 9b3c
00000020: 0ea8 07bd 2d07 b63d fac2 3e3d 4782 07bd
00000030: 3432 8abc 90ce c43c 957d aebd dd5e aebd
00000040: ad99 41bd ae33 3e3d dc6e e3bc 68c0 9f3c
00000050: 5df6 8d3d 1825 773c c6cc 61bd d0c7 c8bc
00000060: 6d04 9e3d c63b 66bd 84db 82bd df07 aa3d
00000070: 8dcb aa3d 500a a4bb 1e87 b8bd 0cb7 f9bc
00000080: 926c bcbd ed0e 893d 1e5c 213d 642e a7bd
00000090: 83a2 afbd b12d ba3d 3cd6 8d3c 0d1e 993d
000000a0: 805e 8e3c 3326 a23d 400a 91ba 851e 5fbd
000000b0: 64ea c73c 913e 9c3d e68f 85bd 007a 33b9
000000c0: 0059 2cba 518b ba3d 28aa ccbc d290 583d
000000d0: 201f e6bc 803c a83c 4158 b93d 3378 853d
000000e0: e078 4f3b 3646 fdbc 98a7 01bd a0d0 81bb
000000f0: 480b 8abc c037 ffbc d868 bc3c 0f6d 9f3d
00000100: 5529 07bd cb95 33bd 4dbc 6cbd 26cf 393d
00000110: 0049 d1ba f537 adbd 58b3 213c 673a a2bd
00000120: 497e 8a3d 70a0 5fbc c6f3 353d 30bd a43b
00000130: 4413 8dbd 31d9 25bd 2d78 8c3d c2cd 083d
00000140: 5ee5 4fbd 0201 39bd 524c 11bd fe0f 133d
00000150: 1feb 913d 0611 8ebd 5668 83bd 6248 513d
00000160: 7873 57bc 336a 96bd 5b70 943d 933d a73d
00000170: 964b 5a3d f95c 823d 1154 09bd 1a07 38bd
00000180: 9878 c3bc acdd 4dbd 8cc3 afbc 5dd7 9e3d
00000190: 2369 973d 1658 f7bc e8f4 e8bc 9fc0 9b3d
000001a0: 524a 533d 00b9 b7bd ef4b 8b3d d182 bcbd
000001b0: 002a 1c3b e0ee 653c bc71 9fbc 9838 0bbc
000001c0: ac60 9a3c c052 81bd 786d ffbc 416e 873d
000001d0: a8dc cd3c 08d7 4c3c ec0f 003d 80e1 b0bc
000001e0: ec7f db3c 8c0a a7bc 348e 883c 9b61 b0bd
000001f0: 46f9 07bd 782d 3fbc ee6d 063d a8ff c43c
00000200: a18a 78bd e0e7 cf3b 4ce4 b0bc 949f a9bc
00000210: 4661 8fbd f692 5a3d 78ab c93c ea7c 433d
00000220: 68c8 aa3c 0054 0e39 24cf f7bc 7a64 5f3d
00000230: 6b33 50bd b648 4b3d c6f0 053d 7b8d 893d
00000240: 79e1 a03d 46ed aabd ca47 2a3d b244 3b3d
00000250: cb6a 04bd 704a a7bc 91b9 2abd e399 a83d
00000260: 4e9d 473d 3ae8 7abd f2fb 63bd 6387 a43d
00000270: 4ef4 3d3d 8695 2d3d 88fb 5bbd 8d4e 60bd
00000280: 7f29 90bd 6ac2 363d 3758 b03d d046 9d3b
00000290: 0335 76bd 9a0c 413d a533 a83d 7e57 133d
000002a0: 8562 25bd 1683 5d3d 40c6 f1ba 5832 3b3c
000002b0: 60e6 603c 819c 9abd 2b41 2dbd b7f2 813d
000002c0: c4d4 babc 12e4 b3bd b15f b5bd 6ac6 4abd
000002d0: d805 683c 05cf 8b3d 7e92 96bd b802 563c
000002e0: e0e4 1c3c b06c f73b b6fb 8dbd c0d1 d63a
000002f0: 52b2 20bd ace4 d2bc bc38 053d e0b6 4dbd
00000300: 0225 2a3d 1843 9fbc 3e92 1cbd 4691 82bd
00000310: c6f8 39bd 36bf 8abd 5b2e 9cbd 7e74 98bd
00000320: 7f1a 61bd 24fc d8bc d58f 833d 2b5e 1abd
00000330: a76e 9e3d 1f7a 4ebd 010c 843d d9ad 953d
00000340: 77db 8a3d fca9 f5bc e0a2 6d3b 1e28 3a3d
00000350: 28fb 54bc 5b6d 963d 8b2b 9dbd e8b7 51bd
00000360: c274 56bd 9105 18bd 403d ba3b ac79 ea3c
00000370: 65c0 34bd 78dc debc a86f d63c 1041 ddbc
00000380: 0840 af3c ee1a 303d 50cc 8cbd 72d1 2a3d
00000390: e0fa 933b d62b 54bd b8be 2ebc 5801 3bbc
000003a0: c0f1 ea3c e662 293d 3ca2 95bc 3284 84bd
000003b0: c789 b43d e177 73bd 1c0c dcbc 5429 50bd
000003c0: e480 92bd 5718 ba3d ee9c b6bd 58d4 45bc
000003d0: 52a1 413d ce5e 1f3d 72fe 35bd e2b3 593d
000003e0: b2f8 573d 523b a4bd af08 5ebd 00ac 963c
000003f0: a6bb a6bd 78f9 2e3c 29e6 b9bd bc46 003d

bias f4 [13]
0.0900676 -0.024678513 0.037900634 -0.025400259 0.08004997 -0.001475729 0.0047325417 0.007187128
0.05745577 -0.06302282 0.04055894 0.0006856248 -0.0702908
00000000: 5d75 b83d 982a cabc b23d 1b3d 3414 d0bc
00000010: 3df1 a33d 406d c1ba 7013 9b3b 0082 eb3b
00000020: be56 6b3d 1c12 81bd 2221 263d 80bb 333a
00000030: 9ff4 8fbd

weight f4 [13]
0.2869473 0.16370326 0.3786034 0.50930685 0.35653228 0.07537633 0.6493397 0.1929028
0.2520414 0.5868968 0.15174901 0.4589935 0.4033599
00000000: c2ea 923e d4a1 273e 4ed8 c13e ef61 023f
00000010: 668b b63e e85e 9a3d 203b 263f 5088 453e
00000020: 920b 813e de3e 163f 1864 1b3e 3201 eb3e
00000030: 3085 ce3e

bias f4 [13]
0.0 0.0 0.0 0.0 0.0 0.0 0.0 0.0
0.0 0.0 0.0 0.0 0.0
00000000: 0000 0000 0000 0000 0000 0000 0000 0000
00000010: 0000 0000 0000 0000 0000 0000 0000 0000
00000020: 0000 0000 0000 0000 0000 0000 0000 0000
00000030: 0000 0000

running_mean f4 [13]
0.0 0.0 0.0 0.0 0.0 0.0 0.0 0.0
0.0 0.0 0.0 0.0 0.0
00000000: 0000 0000 0000 0000 0000 0000 0000 0000
00000010: 0000 0000 0000 0000 0000 0000 0000 0000
00000020: 0000 0000 0000 0000 0000 0000 0000 0000
00000030: 0000 0000

running_var f4 [13]
1.0 1.0 1.0 1.0 1.0 1.0 1.0 1.0
1.0 1.0 1.0 1.0 1.0
00000000: 0000 803f 0000 803f 0000 803f 0000 803f
00000010: 0000 803f 0000 803f 0000 803f 0000 803f
00000020: 0000 803f 0000 803f 0000 803f 0000 803f
00000030: 0000 803f

weight f4 [13, 13, 3, 3]
-0.07216902 -0.026081495 -0.058173712 -0.0060420036 -0.008664213 -0.022255652 -0.004788354 0.06541034
0.07268792 0.0696544 0.032800905 0.03539159 -0.057500917 -0.07848874 0.0572095 0.006990142
0.02936773 -0.034881916 0.022631489 0.011955731 -0.03268599 0.00145711 0.01831045 -0.001899913
-0.0446452 0.06639292 -0.0040268376 0.027055718 -0.060157496 -0.03531884 0.06828136 -0.0032243952
-0.08837529 0.05955843 0.02943208 0.07417434 0.037330322 0.07524694 0.081293575 -0.042140458
-0.066550724 -0.008722343 -0.06719607 0.015411854 0.07565897 0.08544024 0.068101 0.032228008
-0.009031802 -0.04174074 -0.04693888 -0.08533047 0.07017664 -0.0018134341 -0.009724006 0.075211294
-0.017636396 -0.03359051 -0.075846136 -0.058102563 -0.0026933998 -0.07358705 0.035464533 -0.01654613
0.05278983 -0.06773966 -0.0562015 -0.025801264 -0.032349877 -0.0811557 -0.032116707 -0.051381696
0.015605643 -0.04736934 0.0027311593 -0.0068681687 0.038911216 0.060089864 0.039540075 -0.07483648
-0.054626215 0.056643106 -0.05903849 -0.078154474 -0.0580351 0.030482493 0.07361936 -0.069018364
-0.062607996 -0.034971945 0.076435424 0.0847285 -0.09095299 -0.01082065 -0.0040725395 0.083257236
-0.0802266 -0.036865063 -0.01957155 0.019453548 0.0909223 -0.07531436 -0.018207982 -0.06164663
0.016081907 -0.058726367 0.047324978 0.024062783 0.09055411 -0.00057399273 -0.012885407 0.015544176
0.033963986 -0.06235964 0.051014937 -0.055069268 0.049367465 0.016309239 -0.08641881 -0.037919983
0.077558406 -0.061403587 0.03860756 -0.067526124 0.047749184 -0.054899007 -0.043005005 0.043950625
-0.022209577 -0.06272417 -0.03411657 0.034910522 0.061170883 0.004064113 0.031151332 -0.035743333
-0.017475352 0.013704814 0.037205152 -0.03597225 0.08230508 0.026334733 -0.042380482 -0.049441367
-0.005194746 -0.043303166 -0.03511825 -0.08364546 0.037269108 0.07010854 -0.09056127 -0.014649659
-0.07953525 0.02810084 -0.0062194616 -0.0092271045 0.033899046 0.016016774 -0.026495956 -0.04980046
-0.06934442 0.078904904 -0.083659075 0.02953697 0.038415216 -0.070936516 -0.027201496 0.031128198
0.023982793 0.060795672 -0.027850479 0.032683782 -0.06658575 0.030021906 0.037343986 0.042134903
-0.08845769 -0.0022370964 0.09176081 0.0271542 -0.0701925 -0.021435656 0.022459783 0.05304081
0.0013881251 -0.050053235 -0.013068467 0.051259764 0.016178653 0.025348447 -0.032644596 -0.060772706
-0.0639004 0.044030495 0.011630632 -0.039060857 0.007426426 0.046973057 -0.07786434 0.051960252
0.028165206 0.08185097 0.037955172 -0.019334726 0.016657986 0.041938208 -0.052332975 0.017431147
-0.033347543 -0.07555123 0.075143196 0.036410026 -0.016830593 -0.030736085 0.058701135 -0.027913421
0.062111683 -0.091229476 -0.08358756 0.03199044 0.022610508 0.08348318 -0.012416996 -0.06414782
-0.084766746 -0.04823212 -0.059279352 0.002208963 0.023178622 -0.048538722 0.017552868 0.050498478
0.07154109 -0.061420858 -0.073904805 0.019728437 0.053762786 -0.0064069554 -0.058683 0.047916062
-0.045256056 0.011651851 0.046178512 0.053985007 0.046102293 0.06283293 -0.044044178 0.06935569
-0.013558321 -0.017286845 -0.07966219 -0.011109017 -0.06421147 -0.03516955 0.06901156 -0.013080113
00000000: 5acd 93bd dca8 d5bc 8f47 6ebd 00fc c5bb
00000010: 58f4 0dbc 7c51 b6bc a0e7 9cbb dbf5 853d
00000020: 67dd 943d f7a6 8e3d 3e5a 063d c6f6 103d
00000030: 1586 6bbd b4be a0bd 8254 6a3d 900d e53b
00000040: 9894 f03c 57e0 0ebd ac65 b93c f8e1 433c
00000050: bfe1 05bd 80fc be3a ccff 953c 8006 f9ba
00000060: e3dd 36bd 03f9 873d 90f3 83bb f4a3 dd3c
00000070: b567 76bd 7daa 10bd 19d7 8b3d 6050 53bb
00000080: 1bfe b4bd 8af3 733d 8c1b f13c b7e8 973d
00000090: aee7 183d 111b 9a3d 3f7d a63d 799b 2cbd
000000a0: bf4b 88bd 28e8 0ebc 189e 89bd 0082 7c3c
000000b0: 17f3 9a3d 4bfb ae3d 8978 8b3d 8401 043d
000000c0: 20fa 13bc 57f8 2abd fc42 40bd bec1 aebd
000000d0: c5b8 8f3d c0b0 edba 7051 1fbc 6108 9a3d
000000e0: 347a 90bc 3496 09bd 3855 9bbd f4fc 6dbd
000000f0: c083 30bb cfb4 96bd 4243 113d c08b 87bc
00000100: 263a 583d 17bb 8abd 8b33 66bd 2c5d d3bc
00000110: 4e81 04bd f634 a6bd cf8c 03bd 9d75 52bd
00000120: d0ae 7f3c 5a06 42bd 40fd 323b 600e e1bb
00000130: 5e61 1f3d ca20 763d c6f4 213d de43 99bd
00000140: bdbf 5fbd 9a02 683d 58d2 71bd 740f a0bd
00000150: 37b6 6dbd 6cb6 f93c bfc5 963d 8059 8dbd
00000160: 9f38 80bd be3e 0fbd 2d8a 9c3d 2386 ad3d
00000170: 9045 babd 1849 31bc f072 85bb c582 aa3d
00000180: d84d a4bd d2ff 16bd 8454 a0bc 0c5d 9f3c
00000190: 7935 ba3d 6a3e 9abd e828 95bc 2d81 7cbd
000001a0: 34be 833c 0f8b 70bd d6d7 413d 501f c53c
000001b0: 6f74 b93d 0078 16ba 501d 53bc 00ad 7e3c
000001c0: d21d 0b3d d26c 7fbd 0af5 503d 5090 61bd
000001d0: 8a35 4a3d f49a 853c 58fc b0bd fc51 1bbd
000001e0: f1d6 9e3d 5482 7bbd f622 1e3d 234b 8abd
000001f0: a694 433d c8dd 60bd 0426 30bd 9205 343d
00000200: dcf0 b5bc 8875 80bd d1bd 0bbd 56fe 0e3d
00000210: 528e 7a3d 402c 853b 1431 ff3c 9a67 12bd
00000220: 7828 8fbc 288a 603c 6e64 183d a357 13bd
00000230: 918f a83d f0bb d73c 2897 2dbd 0883 4abd
00000240: b038 aabb a95e 31bd 27d8 0fbd 504e abbd
00000250: 7ea7 183d 1195 8f3d 3078 b9bd 2005 70bc
00000260: 61e3 a2bd bc33 e63c a0cc cbbb 482d 17bc
00000270: bad9 0a3d 9c35 833c 0c0e d9bc 91fb 4bbd
00000280: 7304 8ebd e598 a13d 7355 abbd 84f7 f13c
00000290: 4659 1d3d 2a47 91bd acd5 debc 9000 ff3c
000002a0: 9077 c43c e204 793d b026 e4bc 6edf 053d
000002b0: 1c5e 88bd 80f0 f53c 02f6 183d a695 2c3d
000002c0: 4e29 b5bd 409c 12bb 17ed bb3d 7c72 de3c
000002d0: 16c1 8fbd d499 afbc 94fd b73c 5241 593d
000002e0: c0f1 b53a 9f04 4dbd 201d 56bc c2f5 513d
000002f0: 1889 843c 8ca7 cf3c 57b6 05bd cdec 78bd
00000300: 37de 82bd 5259 343d 688e 3e3c 47fe 1fbd
00000310: 6059 f33b d266 403d 5777 9fbd 46d4 543d
00000320: b8ba e63c 7ba1 a73d e276 1b3d dc63 9ebc
00000330: 5476 883c 66c7 2b3d 1a5b 56bd c4cb 8e3c
00000340: 6f97 08bd 9aba 9abd ade4 993d ae22 153d
00000350: 50e0 89bc 3eca fbbc 9a70 703d b0aa e4bc
00000360: d268 7e3d 85d6 babd f42f abbd 6808 033d
00000370: ac39 b93c 3bf9 aa3d a870 4bbc ef5f 83bd
00000380: 309a adbd 0b8f 45bd e8ce 72bd 40c4 103b
00000390: 18e1 bd3c 8ad0 46bd 08cb 8f3c 7ed7 4e3d
000003a0: 2384 923d 7094 7bbd 675b 97bd 889d a13c
000003b0: 5e36 5c3d 70f1 d1bb 965d 70bd a243 443d
000003c0: 6a5e 39bd 68e7 3e3c ae25 3d3d 621f 5d3d
000003d0: c2d5 3c3d 8dae 803d ab67 34bd 5b0a 8e3d
000003e0: b823 5ebc 249d 8dbc ee25 a3bd 9802 36bc
000003f0: 4e81 83bd f20d 10bd ef55 8d3d f84d 56bc

bias f4 [13]
-0.0834429 0.014900975 0.05863423 -0.027237453 0.07012091 -0.01973071 0.09222341 0.018899404
-0.048905496 0.092438795 0.06911687 0.059839435 -0.005645074
00000000: 1ce4 aabd 3823 743c 722a 703d 1421 dfbc
00000010: 8d9b 8f3d 4ca2 a1bc a1df bc3d ecd2 9a3c
00000020: 2151 48bd 8d50 bd3d 258d 8d3d 321a 753d
00000030: 50fa b8bb

weight f4 [13]
0.23386419 0.54459673 0.5782988 0.09034234 0.3563388 0.4967926 0.859028 0.24807322
0.35829228 0.4995851 0.008770347 0.90238786 0.63706505
00000000: 187a 6f3e b16a 0b3f 640b 143f 6805 b93d
00000010: 0a72 b63e 9a5b fe3e 42e9 5b3f e806 7e3e
00000020: 1672 b73e 9ec9 ff3e 80b1 0f3c e402 673f
00000030: b216 233f

bias f4 [13]
0.0 0.0 0.0 0.0 0.0 0.0 0.0 0.0
0.0 0.0 0.0 0.0 0.0
00000000: 0000 0000 0000 0000 0000 0000 0000 0000
00000010: 0000 0000 0000 0000 0000 0000 0000 0000
00000020: 0000 0000 0000 0000 0000 0000 0000 0000
00000030: 0000 0000

running_mean f4 [13]
0.0 0.0 0.0 0.0 0.0 0.0 0.0 0.0
0.0 0.0 0.0 0.0 0.0
00000000: 0000 0000 0000 0000 0000 0000 0000 0000
00000010: 0000 0000 0000 0000 0000 0000 0000 0000
00000020: 0000 0000 0000 0000 0000 0000 0000 0000
00000030: 0000 0000

running_var f4 [13]
1.0 1.0 1.0 1.0 1.0 1.0 1.0 1.0
1.0 1.0 1.0 1.0 1.0
00000000: 0000 803f 0000 803f 0000 803f 0000 803f
00000010: 0000 803f 0000 803f 0000 803f 0000 803f
00000020: 0000 803f 0000 803f 0000 803f 0000 803f
00000030: 0000 803f

weight f4 [13, 13, 3, 3]
0.08234497 0.09183929 -0.047413144 -0.06912585 -0.09183956 0.08439296 0.07626466 0.0064817667
0.017468914 -0.008397572 -0.03221898 -0.083499566 -0.002079457 0.05760578 0.053934373 -0.018201396
0.08696506 -0.05473195 -0.06603243 0.062206678 -0.06592229 0.000777483 0.048794262 0.07507073
-0.03320287 -0.03458434 0.014438018 0.075186096 0.082113795 -0.021658242 -0.060628828 0.062236495
0.053211294 0.07046851 0.025038302 0.0773614 -0.005211532 -0.025602832 -0.04968873 0.019448005
0.091000386 -0.0106573105 -0.054053847 -0.05251827 -0.042003635 -0.053307597 0.021594942 0.05513876
-0.0055861846 0.08924217 0.07568789 0.01689972 0.01568608 0.0022904947 -0.04244232 -0.0104326755
0.024869084 -0.08021704 -0.059189234 -0.040222548 -0.05021468 0.08125379 0.059878565 0.045490704
-0.035360765 -0.050535247 0.05438956 0.056661315 -0.060319483 0.052323394 -0.072987825 0.0066277087
-0.05905631 0.07534357 -0.04272754 -0.049807206 0.023616768 -5.2511692e-05 0.034375094 -0.083719194
-0.063629195 0.027670212 0.0044765025 -0.0033583567 0.00057125837 0.029354163 -0.088974565 0.008126497
-0.08363363 -0.08229628 -0.021373428 0.04567095 -0.030998461 0.0303429 -0.0020922646 -0.030250922
0.047649495 -0.09106214 -0.044795506 0.011289656 0.0035067275 -0.049278267 -0.042972527 0.05777756
0.07632617 -0.07851964 0.086161666 -0.032889802 -0.011320353 -0.039193768 -0.02759625 -0.0053090006
0.08874171 -0.046622958 -0.07773937 0.05933637 -0.03929848 0.0014431998 0.005042799 0.06902816
-0.020934798 -0.0052304864 0.025451973 -0.07753471 0.07385676 -0.016265772 -0.007612169 0.0039050505
-0.02330707 -0.006647408 -0.059156775 0.015971147 -0.043600332 0.07386979 0.05006478 0.0766431
-0.051292524 -0.03080374 -0.08376607 0.012612268 0.06827939 0.05052679 0.062033646 -0.054448605
-0.0117479935 0.043713324 -0.063444845 0.038317405 -0.08787953 -0.0898879 0.07801262 -0.031070556
0.06912119 0.040835164 -0.030550823 -0.04094619 -0.018464439 0.022233218 -0.021298006 0.031066857
0.03600026 0.056031205 -0.04966496 0.08085931 0.010504372 -0.0248596 -0.0707788 0.07769702
-0.07075551 0.037805237 -0.039834403 0.09236612 0.025895849 -0.005444072 -0.03771992 -0.00043995678
0.054683648 0.09221845 0.043186598 -0.038020372 -0.04220007 -0.029194169 0.09013026 0.074736364
-0.0015962124 -0.032831248 0.04182551 -0.0012456849 -0.0859555 0.022254147 0.08023284 0.045230903
-0.050131705 0.01157973 -0.08868515 -0.086172424 -0.035763875 -0.008772075 0.0054809675 0.024286002
0.035900094 0.057029583 0.09181956 0.07022209 0.01872056 -0.063309476 -0.074621506 0.06416706
0.0037445053 -0.060718317 -0.013554476 0.0082362145 0.020345546 -0.039193593 0.031955093 0.028108604
0.08778415 0.034615926 -0.077053435 0.06968031 -0.010106891 -0.06027812 -0.0298395 0.037468605
0.034938194 -0.07015221 -0.0500493 -0.031208407 -0.07027818 0.01143647 -0.029590085 -0.04923771
0.015352048 -0.08983325 0.0381298 -0.068575405 0.0688803 -0.0058129057 -0.09243062 0.0397513
0.018864118 0.037942387 0.016800895 0.070524834 -0.06877009 0.091568775 0.0428989 -0.069805235
0.059044577 -0.0778904 -0.057357073 0.020627812 0.069708906 -0.013032272 -0.04051263 0.08659724
00000000: 7ba4 a83d 3d16 bc3d 4934 42bd db91 8dbd
00000010: 6116 bcbd 37d6 ac3d a530 9c3d 0065 d43b
00000020: f81a 8f3c f895 09bc 0df8 03bd d201 abbd
00000030: 8047 08bb 0af4 6b3d 4aea 5c3d 181b 95bc
00000040: bd1a b23d 9c2e 60bd 033c 87bd 6ecc 7e3d
00000050: 4402 87bd 00d0 4b3a 7edc 473d afbe 993d
00000060: bcff 07bd 4fa8 0dbd 708d 6c3c 2bfb 993d
00000070: 472b a83d a06c b1bc ef55 78bd b2eb 7e3d
00000080: 16f4 593d cb51 903d 201d cd3c a76f 9e3d
00000090: 80c5 aabb 08bd d1bc 6986 4bbd 6c51 9f3c
000000a0: 695e ba3d 009c 2ebc 9167 5dbd 661d 57bd
000000b0: 010c 2cbd 1159 5abd e0e7 b03c 2ed9 613d
000000c0: 500c b7bb 99c4 b63d 4102 9b3d 4871 8a3c
000000d0: 1880 803c 201c 163b 00d8 2dbd d0ed 2abc
000000e0: 40ba cb3c d548 a4bd 6970 72bd 66c0 24bd
000000f0: e9ad 4dbd 6368 a63d 3a43 753d 7654 3a3d
00000100: 73d6 10bd 0cfe 4ebd 96c7 5e3d b215 683d
00000110: 9011 77bd 0e51 563d a47a 95bd 402d d93b
00000120: 08e5 71bd bb4d 9a3d 1303 2fbd a402 4cbd
00000130: f477 c13c 0040 5cb8 e6cc 0c3d f874 abbd
00000140: 0650 82bd a4ac e23c a0af 923b e017 5cbb
00000150: 80c0 153a 2478 f03c 4c38 b6bd 0025 053c
00000160: 1c48 abbd f48a a8bd 5417 afbc 7611 3b3d
00000170: 7cf0 fdbc ac91 f83c 601e 09bb c8d0 f7bc
00000180: 1e2c 433d ca7e babd 7e7b 37bd 40f8 383c
00000190: 20d1 653b 02d8 49bd f603 30bd 2aa8 6c3d
000001a0: e550 9c3d e8ce a0bd 8775 b03d 75b7 06bd
000001b0: 0079 39bc a589 20bd 8811 e2bc 20f7 adbb
000001c0: 37be b53d b7f7 3ebd d235 9fbd b20a 733d
000001d0: 71f7 20bd c029 bd3a 103e a53b a35e 8d3d
000001e0: 747f abbc 8064 abbb a880 d03c 85ca 9ebd
000001f0: 3742 973d cc3f 85bc 806f f9bb e0eb 7f3b
00000200: 78ee bebc 80d2 d9bb 604e 72bd ecd5 823c
00000210: 4396 32bd 0b49 973d ba10 4d3d 0ff7 9c3d
00000220: 1c18 52bd 2058 fcbc 8c8d abbd b0a3 4e3c
00000230: 11d6 8b3d 2ef5 4e3d fe16 7e3d 8005 5fbd
00000240: a87a 40bc be0c 333d 5fef 81bd b6f2 1c3d
00000250: 2ffa b3bd 2617 b8bd 15c5 9f3d ae87 febc
00000260: 698f 8d3d c642 273d b845 fabc 31b7 27bd
00000270: bc42 97bc 7022 b63c 2879 aebc ec7f fe3c
00000280: 0275 133d fa80 653d 7c6d 4bbd 9199 a53d
00000290: 881a 2c3c 5ca6 cbbc 7af4 90bd 9d1f 9f3d
000002a0: 44e8 90bd aad9 1a3d 6629 23bd 732a bd3d
000002b0: 8823 d43c 3064 b2bb 3480 1abd 00aa e6b9
000002c0: f6fb 5f3d 07dd bc3d 6ee4 303d 40bb 1bbd
000002d0: fbd9 2cbd 9c28 efbc 3796 b83d 610f 993d
000002e0: 0038 d1ba 0f7a 06bd 3a51 2b3d 4046 a3ba
000002f0: 7009 b0bd 544e b63c 1d51 a43d 0a44 393d
00000300: e756 4dbd e8b8 3d3c 8fa0 b5bd 2b7b b0bd
00000310: 247d 12bd c0b8 0fbc b099 b33b 70f3 c63c
00000320: fa0b 133d da97 693d e50b bc3d 99d0 8f3d
00000330: dc5b 993c 66a8 81bd 29d3 98bd 056a 833d
00000340: 6066 753b c5b3 78bd 9813 5ebc 30f1 063c
00000350: b4ab a63c 7689 20bd 58e3 023d 0444 e63c
00000360: 2dc8 b33d 6ec9 0d3d 31ce 9dbd 8db4 8e3d
00000370: 6097 25bc 31e6 76bd f871 f4bc ae78 193d
00000380: 5a1b 0f3d f6ab 8fbd 7f00 4dbd c6a8 ffbc
00000390: 02ee 8fbd 0860 3b3c e866 f2bc 7bad 49bd
000003a0: 2887 7b3c 7ffa b7bd fe2d 1c3d 4371 8cbd
000003b0: 1d11 8d3d 307a bebb 444c bdbd 42d2 223d
000003c0: ec88 9a3c 7a69 1b3d 08a2 893c 536f 903d
000003d0: 55d7 8cbd 6988 bb3d c2b6 2f3d 0cf6 8ebd
000003e0: bad8 713d 0185 9fbd 40ef 6abd a8fb a83c
000003f0: 8bc3 8e3d 5085 55bc 92f0 25bd e559 b13d

bias f4 [13]
0.043992423 -0.002844736 -0.047673658 0.01609137 -0.005667828 0.026320904 -0.07034317 -0.037100665
0.025817722 0.046874218 0.027948946 0.027351104 -0.029774696
00000000: 6631 343d c06e 3abb 7445 43bd 0cd2 833c
00000010: 30b9 b9bb f09e d73c 1410 90bd def6 17bd
00000020: b07f d33c 2eff 3f3d 30f5 e43c 6c0f e03c
00000030: 10ea f3bc

weight f4 [13]
0.24479729 0.47065973 0.1814732 0.2986077 0.23682463 0.92386913 0.33588046 0.2555725
0.19082862 0.8845558 0.74261296 0.23682648 0.62660205
00000000: 24ac 7a3e 50fa f03e 1cd4 393e 1ce3 983e
00000010: 2882 723e b082 6c3f 86f8 ab3e 66da 823e
00000020: 9468 433e 4072 623f e21b 3e3f a482 723e
00000030: fe68 203f

bias f4 [13]
0.0 0.0 0.0 0.0 0.0 0.0 0.0 0.0
0.0 0.0 0.0 0.0 0.0
00000000: 0000 0000 0000 0000 0000 0000 0000 0000
00000010: 0000 0000 0000 0000 0000 0000 0000 0000
00000020: 0000 0000 0000 0000 0000 0000 0000 0000
00000030: 0000 0000

running_mean f4 [13]
0.0 0.0 0.0 0.0 0.0 0.0 0.0 0.0
0.0 0.0 0.0 0.0 0.0
00000000: 0000 0000 0000 0000 0000 0000 0000 0000
00000010: 0000 0000 0000 0000 0000 0000 0000 0000
00000020: 0000 0000 0000 0000 0000 0000 0000 0000
00000030: 0000 0000

running_var f4 [13]
1.0 1.0 1.0 1.0 1.0 1.0 1.0 1.0
1.0 1.0 1.0 1.0 1.0
00000000: 0000 803f 0000 803f 0000 803f 0000 803f
00000010: 0000 803f 0000 803f 0000 803f 0000 803f
00000020: 0000 803f 0000 803f 0000 803f 0000 803f
00000030: 0000 803f

weight f4 [1, 13, 3, 3]
-0.054051805 0.01906453 -0.024289861 0.035271324 -0.03506526 0.00070886314 -0.0134107545 0.05544711
-0.005833067 -0.06600575 -0.03766423 0.06143541 0.062185667 0.06731444 -0.088576026 -0.044021618
-0.0070860535 -0.07776034 -0.041962713 -0.016170695 0.05032847 0.0731936 -0.03318636 0.065077655
-0.032181993 0.056038417 -0.08688142 0.03790968 -0.029346824 -0.008755423 -0.064220406 0.008026622
-0.0145755485 -0.059044596 0.04168684 -0.05921091 -0.076197565 0.08109643 -0.009593971 0.0881406
-0.0323059 -0.028874531 -0.075119555 0.011872321 0.058232166 -0.0065752342 -0.029148214 0.06406418
-0.024912417 0.036761425 -0.006913841 -0.070128836 -0.017676957 -0.0646554 -0.01034119 -0.022229291
0.0015756488 -0.020732276 0.06442126 -0.036960326 -0.06143032 0.05095028 0.0095689 0.019272417
0.049279325 0.04444725 -0.01752232 -0.06214818 -0.04465262 0.028561227 -0.010744005 0.030350305
0.04910969 -0.036195155 0.0816345 0.062625684 0.008894004 -0.059766047 0.02892062 0.07713119
0.0019202903 0.061304964 -0.08197289 -0.037541304 -0.013024472 -0.05581093 0.07759411 -0.022660375
0.089668326 0.0659337 -0.0050144643 0.018824339 -0.009927042 0.08815279 0.00075814873 -0.06705516
0.019671135 0.025723107 -0.013229445 0.051675133 0.0028061122 0.078022994 -0.07709529 0.010507196
-0.078788355 -0.01051677 0.020096354 0.043806143 -0.09210198 -0.003119178 -0.021954969 -0.084029146
-0.07663509 0.0042533875 0.004108824 -0.019079097 -0.023916118
00000000: 6d65 5dbd 382d 9c3c 88fb c6bc aa78 103d
00000010: 97a0 0fbd 00d3 393a c8b8 5bbc 821c 633d
00000020: 5023 bfbb 062e 87bd cf45 1abd b2a3 7b3d
00000030: 66b6 7e3d 27dc 893d 5967 b5bd 0350 34bd
00000040: 2032 e8bb d040 9fbd 18e1 2bbd 6878 84bc
00000050: 3a25 4e3d 87e6 953d 6cee 07bd 6f47 853d
00000060: 44d1 03bd 8a88 653d e3ee b1bd 2e47 1b3d
00000070: c068 f0bc e872 0fbc fd85 83bd 1882 033c
00000080: 48ce 6ebc bfd8 71bd d2bf 2a3d 2487 72bd
00000090: 780d 9cbd e315 a63d 0830 1dbc 0f83 b43d
000000a0: 3153 04bd 488a ecbc 48d8 99bd 2084 423c
000000b0: da84 6e3d 1075 d7bb 3cc8 eebc 1534 833d
000000c0: 2015 ccbc 2693 163d 808d e2bb b59f 8fbd
000000d0: 44cf 90bc 0d6a 84bd 186e 29bc 341a b6bc
000000e0: 0086 ce3a bcd6 a9bc 4bef 833d b663 17bd
000000f0: 5c9e 7bbd 3eb1 503d e0c6 1c3c 30e1 9d3c
00000100: 1ed9 493d 520e 363d f88a 8fbc 178f 7ebd
00000110: aae5 36bd 3cf9 e93c a007 30bc 34a1 f83c
00000120: 3e27 493d 5f41 14bd fd2f a73d e541 803d
00000130: 28b8 113c 3ecd 74bd f0ea ec3c f5f6 9d3d
00000140: 40b2 fb3a ea1a 7b3d 67e1 a7bd e9c4 19bd
00000150: 9864 55bc 009a 64bd a9e9 9e3d 40a2 b9bc
00000160: 07a4 b73d 3f08 873d 6050 a4bb 8035 9a3c
00000170: 08a5 22bc 7389 b43d 80be 463a 3754 89bd
00000180: 5c25 a13c 44b9 d23c 50c0 58bc 4ea9 533d
00000190: c0e6 373b 85ca 9f3d 23e4 9dbd 6026 2c3c
000001a0: ca5b a1bd 884e 2cbc 1ca1 a43c 126e 333d
000001b0: f69f bcbd 206b 4cbb e8da b3bc 7917 acbd
000001c0: dcf2 9cbd 0060 8b3b 50a3 863b c44b 9cbc
000001d0: bceb c3bc
