pre-trained-tp2/tiny_DnCNN_n2n_l1_2000.pt (torch, 90146 bytes, 37 tensors)

weight f4 [13, 1, 3, 3]
000000 5c 3e 56 3e fd 25 7b 3d 65 1b 08 be 69 77 5d bd
       0.20922226 0.061315525 -0.132917 -0.054068957
000010 01 f1 0b bc 1a 41 d9 3a 7b 96 9c be 08 60 0d 3d
       -0.0085413465 0.0016575188 -0.30583557 0.03451541
000020 4f 95 4d 3e 95 cc 35 be 81 e5 ed bc 6c 86 4e 3d
       0.20076488 -0.17753823 -0.0290401 0.050421163
000030 1b d6 24 be 4c c0 80 bd 21 79 26 3d 66 ee 0a 3d
       -0.160973 -0.06286678 0.04064286 0.03391876
000040 ac b6 19 3d 14 13 08 3d c8 78 55 be 05 30 54 3e
       0.037527725 0.03322132 -0.20846856 0.20721443
000050 f6 91 8c 3d a8 42 2b 3e 8a c0 dc bd ea ac df bc
       0.06863777 0.16724646 -0.107789114 -0.027304132
000060 3c bd 11 3e c7 06 45 be 26 c1 ae bd d0 f1 d6 39
       0.14232343 -0.19240867 -0.08532934 0.00040997425
000070 6a 81 9d bd 08 ca 95 be 45 5f 3f 3c 0b bb 04 3d
       -0.076906994 -0.292557 0.011680429 0.03240494
000080 d0 d0 8d 3e 7c 23 88 bc 61 5e 4f bc 27 0a a9 3d
       0.27698374 -0.016618483 -0.012656779 0.082538895
000090 54 a5 26 3d 8d c2 9f be c5 00 4c bd c5 9f 56 be
       0.040685013 -0.31203118 -0.04980542 -0.20959385
0000a0 84 78 3e be a8 84 08 be 26 e7 57 3e f1 92 bd 3e
       -0.1860066 -0.13331854 0.2108427 0.3702617
0000b0 3e 7e 30 3e 68 49 6c 3d 53 d2 69 3e e9 a4 3e 3d
       0.17235658 0.057687193 0.22834139 0.04654399
0000c0 b7 b6 b0 3d fa 00 26 bf 2a 45 a8 3d 2f cb 97 3d
       0.086286 -0.6484524 0.08216317 0.07411801
0000d0 03 60 29 bc 22 51 28 3d 60 25 90 b3 3e a0 03 00
       -0.010337832 0.041093 -6.712321e-08 3.3299e-40
0000e0 e3 91 68 b5 61 54 01 a2 df db 71 ac c4 cf 86 2b
       -8.663903e-07 -1.752743e-18 -3.4370213e-12 9.578939e-13
0000f0 78 c5 de b3 5e 1b 00 00 f6 19 1b 80 f2 49 3f be
       -1.03736e-07 9.817e-42 -2.488871e-39 -0.18680552
000100 25 6a 0c be 8d 16 86 3b d0 13 d8 bc f5 ff 0b 3d
       -0.13712366 0.0040920437 -0.026376635 0.034179647
000110 a9 1d 14 be 3d 82 d9 3d 05 37 50 3e 89 5f 89 3e
       -0.1446444 0.10620544 0.20333488 0.268307
000120 6d 5f 43 3d 59 ad 32 3e 95 6a 07 3d ee a5 97 3d
       0.047698427 0.1744894 0.03306063 0.074046955
000130 a3 cd 01 bf 42 d5 8d 3d 7d 6e 73 3d 03 9c 41 bc
       -0.507044 0.06925441 0.05943154 -0.011816981
000140 53 a6 e9 3c ac a4 14 bd 4e 3a 72 3d 3e f5 be bc
       0.028521692 -0.036289856 0.059137635 -0.0233103
000150 84 75 46 3e a2 7c 1b 3e 91 2c 89 be a4 f9 1d be
       0.19380766 0.15184262 -0.26791814 -0.15427262
000160 0d 12 8e 3e c4 cc 2e be e6 ae f9 bd a7 25 e3 3d
       0.27748147 -0.170703 -0.12191562 0.11091166
000170 22 37 2d 3e 9f 39 ba bd 3c 68 1c 3e a9 b2 3b 3e
       0.16915563 -0.090930216 0.15274137 0.18329872
000180 57 7e bb bd 69 ee a3 bd 8e d7 b9 bd 66 a6 bc 3d
       -0.09154957 -0.080044575 -0.09074317 0.092114255
000190 eb 62 50 3d ca 59 c8 3d ee c9 6b bd cb 60 b4 bd
       0.050875586 0.09782751 -0.057565622 -0.08807524
0001a0 2e ae 19 3d dd c3 d4 bd 8d 27 1b be bd 36 a7 bb
       0.037519626 -0.103889205 -0.15151806 -0.005102961
0001b0 50 14 a5 bd 3f 35 8c be 4c 63 ad 3e 46 7c 20 be
       -0.08060515 -0.27384374 0.3386482 -0.15672407
0001c0 ee bb 55 be f1 08 b4 3e 86 cd b6 bd ad ca ff bd
       -0.2087247 0.35163072 -0.08925919 -0.12489829
0001d0 f7 d2 61 3e
       0.22053133

bias f4 [13]
000000 78 77 62 3d 01 10 83 3d 8e d8 c1 3c dc 1f 54 3d
       0.055289716 0.06399537 0.023662832 0.051788196
000010 92 69 10 3d 0d 17 9d 3d 7d c9 06 00 75 95 ec 3c
       0.03525693 0.07670412 6.23293e-40 0.02887986
000020 53 e4 ee bd 86 f5 b7 3c 5f 2c 68 3d 07 97 5b 3d
       -0.11664643 0.022455942 0.05668294 0.053610828
000030 70 d1 16 3d
       0.03682083

weight f4 [13]
000000 d6 cb 0e 3e 7d d5 45 3e 4b b1 84 3d b0 26 0f 3e
       0.13944945 0.1931972 0.064791285 0.13979602
000010 e8 04 26 3e ae 6c 9b 3e 2a 8f 0f ba 87 db d1 3d
       0.16212809 0.30356354 -0.000547635 0.1024695
000020 a2 9f b9 be 79 92 91 3d 69 61 3f 3e 05 29 f2 3d
       -0.36254603 0.071080156 0.18689503 0.1182423
000030 d1 7d 3b 3e
       0.18309714

bias f4 [13]
000000 08 73 04 bd 1b e6 57 be 9c 43 10 3e 3e 37 80 bd
       -0.032336265 -0.21083872 0.14088291 -0.062605366
000010 52 b6 b3 3e 6b d0 fa 3d c5 13 b0 bb 37 5d 0a 3e
       0.35100037 0.12246784 -0.0053734505 0.13512121
000020 ca 36 0c be 5e 61 a5 3e bb 3a 03 be 26 f5 90 3c
       -0.13692775 0.32300848 -0.12815373 0.01769502
000030 17 89 b2 3e
       0.34870216

running_mean f4 [13]
000000 5f 9f 6d 3d 5a 37 12 bd 5e 0e 05 3c 5f 74 68 3d
       0.058013316 -0.03569732 0.008121101 0.056751605
000010 4b 7a 40 bc 3b e3 49 3d 0e ee bc b4 a8 17 a1 3d
       -0.011747907 0.04928897 -3.5190936e-07 0.0786584
000020 37 03 0d be 1f 2f 27 3d 53 f6 f4 3d 06 c5 29 bb
       -0.13770758 0.040816423 0.11961045 -0.0025904789
000030 50 a5 a7 3c
       0.02046457

running_var f4 [13]
000000 05 c6 7f 3b 90 85 9f 3b 0e d1 66 3b e8 f9 81 3b
       0.003902794 0.004868217 0.003521982 0.0039665587
000010 bb db 5a 3c ce 25 1c 3c 2f 40 9d 2a 93 ed 00 3c
       0.013358052 0.009530498 2.793334e-13 0.007869142
000020 e2 bc be 3b d0 51 c4 3b 9f db bb 3b 9e 95 55 3b
       0.0058208564 0.005991198 0.005732968 0.00325904
000030 32 48 7a 3c
       0.015276002

weight f4 [13, 13, 3, 3]
000000 c0 bf e0 3c 21 c3 52 3d fc 11 97 3d 77 38 90 3c
       0.027435184 0.05145562 0.07376477 0.01760505
000010 64 ce 05 3d 9a 19 95 3d bc 43 94 3c c0 79 6b 3d
       0.032667533 0.07280274 0.018098705 0.057489157
000020 75 37 ce 3c 5a 11 77 3d e6 e6 b6 bb 10 b7 c3 bc
       0.025172928 0.060319282 -0.0055817245 -0.023891002
000030 cd 3d 46 3d 65 f0 44 bb 85 d7 81 bd 3a bb 5d 3d
       0.04839878 -0.0030050513 -0.06339935 0.05413363
000040 d5 3f 70 3c 37 57 7b bd df 58 b2 3d 38 95 d7 3a
       0.014663656 -0.06136247 0.08708357 0.0016447669
000050 41 63 d6 3b a8 d1 5f 3d c2 64 4b 3d 3c a4 43 3d
       0.0065425937 0.054643303 0.049656637 0.047764048
000060 f4 54 30 3b 8f f0 2c 39 59 8b 5e 3c e5 28 06 bc
       0.0026906105 0.00016492813 0.013583028 -0.008188461
000070 8a 96 88 bc d1 f7 d9 3b 7f 6b 15 3c da da 0c bd
       -0.016673345 0.0066518565 0.009119867 -0.0343884
000080 69 bb b7 bc 53 d4 b0 bb 95 4d 95 bc 2a c9 0d bc
       -0.022428231 -0.005396405 -0.01822547 -0.008653918
000090 6c 0e de bc b7 1d 46 bc b6 e4 02 3e 58 57 e4 3c
       -0.027106486 -0.0120920455 0.12782559 0.02787368
0000a0 04 53 33 3d 33 d4 be 3d 70 ed 0e 3d 77 31 ee bc
       0.04378034 0.093178175 0.034894407 -0.029076321
0000b0 90 1a 33 3c 14 31 d4 bc 53 e8 0d bd da 00 77 3d
       0.010931626 -0.025902309 -0.03464539 0.060303546
0000c0 81 4b a8 bc 2e c5 a7 bc b7 b9 4f 3d 5f c0 88 3c
       -0.020543816 -0.020479765 0.05071422 0.016693292
0000d0 fa 28 36 3c ac 69 fa 3c d1 4f a0 b8 bc f0 1a b5
       0.011118168 0.030567966 -7.6442615e-05 -5.7719785e-07
0000e0 a5 e6 e0 b6 6f b4 c7 b7 05 fb 1f 38 4e ac 7f b7
       -6.7025708e-06 -2.380667e-05 3.8142334e-05 -1.5239302e-05
0000f0 bc 8a d3 ad 23 5d 15 b9 2d e9 b6 ad a0 05 1d bd
       -2.4049533e-11 -0.00014244443 -2.0794555e-11 -0.038335443
000100 b1 ea 27 bd ef 01 85 3c 22 9a a4 bc 2f 07 b8 3b
       -0.040995304 0.016236274 -0.020093028 0.0056160907
000110 89 32 dc bb 99 3e 83 bc e2 c1 b3 3a 1c a6 7f bb
       -0.0067198914 -0.01602106 0.0013714398 -0.003900892
000120 8e 52 70 3c 50 38 1f 3d 03 3f ab bc 2a f2 c2 3c
       0.01466812 0.038872063 -0.02090407 0.023797113
000130 7a ae dc 3c 5a 2c 0d bd 9a 47 0b bc 2d 0f d9 3b
       0.026938666 -0.034466125 -0.008500958 0.0066241235
000140 20 2c a6 bc 7c 8c ab 3d 32 85 ad 3c 2c 32 45 3c
       -0.020284712 0.08376405 0.021181677 0.012035888
000150 2f 5a f7 3d 9a a5 96 3d bf f2 fc 3c 43 b8 c1 3d
       0.12077748 0.07355805 0.03087747 0.09458973
000160 bc 4d d2 bc fb 15 9b bc 6f 0a 33 3d 6f 35 6b 3d
       -0.025671832 -0.01893138 0.043711122 0.057424005
000170 40 cb dc 3d 9c f5 50 3b 42 05 73 bd ee 4d 68 3c
       0.10780954 0.0031884676 -0.059331186 0.014178736
000180 c2 a9 f3 3b 3d e5 c0 bc 66 7b 17 b9 41 3e 81 bd
       0.007436008 -0.02354681 -0.00014446452 -0.06310702
000190 68 c9 c7 bc ce 44 94 bd 86 7f 0f 3c 44 13 6c bc
       -0.02438803 -0.07239686 0.008758431 -0.01440889
0001a0 74 fa 86 3c a6 a9 23 3c f8 6f ed 3a 6a 65 d2 ba
       0.016476847 0.009989178 0.0018115034 -0.0016051952
0001b0 3c d1 ed bd b0 ab 86 bd 0f 2c 00 bc b3 c1 e4 bd
       -0.11612174 -0.065757155 -0.007823004 -0.11169758
0001c0 47 aa 19 bd 9e 08 83 bd 7f aa 82 bd 19 07 8a bd
       -0.037515905 -0.06398128 -0.06380176 -0.06739635
0001d0 27 da 40 bd fd cc ad 3c 69 d3 16 bc 6c 40 29 bd
       -0.047083046 0.02121591 -0.009205678 -0.041321203
0001e0 d8 54 71 3b 32 64 2a bd a4 de 45 bd 28 1e df bc
       0.0036824252 -0.04159946 -0.04830803 -0.02723606
0001f0 11 67 1f bd 10 53 fa bc 7c d2 79 3c 67 a9 4d 3d
       -0.03891665 -0.030557185 0.015247937 0.050210383
000200 b8 c5 24 3d 1b 97 eb 3c 31 17 91 3d 14 02 b7 3d
       0.04022762 0.028758576 0.070845015 0.08935943
000210 62 72 8d 3c e9 99 9a 3d ed 81 99 3d 95 dd 43 bd
       0.017266456 0.07548887 0.074954845 -0.04781874
000220 28 dd 3e 3c 8e 83 2a bc f8 88 ae bc e8 d0 14 bc
       0.011649407 -0.010407342 -0.021305546 -0.00908301
000230 88 7a ef ba 4b b6 83 3b 94 33 a0 bd fb 19 0e 3c
       -0.001827077 0.0040195337 -0.07822338 0.008673186
000240 48 b7 d6 bb 36 0e 1b 3c d6 27 04 bd 2a 8e 88 bc
       -0.0065526105 0.009463837 -0.032264553 -0.016669352
000250 54 e1 9a 3c a6 87 e4 bb 3d 96 5f 3d b5 64 8e 3b
       0.018906273 -0.0069741784 0.054586638 0.0043455013
000260 23 f3 83 bc d9 66 04 bd f7 ad f6 bc d2 50 a9 bd
       -0.016107148 -0.032324646 -0.03011225 -0.082673684
000270 ee cc b5 3d 19 2e 56 3e 44 d2 8f 3c ab 1f f7 3b
       0.08876978 0.20916022 0.017556317 0.007541617
000280 b3 e1 a1 3d 06 61 12 3c 46 cf e7 3c 20 46 2c 3b
       0.07904377 0.008934265 0.028297078 0.0026286915
000290 b7 74 4d bb 34 65 32 bb 69 8c b1 3e 29 b4 8e 3c
       -0.0031350085 -0.0027220966 0.34677437 0.017419891
0002a0 7e 4f ff bc ec 34 94 bd 23 7f 80 bc 87 b2 bf 1e
       -0.031165835 -0.072366565 -0.015685624 2.0296749e-20
0002b0 dd 19 da ae b4 08 81 1e 98 65 77 2c bb fc 4f 1b
       -9.9180865e-11 1.3662006e-20 3.5157207e-12 1.72043e-22
0002c0 02 33 7c 89 c7 61 ad 16 6a c2 18 92 8c 63 48 8a
       -3.035738e-33 2.8011364e-25 -4.8202377e-28 -9.6483724e-33
0002d0 a1 0d e7 3d 95 e5 1b 3d cd 0c 02 bd 8a 67 51 3d
       0.112818964 0.038060743 -0.03175049 0.051124133
0002e0 f8 9c 80 bc bc bb 7e bd 78 58 f7 3b 6f 93 8d 3c
       -0.015699849 -0.062190756 0.007548388 0.017282216
0002f0 63 3d 78 3c b3 33 8c 3c cb dc 99 3c 2d 85 0f bc
       0.0151513545 0.017114496 0.01878204 -0.008759779
000300 5f 30 d9 bb 0c f4 a9 bc b3 e3 64 bd 42 88 5c 3c
       -0.0066280807 -0.020746253 -0.055881213 0.013460221
000310 f8 e1 05 3e 21 83 18 bd b9 89 2f bd 0e 9d 40 3c
       0.13074481 -0.03723443 -0.042855952 0.011756195
000320 1b 44 f6 bc 9f ae fc 3c 3e b2 31 3d 5a 83 9f bd
       -0.030061772 0.030844985 0.043382876 -0.07788725
000330 47 55 68 bc b1 37 46 3d c8 5b 78 bc 47 84 c3 bb
       -0.014180488 0.048392955 -0.015158601 -0.0059666964
000340 ae 42 d2 3c 08 51 c1 bc e4 44 57 3d d0 25 d9 3c
       0.025666561 -0.023598209 0.052555934 0.026507288
000350 be 58 a8 bd 9e 60 3b 3d 98 66 38 3d 95 4b e3 bc
       -0.08220051 0.04574644 0.045019716 -0.027746001
000360 7d 1c ec 3c ef 49 94 3d 1f 56 3d 3d 8f df ee 3c
       0.028822178 0.07240664 0.04622471 0.029159335
000370 ad a8 65 3d 28 41 e5 3c d9 59 f8 bc aa 96 13 bc
       0.056069065 0.02798517 -0.03031628 -0.009008089
000380 ed 1c a8 bc 11 d1 31 bd e1 8e 0a bd a1 9d 8e bb
       -0.020521605 -0.043412272 -0.033827666 -0.004352287
000390 89 5c 88 bd 86 e2 f7 3d bc c6 60 bc 04 7c 2e be
       -0.06658275 0.12103753 -0.013719257 -0.17039496
0003a0 57 b9 b0 3d fd 7f c2 bc af 36 4a 3c 4e aa 74 bb
       0.08629101 -0.02374267 0.012342139 -0.0037332955
0003b0 c6 39 46 bc 75 97 83 3b 7e 3f 0b 3c ac 51 af bb
       -0.012098735 0.004015858 0.008499024 -0.005350312
0003c0 cd 79 6c 39 6b ad 36 3a 8a 87 5a bc c3 1a 99 bc
       0.00022552088 0.00069685903 -0.013337979 -0.018689519
0003d0 16 ec 9e bb 8d 74 37 bc ec f4 21 3c 35 3f e7 3c
       -0.004849921 -0.011197221 0.009885054 0.028228382
0003e0 c1 5b 71 3d f6 67 c0 3b f1 39 e6 ba 62 5e 91 3c
       0.058925394 0.005871768 -0.0017564875 0.0177452
0003f0 e3 58 ab 3d f2 a2 14 3d 0f 8c d3 bc 8e b3 a7 3c
       0.08366563 0.03628821 -0.025823621 0.02047136

bias f4 [13]
000000 8e f4 be 3d 54 d8 06 3d 76 85 0b 3d 2b 11 a0 3d
       0.09323989 0.03292115 0.034062825 0.078157745
000010 21 c3 1a 3d d6 c4 50 3d b0 b5 3b 3d a0 f5 0f 3d
       0.037783746 0.050968967 0.045827568 0.035146356
000020 3b 51 41 3d 92 60 3a 3d 19 ee 3e 3d e7 08 a5 3d
       0.047196608 0.045502253 0.046613786 0.080583386
000030 cf 07 30 3d
       0.042976197

weight f4 [13]
000000 cd ed 72 3e 36 39 3a 3e 95 5c 18 3e 99 72 1b 3e
       0.23723526 0.18185887 0.14879067 0.15180434
000010 d4 45 57 3e 88 b9 07 3e 6d 97 23 3e cc e0 d8 3d
       0.21022731 0.13254368 0.15975733 0.105897516
000020 8e 32 08 3e a1 6f 6c 3e c3 dd 08 3e 21 d3 87 3e
       0.13300535 0.23089458 0.13365845 0.26528266
000030 6d 02 f8 3d
       0.12109838

bias f4 [13]
000000 f7 b7 8a bd d0 cd c3 3e 48 93 77 3e d1 2f 85 bc
       -0.0677337 0.3824296 0.24177277 -0.016258152
000010 1c 19 22 3e 50 e0 0b 3e 70 15 4f 3e 30 df 4c 3e
       0.15829891 0.13659787 0.20223022 0.20007014
000020 f2 51 4a 3d 68 90 3f 3d 0d a0 b3 bb 97 9e 1f be
       0.049394555 0.046768576 -0.005481726 -0.15587841
000030 ed 00 3e 3e
       0.1855504

running_mean f4 [13]
000000 9a a7 1b 3e 02 2a 00 3e 06 e4 1f be e2 1e f6 3c
       0.15200654 0.12516025 -0.15614328 0.030044023
000010 27 a9 27 3d 36 7e 49 bc 19 d5 82 3d 9e 64 19 3e
       0.0409328 -0.012298157 0.063883014 0.14979789
000020 e3 8a 2c 3e f9 8d 49 bd 4f bb 4d 3c f7 2d ef 3e
       0.16849856 -0.04920766 0.012556865 0.46714756
000030 48 06 29 3e
       0.16506302

running_var f4 [13]
000000 80 68 5d 3b 34 26 96 3c 1e 9b 14 3c 8d cc 0c 3b
       0.003378421 0.018328764 0.009070186 0.0021484226
000010 45 8d 9b 3c 49 7d 7d 3b 86 50 e7 3b fc 68 a8 3b
       0.018988261 0.0038679412 0.0070591597 0.0051394682
000020 26 7f 99 3b 62 f6 71 3c f8 9d 88 3b b1 07 b3 3b
       0.0046843467 0.014768215 0.004169222 0.0054635634
000030 95 82 8e 3b
       0.0043490627

weight f4 [13, 13, 3, 3]
000000 8d 1c e8 3c 61 53 2a bd 1a d6 52 3c f2 96 89 bd
       0.028333927 -0.041583423 0.012868429 -0.06718244
000010 06 53 b1 bd 42 65 27 3d e0 cb 0b 3d e7 20 d8 3a
       -0.086584136 0.04086805 0.034129977 0.0016489298
000020 6d 45 aa 3d 46 72 8a 3d 38 18 3f bd 79 61 e4 ba
       0.08314023 0.06760077 -0.046653956 -0.0017424069
000030 43 52 4a 3d 64 61 88 bc ec dd 33 bd 32 53 e2 3b
       0.049394857 -0.016648002 -0.043912813 0.0069068903
000040 b4 fb e2 bc ef 98 15 bd ec b0 7c bc 33 5f 6c 3b
       -0.027707912 -0.036522802 -0.015423041 0.0036067485
000050 5a 71 79 3c ab 85 b5 bc b5 55 95 3d 90 92 92 3d
       0.015224779 -0.022158464 0.07291738 0.07156861
000060 26 d7 bb bc fc 4a 9f bd 04 ec 09 3d c9 c6 eb bc
       -0.02292974 -0.07777974 0.033672348 -0.028781312
000070 3d e6 88 bc b5 2d 40 bd 15 90 aa 3c 81 71 d0 bc
       -0.016711349 -0.04691859 0.020820657 -0.025444748
000080 5a 4f 48 bd 1f 83 47 bd bc 4e 81 bd 6e e8 70 bd
       -0.0489038 -0.04870903 -0.063138455 -0.058815412
000090 28 ad 6a 3d 77 c3 08 3c 1a dc 85 3d b0 4f fb 3c
       0.05729404 0.008347384 0.06536122 0.030677646
0000a0 34 98 85 bc 17 45 14 3d e2 d3 c0 3c 32 97 a3 bc
       -0.016307928 0.0361987 0.023538534 -0.019969556
0000b0 8d bf 8a 3d c9 84 aa bd 40 83 35 bd 84 a4 27 bc
       0.06774817 -0.08326108 -0.044314623 -0.010232095
0000c0 4e 13 42 bd f9 79 d7 bc 95 7a 06 3d 7e 84 a7 bc
       -0.04738169 -0.026303278 0.032831747 -0.02044892
0000d0 6a 4e c0 3b 49 7b 14 3d da 1b c8 3c aa 01 cd bb
       0.0058687227 0.036250386 0.024427343 -0.006256302
0000e0 44 b0 99 3c 93 eb 3d 3d 81 03 33 bd 55 16 a6 bc
       0.018760808 0.04636724 -0.043704513 -0.02027432
0000f0 de 8c 18 3d 81 09 cc 3c d5 ae 2b 3d e1 58 07 bb
       0.037243716 0.024906876 0.04191478 -0.0020652341
000100 88 c4 24 3d c5 37 07 bd 7f 38 af bc cc 39 93 3c
       0.04022649 -0.03301217 -0.021389244 0.017971896
000110 5a 97 49 bc 43 5b 5d bd 52 cc bd ba 64 f1 d5 bb
       -0.012304151 -0.054042112 -0.0014480448 -0.00652902
000120 8b 8f 10 bd 71 41 a7 bc e0 80 bd bc c7 d0 5d bc
       -0.035293143 -0.020416947 -0.023132741 -0.013538546
000130 3e 92 5a 3c 9f 91 ec bb 14 f8 23 bb 93 98 a7 3c
       0.013340531 -0.007219508 -0.0025019692 0.020458495
000140 ea 72 85 bb 7b ef 02 bd 17 87 9c 3d 3f d1 c3 bc
       -0.0040725367 -0.031966668 0.07642954 -0.023903487
000150 d4 af 33 bd af 57 07 3e 60 46 96 b9 09 7a 16 3a
       -0.043868855 0.13217042 -0.00028662663 0.00057402306
000160 19 6d 13 3d f9 a2 44 3d db 68 1d 3d f4 41 4f bc
       0.035992716 0.048006985 0.038430076 -0.012650002
000170 20 1e 75 bd 44 91 38 bb 7c 96 98 bc 16 b3 87 bd
       -0.059843183 -0.0028162757 -0.018626444 -0.06625955
000180 d7 0f 03 bd 7b 92 f1 bc 63 ed 2b bd 06 2e d0 bc
       -0.031997528 -0.029488793 -0.041974436 -0.02541257
000190 c3 bc a2 bd c8 d0 66 bd 56 2c 2b bc 86 d9 3e bd
       -0.0794616 -0.056351453 -0.010447582 -0.046594165
0001a0 b3 06 35 bc 0d b1 3e bd d7 ec 49 bd bc e3 1a bc
       -0.0110489605 -0.046555568 -0.049298134 -0.00945371
0001b0 5d 31 01 3c af 7e 3f 3b 3a 4e 6f bc 29 4c 4d bc
       0.007885304 0.0029219796 -0.014606053 -0.012530365
0001c0 71 82 3e 3d bf b6 17 3d 8b 21 42 bc 66 e4 a4 3d
       0.046511117 0.037039515 -0.011848818 0.08051376
0001d0 dd 2b e6 bc 4d d4 6d 3d 60 ce 80 3d 63 54 61 3d
       -0.028097088 0.058063794 0.06289363 0.055012118
0001e0 ed 46 8e 3d ac 0d da 3c 94 02 03 bb f6 8d d1 3d
       0.06947122 0.026617847 -0.001999055 0.10232155
0001f0 b2 28 1a 3b 35 83 8a bc e3 95 4b bc e2 f1 1c bd
       0.0023522791 -0.016908268 -0.0124258725 -0.038316615
000200 25 76 de bc a0 91 06 bd 53 c9 c8 3c 6b 1a 83 bb
       -0.027155945 -0.032853723 0.024510061 -0.004000952
000210 fa bf 32 bc 00 f0 8c bc e0 72 4c bc 67 1e b6 3c
       -0.010910029 -0.017204285 -0.01247856 0.022231294
000220 11 ee 74 3a 34 e8 10 3d 91 38 0b 3d f8 56 68 3d
       0.0009343336 0.035377696 0.033989493 0.056723565
000230 19 7e 4b bc 7a 1f e9 3c 18 7c d8 3c c3 55 0b 3d
       -0.012420201 0.028457392 0.02642636 0.034017336
000240 bb 7d 17 3d 85 53 15 3d 60 fd b5 3b 56 d7 d5 3c
       0.03698514 0.036456604 0.0055538863 0.026103657
000250 c4 86 2f 3d 2c 36 93 bc f4 14 0c 3d 4a 52 bd 3a
       0.042853132 -0.017970167 0.03419967 0.001444408
000260 55 af 3e 3c 71 8c 42 3c 59 6f ee 3b 57 0e 5c 3c
       0.011638482 0.011874304 0.0072764573 0.013431153
000270 79 fd 1d 3d 5b c9 9e 3d 0b ed b4 3b cf 81 02 3c
       0.03857181 0.07753249 0.005521422 0.007965519
000280 d9 84 d4 3c 98 2c 4f 3a 99 9e 95 bc c4 e4 bb bb
       0.025942253 0.00079030683 -0.018264102 -0.005734058
000290 81 8a 90 3c 96 c2 b4 bd 80 36 18 bc be 10 1a bd
       0.017644169 -0.08826177 -0.009290338 -0.037613623
0002a0 0b c7 3f bb ac 54 9d 3d dd 1e 23 3d 5e 41 83 3c
       -0.0029262926 0.076821655 0.039824355 0.01602238
0002b0 2c 3c a0 bc 61 4f d3 3c 25 8d dd 3b 17 3b 07 3d
       -0.019559942 0.025794687 0.0067612105 0.033015337
0002c0 d7 fb 2f bb ed 34 31 3c 13 6a fc 3c 52 63 c8 bc
       -0.002685299 0.010815841 0.030812299 -0.024461422
0002d0 cb 54 13 3d 2c ab 9a 3c af 8e d5 3c 6a 97 05 bd
       0.035969537 0.01888045 0.026069013 -0.032615103
0002e0 ea 3f 71 3d 4d dd 90 3d f6 b4 aa 3c e8 ec 41 3d
       0.058898844 0.0707346 0.020838242 0.047345072
0002f0 15 2e 15 3c f9 cc bc bc 8f 56 47 3d 5b 83 27 3d
       0.009105225 -0.023046957 0.048666533 0.040896755
000300 83 c2 98 3c a2 95 86 3d 58 ee 98 3d 11 0c 0b 3d
       0.018647438 0.06571509 0.074673355 0.033947054
000310 2a 53 4b 3c a7 6d 16 3d 8a a8 3a bc a3 7b 06 bc
       0.012409965 0.036725666 -0.011392722 -0.008208188
000320 46 ca ff ba a1 a8 3a bc 21 2b 88 bc fa 6f d1 ba
       -0.0019515238 -0.011392743 -0.016622128 -0.0015978806
000330 9e 80 23 bc bc 4d 25 3e ad 47 27 bd ef bd 41 bd
       -0.009979395 0.16142935 -0.04083984 -0.047300275
000340 2a cb fe bc f2 0a 58 bd 36 58 8d bd 32 8e 3a bd
       -0.031102736 -0.052744813 -0.069015905 -0.045545764
000350 c6 98 1d bd 8a d2 55 bd 26 2e 5c bd 2a 5d 15 bd
       -0.038475774 -0.05220274 -0.053754948 -0.0364658
000360 e6 02 a2 3c b2 f6 68 3d 6b c0 82 3d 3f 91 4e 3d
       0.019776773 0.056875892 0.06384357 0.050431486
000370 9f 24 9c 3d 7a e0 17 3c 3b c8 b0 3c ca 24 a5 3d
       0.076241724 0.009269828 0.021579852 0.080636576
000380 2a 98 18 3d 35 40 95 3c 13 4d 1b 3d d7 82 a5 bd
       0.03725449 0.018219093 0.0379153 -0.08081596
000390 35 dc 3a bc 37 0c 54 3d 62 2b fa bc 34 fc 36 bd
       -0.0114050405 0.05176946 -0.030538265 -0.044674113
0003a0 36 4e 2d 3c 37 f8 cd bb 8c 3b 01 bd d0 60 51 bd
       0.010577729 -0.006285693 -0.03155093 -0.05111772
0003b0 eb 12 3e bd 13 1d 2a bd 41 64 41 bd 12 0b c5 bb
       -0.04640476 -0.041531634 -0.04721475 -0.0060132826
0003c0 80 8b 09 bd d2 da f9 bc 05 fe 21 3d 42 53 20 3d
       -0.033580303 -0.03049985 0.039548893 0.0391419
0003d0 a1 7f 9d 3d e2 fd 74 3b 9a 02 43 bd e2 99 c3 3c
       0.07690359 0.0037382771 -0.047609903 0.023877088
0003e0 db 12 af 3c af bd bd 3c ae af fe bb b4 fb 7b 3c
       0.021371296 0.023161737 -0.0077724075 0.015379835
0003f0 d9 d5 ec bd 4f c3 f0 bd 92 eb ca bb 6f 41 46 bd
       -0.11564226 -0.11756002 -0.006192633 -0.048402246

bias f4 [13]
000000 ec 5c 15 3d b9 59 4d 3d cf 0f 3d 3d e5 51 a8 3c
       0.03646557 0.050134394 0.046157654 0.020546863
000010 50 84 79 3d 53 1c d2 3c ad 8c 2a 3d 58 1b 15 3d
       0.0609172 0.025648272 0.041638065 0.03640303
000020 61 7c a3 3d 80 4e a4 3d de 7d 49 3d b2 9a e8 3c
       0.07982708 0.08022785 0.049192302 0.028394077
000030 27 20 8f 3d
       0.069885544

weight f4 [13]
000000 ab 8e ff 3d 07 8e 09 3e ff bb 3d 3e 64 f7 17 3e
       0.12478384 0.13433085 0.18528746 0.14840466
000010 3d ce 26 3e 05 1f 05 3e 5a 8d 49 3e f5 97 39 3e
       0.16289611 0.13000114 0.19682828 0.18124373
000020 50 1d 6c 3e d9 9f 4a 3e ac 6d 50 3e c9 39 31 3e
       0.23058057 0.1978754 0.20354337 0.173072
000030 17 e9 26 3e
       0.16299854

bias f4 [13]
000000 d6 68 1c 3e ea fa 55 3d 1f 9f 64 3e a9 69 e9 3e
       0.15274367 0.052241243 0.22326325 0.45588425
000010 89 4d 85 3d 91 87 99 3e 22 09 9d bd 08 39 ad 3d
       0.06508929 0.2998624 -0.076677576 0.084581435
000020 26 69 18 3e 9c 89 10 bd a0 41 6c 3e 96 91 7b 3e
       0.14883861 -0.035287485 0.23071909 0.24567255
000030 66 b5 b5 bc
       -0.022181224

running_mean f4 [13]
000000 1b ad 81 3d 03 94 42 3e ee 1d d4 3a bf 98 61 3d
       0.063318454 0.19001774 0.0016183236 0.05507731
000010 07 2d 08 bd 38 e1 9b 3e ff bf 91 3d de 0c 97 3d
       -0.033246066 0.30445266 0.071166985 0.07375501
000020 14 9a 0d 3c 6f 5a 97 3c 6e 66 aa bd 3c 6e bb 3e
       0.008642692 0.01847574 -0.08320318 0.3660754
000030 41 e7 ce 3d
       0.10102702

running_var f4 [13]
000000 03 fe c9 3b 17 49 8b 3b f3 52 04 3c 88 a8 f3 3c
       0.0061643138 0.0042506563 0.008076417 0.029743448
000010 64 d0 75 3b 97 5b 67 3c 92 e0 32 3c ff 7d 52 3c
       0.0037508244 0.014120958 0.0109178 0.012847423
000020 8c 98 8c 3b 88 5d 4d 3b ee e6 23 3c 2c 0c b9 3c
       0.004290646 0.0031336267 0.010003788 0.022588812
000030 01 cc 15 3b
       0.0022857192

weight f4 [13, 13, 3, 3]
000000 4f b4 40 bd f3 98 72 bd 03 1c 7f bb 00 be ef 3b
       -0.047046956 -0.059227895 -0.0038926608 0.007316351
000010 a6 b5 19 3d 7c 49 c4 bc 2f 64 1b 3d 29 f6 c0 3d
       0.03752675 -0.023960821 0.03793734 0.09421951
000020 ce 9c 03 bd 68 b0 17 bd 4c 45 86 bd 3a 95 0f bc
       -0.032131962 -0.03703347 -0.06556186 -0.008763606
000030 e9 2d 2c bc 9f df 04 bd f2 3a 5c 3c c6 81 1f 3b
       -0.010508993 -0.032439824 0.013441788 0.0024338826
000040 00 a4 0f 3c 72 86 90 3c 53 a2 79 bc 10 34 bd bc
       0.008767128 0.017642234 -0.015236455 -0.023096114
000050 30 61 48 3c ad c4 91 3d 12 bf 06 ba 34 a9 9d 3d
       0.012230203 0.07117591 -0.0005140166 0.076982886
000060 6f 42 1a bd 2e 77 0a bd 2e e6 31 3d ce dc 28 3d
       -0.037661012 -0.033805065 0.043432407 0.0412262
000070 70 8a d3 3c 65 3f 7a 3c ed 91 5f 3e 35 28 69 3c
       0.025822848 0.0152739035 0.2183301 0.0142307775
000080 9c 42 57 bd c4 cb ad bd d9 f1 f3 3d 0f 84 81 39
       -0.052553758 -0.08486131 0.11911363 0.0002470319
000090 7f f3 20 bc da 29 5f bd 8b 5a a3 bc 05 d8 14 3d
       -0.009823679 -0.054483272 -0.019940635 0.036338825
0000a0 ff d0 d7 3c 20 20 f6 3c a8 38 51 3d a1 78 d8 3b
       0.026344774 0.030044615 0.051079422 0.006606177
0000b0 97 11 7f 3d 0c b9 1a 3d d4 b3 9e 3d 81 8b 1f bc
       0.062272634 0.03777413 0.07749143 -0.00973785
0000c0 49 1e 89 bc 68 6f 2b 3e 29 4e 91 bc 42 a9 96 3c
       -0.016738074 0.16741717 -0.017737465 0.018391255
0000d0 f5 2c ef 3b e5 03 a5 bc 5a bf 9b 3c 8e ee 84 3a
       0.0072990605 -0.020143459 0.019012142 0.0010141896
0000e0 d4 7d 70 bb 4f de 25 3e fa fa 87 3d 03 b2 bf bb
       -0.0036696093 0.16198085 0.06639667 -0.005850078
0000f0 94 98 2f bd 21 12 d9 3c 5a 5b 8d bc cf e0 91 bc
       -0.04287012 0.026497902 -0.017255474 -0.017807392
000100 5a d4 e7 39 9f 73 03 3d 0d ea aa bd 4a 1e 61 bd
       0.00044217968 0.032092687 -0.08345423 -0.054960527
000110 1f 02 a2 3b 9a 5c f3 3b 50 26 53 bd 22 65 6c b9
       0.0049441005 0.0074268105 -0.05155021 -0.00022544389
000120 2d 57 87 3c ae 89 e5 3d b1 aa 91 3d b2 15 7b bc
       0.01652106 0.11207901 0.07112635 -0.015324997
000130 92 a5 88 3d 1a 4e 60 3d ad 47 96 bc 9c 38 1b bb
       0.06672205 0.054761983 -0.018344725 -0.0023684865
000140 4d 3c ef bc 3d c6 16 bc 70 b8 ce 3a f1 d1 bf 3c
       -0.029203558 -0.009202537 0.0015771519 0.023415538
000150 71 ec 81 3d b7 54 23 bd 2c f5 4e bc ba 51 52 3c
       0.06343926 -0.039875712 -0.012631696 0.012836868
000160 cd 6e 13 bd 96 82 02 bd cb a3 2c 3d de ee 97 bd
       -0.03599434 -0.031862818 0.042148393 -0.07418607
000170 41 9e 46 3d 04 8c 82 3c 5b ca ea bb 78 df 03 3d
       0.048490766 0.015935905 -0.007165236 0.03219554
000180 99 70 31 bd 7b 43 cd bd bf ee 7b 3d 3f f7 fd bc
       -0.043320272 -0.100226365 0.061506983 -0.031001685
000190 7d a2 a0 bd d6 01 b6 3c 6d 08 1e 3e 36 c8 0f bd
       -0.07843492 0.022217672 0.15432902 -0.035103045
0001a0 34 05 33 bd 65 c6 47 3d 1c 55 41 3d 6c 3d 9e ba
       -0.043706134 0.04877319 0.047200307 -0.0012072749
0001b0 a0 a2 06 3d 38 18 32 3d e4 04 a0 3d a0 f7 15 3d
       0.032869935 0.043480128 0.07813433 0.036613107
0001c0 81 5c 12 3e f9 31 85 3d 69 9d 4b bb de 3d 63 3c
       0.142931 0.06503672 -0.0031069166 0.013869731
0001d0 03 d2 de bc eb 9b df 3c 93 54 e3 3d 9e b5 a4 3d
       -0.02719975 0.027296027 0.111001156 0.08042453
0001e0 fb 84 f1 3c bd 0e 80 3c 8e ad 5a 3d 77 77 bd 3d
       0.029482355 0.015632028 0.05338817 0.09251302
0001f0 6d 7c 62 3d 18 9c 4e 3d d2 9e 82 bd d4 9c 4e 3d
       0.055294443 0.05044183 -0.06377949 0.05044253
000200 56 f3 00 bc 6b f3 4e bd d2 21 0f 3d d2 d2 4a 3d
       -0.007870516 -0.05052511 0.034944363 0.04951746
000210 e0 bf 8a bd 7d b4 8e bc e7 19 d3 bc 9d 04 8c bd
       -0.067748785 -0.017420048 -0.025769187 -0.068368174
000220 eb 9a 5b 3b 78 4e 85 bc f2 0c 66 bd 2d f4 bf bb
       0.0033509086 -0.016272768 -0.05616469 -0.0058579654
000230 54 74 03 3c 35 1f 65 bd 6f d8 1d 3d 8a 1d ca 3b
       0.00802334 -0.055937964 0.038536485 0.006168072
000240 8b 4e fe bb d1 33 a4 bc a8 87 86 3c 44 93 32 3b
       -0.007760828 -0.02004424 0.016422108 0.0027248422
000250 b9 96 2c bd b5 f3 69 3d 8d f6 ca 3b 04 28 c6 bc
       -0.042135928 0.057117183 0.006193942 -0.024189003
000260 94 da 89 3d 5e ad 78 3d 18 46 c7 3c 37 0e 76 3d
       0.067311436 0.06071221 0.024325415 0.06007215
000270 b3 02 38 3d ab 00 e8 bc 18 00 43 bd 4c 8f 65 bd
       0.04492445 -0.028320631 -0.04760751 -0.05604486
000280 7f 89 0d be c4 47 d7 bd 1b 6a 7e bb 23 71 fa bc
       -0.13821982 -0.10511735 -0.0038820568 -0.030571526
000290 6f 42 63 bd 30 fb 3d 3d 35 7f a7 bc 87 70 8c bd
       -0.055483278 0.04638213 -0.0204464 -0.068574004
0002a0 17 e9 eb 3c ad d9 f6 bc 84 13 f2 bc 08 8b 19 3d
       0.02879767 -0.030133093 -0.029550321 0.037486106
0002b0 3c 41 94 3d 75 c7 4b 3d 62 ef 6e 39 cd fc 88 bc
       0.07239005 0.049750764 0.00022786626 -0.016722107
0002c0 8e b3 4d 3d 87 be 8e 3c 34 02 9c 3b e8 7d 72 3b
       0.050220065 0.017424835 0.004761005 0.0037001316
0002d0 9e 70 27 3d 4c 91 f0 3d cf 55 19 3c f7 93 76 3d
       0.040878884 0.11746463 0.009358837 0.060199704
0002e0 62 ac 1a 3c 94 ec 10 3d 4c 2a a0 3d 41 1e 99 3d
       0.009440513 0.03538187 0.078205675 0.074764736
0002f0 94 45 21 3d dd 44 97 bd a8 50 91 bc 92 0f a3 bd
       0.039372995 -0.073861815 -0.017738655 -0.07961954
000300 65 88 b5 bb eb 55 8d 3d 39 d4 2c 3c 77 9f df bd
       -0.005539941 0.06901153 0.010548645 -0.109190874
000310 d6 f4 2c bd 7a 14 bd bd 0c 6b f5 3c 8b 53 e7 3c
       -0.04222568 -0.09232421 0.02995827 0.028238079
000320 14 e0 a0 bd 9a 1b f6 bb 59 32 91 3d 28 22 4f 3d
       -0.078552395 -0.0075106146 0.07089681 0.050569683
000330 95 c1 38 bd f4 a1 08 bd f3 97 63 3d e1 9c 98 3c
       -0.04510649 -0.033357576 0.055564832 0.018629493
000340 61 00 00 3d db 80 35 bc 40 da 84 bc 5e 99 6b 3a
       0.03125036 -0.011078085 -0.016217351 0.0008987392
000350 ee 41 31 bc 78 8c bf 3d cb 2d 2d 3d a9 3d a0 bd
       -0.0108189415 0.09352964 0.04228 -0.07824261
000360 c4 95 65 3c 65 e3 16 bd e1 2c 3d bd 43 32 e2 bc
       0.014012758 -0.036837954 -0.046185378 -0.027611857
000370 e7 37 fb 3b 17 4d 42 3a de 75 cf bc 13 8d a2 3b
       0.007666576 0.0007412 -0.025324758 0.004960665
000380 ab 7f 85 bc 04 65 29 3c 87 f5 cd 3c c7 40 e0 ba
       -0.016296228 0.010339025 0.02514149 -0.0017109149
000390 bb a5 63 bc aa 7d 33 bc c5 38 39 bb c2 3a 5e 3c
       -0.013894494 -0.010955254 -0.0028262597 0.013563814
0003a0 fe 31 47 3c ef bb ff bc 57 1b 65 3c f9 40 85 bc
       0.012157915 -0.031217543 0.013983569 -0.016266333
0003b0 81 08 29 bd b8 e7 fc 3c 66 e8 ca bc d9 cc 9e bd
       -0.041267876 0.03087221 -0.02476902 -0.07753915
0003c0 08 85 e5 bc f3 2b af bd 7d 16 fb bd 74 fe 21 bd
       -0.028017536 -0.085533045 -0.12260149 -0.039549306
0003d0 a9 c5 63 bb e8 e3 72 bd 96 d0 2c bd c6 79 27 3d
       -0.0034755266 -0.05929938 -0.04219111 0.040887617
0003e0 8e 49 45 bb 6e 27 53 bd c4 27 6a bd 09 d1 2c bd
       -0.0030103656 -0.051551275 -0.05716683 -0.04219154
0003f0 f7 b9 1f be 70 1a 72 bd ad 13 29 3d 0a 89 20 bc
       -0.15598284 -0.059107244 0.04127853 -0.009798298

bias f4 [13]
000000 a1 ce e0 3c a7 57 ab 3d 54 b8 a5 3d c5 8a 03 3d
       0.027442278 0.08366328 0.080917984 0.032114763
000010 6d d0 a3 3d 9e 81 03 3d a5 cd 63 3d b4 43 01 3d
       0.079987384 0.032106034 0.05561604 0.031558707
000020 f1 5b 00 80 5e 8b f9 3c df 1e 0b 3d e9 b2 12 3d
       -3.2982e-41 0.030461963 0.033964988 0.035815153
000030 ce fc 54 3d
       0.051998906

weight f4 [13]
000000 dd 62 1a 3e e1 20 6c 3e 95 3c 6d 3e 33 91 f6 3d
       0.15076776 0.23059417 0.23167641 0.12039413
000010 07 61 4a 3e 87 67 01 3e 07 47 17 3e b9 05 0c 3e
       0.19763575 0.12637149 0.14773189 0.13674058
000020 46 aa 22 b8 8b a1 1e 3e af b9 36 3e 12 c7 23 3e
       -3.878239e-05 0.15491311 0.1784427 0.15993908
000030 ed dd 35 3e
       0.17760439

bias f4 [13]
000000 f2 ae a4 3e 82 08 9d bc b8 96 87 bc 11 db 92 3e
       0.32164723 -0.019169096 -0.01655136 0.2868276
000010 e6 7d 03 3b 26 c8 48 3e 85 52 b9 3d 7b 2d 6d 3e
       0.0020064055 0.196076 0.090489425 0.2316188
000020 18 de 45 b9 b3 96 8f 3e aa 51 aa 3e 3c 99 b0 3e
       -0.0001887012 0.28044662 0.3326543 0.3449191
000030 b3 bf 03 3e
       0.12866096

running_mean f4 [13]
000000 2e af a7 3e fa 91 9b 3d db 60 64 3e 24 a0 c0 3d
       0.3275084 0.07596202 0.22302572 0.094055444
000010 74 ec d6 3d fc b2 17 3e 84 17 1e 3d 4a e6 6d 3e
       0.104943186 0.14814371 0.038596645 0.2323238
000020 59 46 28 38 a8 e3 21 3d f3 b4 90 3e ff e4 55 3e
       4.0119838e-05 0.03952375 0.28263053 0.20888136
000030 21 e9 cb 3c
       0.024891438

running_var f4 [13]
000000 f0 66 78 3c b8 7d 70 3b 2e f8 87 3b a3 24 00 3c
       0.015161261 0.0036696028 0.0041494584 0.007821235
000010 63 1f 53 3b 2b 2c f8 3b 67 2b 6c 3b e9 fa 24 3c
       0.0032214753 0.0075736246 0.0036036612 0.010069587
000020 ed 35 dc 30 9b 99 69 3c 33 82 88 3c 9b 9c 52 3c
       1.6022433e-09 0.014257814 0.016663646 0.0128547205
000030 bf 35 c9 3b
       0.0061404402

weight f4 [13, 13, 3, 3]
000000 95 22 8d 3b 3e 71 cd bd 98 53 80 bd 32 3c 57 3d
       0.004307101 -0.10031365 -0.06265944 0.05254764
000010 15 67 14 3e 3f 8b f8 bd bc 03 c1 bc b4 10 bd 3b
       0.14492448 -0.12135934 -0.023561351 0.0057698134
000020 af cf 04 bd 80 c0 4b bd b7 34 b7 bd 56 0c 2f bd
       -0.032424625 -0.04974413 -0.089456014 -0.042736374
000030 70 37 0a bd a3 2d 95 bd ba bd aa bb 50 ce 70 bd
       -0.033744276 -0.07284095 -0.0052106054 -0.058790505
000040 ad 37 64 bd 2a 24 af bb 1d a2 6e 3c f9 06 c3 bc
       -0.05571716 -0.0053448873 0.014565018 -0.023807036
000050 6d d2 89 3b 7f a7 c2 3c 73 de 55 bc 37 df bd 3c
       0.004205993 0.023761509 -0.013053524 0.023177726
000060 03 10 9d bc 36 b7 a4 bc a2 24 74 bc 62 c4 06 bd
       -0.019172674 -0.020106893 -0.014901312 -0.03290213
000070 c2 bd 4b 3d 2c 80 1e bd 2c 18 62 bd e4 0e 54 be
       0.049741514 -0.038696453 -0.055198833 -0.20708805
000080 b4 2e cb bc f4 66 bd bc 0d 94 99 bc 66 a6 8c bd
       -0.024802543 -0.023120381 -0.018747354 -0.068676755
000090 b7 08 66 bd 57 59 4b bd b2 8c aa bc 11 09 82 bd
       -0.056160655 -0.049645748 -0.020819042 -0.063493855
0000a0 d3 74 6b bd 63 ce fa bc 32 b0 d2 bc be 79 44 bd
       -0.05748446 -0.030615991 -0.025718782 -0.047967665
0000b0 a0 aa 92 bb bd 95 9b ba f9 7e 91 3b 88 45 95 3c
       -0.0044759065 -0.0011870187 0.004440185 0.018221632
0000c0 c3 8c 61 bd 0d f8 cd 3b 1b c2 0b 3d f4 79 4e bd
       -0.05506588 0.0062856735 0.03412066 -0.050409272
0000d0 e1 ef 31 3e 08 cc b9 3c 7e c3 91 3c ea 5c 18 bc
       0.17376663 0.022680297 0.017793413 -0.009299496
0000e0 85 8f d2 3b fb 33 a3 bc 6b 00 c0 3c f6 60 8f 3b
       0.0064258003 -0.019922247 0.0234377 0.0043755723
0000f0 91 25 ed 3c 66 35 81 3c 24 6b 00 3d a8 70 b1 3c
       0.028948577 0.015772533 0.031352177 0.021660164
000100 df d6 63 3d dc 90 58 bb 1d b2 32 3d 11 f1 40 3d
       0.05562484 -0.0033045327 0.043626893 0.0471049
000110 0f 6e 62 bd af 78 d0 bc eb 16 49 bd a7 11 25 bd
       -0.05528074 -0.025448171 -0.049094122 -0.040300038
000120 ed 2c 8a ae 87 3d 29 9c a5 f3 e6 a8 93 e6 88 aa
       -6.283494e-11 -5.599693e-22 -2.5640794e-14 -2.4318446e-13
000130 6e 4f fb 29 2a c2 01 ae fc 4c 2f 06 de c6 e3 1d
       1.1160418e-13 -2.9503656e-11 3.29704e-35 6.0292024e-21
000140 e0 8a 1c a3 6a 54 dc bc 88 29 9a bc 9b ba 25 bd
       -8.486185e-18 -0.02689572 -0.018818632 -0.040461164
000150 25 e5 d5 3d 29 e2 6b 3d ed 80 6b 3c a8 a9 10 3d
       0.104440965 0.05758873 0.014374 0.035318047
000160 eb 9d 75 3c ba 6a d0 bc 2a 4c d4 bc 4f 14 42 bc
       0.014991264 -0.025441516 -0.025915224 -0.011845662
000170 cf 33 10 3d dc 23 02 bb 49 7e 47 3d c5 ff eb bc
       0.03520566 -0.00198578 0.04870442 -0.028808484
000180 b7 16 6a b9 3b 56 a0 bd 81 d8 07 bc fa 42 ee 39
       -0.00022324441 -0.07828947 -0.008291365 0.000454448
000190 94 ae 35 bd a8 54 e5 3c 9d ce 61 bd b5 c5 ba 3e
       -0.044355944 0.027994469 -0.055128682 0.36478963
0001a0 74 5f f1 bc 17 47 a5 bd 5b d8 9d bd ed 94 ed 3b
       -0.02946446 -0.080702 -0.07707282 0.0072504194
0001b0 82 21 49 bb 73 e1 08 3d 7c 4f 15 bd 6f 1d e3 bc
       -0.0030690138 0.03341813 -0.036452755 -0.027723996
0001c0 5a b0 21 bd 98 5b 95 bc cb 7c 9c 3b 2b de 8a 3b
       -0.039474823 -0.018232152 0.0047756187 0.0042379103
0001d0 77 70 1d bd 08 d7 aa bd 36 f0 01 bd b1 1b a1 bd
       -0.038437333 -0.08341795 -0.031723224 -0.0786661
0001e0 83 26 92 bd 04 71 a0 bd a9 20 6f bd e7 df a5 bd
       -0.07136252 -0.07834056 -0.058380757 -0.080993466
0001f0 6a c6 f3 bc 01 6a 7d 3c 4d 35 39 bd 0c 05 8e bd
       -0.029757697 0.015467168 -0.045216847 -0.06934556
000200 50 fd 99 3c e3 59 ff bc 90 e2 d5 3c 8b e3 f4 3c
       0.018797547 -0.031170791 0.02610901 0.029893657
000210 30 58 b5 bd f1 db 1f bc 75 4e 18 bd c2 b7 83 bd
       -0.08854711 -0.009757028 -0.037184197 -0.064315334
000220 a1 8c 1b bd 49 52 a9 bc 66 6b 4d bd 8e 53 d8 bb
       -0.03797591 -0.02066912 -0.05015125 -0.0066017574
000230 01 7a 64 3d bf 87 82 bd 1d 2a 16 bb 44 50 90 3a
       0.055780414 -0.06373548 -0.0022913285 0.0011010249
000240 82 9f a1 3d e0 78 0e bb 3c 2e f9 bb 4b 4c 58 3c
       0.07891752 -0.0021739528 -0.0076043885 0.013201783
000250 e0 fc b8 bc f0 1f ee 3b 10 b7 5e 3b 2d 0b ca 3a
       -0.022581518 0.007266991 0.0033983625 0.0015414708
000260 8d e2 39 3d c3 f7 46 3c b2 1f cb 3b c6 f2 18 3d
       0.04538207 0.012144032 0.0061988467 0.0373409
000270 fe 49 05 bc 14 fd 40 bd 2e 9f f3 3b 99 20 b5 bb
       -0.008135317 -0.047116354 0.007434747 -0.0055275676
000280 98 b4 33 bb 02 a2 45 3c f2 3e 8e 3d 3f a3 e3 3c
       -0.0027420875 0.012062551 0.069455996 0.027787803
000290 a3 7f 51 3d ef dd 43 3c 02 9d 93 bc 71 91 3c bc
       0.051147114 0.011954769 -0.018019203 -0.011509285
0002a0 f2 cd 50 3d 87 f0 a7 3c 57 56 6c 3d 73 73 26 bd
       0.050977655 0.020500435 0.057699528 -0.040637445
0002b0 41 10 6a 3b de d1 dd 3a aa e7 e9 bc 89 68 15 3d
       0.0035715254 0.0016923507 -0.028552849 0.036476646
0002c0 2a d5 88 bc be 86 a8 bc 0a 08 20 3c d4 69 16 bd
       -0.016703207 -0.020572063 0.009767542 -0.03672202
0002d0 bb 98 1d 3c 2d 98 46 3d 30 f2 99 3c d1 28 45 3d
       0.009618933 0.04848497 0.018792242 0.04813463
0002e0 45 26 8b 3c 1f 3d 13 bd 1a 37 c0 3d be f9 8c 3d
       0.016986022 -0.03594696 0.0938551 0.06883572
0002f0 66 92 0d bb cc 98 06 80 8a 78 04 00 98 2f 00 00
       -0.0021602153 -6.05826e-40 4.10583e-40 1.7073e-41
000300 20 8d 04 80 83 ec 01 80 cd 4a 06 00 55 e0 05 00
       -4.17968e-40 -1.7668e-40 5.77846e-40 5.39653e-40
000310 2c 34 05 80 41 72 04 80 d4 f4 c9 3c b6 3b d2 bc
       -4.77893e-40 -4.08329e-40 0.024652876 -0.025663238
000320 bb 8d cc 3c 6d bf a0 bc ec 21 ea bd 39 43 63 bc
       0.024969926 -0.019622529 -0.11432251 -0.013871008
000330 bd ac 3c 3d d8 5e be bb 59 4d f9 3c 43 b7 0c bd
       0.046063174 -0.005809646 0.03043239 -0.03435446
000340 21 50 06 bd 8d e9 fb bc ac 1d 31 bd e2 c0 1f 3c
       -0.03279126 -0.030751014 -0.043241188 0.009750577
000350 3d 4e f1 bc 7a 5d 8c bc 32 e1 cb bc 2b 88 bb 3b
       -0.029456252 -0.017134417 -0.024887655 0.0057230196
000360 b8 0a 35 3d a1 ed 02 3d b0 d5 a4 3d 9d c9 b1 bb
       0.044199675 0.0319649 0.0804857 -0.0054256455
000370 1d 7f 01 3d a9 c2 4d 3b 83 5e 26 bc 19 88 95 bc
       0.031615365 0.0031396544 -0.010154369 -0.018253373
000380 c7 3b 4e bc f1 8f 3f 3d cd 5d c0 bc c6 a2 bf bc
       -0.012587494 0.046768133 -0.023482228 -0.023393046
000390 12 f6 89 3d e5 75 9c bc 13 11 b5 3c 92 97 b8 bb
       0.06736387 -0.019099185 0.022102868 -0.005633303
0003a0 9a 44 84 bd a1 06 8a bc a0 30 d9 3c 4f a9 a5 3d
       -0.06458397 -0.016848864 0.026512444 0.08088934
0003b0 ad 65 a8 3b 3b 71 9e 3b 61 cd 5c bd c8 25 db 3d
       0.005139074 0.0048352755 -0.053906802 0.107005656
0003c0 63 fd 0e 3c a3 cc 22 3d 73 0f fb 3c 4d 21 82 39
       0.008727404 0.039745938 0.030647015 0.00024820343
0003d0 f0 c1 b8 3d 2d 7c d8 3d e6 3c cb bc b6 04 4e 3d
       0.09021366 0.1057056 -0.024809312 0.05029746
0003e0 7b 65 e5 3d 3c b9 85 3d 6e bd 93 3d 33 f8 c7 3d
       0.112009965 0.06529471 0.07213865 0.09764137
0003f0 fb 03 82 3b a7 d9 20 bd 12 ed db bc 4f b0 18 3b
       0.0039677597 -0.03927007 -0.026846442 0.0023298447

bias f4 [13]
000000 8c 3c f9 3c 10 99 51 3d ab 68 a9 3c c2 15 89 3d
       0.030424379 0.051171362 0.020679792 0.06693603
000010 fd c1 4f 3d 26 4d f2 3c c3 be 83 3d e5 63 37 3d
       0.05072211 0.029577803 0.06432869 0.044773
000020 a9 be d2 3c 9d b1 37 3d 99 1d 4c 3d 58 e9 b7 3c
       0.02572568 0.04484712 0.049832914 0.022450134
000030 4a a7 5c 3d
       0.053870477

weight f4 [13]
000000 1e 65 32 3e dd 27 09 3e a3 12 e2 3d 5b f1 90 3e
       0.17421386 0.13394113 0.11038711 0.2830914
000010 c6 84 47 3e 81 0b e6 3d 5b 8d 67 3e 68 f1 08 3e
       0.19484243 0.11232663 0.22612517 0.13373339
000020 94 ea 2a 3e 74 23 0a 3e 48 72 ff 3d f7 81 31 3e
       0.16691047 0.13490087 0.12472969 0.17334734
000030 6d 0e 80 3e
       0.25011006

bias f4 [13]
000000 41 e2 b2 3e 7e 61 0b 3e 5e 6d d6 3e 8f 1a fd bd
       0.34938243 0.13611409 0.41880316 -0.12358581
000010 83 5d f6 3d fa 52 95 3e f5 be 0c be b9 66 31 3d
       0.12029555 0.2916487 -0.1374472 0.043310855
000020 b2 1c ab 3e 0e 5e ba 3d 68 30 6d bb 61 23 ca 3e
       0.3342033 0.09099971 -0.0036192182 0.39480117
000030 fd 24 48 3d
       0.0488634

running_mean f4 [13]
000000 bd 15 e8 bd c8 ca 0c bd 81 3d af bb a7 97 d1 3c
       -0.11332271 -0.034373075 -0.005347908 0.025585009
000010 15 06 10 3d c6 ca b3 3b e8 17 73 3d 65 ca aa 3e
       0.03516205 0.005486819 0.05934897 0.3335754
000020 15 d2 d3 bd ac a1 61 bd 46 9b 19 3e 6d 5c 9f 3e
       -0.10342804 -0.055085823 0.15000638 0.31125203
000030 d7 98 8c bd
       -0.068650894

running_var f4 [13]
000000 18 d6 8e 3c b7 9d 84 3b 61 43 68 3c 5e 9a 1f 3c
       0.017436072 0.0040471214 0.014176221 0.009741394
000010 db 26 04 3c 6e 54 fe 3b 4a 77 af 3b 45 d0 98 3b
       0.0080659045 0.0077615296 0.0053547965 0.0046634995
000020 7f 05 b7 3c 67 91 94 3b 5b d6 60 3b f6 06 f8 3c
       0.022341488 0.004533935 0.0034307453 0.030276757
000030 5a 2e 4a 3c
       0.012340153

weight f4 [13, 13, 3, 3]
000000 87 67 99 b8 db c0 4a b8 58 76 0e 36 ce ef fc b5
       -7.314892e-05 -4.8340164e-05 2.1228534e-06 -1.8845255e-06
000010 cc 35 7c b8 a6 64 83 39 57 96 15 b2 66 2d 81 b6
       -6.0131584e-05 0.00025061256 -8.707125e-09 -3.8497847e-06
000020 0b a2 b7 35 3d 35 05 9a 54 a5 10 80 cd 4e 3d a4
       1.3681723e-06 -2.754676e-23 -1.528676e-39 -4.104959e-17
000030 d1 56 cf 0c fc 61 06 80 32 d6 06 00 49 e3 17 16
       3.194565e-31 -5.86163e-40 6.27852e-40 1.2269401e-25
000040 dd 97 cd 86 c1 f3 1a 9c 41 7f 04 00 a6 7c 00 00
       -7.733557e-35 -5.126937e-22 4.12992e-40 4.4715e-41
000050 ba 4e 05 80 46 42 06 00 e9 1f 00 00 26 f7 04 80
       -4.87419e-40 5.74787e-40 1.1447e-41 -4.56002e-40
000060 81 dd 03 80 ae b6 02 00 6e 52 04 00 ee be 2a 37
       -3.54967e-40 2.49204e-40 3.96912e-40 1.0177244e-05
000070 e7 5d ad b8 1e 5a df 39 c2 ec 2a 3b 43 9c aa 3b
       -8.2667735e-05 0.00042601017 0.002608106 0.005206616
000080 6d 34 58 37 02 72 41 b6 d8 b7 b7 ba ae f9 a0 ba
       1.288681e-05 -2.8825602e-06 -0.0014016582 -0.0012281442
000090 6a a4 35 03 86 ef 04 00 d7 a7 02 80 25 1e a2 9c
       5.3379857e-37 4.53267e-40 -2.4388e-40 -1.0728053e-21
0000a0 31 08 2e 80 78 4a 8b a2 64 ef 26 97 ef d6 93 99
       -4.227371e-39 -3.7754872e-18 -5.3939646e-25 -1.5286255e-23
0000b0 ee 39 8d 9b 49 bc 73 97 3d 9c 02 00 21 99 cd 94
       -2.336393e-22 -7.8755184e-25 2.39719e-40 -2.0760109e-26
0000c0 bf 8e 13 9c 2a e4 cf 85 00 87 03 80 89 0a 00 00
       -4.8822715e-22 -1.955e-35 -3.23935e-40 3.78e-42
0000d0 76 ec 05 00 ff cb 11 85 4c 0f 4d 9b 43 61 05 80
       5.44004e-40 -6.8553354e-36 -1.6962145e-22 -4.94068e-40
0000e0 8c c5 3e 81 f6 c4 3f 16 0b 10 ee 04 fb 7e 21 9b
       -3.5039221e-38 1.5491007e-25 5.5968264e-36 -1.3358637e-22
0000f0 4b 26 2c 07 f0 cf c8 a8 4d 1f 08 0e c5 20 01 31
       1.2951095e-34 -2.2294639e-14 1.6778365e-30 1.8790598e-09
000100 b4 fe 8d 31 b2 e8 71 af b4 84 a9 b6 b0 43 ad b7
       4.1325965e-09 -2.2001492e-10 -5.052041e-06 -2.0654727e-05
000110 ad ed 9c b6 fd 98 97 b5 d1 6e 0a b6 9c 44 6e b9
       -4.6768314e-06 -1.1294902e-06 -2.0628106e-06 -0.00022723008
000120 11 d3 93 34 0a 13 77 ae cb f5 0d 39 3d 25 99 b8
       2.7534455e-07 -5.6178208e-11 0.00013538373 -7.302545e-05
000130 43 ee 61 ae ff 47 a1 b7 db 98 a2 b9 03 76 06 39
       -5.1370696e-11 -1.9226221e-05 -0.00031012934 0.00012823199
000140 b2 2a 91 b8 29 ed 04 80 9e c2 03 00 bf c4 04 00
       -6.9220914e-05 -4.52419e-40 3.45322e-40 4.37921e-40
000150 f0 0e 03 00 c2 df 06 00 5b 79 01 80 5e 59 e2 96
       2.80865e-40 6.31282e-40 -1.3537e-40 -3.6568668e-25
000160 f9 57 33 80 d5 75 03 00 a5 61 7f b6 ed cf b1 ae
       -4.715169e-39 3.17777e-40 -3.8054798e-06 -8.085963e-11
000170 ef c6 a8 38 8d 64 90 b4 6e b6 2e 37 40 32 2c 35
       8.0479185e-05 -2.689525e-07 1.0413683e-05 6.4148117e-07
000180 01 0a fa b6 6e 43 d6 33 31 0a 89 32 ef a2 00 80
       -7.451745e-06 9.977417e-08 1.5953534e-08 -5.845e-41
000190 98 fe 3a 80 eb 10 f7 84 a6 e3 05 80 a9 fb be 1a
       -5.41779e-39 -5.8084958e-36 -5.40842e-40 7.898874e-23
0001a0 95 38 83 0e 23 c2 3b 1a 30 2e 59 93 c4 8c 05 80
       3.234848e-30 3.8827516e-23 -2.7412023e-27 -5.09675e-40
0001b0 39 6a 56 3b 47 06 9d 39 9b 9c 93 b8 36 62 80 b8
       0.0032717122 0.0002995005 -7.038676e-05 -6.121809e-05
0001c0 e3 a6 20 b8 16 4c 96 b7 c0 de 25 bb fe 1d 18 39
       -3.8302398e-05 -1.7916824e-05 -0.0025309771 0.00014507023
0001d0 c9 61 e2 3a 86 ec d6 3b 52 14 ab 3b c3 2c fa 3c
       0.0017271574 0.0065589575 0.005220928 0.030538922
0001e0 bc 9e 15 3c 6b 37 ab bb a5 8c 66 3d 4e 85 44 3c
       0.0091320835 -0.005225112 0.056286473 0.011994673
0001f0 f2 73 18 bd 53 f9 80 bd e4 0c 92 3c f9 a5 2a bd
       -0.03721995 -0.06297555 0.017828412 -0.04166219
000200 d5 d4 65 bd a1 38 34 3d 8a 11 43 3b 71 cc 86 bd
       -0.056111176 0.043999318 0.0029765093 -0.06581963
000210 af e1 6e bc b6 a7 46 3c 5e 22 7d 3b d8 2f c3 3c
       -0.014580174 0.012124946 0.003862522 0.023826525
000220 b0 20 62 3c 71 bf cb bc c6 7b dc bd 1f 5f 91 3e
       0.013801739 -0.02487156 -0.107657954 0.28392884
000230 cb eb 0a be 29 ce af bd b2 f5 42 3b 95 04 bf bc
       -0.1356651 -0.08584244 0.0029748497 -0.023317615
000240 9a c4 4d 3c 5c e6 e7 3a b6 c6 df bc 01 e0 97 3c
       0.0125590805 0.0017692554 -0.027316432 0.01853943
000250 b4 0d d1 3c 82 c8 7d 3c 64 1e 0f 3c f8 9d 45 bc
       0.02551923 0.015489699 0.008735273 -0.0120615885
000260 58 d4 43 3c 62 cb be bc e5 c6 80 bb f3 7f 5f b9
       0.011952482 -0.02329034 -0.00392996 -0.00021314602
000270 79 d8 18 bd 23 50 04 bb 3f 45 2b 3d cf 09 76 bc
       -0.03731582 -0.0020189367 0.041814085 -0.015016987
000280 8f f5 fb bb 70 7a d9 3c 49 15 f9 bc 07 c3 8f 3d
       -0.007689185 0.02654764 -0.030405657 0.070196204
000290 62 79 e7 bd e7 a5 4e 3b 55 e6 2a 3d 48 55 8b bc
       -0.11302449 0.003153199 0.041723568 -0.017008439
0002a0 75 f4 ad bc 95 60 96 3d dc b0 4c bd 1d c4 53 bc
       -0.02123473 0.0734264 -0.049973354 -0.012925175
0002b0 b2 3a 95 bc 33 35 01 bc 1c a0 57 3d 1d c7 a6 3c
       -0.018216465 -0.007886219 0.052642927 0.020358616
0002c0 2e d4 37 bc 53 22 57 3c 42 f9 34 bc 24 42 16 bc
       -0.011220021 0.013130742 -0.011045756 -0.009171043
0002d0 ee db b3 bc 99 2e 12 3d d3 eb db 3c 0a cf 31 bc
       -0.021955457 0.03568897 0.026845848 -0.010852585
0002e0 31 3f 0a 3d 0d 6a 38 bd 1a 52 1a 3d 2e 2e 20 bc
       0.03375167 -0.045023013 0.037675954 -0.009776635
0002f0 ca f6 22 bd 89 75 ae bc ce 0e 06 be 9b 96 cb bd
       -0.039786138 -0.02129628 -0.13091585 -0.09940835
000300 ed b4 8b 3d 35 9e 7d 3e b5 1e 34 3c 9e 2c 36 bd
       0.06821618 0.24767382 0.010993649 -0.044476144
000310 aa 6e 6b 3d 8a 6d 87 3c 96 81 8d bc 4c 75 11 3d
       0.057478584 0.016531724 -0.017273705 0.035512254
000320 a3 16 9d bc 41 c5 e7 bc e8 b6 31 3d be 8b d2 ba
       -0.019175833 -0.0282923 0.043387324 -0.0016063375
000330 36 44 da bc 1e b1 ff 3c 3c e5 e2 bb c7 1c 75 3b
       -0.026643854 0.031212386 -0.0069242995 0.0037401186
000340 13 a6 e7 3b 14 b2 dc bc 87 97 cf bc 8c cf c8 3b
       0.007069358 -0.026940383 -0.025340809 0.006128257
000350 52 f6 9e 3a 2c dd 34 3c 74 d6 83 3c f7 0f 0e 3c
       0.0012127853 0.01103906 0.01609347 0.0086707985
000360 c0 3d 94 bd 0a 27 f3 3b 01 7e e3 3c 1e a6 4c bc
       -0.072383404 0.0074204253 0.027770044 -0.012490777
000370 8b 8b 15 3f fe 6a 93 bd 49 51 1a 3d b7 64 17 be
       0.5841605 -0.071981415 0.037675176 -0.14784513
000380 52 fa 95 bc 9e 0f b2 3b 57 37 3d 3d c7 5e bc 3c
       -0.018307839 0.0054339906 0.046195354 0.022994412
000390 14 c8 da 3b 71 de cb bc 36 53 1e bc e9 dd 1d b9
       0.006676683 -0.024886342 -0.009663394 -0.00015055355
0003a0 97 71 34 bd 22 f4 9a 3c 68 07 95 3b f0 9e e0 3c
       -0.04405364 0.01891524 0.004548002 0.027419537
0003b0 69 35 8c 3c 8c e7 21 bd a1 0c 04 3c 57 fc 03 3e
       0.017115312 -0.03952746 0.008059652 0.12889229
0003c0 49 48 b6 bc 44 2f 4c bd 7f 70 8c 3c c1 18 24 3c
       -0.022251265 -0.049849764 0.017143486 0.010015667
0003d0 c5 94 f4 bb 7b 4e e0 bc 21 e0 17 bc 77 f5 2b 3d
       -0.007464024 -0.027381172 -0.009269745 0.04198214
0003e0 0d 1f 12 bd d2 e1 61 3d d0 ba 8a bc 9f 43 b5 3b
       -0.035674144 0.055147 -0.016934782 0.0055317427
0003f0 50 de 61 bd d3 74 0d bd 2a d3 0e 3c 5f e8 d3 bc
       -0.055143654 -0.03453524 0.008717338 -0.02586764

bias f4 [13]
000000 68 ef 06 80 40 8e dd 3c 93 5b 12 3d cc 7f 8b 3d
       -6.36896e-40 0.02704537 0.035731863 0.06811485
000010 36 72 3f 3d cd fd 03 3d c0 73 ad 3d 8a f4 b9 3d
       0.04673978 0.032224465 0.08469343 0.09079845
000020 65 75 42 3d cb 4e 6f 3d fb a5 92 3d 47 0d b6 3c
       0.047475237 0.058424752 0.071605645 0.022223128
000030 b3 61 c2 3c
       0.023728227

weight f4 [13]
000000 75 94 92 bb 64 37 6b 3e f0 91 f4 3d 94 50 e1 3e
       -0.004473264 0.22970349 0.11941898 0.4400679
000010 0f b7 3e 3e ba 4a f9 3d 97 92 d6 3e 3e d2 b7 3e
       0.18624519 0.12172456 0.41908714 0.3590259
000020 7c 0e 1a 3e 49 3c 76 3e 59 f4 a1 3e 19 53 8e 3d
       0.15044588 0.24046434 0.31631735 0.06949443
000030 90 c5 a5 3d
       0.08094323

bias f4 [13]
000000 4b fa 61 bd d6 af 42 3e 43 87 2f 3c 77 f5 15 be
       -0.05517034 0.19012389 0.010713401 -0.14644419
000010 a1 5d e1 3c 2d f1 09 bc 2d 3b 9a 3a b4 81 88 bd
       0.027510466 -0.008419317 0.0011766903 -0.06665364
000020 2b 27 a4 3c 5d ea 6a bd cf fa 10 bd a7 74 8a 3d
       0.020038208 -0.057352412 -0.03539544 0.06760531
000030 f7 74 d9 3a
       0.0016590644

running_mean f4 [13]
000000 b7 65 1c 3a aa 07 2b 3e 0c 7a d5 3d 30 92 c2 be
       0.00059660844 0.16702142 0.10423669 -0.38002157
000010 9c 84 3c 3d 42 b3 80 be fb 8c c2 3d d4 6d cd 3d
       0.046024904 -0.25136763 0.09499546 0.10030714
000020 11 7a af 3e ae c5 07 3e 06 d5 f5 3d 9c 86 5c 3e
       0.34272817 0.13259003 0.120035216 0.21535724
000030 18 4c 19 3e
       0.14970434

running_var f4 [13]
000000 30 1c b2 35 0d 17 13 3d 20 6f 05 3c c1 ce af 3c
       1.3270237e-06 0.035910655 0.00814417 0.021460893
000010 15 c0 f6 3b 63 9c 0c 3c 34 6a 60 3c 3d ff 00 3c
       0.007530222 0.008582207 0.013697196 0.007873354
000020 15 ae bf 3b a2 7a 16 3c 28 84 30 3c 55 8f ad 3b
       0.0058496096 0.009184511 0.010773696 0.0052966275
000030 96 58 de 3b
       0.0067854626
