pre-trained-tp2/tiny_DnCNN_0500.pt (torch, 131461 bytes, 87 tensors)

dncnn.0.conv.weight f4 [13, 1, 3, 3]
00000000: 60bc e43c d7fe 32ba fefe cfbc a36d c03d
00000010: ccdc df3d 3c37 123d 8dd1 12be fdc9 a4bd
00000020: b021 d7bb 281e 6e3c 9572 1dbd 1468 0dbc
00000030: 7da6 0d3e 4997 9f3a b36b c2bd f705 0b3e
00000040: 6a65 92bc c1bc 03be 27e4 4cbc 8720 a7bd
00000050: f5bb 3aba 5f51 06bd 867b eebd 8daa c9bc
00000060: 8bd3 433c 15cd a73b b11e 2a3c e4ac a5bd
00000070: c4eb ce3d 30b0 ee3b 3b89 0c3e 9978 64be
00000080: 37a5 1cbd a313 0b3d 6f8a 183c 3781 0f3c
00000090: dcfa 2dbc 4485 373b 8178 b13c 3660 833c
000000a0: d71c 893d a359 173e ef84 75bc 66e7 0a3b
000000b0: 0d1f b23c 729c 47bd 7c3b 22bd 91b6 a2bb
000000c0: 8fd8 6abd d7e7 293d 2530 2d3d 12c7 e9bb
000000d0: 362c 5d3d 8e81 cbbc d3d3 c2bd 5279 e9bd
000000e0: 6bf0 6fbd 087e e5bc 7826 373b 8e00 8ebc
000000f0: 4e77 ce3d 5366 233e cb2e 753d 8b66 6bbd
00000100: 4555 96bc 8668 07bd 7210 93bd 8e4c a93e
00000110: 9ba8 ca3c a021 98bd e6ab 02bd 82b3 e0bc
00000120: 2001 073e eefc aebc c85f 25bd d150 e93d
00000130: cfbf f6bd 6dba debb 6020 e33b efb9 a4bd
00000140: bc2e 6e3d f356 61bd 8d6a a3bd 47ae 1a3e
00000150: 1832 0bbe 3b03 5cbe 9b35 933e 2f7e 15bd
00000160: c89d 8dbd ffbe 043e bae6 903d 59c6 513e
00000170: 8efa ab3d 3472 9dbc 81cd b9bb be0c 02bb
00000180: 7008 aabd a88b 37be 6103 a3bd 787a 643d
00000190: f301 943c 7d62 0e3d f3d7 943d f883 a8be
000001a0: f71e bdbc 3145 983d f8ce 003d e2c1 f03c
000001b0: 19f1 be3d 1395 073e 5aa9 a83d ce53 35bd
000001c0: 6f4b e2bd 764b 98bd 4bab 20bd efb4 16bd
000001d0: c268 90bc
0.027921855 -0.0006828135 -0.025390144 0.093959115 0.109307855 0.035697207 -0.1433775 -0.08046339
-0.006565295 0.014533557 -0.038439352 -0.008630771 0.13833041 0.0012175824 -0.09493198 0.13576494
-0.017870624 -0.12864973 -0.012505568 -0.08160501 -0.00071233447 -0.032792445 -0.11644654 -0.024617458
0.011952291 0.005120883 0.010383294 -0.08089617 0.101035625 0.007284187 0.13724224 -0.2231163
-0.0382435 0.033954274 0.009310349 0.008758835 -0.010618892 0.0028003016 0.021663906 0.016037088
0.06694954 0.14780287 -0.014985307 0.0021195053 0.021743322 -0.048733182 -0.03960751 -0.0049656113
-0.057335433 0.041480865 0.042282242 -0.0071343267 0.05399724 -0.02484205 -0.095130585 -0.11400093
-0.05857889 -0.028014198 0.0027946513 -0.017334249 0.10081349 0.15957002 0.05985908 -0.05747084
-0.018351207 -0.033058666 -0.07180871 0.3306622 0.0247386 -0.074282885 -0.031902216 -0.027429346
0.13184023 -0.02136084 -0.040374547 0.11392368 -0.12048303 -0.006797126 0.0069313496 -0.080432765
0.058150038 -0.05501456 -0.07979307 0.15105544 -0.13593328 -0.21485607 0.28751835 -0.03649729
-0.0691486 0.12963484 0.070752576 0.2048582 0.08397399 -0.019219495 -0.00567025 -0.001984402
-0.083023906 -0.17924368 -0.07959629 0.055780858 0.018067336 0.034761894 0.072677515 -0.32913184
-0.023086054 0.07435072 0.03144738 0.029389326 0.093233295 0.13240461 0.08235426 -0.044269376
-0.11049544 -0.07436268 -0.039225858 -0.036793645 -0.017628077

dncnn.0.conv.bias f4 [13]
00000000: 80e4 9d3c 8af9 ab3c 1098 643c b749 813c
00000010: 360f a83c f798 ca3b 59e9 a13c 0d54 ad3c
00000020: 837e 783c 7896 873c b7c4 123c d58b 9e3c
00000030: 22bb 543c
0.019273996 0.020993013 0.01395227 0.01578222 0.020515066 0.0061827856 0.01976459 0.021158243
0.0151668815 0.016551241 0.008958033 0.019353786 0.012984069

dncnn.0.bn.weight f4 [13]
00000000: 584a 9b3d 7f2d be3d 4ff1 c73d 85ed 833d
00000010: 3281 f43d ab6e 4a3c 3c12 d43d 733d 083e
00000020: 3143 ce3d d14f d73d a73d b23d f6ea f63d
00000030: fc23 593d
0.07582539 0.092860214 0.09762823 0.06441788 0.119387046 0.012355487 0.103550404 0.13304691
0.100714095 0.10513271 0.087031655 0.12056534 0.053012833

dncnn.0.bn.bias f4 [13]
00000000: 427f 2dbd 865d 18bd d567 d0bd 8c62 823e
00000010: 2ed7 55be 6219 763c 5f7c 5abd 78d3 a3bc
00000020: 76ef d4bd 9ca5 243e dca9 853d 6796 c23c
00000030: cee1 a93d
-0.04235769 -0.037198566 -0.101760544 0.2546581 -0.20882866 0.0150207 -0.053341266 -0.019998297
-0.10397236 0.160788 0.06526539 0.023753358 0.08295022

dncnn.0.bn.running_mean f4 [13]
00000000: d79b c73c 5278 a23c 4918 b3bd 1b50 b2bb
00000010: 7e3c 013e 9a62 5fbc d93f bc3c 06ab 433d
00000020: adef f03c 8835 4cbb 8838 c23b 7ce0 c5b9
00000030: 2592 883b
0.024366302 0.019832764 -0.087448664 -0.005441678 0.12620732 -0.013634348 0.022979664 0.047770523
0.029411161 -0.0031159837 0.005927149 -0.00037742022 0.0041678124

dncnn.0.bn.running_var f4 [13]
00000000: 2570 a23a 72a0 163b f0e1 513b f7e5 cf3a
00000010: 4067 673b 7edd 013a 8a48 2c3b f2a8 323b
00000020: 9540 c13a 1d39 d73b d599 7c3b 0030 303b
00000030: e61f ec3a
0.0012393041 0.0022983816 0.0032025538 0.0015861382 0.0035309345 0.00049539644 0.0026288354 0.0027261344
0.0014743978 0.0065680877 0.003854384 0.002688408 0.0018014878

dncnn.1.conv.weight f4 [13, 13, 3, 3]
00000000: 90d4 743b be1a da3b 5d99 863c ca79 0fbb
00000010: 2deb 01bc b121 dcbb 709c 883a 6fa7 34bc
00000020: 6ea0 51bc f96c 7d3c 695b 0e3c 1d06 9b3b
00000030: c7d8 983c d3d0 27bc 1280 88bb 1890 c33c
00000040: 7735 263c e134 8dbb 6a3f c63b 84b4 f33b
00000050: e666 12bc 50d9 b23c a410 30bc 306b abbb
00000060: aba8 dd3c 22b4 c03a 18fc bd3b 0633 983a
00000070: 908a bd3c 6d13 ad3c ee2a 96bc b2b1 7fbe
00000080: 4711 8a3d ca34 5cbc ab25 803d d484 e9bc
00000090: 20e2 163d 1709 143c a5c0 47b9 c022 143e
000000a0: 175b a93d 7d35 3a3c 93c8 913d 0830 133d
000000b0: 743e 183c 5a02 dbbc 4ebb d7bb e5fe 88ba
000000c0: c951 7ebc dd14 13bc b738 09bd 7732 75bc
000000d0: d55d f4bc 1c29 3fbc dcf5 b33b 9c40 503c
000000e0: 232b 003b 5b22 25bc d37c 61bd 2bc9 09bd
000000f0: 9fd2 9cbb 1caa d7bc 2a28 12bc a74c 71bb
00000100: 284e 5bbd cb7d 6ebb d921 f1bc ec6d 753e
00000110: 6a4a b1ba 7176 44bc d99b b6ba 817d 33bc
00000120: fdc9 973a d98d 363c ca0d 06bc 3734 3eba
00000130: c9df 20ba ee5d 51bc 04a1 d23a 03d5 523c
00000140: ea64 033b 9223 ccbb 4ac8 85bb cfd1 3e3b
00000150: 7b35 a73d 520d 41bd 1ab9 20bd d433 2c3c
00000160: 792d c9bc 58a9 92bc 2817 fdba fc59 26bd
00000170: 228f 87bc 4908 35bc b83d d2bc 83ed 96bc
00000180: 90d6 06bc 9419 303d 87c0 0dbc 7547 a0bb
00000190: 6df2 3f3d cb4e e03b 7c74 613c 2009 03be
000001a0: 8e7d ad3c 37a1 a83b 3534 bb3c b794 ad3c
000001b0: f33b 2d3c eb94 69bc 72b8 69bc c81f 0fbd
000001c0: 1ca0 84bd f99d 03bd 74e7 3d3c a183 2b3d
000001d0: 6584 ea3c 5cd4 5ebd e355 9ebc 5333 74ba
000001e0: 60e3 48bd c5c5 afba ee28 de3c 4d9f ba39
000001f0: 6e06 933c 142f d63c b664 d43b 7468 b0bc
00000200: 4f79 36bd 567b 33bb 21df 07bd 160a 86bc
00000210: 3fe2 08bd e581 2a39 ed5b d23c eb10 9e3b
00000220: de5a a2bb e44c 3a3b 591a 6dbc e242 9cbc
00000230: 3722 32bc b804 e5bc 683e 423b 5b15 3a3b
00000240: d384 f13c 5610 663d 4ebf ab3c 6a41 b93c
00000250: 71ed 243c a1d7 e73b e9f0 0abc 8e78 aebd
00000260: fdf8 1abb f0c7 173c c118 18bc 1e9a beba
00000270: 5226 ae3b 67d0 60bc 5171 373b 2f4b 16bb
00000280: 2bf7 f2ba 3dcc 733c 9b6b 343c 7e7e d83c
00000290: 0967 db3c 025d e63b 32fd 893c bc77 9b3c
000002a0: 1e07 aa3b 7623 9b3c 5e76 c33b bf9a 12bd
000002b0: 2d8a 6c3b b272 ea3c ddbf 2abd 5c72 513c
000002c0: e6af eb3c 4c63 2b3c 2433 523d 2dd2 ea3c
000002d0: 89b4 92bc ff21 7abd 55cf 37bb 84be d4bc
000002e0: 10db d1bc 7285 b9bc 43eb 5e3c 231a c23d
000002f0: 8ef4 ad3b f8ab 4fba d6a3 173c a0b1 9abc
00000300: 67b5 65bb bdc7 91bc 6d23 bebc 327c dbbc
00000310: 8bd6 eabc 0d89 593c 5da7 4e3c a8bc 37b9
00000320: 2bf2 b4ba 7bc1 ca3c 9c59 90bc 1c4b 65bb
00000330: b74b b9bb 47e9 2e3c 9d5c 69bc 3668 1cbd
00000340: f8fd c0bd 1d05 17bd 9ff2 41bd 3eae adbd
00000350: a01a f43b 14bd 97bc 06b3 95bd ad0e a9bb
00000360: 968b 42bc c57e 7b3c ca5a 47bc e7dc ba3a
00000370: 7150 843c ce87 dabb bf87 7ebc aadc 25bd
00000380: 54f9 8cbc 44fa 953c 3ea3 19bc c275 e43a
00000390: fec9 52bc 8ca4 51bd d2cf a1bc acc4 1bbd
000003a0: 0ed2 b2bd 4580 31bd 2f2c a0bc e113 e6bb
000003b0: b4a5 7bbc 379d 3a3c ad26 493c 5729 08bb
000003c0: 9595 52bd ed65 0fbd 9acc 0dbd d54e 123d
000003d0: ce11 623c cf3c be3c 61a3 a63c b7b7 68bc
000003e0: 96ac 903c 1e27 3ebd bd61 3ebd 2972 a4bc
000003f0: ee32 0c3d e12f 2c3d ed3f 5d3d 4d7b b9bb
0.0037358142 0.00665602 0.016430551 -0.002189266 -0.007929605 -0.0067178835 0.0010422599 -0.011026247
-0.012794597 0.015467876 0.008688786 0.0047309534 0.018658055 -0.010242659 -0.004165658 0.02387242
0.010144583 -0.004309282 0.00605004 0.0074372906 -0.008935666 0.021832138 -0.010746155 -0.0052312836
0.027057966 0.0014702121 0.005797874 0.0011611886 0.02313736 0.021127427 -0.018331017 -0.24970129
0.06741577 -0.01344032 0.062571846 -0.02850572 0.036836743 0.00903537 -0.00019049885 0.14466381
0.08269327 0.011365292 0.071183346 0.035934478 0.009292234 -0.02673452 -0.0065836078 -0.0010451941
-0.015522429 -0.008977142 -0.033501353 -0.014965645 -0.029829899 -0.011667516 0.005491955 0.012710717
0.0019556961 -0.010078992 -0.055050682 -0.033639114 -0.00478585 -0.026326232 -0.008920709 -0.003681937
-0.053541332 -0.0036390896 -0.029435085 0.23967713 -0.0013526205 -0.011991129 -0.0013931944 -0.010955215
0.0011580583 0.011142218 -0.0081819985 -0.00072557054 -0.0006136862 -0.012778742 0.0016069715 0.012868169
0.0020049163 -0.0062298262 -0.004082714 0.0029116755 0.081644975 -0.047131844 -0.039239027 0.010510404
-0.024557816 -0.017903015 -0.0019309269 -0.04061316 -0.016547743 -0.011049339 -0.025664195 -0.018423801
-0.008229867 0.042993143 -0.008651859 -0.004891331 0.046862055 0.0068453304 0.013760682 -0.1279645
0.021178033 0.0051461714 0.022852043 0.021189077 0.010573375 -0.014256696 -0.014265167 -0.03494242
-0.06475851 -0.032133076 0.011590827 0.041873578 0.028627584 -0.05440174 -0.019328063 -0.0009315509
-0.049044967 -0.001341038 0.027119126 0.00035595373 0.017947402 0.026145495 0.0064817322 -0.021534182
-0.044549283 -0.0027386746 -0.033171777 -0.016362231 -0.03341889 0.00016260853 0.0256786 0.004823794
-0.00495468 0.0028427178 -0.014471614 -0.019074861 -0.010872415 -0.027956352 0.0029639248 0.0028394077
0.02948228 0.056167923 0.020965245 0.0226142 0.010066376 0.0070752655 -0.008480289 -0.08519088
-0.0023646944 0.009263977 -0.009283246 -0.001454178 0.0053146267 -0.013721562 0.0027991126 -0.0022932997
-0.0018536797 0.014880237 0.011011983 0.026427504 0.02678253 0.0070301304 0.016844366 0.018977992
0.0051888367 0.018937808 0.005965038 -0.03579211 0.0036093101 0.028619144 -0.04168688 0.012783613
0.028770398 0.010460686 0.051318303 0.028664673 -0.017908351 -0.061067577 -0.0028047164 -0.025969751
-0.025617152 -0.02264664 0.013605895 0.094776414 0.005308694 -0.00079220487 0.00925537 -0.018883526
-0.0035050751 -0.017795438 -0.023210252 -0.02679262 -0.028666755 0.013277304 0.012613145 -0.0001752252
-0.0013805082 0.024750462 -0.017620854 -0.0034987396 -0.005654778 0.010675735 -0.014243272 -0.03818532
-0.09423441 -0.03687011 -0.047350522 -0.084805 0.007449463 -0.018522777 -0.07309537 -0.00515922
-0.0118741 0.015350048 -0.012167642 0.0014256508 0.016151639 -0.006669021 -0.015535294 -0.040493645
-0.017208733 0.018307813 -0.009377299 0.0017430114 -0.0128655415 -0.051182315 -0.019752417 -0.038029358
-0.08731471 -0.043335218 -0.019552318 -0.0070214127 -0.015359331 0.011390022 0.012277287 -0.0020776594
-0.051412184 -0.035009313 -0.03461895 0.03571971 0.01379819 0.023222355 0.020341577 -0.014203957
0.01766042 -0.046424024 -0.04647993 -0.020073967 0.034228258 0.04203785 0.054016043 -0.0056604506

dncnn.1.conv.bias f4 [13]
00000000: 34fb b43c 7c99 ad3c f78a 8f3c 0c37 1f3d
00000010: 400a af3c dd1a 963c c81a 583c 6448 093d
00000020: 3bfa d33c 29ed 3b3c 1b3e 783c 6e21 333d
00000030: 9c1a c93c
0.02209244 0.021191351 0.017522318 0.038870856 0.021367192 0.018323356 0.013189979 0.033516303
0.025876155 0.011470118 0.015151526 0.043733053 0.024548821

dncnn.1.bn.weight f4 [13]
00000000: c584 c93d dfdd 613d ae11 693d 737f d93d
00000010: 75e3 483d d72a 203d f1f3 903d cbbc e53d
00000020: 9e75 813d 484e c33d 0d87 703d 0eb1 bc3d
00000030: 9d3a 913d
0.09839777 0.055143233 0.056901626 0.10620012 0.049045045 0.039103355 0.07077778 0.1121765
0.06321262 0.09536415 0.058722544 0.09213458 0.07091258

dncnn.1.bn.bias f4 [13]
00000000: 4aac 983e 0709 c13d afd7 313d df40 9bbd
00000010: a398 793d 64f7 9f3d 7938 f83d 508d c2bd
00000020: 9e06 1b3d d342 3a3d 4b9a c63d 158a 67bd
00000030: 8eec 17bd
0.29818946 0.0942555 0.043418583 -0.075807326 0.06093658 0.07810858 0.12120146 -0.094996095
0.037848108 0.045473885 0.09697398 -0.05652817 -0.03709083

dncnn.1.bn.running_mean f4 [13]
00000000: 0a6f f8bc be8c 6cbc 5c6c b4bc ab80 d03d
00000010: 4214 113d ea2c 843d 0134 013d f855 c23d
00000020: 7ba3 053a 073d 7a3d ac25 a8bc 08fe 0f3d
00000030: 7986 af3c
-0.030326385 -0.014437852 -0.022024326 0.101807915 0.03541971 0.06453879 0.031543735 0.094890535
0.0005097908 0.061093356 -0.020525776 0.035154372 0.021426426

dncnn.1.bn.running_var f4 [13]
00000000: 6b62 373b 302d 713a 1f3d 1e3a 8853 273a
00000010: 7e61 9439 8cdc f839 2302 053b 4c9a 3e3a
00000020: 94f0 ec39 c1d0 143b 7881 413a e623 ff39
00000030: 63a0 e939
0.0027982246 0.0009200154 0.00060363294 0.00063829916 0.00028301397 0.00047466566 0.0020295463 0.0007270917
0.00045192672 0.0022707435 0.0007381658 0.00048664137 0.0004456072

dncnn.2.conv.weight f4 [13, 13, 3, 3]
00000000: 69e0 0cbc d052 bd3b 07e1 85bc b2a9 47bc
00000010: 0232 c3bc c9f5 babc 248a a2bc 26bf 9abc
00000020: 8798 5b3c 4f25 86ba e6c3 33bd f4d1 d1bb
00000030: 101e 0abd 5ff8 92bd d113 04bd 5336 56bd
00000040: 82e7 39bd b70f 983c b7b3 9dbc 0887 56bd
00000050: 5c5b 37bd 026c 1fbd 089c 67bd a25d f4bc
00000060: cd5a b4bd 53fb a3bd 1b1a 10bd 0a99 153c
00000070: 82fc 02bd 2e1a cabc 3551 1abb 82ad 8bbc
00000080: 434c 813b 1818 44bd 05b0 3538 9243 e53c
00000090: c81c 69bc 1597 b53c f5f4 683c 5db9 91bc
000000a0: 9777 043d 4a2d 053d e188 03bd 5be6 103c
000000b0: 469d 77bc 1315 4c3b 5684 c33c 91b3 563c
000000c0: 9909 bd3b c2e7 b73c c6a0 343c e600 bd3c
000000d0: e087 253d d842 ef3b 086b 023c ed8b 4fbc
000000e0: 33b9 9e39 5278 cc3b 7779 da3b 9136 91bc
000000f0: 366c 203d 9e1b 513d e84e 41bc d2c5 a13a
00000100: 6d52 b13c 1f60 123b d3d0 afba 3ad3 3e3b
00000110: 38e3 9d38 af43 2cbd 724d 86bd 75b2 80bd
00000120: f60c 3e3d 4cba b63c cffc aebc c384 abbb
00000130: b3a9 5dbb 9427 9438 2f7c 81bc a51c 0339
00000140: 7436 323d 26df 8b3c fa12 4c3c 8216 ad3b
00000150: 5c72 1a3b e4dc 8a3c 2e68 8f3b 4438 343b
00000160: bee3 363d 4ae7 913c d606 573d 58dc 073d
00000170: d33c f33b 60d5 013d 79be b93c 4fcb 893c
00000180: cc0a fa3b 0756 373c 2e08 843c 74c9 07bd
00000190: 4017 0cbd 4179 9dbb 63c0 1b3b a3bf bbbb
000001a0: b995 0fbc 7ce7 2a3d 1c6e 603c 5980 22bd
000001b0: 082a cdbc 0721 e2bc 238f 48bc 779f eebc
000001c0: 4493 b3bc 2344 0fbc 5e92 823c 01e8 983c
000001d0: b3a9 343d 15a0 0c3c 4477 b13c 252e 1e3c
000001e0: 76a5 583d ada8 b43d 22e5 863c 9c83 473d
000001f0: cfb9 433d de84 d93c 36d5 ebbb 5d2f 363d
00000200: 5947 013b e2d5 37bd 0327 ae3c ad55 1bbc
00000210: 1a50 0ebc a296 523d ebfb 26bb 02e8 053c
00000220: e589 5a3c 950d 32bc 6b72 f43c 36c7 f73c
00000230: ea6a 2d3a 5fca 8abc 1a9f b93c 111a cebc
00000240: ba56 7dbc 0717 02bd 5920 fabc e3ad 1d3d
00000250: ad2c 913b 9170 afbc 911f 363c bb75 8cbc
00000260: 15ce 02bd ef0f 30bd 3ffc 19bd 90cf 16bd
00000270: 6e10 8dbd 19a1 81bd acbc 26bd 9e61 a3bd
00000280: 96cd 6bbd 37ce 63bd a179 3fbc 3db3 9a3b
00000290: 2322 be38 6963 45bd 8052 73bc 47a4 55bc
000002a0: cf0a 02bd 3910 26bd 251e 07bd 0873 c0bc
000002b0: abdb d33a 1a44 7e3c 54d4 20bc 584c 2f3c
000002c0: 91a5 d93c c77e a1bb ea95 8a3c b23c e43c
000002d0: 5b81 cfbc 9b22 09bc e9d8 e8ba 67e2 1c3c
000002e0: d8c3 89bb 56b1 e7bc 2ddd 1f3c c58c ff3b
000002f0: d14b eab7 0f1d 03bd 0ee5 52bc 436a a2bc
00000300: 7713 213d fddb 383d 3f4a 1b3b 68e7 6bbc
00000310: 0c5f f83c c8a5 52bc 5b24 8d3c f113 a5bc
00000320: 27b5 37bc a43c eb3c dc0b efbc a821 25bd
00000330: 33f6 083d 8e15 113b 7531 c2bc 88e3 ffbb
00000340: c12f b5bc cbc2 433c 0a2c a83d 06c8 de3c
00000350: 0af7 243d 1b81 c03c af76 eabc 9ca2 ab3b
00000360: 705b 95bc 8af5 033c cb05 a93b 5087 6cbd
00000370: e716 80bd c113 3abc 3992 9dbc f52d 15bd
00000380: 316a ddbb eca5 3a3d fa17 1a3b 2588 a93b
00000390: cf84 19bc 9d40 1fbd d421 afbc 0ef9 8dbc
000003a0: 1db8 80bc 6012 ccbc 18bd 42bc b888 3fbc
000003b0: 220d f1bb 112e c1bc 6284 f03c ab9b 8cbb
000003c0: ac2a 803c 4d36 2a3d 9780 193d 74a4 c63d
000003d0: de27 fc3d d49f 9a3c dd47 e83c fef3 1c3d
000003e0: 6bf0 2fbd c817 863c f7c7 823d f682 c03c
000003f0: 53d6 0fbd 6f2d df3c 7c18 e93b 1815 dbbc
-0.008598425 0.0057776943 -0.016342653 -0.012186455 -0.023827557 -0.022822278 -0.019841261 -0.018889975
0.013403065 -0.0010234507 -0.043887995 -0.006403202 -0.033720076 -0.07176279 -0.03224546 -0.0522979
-0.0453868 0.01856218 -0.019250734 -0.05237487 -0.04476486 -0.038921364 -0.056545287 -0.029829804
-0.088063814 -0.08006921 -0.035181146 0.009130726 -0.03197909 -0.024670687 -0.0023546938 -0.017050508
0.0039458587 -0.04787454 4.3317694e-05 0.027986322 -0.014228053 0.022166768 0.014218559 -0.017788583
0.032340612 0.032513894 -0.03211296 0.0088439835 -0.0151131805 0.003114049 0.023866814 0.013104335
0.0057689664 0.022449378 0.0110246595 0.023071717 0.040412784 0.0073016696 0.007960089 -0.012667638
0.00030274093 0.0062399292 0.006667312 -0.017726215 0.039165698 0.05105173 -0.011798598 0.001234228
0.021645749 0.0022335125 -0.0013413675 0.00291176 7.528666e-05 -0.042056736 -0.0655774 -0.06284038
0.04639908 0.02230563 -0.021360783 -0.0052343323 -0.0033823072 7.064562e-05 -0.015806286 0.00012503804
0.04350896 0.017074179 0.012455696 0.005282224 0.0023566699 0.016951032 0.004376433 0.0027499357
0.044650786 0.017810483 0.052496754 0.03316912 0.0074230223 0.03169763 0.022673832 0.016820578
0.0076306816 0.011189944 0.016117182 -0.033151105 -0.03420186 -0.0048057144 0.0023765794 -0.005729632
-0.008763724 0.041724667 0.013698127 -0.039673183 -0.025044456 -0.02760364 -0.012241158 -0.029128773
-0.021920808 -0.008744272 0.015938934 0.018665316 0.04410715 0.008583088 0.021663316 0.009654556
0.05289217 0.08821235 0.01646668 0.048709497 0.047784623 0.026552614 -0.0071970476 0.044478763
0.0019726364 -0.04488171 0.021258837 -0.009480876 -0.00868609 0.051413186 -0.0025479745 0.008172991
0.013338541 -0.010867496 0.029839715 0.030246358 0.00066153577 -0.016942201 0.022658873 -0.025158914
-0.015462572 -0.03176024 -0.030533003 0.03849591 0.0044303746 -0.02141598 0.011115924 -0.017145982
-0.031934816 -0.042983945 -0.037594076 -0.03681904 -0.06887899 -0.06329555 -0.040707275 -0.079776034
-0.05756911 -0.055616584 -0.011686713 0.004721074 9.0662645e-05 -0.048190508 -0.0148512125 -0.013039655
-0.03174859 -0.040542815 -0.032987732 -0.023492351 0.0016163489 0.015519166 -0.009816248 0.010699354
0.026568206 -0.004928443 0.016917188 0.027860973 -0.025330236 -0.008370067 -0.001776484 0.009575463
-0.0042042546 -0.028282803 0.009757322 0.0077987635 -2.7930279e-05 -0.032010134 -0.012871994 -0.01982606
0.039325204 0.045131672 0.0023695377 -0.014398433 0.03031876 -0.012856908 0.01722925 -0.02015111
-0.011212624 0.02871544 -0.02918046 -0.0403153 0.03343792 0.0022138092 -0.023705224 -0.0078091063
-0.022117497 0.011948298 0.08211525 0.027194988 0.040274657 0.023499062 -0.028621046 0.0052378904
-0.018232077 0.008054147 0.0051581613 -0.05774623 -0.06254368 -0.011357249 -0.019234763 -0.03642078
-0.006757044 0.04556839 0.0023512826 0.0051737004 -0.009370043 -0.03887998 -0.021378435 -0.017330673
-0.015712792 -0.024911106 -0.011885904 -0.011690311 -0.007356302 -0.023581536 0.02936 -0.004291018
0.015645348 0.04155569 0.03747615 0.09699336 0.123122916 0.01887504 0.02835458 0.038318627
-0.04295389 0.016368762 0.063857965 0.023499947 -0.035116505 0.027243344 0.0071135145 -0.026743457

dncnn.2.conv.bias f4 [13]
00000000: 9c54 c73c 47b0 c63c 9abc 1f3d 1134 253d
00000010: b057 d43c dc56 af3c 3108 b43c 9a12 a43c
00000020: 9aab bf3c 1039 c73c eae1 d63c 30f0 a83c
00000030: 5a43 0e3d
0.024332337 0.024253977 0.038998224 0.040332858 0.025920719 0.021403722 0.021976562 0.020028401
0.023397256 0.024319202 0.026230771 0.020622343 0.0347322

dncnn.2.bn.weight f4 [13]
00000000: 3dd4 973d 5334 8f3d d047 8c3d 55f8 9d3d
00000010: 9b3a 673d 69a0 ca3d ab00 153e 4b66 b73d
00000020: 537e 993d 449a 813d 46ba ba3d 0d8a 803d
00000030: 10d0 0e3e
0.07413528 0.06992402 0.06849635 0.07713381 0.056452375 0.09893877 0.14551036 0.08955058
0.074947976 0.06328252 0.0911756 0.06276331 0.13946557

dncnn.2.bn.bias f4 [13]
00000000: 74ed debb 06b8 103d 73b8 303d 1098 673d
00000010: d418 833d 58be 303d 34fd c83d 517f 893e
00000020: 957c 293d 506c 2cbd 7ce8 7abd f0ce 803d
00000030: fc40 f23b
-0.006803209 0.03533175 0.043144654 0.056541502 0.0640122 0.043150276 0.0981392 0.26854947
0.041378576 -0.042095482 -0.06125687 0.0628947 0.0073930006

dncnn.2.bn.running_mean f4 [13]
00000000: ae71 55bb f455 ca3d e5ef 0a3d 7f79 ecbb
00000010: 548a 323d 6fee 42bb 1d7a 5dbb 05f4 653c
00000020: 891e aabc 3664 623b da64 e8bc 7423 d93c
00000030: 55a1 003c
-0.003256898 0.098796755 0.033920188 -0.007216632 0.04358895 -0.0029744168 -0.003379471 0.01403523
-0.020766513 0.0034544594 -0.028368402 0.026506163 0.007850965

dncnn.2.bn.running_var f4 [13]
00000000: 6e5b 403a 8615 113a 243a fc39 ece3 ff39
00000010: 64c3 d439 46d6 353a b485 6c3b b98e 173b
00000020: d73f 0e3a f019 423a a12d 3e3a 6c6e 143a
00000030: f63c 033b
0.0007337843 0.0005534518 0.00048108504 0.00048807205 0.00040581368 0.0006936531 0.0036090435 0.002312584
0.0005426383 0.00074043777 0.0007254724 0.0005662206 0.002002535

dncnn.3.conv.weight f4 [13, 13, 3, 3]
00000000: 1549 b43c 31a8 6b3c 2cd9 743c e975 1a3d
00000010: 5cdf 683c 33ab 3f3b 6a5c 4c3d cddf 7f3c
00000020: 621a 07bb e4d9 013d e865 f038 c8ea 2e3d
00000030: b0ca 933d a4a6 c63c 0c32 443d 5667 3f3d
00000040: c04e adbc 7d1f 51bc cb85 10bd 9591 843c
00000050: 8aef 00bc 9152 a4bc 58cf 9bbc bceb 51bd
00000060: 31ee ac3c 44d0 1fba ad20 55bd 6f1d 3c3d
00000070: d24f 64bc c2d0 5c3a fc5e 9c3c 1302 c4bb
00000080: c070 263c 9064 193d 91cf c73c baa4 1f3d
00000090: 00dc ccbc 8c34 b8bc fd5e b03c 46cb 07bc
000000a0: c6bf e0bc 3c7e 0b3d 5740 62bd f7ef febc
000000b0: f95d 473d c4cc 5bbd 430c 033b 3552 963d
000000c0: 68c6 11bd 91ec ed3c b0cb bd3d 4397 6bbd
000000d0: 22fb a03c 8913 893d 7d96 bbbc e036 71bc
000000e0: bddc 993b 25ed 94bc c0d4 53bd af23 1abd
000000f0: f95a 08bd 5e60 ccbc 17f9 cfbc 9fbf 473d
00000100: 203b a23c 7f08 14bd a7f8 a33d b987 313d
00000110: 16e1 1abc f9a2 4c3d 6421 3dbc 5ed9 82bc
00000120: 2d78 073c a9cc ba39 1a3f ed3c 2d4a 88bd
00000130: de09 64bd 560b d9bc ace5 d4ba c319 37bb
00000140: 68cd 683c e124 2c3c 98a7 203b 4837 f3bb
00000150: 558d bd3a 74b1 8fbc 807a 08bc 9fa0 30bc
00000160: 5897 edbc b157 9fbc 4dab 1a3d 36bb 7e3b
00000170: 81a5 fbbc d663 ac3c 8c43 8dbb e278 ebbc
00000180: 7538 143d 609f a83c a9a9 ccbc d477 bb3c
00000190: 096a 62bc 7daa 5bbc d3e4 843c c7be 06bd
000001a0: af0e 5bbc eafb 5b3b e22a 323a 13b0 30bc
000001b0: 4569 7c3b eb65 96ba 5918 01bd ad5d 2c3d
000001c0: 3d87 c83c 5042 7dbc 6e65 b73c e57f 553c
000001d0: cd2e 9cbc e834 c0bc 257d 613a c22d ddbc
000001e0: 25e3 31bd 98aa 383c 1dd1 2d3b ab38 8cbd
000001f0: 70bd a43b 31b1 933a f396 83ba 4e24 debc
00000200: b5fe ce3b cb0f 153d 0d7d bb3b 2c99 29bd
00000210: 65f2 db3c b139 e8bb bd5b 07bd 1507 63bd
00000220: edef 493b 0b82 b43c 161f 39bc 887d ca3c
00000230: 4a42 96bb f516 113d d7bd 3f3d b87c 9b3c
00000240: 3ed1 dfbc 52fd 403d 3923 87bc 2c9d 79bd
00000250: 1097 86bc 0606 76bd 571b c4bc f1e0 23bd
00000260: 451d 77bd 2de5 d1bc e2ee a73c 6dce 473d
00000270: a5e6 61bc f2fa 9e3b 50b3 f93b 9db1 07bc
00000280: 90ad a53c 4240 763a 8dd0 14bd d3ae ebbc
00000290: 7f04 58bd 4e60 89bc faee 1ebd 946d 4abd
000002a0: aaca a9bb e27f 09bd 5e68 61bd 9f7d 01bd
000002b0: 39be 2f3d ec27 013d 75d5 9ebd 72d8 fa3c
000002c0: 76ff 533d 1c07 e8bb c1eb ec3c 2291 043d
000002d0: d360 e73c e868 703c 972e b6bc 3da2 a23c
000002e0: 9499 303c 5454 893c bd93 dd3b c960 4fbc
000002f0: 24d3 533c 7c91 23bd 4a59 8ebc ef24 31bd
00000300: de03 dc3b 2bbc 0dbc 93f5 193c 8f50 dc3c
00000310: fa00 8d3c 1e80 9e3c 5e43 973d 2330 e53c
00000320: 346b c3bc f196 80bc 9128 8c3c a248 4b3b
00000330: eaff d4bc 1f2c 6dbc eade 443c 3476 c2bc
00000340: dc81 74bb 2ebc 4bbd 8e3c 05bd 837f 453c
00000350: a16f b6bc e199 58bd 5257 23bc a7fb 12bd
00000360: c039 a7bd 6c1b dbbc ae1b 263b 0c04 24bd
00000370: ddb4 303c 4bb5 8fbc a6f0 5ebc 6771 213d
00000380: 1fa7 ba3c 7cb2 733d 8295 30bc b3fb 7bbc
00000390: 5ffe 9d3d 9327 b7b8 af9c ebbb 3d0f 663c
000003a0: 7aa9 af3a 1a77 a23a 8a09 bebc e6fd ff3c
000003b0: 2e40 29bd 33cd a0bc 1aa0 053c 6327 18bd
000003c0: 4a59 f7bc f7a4 b63a f5bd 21bd bbde ba3b
000003d0: 00b8 1ebd 3675 4abc 467d 8cbc be8a b9bc
000003e0: f16b 493c 3b73 e9bc 07ce 9cbc f5d0 a53b
000003f0: c057 3abd dc3d bbbd c541 2ebd 6bbc 86bc
0.022007504 0.014383362 0.014944356 0.037710104 0.014213409 0.002924633 0.04989282 0.015617323
-0.002061509 0.031701937 0.00011463073 0.042704374 0.07216394 0.024249382 0.04789929 0.04672941
-0.021155715 -0.012763855 -0.035283845 0.0161827 -0.007869611 -0.020058902 -0.019019768 -0.051250204
0.021109672 -0.00060964026 -0.052033115 0.045926508 -0.013935046 0.00084234413 0.01908826 -0.0059816926
0.010158718 0.03744942 0.024390968 0.038975455 -0.025007248 -0.022485994 0.021529669 -0.00828821
-0.027435195 0.034055933 -0.05523714 -0.031120284 0.048673604 -0.053662077 0.0019996322 0.073398985
-0.035589606 0.029043468 0.09267366 -0.0575173 0.019651 0.06693179 -0.022898907 -0.014722556
0.0046955035 -0.018179486 -0.051716566 -0.037631687 -0.033289883 -0.024948295 -0.02538733 0.04876673
0.019803584 -0.036140915 0.08006411 0.043342326 -0.009453079 0.04996011 -0.0115436055 -0.01597279
0.008268398 0.00035629168 0.028960753 -0.06654773 -0.055673473 -0.026494663 -0.0016242764 -0.002793894
0.014209129 0.0105068395 0.0024513956 -0.0074223615 0.0014461676 -0.017540671 -0.0083299875 -0.010780483
-0.02900283 -0.019450994 0.03776102 0.003886891 -0.030718567 0.0210437 -0.0043110307 -0.028744165
0.036186654 0.020583808 -0.024983244 0.022884287 -0.013819226 -0.013407347 0.016222393 -0.032896783
-0.0133702 0.00335669 0.0006796551 -0.010784167 0.0038514894 -0.0011474466 -0.03151736 0.042081524
0.02447855 -0.015457705 0.022387233 0.013030981 -0.019065285 -0.023462728 0.0008601717 -0.026999358
-0.043429513 0.0112711415 0.0026522346 -0.06846746 0.0050274655 0.0011268017 -0.0010039493 -0.02711692
0.0063169845 0.036392014 0.0057216943 -0.04140584 0.026848981 -0.0070869555 -0.033046473 -0.055426676
0.0030813173 0.022034666 -0.011298915 0.024718061 -0.004585539 0.035422284 0.046811905 0.018980369
-0.027321454 0.047116585 -0.016496288 -0.060940906 -0.016429454 -0.06006434 -0.023938818 -0.040009443
-0.060330648 -0.025621975 0.02049965 0.048780847 -0.0137879 0.0048516924 0.0076202527 -0.008282092
0.020224363 0.00093937304 -0.036331702 -0.028769886 -0.052738663 -0.016769554 -0.038802125 -0.049420908
-0.00518163 -0.033569224 -0.055031173 -0.031613942 0.04290602 0.031532213 -0.077555574 0.030620787
0.0517573 -0.0070809256 0.02892101 0.032364972 0.028244412 0.014673449 -0.022239013 0.019852752
0.010778803 0.016763844 0.0067619965 -0.012657353 0.012928758 -0.039933667 -0.01737656 -0.043248113
0.006714328 -0.00865082 0.009396928 0.026893882 0.01721238 0.0193482 0.07385896 0.027977055
-0.02385483 -0.015696974 0.017109187 0.0031018634 -0.026000936 -0.014475851 0.0120160375 -0.023738004
-0.0037308848 -0.04974001 -0.032528453 0.012054327 -0.022270026 -0.052881125 -0.009969549 -0.035884526
-0.08165312 -0.026746474 0.0025346088 -0.040042922 0.010785309 -0.017542502 -0.01360718 0.03941479
0.022784768 0.059496388 -0.010777833 -0.015379834 0.07714533 -8.733491e-05 -0.007190309 0.014041719
0.0013401948 0.0012395114 -0.023197908 0.031248998 -0.041320972 -0.019629097 0.008155847 -0.037146937
-0.030193944 0.0013934661 -0.039487798 0.005702821 -0.038749695 -0.012357047 -0.017149579 -0.022649165
0.012293802 -0.028497329 -0.01914121 0.00506031 -0.04549384 -0.09142658 -0.04254319 -0.016447267

dncnn.3.conv.bias f4 [13]
00000000: 01ed c53c 46b7 323d eaa8 ec3c 6d67 8a3c
00000010: c2dc 073d aea1 ce3c 3c51 ca3c 3748 cc3c
00000020: 92f1 703c 0cf8 0f3d 8601 dd3c 3292 883c
00000030: 2fd1 263c
0.024160864 0.043631814 0.028889138 0.01689502 0.033169515 0.02522358 0.024696939 0.024936778
0.014706032 0.035148665 0.026978265 0.016671274 0.010181709

dncnn.3.bn.weight f4 [13]
00000000: 7410 693d 24c8 d53d 4cc2 8b3d 1a3d 003e
00000010: e69c 693d 673e 983d 4f29 6a3d 0d5e 633d
00000020: 3696 e93d 9177 b43d f6ef c43d 2c84 6f3d
00000030: e730 5d3d
0.056900457 0.104385644 0.068241686 0.12523308 0.057034396 0.07433777 0.0571683 0.055509616
0.114056036 0.08811868 0.096160814 0.05847566 0.054001715

dncnn.3.bn.bias f4 [13]
00000000: 9f14 143d 58b8 19be a77f e43c bb0f 433e
00000010: 37ff 473d 0a10 d73c aed3 503d f174 85bc
00000020: 58fd a63d a10d d6bd 97a9 06be ecbf 8f3d
00000030: d05f 7d3d
0.03615248 -0.15011728 0.0278929 0.1904897 0.048827376 0.026252765 0.050983123 -0.016291114
0.0815379 -0.10451818 -0.13150631 0.07019028 0.061858952

dncnn.3.bn.running_mean f4 [13]
00000000: e483 543d ad14 123d 58bf a53d bea0 023e
00000010: ce24 293d 1be1 1ebd 1e04 e43c e47f 2e3d
00000020: 1ad6 05bd c6d5 043d a71e c33c fef6 653d
00000030: 7f6c 35bd
0.051883593 0.03566425 0.080931365 0.12756631 0.041294865 -0.038788896 0.027833994 0.042602435
-0.032674886 0.032430433 0.023818327 0.056143753 -0.044292923

dncnn.3.bn.running_var f4 [13]
00000000: 1ad9 ba39 9103 3a3a da0a 173a 9a64 c03b
00000010: 9ba2 013a 0e33 423a ec41 203a 842e a639
00000020: a11c 313b cf3f bf39 9b56 473a 9e7b 0a3a
00000030: fd5c 173a
0.00035638438 0.00070958684 0.000576181 0.0058713676 0.00049451896 0.00074081204 0.0006113339 0.00031696644
0.002702512 0.000364779 0.0007604153 0.00052827026 0.0005774049

dncnn.4.conv.weight f4 [13, 13, 3, 3]
00000000: 97e0 32bc e053 10bc d6de 203d 1a8c 79bd
00000010: 3b62 0cbd 4ad0 e2bc db54 1dbd 691e f6bb
00000020: 4887 adbb 9419 3b3d f827 013b 8c82 f53c
00000030: 06e3 453d 28bd 9fbc 3b94 383d 214b 1d3c
00000040: 4ae0 20bd 98e5 4f3d a371 b4bd fa14 92bd
00000050: 1d29 e2bc 4c8a c7bc 0b58 15bd 77cb 08bd
00000060: 5cdc 6c3c 2fb5 c1bc 8323 35bd 52fa 373c
00000070: 9f41 ea3c 4ada 9ebb b28b 0c3d 7bbf 833c
00000080: 5afb 91bc 4e6c 1b3b d96f 8abc d159 04bc
00000090: 5628 4dbc e2a4 8b3c 1dcc da3c 9cbc 0dbc
000000a0: 12c3 fa3c 38a9 003d 8344 8cbc 9c0c ea3c
000000b0: cca7 043d c617 06bd c9bf 073c f174 49bb
000000c0: 8a31 b0bd 6115 3bbd 93fa bfbd ac08 803c
000000d0: 5ea5 e53c a40e 05bd 5435 89bb 4e3c cc3c
000000e0: 0d57 52bd c090 dbbc d4f9 f1ba 452e 45bd
000000f0: 547d 9abc cb4b 393d c2d0 f03c a170 adbd
00000100: b486 05bd f3b9 d3bd 4164 0bbd e794 143c
00000110: 5e5b fdbc 7d76 c1bd d02d 02bd 6cd3 06bd
00000120: 4883 97bc cfe1 f8bc 8bc0 08bc 195c 1abc
00000130: ff8f 093c 468a b93c effc 12bc c8c4 883c
00000140: d24b 3a3c f235 ae3d dba2 d53b 735b 03bd
00000150: a269 00bc 61ce 513c d0c6 7a3d 3348 f53c
00000160: 4271 7b3c 80a6 3a3d 92d1 0c3d 6b06 dfbc
00000170: 88ff 97bc 48b1 65bd 3cdc 1cbd 6fe9 fb3a
00000180: d600 17bd 8c17 0abd 5e0b 89bd aba0 ca3c
00000190: bd7f 9dbc 8ff6 8d3c 01b8 8c3d 7e7c 253d
000001a0: 9efa 7f3d 4c6f ab3c 96f9 74bb 932a 383d
000001b0: 160d d13c 1184 383b 6060 f63c 1891 a0bb
000001c0: 3f59 56bc 3674 89bc 3153 e7bb cf46 2ebd
000001d0: 763f 4ebd 866d a1bc 6b86 cebb a707 8b3c
000001e0: 64eb 653a 1b31 2d37 5ff0 a63c 442f 5ebc
000001f0: 4d86 34bb 7bcb 0e3d 294c dabc ba3b febb
00000200: a721 a13d a3f6 28bb f440 1dbb 0692 853c
00000210: 8d10 393d e299 853d 6f83 5dbc e28b 1dbd
00000220: bcdf 1c3c dbf0 de3b 9be7 efbc 6dd1 413d
00000230: 964c 5dbc 3db1 af3b 73ce 8f3d c255 25bc
00000240: 7e08 4fbc bfc2 8bbc e2ef 38bc 2957 70bc
00000250: e76d 563c 0beb 943b d655 9f3c b25a 9a3c
00000260: a87f 96bb c813 413d 3810 533d 14b9 2f3d
00000270: 45c6 57b9 978c 5c3b 0079 3a3c 02ec a2bc
00000280: 4d16 f3bc c9bc aabc 525a 0e3d e838 a5ba
00000290: 4504 65bd 9827 86bc 85ba 0ebd 19e6 b0bb
000002a0: c8e5 8cbd dff8 68bb 455e 703d 954f 0abc
000002b0: 5c4b b0bd 6f0b 0fbd 1326 29bc edf1 cbbd
000002c0: 8a8d 39bc 38ac e5bc 041b 9bbd fa07 babc
000002d0: 7b53 33bc 35bc 83bc a686 d8ba 8b2b 01bc
000002e0: d8f0 103a 7c8e bb3a fd49 c13c 5349 0d3d
000002f0: 52e8 473c a109 5e3a 5143 73bc e732 39bc
00000300: a975 85bb 720c 0fbc f2b5 fdbb 00db 77bb
00000310: 6792 46bc e1c9 f0ba 6d70 1bbd e932 08bd
00000320: d52d 24bc ba83 76bc 6c5e edbc 86bd 68bd
00000330: d731 8dbc 09e3 1f3c e680 3ebc 653b 653c
00000340: 613b 15bd 7f0f 15bd 4e60 15bc 5e28 f2bb
00000350: 8b33 3abc 2790 3ebd fe13 d0bc e65d 953b
00000360: c5d1 23bd 21d6 143b 6c86 bfbc f9c6 11bc
00000370: 4952 403c 094c 17bc b31d f53b 0ff9 29bd
00000380: 38b8 32bd 9d18 303d fa70 ac3d 95b9 553d
00000390: 320d 993b ea1a 7d3d 9296 d93c addb 863c
000003a0: b8e5 673d 6298 a83c a4f7 d6bb c8e9 12bc
000003b0: ea77 183d d000 0cbd 909a 5abc a8cd 103d
000003c0: 9ded f7bb 7d59 c13b 5027 553d 3131 0cbc
000003d0: db98 7bbb 0d8d 323d 997e edbb a1b1 04bd
000003e0: b705 3b3c d41b 44ba 0f72 97bc ee7b a83b
000003f0: 6abb b2bc 4b33 25bd a172 e23a c9f5 38bb
-0.010917804 -0.00880906 0.039275013 -0.060924627 -0.034273367 -0.02768721 -0.038411003 -0.0075109494
-0.005295668 0.04567869 0.001970766 0.029969476 0.04831221 -0.019499376 0.04506324 0.009600432
-0.0392764 0.050756067 -0.08810737 -0.07132907 -0.027607495 -0.024357937 -0.036460917 -0.033397164
0.014456835 -0.023645965 -0.04422332 0.011229115 0.028595744 -0.0048477994 0.03431291 0.016082516
-0.01782005 0.0023715678 -0.016899036 -0.0080780545 -0.012521824 0.017046396 0.026708657 -0.008650925
0.030610595 0.03141138 -0.017122513 0.028570466 0.032386586 -0.032737516 0.008285471 -0.0030739869
-0.08603199 -0.045674685 -0.09373965 0.015629135 0.028032955 -0.032484666 -0.0041872654 0.0249311
-0.05135255 -0.02680242 -0.0018461295 -0.04813983 -0.01885859 0.045238297 0.029396418 -0.08468748
-0.032599166 -0.103382014 -0.034031156 0.009068704 -0.030927356 -0.09446428 -0.03178197 -0.03291647
-0.018495217 -0.030381111 -0.008346687 -0.009421372 0.008396148 0.022648942 -0.008971437 0.016695395
0.011370616 0.08506383 0.006519658 -0.032069635 -0.007837685 0.012805552 0.06122476 0.029941654
0.015346827 0.045568943 0.03437955 -0.02722474 -0.018554464 -0.05607727 -0.03829597 0.0019219349
-0.03686603 -0.033713862 -0.06691621 0.024734816 -0.01922595 0.017329482 0.068710335 0.040401928
0.062494867 0.020927094 -0.003738021 0.044962477 0.025518935 0.002815489 0.030075252 -0.004900109
-0.013082801 -0.016779047 -0.0070594777 -0.042547997 -0.05035349 -0.019705545 -0.006302645 0.016971422
0.00087707327 1.0323037e-05 0.02037829 -0.013561074 -0.002754587 0.034862023 -0.026647644 -0.007758585
0.07867747 -0.0025781773 -0.0023995014 0.016304981 0.0451818 0.065234914 -0.013520106 -0.03846348
0.009574827 0.0068036146 -0.029285243 0.047318865 -0.013507029 0.0053617046 0.07021799 -0.010091247
-0.012636302 -0.017060636 -0.011287661 -0.014669218 0.013087726 0.004544621 0.01945011 0.018842075
-0.0045928545 0.047138005 0.05152914 0.042901114 -0.00020577859 0.0033653134 0.011381388 -0.019887928
-0.02967372 -0.020841973 0.034754105 -0.001260546 -0.055912275 -0.016376302 -0.034845848 -0.0053985235
-0.06879765 -0.003554873 0.058683652 -0.008441825 -0.08608124 -0.034923013 -0.010324019 -0.09958253
-0.011325249 -0.028036222 -0.07573512 -0.022708882 -0.010945196 -0.016080955 -0.001651962 -0.007883917
0.00055290526 0.0014309431 0.02359485 0.034493756 0.012201386 0.0008470063 -0.014847592 -0.01130364
-0.004072864 -0.008730995 -0.007742637 -0.0037819743 -0.012119866 -0.0018370711 -0.037949014 -0.033251677
-0.010020693 -0.0150460545 -0.028975688 -0.05682137 -0.01723568 0.009758719 -0.0116274115 0.013991212
-0.03643358 -0.03639173 -0.009117199 -0.007390066 -0.011364828 -0.046524193 -0.025400158 0.0045583127
-0.039994974 0.0022710639 -0.023379527 -0.008897536 0.011738368 -0.009234437 0.007480347 -0.041497286
-0.043632716 0.042992223 0.08419986 0.052178938 0.0046707625 0.061793245 0.026561055 0.016462171
0.05661556 0.020580474 -0.006560283 -0.008966871 0.037223734 -0.034180462 -0.013342515 0.03535238
-0.0075661675 0.0059005604 0.052039444 -0.00855665 -0.003839067 0.043591548 -0.0072477576 -0.032395963
0.011414937 -0.00074809534 -0.018487005 0.0051417267 -0.021817882 -0.04033212 0.0017276594 -0.0028222671

dncnn.4.conv.bias f4 [13]
00000000: 674b 213d b3f4 173d 9653 6c3c d702 8a3c
00000010: 6e0e 2f3d 3448 273d bd1b b43c e54f db3c
00000020: 6301 163d ce22 343d 7780 d4bd 32ee 1d3d
00000030: 3009 b33c
0.03937855 0.037098598 0.014424225 0.016847057 0.04273837 0.040840343 0.021985883 0.026771495
0.036622416 0.043978505 -0.10376065 0.03855724 0.021854967

dncnn.4.bn.weight f4 [13]
00000000: ecd7 d93d 8702 c03d 6c36 943d 1c79 193e
00000010: b469 cf3d 48c0 6d3d aede c63d 4ebb 8a3d
00000020: 8128 d03d 1949 d43d 7cd8 38be b2c5 a43d
00000030: 43da 033e
0.10636887 0.09375482 0.07236943 0.14987606 0.10127583 0.0580447 0.097104415 0.06774007
0.101639755 0.10365505 -0.18051332 0.0804552 0.12876229

dncnn.4.bn.bias f4 [13]
00000000: af69 a33d cc5c 8c3d eb0a 32bd 16a5 113e
00000010: 0ebc c3bd 9599 b43d 1b13 f63d 5d52 a03d
00000020: 760e 863e 8f6c 0ebe 7af7 68be 4118 893d
00000030: 4578 563d
0.07979142 0.06853637 -0.043467443 0.14223132 -0.09557353 0.08818356 0.12015363 0.078282095
0.26182908 -0.139086 -0.22750655 0.06694079 0.05236079

dncnn.4.bn.running_mean f4 [13]
00000000: b027 c43c 7433 cf3c c9f5 2d3d a29a a13d
00000010: c7df 043d a2e0 a73b 6684 3d3d b24c e43c
00000020: 6b38 5e3d 9f5e 3d3d 34e0 b9bd f09a f03c
00000030: 7533 753d
0.023944706 0.02529309 0.042470727 0.07890822 0.032439973 0.005123214 0.046268843 0.027868602
0.054253023 0.046232816 -0.090759665 0.029370755 0.059863526

dncnn.4.bn.running_var f4 [13]
00000000: 4964 353a 0227 093a 7d66 253a f973 723b
00000010: 5b1c fb39 67ee 7039 cd64 763a 28cd ee39
00000020: 2b4a d03a 64fa 1d3a 033a 1639 0786 b239
00000030: 6d54 f43a
0.00069195457 0.0005231948 0.00063095224 0.0036995395 0.00047895577 0.00022976995 0.0009399176 0.0004554775
0.0015891244 0.0006026386 0.00014326726 0.00034050664 0.0018640883

dncnn.5.conv.weight f4 [13, 13, 3, 3]
00000000: 83af 48bc 00b1 6fbb 0118 31bc 4f81 6e3b
00000010: fc54 3639 9250 e9bb 295d f5bc 7db6 25bd
00000020: 2099 b9bc 583b 66bc 7832 23bd b9f6 b6bc
00000030: 2353 043d d3ea af3c be5e e0bb 45fb ba3c
00000040: 0da7 0b3d 5915 cfbc 12a9 983b 5cc4 88bb
00000050: b58b 95ba 35da 0dba b290 04bc dbf6 72bb
00000060: a949 213c c6ab 913b c3c2 f13b 1d53 e8bc
00000070: 44ec 4439 6956 c03c 8ac8 bebb 8c85 3a3b
00000080: f6a3 1e3c 726f cf3b 0340 713c d6e1 f8bb
00000090: 689b 99bb ae85 35bc 5b04 4cbb dfa0 4fbc
000000a0: a8f3 65bc d255 bebc 664f 13bc 2808 533a
000000b0: fe83 93bc dd0d af3c be0e 263d b93f 61bc
000000c0: ef17 ea3b 6ca1 013d a934 01bb 3562 1abd
000000d0: ef22 b8bc e8c2 5ebd 4314 87bc f20f 36bd
000000e0: 9921 bcbc bc7e fbbc 4341 26bc 5022 2dbc
000000f0: bd19 9ebc 4dc8 c53c abab 7cbc 0a9d 1dbd
00000100: 0eaf 0bbd dd51 a6bc 8c59 0b3d 3dcf ca3c
00000110: dea0 183b d836 443d 619b 303d 716d dd3b
00000120: 7965 f23b 7c69 463c d9eb 4d39 5b59 2d3c
00000130: 29c6 f73c 51d7 3d3c 597b 0bbc 8ced 0fbd
00000140: e5e8 0abc bdbd b0bc b4b1 d7bc 149c f9bb
00000150: 3cac aebb a71b d1bc 2b8f 97bc 8f19 e0bb
00000160: 00a8 13bd 9a07 58bc 0762 febc bfab 7dbc
00000170: b2bb 183d fec6 a4bc a04b f8bc 6a68 1a3d
00000180: 84f0 aabc b22b fcba ec36 203d 41d7 b13c
00000190: c9b7 1b3c af3b 8abc 2e2e dabc ec10 9bbc
000001a0: 2920 fcbc a0bd 79bd 1f97 15bd a79a 5abd
000001b0: 0ccd 1a3d 0ef3 f33c bae2 21bc 702e 353c
000001c0: 8193 823b 149c cc3c 97ee ddbb fcb3 f1ba
000001d0: 093f 963c d19e 4c3d 83e2 a73d 8328 a23c
000001e0: 1532 c43d 8d97 123d a9bd 7ebd 0794 8d3c
000001f0: 69ed 45bd 2348 68bd db17 26bb a1a9 55bd
00000200: 185a eebc 4579 923a c8dd 53bc c85d 183b
00000210: 48cb a43c f8d2 1a3d fb16 d73c 9dcc cb3b
00000220: 3d7c 373c 8bae 2d3c 1079 aabb 2850 053e
00000230: f3e7 cb3c 90f4 9b3c 3824 293c 1348 3c3b
00000240: 88c1 0d3c b2cd cf3c 86cb 823c e66b ce3d
00000250: bd77 6dbe 5c2c 8b3c 9783 7fbb 3456 493d
00000260: 299c bc3c 794e 58bc c918 edbc bda7 47bd
00000270: 1caf 273c 7170 b53d 509f 11b5 d057 e8bc
00000280: 1c1c 013d 38ff fa3c 550f 0abc 1cb7 b83c
00000290: 5631 893c 0d36 bd3b 0803 4c3d b9f7 c43c
000002a0: f9f7 233b 602d c03b c40d 42ba abb8 e8bb
000002b0: 78b1 3ebd e8cd 4fbc 999c e8bd 19af 33bd
000002c0: cfab 813d f012 bcbc e87b 3c3d b2ec 333d
000002d0: a059 603a 9d99 1dbd 2530 3fbd d308 4b3d
000002e0: ce51 eb3c 7fe2 a2bc e97e ff3c 48bc 3d3d
000002f0: 2800 8c3c 34aa 51bd ea02 bf3d d9eb c1bc
00000300: 8435 c53d 8c7b 5dbe 8c4e b13c 4e32 4d3c
00000310: 6dca 653c 6142 433c a496 53bd b180 443c
00000320: b224 0f3d e1d9 023d f0b5 983b 2904 f3bb
00000330: 9b7e c33c 21ae 32bd 71ba febc 3dc5 eebb
00000340: cfec c23a 5e93 083d b37a c8bc de28 c0bd
00000350: 07cf 4ebb 922d e83c 3c79 6cbc 882c 05ba
00000360: b524 0bba e961 ab3c d9dd 363c 2972 813b
00000370: 3fcf fbbc b9bd 15bb cc8c acbb ba65 c8bc
00000380: 50e8 e23b 297d 2dbc b24b 31bd 9e2b 8cbc
00000390: 3880 92bd 1d7a 2f3e 3cbc ecbc c829 2e3b
000003a0: 256a 0cbd d0df 20bd 5f42 26bd 3a71 a4bc
000003b0: 7b67 a1bc c818 c8bc 390c d5bc 2eb4 35bb
000003c0: 4aac b5bc ac5e 1ebd 93bb 73bc fe06 773c
000003d0: 665c 7abd 8263 dcbc d3e8 43bb ee5c 8b3b
000003e0: bd72 143b f133 4dbc 761b 923d fa60 063c
000003f0: 89a8 c53b 65c1 46bc 59a0 4f3b a736 39bb
-0.0122488765 -0.0036574006 -0.010808946 0.0036392992 0.00017388532 -0.0071202004 -0.029951649 -0.040457238
-0.022656024 -0.014052235 -0.039843053 -0.022334443 0.032305848 0.021474278 -0.0068472316 0.022824893
0.03409486 -0.025278734 0.0046588266 -0.0041737985 -0.0011409434 -0.00054112385 -0.008091139 -0.0037073407
0.009844222 0.004445526 0.0073779537 -0.028359944 0.00018780032 0.023478704 -0.005822246 0.0028460948
0.009682646 0.006330424 0.014724734 -0.007595281 -0.0046877153 -0.011079235 -0.0031130526 -0.012672632
-0.014035143 -0.023234282 -0.008991098 0.00080502266 -0.018007275 0.021368915 0.040541403 -0.013748103
0.0071439664 0.031648085 -0.0019715226 -0.037691314 -0.022477595 -0.054385096 -0.016489154 -0.0444488
-0.02296524 -0.03070008 -0.010147396 -0.010567263 -0.019299382 0.024143362 -0.015421788 -0.038479842
-0.034102492 -0.020302707 0.034020945 0.024757022 0.0023289244 0.047903866 0.04311693 0.006757431
0.0073973504 0.01211011 0.00019638184 0.010580386 0.030245857 0.01158698 -0.008513295 -0.03513865
-0.008478378 -0.02157485 -0.026329853 -0.007617483 -0.0053305905 -0.025525881 -0.018500885 -0.0068389843
-0.03604889 -0.013185406 -0.031052602 -0.015482842 0.037288375 -0.020114418 -0.030309498 0.037697233
-0.02086664 -0.0019239096 0.039114878 0.021709086 0.009504267 -0.016874162 -0.026633348 -0.018928967
-0.030777054 -0.060971856 -0.036521073 -0.053370144 0.037793204 0.029778983 -0.009880716 0.011058435
0.003984869 0.024976768 -0.006772827 -0.001844048 0.018340604 0.049956147 0.081975006 0.019794708
0.09579865 0.03578906 -0.062192593 0.017282499 -0.048322115 -0.05670942 -0.0025343809 -0.052163724
-0.029095694 0.0011175057 -0.012931295 0.0023249257 0.020116463 0.03779885 0.026256075 0.00621946
0.011199054 0.010600696 -0.00520242 0.13018858 0.024890875 0.019037515 0.010323577 0.0028729483
0.0086520985 0.025366638 0.015966188 0.10079174 -0.23190208 0.016988926 -0.0038988346 0.049154475
0.023023682 -0.013202303 -0.028942483 -0.048743952 0.01023462 0.08859337 -5.424854e-07 -0.028362185
0.031520948 0.030639276 -0.008426507 0.02254825 0.016747158 0.0057742656 0.04980758 0.024043905
0.002501963 0.005864784 -0.0007402564 -0.0071020923 -0.046555966 -0.012683369 -0.11357994 -0.043868158
0.06331598 -0.022958249 0.046016604 0.043926902 0.0008558277 -0.038476575 -0.046676774 0.049568962
0.028725531 -0.019883392 0.031188445 0.046322137 0.017089918 -0.05118771 0.09326728 -0.023672031
0.09629348 -0.2162916 0.0216439 0.012524201 0.014025313 0.011917681 -0.051657334 0.011993573
0.034947105 0.031946067 0.0046603605 -0.0074162674 0.023864081 -0.043623094 -0.031094762 -0.007286696
0.00148716 0.033343665 -0.02447257 -0.09382795 -0.0031556503 0.028342042 -0.014433201 -0.0005080183
-0.0005307899 0.02092071 0.011161291 0.0039503765 -0.030738471 -0.002284868 -0.0052658077 -0.02446257
0.0069246665 -0.010588923 -0.04328508 -0.017110642 -0.07153362 0.17136426 -0.02889835 0.0026575197
-0.034280915 -0.039275944 -0.04059064 -0.020073522 -0.019702664 -0.02442588 -0.026006805 -0.0027725804
-0.02217688 -0.038664505 -0.014876264 0.015077351 -0.061123274 -0.026902918 -0.0029893413 0.0042530214
0.0022651397 -0.012524591 0.07134144 0.008201832 0.006032054 -0.01213107 0.0031681268 -0.0028261335

dncnn.5.conv.bias f4 [13]
00000000: a204 b23c 99b8 e93c 1414 b83c 6106 983c
00000010: dcc2 243c ece1 173d d2e7 5f3c 43fd 883c
00000020: 10f5 ab3c 2a0e 953d 1358 403d bc08 143c
00000030: d0d8 223d
0.021730725 0.028530406 0.022470511 0.01855773 0.010056224 0.03708069 0.01366611 0.016722327
0.020990878 0.07278092 0.046958994 0.009035286 0.03975755

dncnn.5.bn.weight f4 [13]
00000000: a187 363d 224b 913e 0c37 633d d530 9d3d
00000010: 40c1 753d f53a 403e 9d7b 9d3d ac33 9c3d
00000020: c580 983d f7ce 783e 4803 5e3e 9f7d 243d
00000030: fd44 b33e
0.04456294 0.28377634 0.05547242 0.076753296 0.05999875 0.1877249 0.07689593 0.07627043
0.07446436 0.24297701 0.21680939 0.040158864 0.3501357

dncnn.5.bn.bias f4 [13]
00000000: 9c87 16bd 3d12 0f3d ac31 d0bd bb5a dc3c
00000010: 25b8 a03d f797 0cbb 2e5b f53d 79be de3c
00000020: fc08 4b3d 2c59 503d 69bc 8b3d 8a0c 363d
00000030: b568 22bd
-0.03675042 0.034929503 -0.10165724 0.026898732 0.07847623 -0.0021452883 0.11980282 0.027190434
0.049569115 0.05086629 0.06823046 0.044445552 -0.039650638

dncnn.5.bn.running_mean f4 [13]
00000000: ac13 17bb 13f1 ef3c bebf 0c3c 892e 463d
00000010: bebc bb3d 18a1 723c f9b7 c33d 9268 903d
00000020: 1729 903d da8c 483d 072d f73d 805d 113d
00000030: fbe8 213d
-0.0023052497 0.029289758 0.008590637 0.048384223 0.09166859 0.014808916 0.095565744 0.07051195
0.07039087 0.04896245 0.12069135 0.03548956 0.039528828

dncnn.5.bn.running_var f4 [13]
00000000: c523 173a 649f 0d3c 5f8d 1d3a 9e03 b93a
00000010: d613 d43a 039b b63a 0e64 163b 454c 8a3a
00000020: 47e4 c03a bacb ca3a 5339 d33a c97f 923a
00000030: f7e4 fb3b
0.0005765523 0.008643959 0.00060101406 0.0014115458 0.0016180228 0.0013931695 0.002294782 0.0010551295
0.001471647 0.0015472092 0.0016115106 0.0011176999 0.007687207

dncnn.6.weight f4 [1, 13, 3, 3]
00000000: ac0d 6fbb efa9 013c 963b f7bb 9416 6a3b
00000010: 3a6e c03c 6e94 303c 9a0b 8abc 5b44 8f3d
00000020: 64d6 2d3d afc2 aebc 7ec1 86bc 75a4 a73b
00000030: e4a8 a63c e227 603e b650 9abd 7fcb 29bc
00000040: 195c c2bc 40a9 34bc 5024 48bd 25d5 203d
00000050: 3ed0 8fba 4491 523b 2524 253d 0344 9bbc
00000060: cdf9 99bc 8a8c b13d 054b 9bbd 6db7 1c3d
00000070: f945 cd3d 0b35 dc3c c66a debc a6d6 87bc
00000080: 1506 79b8 3718 34bd f30a 65bd 4f33 15bc
00000090: 4b00 c03c e80d b03d 41ff 6f3d b1ce 0cbd
000000a0: 535d febd 8c08 86bd 407b 373c 37af 2e3d
000000b0: c132 163c 7bb5 e93b 1d6b 303c 673a 6f3b
000000c0: fcf9 3f3c c242 1f3b b67d e3bb 41a4 ecba
000000d0: f6e2 24bd fb61 93bc 2e99 0fbc 5070 db3c
000000e0: 7748 59bd 8dbb a0bd 4411 093e af20 083d
000000f0: 3bfd 84bd ad61 bd3b 6fd8 043d e32a 8bbb
00000100: 217a 223c eb03 5f3d 8bdb 8cbd c911 aabc
00000110: 44c4 b53d 217f ecbc b70b cbbc a76c 493c
00000120: 5b09 f4bc 9021 e5bd f0ae 3bbd f191 1b3d
00000130: b6e5 e03c 2194 babb e573 df3c 8152 813d
00000140: b75f 3c3c 17f1 04bc e53d bfbc 4c35 4dbb
00000150: b18e 60bc 8f2a 16bc 0c9c 4b3c 10dd 463b
00000160: fcca a93c aeaf 903c 057d 173c 854e 43bb
00000170: daaf a3bc 94c0 003d f5aa 653b 7ebe 28bd
00000180: 5cc9 913c da6e 363c 7644 95bb 14f6 ed3c
00000190: 2cad 65ba 2344 9abc 7f64 6cbc 3e9f 223d
000001a0: 4c46 c5bd 7d68 f8bc 1fc3 0a3d dcb8 d6bc
000001b0: 8388 783c 6c7f 4d3c 476f babb 707e 8bbc
000001c0: d4f1 37be 119e 7a3d e826 dd3b 2b18 a63c
000001d0: f6e7 f53b
-0.0036476655 0.0079140505 -0.007544945 0.0035719024 0.02349006 0.010777576 -0.016851235 0.0699546
0.042440787 -0.021333067 -0.016449686 0.0051160404 0.020344205 0.21890214 -0.07534926 -0.010363459
-0.023725556 -0.0110266805 -0.048862755 0.03926577 -0.0010972095 0.0032130042 0.040317673 -0.018953329
-0.018795872 0.08669384 -0.07582668 0.038260866 0.10023112 0.026880762 -0.027150523 -0.016581845
-5.937189e-05 -0.043968406 -0.055918645 -0.009106471 0.02343764 0.085964024 0.05859304 -0.034376804
-0.12420144 -0.06544599 0.011198819 0.042647567 0.009167374 0.00713223 0.010767725 0.0036503316
0.011717316 0.0024301265 -0.006942476 -0.0018054323 -0.04025551 -0.017991057 -0.008764548 0.026786953
-0.053047623 -0.078482725 0.13385493 0.033234295 -0.064936124 0.005779466 0.03243297 -0.004247056
0.009916813 0.054447096 -0.06877812 -0.020760434 0.08875325 -0.028869214 -0.02478586 0.012293971
-0.029789617 -0.11188042 -0.04582113 0.037980977 0.027453285 -0.005693928 0.027276943 0.063145645
0.01149743 -0.008114121 -0.023344943 -0.0031312285 -0.013705895 -0.00916542 0.012427341 0.0030344166
0.020726673 0.017661896 0.009246116 -0.002980144 -0.019981313 0.031433657 0.0035044525 -0.041197293
0.017796211 0.0111348275 -0.0045552803 0.029048003 -0.00087614614 -0.018831318 -0.014428257 0.039702646
-0.09632549 -0.030323261 0.03387749 -0.026211195 0.015169266 0.012542587 -0.005689535 -0.017028064
-0.17963344 0.0611859 0.0067490228 0.020275196 0.0075044585

exp_avg_sq f4 [13]
00000000: 9a0d 4f29 132f 4429 b95c 8229 75c9 4829
00000010: e40e 5f29 f55e 7328 88e2 4929 4746 c429
00000020: e9f7 aa29 61ba dc28 ffa1 0329 f785 a429
00000030: 3c05 a228
4.597503e-14 4.3561573e-14 5.7892445e-14 4.4583657e-14 4.9528862e-14 1.35098e-14 4.482745e-14 8.71634e-14
7.592522e-14 2.4505736e-14 2.9228352e-14 7.306302e-14 1.7987883e-14

exp_avg f4 [13]
00000000: 5590 8933 65f5 12b3 8a52 0d33 a675 36b2
00000010: 0926 7bb2 fc15 aa31 06f7 0333 8015 0633
00000020: 361d 06b0 727e 0cb2 384d dfb1 53ec cf31
00000030: abf8 e030
6.4058135e-08 -3.421646e-08 3.290419e-08 -1.0620544e-08 -1.4618771e-08 4.9501505e-09 3.072548e-08 3.121886e-08
-4.879043e-10 -8.177823e-09 -6.498933e-09 6.05136e-09 1.6368821e-09

exp_avg_sq f4 [13]
00000000: d4e2 0529 aa6b 0329 f603 5d29 bdef 552a
00000010: eaa0 a729 d2aa eb28 994d cf28 6055 332a
00000020: 63d2 aa29 64dd 3929 07a4 3629 472c 4b2a
00000030: 8a57 f029
2.9728674e-14 2.9181227e-14 4.9075293e-14 1.9001376e-13 7.444204e-14 2.6164323e-14 2.301527e-14 1.5928014e-13
7.586013e-14 4.1270278e-14 4.055439e-14 1.8045384e-13 1.06733266e-13

exp_avg f4 [13]
00000000: 3bcb 4a31 bbb3 8032 48e2 a331 275a 0db3
00000010: ced1 c8b2 4ce9 0d33 e6a1 c1b2 731a 53b2
00000020: 716a 3533 35cb 20b2 b133 6432 17a7 87b3
00000030: 5ade 06b3
2.9510392e-09 1.4982893e-08 4.7696496e-09 -3.2911114e-08 -2.3378472e-08 3.3041303e-08 -2.254178e-08 -1.228783e-08
4.2239154e-08 -9.35943e-09 1.32831e-08 -6.316821e-08 -3.1401534e-08
