pre-trained-tp2/tiny_DnCNN_1500.pt (torch, 78802 bytes, 37 tensors)

weight f4 [13, 1, 3, 3]
0.03339884 -0.0076298504 -0.0097035365 0.08877006 0.07363638 0.028686333 -0.13463551 -0.04782374
-0.009453714 0.014899055 -0.026059072 -0.011269106 0.102854416 0.0045797247 -0.07290482 0.124502204
-0.009055321 -0.11572691 0.015263507 -0.024917388 0.012513725 -0.016888961 -0.1302056 -0.021269428
0.0060615544 -0.010684252 0.022653913 -0.05831492 0.071572475 0.0025026829 0.108427264 -0.19795457
-0.033296283 0.014352576 0.007997585 0.012550225 -0.0100959595 0.0035724072 0.018373152 0.008591323
0.049267203 0.1308588 -0.008854378 -0.005485871 0.018858593 8.709084e-06 -3.365196e-06 1.1311667e-05
-1.236328e-05 -4.273639e-06 1.6182285e-05 2.1919079e-05 2.0278556e-05 -1.3859686e-05 -0.05987251 -0.12452529
-0.061847713 -0.0076547833 0.012464354 0.012177056 0.059372004 0.123035885 0.054355048 -0.047538895
0.0035810664 -0.03245707 -0.07240814 0.2520394 0.03402859 -0.07260879 -0.0228698 -0.015423544
0.13787991 -0.029952267 -0.043587092 0.073150456 -0.11022605 0.00053170027 -0.011628248 -0.03414056
0.04840398 -0.049906008 -0.058702655 0.12804194 -0.12938489 -0.1769481 0.24392441 -0.039071664
-0.052135848 0.10799566 0.07062853 0.16264008 0.07649106 0.0012013237 -0.015976917 -0.014334002
-0.07444333 -0.1480839 -0.06427645 0.04963112 -0.004427954 0.03376594 0.074302666 -0.26096052
-0.034211155 0.07464373 0.0233971 0.016881546 0.075672776 0.11380634 0.06612195 -0.031552102
-0.09379124 -0.050433453 -0.037666604 -0.048001815 -0.014815976
00000000: 39cd 083d d303 fabb 95fb 1ebc 14cd b53d
00000010: acce 963d 9aff ea3c e4dd 09be d3e2 43bd
00000020: c0e3 1abc 2a1b 743c d679 d5bc 0ea2 38bc
00000030: 56a5 d23d 8411 963b 1f4f 95bd 03fb fe3d
00000040: c55c 14bc 3b02 edbd ca13 7a3c 8d1f ccbc
00000050: 5e06 4d3c b85a 8abc 9e54 05be 393d aebc
00000060: 01a0 c63b 000d 2fbc b394 b93c a0db 6ebd
00000070: 9794 923d 0d04 243b 1d0f de3d 9ab4 4abe
00000080: af61 08bd 1127 6b3c 4e08 033c 759f 4d3c
00000090: 8669 25bc 0c1f 6a3b 4b83 963c 9fc2 0c3c
000000a0: 68cc 493d d9ff 053e f411 11bc d2c2 b3bb
000000b0: 567d 9a3c 3b1d 1237 a1d5 61b6 3dc7 3d37
000000c0: e26b 4fb7 4866 8fb6 31bf 8737 ddde b737
000000d0: de1b aa37 e686 68b7 e13c 75bd 1e07 ffbd
000000e0: 0754 7dbd fad4 fabb 4a37 4c3c 4682 473c
000000f0: 0f30 733d 3dfa fb3d 66a3 5e3d 25b8 42bd
00000100: 53b0 6a3b b4f1 04bd b84a 94bd 4f0b 813e
00000110: 9061 0b3d ebb3 94bd 7259 bbbc 08b3 7cbc
00000120: 6430 0d3e 755e f5bc 6188 32bd e8cf 953d
00000130: 32be e1bd cd61 0b3a 6884 3ebc f9d6 0bbd
00000140: 4043 463d 3e6a 4cbd 3272 70bd 6d1d 033e
00000150: 797d 04be e231 35be 52c7 793e 9c09 20bd
00000160: 668c 55bd d42c dd3d b1a5 903d 1f8b 263e
00000170: 58a7 9c3d bc75 9d3a 06e2 82bc 29d9 6abc
00000180: bf75 98bd 4ea3 17be 5fa3 83bd 004a 4b3d
00000190: 5f18 91bb 284e 0a3d ff2b 983d 9e9c 85be
000001a0: ff20 0cbd d0de 983d 46ab bf3c 2b4b 8a3c
000001b0: 54fa 9a3d 4c13 e93d f26a 873d c73c 01bd
000001c0: 9f15 c0bd 4f93 4ebd 4c48 1abd 8d9d 44bd
000001d0: b5be 72bc

bias f4 [13]
0.022043929 0.01808383 0.019185988 0.012069075 0.018852279 -3.99016e-40 0.021516673 0.024728635
0.024703145 0.010574299 0.015897408 0.021217836 0.011743503
00000000: 7895 b43c 8a24 943c ef2b 9d3c 5fbd 453c
00000010: 1870 9a3c 4b58 0480 bc43 b03c b593 ca3c
00000020: 405e ca3c d33f 2d3c 483b 823c 07d1 ad3c
00000030: d267 403c

weight f4 [13]
0.07268919 0.08184113 0.0820437 0.047185663 0.09909136 -0.012975802 0.099569656 0.12012533
0.09274943 0.08912247 0.09343289 0.10402158 0.05219459
00000000: 12de 943d 539c a73d 8706 a83d c145 413d
00000010: 69f0 ca3d 7598 54bc 2deb cb3d 4504 f63d
00000020: 6af3 bd3d d785 b63d be59 bf3d 4409 d53d
00000030: ffc9 553d

bias f4 [13]
-0.03475904 -0.010830687 -0.09048145 0.21748129 -0.18190967 -0.0012825474 -0.041940548 -0.05653728
-0.07538023 0.14143944 0.042345148 0.050349057 0.08220999
00000000: 7f5f 0ebd 3273 31bc 574e b9bd 6ab3 5e3e
00000010: 8746 3abe 261b a8ba dac9 2bbd a393 67bd
00000020: f360 9abd 80d5 103e 1b72 2d3d d03a 4e3d
00000030: b65d a83d

running_mean f4 [13]
0.03017752 0.02258009 -0.04539283 -0.02032904 0.10592246 1.8581066e-05 0.024432836 0.040659443
0.034580786 -0.0041724923 0.013381315 0.0048652575 0.001556568
00000000: d936 f73c e2f9 b83c d5ed 39bd 1689 a6bc
00000010: e0ed d83d 89de 9b37 5f27 c83c 848a 263d
00000020: 95a4 0d3d 67b9 88bb 4e3d 5b3c bd6c 9f3b
00000030: c105 cc3a

running_var f4 [13]
0.0008894432 0.0016104744 0.0014264819 0.0012717322 0.0024690584 1.212889e-10 0.0017947642 0.001760911
0.001038488 0.0047739674 0.0027525472 0.001880012 0.0013316827
00000000: 8629 693a 8e16 d33a caf8 ba3a 40b0 a63a
00000010: edcf 213b ca5b 052f 4b3e eb3a 5ece e63a
00000020: e01d 883a f16e 9c3b 1464 343b bc6a f63a
00000030: db8b ae3a

weight f4 [13, 13, 3, 3]
-0.009219236 0.0016805843 0.017454665 -0.006075627 -0.01528394 -0.007262016 -0.004223793 -0.012013594
-0.015190388 0.012308738 -0.0038569828 -0.0035627722 0.012616923 -0.01839846 -0.004742845 0.008943419
0.0006092606 -0.0042301845 -0.0033240025 -0.010631639 -0.0065449397 0.0015460855 0.003302266 0.00022820076
0.004099779 0.0008598198 0.0031561218 -0.0058928668 0.015987843 0.017152557 -0.018854283 -0.19411452
0.042812366 -0.018901164 0.026096301 -0.014039622 0.029233743 0.016471026 0.008225697 0.08865028
0.061289154 0.02206892 0.036757756 0.031493444 0.012551412 1.4668228e-08 2.0841411e-07 9.947603e-08
-4.928501e-07 -1.7815249e-06 -4.8280594e-08 4.0026546e-08 9.6169565e-08 3.0015727e-07 -0.0060934355 0.019972418
-0.011111636 -0.0055699362 -0.024536567 -0.022042334 -0.0071002105 -0.04342105 -0.011103597 -0.0035179255
-0.041522887 -0.00087915995 -0.009404548 0.1542192 -0.012429476 -0.005871974 -0.016870616 -0.01370379
-0.00033424643 -0.0016242478 -0.008328527 -0.0015000539 0.0073573086 -0.00750022 0.0028987247 0.007809035
0.0022410208 0.006185373 -0.0075615523 -0.0096520465 0.044414625 -0.028614344 -0.02016614 0.0022616521
-0.024832165 -0.016938977 -0.007300756 -0.04256526 -0.01042207 -0.014290953 -0.013913438 -0.011921129
-0.008589127 0.035994273 -0.0063542076 0.0039751898 0.03895041 0.0008272883 0.016369333 -0.11721744
0.02090873 0.0024812697 0.0128720235 0.019366853 0.0055279606 -0.0070092324 0.0014074068 -0.005661576
-0.021997282 -0.01383951 0.012240429 0.0417352 0.020957977 -0.049863048 -0.008604974 -0.0021411444
-0.031592723 -0.003532679 -0.00385971 -0.0043857577 0.014525497 0.020645345 -0.007373053 -0.0142559195
-0.017753754 0.009564313 -0.010995335 -0.014578872 -0.0028094307 0.014726883 0.012869172 -0.0022407386
-0.007105452 -0.0011549061 0.008536445 0.0049332557 0.0021907913 -0.0045339465 0.02315614 0.0045109
0.02105242 0.063165516 0.035719074 0.0044801966 0.0019600214 0.006263378 0.004596205 -0.033587284
-0.0017346103 0.040536914 0.017275622 0.011091012 -0.012425929 -0.017977858 0.014185566 -0.045633256
-0.03428773 0.0015886026 -1.3376034e-11 -5.620844e-11 -5.921329e-12 -7.934731e-11 -8.450896e-11 -1.4419903e-11
-6.128461e-12 -4.2791798e-11 -2.7966707e-11 -0.018105054 0.013257018 0.0020884369 -0.023736544 0.01604173
-0.004511009 0.015079053 0.047253802 0.021888217 -0.01682103 -0.041548986 -0.0024218184 0.00035388704
0.0052825958 -0.0025391383 0.003612702 0.06560132 0.008794378 -0.0016886897 0.016259953 -0.0294386
0.0010562771 -0.022890517 -0.008250419 -0.009090676 -0.014563056 0.012681647 0.017228251 -0.021446085
-0.007213676 0.008702534 -0.029433386 0.0070013995 -0.019216172 0.019686459 0.0067915265 -0.04112638
-0.07340461 -0.02409196 -0.0069212 -0.033020567 0.026594557 -0.0024470927 -0.048979424 0.014841529
-0.0012295521 0.029007796 -0.015903754 0.006443077 -0.007647276 -0.01505674 -0.014523848 -0.013856279
-0.0065758335 0.0017842075 -0.0074255774 0.010192828 -0.005924004 -0.04778971 -0.020766133 -0.010361975
-0.06271043 -0.03684822 -0.011841116 -0.00743781 -0.005774255 -0.007254518 -0.008959826 -0.0018065124
-0.03405754 -0.026689 -0.011850105 0.030361952 0.02193179 0.026535766 0.01385578 -0.024899354
-0.00016777332 -0.029449841 -0.05471418 -0.019342015 9.041587e-05 0.0021232804 0.016516473 0.014927281
00000000: 470c 17bc 0d47 dc3a 16fd 8e3c 0e16 c7bb
00000010: 7e69 7abc 35f6 edbb be67 8abb aad4 44bc
00000020: 1be1 78bc 97aa 493c 6fc5 7cbb 667d 69bb
00000030: 36b7 4e3c 5eb8 96bc de69 9bbb 6b87 123c
00000040: c9b6 1f3a 5c9d 8abb 82d7 59bb 5330 2ebc
00000050: ef76 d6bb 05a6 ca3a d46a 583b 2d49 6f39
00000060: 7057 863b 8865 613a f0d6 4e3b f318 c1bb
00000070: f0f8 823c 8583 8c3c 4c74 9abc f5c5 46be
00000080: 055c 2f3d 9dd6 9abc e9c7 d53c 7106 66bc
00000090: 9a7b ef3c 3fee 863c 13c5 063c 478e b53d
000000a0: 560a 7b3d e1c9 b43c 4d8f 163d 45ff 003d
000000b0: 70a4 4d3c 8dff 7b32 6fc8 5f34 879f d533
000000c0: 674c 04b5 bb1c efb5 135d 4fb3 a7e9 2b33
000000d0: c785 ce33 4d25 a134 71ab c7bb 329d a33c
000000e0: 940d 36bc 0384 b6bb e900 c9bc 2092 b4bc
000000f0: e2a8 e8bb 45da 31bd dceb 35bc ff8c 66bb
00000100: e713 2abd 6d77 66ba 8915 1abc a3eb 1d3e
00000110: 00a5 4bbc b069 c0bb 3f34 8abc dc85 60bc
00000120: cc3d afb9 b6e4 d4ba 6074 08bc 759d c4ba
00000130: 9415 f13b 68c4 f5bb 88f8 3d3b efe2 ff3b
00000140: 17de 123b abae ca3b e6c6 f7bb 9e23 1ebc
00000150: 1cec 353d a168 eabc 7633 a5bc 3a38 143b
00000160: d36c cbbc 9cc3 8abc 2e3b efbb e958 2ebd
00000170: 54c1 2abc 9a24 6abc 30f5 63bc d750 43bc
00000180: 69b9 0cbc bb6e 133d f536 d0bb 4f42 823b
00000190: 778a 1f3d 61de 583a fb18 863c b20f f0bd
000001a0: c948 ab3c cc9c 223b 2ee5 523c 3ca7 9e3c
000001b0: e523 b53b b4ad e5bb bc78 b83a be84 b9bb
000001c0: a533 b4bc 1dbf 62bc 158c 483c 87f2 2a3d
000001d0: 10b0 ab3c 323d 4cbd e0fb 0cbc 7152 0cbb
000001e0: 5f67 01bd 8584 67bb 30f3 7cbb 67b6 8fbb
000001f0: 5afc 6d3c 6d20 a93c a799 f1bb a991 69bc
00000200: 5270 91bc a3b3 1c3c c725 34bc 39dc 6ebc
00000210: 6d1e 38bb 0649 713c 38d9 523c 5bd9 12bb
00000220: dad4 e8bb 3860 97ba 72dc 0b3c 26a7 a13b
00000230: 6193 0f3b 8091 94bb f2b1 bd3c 2cd0 933b
00000240: 2076 ac3c ec5c 813d 2a4e 123d 9dce 923b
00000250: b473 003b 063d cd3b c39b 963b d292 09bd
00000260: dd5b e3ba 090a 263d 9b85 8d3c 13b7 353c
00000270: 2096 4bbc 4d46 93bc 946a 683c f0e9 3abd
00000280: 4a71 0cbd a838 d03a 4d50 6bad 1435 77ae
00000290: 9756 d0ac 917c aeae 51d6 b9ae 78ad 7dad
000002a0: 45a0 d7ac 4833 3cae 6dff f5ad 0d51 94bc
000002b0: f733 593c 28de 083b 2473 c2bc f269 833c
000002c0: 16d1 93bb 220e 773c 348d 413d eb4e b33c
000002d0: 42cc 89bc 452f 2abd 5fb7 1ebb ea89 b939
000002e0: a019 ad3b ac67 26bb 15c3 6c3b fc59 863d
000002f0: 4b16 103c 0657 ddba 9833 853c 3829 f1bc
00000300: c772 8a3a e584 bbbc c42c 07bc 0ff1 14bc
00000310: e299 6ebc afc6 4f3c 4322 8d3c b3af afbc
00000320: b360 ecbb 1395 0e3c 491e f1bc ff6b e53b
00000330: 3c6b 9dbc 7f45 a13c 748b de3b 2374 28bd
00000340: 2855 96bd 815c c5bc 3ccb e2bb 9340 07bd
00000350: d4dc d93c 675f 20bb a69e 48bd e229 733c
00000360: ec28 a1ba c2a1 ed3c 9748 82bc 7320 d33b
00000370: 0096 fabb 8bb0 76bc 6ff5 6dbc 7205 63bc
00000380: 177a d7bb 12dc e93a 4252 f3bb d2ff 263c
00000390: 261e c2bb 25bf 43bd bd1d aabc 46c5 29bc
000003a0: 536e 80bd 29ee 16bd 3d01 42bc dfb8 f3bb
000003b0: f635 bdbb 4fb7 edbb 3ccc 12bc 7fc8 ecba
000003c0: eb7f 0bbd e4a2 dabc f126 42bc a1b9 f83c
000003d0: 4caa b33c 8961 d93c 5a03 633c bbf9 cbbc
000003e0: 4fec 2fb9 cb40 f1bc fa1b 60bd 2573 9ebc
000003f0: a79d bd38 bc26 0b3b 8e4d 873c 8e91 743c

bias f4 [13]
0.021237774 0.02893637 0.027488237 0.039556228 0.034850538 0.028712802 0.019122075 0.041545227
0.03103923 0.02493322 0.028147677 0.04056669 0.035900276
00000000: d7fa ad3c f70b ed3c 032f e13c b605 223d
00000010: 70bf 0e3d 1c37 eb3c e6a5 9c3c 542b 2a3d
00000020: fc45 fe3c c140 cc3c f595 e63c 4229 263d
00000030: 2b0c 133d

weight f4 [13]
0.06869811 0.04387101 0.047912814 0.069407426 0.042631567 0.03957379 0.056253467 0.07208338
0.0478644 0.06882953 0.052267086 0.064938754 0.050482232
00000000: 98b1 8c3d 17b2 333d 3a40 443d 7b25 8e3d
00000010: 709e 2e3d 2018 223d 096a 663d 73a0 933d
00000020: 760d 443d 7ff6 8c3d 0316 563d 9cfe 843d
00000030: 75c6 4e3d

bias f4 [13]
0.2634407 0.077310696 0.033657346 -0.033834208 0.046895806 0.06862331 0.10293776 -0.044240776
0.024185142 0.045357645 0.091769546 -0.037772443 -0.011245213
00000000: b3e1 863e 1255 9e3d 49dc 093d bd95 0abd
00000010: d115 403d 618a 8c3d 08d1 d23d d135 35bd
00000020: eb1f c63c f0c8 393d acf1 bb3d 47b7 1abd
00000030: d83d 38bc

running_mean f4 [13]
-0.0209232 0.019279778 -0.0043932577 0.087155595 0.02993286 0.03826983 0.025787065 0.07820747
0.0023061845 0.039220918 -0.00093841826 0.05243371 0.034647632
00000000: 2167 abbc a0f0 9d3c 51f5 8fbb a27e b23d
00000010: c235 f53c d3c0 1c3d 653f d33c 3d2b a03d
00000020: 5b23 173b 1da6 203d 2f00 76ba bbc4 563d
00000030: adea 0d3d

running_var f4 [13]
0.0008834453 0.00019736058 0.00020845121 0.00020107986 0.00011285539 0.00015051146 0.0007230585 0.00022980319
0.000169176 0.000565629 0.00025002274 0.00019868216 0.00012766483
00000000: 0397 673a 94f2 4e39 b293 5a39 f7d8 5239
00000010: c7ac ec38 9dd2 1d39 a28b 3d3a 53f7 7039
00000020: d664 3139 b846 143a 7c15 8339 5655 5039
00000030: c4dd 0539

weight f4 [13, 13, 3, 3]
0.0026305364 0.014353609 -0.0058371867 0.0037296251 0.005315723 -0.0006991058 -0.012746567 -0.00041446587
0.0012780905 -0.0029409144 -0.052538067 -0.017303383 0.0304794 -0.032648604 0.003217575 -0.019162059
-0.039318774 0.0066419663 0.02827525 -0.023087863 -0.017080827 -0.001742443 -0.03969807 -0.007204861
-0.061322104 -0.05985812 -0.01858492 -0.007296725 -0.04407717 -0.028262943 -0.0064254776 -0.01156851
0.016529614 -0.025751015 0.030369805 0.020831266 -0.0045176386 0.003288355 0.011849747 -0.0018596577
0.020273926 0.006420025 -0.03197417 0.010487245 -0.017399447 -0.0012719593 0.04658676 0.04603422
-0.0055414345 0.018162427 -0.008635227 0.021934537 0.047782827 0.0043028384 0.0026880484 0.01325105
-0.0039984146 0.001172207 0.02941109 0.008294968 0.015903614 0.02733193 -0.007932324 0.0031352676
0.011074923 -0.0096210735 0.011811579 0.016554892 0.011511723 -0.025336942 -0.03465502 -0.02305174
0.02071836 0.015355563 -0.04096133 -0.015855914 -0.013297736 -0.019140748 -0.018249353 0.008108312
0.034838814 -0.0045827846 0.00231773 -0.0061995448 0.002916877 0.0072552334 0.009260866 -0.008662652
0.017338853 0.016349966 0.04207932 0.0313297 -0.007022247 -0.008438742 0.007687779 0.010651013
-0.034315422 0.014989107 0.023857553 -0.020510785 -0.04446418 0.005448051 0.029836461 -0.01567901
0.013304323 0.028950816 0.004248686 -0.018363917 -0.009828564 -0.011579227 -0.0056550107 -0.022024995
-0.017917227 -0.00214848 -0.014539199 0.0149892485 0.019382501 -0.00053422846 0.016770428 0.013015781
0.021637414 0.056608144 0.012576106 0.03515144 0.025963996 0.008327425 -0.001619938 0.032250486
-0.014175879 -0.038401254 0.02017904 -0.017216116 -0.017843714 0.027000593 -0.014661245 -0.00061835675
0.0130539425 -0.029003158 0.01155425 0.03708277 0.0062965243 -0.01104183 0.031248664 -0.0050349915
-0.012850707 -0.026408894 -0.025335506 0.0217573 -0.008079234 0.0014307157 0.031541724 -0.020883545
0.0070534265 -0.029321723 -0.04435643 -0.058050193 -0.03469583 -0.046860445 -0.04179018 -0.068370804
-0.022036266 -0.03498498 -0.00870251 -0.0034242906 0.017805155 -0.016153133 -0.011867157 -0.0059619225
-0.002585452 -0.023629412 -0.019571064 0.000625863 -0.00074979407 0.0048324172 -0.011244065 -0.019426716
-0.005666001 0.0003889969 -0.0030134614 0.01514192 -0.017323012 0.009156144 0.0024907782 -0.010545772
-0.013881334 -0.017777814 -0.0039564306 0.013050665 -0.004005781 -0.0059608393 -0.0012303098 -0.00042824988
0.02443646 0.02733257 -0.000972412 -0.0067220414 0.033268444 -0.00050138956 -0.0013049297 -0.012987878
-0.015258245 0.009663026 -0.005067448 -0.025121905 0.009139669 0.005724351 -0.023375122 -0.027140938
-0.024127662 0.0075407266 0.068875834 0.018443746 0.026039738 -0.013158161 -0.04813481 0.002740737
-0.0033895893 0.015265539 0.0020027019 -0.036329035 -0.039318286 -0.013870674 -0.0054781092 0.007510392
-0.011216439 0.043691415 0.0019247713 -0.0038665815 -0.0057653086 -0.029524893 -0.0142395245 -0.02344498
-0.026565332 -0.0021805638 -0.0037226041 -0.002201207 -0.0072697233 -0.010972998 0.014745404 -0.011222073
0.010264907 0.030654607 0.026048942 0.061178733 0.06525518 0.015961736 0.012922366 0.023719842
-0.022225702 0.006263294 0.041852657 0.009542644 -0.025334757 -0.0021689655 -0.02607793 -0.012322677
00000000: 1465 2c3b 662b 6b3c df45 bfbb ba6c 743b
00000010: 842f ae3b 3244 37ba fad6 50bc ab4c d9b9
00000020: 9a85 a73a 5bbc 40bb 2832 57bd d3bf 8dbc
00000030: efaf f93c 8bba 05bd f3dd 523b c0f9 9cbc
00000040: b90c 21bd daa4 d93b 7fa1 e73c c222 bdbc
00000050: 17ed 8bbc af62 e4ba 729a 22bd c116 ecbb
00000060: e32c 7bbd ca2d 75bd 673f 98bc 5e19 efbb
00000070: 438a 34bd b087 e7bc d08c d2bb d989 3dbc
00000080: 1d69 873c cbf3 d2bc 19ca f83c 55a6 aa3c
00000090: b308 94bb 7181 573b 7125 423c c2bf f3ba
000000a0: 8115 a63c 135f d23b 59f7 02bd b2d2 2b3c
000000b0: 4989 8ebc dfb7 a6ba c2d1 3e3d 618e 3c3d
000000c0: ec94 b5bb 5fc9 943c c47a 0dbc 0fb0 b33c
000000d0: edb7 433d d3fe 8c3b f829 303b ef1a 593c
000000e0: 2205 83bb bda4 993a 87ef f03c 9ee7 073c
000000f0: 4c48 823c 36e7 df3c 94f6 01bc 1079 4d3b
00000100: 9873 353c b5a1 1dbc 5a85 413c 209e 873c
00000110: aa9b 3c3c 6b8f cfbc 6cf2 0dbd 01d7 bcbc
00000120: 8db9 a93c e695 7b3c 11c7 27bd 43e4 81bc
00000130: bfde 59bc 0fcd 9cbc ab7f 95bc bad8 043c
00000140: 25b3 0e3d 2f2b 96bb 0fe5 173b 8d25 cbbb
00000150: 1329 3f3b 4fbd ed3b e3ba 173c cced 0dbc
00000160: 360a 8e3c 5df0 853c 5d5b 2c3d 9253 003d
00000170: e11a e6bb a642 0abc c4e9 fb3b 9681 2e3c
00000180: 548e 0cbd df94 753c ea70 c33c 3c06 a8bc
00000190: 1220 36bd 9085 b23b 986b f43c 4471 80bc
000001a0: 60fa 593c 432a ed3c 9038 8b3b ed6f 96bc
000001b0: fc07 21bc ccb6 3dbc ab4d b9bb c36d b4bc
000001c0: 26c7 92bc 83cd 0cbb d235 6ebc 7795 753c
000001d0: 0dc8 9e3c 770b 0cba 2362 893c 2440 553c
000001e0: f240 b13c f1dd 673d 030c 4e3c f5fa 0f3d
000001f0: 72b2 d43c c16f 083c 1954 d4ba 1619 043d
00000200: f241 68bc a24a 1dbd 844e a53c d008 8dbc
00000210: fb2c 92bc 5930 dd3c b835 70bc 3819 22ba
00000220: 34e0 553c 0898 edbc 094e 3d3c 1ae4 173d
00000230: 1353 ce3b cbe8 34bc 33fd ff3c 92fc a4bb
00000240: c68b 52bc 7757 d8bc 688c cfbc 5d3c b23c
00000250: c35e 04bc da86 bb3a e531 013d f813 abbc
00000260: 6e20 e73b 1c34 f0bc 17af 35bd 0ac6 6dbd
00000270: 371d 0ebd bdf0 3fbd 2e2c 2bbd fe05 8cbd
00000280: 6685 b4bc 694c 0fbd f994 0ebc 106a 60bb
00000290: 1edc 913c 9353 84bc 776e 42bc 3b5c c3bb
000002a0: b070 29bb 7892 c1bc 7f53 a0bc f410 243a
000002b0: d48d 44ba 4159 9e3b 0739 38bc c724 9fbc
000002c0: dca9 b9bb 48f2 cb39 7e7d 45bb d115 783c
000002d0: fde8 8dbc a703 163c 533c 233b 2cc8 2cbc
000002e0: 896e 63bc c7a2 91bc f2a4 81bb 75d2 553c
000002f0: ed42 83bb 2553 c3bb 5942 a1ba ba86 e0b9
00000300: f92e c83c 8ee8 df3c 77e9 7eba 9244 dcbb
00000310: 7e44 083d af6f 03ba 2d0a abba 1ccb 54bc
00000320: b8fd 79bc ab51 1e3c d60c a6bb 74cc cdbc
00000330: 8dbe 153c 5693 bb3b 2f7d bfbc ac56 debc
00000340: 60a7 c5bc 3318 f73b c60e 8d3d 5717 973c
00000350: 4a51 d53c 5495 57bc 0229 45bd f09d 333b
00000360: df23 5ebb 501c 7a3c c33f 033b c1cd 14bd
00000370: 360c 21bd d341 63bc b681 b3bb bc19 f63b
00000380: 28c5 37bc c5f5 323d 9c48 fc3a 7966 7dbb
00000390: eaea bcbb 30de f1bc e54c 69bc b00f c0bc
000003a0: 8a9f d9bc cae7 0ebb eff6 73bb 2042 10bb
000003b0: dc36 eebb 17c8 33bc b596 713c c9dc 37bc
000003c0: 242e 283c 5f1f fb3c 9764 d53c 8d96 7a3d
000003d0: 82a4 853d 30c2 823c 55b8 533c 1d50 c23c
000003e0: ad12 b6bc 513c cd3b b16d 2b3d c058 1c3c
000003f0: d68a cfbc 3425 0ebb 62a1 d5bc 0ee5 49bc

bias f4 [13]
0.035797413 0.033622712 0.035610776 0.039258644 0.036361102 0.043787245 0.027641986 0.020342099
0.036366478 0.035639472 0.04306288 0.034450863 0.042449277
00000000: 4fa0 123d f8b7 093d 9bdc 113d accd 203d
00000010: 61ef 143d 415a 333d 7271 e23c 79a4 a63c
00000020: 04f5 143d b2fa 113d b462 303d 591c 0d3d
00000030: 4bdf 2d3d

weight f4 [13]
0.043344073 0.04712999 0.044252735 0.04780498 0.04575581 0.06028791 0.087977454 0.06726346
0.048938703 0.05618525 0.063606344 0.03915119 0.09136808
00000000: 8e89 313d 600b 413d 5b42 353d 28cf 433d
00000010: 726a 3b3d 75f0 763d 862d b43d 6dc1 893d
00000020: f373 483d 8122 663d 0b44 823d 005d 203d
00000030: 301f bb3d

bias f4 [13]
0.017121082 0.03304332 0.02941074 0.03870553 0.038513444 0.016849028 0.074382775 0.21953487
0.02204543 -0.060418446 -0.039710637 0.0574257 -0.006261749
00000000: 8341 8c3c 6f58 073d cbee f03c b189 1e3d
00000010: 46c0 1d3d f906 8a3c ff55 983d c0cd 603e
00000020: 9e98 b43c 5579 77bd 9fa7 22bd 3637 6b3d
00000030: 5c2f cdbb

running_mean f4 [13]
0.047387473 0.055122845 0.029218422 0.004631654 0.03818796 0.039642736 0.002675282 0.006294002
0.005771624 0.029081704 0.024073774 0.047025595 0.058611326
00000000: 5e19 423d 7ec8 613d 795b ef3c 21c5 973b
00000010: fa6a 1c3d 6c60 223d c953 2f3b ea3d ce3b
00000020: e41f bd3b c13c ee3c 5d36 c53c e99d 403d
00000030: 6e12 703d

running_var f4 [13]
0.00011435005 0.00013986298 9.969928e-05 0.000110826884 0.00011044762 0.00012912083 0.0007833954 0.0008306272
0.00012648353 0.00017285174 0.00015537895 9.180256e-05 0.0003304315
00000000: 37cf ef38 2fa8 1239 a515 d138 bb6b e838
00000010: 1da0 e738 9c64 0739 c65c 4d3a 73be 593a
00000020: aaa0 0439 893f 3539 38ed 2239 2086 c038
00000030: c43d ad39

weight f4 [13, 13, 3, 3]
0.012996759 0.013284834 0.043125268 0.037343048 0.014095134 0.011236586 0.020563165 0.014181243
0.01165801 0.0041820705 0.0035655263 0.05131778 0.0381844 0.008525113 0.03236218 0.02093813
-0.028428074 -0.019455202 -0.031165244 0.017231816 0.009737765 -0.026071122 -0.023700848 -0.033829916
0.0028085937 -0.009328918 -0.02865445 0.034978062 -0.0047021382 0.005213954 0.020077432 -0.0016474169
0.016229361 0.03423834 0.004527462 0.044331092 0.0021097977 0.00041868948 0.037394814 -0.003177088
-0.017359741 0.0003363695 -0.030886125 -0.028065747 0.037170805 -0.06297394 0.0015488778 0.045461778
-0.031792704 0.014064316 0.037965525 -0.043674175 0.00486596 0.024202581 -0.02066235 -0.011061916
0.010331645 -0.024151232 -0.046590693 -0.009656085 -0.040434614 -0.009986796 0.0047270865 0.022934157
0.009795394 -0.025930509 0.040449243 0.029778779 0.0027580515 0.03798229 -0.002425586 -0.023932908
-0.006929505 -0.0071163033 0.02678824 -0.04432855 -0.030455051 -0.008058575 -0.015764674 -0.014333667
0.009446627 0.014185032 0.0180985 -0.0031217623 -0.00623531 -0.02412403 -0.012062123 -0.0058601503
-0.010957224 -0.002699697 0.02720471 0.0012692104 0.0015499844 -0.00442667 -0.014328797 -0.014975005
0.027884139 0.014883601 -0.020486293 0.037603423 0.0022000326 -0.015369838 0.051519025 -0.002348866
0.020852527 0.029658552 0.018073797 -0.008650535 0.002810283 -0.0012622797 -0.030638615 0.0304976
0.013091805 -0.021096561 0.020674923 0.011928396 -0.016770093 -0.00450307 -0.027897736 -0.024167253
-0.029250843 0.005639494 0.0035034388 -0.033963934 0.040454835 0.00425906 -0.021352876 -0.016146006
-0.016122224 -0.01385239 0.002724005 -0.019316865 0.017469425 -0.012585709 -0.03360574 -0.051321883
-0.0044709165 0.008913112 0.005278986 0.008192443 0.007540231 0.022071522 0.029040076 0.020669442
0.029000938 0.010291367 -0.0072841486 -0.022624752 -0.018898768 -0.029440038 -0.031967733 -0.038120918
-0.03578529 0.0030599674 0.012632211 0.042773362 -0.00049744383 0.0021339748 0.022918934 -0.012444576
0.022791646 0.007301721 -0.020040262 -0.044029593 -0.040162887 -0.013464384 -0.0404317 -0.016925149
-0.010363973 -0.030858185 -0.0105695445 -0.031285692 0.01185747 0.02791668 -0.080563545 0.0020949712
0.012523398 -0.01006825 0.024623917 0.008940976 0.026299452 0.018776719 -0.016623756 0.03747418
0.05642449 0.030110346 0.010516026 0.0063651795 0.012612364 -0.018612983 0.008785378 -0.028960837
-0.0017273655 0.0034897837 0.017056921 0.009322747 0.0060035917 0.007201955 0.02760484 -0.019297134
-0.028686602 -0.014125908 0.033101056 0.030451221 -0.012136948 0.015225248 0.036162425 -0.009921355
0.0005091088 -0.011830852 -0.009637613 0.02968901 -0.016873868 -0.037555534 -0.006674316 -0.03328998
-0.056110222 -0.029415369 0.00014249695 -0.036368616 -0.015649546 -0.013803975 -0.009488559 -0.0062921164
-0.01078444 0.027950983 0.00084191485 -0.015571495 0.05366676 0.0071535204 0.003162131 0.013987783
0.010045304 0.0030001248 -0.031006373 0.030218799 -0.0397554 -0.018507985 0.0012349185 -0.024924025
-0.03285647 0.010694061 -0.030316597 -0.00737516 -0.021390429 -0.0024766827 -0.023014404 -0.020474061
0.022838572 -0.03376026 -0.017395243 0.024491075 -0.050455388 -0.06217331 -0.024220679 -0.017605674
00000000: 5cf0 543c a2a8 593c 1fa4 303d 06f5 183d
00000010: 47ef 663c a819 383c 1574 a83c 7258 683c
00000020: 3d01 3f3c c009 893b 9bab 693b 9832 523d
00000030: 3f67 1c3d eaac 0b3c 358e 043d 7186 ab3c
00000040: fee1 e8bc 8460 9fbc 414e ffbc bd29 8d3c
00000050: 268b 1f3c 1b93 d5bc 4828 c2bc 3d91 0abd
00000060: 6210 383b 51d8 18bc bdbc eabc 2845 0f3d
00000070: 6514 9abb d1d9 aa3b 6d79 a43c 23ee d7ba
00000080: 70f3 843c 803d 0c3d 1b5b 943b 8594 353d
00000090: 8844 0a3b 8d83 db39 4e2b 193d b136 50bb
000000a0: 0436 8ebc c05a b039 e604 fdbc 23ea e5bc
000000b0: 6a40 183d 7bf8 80bd b703 cb3a 2136 3a3d
000000c0: 1139 02bd 046e 663c bd81 1b3d b1e3 32bd
000000d0: a272 9f3b 7e44 c63c 1744 a9bc 0a3d 35bc
000000e0: 0f46 293c ced8 c5bc e2d5 3ebd 8e34 1ebc
000000f0: c49e 25bd a99f 23bc ade5 9a3b 6ae0 bb3c
00000100: dc7c 203c 386c d4bc 1bae 253d a0f2 f33c
00000110: 6dc0 343b 5193 1b3d 95f6 1ebb f20e c4bc
00000120: e710 e3bb e12f e9bb 0373 db3c db91 35bd
00000130: df7c f9bc 1d08 04bc eb24 81bc c2d7 6abc
00000140: 07c6 1a3c 5668 683c 4e43 943c 7b96 4cbb
00000150: 9251 ccbb c29f c5bc 36a0 45bc 8106 c0bb
00000160: ee85 33bc 66ed 30bb 69dc de3c a25b a63a
00000170: d928 cb3a 990d 91bb 55c3 6abc b959 75bc
00000180: 476d e43c 59da 733c dfd2 a7bc 0c06 1a3d
00000190: 6c2e 103b c6d1 7bbc 9d05 533d 6fef 19bb
000001a0: ebd2 aa3c 7ef6 f23c 800f 943c f9ba 0dbc
000001b0: ba2c 383b 1473 a5ba d5fd fabc 1ad6 f93c
000001c0: 037f 563c b2d2 acbc 755e a93c 526f 433c
000001d0: 6f61 89bc 7d8e 93bb cb89 e4bc 67fa c5bc
000001e0: 779f efbc 81cb b83b f399 653b c41d 0bbd
000001f0: f8b3 253d 968f 8b3b 3aec aebc a144 84bc
00000200: c112 84bc 23f5 62bc 3885 323b 673e 9ebc
00000210: 0a1c 8f3c 4a34 4ebc 2ca6 09bd e536 52bd
00000220: c480 92bb 4d08 123c 58fb ac3b 9939 063c
00000230: 0b14 f73b 56cf b43c 74e5 ed3c f652 a93c
00000240: 6093 ed3c 1f9d 283c deaf eebb 8b57 b9bc
00000250: 97d1 9abc 3c2c f1bc 99f0 02bd ae24 1cbd
00000260: 9993 12bd bc89 483b 55f7 4e3c 1f33 2f3d
00000270: e466 02ba 28da 0b3b 7dc0 bb3c 56e4 4bbc
00000280: 8cb5 ba3c 4643 ef3b 7a2b a4bc 6058 34bd
00000290: d781 24bd b899 5cbc b69b 25bd 9ca6 8abc
000002a0: a7cd 29bc 4eca fcbc e22b 2dbc 6d25 00bd
000002b0: d545 423c 85b1 e43c 80fe a4bd c94b 093b
000002c0: f02e 4d3c 4df5 24bc 19b8 c93c 2c7d 123c
000002d0: f371 d73c a2d1 993c 8b2e 88bc 877e 193d
000002e0: 5e1d 673d f9a9 f63c 694b 2c3c ff92 d03b
000002f0: 17a4 4e3c 417a 98bc 8cf0 0f3c 473f edbc
00000300: c568 e2ba dbb4 643b f5ba 8b3c 6fbe 183c
00000310: c7b9 c43b 61fe eb3b 8c23 e23c 0615 9ebc
00000320: 2a00 ebbc 5a70 67bc f994 073d d774 f93c
00000330: 0dda 46bc 5273 793c 0d1f 143d 2e8d 22bc
00000340: b775 053a 31d6 41bc 14e7 1dbc 5e36 f33c
00000350: 113b 8abc d5d3 19bd 38b4 dabb 135b 08bd
00000360: d5d3 65bd 80f8 f0bc 3c6b 1539 42f7 14bd
00000370: 7a33 80bc 112a 62bc e775 1bbc 192e cebb
00000380: 38b1 30bc 76f9 e43c f3b3 5c3a 951f 7fbc
00000390: add1 5b3d 1468 ea3b c13b 4f3b 042d 653c
000003a0: 0f95 243c be9d 443b 1401 febc 6a8d f73c
000003b0: 8fd6 22bd 0f9e 97bc fddc a13a 782d ccbc
000003c0: 8294 06bd 2536 2f3c 835a f8bc 54ab f1bb
000003d0: fb3a afbc d74f 22bb b488 bcbc 38b9 a7bc
000003e0: f517 bb3c 3348 0abd 7880 8ebc 82a1 c83c
000003f0: 4faa 4ebd 71a9 7ebd 726a c6bc c639 90bc

bias f4 [13]
0.040214915 0.050522175 0.03829031 0.017646797 0.036542226 0.039367396 0.033865474 0.03751912
0.02646633 0.04464961 0.047879595 0.037858736 0.028669568
00000000: 65b8 243d 57f0 4e3d 4dd6 1c3d 0490 903c
00000010: 4dad 153d b53f 213d 86b6 0a3d a6ad 193d
00000020: ebcf d83c 82e2 363d 651d 443d c311 1b3d
00000030: 71dc ea3c

weight f4 [13]
0.041370977 0.0696177 0.03956572 0.07089856 0.040678587 0.04546657 0.038297005 0.029266164
0.065158516 0.05385751 0.07110105 0.039642554 0.032052714
00000000: 9d74 293d ba93 8e3d aa0f 223d 4433 913d
00000010: 979e 263d 273b 3a3d 52dd 1c3d 98bf ef3c
00000020: d471 853d b199 5c3d 6d9d 913d 3b60 223d
00000030: b549 033d

bias f4 [13]
0.025525162 -0.08239979 0.020953137 0.13145073 0.036747262 0.017339356 0.01967052 0.013137257
0.048844133 -0.07906554 -0.08570204 0.03622193 0.055220246
00000000: 251a d13c 39c1 a8bd eaa5 ab3c 059b 063e
00000010: 4c84 163d 440b 8e3c 1224 a13c a63d 573c
00000020: c910 483d 1ded a1bd 8d84 afbd 725d 143d
00000030: a02e 623d

running_mean f4 [13]
0.06397652 0.06586794 0.056242567 0.09373746 0.03018188 0.027635347 0.023445321 0.049889274
-0.01511738 0.04734544 0.041146047 0.05169815 0.009728817
00000000: 1f06 833d c5e5 863d 9b5e 663d 6df9 bf3d
00000010: fd3f f73c 8663 e23c 6710 c03c b258 4c3d
00000020: e3ae 77bc 4bed 413d c288 283d 70c1 533d
00000030: 9e65 1f3c

running_var f4 [13]
7.86359e-05 0.00012039177 8.868038e-05 0.001110218 8.218546e-05 0.00011253653 8.6910964e-05 5.322868e-05
0.00042799264 9.704774e-05 0.00015233943 8.590851e-05 0.00010191803
00000000: 54e9 a438 d77a fc38 ebf9 b938 bc84 913a
00000010: fc5a ac38 9701 ec38 f843 b638 dc41 5f38
00000020: 3364 e039 1c86 cb38 4ebd 1f39 c829 b438
00000030: d3bc d538

weight f4 [13, 13, 3, 3]
-0.010852227 -0.009132784 0.045865316 -0.0349143 -0.011003703 -0.013093314 -0.0054413755 -0.026442481
-0.0005402836 0.02155547 0.011282314 -0.020153107 0.0068617137 0.0072344267 0.012672216 -0.0019006926
-0.014370894 0.055351116 -0.044547196 -0.059966393 -0.023841325 -0.011693022 -0.04725507 -0.033662833
0.030954773 -0.010531077 -0.023645965 0.014192005 0.016044443 0.006900758 0.027469117 0.004860893
-0.012096313 -0.001855323 -0.020280173 -0.013830803 0.024652015 0.013326472 0.01753266 0.004319886
0.03131558 0.011867202 -0.0075824913 0.033788495 0.036722545 -0.031130102 -0.007938047 0.0036752743
-0.08714669 -0.046529748 -0.054880098 0.0010210248 -0.0025455963 -0.01840592 0.0037254386 0.0030934648
-0.037723865 -0.008962701 0.01292325 -0.020680584 0.02028952 0.052650467 0.032443862 -0.055225797
-0.017944181 -0.06009765 -0.018665956 0.006846719 -0.015626296 -0.0608533 -0.01708245 -0.037341014
-0.01296874 -0.0074825315 -0.010646334 -0.011357209 -0.0022074035 0.0029859333 -0.0035136393 0.014607724
0.0076431 0.06635278 0.027893001 -0.004555238 -0.025182132 0.0320714 0.054760363 0.021098189
0.020736447 0.042524077 0.025637345 -0.020140179 -0.021029145 -0.049982756 -0.026458398 -0.006207142
-0.015946694 -0.030641485 -0.054266773 0.024253944 -0.009098534 0.024073584 0.029731521 0.025117522
0.042795975 0.031641796 0.011942035 0.021174164 -0.0105901575 -0.009966453 0.013447183 -0.029934505
-0.00498945 0.003082796 -0.0023133836 -0.00908458 -0.02556274 -0.050341193 -0.011278794 0.02586325
-0.016719375 0.013845806 0.018611781 -0.026022526 -0.0006207093 -0.00060703844 -0.023320897 -0.019502332
0.05080858 -0.0027273674 0.0035886345 -0.00060011796 0.053760476 0.052957878 -0.017154232 -0.029588467
0.0013637822 -0.011443841 -0.012118856 0.002725217 -0.0169903 0.024051785 0.03613893 0.0060313065
-0.015554354 -0.013321324 -0.0072369236 -0.0049911602 0.013578007 0.008471352 -0.00032532038 0.018086448
-0.0044605904 0.059036378 0.034923483 0.051110208 0.0068838526 -0.024428455 0.0049625123 -0.01918021
-0.04309362 -0.0055729216 0.02314772 0.0022019085 -0.03129663 -0.010635703 -0.020504238 -0.0006158996
-0.02608218 -0.014692009 0.026302846 -0.00923844 -0.07172985 -0.027561048 -0.032588623 -0.08125058
0.0064838985 -0.02528431 -0.05175306 -0.014977998 -0.00044030073 -0.017729761 -0.009100192 -0.007744412
-0.017365998 0.00040454045 0.0040933997 -0.0010383722 -0.009030399 0.008860581 -0.017697653 -0.003034104
-0.007288828 -0.0061886846 -0.012629736 -0.0004036629 0.0010964078 -0.000718491 -0.016224392 -0.014444141
0.02180073 -0.03505806 -0.06256189 -0.012342027 0.009919282 0.003068433 -0.014202585 0.010272603
-0.026532691 -0.0032722235 -0.012312107 -0.008534957 -0.01846837 -0.023190914 -0.019504284 -0.010609998
-0.0099833775 -0.0012558486 -0.014394948 -0.010572723 0.011622391 -0.001359357 -0.008493905 -0.01264732
-0.020409614 0.023291344 0.040003203 0.04814986 -0.011480291 0.047742173 0.020922177 0.024129935
0.06937908 0.021758553 -0.0034291353 0.005588256 0.044604454 -0.0034522454 0.0032602889 0.04331979
-0.0015179461 0.008146535 0.028392421 0.011555259 0.043198157 0.032659307 -0.017620271 0.010339166
0.004507292 -0.007034784 0.008281628 0.02251414 -0.0063832127 -0.019653846 -0.0049787704 -0.0035471173
00000000: 8acd 31bc aca1 15bc 45dd 3b3d 4c02 0fbd
00000010: e048 34bc 5785 56bc 914d b2bb e79d d8bc
00000020: d2a1 0dba 1995 b03c 74d9 383c 2118 a5bc
00000030: 3ad8 e03b c50e ed3b 209f 4f3c a920 f9ba
00000040: e673 6bbc dab7 623d 1f77 36bd 529f 75bd
00000050: e24e c3bc 1794 3fbc 888e 41bd 0ae2 09bd
00000060: dd94 fd3c 8a8a 2cbc 2fb5 c1bc 9585 683c
00000070: a36f 833c c11f e23b ea06 e13c 2048 9f3b
00000080: 9d2f 46bc 4f2e f3ba 9b22 a6bc 989a 62bc
00000090: 06f3 c93c 4657 5a3c a7a0 8f3c d58d 8d3b
000000a0: c444 003d a76e 423c 8c76 f8bb ce65 0a3d
000000b0: 616a 163d 8e04 ffbc 950e 02bc dfdc 703b
000000c0: f779 b2bd fa95 3ebd f4c9 60bd e8d3 853a
000000d0: 05d4 26bb 03c8 96bc 7d26 743b babb 4a3b
000000e0: 5784 1abd 4bd8 12bc 0abc 533c 546a a9bc
000000f0: 3536 a63c 04a8 573d dbe3 043d 7234 62bd
00000100: adff 92bc f428 76bd 59e9 98bc 715a e03b
00000110: b802 80bc 4f41 79bd 7ff0 8bbc e4f2 18bd
00000120: d77a 54bc 0630 f5bb f66d 2ebc 9613 3abc
00000130: 16aa 10bb a6af 433b 1645 66bb 3c55 6f3c
00000140: f872 fa3b f7e3 873d dd7f e43c 1b44 95bb
00000150: c24a cebc 4d5d 033d 674c 603d 1cd6 ac3c
00000160: 7bdf a93c ba2d 2e3d 6905 d23c 04fd a4bc
00000170: 5045 acbc b8ba 4cbd 48bf d8bc 4865 cbbb
00000180: a4a2 82bc da03 fbbc d646 5ebd 35b0 c63c
00000190: 0412 15bc f735 c53c 858f f33c 43c3 cd3c
000001a0: d54a 2f3d d49a 013d 86a8 433c 7175 ad3c
000001b0: 5782 2dbc 554a 23bc 9351 5c3c 3539 f5bc
000001c0: 8a7e a3bb bc08 4a3b 239c 17bb 7dd7 14bc
000001d0: f468 d1bc 9132 4ebd b1ca 38bc 2bdf d33c
000001e0: 12f7 88bc 85d9 623c bc77 983c 312d d5bc
000001f0: 19b7 22ba a921 1fba 770b bfbc 5bc3 9fbc
00000200: a81c 503d a2bd 32bb 4c2f 6b3b 3c51 1dba
00000210: f233 5c3d 5cea 583d 0887 8cbc 8363 f2bc
00000220: f0c0 b23a f37e 3bbc 2b8e 46bc 8e99 323b
00000230: 3e2f 8bbc 4008 c53c 6a06 143d 44a2 c53b
00000240: b0d7 7ebc af41 5abc b723 edbb e38c a3bb
00000250: 4a76 5e3c 6dcb 0a3c c38f aab9 082a 943c
00000260: 252a 92bb 21d0 713d ed0b 0f3d f058 513d
00000270: f191 e13b 2f1e c8bc 929c a23b d11f 9dbc
00000280: f082 30bd 0e9d b6bb 4aa0 bd3c e54d 103b
00000290: e530 00bd 5f41 2ebc 81f8 a7bc 5374 21ba
000002a0: 4caa d5bc c1b6 70bc 1179 d73c d35c 17bc
000002b0: 19e7 92bd b5c7 e1bc a67b 05bd b466 a6bd
000002c0: e276 d43b 0b21 cfbc 04fb 53bd 4766 75bc
000002d0: 2ad8 e6b9 013e 91bc f918 15bc d6c4 fdbb
000002e0: 2343 8ebc 8018 d439 ed21 863b fd19 88ba
000002f0: 3df4 13bc f82b 113c abfa 90bc d1d7 46bb
00000300: 1fd7 eebb 73ca cabb f4ec 4ebc b8a2 d3b9
00000310: 57b5 8f3a 1d59 3cba 04e9 84bc 1ea7 6cbc
00000320: 7297 b23c 0a99 0fbd 7320 80bd 3736 4abc
00000330: 7c84 223c c317 493b f6b1 68bc 6b4e 283c
00000340: 165b d9bc cd72 56bb b8b8 49bc 34d6 0bbc
00000350: fb4a 97bc dffa bdbc 73c7 9fbc 8fd5 2dbc
00000360: 5291 23bc 499b a4ba cad8 6bbc 3739 2dbc
00000370: d76b 3e3c 742c b2ba 052a 0bbc b436 4fbc
00000380: 1032 a7bc 7dcd be3c 66da 233d ca38 453d
00000390: d517 3cbc 4c8d 433d fc64 ab3c 24ac c53c
000003a0: 9e16 8e3d fe3e b23c 58bb 60bb b01d b73b
000003b0: 29b3 363d 113f 62bb 92aa 553b 1870 313d
000003c0: d2f5 c6ba 0b79 053c 3997 e83c 4552 3d3c
000003d0: 8df0 303d c4c5 053d 6358 90bc 9b65 293c
000003e0: e8b1 933b 0c84 e6bb aaaf 073c 936f b83c
000003f0: 452a d1bb 1a01 a1bc f424 a3bb c176 68bb

bias f4 [13]
0.058575638 0.054902777 0.042586066 0.035120066 0.06265318 0.047660757 0.04360579 0.053177726
0.040159233 0.06083795 -1.0874379 0.047206294 0.038016383
00000000: 02ed 6f3d bce1 603d ba6e 2e3d 0fda 0f3d
00000010: 4f50 803d ed37 433d fc9b 323d e3d0 593d
00000020: 027e 243d 3731 793d 2a31 8bbf 635b 413d
00000030: 11b7 1b3d

weight f4 [13]
0.06583305 0.061226387 0.052362513 0.10242488 0.08056325 0.048507567 0.060529437 0.056760527
0.06966715 0.078082554 -0.78415096 0.04335254 0.07203016
00000000: 7ad3 863d 85c8 7a3d 137a 563d 23c4 d13d
00000010: 58fe a43d dfaf 463d b7ed 773d ba7d 683d
00000020: a7ad 8e3d bfe9 9f3d 1ebe 48bf 6f92 313d
00000030: 8c84 933d

bias f4 [13]
0.064053275 0.032313224 -0.112725206 0.16703425 -0.09253503 0.092999995 0.088730305 0.07005359
0.19326703 -0.11640047 -0.18631126 0.08632583 0.027584232
00000000: 5d2e 833d df5a 043d 79dc e6bd 070b 2b3e
00000010: 0183 bdbd c876 be3d 3cb8 b53d 4278 8f3d
00000020: cbe7 453e 5f63 eebd 61c8 3ebe 99cb b03d
00000030: 54f8 e13c

running_mean f4 [13]
0.05284927 0.055423092 0.07183482 0.07024656 0.049594074 0.03111185 0.054815196 0.059032805
0.059881963 0.058926042 -1.0862521 0.036223564 0.0594128
00000000: 7a78 583d 5303 633d 221e 933d 6edd 8f3d
00000010: 2823 4b3d 47de fe3c e685 603d 62cc 713d
00000020: ca46 753d 6f5c 713d 4f0a 8bbf 295f 143d
00000030: d65a 733d

running_var f4 [13]
9.842848e-05 9.559475e-05 0.00010567494 0.0006212592 0.00010071725 7.327037e-05 0.00013581524 8.634267e-05
0.00025637538 9.738031e-05 5.4779844e-07 5.7141533e-05 0.00025566452
00000000: 636b ce38 0a7a c838 cd9d dd38 00dc 223a
00000010: 2938 d338 bba8 9938 a069 0e39 de12 b538
00000020: 1f6a 8639 a838 cc38 6c0c 1335 41ab 6f38
00000030: b60a 8639

weight f4 [13, 13, 3, 3]
0.004176811 0.0032338353 -0.012641276 0.018925818 -0.008542849 -0.0047498345 -0.0029062133 -0.036932312
0.0025213659 0.0048916726 -0.05386356 0.014305593 0.012341585 -0.015738204 0.0030335784 0.026195316
0.055669677 -0.012164311 0.009589991 -0.0037833136 -0.0012438039 -0.0074144867 -0.017108431 -0.009790884
-0.005732463 -0.0012089529 -0.0035192154 -0.014619402 0.013882206 0.0061990214 0.0105007645 0.008838382
-0.0006643599 0.009771286 0.003085085 -0.012723768 -0.007245838 -0.026469972 -0.02023193 -0.0009062888
0.014809318 -0.013545111 0.0045958855 0.012037647 -0.025273537 0.020557607 0.049288932 -0.029900914
0.011870819 0.04246113 0.010055874 -0.03533538 -0.018422728 -0.03404575 -0.026555218 -0.028663542
-0.028974753 -0.024825083 0.009994559 0.0058336793 -0.0039811064 0.031163177 -0.004359236 -0.042466227
-0.02143431 -0.025378868 0.023748843 0.009019494 -0.012073408 0.035729926 0.020365926 0.0016083936
0.007857746 0.0031096826 0.0028072686 0.003753019 0.025035502 0.022666428 -0.019298987 -0.007232357
0.006139749 0.0035195826 0.0050526108 -0.013631743 0.02012485 -0.021100437 -0.0034631356 -0.0004811283
-0.021441098 -0.013848135 -0.014504458 0.0015451354 0.0025570055 0.0036251985 -0.011130309 0.028936125
-0.0096326005 -0.0039715697 0.01129108 -0.023876699 -0.0115335155 -0.016200006 -0.004817806 0.022308176
-0.012605943 -0.025846615 -0.00042166773 -0.050298788 0.01924251 0.019514266 0.0036516984 -0.0119335735
0.009529642 0.0070363637 -0.014804396 0.002580835 0.008390991 0.03681585 0.058102466 0.016135884
0.059611652 0.01670392 -0.054639317 0.0057409275 -0.029999902 -0.040069588 0.0026600948 -0.037775345
-0.021961352 -0.0015623304 -0.0039862236 -0.005288995 0.0033009294 0.024208777 0.016351309 0.012303487
0.035398092 0.025872594 0.015459948 0.12685886 0.04426858 0.018259162 0.035501715 0.022996485
-0.0031465795 0.021239147 0.005580296 0.071095124 -0.19331597 0.022348914 -0.010186984 0.034309138
0.007904982 -0.00063324807 -0.039781872 -0.053809155 0.017506521 0.0837498 0.004075016 -0.010068391
0.0127971135 0.011801653 -0.011775887 0.0056502484 0.0013190213 -0.0070932494 0.067558855 0.013498243
0.0064518857 -0.012158866 0.0013723427 -0.006083292 -0.024713585 0.0013781064 -0.07302751 -0.02563129
0.04299135 -0.015687466 0.031838708 0.021739686 -0.009534257 -0.031738922 -0.055917464 0.03571904
0.023654023 -0.020555064 0.023076355 0.04408442 0.0056202835 -0.04182693 0.04171534 -0.022161445
0.061422464 -0.14787146 0.009560892 0.015065694 0.004829896 0.0026531431 -0.015019941 0.043842603
0.020315189 0.04916697 0.016950693 -0.021550838 0.009021295 -0.051237117 -0.030075679 -0.0028375704
-0.00033853963 0.009323641 -0.019651162 -0.042045947 -0.0059361765 0.005293272 -0.011214239 -0.00023304264
0.0004506066 0.012361366 0.009874461 -0.014655016 -0.017209714 0.004177753 -0.0051740767 -0.009126911
0.0060033663 -0.010728305 -0.027979856 0.0028878078 -0.04302095 0.123118185 -0.030019488 0.0021760678
-0.01724924 -0.015843576 -0.045136202 -0.0039578294 -0.01988277 -0.014772738 -0.004849525 0.010754026
0.017563839 -0.021069853 0.0026809464 0.027087172 -0.062628664 -0.0028081618 -0.0017979111 -0.0059459894
0.005978985 -0.015959306 0.08046994 -0.0026317781 -0.010434773 -0.019537766 -0.003555638 -0.01374569
00000000: a1dd 883b c1ee 533b 5b1d 4fbc 510a 9b3c
00000010: 4ef7 0bbc 80a4 9bbb 2b76 3ebb 5646 17bd
00000020: 803d 253b 534a a03b 09a0 5cbd 0262 6a3c
00000030: 5c34 4a3c 68ed 80bc 00cf 463b 8f97 d63c
00000040: e305 643d d14c 47bc 561f 1d3c 78f1 77bb
00000050: 2207 a3ba 39f5 f2bb fb26 8cbc f269 20bc
00000060: 63d7 bbbb ba75 9eba a3a2 66bb 3786 6fbc
00000070: 3172 633c 2921 cb3b 660b 2c3c dcce 103c
00000080: 7028 2eba be17 203c 232f 4a3b 5a77 50bc
00000090: 7f6e edbb 8ed7 d8bc 6fbd a5bc 0394 6dba
000000a0: c8a2 723c 50ec 5dbc 1599 963b 8d39 453c
000000b0: 730a cfbc 6d68 a83c 31e3 493d c3f2 f4bc
000000c0: d37d 423c b9eb 2d3d 64c1 243c d5bb 10bd
000000d0: 43eb 96bc 8e73 0bbd 548a d9bc cecf eabc
000000e0: 765c edbc f95d cbbc 38c0 233c 7328 bf3b
000000f0: f173 82bb eb49 ff3c ecd7 8ebb 11f1 2dbd
00000100: 0297 afbc 58e7 cfbc ef8c c23c 80c6 133c
00000110: 8bcf 45bc 8b59 123d 71d6 a63c bcd0 d23a
00000120: c7bd 003c d1cb 4b3b 27fa 373b 36f5 753b
00000130: 4117 cd3c f2ae b93c e918 9ebc 68fd ecbb
00000140: f32f c93b cca8 663b 5f90 a53b ad57 5fbc
00000150: dfdc a43c d3da acbc c6f5 62bb f33f fcb9
00000160: 3ea5 afbc 4ae3 62bc 1ba4 6dbc 2486 ca3a
00000170: 6f93 273b bd94 6d3b e65b 36bc 740b ed3c
00000180: 0ed2 1dbc f123 82bb 39fe 383c 1199 c3bc
00000190: 12f7 3cbc e0b5 84bc b0de 9dbb a3bf b63c
000001a0: 2889 4ebc 48bc d3bc 4913 ddb9 1a06 4ebd
000001b0: 78a2 9d3c 62dc 9f3c 5551 6f3b 0985 43bc
000001c0: 3722 1c3c 4c91 e63b 238e 72bc 3a23 293b
000001d0: 5e7a 093c 37cc 163d dafc 6d3d 672f 843c
000001e0: 592b 743d a9d6 883c 7acd 5fbd 641e bc3b
000001f0: 5bc2 f5bc 0220 24bd fc54 2e3b 52ba 1abd
00000200: 4be8 b3bc 1cc7 ccba de9e 82bb 4e4f adbb
00000210: 6854 583b 7c51 c63c 2ef3 853c 9194 493c
00000220: 97fd 103d c3f2 d33c b94b 7d3c 4ae7 013e
00000230: f852 353d 3d94 953c 3f6a 113d 2063 bc3c
00000240: d836 4ebb b8fd ad3c eada b63b 529a 913d
00000250: 9ff4 45be 1215 b73c 4fe7 26bc bd87 0c3d
00000260: e683 013c 8f00 26ba 51f2 22bd fd66 5cbd
00000270: d669 8f3c 0485 ab3d b687 853b e5f5 24bc
00000280: fcaa 513c b85b 413c a6ef 40bc b825 b93b
00000290: 03e3 ac3a 7d6e e8bb 4c5c 8a3d bc27 5d3c
000002a0: 576a d33b fb35 47bc 2ee0 b33a 5a56 c7bb
000002b0: 2574 cabc 94a1 b43a 728f 95bd b6f8 d1bc
000002c0: b317 303d 0083 80bc 4e69 023d 6d17 b23c
000002d0: 9335 1cbc ac00 02bd b609 65bd 214e 123d
000002e0: 15c6 c13c 1863 a8bc a00a bd3c dd91 343d
000002f0: 5b2a b83b b752 2bbd b4dd 2a3d eb8b b5bc
00000300: 1f96 7b3d 9e6b 17be 4aa5 1c3c 1ad6 763c
00000310: 1b44 9e3b 5be0 2d3b 3316 76bc 4d94 333d
00000320: 0a6c a63c 4e63 493d 2edc 8a3c 628b b0bc
00000330: 0ece 133c 03de 51bd 4561 f6bc 88f6 39bb
00000340: 057e b1b9 2fc2 183c 79fb a0bc 5f38 2cbd
00000350: 4284 c2bb 2f73 ad3b edbb 37bc e85c 74b9
00000360: 653f ec39 5487 4a3c 7ec8 213c 981b 70bc
00000370: 63fb 8cbc 88e5 883b 4d8b a9bb 0a89 15bc
00000380: e3b7 c43b c6c5 2fbc 0336 e5bc 6041 3d3b
00000390: bc36 30bd 6325 fc3d 6eeb f5bc 5c9c 0e3b
000003a0: 474e 8dbc 63ca 81bc bde0 38bd aeb0 81bb
000003b0: 31e1 a2bc 5b09 72bc c4e8 9ebb a731 303c
000003c0: 0ae2 8f3c af9a acbc d1b2 2f3b ebe5 dd3c
000003d0: 7543 80bd 2309 38bb e3a7 ebba 93d6 c2bb
000003e0: 5deb c33b 17bd 82bc 6dcd a43d e979 2cbb
000003f0: 9cf6 2abc aa0d a0bc b505 69bb 9a35 61bc

bias f4 [13]
0.030585367 0.05849869 0.04242645 0.036251735 0.032361835 0.03918994 0.03419944 0.043709423
0.040169235 0.048096944 0.05071099 0.0352189 0.067434266
00000000: 2a8e fa3c 539c 6f3d 5bc7 2d3d b37c 143d
00000010: d88d 043d a185 203d b614 0c3d a708 333d
00000020: 7f88 243d 4d01 453d 54b6 4f3d b141 103d
00000030: fa1a 8a3d

weight f4 [13]
0.03612746 0.2670459 0.05951387 0.06342567 0.05612087 0.068960555 0.067617856 0.06864344
0.07090155 0.08741652 0.109941445 0.054154694 0.30235368
00000000: 63fa 133d 3dba 883e d1c4 733d 51e5 813d
00000010: ffde 653d 313b 8d3d 3b7b 8a3d ef94 8c3d
00000020: d534 913d 6f07 b33d fb28 e13d 50d1 5d3d
00000030: 1ace 9a3e

bias f4 [13]
-0.025004344 0.04271988 -0.11122673 0.03254287 0.08172109 0.015858917 0.101139046 0.027111417
0.031084608 0.05881192 0.0443347 0.043068 -0.045383777
00000000: e9d5 ccbc 0afb 2e3d d7ca e3bd ac4b 053d
00000010: 635d a73d 8fea 813c fd21 cf3d c318 de3c
00000020: 26a5 fe3c c5e4 703d 4d98 353d 1268 303d
00000030: 57e4 39bd

running_mean f4 [13]
0.028004536 0.03999285 0.0343281 0.07159264 0.06245801 0.049651317 0.097151026 0.096778944
0.06195675 0.07037089 0.11294605 0.036778808 0.09097631
00000000: c569 e53c 8bcf 233d 9f9b 0c3d 299f 923d
00000010: f8d3 7f3d 2e5f 4b3d 1ef7 c63d 0a34 c63d
00000020: 5cc6 7d3d 9d1e 903d 4250 e73d 60a5 163d
00000030: ca51 ba3d

running_var f4 [13]
9.7351665e-05 0.0017153072 0.00012670056 0.00022698574 0.00025028453 0.00024217338 0.00033518646 0.00020239386
0.0002459659 0.0002719491 0.00039260267 0.00018923123 0.0016473122
00000000: 4729 cc38 29d4 e03a ecda 0439 0503 6e39
00000010: 9f38 8339 ecef 7d39 f7bb af39 b039 5439
00000020: fcf4 8039 6494 8e39 3dd6 cd39 5f6c 4639
00000030: a0ea d73a

weight f4 [1, 13, 3, 3]
-0.010741883 0.0426318 0.042409383 -0.012685769 0.087858446 0.0404398 -0.0185032 0.07152121
0.063816525 -0.021691328 -0.016254866 0.0004951336 0.011804423 0.25129724 -0.06842303 -0.016162168
-0.02829968 -0.005652502 -0.032126773 0.06623782 -0.071555614 -0.026532123 0.11276482 -0.07526084
-0.025046213 0.07171825 -0.07631602 0.050921023 0.10501156 0.040411573 -0.040326405 -0.02569207
0.007865727 -0.050814457 -0.08092991 -0.017302051 0.018725099 0.07925535 0.05187678 -0.033861734
-0.12428013 -0.08283285 0.013123764 0.056059416 0.002885361 0.02311898 0.03493404 0.011238864
0.045600347 0.01552011 -0.011099205 0.003501111 -0.0818174 -0.054269418 0.008711419 0.034414675
-0.05864131 -0.07493237 0.13844402 0.035569064 -0.06737615 9.038043e-05 0.036355127 -0.0038331249
0.018213913 0.07026307 -0.0909149 -0.036301665 0.10392037 -0.038215626 -0.036139626 0.008797751
-0.043352775 -0.12677297 -0.053698566 0.030075252 0.034721866 0.009692066 0.038192373 0.07028854
0.016208792 -0.023085862 -0.054692302 -0.0039056665 -0.05096035 -0.017489953 0.06032717 0.008540287
0.044741947 0.040450804 0.015857512 -0.011661816 -0.03907394 0.06557246 0.01409528 -0.0848774
0.027870629 0.030137895 0.0017786721 0.039245863 0.030457372 -0.030276045 0.015388276 0.045972485
-0.124584384 0.0026469051 0.008236931 -0.059069064 0.018036893 0.01353419 -0.0004353317 -0.0109809125
-0.22285469 0.06005568 0.013604095 0.024783494 0.0042148363
00000000: b9fe 2fbc af9e 2e3d 76b5 2d3d f9d7 4fbc
00000010: 21ef b33d 34a4 253d 0694 97bc b679 923d
00000020: 3db2 823d 03b2 b1bc ed28 85bc dacb 013a
00000030: 5767 413c 08aa 803e 6021 8cbd 8666 84bc
00000040: bbd4 e7bc a038 b9bb 5d97 03bd b2a7 873d
00000050: c08b 92bd e559 d9bc 3ef1 e63d 5b22 9abd
00000060: b72d cdbc 05e1 923d 934b 9cbd 9092 503d
00000070: 4d10 d73d 9b86 253d 4d2d 25bd 2d78 d2bc
00000080: 40df 003c d222 50bd 95be a5bd 08bd 8dbc
00000090: 6165 993c a150 a23d bf7c 543d 9ab2 0abd
000000a0: 9586 febd 45a4 a9bd 0e05 573c 8f9e 653d
000000b0: 5318 3d3b 0464 bd3c ff16 0f3d 3623 383c
000000c0: 6ec7 3a3d 0f48 7e3c 71d9 35bc e572 653b
000000d0: e28f a7bd 9c49 5ebd 57ba 0e3c 67f6 0c3d
000000e0: df31 70bd 2476 99bd 45c4 0d3e deb0 113d
000000f0: 82fc 89bd a08a bd38 1de9 143d 2a35 7bbb
00000100: 5835 953c 16e6 8f3d 9731 babd 0eb1 14bd
00000110: 34d4 d43d fd87 1cbd 2507 14bd 7124 103c
00000120: ae92 31bd c6d0 01be 07f3 5bbd 6060 f63c
00000130: 8438 0e3d 79cb 1e3c 9b6f 1c3d 70f3 8f3d
00000140: 4dc8 843c 901e bdbc 0905 60bd 36f6 7fbb
00000150: cdbb 50bd 1747 8fbc 9f19 773d 8fec 0b3c
00000160: 5543 373d beaf 253d 9de7 813c 3411 3fbc
00000170: ff0b 20bd db4a 863d e4ef 663c 34d4 adbd
00000180: f250 e43c bfe3 f63c 5522 e93a 45c0 203d
00000190: bd81 f93c 7805 f8bc 1c1f 7c3c a54d 3c3d
000001a0: 1926 ffbd b377 2d3b 31f4 063c 67f2 71bd
000001b0: 1bc2 933c 82be 5d3c 3b3d e4b9 49e9 33bc
000001c0: 0534 64be f2fc 753d b6e3 5e3c c106 cb3c
000001d0: 9c1c 8a3b
