pre-trained-tp2/tiny_DnCNN_1000.pt (torch, 140421 bytes, 87 tensors)

dncnn.0.conv.weight f4 [13, 1, 3, 3]
000000 30 cd e5 3c 60 24 1b bc 90 26 3d bc 9b 15 c0 3d
       0.028051943 -0.009469122 -0.011544839 0.09379121
000010 dd 23 9c 3d c4 bb fd 3c d6 e3 0a be f9 ea 58 bd
       0.07624028 0.030973323 -0.13563475 -0.052958462
000020 f5 f8 20 bc 0f 77 5e 3c 2a ec df bc 27 5b 3c bc
       -0.009824981 0.0135781905 -0.027334291 -0.011496342
000030 a3 7d db 3d ed 04 91 3b ec 91 9e bd ad eb 02 3e
       0.10717323 0.004425636 -0.07742676 0.12785216
000040 49 b3 4c bc af b7 f5 bd ca b3 33 3c 5b 82 fe bc
       -0.012493917 -0.119979255 0.010968158 -0.031068018
000050 71 b5 59 3c 07 77 bc bc 7b 39 09 be 0a 80 cf bc
       0.013287888 -0.023005975 -0.13400833 -0.025329608
000060 a5 79 23 3c 20 c6 09 bc d4 4e ac 3c eb 6b 85 bd
       0.009977733 -0.008409053 0.021033682 -0.06514724
000070 12 b6 9c 3d ca fd cf 3b 69 ac ed 3d 59 50 50 be
       0.07651915 0.0063473927 0.1160515 -0.2034315
000080 4b db 09 bd bd 8c 99 3c c2 b9 14 3c ce 4f 4f 3c
       -0.0336564 0.018743867 0.009077491 0.012653304
000090 f1 36 23 bc d2 e2 b2 3b cf 87 a6 3c 05 5d 2c 3c
       -0.0099618295 0.005459168 0.02032843 0.010520224
0000a0 e5 85 5f 3d 3d a0 0b 3e 89 31 32 bc 13 50 8e bb
       0.05457105 0.13635345 -0.010876068 -0.0043430417
0000b0 f9 0f 87 3c 14 4f 3e 39 bc 01 82 b8 0d 0e 50 39
       0.016487109 0.00018149271 -6.199206e-05 0.0001984166
0000c0 70 92 80 b9 e2 47 7e b8 b8 e4 74 39 7a e1 9f 39
       -0.00024523167 -6.0625265e-05 0.00023354858 0.00030494836
0000d0 2d 79 8b 39 65 35 58 b9 99 27 80 bd 5f 6a 03 be
       0.0002660243 -0.00020619256 -0.06257553 -0.12833546
0000e0 fb a9 81 bd 57 1c f1 bb 88 75 51 3c 35 7e 12 3c
       -0.06331249 -0.0073581147 0.012784369 0.008941223
0000f0 57 0b 7f 3d 30 c7 04 3e 44 7f 65 3d 83 8c 51 bd
       0.062266674 0.12966609 0.056029573 -0.051159393
000100 c8 bd 60 b9 9b d0 00 bd b6 64 95 bd 0a b2 88 3e
       -0.00021433004 -0.03144894 -0.072946 0.26698333
000110 6c 05 0a 3d 29 02 96 bd 8a e4 cc bc 5d a8 95 bc
       0.033696577 -0.07324631 -0.02501132 -0.018268758
000120 aa 00 0b 3e 5c f1 00 bd d5 e4 35 bd 60 a4 a6 3d
       0.13574472 -0.03148018 -0.044407684 0.08136821
000130 74 2b ec bd 2f 5f 2c 3a 1a c4 4d bc 1d 26 27 bd
       -0.115317255 0.0006575463 -0.012558961 -0.040807832
000140 2f 06 4d 3d 02 93 4f bd 89 e6 81 bd 6a 5c 07 3e
       0.050054725 -0.050677307 -0.06342799 0.13218847
000150 71 11 06 be c5 1f 3b be ed 5f 81 3e c2 9c 21 bd
       -0.13092591 -0.18273838 0.25268498 -0.039456137
000160 b0 b0 5e bd 65 93 e4 3d dc 45 95 3d b5 d9 2e 3e
       -0.05436772 0.11160926 0.07288715 0.17075236
000170 49 ee 9d 3d 1e 03 26 bb b9 c1 7d bc 79 90 37 bc
       0.07711465 -0.0025331448 -0.015488082 -0.011203879
000180 7b 9e a1 bd 7e 3d 1f be 9c e2 84 bd 5c d7 57 3d
       -0.07891556 -0.15550801 -0.06488535 0.052695617
000190 f4 2e 3c ba 05 0d 03 3d 72 58 98 3d 1c f4 8b be
       -0.00071786274 0.03199484 0.074387446 -0.27334678
0001a0 ec 50 08 bd 54 78 9a 3d 65 58 d1 3c 72 17 a2 3c
       -0.033280298 0.07542482 0.025554845 0.01978657
0001b0 f8 28 a4 3d fa 0e f6 3d 4d a4 8c 3d 1e df 03 bd
       0.08015627 0.12014575 0.068672754 -0.032195203
0001c0 1d 9f c5 bd 02 d8 5c bd e6 28 16 bd 62 49 3c bd
       -0.09649489 -0.05391694 -0.036660098 -0.04596842
0001d0 4f e6 5d bc
       -0.013543679

dncnn.0.conv.bias f4 [13]
000000 d0 76 a2 3c 7e 07 b0 3c fe 53 a0 3c a8 14 35 3c
       0.019832045 0.021487948 0.0195713 0.011052288
000010 8f 98 85 3c 8a 7f 03 00 2a 66 a6 3c 0f 11 02 3d
       0.016308097 3.21259e-40 0.020312387 0.03175455
000020 e0 2f c7 3c 55 59 29 3c 19 02 87 3c 62 90 b7 3c
       0.02431482 0.01033624 0.016480492 0.022407714
000030 36 97 35 3c
       0.011083415

dncnn.0.bn.weight f4 [13]
000000 ee 90 8f 3d cc b1 a9 3d f8 46 ac 3d eb c6 51 3d
       0.07010065 0.08285865 0.08411974 0.051215094
000010 94 07 d4 3d 9e 55 fb bc 1f fb cd 3d e5 3c f8 3d
       0.10353008 -0.030680474 0.10057663 0.1212099
000020 96 be be 3d b1 f7 b8 3d ed 0f bc 3d 89 9a d6 3d
       0.09313695 0.090316184 0.09182725 0.10478694
000030 d5 d3 4b 3d
       0.049762566

dncnn.0.bn.bias f4 [13]
000000 76 4c 2f bd fb 78 8b bc 1c 0e c0 bd 51 c7 68 3e
       -0.04279753 -0.017025461 -0.09377691 0.22732283
000010 c5 b0 40 be dc 65 6e bc 04 7f 39 bd 3f 48 59 bd
       -0.18817432 -0.014550652 -0.045287147 -0.053047415
000020 04 56 b0 bd 31 e0 10 3e 47 6d 41 3d 9c 50 47 3d
       -0.08610156 0.14148022 0.047223356 0.04866086
000030 46 92 9e 3d
       0.07742743

dncnn.0.bn.running_mean f4 [13]
000000 a1 2e d4 3c 78 3f bf 3c 3a 44 5d bd ff fd 84 bc
       0.02590114 0.023345694 -0.054020144 -0.016234396
000010 c9 f4 da 3d 98 ac 83 39 18 f8 bd 3c 4f 5c 47 3d
       0.1069122 0.0002511486 0.02318959 0.048672017
000020 15 1f 05 3d 67 fd a7 bb 4e c5 4b 3c 3d 95 c1 3b
       0.032500345 -0.0051266435 0.012437178 0.005907683
000030 9a 94 83 3b
       0.0040155174

dncnn.0.bn.running_var f4 [13]
000000 ce 88 71 3a 88 1c e3 3a 46 18 e6 3a 2a c6 a9 3a
       0.0009213806 0.0017327229 0.0017554841 0.0012952734
000010 6a 41 30 3b a1 61 ca 32 a6 95 fd 3a 1e 83 fd 3a
       0.0026894459 2.3560291e-08 0.0019346967 0.0019341444
000020 5f a5 8f 3a 24 37 a7 3b 6b 1d 43 3b 21 a6 04 3b
       0.0010959319 0.005103009 0.0029772173 0.0020240622
000030 09 50 b8 3a
       0.0014061938

dncnn.1.conv.weight f4 [13, 13, 3, 3]
000000 07 25 f1 bb a3 71 b3 3b 09 a9 c2 3c 40 84 ad bb
       -0.0073591503 0.005476193 0.023762243 -0.0052953064
000010 a2 cb 8d bc a2 7c 11 bc 27 15 8e bb d4 6f 64 bc
       -0.017309014 -0.008879812 -0.0043360176 -0.0139426775
000020 4e b8 7a bc f5 65 82 3c 11 eb 15 bb da 41 bc ba
       -0.015302731 0.015917758 -0.0022875706 -0.0014362887
000030 df 60 93 3c 57 76 99 bc 90 a0 98 bb dd dc 5c 3c
       0.017990528 -0.018733187 -0.0046578124 0.013480392
000040 58 f1 73 39 4f 50 92 bb c2 5d 88 bb fb df 0c bc
       0.00023264193 -0.00446514 -0.0041615674 -0.008598323
000050 44 25 92 bb 39 08 2f 3b 06 ae b8 3b 80 93 5a 3b
       -0.004460009 0.0026707782 0.0056359796 0.0033352077
000060 cd 55 0b 3c bc 9b d2 3b 64 83 cd 3b 04 c2 b3 bb
       0.008504343 0.0064272564 0.0062717665 -0.005485775
000070 11 8e 8e 3c bb d5 9b 3c 79 92 91 bc 35 23 5b be
       0.017401727 0.019022813 -0.017770039 -0.21400149
000080 53 2f 47 3d 6a e8 91 bc 7c af 0a 3d 93 80 97 bc
       0.048629116 -0.017811019 0.03385876 -0.018493926
000090 ad ed 0e 3d a7 8a 8f 3c 6a cd 04 3c dd 52 db 3d
       0.034894634 0.01752217 0.008105615 0.10709164
0000a0 6d eb 8f 3d b2 79 bd 3c e6 2d 31 3d c4 62 f7 3c
       0.07027326 0.023129318 0.043256663 0.030198462
0000b0 69 68 27 3c 00 c9 12 37 fd 7e e1 38 d6 bc 5f 38
       0.010217764 8.749077e-06 0.000107524895 5.334321e-05
0000c0 35 ac 86 b9 9c 8f ab b9 5d b3 2f b8 e5 66 2f 38
       -0.00025686776 -0.0003272266 -4.1890296e-05 4.181908e-05
0000d0 e7 30 8d 38 73 70 64 39 2f 30 99 bb 36 9b 8e 3c
       6.732513e-05 0.00021785665 -0.0046749334 0.017407995
0000e0 7f c3 27 bc aa 90 1d bc 64 a8 01 bd 94 68 cb bc
       -0.010239481 -0.00961701 -0.03165473 -0.02483014
0000f0 0e 2f 05 bc d8 81 36 bd 4d f3 25 bc 82 cd 94 bb
       -0.0081288945 -0.044557422 -0.010128808 -0.0045411
000100 69 20 42 bd ed 58 07 bb 95 c8 61 bc 9e ea 2c 3e
       -0.04739419 -0.002065237 -0.013780733 0.16886374
000110 9c 71 2e bc e2 51 10 bc c0 f6 63 bc 42 96 74 bc
       -0.010647204 -0.008808585 -0.01391381 -0.014928402
000120 c3 9a 26 ba 06 f6 68 b9 f3 a0 16 bc 46 c6 b6 ba
       -0.0006355459 -0.00022216895 -0.009193647 -0.0013944588
000130 17 96 06 3c 83 8a 0f bc ff 3f 81 3b b4 41 0f 3c
       0.008214495 -0.008761051 0.0039443965 0.008743692
000140 99 b6 2e 3b c7 37 ad 3b c9 c5 f2 bb 24 73 00 bc
       0.002665913 0.00528619 -0.0074088317 -0.007839952
000150 4f c2 53 3d a8 46 05 bd fc e0 bd bc c4 42 8d 3b
       0.05169898 -0.032538086 -0.02317857 0.0043109376
000160 8a 78 d1 bc 52 e9 76 bc 17 0a de bb 78 5d 32 bd
       -0.025570173 -0.015070276 -0.006776105 -0.04354617
000170 d8 74 45 bc 9b 3b 64 bc 98 de 8e bc 99 ca 6e bc
       -0.0120517835 -0.013930227 -0.017440125 -0.01457467
000180 5d 92 2a bc 3f 34 25 3d 7a 24 e0 bb 06 a1 f3 3a
       -0.010410872 0.04033303 -0.006840286 0.0018587417
000190 b5 87 2a 3d 9a 13 5a 3b 99 55 94 3c 73 b4 01 be
       0.041633327 0.0033275844 0.018107222 -0.12666492
0001a0 47 fb 9b 3c 65 30 99 3b 60 1f 60 3c ba af a9 3c
       0.019040717 0.0046749585 0.013679355 0.020713676
0001b0 c1 31 b3 3b 92 45 3e bc e4 00 7b bb a6 8a 3c bc
       0.0054685776 -0.011613267 -0.0038300091 -0.011507666
0001c0 90 34 0a bd 6f 0c 96 bc 25 0f 54 3c ca 02 43 3d
       -0.033741534 -0.018316476 0.012943064 0.04761008
0001d0 42 77 d5 3c 98 b0 4c bd d3 c9 fe bb b5 b0 db bb
       0.026057843 -0.0499731 -0.007775524 -0.0067044147
0001e0 d3 1d 1f bd 89 11 fc 38 fa 05 35 3b 2b cf bf bb
       -0.038846802 0.000120195626 0.002762197 -0.005853554
0001f0 8a f2 8e 3c 39 68 b6 3c 1e de b8 bb 91 ad 93 bc
       0.017449636 0.022266494 -0.005641713 -0.018027099
000200 d6 4f b3 bc 0c eb 01 3c 15 31 7d bc f9 ae 93 bc
       -0.021888655 0.007929575 -0.015453597 -0.01802777
000210 b8 cb 2f bc 95 5e 90 3c 6f 7d 50 3c 08 69 e3 ba
       -0.010729723 0.017623225 0.012725218 -0.0017350027
000220 cb 3a 0a bb 85 fd 7f 3b 21 a8 dd 3b c7 55 ab 39
       -0.0021092172 0.0039061022 0.0067644273 0.0003267957
000230 14 05 9f 3b 85 4c a1 bb a6 ac 98 3c f1 95 25 3b
       0.0048529003 -0.004922452 0.018637013 0.0025266374
000240 9a 37 d9 3c 15 21 8e 3d 25 e3 25 3d 69 6d d9 3b
       0.02651577 0.06939904 0.040499825 0.006635357
000250 63 0e c8 3b a2 75 2d 3c ac ff 4f 3a e3 12 33 bd
       0.0061052307 0.010587128 0.00079345214 -0.043719184
000260 d3 5b 9f ba 32 26 fd 3c cf db 5b 3c 8a e5 4d 3c
       -0.0012158103 0.030902002 0.013419106 0.012566933
000270 8c d1 9a bc b5 eb b9 bc 57 b2 39 3c 10 cb 2a bd
       -0.018898748 -0.022695402 0.011334023 -0.04169756
000280 aa 09 f8 bc 2d f1 bf 3b 72 3c aa b6 a4 b1 fb b6
       -0.030278046 0.005857608 -5.0734316e-06 -7.501063e-06
000290 1c 87 2f b6 3d b6 83 b7 6a 83 ae b6 34 c1 45 b6
       -2.6155676e-06 -1.5701278e-05 -5.2009027e-06 -2.9467747e-06
0002a0 41 30 e0 b6 6a 97 ff b6 a3 22 cc b6 73 14 ba bc
       -6.6813377e-06 -7.617219e-06 -6.083706e-06 -0.02271483
0002b0 27 9b 46 3c ca d9 f0 3b be ba ef bc d2 13 88 3c
       0.012121952 0.007350181 -0.02926385 0.016611014
0002c0 d5 88 c6 3b a6 b3 ac 3c f9 5f 4d 3d 81 b1 e3 3c
       0.006058792 0.021081757 0.050140355 0.027794601
0002d0 bb 87 94 bc 7c f7 2e bd 96 8a 39 bb 17 3d fa ba
       -0.018131128 -0.04271649 -0.0028311363 -0.0019091693
0002e0 1a 59 52 3b 5f a0 3c ba e1 1a 06 3b 3e 3e 9f 3d
       0.0032096566 -0.0007195528 0.0020462798 0.07775544
0002f0 48 12 c1 3b b0 97 c3 3a 98 18 98 3c cf b8 ff bc
       0.005892072 0.0014922526 0.018566415 -0.031216053
000300 58 0a 56 3a 86 95 c1 bc f4 5b 20 bc e9 76 fe bb
       0.00081649935 -0.023630869 -0.009787548 -0.00776564
000310 a4 18 ae bc 46 ac 59 3c 23 3f 86 3c fc be a3 bc
       -0.021251984 0.013285702 0.016387528 -0.01998853
000320 9c 3d a8 bb 49 7c 6e 3c 62 cd e9 bc 80 34 b3 3b
       -0.0051342975 0.014555999 -0.028540317 0.005468905
000330 e4 6d 6e bc d0 b9 98 3c 5c 99 7a 3b db 14 33 bd
       -0.014552567 0.01864329 0.0038238382 -0.04372106
000340 ba 09 af bd dc b9 f7 bc bf 20 56 bc 7a 88 35 bd
       -0.08546777 -0.030239992 -0.013069331 -0.044319607
000350 29 87 c4 3c 98 32 86 bb 14 26 64 bd 7d 91 33 3c
       0.02399023 -0.0040953867 -0.055700377 0.01095998
000360 15 b6 8f bb 0b 67 f7 3c b9 26 6e bc 8c 21 b6 3b
       -0.0043857195 0.030200502 -0.014535599 0.0055581983
000370 48 4c a7 bb 48 63 41 bc d8 f3 7b bc fb 3f 94 bc
       -0.005105529 -0.011803456 -0.015377961 -0.018096915
000380 80 37 c6 bb 0b 05 91 3b 40 bb 28 bc f4 71 05 3c
       -0.0060490966 0.00442565 -0.01029855 0.008144844
000390 8b 3d 06 bc 70 7d 56 bd de 05 ac bc 59 5d 8c bc
       -0.008193384 -0.05236572 -0.020998891 -0.017134355
0003a0 a6 db 8b bd e2 3d 2f bd 9b 65 a7 bc 02 68 18 bc
       -0.06829004 -0.042783625 -0.020434191 -0.009302141
0003b0 00 f1 08 bc a2 54 a4 bb 04 e8 6e bb b7 34 18 bb
       -0.00835824 -0.005014972 -0.003645421 -0.002322478
0003c0 34 85 20 bd 4d 00 fa bc fa 5b 81 bc b6 43 0a 3d
       -0.039189532 -0.030517722 -0.015790928 0.03375598
0003d0 1b 3c 9a 3c ee d2 dc 3c 1d f4 8f 3c ba 06 df bc
       0.018827489 0.026956048 0.017572457 -0.027224887
0003e0 9f ec 86 3b 2d 3c 02 bd 44 0d 70 bd c3 b7 a3 bc
       0.004117563 -0.03179567 -0.0586064 -0.019985085
0003f0 60 6c 83 3b 9b 7f 99 3b 73 d9 ad 3c 85 13 6c 3c
       0.004010722 0.004684401 0.021221852 0.014408951

dncnn.1.conv.bias f4 [13]
000000 76 1b 90 3c 23 35 b9 3c 78 27 de 3c 5e 1a 13 3d
       0.01759122 0.022608345 0.02711843 0.035913818
000010 0e 34 dd 3c 2b 25 c1 3c 91 95 83 3c e0 a5 19 3d
       0.02700236 0.023577293 0.01606253 0.037511706
000020 b8 cd 01 3d 9c ba cd 3c 2c ed d1 3c 82 fb 29 3d
       0.03169033 0.025113396 0.025625788 0.041499622
000030 9f 79 11 3d
       0.035516378

dncnn.1.bn.weight f4 [13]
000000 2b 00 9b 3d 08 99 39 3d 3b 60 4a 3d f6 d0 9b 3d
       0.075683914 0.045311958 0.04940818 0.076082155
000010 d2 9e 2b 3d 13 a6 16 3d c7 06 71 3d 93 68 a3 3d
       0.04189951 0.036779474 0.058844354 0.0797893
000020 20 32 46 3d 21 6f 95 3d a0 36 5a 3d 7e e8 8c 3d
       0.048387647 0.07296587 0.05327475 0.06880282
000030 42 b9 63 3d
       0.055596597

dncnn.1.bn.bias f4 [13]
000000 57 f4 8a 3e ac f3 a2 3d 6a a2 0f 3d 39 63 30 bd
       0.27139542 0.07956633 0.035067 -0.043063376
000010 95 e7 44 3d 8f 5d 8c 3d 1d e0 d6 3d ad 1b 52 bd
       0.048072416 0.068537824 0.10491965 -0.051295925
000020 29 cf ca 3c 6f fd 41 3d 5f 6a bf 3d a3 31 2c bd
       0.024756985 0.047360834 0.093464606 -0.042039525
000030 ca cf 8d bc
       -0.017310996

dncnn.1.bn.running_mean f4 [13]
000000 37 f1 e8 bc 92 83 4f 3c 87 01 c6 bb 5f 4e ae 3d
       -0.028435333 0.012665646 -0.0060426625 0.08511042
000010 f5 ad b8 3c a7 db 19 3d 60 14 db 3c 6b 0a a1 3d
       0.022543887 0.037562992 0.026743114 0.07863315
000020 6e 40 11 3c b5 d8 25 3d 2d b0 ab bb e1 8f 61 3d
       0.008865459 0.04048987 -0.0052395076 0.055068854
000030 52 3a 0e 3d
       0.034723587

dncnn.1.bn.running_var f4 [13]
000000 2f 41 9d 3a c1 0f 9b 39 d2 09 95 39 07 11 84 39
       0.0011997576 0.0002957564 0.0002842681 0.00025189688
000010 2a e6 15 39 46 50 51 39 e1 25 7b 3a 8a 3f ae 39
       0.0001429549 0.00019961697 0.00095805345 0.00033235207
000020 b8 2e 5e 39 53 a1 53 3a 3c 1f ac 39 31 f1 82 39
       0.00021188974 0.00080730504 0.00032829668 0.00024975234
000030 11 c8 3c 39
       0.00018003608

dncnn.2.conv.weight f4 [13, 13, 3, 3]
000000 06 16 92 3b ee d1 66 3c a4 c9 b7 bb 05 74 63 38
       0.004458192 0.014088137 -0.005608754 5.422907e-05
000010 50 bb 9f 39 4e 79 07 bb 27 2c 85 bc 93 c0 94 bb
       0.00030466402 -0.0020671668 -0.016256405 -0.004539558
000020 9f bd 99 3b 96 99 48 bb d9 c6 74 bd ed 5d b7 bc
       0.004691794 -0.0030609122 -0.05975995 -0.022383654
000030 d6 50 a3 3c f7 6f 2a bd cb e0 e8 bb a9 91 e0 bc
       0.019936007 -0.041610684 -0.0071068755 -0.027413206
000040 81 3a 3e bd 56 e5 b3 3b 4e 1d ed 3c 88 8d c2 bc
       -0.046442512 0.0054899855 0.028944638 -0.023749128
000050 2f 44 65 bc fb b1 12 bc 12 3c 23 bd 76 d1 d9 bb
       -0.013993307 -0.008953567 -0.03985221 -0.006647284
000060 4b 8c 9a bd 89 80 90 bd c0 82 e2 bc 9d 15 21 bc
       -0.0754629 -0.07055766 -0.027650237 -0.009831813
000070 13 d1 46 bd bd e4 13 bd 71 60 59 bc 54 d0 51 bc
       -0.048539232 -0.036106814 -0.013267622 -0.012806017
000080 c7 bb 65 3c dc f4 0c bd d0 f0 f4 3c 4b 90 d1 3c
       0.01402182 -0.034413204 0.029899985 0.0255815
000090 ad ab 1a bc eb 28 4e 3c f0 fb 7d 3c 79 c2 bb bb
       -0.009440345 0.012582998 0.015501961 -0.00572997
0000a0 b9 d0 dd 3c a7 82 38 3c ad 85 0b bd 6f c1 4b 3c
       0.027077066 0.011261619 -0.03406303 0.012436255
0000b0 26 de a7 bc 31 17 5e 3a 19 e3 3c 3d a8 4f 57 3d
       -0.02049167 0.0008472084 0.046115015 0.0525662
0000c0 aa 5f b6 ba b4 41 a5 3c b6 60 df 3a 6b 21 a0 3c
       -0.0013914008 0.020172931 0.0017042372 0.019547185
0000d0 c9 21 36 3d de d1 b7 3b 6c ce 03 3c 79 b5 3e 3c
       0.044465814 0.005609735 0.00804482 0.011639946
0000e0 cf 4c 86 b9 91 a7 0b b9 de b5 f3 3c d7 2a 06 3b
       -0.00025615699 -0.00013318496 0.029749807 0.0020472312
0000f0 1c 9f 7b 3c ef e7 18 3d a2 5a f9 bb 7d 9f 32 3c
       0.015357759 0.037330564 -0.007609681 0.010902283
000100 a0 ce 46 3c 34 aa 0a bc 26 de 34 3c 7e 35 e0 3b
       0.012134224 -0.008463431 0.011039292 0.0068423143
000110 88 a7 e8 3b 86 dd f8 bc 16 88 29 bd f9 90 ea bc
       0.0071000494 -0.030379068 -0.041389547 -0.028633581
000120 a1 35 ab 3c f6 48 91 3c 52 88 1a bd 48 0a a8 bc
       0.020899596 0.017734986 -0.03772766 -0.020512715
000130 b1 01 42 bc 88 23 81 bc 30 39 89 bc b9 88 07 3c
       -0.011841224 -0.015764013 -0.016750902 0.008272343
000140 f1 13 21 3d 9b 2a 42 bb c4 a9 a2 3b 0b 8e f2 bb
       0.03932566 -0.0029627446 0.0049640853 -0.0074021867
000150 05 d8 b3 3a b5 dc 06 3c bd c2 8f 3b da 2a 57 bb
       0.0013720995 0.008231332 0.0043872283 -0.0032831938
000160 c5 8e bd 3c cd 3e 9b 3c b7 62 38 3d ab 0a 16 3d
       0.023139367 0.018950844 0.045016017 0.036631268
000170 37 2b ed bb fa da d8 bb f9 e3 06 3c 2a 2f 40 3c
       -0.0072378176 -0.006617901 0.008233064 0.011729995
000180 d7 5b fe bc 14 54 62 3c 04 73 f1 3c 4b 9d be bc
       -0.031049652 0.013813991 0.029473789 -0.023268363
000190 21 0f 4d bd e7 f1 96 3b 3f 6c da 3c 12 2f 8d bc
       -0.050063256 0.0046064737 0.026662944 -0.017234359
0001a0 c4 85 13 3c a2 b8 0f 3d 16 99 4b 3c df 56 91 bc
       0.00900406 0.03508819 0.012426635 -0.017741619
0001b0 f7 e4 15 bc 9e e6 8f bc 08 36 6a bc 00 7f d3 bc
       -0.009148828 -0.017566022 -0.014295109 -0.025817394
0001c0 a2 65 93 bc 4b a2 10 b9 89 a6 91 bc 55 14 ce 3b
       -0.017992798 -0.00013793369 -0.017779605 0.006289045
0001d0 24 5f ba 3c d4 da 35 b9 46 bc 8f 3c 51 74 5a 3c
       0.022750445 -0.00017343025 0.01754583 0.013333396
0001e0 f9 e2 d4 3c c0 af 7e 3d 86 b0 03 3c d3 b4 30 3d
       0.025987135 0.062179327 0.008037692 0.043141197
0001f0 0e 4d 03 3d 6e 60 11 3c ab 89 7e 39 07 4c 29 3d
       0.032055907 0.008873088 0.00024274613 0.04133227
000200 2a e1 0f bc 11 78 35 bd 3c c8 a2 3c 52 29 63 bc
       -0.008781711 -0.044303957 0.01987087 -0.013864832
000210 db 24 ac bc a2 36 03 3d 53 ea 71 bc b5 cd 29 3b
       -0.021013668 0.032034524 -0.01476534 0.0025909964
000220 61 15 51 3c 58 38 ef bc c4 16 84 3c 0b d7 20 3d
       0.012761445 -0.029201671 0.016124137 0.03926758
000230 f3 a9 9c 3b 1f 6e 69 bc ea 19 d3 3c e4 24 57 bc
       0.0047810017 -0.014247446 0.025769193 -0.013131354
000240 fe 0b 6f bc 0a ef 02 bd 3b c7 0a bd 54 d2 dd 3c
       -0.0145902615 -0.031966247 -0.033881407 0.027077831
000250 7b 97 f6 bb c2 aa ef bb 3e 14 f5 3c 49 72 b2 bc
       -0.007525382 -0.007314057 0.029916879 -0.021783011
000260 d7 ed 07 3b 02 11 12 bd 0a b2 2f bd 01 d5 6b bd
       0.0020741129 -0.03566075 -0.0428944 -0.057576183
000270 f2 32 44 bd b4 cf 53 bd 7f 24 3e bd d2 77 9b bd
       -0.047900148 -0.051711753 -0.046421524 -0.07591213
000280 e2 1e f4 bc 12 85 32 bd e3 77 83 bc 16 99 82 bb
       -0.029799882 -0.043583937 -0.016048377 -0.0039855344
000290 a9 12 6d 3c 63 e2 d9 bc 17 7c 12 bc 38 7f 5f bb
       0.014469781 -0.026597207 -0.008940718 -0.0034102928
0002a0 2c 90 2b bc b8 c3 02 bd 2a 6a 9f bc a0 a2 93 bb
       -0.010471385 -0.031924933 -0.019459803 -0.0045054704
0002b0 62 33 30 ba 33 23 52 3c 01 f5 84 bc fe 6e a2 bc
       -0.0006721524 0.012825775 -0.016230108 -0.019828316
0002c0 39 20 84 bb b4 5c 75 3b 65 3c 84 ba 83 e8 98 3c
       -0.0040321616 0.0037439289 -0.00100888 0.018665558
0002d0 7a ef 9e bc f4 8d 0a 3b 8a 0a a4 bb 1a 1d 5b bc
       -0.0194013 0.002114174 -0.005006139 -0.013373638
0002e0 ee e6 4d bc a9 40 bf bc 7b 9e 7b bb 9d d7 79 3c
       -0.012567265 -0.023346262 -0.0038394022 0.01524916
0002f0 fa be d6 bb 76 d8 57 bc 0e b8 c7 bb 58 7a 9e bb
       -0.006553528 -0.013174167 -0.006094939 -0.004836362
000300 06 59 ea 3c 78 1e fb 3c 58 8c 94 b9 22 fb d3 bb
       0.028606903 0.030654177 -0.00028333324 -0.0064691463
000310 26 f6 07 3d 1f 18 e2 bb bc 47 a6 3b 95 73 59 bc
       0.03319373 -0.006899848 0.0050744694 -0.013272186
000320 a7 76 8a bc 86 c8 83 3c 79 13 2d bc 9d df 00 bd
       -0.016902281 0.016086828 -0.010563725 -0.031463254
000330 b5 b5 97 3c d1 69 53 3b c8 64 fe bc 49 ba e7 bc
       0.018519262 0.0032259116 -0.031053916 -0.02828707
000340 b9 52 dd bc 70 b8 05 3c 6c 2d 9b 3d 62 51 ba 3c
       -0.027016984 0.008161649 0.07577023 0.022743884
000350 85 39 f5 3c c4 1b 74 bb 71 6e 2d bd bf 9f 57 3b
       0.029934654 -0.0037247995 -0.042341653 0.0032901613
000360 c3 86 a2 bb 32 83 b5 3c ab bc 9a 37 92 07 2e bd
       -0.0049599125 0.022157285 1.8446086e-05 -0.04248769
000370 05 d3 40 bd ab 96 5d bc 76 c8 40 bc b6 11 93 3a
       -0.047076244 -0.013524692 -0.011766544 0.0011220488
000380 fa b0 56 bc 47 7b 45 3d 26 33 30 3b 01 44 b9 bb
       -0.013103718 0.04821327 0.0026885956 -0.0056538587
000390 97 3d 20 bc 47 5b 06 bd 9a 9d aa bc 30 2b d7 bc
       -0.009780309 -0.032801893 -0.020827103 -0.02626571
0003a0 c9 02 b0 bc 66 2e 8d bb 52 84 a7 bb ff 14 aa bb
       -0.021485703 -0.0043085096 -0.0051122094 -0.005190491
0003b0 c0 30 11 bc c8 78 7a bc b6 4d a3 3c d3 83 20 bc
       -0.008861721 -0.015287586 0.019934516 -0.009797054
0003c0 01 99 4e 3c ab ec fd 3c 56 a1 de 3c 1e 61 92 3d
       0.012609721 0.030996641 0.02717654 0.0714743
0003d0 86 e0 a7 3d 4a 7e 96 3c 12 6c 7e 3c c8 93 c6 3c
       0.08197121 0.018370766 0.015528696 0.02424039
0003e0 35 87 e4 bc 84 95 33 3c 74 6b 45 3d ce be 42 3c
       -0.027896503 0.01096094 0.04819818 0.011886312
0003f0 9b 45 15 bd 9c 54 2f 3b e5 09 c5 bc e4 a2 94 bc
       -0.036443334 0.0026753312 -0.02405257 -0.018144079

dncnn.2.conv.bias f4 [13]
000000 52 53 e5 3c 92 e4 01 3d c7 c5 10 3d 66 99 1f 3d
       0.027993832 0.031712122 0.035344865 0.03896465
000010 9a 4b 01 3d 5d 61 18 3d 2c 13 c9 3c 85 6f a0 3c
       0.03156624 0.037202228 0.024545275 0.019584427
000020 45 09 0b 3d 02 f8 1b 3d 70 c7 1e 3d 9a b2 f1 3c
       0.033944387 0.038078316 0.038764417 0.02950411
000030 30 2b 13 3d
       0.03592986

dncnn.2.bn.weight f4 [13]
000000 ed f9 44 3d 03 16 51 3d 11 b4 46 3d 03 f4 57 3d
       0.04808991 0.051046383 0.04851157 0.052722942
000010 6b cb 45 3d a2 55 8a 3d 4b f0 c8 3d ce ff 94 3d
       0.048289698 0.067546144 0.09811457 0.07275353
000020 b1 b7 60 3d ee e4 71 3d 82 e4 8c 3d 5b d9 2c 3d
       0.05486268 0.059056215 0.06879522 0.042199474
000030 d4 ba c9 3d
       0.09850088

dncnn.2.bn.bias f4 [13]
000000 72 b6 57 3c 0c a9 02 3d e9 f6 ff 3c 8a 1b 24 3d
       0.013166057 0.031899497 0.031245666 0.040065326
000010 bf b9 33 3d 63 1c ae 3c d5 7b a7 3d 10 e4 6a 3e
       0.043878313 0.02125377 0.08177916 0.22938561
000020 56 fc c7 3c 94 bd 7a bd 4f 92 44 bd 9c 4d 6f 3d
       0.024412315 -0.061215952 -0.047991093 0.058423623
000030 b3 9e fa bb
       -0.007648313

dncnn.2.bn.running_mean f4 [13]
000000 fd 90 09 3d 1e 83 72 3d 44 01 e1 3c 3f 49 49 3a
       0.033585537 0.059207074 0.027466424 0.0007678456
000010 0c 10 19 3d c0 a4 e6 3c 14 99 00 bb ca 88 d0 3b
       0.03736882 0.02815473 -0.0019622492 0.006363963
000020 69 b0 2d 3b 1d 3a e5 3c f5 cd 5e 3c f8 d2 35 3d
       0.0026502854 0.027981812 0.013598909 0.04439065
000030 79 3e 35 3d
       0.04424903

dncnn.2.bn.running_var f4 [13]
000000 3a 79 49 39 05 79 66 39 36 c5 19 39 b6 16 22 39
       0.00019214014 0.00021979593 0.00014664684 0.00015457984
000010 38 1a 30 39 7c ea 5b 39 d0 ce a4 3a ef aa 92 3a
       0.00016794435 0.0002097282 0.0012573842 0.0011189858
000020 20 d4 48 39 01 ed 8c 39 69 6d 7d 39 94 0c 1b 39
       0.00019152509 0.00026879463 0.00024168719 0.00014786638
000030 13 c3 0d 3a
       0.00054077915

dncnn.3.conv.weight f4 [13, 13, 3, 3]
000000 4c 22 9f 3c bd b5 52 3c f9 c2 31 3d 17 dc 27 3d
       0.019425534 0.012860713 0.04339883 0.04098138
000010 9c 2e 80 3c 7f 33 48 3c 31 b5 ff 3c cf 22 a7 3c
       0.015647225 0.012219309 0.031214328 0.02040234
000020 37 a5 15 3c 22 95 dc 3b 3e 94 cb 3b 8e 7d 5c 3d
       0.009133629 0.006731645 0.00621274 0.053830676
000030 d6 52 3d 3d ee f8 14 3c ce 0e 10 3d 38 37 bc 3c
       0.046221577 0.009092553 0.03517037 0.02297555
000040 29 53 fd bc 39 19 a9 bc 6a 50 10 bd b2 3b 6c 3c
       -0.030923443 -0.02064191 -0.03523294 0.014418529
000050 85 cc 1e 3b 42 b6 e1 bc fe b5 a9 bc 1d f9 02 bd
       0.002423079 -0.027552728 -0.020716663 -0.031975854
000060 1c 99 03 3c 88 5f 51 bb c3 90 01 bd b0 8a 23 3d
       0.00803211 -0.003194781 -0.031632196 0.039927185
000070 15 c2 68 bb 98 d0 ba 3b c9 99 c4 3c 22 31 15 bb
       -0.0035516073 0.005701136 0.023999112 -0.002276488
000080 08 49 9c 3c e8 ea 14 3d 7d f3 0e 3c b6 f0 39 3d
       0.019077793 0.036356837 0.008725044 0.045395575
000090 ad c0 8e 3b 26 08 34 bb 90 bb 17 3d 2d b1 f6 3a
       0.004356465 -0.0027470677 0.037044108 0.0018821113
0000a0 1e 55 ae bc e8 e9 d2 3b 02 39 f7 bc 42 58 03 bd
       -0.021280821 0.006436575 -0.03017855 -0.03206659
0000b0 9d 36 23 3d 31 5c 89 bd b1 5b 1e 3b 7c e8 67 3d
       0.039847005 -0.06707037 0.002416354 0.0566182
0000c0 2c 3f 10 bd 6c b5 82 3c 4d d3 41 3d 37 51 34 bd
       -0.035216495 0.01595565 0.047320653 -0.044022765
0000d0 ab 69 2a 3c b6 46 07 3d 3a be c7 bc af de 14 bc
       0.01040117 0.03302642 -0.0243827 -0.009086295
0000e0 52 4b 54 3c 4e 10 fd bc 93 bb 45 bd be 82 76 bc
       0.012957411 -0.030891564 -0.048274588 -0.01504582
0000f0 06 f2 3a bd 8d 3e 3a bc 9e 18 87 ba 28 fe f9 3c
       -0.045640968 -0.011367452 -0.0010307019 0.030516699
000100 95 e1 1b 3c 0a 29 fb bc 4d a3 50 3d 4d 52 13 3d
       0.009514232 -0.030659217 0.050936986 0.03596716
000110 71 54 34 3b 41 44 3a 3d 21 f4 e4 bb e4 a7 c5 bc
       0.0027516151 0.04547525 -0.0069871102 -0.024127908
000120 91 a1 df bb e6 f0 1e bc ff 6b f1 3c 77 23 2f bd
       -0.00682468 -0.009700989 0.029470442 -0.04275843
000130 e9 49 1d bd 99 3a 3a bc 21 9c 6f bc 13 d2 29 bc
       -0.038400564 -0.01136651 -0.014624626 -0.010365027
000140 67 f8 15 3c 37 fb 5e 3c f9 09 81 3c 6b c3 39 bb
       0.009153462 0.013609699 0.015751826 -0.0028345238
000150 f2 03 9b bb bb 1e db bc 44 ee 60 bc 9a 81 1d bc
       -0.004730695 -0.026748052 -0.013728682 -0.009613419
000160 90 8f 99 bc c5 44 21 bc f3 aa e4 3c a3 3f 0a ba
       -0.018745214 -0.009843056 0.027913546 -0.0005273765
000170 97 c8 6b bb 24 ec 40 3b 04 93 5f bc 9b b9 8c bc
       -0.0035977715 0.0029437626 -0.013645891 -0.017178347
000180 3b 04 f9 3c 15 5b 9b 3c c7 e6 aa bc 4b 9a 2c 3d
       0.030397525 0.01896433 -0.020861996 0.042139333
000190 df 6a ea 3a 87 b6 8b bc f0 5d 57 3d aa 58 7e bb
       0.0017884633 -0.01705481 0.05257982 -0.0038810172
0001a0 f7 d3 60 3c 6f 9a e9 3c 83 97 80 3c c3 ea f4 bb
       0.013722411 0.028516022 0.015697246 -0.007474275
0001b0 3d 6f d3 3b a4 ae 1e 3a 67 2e 18 bd e5 17 0d 3d
       0.0064524696 0.0006053245 -0.037153628 0.034446616
0001c0 9a 9f 89 3c 22 fb bc bc db 50 b1 3c 49 26 2b 3c
       0.016799737 -0.023068968 0.021645 0.01044614
0001d0 60 12 94 bc b8 28 01 bc b5 1f d5 bc 64 41 a9 bc
       -0.018075168 -0.007883243 -0.026016096 -0.020661063
0001e0 4a 94 e1 bc d6 92 1a 3c 9c 96 bf 3b f7 4e 1c bd
       -0.02753653 0.0094344225 0.0058468115 -0.038161244
0001f0 91 32 20 3d 1e 38 88 3b 03 14 c4 bc fb 30 99 bc
       0.039110724 0.0041570803 -0.023935324 -0.018700114
000200 2b 2e 8b bc 80 23 cc bb d0 54 21 3b ef 5b e0 bc
       -0.016989788 -0.006229818 0.0024617203 -0.027387587
000210 02 83 00 3d b2 2f ee bb a6 ab 22 bd f0 23 77 bd
       0.03137494 -0.0072688693 -0.039714478 -0.060337007
000220 61 dc cf bb 4a 8f 53 3c ea 91 99 3b 03 b8 24 3c
       -0.00634341 0.012912581 0.0046865838 0.010053637
000230 af 54 2e 3c 88 67 f4 3c 15 58 0b 3d fe c5 c1 3c
       0.010640307 0.029834524 0.03401955 0.02365398
000240 a8 d2 c4 3c ad 72 37 3c 6a 74 25 bc c4 3f f4 bc
       0.02402623 0.011196774 -0.010098556 -0.029815562
000250 e6 fd 94 bc 65 c5 1d bd e6 f6 03 bd 6c 99 21 bd
       -0.018187474 -0.03851833 -0.032217883 -0.039452955
000260 fb d3 24 bd b4 28 e6 3a ee 38 76 3c 92 ee 3e 3d
       -0.040241223 0.0017559738 0.0150282215 0.046614237
000270 44 88 7d bb db 6b 90 3b 66 fa cf 3c 2e bf 42 bc
       -0.0038685957 0.0044073886 0.025387954 -0.011886401
000280 70 3d d1 3c b4 54 e6 3b 10 b6 d5 bc 01 d8 58 bd
       0.025541991 0.0070291404 -0.02608779 -0.052940372
000290 f1 fe 2f bd a1 1c 7d bc a8 a4 3a bd 98 ef af bc
       -0.04296774 -0.01544872 -0.045567185 -0.021476552
0002a0 16 59 54 bc 36 09 f7 bc f5 4b 4c bc ed 98 14 bd
       -0.012960693 -0.03015576 -0.012469281 -0.036278654
0002b0 5a 9d 64 3c 31 50 e5 3c 5b c4 ad bd b3 6e ca 3b
       0.013953531 0.02799234 -0.084847175 0.006177747
0002c0 25 d3 95 3c e4 dd 71 bc 13 fc d6 3c 38 00 64 3c
       0.018289158 -0.0147623755 0.026243245 0.013916068
0002d0 a3 c0 f5 3c 80 0a 82 3c 4a 6d 92 bc f7 26 19 3d
       0.029999083 0.015874147 -0.017874379 0.037390675
0002e0 49 31 52 3d 42 02 fe 3c 01 d8 28 3c 3b 95 73 3a
       0.051316533 0.031006936 0.010305406 0.00092919514
0002f0 2e 31 14 3c 68 54 b2 bc b4 24 3f 3c 15 26 ea bc
       0.0090449285 -0.021768764 0.011666466 -0.028582612
000300 8a 5d 29 3b a6 84 c7 3b c2 8f 91 3c db 7e 4c 3c
       0.0025843107 0.006088811 0.017768744 0.012481417
000310 e7 6c 38 3b fc f8 48 3c 2f 2d 05 3d b9 f2 a1 bc
       0.0028141083 0.012266394 0.032513794 -0.01976906
000320 95 1a f1 bc 15 02 6a bc 9b 7c ef 3c b5 72 f0 3c
       -0.02943162 -0.014282723 0.029234221 0.029351572
000330 63 9a 84 bc 63 84 91 3c f6 71 2c 3d 03 cd 34 bc
       -0.016186899 0.017763322 0.04210087 -0.011035207
000340 c9 ad 29 bb 70 3b 8d bc 87 db 2c bc 46 64 ed 3c
       -0.0025890938 -0.017240256 -0.010550386 0.028978478
000350 04 c0 a8 bc d7 dd 38 bd 0d 79 be bb c5 a5 07 bd
       -0.020599373 -0.045133438 -0.00581277 -0.033117075
000360 f4 08 86 bd 0b 87 0c bd 28 eb 70 b9 a8 88 16 bd
       -0.065446764 -0.034308475 -0.00022975786 -0.03675142
000370 da 84 28 bc ca ce 53 bc 40 2d 30 3a 82 58 ba 39
       -0.0102855805 -0.01292772 0.000672061 0.00035542628
000380 7c 36 0a bc e1 13 f6 3c b9 b6 26 3b ac 1f 8c bc
       -0.008435842 0.030038776 0.00254385 -0.017104946
000390 eb 92 64 3d 4d 21 c9 3b 98 b5 8f 3b 5d 89 53 3c
       0.055804174 0.006138003 0.0043856613 0.012911168
0003a0 fb 3e b9 3b 29 ce db 3b 34 b5 0c bd 26 16 d4 3c
       0.00565326 0.006707926 -0.034352496 0.025889467
0003b0 d7 b9 49 bd 29 23 a9 bc 19 e9 e9 3b 20 85 f8 bc
       -0.049249496 -0.020646648 0.007138383 -0.030336916
0003c0 3e 0c 0c bd 8f 27 46 3c 7c 30 1a bd f2 d3 f7 bb
       -0.034191363 0.012094392 -0.037643895 -0.0075631076
0003d0 52 0c f2 bc ce 4d 7b bb 6d ee bb bc 3f cd f1 bc
       -0.02954689 -0.0038345936 -0.022940839 -0.029516814
0003e0 1a 29 ad 3c 67 02 07 bd b6 60 cc bc 8d ca c2 3c
       0.021137763 -0.032961275 -0.02494846 0.023778224
0003f0 d3 ff 5e bd dd df 96 bd bd 1b e8 bc 8f 97 b9 bc
       -0.05444319 -0.07366917 -0.02833354 -0.022655277

dncnn.3.conv.bias f4 [13]
000000 88 c2 08 3d 9a 63 3b 3d 10 da e8 3c f4 ca 82 3c
       0.033388644 0.045749284 0.028424293 0.015965916
000010 83 00 ef 3c 0a 83 01 3d 62 d0 fa 3c 53 c3 ea 3c
       0.029175049 0.03161911 0.030616943 0.028657591
000020 f9 ad b9 3c 68 be 22 3d 0e 2d 25 3d 66 d8 f6 3c
       0.022665964 0.039732367 0.04032617 0.030132484
000030 6c f6 a0 3c
       0.019648753

dncnn.3.bn.weight f4 [13]
000000 7f 8b 28 3d 69 02 99 3d 52 6c 2a 3d 5e f8 9f 3d
       0.04114866 0.07471163 0.04160721 0.07811044
000010 98 33 28 3d c9 51 45 3d 60 7f 22 3d 68 3d f8 3c
       0.04106483 0.0481737 0.039672256 0.030302718
000020 1b 1f 90 3d f1 d5 69 3d 2a ff 98 3d 16 4c 26 3d
       0.07037183 0.057088796 0.07470544 0.040599905
000030 9f 49 fc 3c
       0.030796824

dncnn.3.bn.bias f4 [13]
000000 4e 2d d4 3c 50 69 c3 bd d2 eb ac 3c 65 ba 0c 3e
       0.02590051 -0.09541571 0.021108542 0.13742979
000010 61 30 1c 3d 9f a8 93 3c df 3c a3 3c 1a cf bc 3b
       0.038132075 0.01802474 0.019926487 0.005761993
000020 d3 aa 45 3d 73 5e ad bd 6e c6 be bd fb ef 25 3d
       0.048258614 -0.084652804 -0.09315191 0.040512066
000030 c3 5d 60 3d
       0.05477692

dncnn.3.bn.running_mean f4 [13]
000000 be 15 7d 3d ca f7 67 3d 09 3f 41 3d bd 66 d2 3d
       0.061788313 0.056632794 0.047179256 0.10273502
000010 0c 6a bf 3c ed 5a 6e 3c ee 8b 90 3c 7f f3 44 3d
       0.023365997 0.014548046 0.017644849 0.04808378
000020 5c 71 d3 bc e0 55 2e 3d b8 73 0c 3d a2 1b 43 3d
       -0.02581089 0.042562366 0.034290045 0.047633775
000030 80 b1 1f bb
       -0.0024367273

dncnn.3.bn.running_var f4 [13]
000000 18 e1 01 39 9b 55 3e 39 4a 14 0e 39 bc be eb 3a
       0.00012386253 0.00018151703 0.00013549734 0.001798592
000010 2b 06 0c 39 e7 0d 48 39 8f f0 19 39 33 95 a7 38
       0.00013353738 0.00019078665 0.00014680832 7.990971e-05
000020 9b ca 2c 3a e7 09 27 39 5f a7 7a 39 00 7c 0c 39
       0.000659147 0.0001593005 0.00023904209 0.00013397634
000030 88 86 17 39
       0.00014450599

dncnn.4.conv.weight f4 [13, 13, 3, 3]
000000 95 41 36 bc 0e e3 fd bb 04 ad 43 3d ed 0d 24 bd
       -0.011124034 -0.0077480143 0.047772422 -0.040052343
000010 43 16 36 bc 96 f1 4c bc 14 ca 81 bc c7 e9 dd bc
       -0.011113706 -0.01250877 -0.015843429 -0.027089013
000020 1b ed db bb 6d e1 fd 3c 1e 85 88 3c cf 3a 8b bc
       -0.006711615 0.03099128 0.016665038 -0.016995816
000030 f2 bc 6a 3c 8a ef b2 ba 22 50 a2 3c 5a 88 28 ba
       0.014327275 -0.001365171 0.0198136 -0.00064290094
000040 d2 24 e0 bc fe 8a 74 3d a0 e8 5b bd b6 e9 84 bd
       -0.027361307 0.059702866 -0.053688645 -0.06489889
000050 43 cd d4 bc 3e c3 34 bc ca 87 43 bd 1a c4 0b bd
       -0.025976783 -0.0110328775 -0.04773692 -0.034122564
000060 fd 8a 03 3d 7f 8b 52 bc a3 26 cc bc 02 92 34 3c
       0.03211497 -0.012850641 -0.024920767 0.011021139
000070 fa dc 84 3c 12 01 c1 3b af 2b e6 3c 2b bb 97 3b
       0.016218651 0.00589002 0.028097002 0.0046304665
000080 58 e3 35 bc 94 9a b9 bb 2d 09 96 bc b4 d4 56 bc
       -0.011101566 -0.005664179 -0.018314922 -0.013112236
000090 3e 3a ca 3c d1 51 78 3c 14 e6 bd 3c 84 b2 94 39
       0.024685975 0.015156225 0.023180999 0.00028361764
0000a0 9d a5 f6 3c 68 59 5c 3c 81 1a 27 bc 04 83 0c 3d
       0.030108267 0.0134490505 -0.01019919 0.034304634
0000b0 7e fd 1c 3d f2 81 09 bd 47 aa 72 bb 78 fb f4 3a
       0.038327686 -0.03357119 -0.0037027763 0.0018690666
0000c0 e7 d3 b7 bd cf 0c 45 bd 04 2f 84 bd 2a 4b bf 3b
       -0.08975964 -0.04810792 -0.0645428 0.0058378177
0000d0 ea 6e fc 3a cb ee a8 bc 8e a7 5a 3b 06 18 41 3c
       0.0019259129 -0.020621678 0.003336403 0.011785513
0000e0 fa e9 1c bd 80 77 0a bc d5 e2 66 3c 95 68 e1 bc
       -0.038309075 -0.008451343 0.014092167 -0.027515689
0000f0 bc c8 82 3c c8 a7 6c 3d f0 3f 05 3d 3e c3 85 bd
       0.015964858 0.057777196 0.03253168 -0.0653138
000100 5d ec 9d bc ce 6d 8d bd 62 23 bd bc 2b b5 12 3c
       -0.019277746 -0.06905709 -0.02308816 0.008954327
000110 21 a8 8d bc a0 b9 91 bd d4 45 9c bc 0d f9 18 bd
       -0.017292084 -0.07115483 -0.019076265 -0.03734689
000120 d6 c3 67 bc 1c e9 4e bc 17 9f 61 bc 4e d1 4b bc
       -0.014145812 -0.01262882 -0.01377084 -0.012440039
000130 92 8a 93 3a cb 3e c1 3b 20 00 a4 bb dd f6 66 3c
       0.0011256507 0.005897378 -0.0050048977 0.014096943
000140 d3 0c fb 3b cb 6c 90 3d 5e c6 e3 3c 10 98 2a bc
       0.007661441 0.070520006 0.02780455 -0.010412231
000150 53 b5 b6 bc 6b 37 04 3d a7 98 6c 3d 9d dc e8 3c
       -0.022303259 0.032279413 0.057762768 0.02842551
000160 4d 26 b5 3c 27 da 40 3d 21 c9 d1 3c 91 1a e3 bc
       0.02211299 0.047083046 0.025608601 -0.027722629
000170 15 49 af bc 16 be 56 bd 3e c6 e6 bc 1f fd d5 bb
       -0.021397153 -0.052427374 -0.028170701 -0.0065304185
000180 65 77 bb bc f1 d5 04 bd 83 e2 7d bd 05 c9 c9 3c
       -0.02288408 -0.032430593 -0.061983597 0.024631986
000190 79 56 21 bc c3 ee cb 3c c1 6b 1a 3d 44 d4 f4 3c
       -0.009847277 0.024894124 0.03770042 0.029886372
0001a0 67 8f 40 3d 3c 53 13 3d ba dc 5d 3c a1 5f c8 3c
       0.04701176 0.03596805 0.013541395 0.024459662
0001b0 21 05 ef ba 42 60 a7 bb bb 43 88 3c 2c ac e8 bc
       -0.0018235781 -0.0051079104 0.016633859 -0.02840241
0001c0 4d ea 4b bc 7c d5 a5 bb 33 61 ae bb 67 4f 8c bc
       -0.012445998 -0.0050608497 -0.0053216456 -0.017127706
0001d0 3a 33 0b bd c7 21 54 bd ca b9 02 bc cc dc cf 3c
       -0.0339844 -0.051790025 -0.007978866 0.025373839
0001e0 6e b8 72 bc 3a 5e 69 3c 23 49 ac 3c f5 11 07 bd
       -0.014814479 0.014243657 0.021030968 -0.03297611
0001f0 f8 1d bb bb c4 c5 ac 3a f7 40 eb bc de 23 92 bc
       -0.0057103597 0.0013181497 -0.028717501 -0.017839368
000200 b8 44 5a 3d 2a 60 60 3a 57 70 14 3a 2b c6 25 3b
       0.05328819 0.00085592514 0.0005662492 0.002529512
000210 83 e5 73 3d d6 9d 5f 3d c8 f8 95 bc 4a 12 19 bd
       0.05954505 0.054593883 -0.018307105 -0.037370957
000220 85 e1 29 39 c6 c1 30 bc 70 e4 95 bc 7b f6 5a 3c
       0.00016201109 -0.010788387 -0.018297404 0.01336443
000230 f1 cb b9 bc d0 3c b0 3c bf ca 43 3d db 67 94 bb
       -0.022680255 0.021513373 0.047800776 -0.004528982
000240 51 a4 79 bc b6 55 3a bc 5b c8 bd bb 87 67 b8 bb
       -0.01523693 -0.011372974 -0.0057917065 -0.005627576
000250 c5 41 70 3c ec 59 16 3c 56 3f 09 3b ed bf 9d 3c
       0.014664118 0.0091767125 0.0020942292 0.019256556
000260 94 c3 5c 39 35 ae 75 3d 1e 6d 2d 3d 7a 4b 5b 3d
       0.00021053693 0.05998059 0.04234039 0.053538777
000270 bf e3 b9 3b d9 3a bd bc 53 96 4b 3b f5 c5 9e bc
       0.0056729014 -0.02309935 0.0031064942 -0.019381503
000280 0d be 36 bd 9f 50 6b bc d2 fa 9a 3c 8b ff df 3b
       -0.04461484 -0.014362483 0.018918429 0.006835883
000290 7e 5d 12 bd 74 82 68 bc 74 b5 b9 bc be f3 a2 bb
       -0.035733692 -0.014191259 -0.022669531 -0.004972904
0002a0 76 5f f8 bc 7c d7 32 bc 96 24 f0 3c cb 31 83 bc
       -0.030318957 -0.010915633 0.02931432 -0.016014954
0002b0 a4 1b 9d bd a9 7f e4 bc d2 e3 06 bd f3 96 b4 bd
       -0.07671288 -0.027892904 -0.03293211 -0.08817854
0002c0 25 3c e0 3b f3 e9 a8 bc cb d1 66 bd 34 5d 42 bc
       0.0068431073 -0.020619368 -0.056352418 -0.011863042
0002d0 fb b2 70 3b 06 88 b9 bc 5d 32 85 bc e1 c0 f1 bb
       0.0036727774 -0.022647869 -0.016259367 -0.0073777293
0002e0 f8 bd 8d bc 3a d3 8b b8 63 9c 6d 3b fb af 4c 3b
       -0.017302498 -6.6673805e-05 0.0036256544 0.0031232822
0002f0 0c 1e 13 bc 60 80 d3 3b b4 d4 94 bc ba d5 ca bb
       -0.008979332 0.0064545125 -0.018167831 -0.006190029
000300 c4 99 f5 bb 8c 65 bb bb df 8b 43 bc dd 01 ac b8
       -0.007495137 -0.0057188924 -0.011935203 -8.201946e-05
000310 d1 aa 97 ba 23 d1 4e 3b 27 72 af bc 3d 83 b6 bc
       -0.0011571293 0.003155776 -0.021416737 -0.022279376
000320 c6 4e 8e 3c 2e 9c 0f bd d9 39 81 bd 0d dc ce bc
       0.017371546 -0.035061054 -0.06309862 -0.025251413
000330 78 48 eb 3b 8a a6 e7 3b 28 93 72 bc 3e be f7 3b
       0.00718027 0.0070694136 -0.014805593 0.0075605204
000340 e4 eb ed bc bc a4 8c bb 91 05 02 bc f6 f1 0f bc
       -0.029043145 -0.004292099 -0.007935897 -0.008785715
000350 b4 c6 8d bc 9e 7f d5 bc e2 54 d6 bc f9 f5 58 bc
       -0.017306663 -0.02606183 -0.026163522 -0.013242238
000360 87 06 ab bc 79 e5 17 ba 3d 4a ba bc 7c 75 5c bc
       -0.020877136 -0.0005794387 -0.022740478 -0.013455745
000370 f5 73 82 3c 20 d7 64 bb ad a5 30 bc 45 1c 89 bc
       0.015924433 -0.0034918264 -0.010781688 -0.016737113
000380 26 a2 c9 bc 4c f1 e5 3c 43 42 4e 3d 37 07 57 3d
       -0.024613451 0.02806916 0.05035616 0.052497115
000390 2e db 1d bc 7a a8 51 3d b1 d9 a1 3c 2e 01 cc 3c
       -0.009634776 0.051186062 0.019757124 0.024902906
0003a0 90 20 8f 3d 03 3b c7 3c 2f e3 80 bb 78 bd 36 3a
       0.06988633 0.024320131 -0.0039333324 0.0006970982
0003b0 f2 f6 46 3d f4 26 9c bb e7 e5 13 bb cc a1 44 3d
       0.04857535 -0.0047653858 -0.0022567452 0.048005864
0003c0 44 12 97 3a d5 6a 33 3c a9 ae fa 3c 9c 53 2a 3c
       0.0011525829 0.010950764 0.030600863 0.010395911
0003d0 31 d1 32 3d 0f 83 1a 3d 13 3b f6 bb 33 f5 ba 3b
       0.04365653 0.037722643 -0.0075143664 0.0057054996
0003e0 7d b3 20 3b ad 8a bf ba dc ba a5 3b ea b9 c3 3c
       0.0024521046 -0.0014613472 0.0050576758 0.023892362
0003f0 97 81 c7 b9 4c b4 a0 bc cf 58 47 bc a7 6a 71 3b
       -0.0003805279 -0.019617222 -0.01216717 0.0036837251

dncnn.4.conv.bias f4 [13]
000000 a4 bc 53 3d 19 05 65 3d a4 ea 1d 3d a7 40 08 3d
       0.051693574 0.055913065 0.03855385 0.033264782
000010 69 3a 7e 3d 92 9c 2d 3d a6 9a 1f 3d e2 75 55 3d
       0.062067423 0.042385645 0.038965844 0.052114375
000020 84 3f 0b 3d f7 24 53 3d 40 84 4b bf e0 16 29 3d
       0.03399612 0.051548924 -0.7949867 0.04128158
000030 f1 cb 15 3d
       0.036571447

dncnn.4.bn.weight f4 [13]
000000 62 42 95 3d 59 a0 8c 3d f4 33 4e 3d 0c 21 e4 3d
       0.07288052 0.068665214 0.050342515 0.11139116
000010 b2 8f ae 3d e0 82 4e 3d 95 40 87 3d 83 90 71 3d
       0.085235015 0.05041778 0.06604115 0.058975708
000020 a2 da 9b 3d e5 82 a8 3d 9e ce ef be 22 64 40 3d
       0.0761006 0.08228091 -0.46837324 0.046970494
000030 f8 b6 a6 3d
       0.08140367

dncnn.4.bn.bias f4 [13]
000000 e2 7f 8f 3d 6d 12 21 3d db b6 dd bd 86 09 2e 3e
       0.070068136 0.039324213 -0.108258925 0.1699582
000010 36 49 cb bd 9b f3 b1 3d dd ff bd 3d 0d b6 98 3d
       -0.09926073 0.08689042 0.09277318 0.074565984
000020 ff 40 56 3e e2 6b fa bd 45 ec 56 be c1 ad b8 3d
       0.20923232 -0.12227608 -0.20988567 0.09017516
000030 99 53 f2 3c
       0.029580878

dncnn.4.bn.running_mean f4 [13]
000000 8a 68 3a 3d a0 c3 68 3d a3 d8 81 3d 0f 02 97 3d
       0.045509852 0.056827188 0.06340148 0.073734395
000010 4f da 51 3d 16 07 d0 3c 31 52 62 3d b8 fd 6d 3d
       0.051233586 0.025394004 0.055254165 0.058103293
000020 42 29 5e 3d b0 25 4d 3d 0d 93 4a bf 0b ad ef 3c
       0.054238565 0.05008477 -0.7913063 0.029257318
000030 9a c1 75 3d
       0.059999086

dncnn.4.bn.running_var f4 [13]
000000 e0 e5 11 39 29 9c 08 39 a5 9a 02 39 30 76 6f 3a
       0.00013913913 0.00013028145 0.00012455376 0.0009134738
000010 a8 c9 11 39 6d 32 c5 38 10 d9 53 39 d7 e2 fc 38
       0.000139034 9.4030846e-05 0.0002020339 0.000120585486
000020 0c 30 c2 39 45 65 1c 39 02 37 d8 35 6f 96 ab 38
       0.0003703836 0.00014915045 1.6109263e-06 8.181936e-05
000030 30 9f c5 39
       0.00037693372

dncnn.5.conv.weight f4 [13, 13, 3, 3]
000000 02 ce 13 3c 15 60 15 3b 36 08 2e bc 20 a6 8b 3c
       0.009021284 0.0022792865 -0.010622075 0.017046988
000010 14 8a 48 bc 76 ae a6 bb eb a6 a8 bb 5a e7 26 bd
       -0.012239952 -0.0050867153 -0.0051468513 -0.040747978
000020 df a3 e7 3a 7b f5 40 bb 88 0f 5a bd 2e a6 7b 3c
       0.0017672739 -0.0029443193 -0.053237468 0.015359445
000030 6a 0c 8f 3c 8e 7b ed bb 87 13 3c 3b e6 e6 fc 3c
       0.017461974 -0.007247395 0.0028698163 0.03087182
000040 9e a0 66 3d 16 35 82 bc dc 25 cc 3b 87 ac 7b bb
       0.05630552 -0.015894454 0.006230099 -0.0038402395
000050 5c 50 20 3c 81 30 0b bc 4a 9c 88 bc f8 e8 68 ba
       0.009784784 -0.008495451 -0.016676087 -0.00088848127
000060 23 a4 39 bb 7f d1 ba 3a b8 aa 5d 3c f9 f6 85 bc
       -0.0028326593 0.0014253109 0.013529472 -0.016353117
000070 a8 b3 5a 3c 9e 5c a4 3b 48 10 68 3c 61 fc 43 3c
       0.013348497 0.0050159236 0.014164038 0.011962027
000080 1a 30 1f bb d2 e7 10 3c 99 72 9d 3b 0f 0d 68 bc
       -0.0024290145 0.008844333 0.004804921 -0.01416327
000090 a8 9b 97 bb ac 64 ca bc dc 18 c6 bc f6 96 37 3b
       -0.00462671 -0.024706207 -0.024181776 0.0028013564
0000a0 89 31 6a 3c 12 79 c9 bc 05 12 09 3c ee e3 ef 3b
       0.014294037 -0.024593864 0.008366113 0.0073208725
0000b0 84 44 f8 bc bf 26 eb 3c f4 df 62 3d 9c 6e e8 bc
       -0.030306108 0.028704999 0.05538936 -0.028373055
0000c0 be 9e 30 3c 50 ba 24 3d 54 27 04 3c 9a fe 22 bd
       0.010780035 0.040216744 0.008066017 -0.03979359
0000d0 ed 54 a3 bc 49 8d 21 bd 39 9d c4 bc da 54 e5 bc
       -0.019937957 -0.03944138 -0.02400075 -0.027994562
0000e0 29 c2 f9 bc 36 fa 00 bd cb 02 24 3c df 0c 36 3a
       -0.03048809 -0.03148862 0.0100104315 0.0006944667
0000f0 55 7d d9 bb 37 ea 0e 3d c0 1d a9 bb f4 6d 4c bd
       -0.006637255 0.034891333 -0.005161017 -0.049909547
000100 30 79 dd bc 75 1e c1 bc 89 3f d5 3c b1 ed 44 3c
       -0.027035326 -0.023574093 0.026031272 0.012019561
000110 c7 0c 08 bc 90 aa 25 3d f2 3a cc 3c a4 19 bf ba
       -0.008303828 0.040445864 0.024930451 -0.0014579785
000120 49 c9 e7 3b 00 5b 85 3b 32 c9 9d bb e3 0c 8c 3b
       0.0070735556 0.004069686 -0.004815244 0.004273997
000130 b5 8f b1 3c 4f bd 8d 3c c1 e4 94 bc 86 aa 6d bc
       0.02167497 0.017302183 -0.018175485 -0.014505988
000140 c8 cb 74 3b dd f3 96 3b 37 73 fb ba 0f 15 99 bc
       0.0037352908 0.0046067075 -0.0019184117 -0.0186868
000150 e1 c5 bd 3c c3 0a f0 bc 37 45 0f bc ec 1c 8c 3b
       0.023165645 -0.029302007 -0.008744529 0.0042759087
000160 a4 7b ca bc fa 3e 9c bc d0 90 b2 bc 36 ab 3e 3b
       -0.02471716 -0.019072998 -0.021797568 0.002909375
000170 2c 6a c4 3b 80 0a 42 bb 92 10 37 bc 10 90 01 3d
       0.005994102 -0.002960831 -0.011173384 0.03163153
000180 d3 f2 8c bc 0c 74 85 bb aa 76 31 3c d0 09 c8 bc
       -0.017205631 -0.0040726718 0.010831514 -0.024418741
000190 6f 93 fa bb aa fc b4 bc 61 40 bb bb da 37 c6 3c
       -0.00764697 -0.022093136 -0.0057144617 0.024196554
0001a0 15 08 98 bc cd 37 d7 bc 51 8f 6b b8 71 b6 71 bd
       -0.018558541 -0.026271725 -5.616184e-05 -0.05901188
0001b0 70 a5 a0 3c db b6 99 3c 71 cc 2b 3b ef 71 7a bc
       0.019610137 0.01876395 0.0026214386 -0.015285953
0001c0 bf dd fc 3b d7 8b 10 3c c9 87 a7 bc 99 73 3c ba
       0.007716864 0.008822403 -0.02045049 -0.0007188856
0001d0 b2 87 e7 3b 98 2f 20 3d a6 65 83 3d 20 90 94 3c
       0.0070657367 0.03910789 0.06415872 0.01813513
0001e0 12 e5 89 3d d0 a6 a2 3c d2 e2 6d bd 9e a0 26 3c
       0.06733145 0.019854933 -0.05807764 0.01017013
0001f0 29 fe 0c bd c6 f1 2f bd f0 2e 2e ba d1 7d 30 bd
       -0.034422074 -0.042955182 -0.00066445675 -0.043088738
000200 bd cf d3 bc d2 9f 88 bb 07 2f c6 bb b5 ac a7 bb
       -0.025855893 -0.0041694427 -0.0060480866 -0.005117024
000210 25 ff 8c 3b 30 26 ea 3c 91 8b a1 3c 03 c0 84 3c
       0.0043028765 0.028582662 0.01971987 0.01620484
000220 b5 cd 04 3d 15 4e dd 3c ce 61 42 3c 9e 1a 0c 3e
       0.03242274 0.027014771 0.011864139 0.13682029
000230 97 d2 09 3d 95 a5 b0 3c 6f 10 0e 3d d2 cb c0 3c
       0.0336481 0.02156333 0.03468364 0.02353469
000240 da 4c d8 ba f8 06 b3 3c 2e 06 f9 3b 4e 81 9f 3d
       -0.0016502396 0.021853909 0.0075996136 0.07788335
000250 3d 44 4f be a5 35 ae 3c 41 71 17 bc 5c 23 10 3d
       -0.20240875 0.021265814 -0.00924331 0.03518997
000260 61 d7 33 3c 33 a0 49 3a 55 98 15 bd 04 a0 5a bd
       0.010976643 0.0007691413 -0.03652223 -0.05337526
000270 6a 38 7b 3c fc d9 af 3d 25 d4 a3 3b a2 85 5a bc
       0.015333274 0.08586499 0.004999655 -0.013337525
000280 eb 47 5d 3c 5f a3 79 3c f1 75 40 bc 0a 56 e4 3b
       0.013505916 0.015236705 -0.011746869 0.0069682645
000290 0d 9e ba 3b 4a 23 0d bc d6 c4 87 3d 9a 80 92 3c
       0.0056951107 -0.008614371 0.0662934 0.017883588
0002a0 2a 09 da 3b be c0 39 bc 7f 80 94 3b 24 a9 39 bb
       0.0066539245 -0.011337457 0.0045319195 -0.0028329575
0002b0 24 ea e5 bc a0 87 c6 ba 68 d0 a4 bd 59 bc e2 bc
       -0.028065749 -0.001514662 -0.08047563 -0.027677702
0002c0 c3 c5 44 3d 36 50 8a bc 00 14 1a 3d ab 0b e7 3c
       0.048040163 -0.01688395 0.03761673 0.028203806
0002d0 2a 52 14 bc 69 53 01 bd bb 55 6c bd 21 ed 18 3d
       -0.009052793 -0.031573687 -0.057698946 0.03733552
0002e0 4b 34 ca 3c 9d 2c bc bc 39 97 d9 3c b1 95 3b 3d
       0.024683138 -0.022970492 0.026561366 0.045797054
0002f0 d9 a3 df 3b 59 24 3e bd 5b 17 59 3d b5 d1 c7 bc
       0.006824952 -0.046421383 0.05300079 -0.024391988
000300 c6 ee 96 3d 48 e7 27 be 77 8c 6e 3c 3a 05 7e 3c
       0.07369761 -0.1639682 0.014559857 0.015504176
000310 4c 6e 10 3c e8 bf 8a 3b 36 ce b7 bc 95 97 26 3d
       0.008815359 0.004234303 -0.022437196 0.040671904
000320 37 ba c4 3c 24 34 4c 3d 8f 62 62 3c 6a c9 94 bc
       0.024014575 0.049854413 0.0138174435 -0.018162448
000330 01 56 4c 3c f1 bf 55 bd 22 ca 00 bd 7d 9b 2f bb
       0.012471677 -0.052185003 -0.03144277 -0.002679556
000340 93 72 0c ba 4b c3 1e 3c 1d 81 a0 bc 32 20 39 bd
       -0.0005357649 0.009690116 -0.019592816 -0.04519672
000350 6a cc 03 bc b3 7d 0a 3c 53 12 17 bc b7 78 75 ba
       -0.008044342 0.008452821 -0.009220677 -0.0009363996
000360 e4 b3 ce 3a 90 59 58 3c 7f 15 21 3c af 27 33 bc
       0.0015770164 0.013204947 0.009831785 -0.010934754
000370 64 27 83 bc b4 f3 cc 3b 0e 1f a6 bb 29 d5 4e bc
       -0.016009994 0.0062546376 -0.00506962 -0.0126240635
000380 84 04 ff 3b 62 8b 00 bc 9b eb 01 bd 52 39 b3 ba
       0.0077825207 -0.007845731 -0.03171883 -0.0013673699
000390 7d 77 4e bd b3 5b 08 3e c4 52 fc bc 72 f9 3a 3b
       -0.05040692 0.1331623 -0.030801184 0.0028530029
0003a0 85 12 a3 bc b0 4e a6 bc 05 05 27 bd 21 9b a2 ba
       -0.019906292 -0.020301193 -0.04077627 -0.0012405851
0003b0 f7 48 94 bc 66 bf 3e bc 4e 8f 0c bc 6d ca 89 3b
       -0.018101199 -0.011642313 -0.008579088 0.0042050392
0003c0 01 44 8e 3c 80 a3 c6 bc fd 18 5c 3b 53 d7 d1 3c
       0.017366411 -0.024247885 0.003358423 0.02561537
0003d0 a2 59 89 bd 55 b6 07 bc 5e 79 1f 3b 91 d2 21 bb
       -0.06706549 -0.008283217 0.0024333815 -0.0024692158
0003e0 91 c0 93 3b 0e a8 79 bc 22 c6 b2 3d cd 54 30 39
       0.0045090397 -0.015237821 0.08729197 0.00016816259
0003f0 c3 99 96 bb 39 21 8e bc e1 a1 8c bb 9a 1a 11 bc
       -0.0045959665 -0.017349826 -0.0042917584 -0.00885644

dncnn.5.conv.bias f4 [13]
000000 66 33 c6 3c e4 44 5b 3d 42 79 0e 3d 7c d8 03 3d
       0.02419443 0.053532496 0.03478361 0.032188877
000010 d7 a5 d2 3c 0c d2 20 3d 6e b6 df 3c 11 d0 19 3d
       0.025713844 0.039262816 0.027308669 0.037551943
000020 50 14 fc 3c 4e 15 2f 3d 29 c2 39 3d 4c 38 c9 3c
       0.030771405 0.042744927 0.04535118 0.024562977
000030 5a 91 5a 3d
       0.053361274

dncnn.5.bn.weight f4 [13]
000000 51 c2 1a 3d b6 f7 88 3e e3 85 7a 3d 81 5f 86 3d
       0.03778297 0.26751488 0.06116284 0.06561185
000010 c2 2d 6b 3d c7 64 9f 3d 84 55 8d 3d 00 64 90 3d
       0.057416685 0.07782894 0.069010764 0.070503235
000020 e9 a9 8f 3d 26 1d c5 3d d0 4b f6 3d aa 90 4f 3d
       0.0701483 0.096247 0.12026179 0.05067507
000030 3a cd 9d 3e
       0.30820638

dncnn.5.bn.bias f4 [13]
000000 5f 3c f3 bc 99 bb 2b 3d 45 0f eb bd 83 99 11 3d
       -0.029691873 0.041926954 -0.11477522 0.03554679
000010 0c 5f a6 3d b8 3f 94 3c ce 94 d5 3d 3e 8f 00 3d
       0.081235975 0.01809679 0.10428773 0.031386606
000020 d5 e3 04 3d e4 7f 82 3d 09 06 4b 3d e2 8d 24 3d
       0.03244384 0.063720495 0.049566302 0.040174372
000030 22 0a 38 bd
       -0.04493154

dncnn.5.bn.running_mean f4 [13]
000000 39 d9 5c 3c 75 ca 24 3d 72 23 b3 3c b3 8d 90 3d
       0.013479524 0.04023214 0.021867488 0.07058277
000010 25 cf 87 3d 08 02 27 3d 23 e5 c4 3d 59 0e c2 3d
       0.066313066 0.04077342 0.09614017 0.09475393
000020 9d 7d 61 3d 3d 05 84 3d 77 b4 eb 3d 74 7c 06 3d
       0.055051435 0.064463116 0.1150903 0.03283353
000030 f9 5f 94 3d
       0.07244868
