pre-trained-tp2/tiny_DnCNN_n2n_l2_2000.pt (torch_old, 545654 bytes, 87 tensors)

weight f4 [13, 1, 3, 3]
0	0xbc424103	-0.01185632
1	0x3dd4312d	0.10360942
2	0x3d233a8b	0.039850753
3	0x3d9eacbe	0.07747792
4	0x3d827f5a	0.06371947
5	0xbad3a3ca	-0.0016146835
6	0x3d80227b	0.06256577
7	0x3d9e92ed	0.077428676
8	0x3e07c16e	0.13257381
9	0xbc07d689	-0.008290895
10	0x3d956502	0.07294656
11	0xbd139b28	-0.03603664
12	0xbc90ae57	-0.017661257
13	0xbe92ab39	-0.28646258
14	0xbd993a46	-0.07481818
15	0x3cd2fa94	0.02575425
16	0x3e3865ca	0.1800758
17	0x3de62d06	0.11239056
18	0xbd319e21	-0.043363694
19	0xbe36b4f7	-0.1784247
20	0xbdc912df	-0.098180525
21	0xbcd7d426	-0.026346277
22	0xbd8b379b	-0.06797715
23	0xbde64dc5	-0.11245302
24	0x3d80dd7f	0.06292247
25	0x3ebe68c5	0.37189308
26	0x3df1297d	0.117754914
27	0x3e23fa07	0.16013347
28	0xbddfd22b	-0.10928758
29	0xbdc4964d	-0.0959898
30	0x3e729e9f	0.23693322
31	0xbd4922eb	-0.049105566
32	0xbe1d1782	-0.15340999
33	0x3db18cf9	0.086694665
34	0xbd760059	-0.060058925
35	0xbcc437c8	-0.02395238
36	0xbd1a8931	-0.037728492
37	0x3e594370	0.21217132
38	0x3b203087	0.0024442987
39	0x3d5067be	0.050880186
40	0x3da848e6	0.08217029
41	0x3dc32865	0.09529189
42	0x3b129517	0.0022366697
43	0x3d9baa16	0.07600801
44	0xbd9ec66c	-0.0775269
45	0x3c2ecc08	0.010668762
46	0xbdc6ea19	-0.09712619
47	0x3d2dac4b	0.04240064
48	0xbe16a33b	-0.14710705
49	0x3e12a545	0.14320858
50	0x3e4feb6c	0.2030465
51	0xbe2fc882	-0.17166331
52	0xbdce4492	-0.100716725
53	0x3ddbb09a	0.107270434
54	0x3d29c336	0.041445933
55	0x3e2c7d1b	0.16844599
56	0x3dbd9df3	0.09258642
57	0x3ccf3450	0.0252935
58	0x3d7e8e2d	0.06214731
59	0x3dd43da9	0.10363323
60	0xbd747eee	-0.059691362
61	0xbeb1f46d	-0.34756795
62	0xbde5eceb	-0.11226829
63	0xbc20d655	-0.009816726
64	0xbe1cd54d	-0.15315743
65	0x3e1afd02	0.15135577
66	0x3a3fb3b1	0.0007312848
67	0xbea844b6	-0.32864922
68	0x3e9a71ef	0.3016505
69	0x3b8bf293	0.0042708605
70	0xbdc62586	-0.09675126
71	0x3dfeec79	0.12447447
72	0x3c12dfb7	0.008964471
73	0xbdd1acab	-0.10238012
74	0xbe11e95a	-0.14249173
75	0xbd1fe2a9	-0.03903452
76	0xbd1ce77a	-0.03830669
77	0x3e146eb3	0.14495353
78	0xbcbc9dd2	-0.023024473
79	0x3db3a222	0.08771159
80	0xbd1d730d	-0.0384398
81	0xbc50b322	-0.012738021
82	0x3df5b370	0.119971156
83	0x3e2b2252	0.16712311
84	0x3d4b11c4	0.04957749
85	0x3d3d8ced	0.046276975
86	0xbe347c36	-0.17625508
87	0x3cf26994	0.02959136
88	0xbdcdf8aa	-0.100571945
89	0x3d34268f	0.043982085
90	0xbd844954	-0.06459299
91	0x3cd78a85	0.026311168
92	0x3a2a4f6c	0.000649682
93	0x3e711600	0.23543549
94	0x3d80d62c	0.0629085
95	0x3ac333b1	0.0014892725
96	0xbe134b6c	-0.1438424
97	0xbdbea867	-0.09309464
98	0xbab9c445	-0.0014172873
99	0xbd8bdbfa	-0.068290666
100	0x3a53939a	0.00080710056
101	0xbcda3cd9	-0.026640343
102	0xbb9e3110	-0.004827626
103	0xbe5cb840	-0.21554661
104	0x3c9fffd7	0.019531174
105	0xbc6014cf	-0.013676836
106	0x3ca028e9	0.019550757
107	0xb9cb4943	-0.00038773761
108	0xbbb6eef9	-0.005582687
109	0x3d8f88fe	0.07008551
110	0x3bf993f2	0.0076165134
111	0x3d606e70	0.05479282
112	0x3e7ba5e4	0.24575001
113	0x3d849c3c	0.06475112
114	0xbd1f9486	-0.038960002
115	0x3d528ecc	0.051405713
116	0x3c20c878	0.0098134205

bias f4 [13]
0	0x3cdb0ff5	0.026741007
1	0x3d70e032	0.05880756
2	0x3d447939	0.04796717
3	0x3d4839be	0.048883192
4	0x3cdcca59	0.026951956
5	0x3d213562	0.03935755
6	0x3d877f0c	0.06616029
7	0x3d5dd226	0.05415549
8	0x3d48bc14	0.04900749
9	0x3d4a7053	0.049423527
10	0x3d9bab29	0.076010056
11	0x3cf9e2ef	0.030503718
12	0x3d45ec62	0.048321135

weight f4 [13]
0	0x3e08b5d2	0.13350609
1	0x3e0d2b31	0.13786007
2	0x3e343e3c	0.17601866
3	0x3e26c098	0.16284406
4	0x3dd4693a	0.10371633
5	0x3deb5e57	0.11492603
6	0x3e5a2b2f	0.21305536
7	0x3e37ebd9	0.17961062
8	0x3dbd6754	0.09248224
9	0x3deb0509	0.1147557
10	0x3e0de321	0.13856174
11	0x3dbf9245	0.093540706
12	0x3e628eb4	0.2212475

bias f4 [13]
0	0xbe7981ce	-0.24365923
1	0x3e532775	0.2062052
2	0x3b877035	0.004133249
3	0x3da79b5b	0.081839286
4	0xbe1e2362	-0.15443185
5	0xbd2b9844	-0.04189326
6	0xbb920cc7	-0.0044570896
7	0x3eabcc0a	0.33554107
8	0x3d165b5e	0.03670823
9	0xbd375155	-0.0447553
10	0xbe53c618	-0.20681036
11	0x3e25a0c5	0.1617461
12	0xbe997afd	-0.29976645

running_mean f4 [13]
0	0x3e817af2	0.25289112
1	0x3d29454e	0.04132586
2	0x3d6c6604	0.057714477
3	0x3d330b69	0.043712053
4	0x3e4bd01e	0.19903609
5	0x3d168e1c	0.03675662
6	0x3d66543d	0.05623268
7	0x3d399822	0.0453111
8	0xbc11141c	-0.008854892
9	0x3df08260	0.11743617
10	0x3db5f0cf	0.08883821
11	0xbdbc48de	-0.09193586
12	0x3e79a44d	0.24379082

running_var f4 [13]
0	0x3c713821	0.014722855
1	0x3b4d105a	0.0031290264
2	0x3befc81f	0.0073175575
3	0x3ba3b9eb	0.0049965284
4	0x3c1816a7	0.0092827445
5	0x3b938eaa	0.004503091
6	0x3bd38932	0.006455564
7	0x3be22316	0.006901155
8	0x3b174baa	0.002308587
9	0x3b51f429	0.00320364
10	0x3b00af82	0.001963586
11	0x3ba0ad11	0.0049034436
12	0x3c3ce6d0	0.011529639

weight f4 [13, 13, 3, 3]
0	0xbbd4b932	-0.0064918036
1	0xbb7e00cc	-0.00387578
2	0x3b9f5bdb	0.004863245
3	0x3b8d58f7	0.004313584
4	0xbc9b0fd8	-0.018928453
5	0xbc91562b	-0.017741283
6	0xbceac5fe	-0.028658863
7	0xbd5bf8ad	-0.053703953
8	0xbc00744f	-0.00784023
9	0x3afca946	0.0019276522
10	0x3c4084b6	0.011750391
11	0xbba8923a	-0.0051443847
12	0x3d090dbc	0.033460364
13	0x3d27fcf9	0.041012738
14	0x3b82afaf	0.0039882283
15	0x3afc7e1e	0.001926366
16	0xbccacd2a	-0.024756033
17	0xbca79b76	-0.020459872
18	0xbc497a45	-0.012297218
19	0x3d02d121	0.031937722
20	0xbc494278	-0.012283914
21	0xbd4ff0c0	-0.050766706
22	0x3c915028	0.017738417
23	0xbbc33f76	-0.005958493
24	0xbc3eba67	-0.0116411215
25	0x3c8b83ef	0.017030684
26	0x3c4451b8	0.011982374
27	0xbcb613a7	-0.022226168
28	0xbd018fc1	-0.031631235
29	0xbcc64822	-0.024204317
30	0x3cb7e36f	0.022447316
31	0xbc95c689	-0.018283146
32	0xbc332ffa	-0.0109367315
33	0x3d42ae11	0.047529284
34	0xbcc1e3f5	-0.023668269
35	0xbc0da576	-0.008645406
36	0x3bf1750f	0.007368691
37	0xbc8ba07e	-0.017044302
38	0x3b566e87	0.0032719688
39	0x3c1c6a9e	0.009546904
40	0x3bbe7c45	0.005813154
41	0xbc437387	-0.011929399
42	0xbba60b60	-0.005067274
43	0x39411ae3	0.0001841593
44	0xbc621acd	-0.013800335
45	0xbcbf102e	-0.023323145
46	0xbc84da6c	-0.016217433
47	0xbd017778	-0.031608075
48	0x3d33f8d7	0.043938484
49	0x3c0b563f	0.008504449
50	0xbc3de404	-0.011590008
51	0x3c8ecdbc	0.017432086
52	0xbcb38406	-0.02191354
53	0x3bf64170	0.007515125
54	0xbda77ebb	-0.08178469
55	0xbcc20d2f	-0.023687927
56	0xbd5694c7	-0.05238798
57	0xbc360bfb	-0.011111255
58	0xbcbd5f63	-0.023116773
59	0xbcef3f1f	-0.029204903
60	0xbdc0e144	-0.09417966
61	0xbdae793a	-0.08519216
62	0xbddf5695	-0.10905186
63	0x3b57f520	0.0032952502
64	0x3bcf8a03	0.006333591
65	0x3aaaa9e5	0.0013020603
66	0x3c15a556	0.009133657
67	0x3c9432aa	0.018090565
68	0xbb1bf76c	-0.0023798598
69	0xbd213172	-0.039353795
70	0xbce84f8b	-0.028358242
71	0xbc1b406c	-0.009475809
72	0x3c4b80b4	0.012420822
73	0x3b338933	0.002739501
74	0xbc683671	-0.014173136
75	0x3b585a9e	0.0033012996
76	0x3b1a4131	0.0023537392
77	0x3a483f2c	0.0007638808
78	0x3c4303c8	0.011902757
79	0x3bc068b9	0.005871859
80	0xba934176	-0.0011234719
81	0xbc1a1f11	-0.009406821
82	0xbd1ccb5d	-0.03827988
83	0xbd355b2e	-0.04427641
84	0xbbc658c7	-0.0060530636
85	0xbb9190bb	-0.004442302
86	0xbd52b69b	-0.051443677
87	0x3c2a4793	0.010393041
88	0x3aa13121	0.0012297967
89	0xbcf6eeeb	-0.030143222
90	0xbda967d9	-0.082717605
91	0xbd509f9f	-0.050933477
92	0xbd60600e	-0.054779105
93	0xbcf387cd	-0.02972784
94	0xbbcbcbae	-0.006219349
95	0x3cddab02	0.027059082
96	0xbd72622c	-0.059175655
97	0xbcadea44	-0.02122987
98	0xbc3a79cc	-0.011381578
99	0xba020ec0	-0.00049613044
100	0x3cbc1fef	0.022964446
101	0x3d33025c	0.043703422
102	0xbaf5b701	-0.0018746556
103	0xbd0f51db	-0.034990173
104	0x3c29b1fb	0.010357375
105	0xbd2da350	-0.042392075
106	0xbd210f4d	-0.039321233
107	0xbc5eb0e4	-0.013591979
108	0xbc89e346	-0.016832005
109	0xbbc1b64e	-0.005911625
110	0x3bdc0245	0.0067141377
111	0xbd5fa093	-0.054596495
112	0xbb832205	-0.004001858
113	0xbaba5d65	-0.0014218508
114	0xbcd44242	-0.0259105
115	0xbc8ebd32	-0.0174242
116	0xbb9e899b	-0.004838181
117	0xbc5e0fc8	-0.013553567
118	0xbc70027d	-0.014649031
119	0xbcd1a742	-0.02559245
120	0xbbbfe096	-0.00585563
121	0xbc9c6a81	-0.019093754
122	0x3c7631f1	0.015026555
123	0xbc0530f7	-0.00812935
124	0xbcf500f2	-0.029907677
125	0xbcdaa3e6	-0.026689481
126	0xbb709e91	-0.0036715607
127	0xbc60de0a	-0.013724813
128	0xbcf9145b	-0.030405214
129	0xbd3b8a05	-0.045785923
130	0x3cb593f8	0.022165284
131	0xbd067593	-0.03282697
132	0xbd17b9ff	-0.037042614
133	0xbcad8052	-0.021179352
134	0xbb47310f	-0.0030394231
135	0x3d20563f	0.03914475
136	0xbc1234f4	-0.008923758
137	0xbcb22788	-0.021747366
138	0x3b8817a9	0.004153211
139	0xbd0f9b48	-0.035060197
140	0xbc0a544f	-0.008442952
141	0x3d253b41	0.040339712
142	0x3c85b378	0.016320929
143	0x3c79f147	0.015255279
144	0x3c48229a	0.012215281
145	0x3d1a162f	0.037618812
146	0x3ce1f38d	0.027581954
147	0xbd259e19	-0.040433977
148	0x3d40c72d	0.04706495
149	0x3d2279fd	0.03966712
150	0xbc86bc21	-0.016447129
151	0x3c81224d	0.015763426
152	0x3d81dd8a	0.06341083
153	0x3b07d570	0.0020726584
154	0x3c218432	0.009858178
155	0x3b3248a7	0.0027203949
156	0x3a1173ca	0.0005548565
157	0xbd038723	-0.0321113
158	0x3b9b7da6	0.004745203
159	0x3d02c453	0.03192551
160	0xbcf9659d	-0.03044396
161	0xbc41287f	-0.01178944
162	0x3d800b60	0.062521696
163	0x3a36a5c1	0.0006967448
164	0x3aa6e4b2	0.0012732951
165	0xbc0000aa	-0.007812658
166	0x3d960a10	0.07326138
167	0x3d0222d1	0.031771485
168	0xbca92bcb	-0.020650765
169	0x3cdbac5b	0.026815584
170	0x3d2bc084	0.041931644
171	0xbb832e46	-0.004003319
172	0x3cd62f3c	0.02614557
173	0xbb9ea6d3	-0.0048416643
174	0x3c3c2726	0.011483943
175	0x3d1aae62	0.03776396
176	0x3adfb977	0.0017068823
177	0xbd0f9311	-0.035052363
178	0x3c2b66e4	0.010461543
179	0x3bc776cf	0.006087161
180	0x3c8af3a3	0.016961878
181	0x3d5a9a17	0.053369608
182	0x3cdc784e	0.026912834
183	0x3e0b2235	0.13587268
184	0x3e497ed7	0.19677292
185	0x3df94120	0.12170625
186	0x3ce64f4e	0.028113987
187	0x3d6f032b	0.05835263
188	0x3d19fe9b	0.037596326
189	0xbb31479a	-0.0027050734
190	0xbc938e34	-0.018012144
191	0xbc51f47f	-0.01281464
192	0x3c271ee4	0.010200236
193	0x3d943e4c	0.07238445
194	0x3c94d052	0.018165741
195	0xbcd5db98	-0.026105687
196	0x3ce7c4eb	0.02829214
197	0x3d2c84f4	0.04211898
198	0x3bdc4909	0.0067225737
199	0x3ca5b841	0.02022946
200	0x3c1250a6	0.008930361
201	0x3bc1f076	0.0059185578
202	0xbd26263f	-0.040563818
203	0xbcfb9c84	-0.03071428
204	0x3cc7eb2e	0.024404135
205	0x3b25b6d7	0.0025285983
206	0xbcbd5c5b	-0.023115328
207	0x3d63b6da	0.055594303
208	0x3d0b043b	0.03393958
209	0x3c1c2091	0.009529249
210	0x3bba0b43	0.005677612
211	0xbcdb1249	-0.026742117
212	0xbc9ad584	-0.01890064
213	0x3c1ae9f2	0.009455191
214	0x3c85477b	0.016269436
215	0xbc2c8e62	-0.010531994
216	0xbce9e99c	-0.028553776
217	0xbca5beb6	-0.02023254
218	0xbd4cd04b	-0.05000333
219	0x3bbbe4de	0.00573407
220	0x3e030918	0.12796438
221	0x3c9c3487	0.019068016
222	0xbd82eacf	-0.063924424
223	0x3888e1ca	6.527042e-05
224	0xbc93b8bc	-0.018032424
225	0x3ca208d2	0.019779596
226	0x3c9dea15	0.019276658
227	0xbcaa5593	-0.020792758
228	0xbd09f2da	-0.033678867
229	0xbc951f62	-0.018203441
230	0x3bf88e49	0.007585321
231	0x3cb30b51	0.021855982
232	0xbd0295f7	-0.0318813
233	0xbbaf5e00	-0.005351782
234	0xbb606910	-0.003424231
235	0xbbb40d99	-0.005494785
236	0x3a38a7de	0.0007044057
237	0xbd0fb88c	-0.035088107
238	0x3caef02c	0.021354757
239	0xbab2a9d1	-0.0013630931
240	0xbc156c3c	-0.009120043
241	0x3cb3afa4	0.021934338
242	0x3c515eea	0.012778977
243	0x3c55e8ad	0.0130559625
244	0x3da2dc51	0.07952178
245	0x3ca5dac8	0.020245925
246	0xbba6f2b9	-0.0050948528
247	0xbe800a29	-0.25007752
248	0xbca3a6b3	-0.01997695
249	0xbce34888	-0.027744547
250	0x3dc725eb	0.09724029
251	0x3a539ac0	0.0008072071
252	0xbca7358f	-0.02041128
253	0x3df1feb3	0.11816158
254	0xbdd48f64	-0.10378912
255	0xbd262542	-0.040562876

bias f4 [13]
0	0x3d8b9e83	0.06817343
1	0x3dc175a5	0.09446267
2	0x3d074fcc	0.033035085
3	0x3d8ffc2a	0.07030518
4	0x3da70879	0.08155913
5	0x3d43f141	0.0478375
6	0xbe437327	-0.19086896
7	0x3de930a5	0.11386231
8	0x3d895eb8	0.06707519
9	0x3dcbff40	0.099607944
10	0x3d6a123d	0.0571463
11	0x3d93791c	0.07200834
12	0x3d5bce91	0.053663794

weight f4 [13]
0	0x3e01e913	0.12686567
1	0x3e28254c	0.16420478
2	0x3e06bf65	0.13158949
3	0x3e19627d	0.14978977
4	0x3e1acd8a	0.1511747
5	0x3d97cec0	0.07412481
6	0xbe180f6c	-0.14849633
7	0x3e8664eb	0.2624887
8	0x3dd2a4fb	0.10285374
9	0x3e0d0caf	0.1377437
10	0x3da03c52	0.07824005
11	0x3e09405c	0.13403457
12	0x3dfaa553	0.12238564

bias f4 [13]
0	0x3e1d94e5	0.1538883
1	0x3c916516	0.017748397
2	0x3f049c30	0.51800823
3	0x3e20ec5d	0.15715165
4	0x3d9eed84	0.07760146
5	0x3d62d716	0.055380903
6	0xbd1818b6	-0.03713294
7	0xbe7746d7	-0.24148117
8	0x3ded2a7c	0.11580369
9	0xbd3d74bc	-0.046253905
10	0x3d916ad8	0.07100457
11	0xbe2f92f7	-0.17145906
12	0xbda2a691	-0.07941926

running_mean f4 [13]
0	0x3b9da8b0	0.004811369
1	0x3ea3c7d0	0.31988382
2	0xbb8e4791	-0.0043420275
3	0x3e2c1e17	0.16808353
4	0x3e5fc575	0.21852668
5	0x3d23bcc4	0.039974943
6	0xbe7919f4	-0.24326307
7	0x3de83c40	0.11339617
8	0x3cd1365e	0.02553862
9	0x3e31d785	0.1736737
10	0x3d46c06a	0.048523344
11	0x3e355050	0.17706418
12	0x3e98223c	0.2971362

running_var f4 [13]
0	0x3b003578	0.001956312
1	0x3ac54b82	0.001505241
2	0x3c2f57ad	0.010702056
3	0x3b3094b8	0.0026944112
4	0x3b118a7a	0.0022207783
5	0x3a844fd7	0.0010094595
6	0x39364d1e	0.00017385601
7	0x3b378871	0.002800491
8	0x3aa44682	0.001253322
9	0x3a89ae37	0.001050419
10	0x3a841e72	0.0010079874
11	0x3ae8ec95	0.0017770702
12	0x3b3d1f4a	0.002885776

weight f4 [13, 13, 3, 3]
0	0xbbbe68d5	-0.005810837
1	0x3c97f8fa	0.018551338
2	0x3d6d1c55	0.057888348
3	0xbd46ca4e	-0.048532777
4	0xbc81df56	-0.015853565
5	0xbc2318ba	-0.009954626
6	0xbd467842	-0.04845453
7	0xbd0700b7	-0.032959666
8	0xbc09cb85	-0.008410339
9	0xbd510778	-0.051032513
10	0xbc575323	-0.01314238
11	0xbc6fc720	-0.014634877
12	0xbdbb7833	-0.091537856
13	0xbc06b53b	-0.00822192
14	0x3d4e28a0	0.05033171
15	0xbc9a395e	-0.018826183
16	0xbbbdf40b	-0.0057969145
17	0xbd2f6c7d	-0.04282807
18	0x3b87e27f	0.0041468735
19	0xbc88520d	-0.016640687
20	0x3c6e8eaf	0.014560386
21	0x3b352824	0.0027642334
22	0x3de379f4	0.11107245
23	0xbd88a8cb	-0.0667282
24	0x3c221e9e	0.009894995
25	0xb89fec71	-7.6257515e-05
26	0xba914e44	-0.0011085947
27	0x3c98b808	0.01864244
28	0xbc02d0d9	-0.0079843635
29	0xbbed2036	-0.007236506
30	0x3cbe2f02	0.023215774
31	0xbce09ac6	-0.027417552
32	0xbc6ea2f8	-0.014565222
33	0x3c8c5c26	0.017133784
34	0xbc473ae0	-0.012160033
35	0x3ad00814	0.0015871548
36	0x3d3ecf82	0.046584614
37	0xbb7f8f29	-0.0038995242
38	0x3d69d430	0.057087123
39	0x3d0a4d6b	0.033765238
40	0xbcc99d21	-0.024611058
41	0x3cbe1e7a	0.023207892
42	0x3d145ef7	0.036223378
43	0x3c99d3ec	0.01877781
44	0x3c91b897	0.017788215
45	0x3d2cf02e	0.04222124
46	0x3d152dc1	0.036420587
47	0x3c5af1ed	0.013363344
48	0xbd43a16c	-0.047761366
49	0x3cf5a496	0.029985707
50	0x3cdf9b20	0.027295649
51	0xbc7be1e5	-0.015373682
52	0xbd2faa43	-0.042886984
53	0xbd33bf8d	-0.04388385
54	0x3cbce52e	0.0230585
55	0xbbf13c2d	-0.00736191
56	0xbd1043d0	-0.03522092
57	0xbb2bf254	-0.0026236968
58	0x3bc0de3e	0.0058858683
59	0x3ba96152	0.005169072
60	0xbbd7604f	-0.00657276
61	0xbb8a2cf1	-0.004216783
62	0xbc327f0f	-0.010894551
63	0xbd3e6dd1	-0.046491448
64	0xbdd79c6f	-0.10527884
65	0xbd002ff9	-0.03129575
66	0xbd1334c9	-0.03593901
67	0xbd23bac8	-0.03997305
68	0xbcbb737b	-0.022882214
69	0xbd157f9d	-0.036498655
70	0xbd2ab6bf	-0.041678187
71	0xbcb75e3a	-0.022383798
72	0x3d4af6f0	0.049551904
73	0x3d5cd5b5	0.053914744
74	0xbca07414	-0.0195866
75	0x3c39f797	0.011350534
76	0x3db9dfc2	0.090758815
77	0x3d1f2005	0.038848896
78	0xbc8e9839	-0.01740657
79	0x3c16e567	0.009209967
80	0x3c9ad023	0.018898075
81	0x3aa639e4	0.0012682048
82	0xbcbfe862	-0.023426238
83	0xbbb3a52f	-0.005482338
84	0x3d192397	0.037387457
85	0xbc813754	-0.015773453
86	0xbcb24099	-0.021759318
87	0x3c4cda84	0.01250327
88	0xbd34847c	-0.04407166
89	0xbd3e6d6e	-0.04649108
90	0x3adfc572	0.0017072393
91	0x3d325678	0.043539494
92	0xb95c623c	-0.0002101743
93	0x3d1ed063	0.03877295
94	0x3cd7e7ff	0.026355742
95	0xbc652bf7	-0.013987533
96	0x3c3245f1	0.010880933
97	0x3c1564b6	0.00911825
98	0x3cf36bbd	0.02971446
99	0xbd5f8808	-0.05457309
100	0xbd3271fe	-0.043565743
101	0xbc7d6431	-0.015465782
102	0xbcbe7c5a	-0.023252655
103	0x3b4f368f	0.0031618213
104	0x3bdd7dfe	0.006759404
105	0xbca8a78c	-0.020587705
106	0x3ba77689	0.005110566
107	0x3bb8d17d	0.0056402073
108	0x3c92e2e9	0.017930465
109	0x3c670986	0.014101392
110	0xbbbc1a88	-0.0057404675
111	0x3cf1fff1	0.029540988
112	0x3d16a070	0.0367741
113	0x3bcfcc20	0.0063414723
114	0x3d47b1a2	0.04875339
115	0x3d89f834	0.06736794
116	0x3c5353c3	0.012898388
117	0xbc7755f9	-0.015096181
118	0x3cd0ce4e	0.025488999
119	0xbd0f55e5	-0.034994025
120	0x3d12f4cd	0.03587799
121	0x3ca295fc	0.019846909
122	0xbd5745a8	-0.052556664
123	0x3cd3beea	0.02584787
124	0x3cf265e3	0.029589599
125	0xbba9c37c	-0.0051807743
126	0xbda04d2e	-0.07827221
127	0xbcca54ba	-0.024698604
128	0x3cf6874e	0.030093815
129	0xbd8087b5	-0.06275884
130	0xbd3bf773	-0.045890283
131	0xbcc4ee61	-0.02403945
132	0xbcae1344	-0.021249421
133	0x3c77c773	0.015123236
134	0xbc9a9278	-0.01886867
135	0xbc91b372	-0.017785762
136	0xbca34aa8	-0.01993306
137	0x3b8b8249	0.0042574746
138	0x3d4dfb62	0.050288565
139	0x3b9bd225	0.004755276
140	0xbcc389ab	-0.023869356
141	0x3cce3709	0.025172727
142	0x3c9ffbee	0.01952931
143	0x3adf81c0	0.0017052218
144	0xbd058eb0	-0.03260678
145	0x3db71afc	0.08940694
146	0x3db1bea3	0.08678939
147	0xbce69a2b	-0.028149685
148	0x3d3deadc	0.046366557
149	0xbc97afb5	-0.0185164
150	0x3b71c2d9	0.003688982
151	0x3d6bf47f	0.057606217
152	0xbcf9cc3e	-0.030492898
153	0x3d83f815	0.06443802
154	0x3d53b547	0.05168655
155	0x3c775c31	0.015097664
156	0xbd83cdc2	-0.064357296
157	0xbd2e84b0	-0.04260701
158	0xbd8eb550	-0.06968176
159	0xbd47482d	-0.048652817
160	0x3acb6f1d	0.0015520785
161	0x3bf0043b	0.007324723
162	0xbd22919e	-0.039689653
163	0xba9174f8	-0.0011097481
164	0xbc8d55ec	-0.017252885
165	0x3c669268	0.014072992
166	0x3d851081	0.064972885
167	0x3c967f92	0.018371377
168	0xbd02f4c9	-0.031971727
169	0x3bdaa89f	0.006672933
170	0xbbe15b01	-0.0068773036
171	0x3b9854e0	0.0046487898
172	0xb90cc3ee	-0.0001342443
173	0x3d03707c	0.032089695
174	0x3bdfe5d2	0.0068328166
175	0x3cbe9d79	0.023268448
176	0x3d0d1e30	0.034452617
177	0xbc3390a7	-0.010959781
178	0xbc1aba60	-0.009443849
179	0xbc6501c3	-0.013977471
180	0xbd0e233d	-0.034701575
181	0xbc4a8eff	-0.0123631945
182	0xbcfde588	-0.030993238
183	0xbcf1ccd7	-0.02951662
184	0xbc62c32e	-0.01384048
185	0x3af10c9a	0.0018390596
186	0x3cdfeadd	0.027333671
187	0xbb9a7314	-0.0047134254
188	0x3c368917	0.011141083
189	0x3990df1f	0.00027632058
190	0x3c944a02	0.018101696
191	0x3ce020b5	0.027359346
192	0x3d2f0747	0.04273155
193	0x3c7de98e	0.015497578
194	0x3d9b3fca	0.07580526
195	0xbcc29ef9	-0.023757445
196	0xbddb7d1e	-0.107172236
197	0xbcc9bfc3	-0.024627572
198	0x3ce0e0fa	0.027451027
199	0x3cdf8835	0.027286628
200	0xbdc0cec0	-0.094144344
201	0xbc2dfce2	-0.010619374
202	0x3d259bda	0.040431835
203	0x3be88ba6	0.0070967255
204	0xbd6c3b9e	-0.057674043
205	0xbc76f058	-0.015071951
206	0xbbcf0177	-0.0063173133
207	0x3cd0897d	0.025456185
208	0x3d5054ef	0.05086225
209	0xbbc68818	-0.006058704
210	0x3b7e93c2	0.0038845395
211	0x3d0bd8d3	0.034142327
212	0x3c8d3978	0.017239317
213	0xbd2bbd17	-0.041928377
214	0xbd55affa	-0.052169777
215	0xbc991e2f	-0.01869115
216	0xbc935014	-0.01798252
217	0xbcdf6de8	-0.027274087
218	0x3c8223f4	0.015886284
219	0x3b34809a	0.0027542473
220	0xbc276f42	-0.010219397
221	0x3c0d20b9	0.008613759
222	0xbcaf1b82	-0.021375421
223	0xbc3f17e2	-0.011663409
224	0x3cc1cf53	0.02365843
225	0x3c0ae5d5	0.008477648
226	0x3cdac1ae	0.026703682
227	0x3cb4f108	0.022087589
228	0x3c09f97a	0.008421296
229	0x3cca93ed	0.02472874
230	0x3d38ff6a	0.045165457
231	0xbc4ff026	-0.012691533
232	0xbccbdb28	-0.024884775
233	0x3c9f5cff	0.019453524
234	0xbcd01d82	-0.025404695
235	0xbbc5e00c	-0.0060386714
236	0xbd12054d	-0.035649586
237	0xbd010138	-0.031495303
238	0x3ce277df	0.02764505
239	0x3d3f5557	0.046712246
240	0xbdb490fa	-0.088167146
241	0xbd4f6356	-0.050631844
242	0xbd1bbe81	-0.038023476
243	0x3c250961	0.010073037
244	0xbd648624	-0.05579199
245	0xbc86e487	-0.016466392
246	0x3ceb4cbe	0.028723117
247	0x3caeafe0	0.021324098
248	0xbbc8fa9a	-0.0061333897
249	0xbd04fcc8	-0.032467633
250	0xbc0d2eda	-0.008617127
251	0xbce40d8c	-0.02783849
252	0x3b4d04f4	0.003128347
253	0x3c817e3d	0.015807265
254	0x3c182401	0.009285928
255	0x3ca6e047	0.020370616

bias f4 [13]
0	0x3d5adfda	0.053436138
1	0x3d9ce019	0.07659931
2	0x3dcca544	0.099924594
3	0x3d3df8a4	0.0463797
4	0x3da7338f	0.08164131
5	0x3d83a68e	0.06428252
6	0x3d6faee3	0.058516394
7	0x3d66391c	0.056206807
8	0x3d84fcb5	0.064935125
9	0x3d8ab98a	0.0677367
10	0x384f0e9c	4.9366252e-05
11	0x3d93dbad	0.07219634
12	0x3d8f2186	0.06988816

weight f4 [13]
0	0x3e07535e	0.13215396
1	0x3e066bf5	0.1312712
2	0x3e118ff3	0.14215069
3	0x3e266cd6	0.16252455
4	0x3e0f5e8b	0.14000909
5	0x3e140388	0.14454472
6	0x3dba6298	0.091008365
7	0x3e092656	0.1339353
8	0x3e4d36af	0.20040391
9	0x3e21da4f	0.15805934
10	0x3be4ecec	0.006986251
11	0x3e937af9	0.28804758
12	0x3e019a6a	0.1265656

bias f4 [13]
0	0x3e299224	0.16559654
1	0x3e090ef5	0.13384612
2	0xbdc7847f	-0.097420685
3	0x3e929596	0.2862975
4	0x3e1b89ea	0.15189329
5	0x3dff5a72	0.12468423
6	0x3e2a7734	0.16647035
7	0x3eca43ee	0.3950495
8	0x3e05bbc9	0.13059916
9	0x3cd1ac34	0.025594808
10	0xbcfbc042	-0.030731324
11	0xbe3f8209	-0.18701948
12	0x3df14637	0.117809705

running_mean f4 [13]
0	0x3dd436bd	0.10362003
1	0x3dec6b28	0.11543876
2	0x3e13f42b	0.14448611
3	0xbd55651c	-0.05209838
4	0x3d628e5a	0.05531154
5	0x3d95f554	0.07322183
6	0xbaa97c1b	-0.0012930663
7	0xbd371374	-0.044696286
8	0x3d4d1464	0.050068274
9	0x3dda80c1	0.10669089
10	0x3bfd9580	0.007738769
11	0x3e0b1e28	0.13585722
12	0x3dda5bfc	0.10662076

running_var f4 [13]
0	0x3b47add0	0.003046859
1	0x3abf4d95	0.0014595265
2	0x3a80bb19	0.0009821384
3	0x3bd597e4	0.006518351
4	0x3acc432f	0.0015583987
5	0x3b13c3b0	0.0022547059
6	0x3a906c3c	0.0011018584
7	0x3b46077a	0.0030216859
8	0x3bab134a	0.0052208053
9	0x3b2b49f7	0.0026136616
10	0x390473a9	0.00012631588
11	0x3bd12366	0.0063823937
12	0x3ad5ba14	0.0016306066

weight f4 [13, 13, 3, 3]
0	0xbd8b9ed4	-0.068174034
1	0x3cef2142	0.029190663
2	0x3c8501e1	0.016236247
3	0x3dac603c	0.08416793
4	0xbd668d27	-0.056286957
5	0xbc34fd04	-0.011046652
6	0xbba13cfa	-0.004920599
7	0x3d11ee60	0.035627723
8	0x3b4b62f8	0.0031034332
9	0xbacf4057	-0.0015812021
10	0xbc2c1463	-0.010502907
11	0xbc3ca45a	-0.011513794
12	0x3b2a59a9	0.0025993383
13	0x3bad6d60	0.0052925795
14	0xbbd4b21a	-0.006490958
15	0x3ca80560	0.020510375
16	0x3ca8a48a	0.02058627
17	0xbb11f969	-0.0022273904
18	0x3d0ea9e9	0.034830008
19	0x3ba68894	0.0050821993
20	0x3b8da689	0.004322831
21	0xbcbacf40	-0.022803903
22	0xbc31a426	-0.010842359
23	0xbb1d2007	-0.0023975389
24	0x3bb15dac	0.005412778
25	0x3d0d29f2	0.03446383
26	0x3cec7459	0.028864073
27	0xbd2eaa04	-0.04264261
28	0xbdba334d	-0.09091816
29	0x3c333137	0.010937027
30	0xbc76f7b8	-0.015073709
31	0x3cf41069	0.029792981
32	0x3c1667fe	0.009180067
33	0xbd2497c1	-0.040183786
34	0xbc85db9a	-0.016340066
35	0x3c63cc3a	0.013903672
36	0xbc45e9b4	-0.012079645
37	0x3c95346c	0.018213473
38	0x3d157350	0.036486924
39	0xbc2276a8	-0.009915985
40	0x3b4332b9	0.0029784872
41	0x3d402ed4	0.04691966
42	0xb932cc0d	-0.00017051418
43	0x3cb962df	0.022630153
44	0x3d0201d2	0.031740017
45	0x3d492729	0.04910961
46	0x3d5d838a	0.054080524
47	0xbd51af05	-0.051192302
48	0x3c39d22f	0.011341616
49	0x3d80678b	0.06269749
50	0x3d98b075	0.074555315
51	0x3d2b3e4a	0.04180745
52	0x3cbc8158	0.023010895
53	0x3c649d1a	0.013953472
54	0xbc431d62	-0.011908861
55	0xbcd8bb47	-0.026456488
56	0x3c996834	0.018726446
57	0x3b9ce545	0.0047880732
58	0x3cd25b0a	0.025678176
59	0x3d895f33	0.06707611
60	0xbc4a2771	-0.012338505
61	0x3ce39fba	0.027786124
62	0x3b92ef85	0.0044841194
63	0xba571854	-0.00082052243
64	0x3d98353c	0.07432029
65	0x3cb1f13b	0.021721473
66	0xbbc177fd	-0.0059041963
67	0xbd23ae10	-0.03996092
68	0x3d7b5738	0.061362475
69	0x3bbeca07	0.0058224234
70	0xbbe6e426	-0.0070462404
71	0xb81438a0	-3.5338686e-05
72	0x3c01b2f4	0.007916201
73	0x3cf09587	0.029368175
74	0x3baa5b96	0.005198906
75	0xbc523516	-0.0128300395
76	0x3e18aaaa	0.14908853
77	0x3d0d9bae	0.034572296
78	0x39cfe90c	0.0003965575
79	0x3c52def5	0.01287054
80	0xb9e1a413	-0.0004303759
81	0x3c1f108d	0.009708536
82	0x3a4e074b	0.0007859363
83	0x3d40391b	0.04692946
84	0xbb61bd49	-0.0034445098
85	0x3deb4d48	0.114893496
86	0x3c72beac	0.0148159675
87	0x3d2b43be	0.04181265
88	0xbc512d84	-0.012767199
89	0x3d58c947	0.052926328
90	0xbbba9d08	-0.005694989
91	0x36a236c9	4.834354e-06
92	0xba0da3a6	-0.00054031087
93	0xb6b1e8ee	-5.3021276e-06
94	0xb5d24948	-1.5667547e-06
95	0xb8b8a9c4	-8.805425e-05
96	0x3b3e1d78	0.0029009264
97	0x3cd156e5	0.02555413
98	0x38218744	3.8511367e-05
99	0x3d88fbc2	0.06688644
100	0x3d0adb9a	0.033900835
101	0x3c927add	0.017880851
102	0xbc7e18a7	-0.015508807
103	0x3ce20588	0.027590528
104	0x3d82fa44	0.06395391
105	0x3d656cd0	0.056011975
106	0xbc8ab755	-0.016933123
107	0x3cefa852	0.029255066
108	0xbce7cd18	-0.028296039
109	0xbc9a767a	-0.018855322
110	0xbc83b7d5	-0.016078869
111	0xbd1527ca	-0.0364149
112	0xbd077150	-0.033067048
113	0xbc70981a	-0.014684701
114	0xbc8f555a	-0.017496753
115	0xbc131f26	-0.008979594
116	0xbb2959f2	-0.0025840965
117	0x3d058d7a	0.032605626
118	0x3d49d5c8	0.049276143
119	0x3ca18957	0.019718809
120	0xbc811e9c	-0.015761666
121	0x3cfc6931	0.030811878
122	0x3cc0be63	0.023528283
123	0xbcfa770e	-0.030574348
124	0xbbb27753	-0.0054463535
125	0x3c17c132	0.00926237
126	0x3bda5253	0.006662646
127	0x3d399654	0.04530938
128	0xbc52fac9	-0.012877175
129	0xbd1ba446	-0.03799846
130	0xbde8a9a1	-0.11360479
131	0xbd2a536e	-0.04158347
132	0xbbaf57b5	-0.0053510317
133	0xbdab26b2	-0.0835699
134	0xbceaeaed	-0.028676474
135	0x3d5d5aa5	0.054041523
136	0xbc399335	-0.011326601
137	0xbb1dfd84	-0.0024107406
138	0x3c78d0f5	0.015186538
139	0xbce626c2	-0.028094653
140	0x3d0bf03d	0.034164656
141	0x3d582240	0.05276704
142	0xbbf9bf62	-0.0076216916
143	0x3d070dfd	0.032972325
144	0x3cb5737b	0.022149792
145	0x3d28095e	0.04102456
146	0x3d0dc4f4	0.034611657
147	0x3d1116a6	0.03542199
148	0x3d7dea4d	0.061991025
149	0xbd3d1096	-0.046158396
150	0x3d0809d4	0.033212498
151	0xbadf239a	-0.001702416
152	0xbd3708d7	-0.044686165
153	0x3d222394	0.03958471
154	0x3d3c7aa5	0.0460154
155	0x3d64cc44	0.055858865
156	0x3cbe610f	0.02323964
157	0x3c89e20e	0.016831424
158	0xbb50fafd	-0.0031887882
159	0x3d94ae2c	0.07259783
160	0x3d46bd2f	0.048520263
161	0x3d4ad8fc	0.04952334
162	0x3c275e59	0.010215365
163	0x3c433fe7	0.011917091
164	0xbce1b155	-0.027550379
165	0xbbd82479	-0.0065961448
166	0x3d350c31	0.04420108
167	0x3c72f51f	0.014828949
168	0x3c2468b3	0.010034728
169	0x3d4b80b3	0.049683284
170	0x3dd48fca	0.10378988
171	0x3b91340a	0.0044312524
172	0x3d1f938b	0.038959067
173	0x3cea57d7	0.028606338
174	0xbc434dee	-0.011920435
175	0x3d737f64	0.05944766
176	0x3d057fc0	0.032592535
177	0x3b9901c2	0.004669399
178	0x3d303dda	0.043027736
179	0x3d4e0433	0.050296973
180	0xbc1ea80c	-0.00968362
181	0xbcdec066	-0.027191352
182	0xbd6fabcf	-0.05851346
183	0x3cb7c629	0.022433357
184	0xbce35373	-0.027749753
185	0xbdb75cd5	-0.08953253
186	0xbd1ec7e3	-0.038764846
187	0xbccc04cf	-0.024904637
188	0xbd02c22e	-0.031923465
189	0xbc953c92	-0.018217359
190	0xbc811920	-0.01575905
191	0xbc457c49	-0.012053558
192	0xbce6fe68	-0.028197482
193	0x3c53ec55	0.012934764
194	0x3c8c8e0f	0.017157583
195	0xbd35fc4b	-0.04443006
196	0xbb57b066	-0.0032911538
197	0x3c693fa1	0.014236362
198	0x3d1c90c0	0.03822398
199	0x3cd527ba	0.02601992
200	0x3cb54575	0.022127846
201	0x3c7f52cc	0.015583705
202	0x3c95d9cd	0.018292332
203	0x3cdd04e2	0.026979867
204	0xbd02578a	-0.031821765
205	0xbcb3c4ca	-0.021944422
206	0x3d34d700	0.044150352
207	0xb521e052	-6.03036e-07
208	0xb431cfa2	-1.6559946e-07
209	0xb6753118	-3.6536421e-06
210	0xb541d1e1	-7.2203517e-07
211	0xb609b989	-2.0522587e-06
212	0x34a92c7e	3.1511075e-07
213	0x388c06e7	6.677006e-05
214	0x35f12694	1.7967127e-06
215	0xb4d34727	-3.9353583e-07
216	0xbca26aa8	-0.019826248
217	0xbc015c90	-0.007895604
218	0x3bbc4051	0.005744972
219	0xbbb8a282	-0.005634607
220	0xbbcf3967	-0.0063239816
221	0xbbb9666a	-0.0056579607
222	0x3c2911a1	0.010319144
223	0x3c3612b6	0.0111128595
224	0x3c92e655	0.017932096
225	0x3d02dbeb	0.03194801
226	0xbc9394d0	-0.018015295
227	0xbcc3d597	-0.023905559
228	0x3d7dbc52	0.061947174
229	0x3c3749be	0.011187015
230	0x3d52426b	0.051332872
231	0xbb89f383	-0.004209937
232	0x3ce396a1	0.027781786
233	0x3dad887e	0.084732994
234	0xbd6d048e	-0.05786567
235	0xbcdff4d9	-0.027338432
236	0xbc6e9c9a	-0.014563704
237	0xbc79746f	-0.015225514
238	0x3cebe352	0.028794918
239	0xbc989f76	-0.018630724
240	0xbccfeb3c	-0.025380723
241	0xbc90e612	-0.017687831
242	0x3cc3db9b	0.023908427
243	0x3d13ff52	0.036132164
244	0x3c39ea9f	0.011347442
245	0xbc6ff0b7	-0.014644793
246	0x3bb31a6e	0.005465797
247	0xbb3506d2	-0.0027622473
248	0xbbbbd90d	-0.0057326616
249	0x3c54b0ee	0.012981636
250	0x3b7a93bc	0.003823503
251	0xbc303123	-0.010753903
252	0xbc6c98e2	-0.014440747
253	0x3d08f247	0.03343418
254	0x3c997a12	0.018734965
255	0x3d71b51b	0.059010606

bias f4 [13]
0	0x3d5cef89	0.053939376
1	0x3d8bcbb5	0.068259634
2	0x3d7fa7c5	0.062415857
3	0x3d601036	0.05470296
4	0x3dc9f922	0.098619714
5	0x3d841d3d	0.06450889
6	0x3d1de853	0.03855164
7	0x3d6fc765	0.058539767
8	0x3d43644b	0.04770307
9	0x3d24f9fc	0.040277466
10	0x3da79143	0.08182003
11	0x3d97ce45	0.0741239
12	0x3d1acaa5	0.037790913

weight f4 [13]
0	0x3e801b28	0.2502072
1	0x3e040eec	0.12896317
2	0x3e008660	0.1255126
3	0x3e44817c	0.1919002
4	0x3e432ca9	0.19060005
5	0x3e031ee9	0.1280476
6	0x3df11018	0.11770648
7	0x3df27220	0.11838174
8	0x3e170e2d	0.14751501
9	0x3e04f838	0.12985313
10	0x3e0f0b63	0.13969187
11	0x3f0d2012	0.5512706
12	0x3e1991e3	0.14997058

bias f4 [13]
0	0xbddd953f	-0.10819482
1	0x3e169dcf	0.14708637
2	0xbd1bf868	-0.038078696
3	0xbd7089a8	-0.05872503
4	0xbce73045	-0.028221259
5	0xbc1696e7	-0.009191251
6	0x3eae299f	0.3401613
7	0x3e1ea13e	0.15491197
8	0x3e36b2cf	0.17841648
9	0x3e2bd64e	0.1678097
10	0x3d2522bc	0.04031633
11	0x3c14be6b	0.009078602
12	0x3e6e112a	0.23248735

running_mean f4 [13]
0	0x3e39df8c	0.18151683
1	0x3e076363	0.13221507
2	0xbd410dd9	-0.047132347
3	0x3cb24ca3	0.021765059
4	0x3e2f06db	0.17092459
5	0x3e742d0b	0.23845308
6	0x3de28a1f	0.11061501
7	0x3caf23d4	0.021379389
8	0x3e646c68	0.22306979
9	0x3e0a3882	0.13498119
10	0x3ca03bc2	0.019559745
11	0xbc8fc2a4	-0.017548867
12	0x3d9ead87	0.077479415

running_var f4 [13]
0	0x3c4105b5	0.011781146
1	0x3af672b0	0.001880249
2	0x3b10c8ff	0.002209246
3	0x3bd36e61	0.006452367
4	0x3ae52819	0.0017483264
5	0x3ae9338e	0.0017791854
6	0x3b9de4c1	0.0048185294
7	0x3b0b9d81	0.0021303596
8	0x3bc2a8f6	0.005940552
9	0x3bbdec5e	0.0057959994
10	0x3ace370f	0.0015732961
11	0x3cdfc743	0.027316695
12	0x3c0db651	0.008649425

weight f4 [13, 13, 3, 3]
0	0x3c6072e2	0.013699265
1	0x3bd0a4d7	0.0063673067
2	0x3caba417	0.020952268
3	0x3d2c7d66	0.042111777
4	0x3d241d6a	0.040067114
5	0xbbed2c3c	-0.007237939
6	0xbc80370c	-0.015651248
7	0x3ba88c78	0.0051436983
8	0x3bcba40f	0.0062146257
9	0x3c5ae4d0	0.013360217
10	0xbc334023	-0.010940584
11	0xbd1ea9de	-0.038736217
12	0xba0981da	-0.00052454846
13	0xbb659fd1	-0.0035037885
14	0x3c4c0c6d	0.012454134
15	0x3c938cc4	0.018011458
16	0x3cccd7bd	0.025005216
17	0x3d2afeae	0.041746788
18	0x3d634bf5	0.05549236
19	0x3ca9fc5f	0.020750223
20	0x3d037264	0.032091513
21	0x3bcaec74	0.006192738
22	0x3b355838	0.002767099
23	0x3c94c2ee	0.018159356
24	0x3bd92102	0.0066262493
25	0xbaf89874	-0.0018966333
26	0xbc4c21ef	-0.012459262
27	0xbc2e0b00	-0.01062274
28	0xbb8e8411	-0.0043492396
29	0x3c127ba1	0.008940608
30	0x3c95bfbe	0.018279906
31	0x3e07e37e	0.13270375
32	0x3d42fdd2	0.047605343
33	0x3ce215b8	0.027598247
34	0x3d88b383	0.06674864
35	0x3c7a89e2	0.015291663
36	0xbcf8dfa8	-0.030380085
37	0xbca82ac1	-0.0205282
38	0x3b83466f	0.004006199
39	0xbd77234a	-0.06033639
40	0xbcd34938	-0.02579175
41	0xbd7b9c13	-0.06142814
42	0x3c9b5919	0.018963384
43	0xbcab7d94	-0.020933904
44	0xbce83659	-0.028346227
45	0xbc1026bc	-0.0087982975
46	0x3cc15500	0.023600101
47	0x3cfaf0ed	0.03063246
48	0x3b905fac	0.004405936
49	0x3cb1bd21	0.021696629
50	0x3cb5a223	0.02217204
51	0x3bffc30f	0.007805235
52	0x3be585bf	0.007004469
53	0xbbc8f8b8	-0.006133165
54	0x3c263ad3	0.010145861
55	0xbc280298	-0.010254525
56	0xbbca5d8b	-0.006175702
57	0xbd9b4049	-0.07580621
58	0xbdbecae6	-0.093160436
59	0x3bf99869	0.0076170457
60	0xbd8d4801	-0.06898499
61	0x3d5b2b4e	0.053508095
62	0x3cc9e362	0.024644557
63	0xbc7a5caf	-0.015280887
64	0xbd74bdb4	-0.059751227
65	0xbd490dac	-0.049085304
66	0xbc80ef51	-0.015739115
67	0xbd3280df	-0.043579932
68	0xbd40944c	-0.047016427
69	0x3d25f8ba	0.040520407
70	0xbc49d37d	-0.012318489
71	0x3c707cf8	0.014678232
72	0x3d262cfa	0.040570237
73	0x3b81ecca	0.003964995
74	0xbc1db3ce	-0.009625388
75	0x3d892dcc	0.06698188
76	0xbd664b64	-0.05622424
77	0xbd91063f	-0.070812695
78	0x3d1986fc	0.037482247
79	0x3bdec67f	0.006798565
80	0xbc93675b	-0.01799362
81	0x3d3029c6	0.04300859
82	0x3c2f9d6d	0.010718686
83	0x3c91c545	0.01779426
84	0xbc02d474	-0.007985223
85	0x3c870ed3	0.01648656
86	0xbb8807f5	-0.004151339
87	0xbc8e4860	-0.017368495
88	0xbd5a275b	-0.05326019
89	0x3cfbaa38	0.030720815
90	0x3c30ebe8	0.010798432
91	0xbd8862e6	-0.066594884
92	0xbd7d3685	-0.061819572
93	0x3c87e74c	0.016589783
94	0xbd30fb33	-0.043208312
95	0xbcaacab4	-0.02084861
96	0xbca07c59	-0.019590544
97	0xbd89db3d	-0.067312695
98	0xbc8fcbf5	-0.017553309
99	0xbc3c9140	-0.01150924
100	0xbd1c8faf	-0.038222965
101	0xbc4118f3	-0.0117857335
102	0xbb00d9da	-0.00196611
103	0x3c3499a6	0.011022961
104	0xbc2711fc	-0.010197159
105	0xbb9a79ca	-0.0047142254
106	0xbc7d9514	-0.0154774375
107	0x39b9abb0	0.00035413867
108	0x3c237f10	0.0099790245
109	0x3c73dd8e	0.014884366
110	0x3d117e5c	0.035520896
111	0x3d5f39e1	0.054498557
112	0x3ce366d3	0.027758991
113	0x3da4f223	0.080539964
114	0x3d5e97e9	0.05434409
115	0x3da2ff12	0.07958807
116	0x3cdbacc8	0.026815787
117	0x3b7623ca	0.0037557953
118	0x3d152a7f	0.03641748
119	0xbccfbcdd	-0.025358612
120	0x3d0af66d	0.033926416
121	0xbcc06398	-0.02348499
122	0x3bf489a2	0.007462696
123	0x3c9df3d6	0.01928131
124	0x3c370f37	0.011173061
125	0x3bc482c8	0.0059970357
126	0xbc561365	-0.013066147
127	0x3c0ad90c	0.0084746
128	0x3d23b318	0.03996572
129	0xbd58de2f	-0.052946266
130	0xbcb903a2	-0.02258474
131	0x3d3e2baf	0.04642838
132	0x3d2c8d85	0.04212715
133	0x3d103476	0.03520628
134	0x3b16faff	0.002303779
135	0x390e21c4	0.00013554754
136	0xbb3021e7	-0.0026875676
137	0x3c39e4fe	0.0113461
138	0xbbda6896	-0.0066652996
139	0x3ab158b7	0.0013530467
140	0x3d5c9138	0.05384943
141	0xbcd0874c	-0.02545514
142	0x3ca93be8	0.020658448
143	0xbbb5b45b	-0.0055451817
144	0xb8f62109	-0.000117363474
145	0xbbc48108	-0.005996827
146	0xbb9ac65f	-0.0047233547
147	0xbccb18aa	-0.024792034
148	0xba0ec237	-0.00054458104
149	0xbd94f6ed	-0.0727366
150	0x3ca59e8f	0.020217208
151	0xbcba318b	-0.022728702
152	0xbc39dc55	-0.011344035
153	0x3c92d849	0.017925398
154	0x3c190e67	0.009341813
155	0xbb8f445c	-0.0043721627
156	0x3ca74b51	0.020421656
157	0xbc50f155	-0.012752851
158	0x3d17f414	0.037098005
159	0x3cad5b02	0.02116156
160	0x3c7bef60	0.015376896
161	0x3cdf739b	0.027276805
162	0x3d01a89d	0.031654943
163	0xbc38c717	-0.0112779355
164	0xbc595d6f	-0.013266905
165	0xbcdcd79f	-0.026958285
166	0xbbcefe98	-0.006316971
167	0xbcd9670e	-0.026538398
168	0x3c972775	0.018451432
169	0x3cae0012	0.021240268
170	0x3cac98f0	0.02106902
171	0x3b8037bd	0.0039128945
172	0x3cfc1a6f	0.030774323
173	0xbcafea23	-0.02147395
174	0x3b173af9	0.0023075922
175	0x3d0c342f	0.034229454
176	0x3cb2e7fd	0.021839136
177	0xbd02a1e1	-0.03189266
178	0xbd3d8c89	-0.046276603
179	0xbd5bf46c	-0.053699896
180	0x3b9a4f06	0.0047091274
181	0x3ce1c351	0.027558954
182	0x3c122c49	0.008921691
183	0x3c1b77b8	0.009488992
184	0x3c74a699	0.014932298
185	0x3c391549	0.011296579
186	0xbc3f8244	-0.011688773
187	0xbb369a5f	-0.0027863008
188	0xbc17dc21	-0.009268791
189	0x3c4755e6	0.012166476
190	0xbb0966d5	-0.0020965834
191	0x3c209be3	0.009802791
192	0x3dbe4b82	0.09291746
193	0x3d250575	0.040288407
194	0x3cb80757	0.022464437
195	0x3cae7af6	0.021298867
196	0x3d00e1f6	0.031465493
197	0x3ca852ce	0.020547297
198	0x3d2447e5	0.040107626
199	0x39d9d8bf	0.00041550954
200	0xbd798d4b	-0.060925763
201	0x3c1d4204	0.009598259
202	0x3a7ff887	0.00097645115
203	0xbca19eef	-0.019729106
204	0xbd56f7f7	-0.05248257
205	0xbc983e8c	-0.018584512
206	0xbce5d9c7	-0.028057946
207	0x3c00d770	0.007863864
208	0x3c01e583	0.007928255
209	0xbb266be7	-0.0025393905
210	0x3cedf810	0.02904895
211	0x399e4d28	0.00030193594
212	0xbb97a16b	-0.004627397
213	0xbcb59433	-0.022165393
214	0x3b459044	0.0030145803
215	0xbca3c409	-0.019990938
216	0xbcc44801	-0.023960115
217	0xbc9069e6	-0.017628621
218	0x3c06b456	0.008221706
219	0x3c7cbe55	0.015426238
220	0x3ce4c066	0.027923774
221	0x3d890b55	0.066916145
222	0xbd0850e4	-0.03328027
223	0x3d75a832	0.059974857
224	0x38eb7606	0.00011227657
225	0xbcbe5561	-0.023234071
226	0x3a99240e	0.0011683719
227	0x39ef81c4	0.00045682315
228	0xbd84200d	-0.06451426
229	0xbd16d452	-0.03682358
230	0xbd658a66	-0.05604019
231	0xbb028fc8	-0.0019922126
232	0xbd03f261	-0.032213572
233	0x3d209d29	0.03921238
234	0xbc1603d0	-0.009156182
235	0x3d1d165f	0.038351413
236	0x3d0c4337	0.03424379
237	0x3d01a35d	0.031649936
238	0x3da773c1	0.08176375
239	0x3d089b60	0.033351302
240	0xbba9149f	-0.005159929
241	0xbcdf9a6c	-0.027295314
242	0xbb0b520a	-0.0021258616
243	0xbc1d152a	-0.009587565
244	0xbcad717e	-0.021172281
245	0xbc916996	-0.017750543
246	0xbc3917c3	-0.011297169
247	0xbca15d71	-0.019697877
248	0xbc44d215	-0.012012978
249	0x3a939cac	0.0011261902
250	0xbb41cd73	-0.002957192
251	0x3b307e43	0.0026930727
252	0x3ceeef33	0.029166793
253	0x3d0c2cfe	0.034222595
254	0xbcfaf7fc	-0.030635826
255	0x3c77ac91	0.015116827

bias f4 [13]
0	0x3d5ca256	0.053865753
1	0x3d64934c	0.055804536
2	0x3cdf4723	0.0272556
3	0xbe0c0452	-0.13673523
4	0x3d2359c4	0.03988053
5	0x3d3ae8b9	0.045632098
6	0x8000b391	-6.4416e-41
7	0x3dc557f0	0.09635913
8	0x3d01fd4d	0.031735707
9	0x3d51afc3	0.05119301
10	0x3d68aee3	0.05680741
11	0x3dbed40f	0.09317791
12	0x3d49e48b	0.04929022

weight f4 [13]
0	0x3dfbf86f	0.12303244
1	0x3e38f4b5	0.18062098
2	0x3ed87efd	0.42284384
3	0xbe768d30	-0.24077296
4	0x3f019b73	0.5062782
5	0x3e2f958b	0.1714689
6	0xbbc6d362	-0.0060676793
7	0x3e290855	0.16507085
8	0x3e7c01f9	0.24610128
9	0x3efc659c	0.49296272
10	0x3e1bb55e	0.15205905
11	0x3e17a00d	0.14807148
12	0x3e96b166	0.2943222

bias f4 [13]
0	0x3e500621	0.20314838
1	0xbd6d7c6e	-0.057979994
2	0xbdba07fa	-0.09083553
3	0x3dc24f94	0.094878346
4	0x3c64ba90	0.013960496
5	0x3f0d4745	0.55186874
6	0xbc2a7310	-0.01040341
7	0x3dcc9c9f	0.099908106
8	0x3e1ea293	0.15491705
9	0xbb1e19d1	-0.0024124274
10	0x3dd39165	0.10330466
11	0x3d9e1396	0.077185795
12	0xbd8d40e8	-0.068971455

running_mean f4 [13]
0	0x3d803827	0.0626071
1	0x3d73f15e	0.059556358
2	0x3e2433f1	0.16035439
3	0xbe08a3e8	-0.13343775
4	0x3d495529	0.04915348
5	0x3d3b0b73	0.045665216
6	0x3895fa89	7.1515395e-05
7	0x3c8c81fe	0.017151829
8	0xbd9ba741	-0.076002605
9	0x3ca3b6cb	0.019984623
10	0x3da22c45	0.079186
11	0x3e10c58c	0.14137858
12	0x3e0e130a	0.1387445

running_var f4 [13]
0	0x3b2b9d89	0.0026186428
1	0x3ba01996	0.0048858626
2	0x3dedf863	0.11619642
3	0x3aab57c5	0.0013072422
4	0x3d9b657a	0.075877145
5	0x3c064adc	0.008196559
6	0x33d9fcf8	1.0150865e-07
7	0x3abbc556	0.0014325778
8	0x3cf74d07	0.030188097
9	0x3d5369d7	0.05161461
10	0x3b830992	0.0039989436
11	0x3aa8c616	0.0012876417
12	0x3c67499b	0.01411667

weight f4 [13, 13, 3, 3]
0	0x3a7595a4	0.00093683065
1	0xbcfe7623	-0.031062191
2	0xbccdb5e5	-0.025111148
3	0xbc6f7b09	-0.014616736
4	0x3c20c85c	0.009813394
5	0x3ce2f0d7	0.027702732
6	0x3b7f17b3	0.0038924038
7	0xbbae9764	-0.0053281058
8	0x3c08736c	0.0083283
9	0x3d871ad1	0.06596912
10	0x3d07dc7c	0.033169255
11	0x3cf81a14	0.030285873
12	0x3d1cbdd6	0.03826698
13	0x3c8cc932	0.017185781
14	0x3d0d52aa	0.034502663
15	0xbbeaa3d0	-0.0071606413
16	0xbb66b6f0	-0.0035204254
17	0x3c19e59e	0.009393124
18	0x3c2e766a	0.010648349
19	0x3cc64467	0.024202539
20	0x3d5bc6e8	0.05365649
21	0xbd30ee94	-0.043196276
22	0x3bbe28bd	0.005803196
23	0x3d46bc18	0.048519224
24	0x3d142682	0.036169536
25	0x3db18499	0.08667869
26	0x3d37a864	0.044838324
27	0xbd135973	-0.035973977
28	0xbce985c4	-0.028506167
29	0xbc494153	-0.012283641
30	0xbc20ae68	-0.009807207
31	0xbd136166	-0.03598156
32	0xbd8e361e	-0.06943916
33	0xbc1fcaca	-0.0097529385
34	0x3ce0ac95	0.027426044
35	0xba3b89a3	-0.00071539934
36	0xbd67e202	-0.056612022
37	0x3c94c53e	0.018160459
38	0xbd8720dd	-0.06598065
39	0xbc0f9071	-0.008762465
40	0xbd5b183e	-0.053489916
41	0xbc65c082	-0.014022948
42	0xbc19cdbe	-0.009387432
43	0xbc85528b	-0.016274711
44	0x3c75db36	0.015005877
45	0xbca14294	-0.019685067
46	0xbcea8d2f	-0.028631775
47	0xbb0d5e36	-0.0021571047
48	0xbd11409f	-0.035462018
49	0x3d026972	0.03183884
50	0x3d9d478d	0.07679663
51	0xbc98552f	-0.018595306
52	0xbcd8ff4b	-0.02648892
53	0xbc0f19af	-0.008734151
54	0xb662fad9	-3.3822637e-06
55	0xb0c4bf35	-1.4315221e-09
56	0x33fca32a	1.1764344e-07
57	0x92aada0a	-1.0782259e-27
58	0x80019e1c	-1.48554e-40
59	0x28501dd0	1.1552784e-14
60	0xaed48ca8	-9.6656294e-11
61	0x30ee8656	1.735496e-09
62	0xabe45794	-1.6224682e-12
63	0xbc7993ef	-0.015233024
64	0x3c948116	0.01812796
65	0xbd6a71e8	-0.057237536
66	0x3d8dd792	0.069258824
67	0x3d596bda	0.05308137
68	0x3ce7ee4a	0.028311867
69	0x3c9e75d1	0.019343289
70	0xbbf20489	-0.0073857945
71	0x3b7a8fac	0.0038232608
72	0x3bf38716	0.007431875
73	0xbd4b55b7	-0.04964229
74	0xbc5c2a19	-0.013437771
75	0xbd6359f0	-0.055505693
76	0xbc9f9f73	-0.019485211
77	0xbc715c24	-0.014731441
78	0xbd578761	-0.05261934
79	0x3c5fcf6b	0.013660292
80	0xbc9eb23b	-0.019372096
81	0x3bbec9dc	0.0058224034
82	0x3d8193a1	0.06326986
83	0x3df64761	0.12025333
84	0x3dd46418	0.10370654
85	0xbb9d988b	-0.0048094443
86	0x3d136c39	0.03599188
87	0x3c71cdb4	0.014758516
88	0xbc368827	-0.01114086
89	0x3d45775b	0.04820953
90	0x3ca8eab1	0.020619722
91	0xbc4bd2eb	-0.0124404235
92	0xbc8987cd	-0.016788388
93	0xbc1a40f3	-0.009414899
94	0xbb80f9e5	-0.0039360397
95	0xbcc160a1	-0.023605647
96	0xbaa1065b	-0.0012285219
97	0xbc88b8d0	-0.016689688
98	0xbc65c50b	-0.0140240295
99	0xbc61fd1a	-0.013793254
100	0xbbd06d17	-0.006360661
101	0xbbe1bacf	-0.0068887244
102	0x3cd67469	0.026178556
103	0x3d0898e0	0.033348918
104	0x3d1953d2	0.037433453
105	0x3c6b526d	0.014362914
106	0x3d2b5991	0.041833464
107	0x3d62f19c	0.055406198
108	0x3bf81615	0.0075709918
109	0xbdb997fc	-0.09062192
110	0xbd97f6d9	-0.07420129
111	0xbd5bd3b3	-0.05366869
112	0xbdd2f57c	-0.10300729
113	0xbd130164	-0.035889998
114	0xbbc80e4e	-0.006105221
115	0x3cd2b6cc	0.02572193
116	0xbc1474a3	-0.0090610115
117	0x3c83d424	0.016092367
118	0x3d4a3f0f	0.049376544
119	0xbc847df5	-0.016173342
120	0xbd1a26e8	-0.03763476
121	0xbd646368	-0.055758864
122	0xbc80490f	-0.015659837
123	0xbb819312	-0.0039542997
124	0xbcb33284	-0.021874674
125	0x3cabc251	0.02096668
126	0x3c1e2cfd	0.009654281
127	0x3b384c3b	0.0028121609
128	0x3ce3f965	0.027828882
129	0xbd7054d1	-0.058674637
130	0xbcb805ec	-0.022463761
131	0x396c8b97	0.00022558715
132	0x3ca27187	0.019829525
133	0x3c893a5b	0.016751459
134	0x3cb08240	0.021546483
135	0x3cd347fa	0.025791157
136	0xbd308396	-0.04309424
137	0x3b1bac3f	0.002375379
138	0x3c8d459b	0.017245105
139	0x3c208b72	0.009798871
140	0x3c621ddb	0.013801063
141	0x3cc1737d	0.02361464
142	0xbd07ac3d	-0.033123244
143	0xbb1c36a3	-0.0023836277
144	0x3ba2be4a	0.004966532
145	0x3c8e8a17	0.01739983
146	0x3ca5a1c3	0.020218736
147	0x3ce07070	0.027397364
148	0x3da169a1	0.07881475
149	0x3c7523ab	0.014962117
150	0x3c6dba35	0.014509727
151	0x3d155ecf	0.03646737
152	0x3c7d530a	0.015461693
153	0x3d0d97bd	0.034568537
154	0xbd0bdce5	-0.03414621
155	0x3d45c730	0.048285663
156	0x3bb161dc	0.005413277
157	0xbda150f1	-0.078767665
158	0x3d4b763a	0.049673297
159	0x3d732d35	0.059369285
160	0xb93a23db	-0.000177517
161	0x3da59337	0.0808472
162	0xbccb380f	-0.024807004
163	0xbd144fe9	-0.03620902
164	0xba8fe0c6	-0.0010977022
165	0xbcccb6f1	-0.024989577
166	0xbe40d985	-0.18832977
167	0xbd12c17f	-0.035829064
168	0xbd01cf52	-0.031691857
169	0x3c3d9260	0.011570543
170	0xbc696b1f	-0.014246731
171	0x00046d2f	4.0651e-40
172	0x800529bd	-4.7415e-40
173	0x00029882	2.3838e-40
174	0x00013b46	1.13099e-40
175	0x0001341d	1.1053e-40
176	0x00009a52	5.536e-41
177	0x80055577	-4.89836e-40
178	0x8006990c	-6.05916e-40
179	0x00030696	2.77869e-40
180	0xbb660dbe	-0.0035103406
181	0xbac6537b	-0.001513108
182	0x3bc18916	0.0059062345
183	0xbc9c1be8	-0.019056275
184	0x3c4292d5	0.011875828
185	0x3c0f2797	0.008737466
186	0x3d180a1f	0.037119027
187	0xb9f6c8f2	-0.00047070492
188	0xbc004592	-0.007829087
189	0xbc7c0ce5	-0.015383934
190	0x3c4fd27a	0.012684459
191	0xbad1f757	-0.0016019148
192	0xbc5d1082	-0.013492705
193	0x3d20583b	0.039146643
194	0xbcadc315	-0.021211186
195	0xbd37f7cb	-0.04491405
196	0xbc2efbd8	-0.010680161
197	0xbd53f8fa	-0.051751114
198	0xbcef8549	-0.02923836
199	0xbd2fbe01	-0.04290581
200	0xbd4b5e19	-0.049650285
201	0xbd2e08f9	-0.042489026
202	0x3badd0d6	0.005304436
203	0xbcf3f665	-0.029780576
204	0x3c06e55a	0.008233393
205	0xbcc9c3f9	-0.02462958
206	0xbc54f306	-0.012997394
207	0x3a1b78b2	0.0005930766
208	0xbc636944	-0.013880078
209	0xbd3782fa	-0.044802643
210	0x3d642ffe	0.05570983
211	0x3c8ecfc7	0.01743306
212	0xbc809935	-0.015698055
213	0x3b3b368c	0.0028566448
214	0x3cb822f6	0.022477608
215	0xbcae1a99	-0.021252917
216	0x3bb33195	0.005468557
217	0x3d0ac826	0.033882283
218	0x3b7532a4	0.0037414217
219	0xbbb17550	-0.005415596
220	0x3a061b2f	0.0005115745
221	0xbc428f80	-0.011875033
222	0x3c514c87	0.012774593
223	0xb9e16d82	-0.00042996934
224	0x3c19c422	0.009385141
225	0x3ca13a96	0.019681256
226	0x3cbbd593	0.022928989
227	0x3d7f5bc4	0.062343374
228	0x3a5c8403	0.0008412005
229	0x3c8b13fa	0.016977299
230	0x3cffecb2	0.031240795
231	0xbcb0231d	-0.021501118
232	0xbcf064a2	-0.02934486
233	0x3d02c4cb	0.031925958
234	0x3c33c8f6	0.010973206
235	0xb95079bb	-0.00019881774
236	0x3c887c33	0.016660785
237	0x3c874def	0.016516654
238	0xbc48f87f	-0.012266277
239	0xbcd2378e	-0.025661256
240	0x3bfb5131	0.007669591
241	0x3c88263a	0.01661979
242	0x3d4f10b2	0.05055303
243	0x3d17c58e	0.037053637
244	0x3d12a388	0.035800487
245	0x3cdbf2d0	0.02684918
246	0xbc087fce	-0.008331252
247	0x3ca99706	0.020701896
248	0x3cca48f7	0.024692995
249	0xbd4a5e85	-0.049406547
250	0xbcf6fb4f	-0.03014913
251	0xbd21aedb	-0.039473396
252	0xbd239c54	-0.039944008
253	0xbd7edde6	-0.062223338
254	0xbb12318d	-0.0022307367
255	0xbc8c69a0	-0.01714021

bias f4 [13]
0	0x3d663c38	0.056209773
1	0x3d0ed5d9	0.03487191
2	0x3d05b46b	0.032642763
3	0x3d3e1009	0.04640201
4	0x3d30fa70	0.043207586
5	0x3d1e6555	0.038670857
6	0x3d238481	0.039921287
7	0x3d1c0fb8	0.038100928
8	0x3dac3d79	0.084101625
9	0x3dbae545	0.09125761
10	0x00004598	2.4966e-41
11	0x3d2cd788	0.042197734
12	0x3d263ac1	0.040583376

weight f4 [13]
0	0x3f0cac48	0.5495038
1	0x3dc88cb7	0.09792464
2	0x3e483fb6	0.19555554
3	0x3ef432c1	0.47694972
4	0x3f369d60	0.71333885
5	0x3efc197a	0.49238187
6	0x3de2a9d8	0.110675514
7	0x3e3be218	0.18347967
8	0x3f0ca81d	0.5494402
9	0x3f3686c9	0.71299416
10	0x3c2a244e	0.010384632
11	0x3f312468	0.69196177
12	0x3e8298cd	0.25507203

bias f4 [13]
0	0xbd974879	-0.0738687
1	0x3d38b5f9	0.045095418
2	0x3ce16c9d	0.027517611
3	0xbd551296	-0.052019678
4	0x3dc22900	0.094804764
5	0x3d549933	0.051903915
6	0xbcd02164	-0.025406547
7	0x3e1042b8	0.14087951
8	0x3c7c25a7	0.015389836
9	0xbe29784c	-0.16549796
10	0xbcedb94e	-0.029019024
11	0x3d72097d	0.05909108
12	0x3a635296	0.0008671669

running_mean f4 [13]
0	0x3cbefa50	0.023312718
1	0xbe1177cf	-0.1420586
2	0x3d993fe5	0.0748289
3	0x3e459286	0.19294176
4	0x3dd68369	0.10474283
5	0xbb135762	-0.0022482504
6	0xbc94c1cc	-0.018158816
7	0x3e5a99dd	0.21347757
8	0x3e8dc920	0.2769251
9	0xbd75af45	-0.059981603
10	0xba16f035	-0.00057578395
11	0x3d5655c0	0.05232787
12	0x3dc69f66	0.096983716

running_var f4 [13]
0	0x3d40ec65	0.047100443
1	0x3b80c5a3	0.00392981
2	0x3c9fc82a	0.019504625
3	0x3d852439	0.065010495
4	0x3e16aefc	0.14715189
5	0x3db51930	0.08842695
6	0x3b60d6f2	0.0034307805
7	0x3c3c2840	0.011484206
8	0x3cdfb198	0.027306363
9	0x3cff6311	0.031175168
10	0x370a1b8f	8.2318575e-06
11	0x3e199ac9	0.15000452
12	0x3ca6f604	0.020380981
