pre-trained-tp2/tiny_DnCNN_l1_usp_2000.pt (torch_old, 545436 bytes, 87 tensors)

weight f4 [13, 1, 3, 3]
00000000: 04c4 c7bd 79bf 01be 7542 b8bd ad6c 95bd
00000010: 3856 adbd dc12 87bd 59e5 30bd 9a09 0c3f
00000020: 4baf d3bc 4938 813d a0f8 9c3d 266f 663d
00000030: 3efb 0e3e 97c9 38bf cec7 da3d 2f28 b23d
00000040: 521d 273e ef21 be3d d04e 903d d82c 6a3e
00000050: 4698 c03d 9caa 4abe 1669 8f3e 2c48 6cbd
00000060: 9d4d 3ebd d3f9 b2be 1355 46be e65c 05bc
00000070: 5d14 af3b 642c 07bd 591c 1d3f fb88 1c3c
00000080: 69d7 56be 0e6a bdbc def7 b5bd dff3 90be
00000090: 017c 4e3b dcfd 4fbb ad78 42bb 9e92 08b8
000000a0: fe17 6d3b 7030 bdbb 4d43 edbe 3ffe f13e
000000b0: 42e3 01bc caf2 fcbe b8b7 3fbd d9d7 593e
000000c0: d661 e0bc 7ad9 643d 1a79 953e 1838 04bd
000000d0: e452 86bb 0e65 313d a710 af3d 6b56 803e
000000e0: dd5e a03d 8206 19bd a7fa 1fbf babc a93d
000000f0: fbb1 f0bc 6067 523d d787 fa3a 1877 a3bc
00000100: 0f97 053f 932c 13bc eb77 7abe d475 74bd
00000110: b96b 1ebd d736 8ebd 707e 56bd 3794 4dbd
00000120: a2a4 1f3d 9fe4 363e 3d9f ab3e e616 9bbd
00000130: c71f 0b3e d129 973e 4b4f 5cbd 633b d1bd
00000140: 129b 143d 222e aabd 8e9e 22be f3f5 88bd
00000150: cb85 cbbd 8a5d 203f cf97 d2bd 8c70 5abd
00000160: e53c e3bd a3f8 5abd 221e 013f cd6d 9cbd
00000170: d560 59bd be1e 663c 3f96 9cbd d9fa 1fbe
00000180: a733 833c bb3d 31bd 62fd 68bd e429 043f
00000190: 9563 04bf f8c9 8a3b 5f8a 54bc ab2c 363b
000001a0: 62b1 193b d33c b1bb 78dd 8abb c68e cc3b
000001b0: dc38 a5bd d4fc 80be 5fb2 01bd fbf9 11be
000001c0: 780a 8abe a71b 11be b25b 113d 6d7e 6abd
000001d0: 2c07 17bd
-0.09754184 -0.12670697 -0.08997051 -0.07296119 -0.084637105 -0.06595394 -0.043187473 0.5470215
-0.025840422 0.06309564 0.07664609 0.056258343 0.13963029 -0.721826 0.10682641 0.08699071
0.16319779 0.09283816 0.07046282 0.22868669 0.09404044 -0.19791645 0.28009862 -0.057686016
-0.046460737 -0.34956226 -0.1936839 -0.0081398245 0.0053430037 -0.03300132 0.6137138 0.009554143
-0.2098061 -0.02312186 -0.088851675 -0.2831106 0.0031507018 -0.0031737005 -0.002967398 -3.2561475e-05
0.003617763 -0.0057735965 -0.4634041 0.47264287 -0.007927718 -0.49403983 -0.046806067 0.21273746
-0.027390402 0.055871464 0.29193956 -0.032280058 -0.004099237 0.043309264 0.08548098 0.25065932
0.07830594 -0.037359722 -0.6249184 0.0828795 -0.029381743 0.051368117 0.001911397 -0.01995425
0.5218362 -0.008982795 -0.24459808 -0.059682682 -0.03867695 -0.069440536 -0.052366674 -0.050190177
0.038975365 0.1786065 0.33519927 -0.07572727 0.13586341 0.2952409 -0.053786557 -0.10216405
0.0362807 -0.083095804 -0.15880796 -0.06687536 -0.09937628 0.6264273 -0.102828614 -0.05332999
-0.11095599 -0.053459775 0.50436604 -0.0763813 -0.05307086 0.014045415 -0.07645845 -0.15623035
0.01601584 -0.04327176 -0.05688227 0.5162642 -0.5171445 0.0042355023 -0.012972443 0.002779762
0.0023451676 -0.005408862 -0.004237827 0.006242606 -0.08067486 -0.25192893 -0.03166425 -0.14255516
-0.26961112 -0.14170705 0.035487838 -0.057249475 -0.036872074

bias f4 [13]
00000000: e2d0 513d c302 843d 1eb2 033d ad44 7e3d
00000010: 7429 8a3d eb9c 793d 3e67 4c3d cf3f 47bd
00000020: b1e8 1b3d 0d2e bb3d 31d2 7c3d 65f2 873d
00000030: 2065 433d
0.051224597 0.06445839 0.032152288 0.062077213 0.06746188 0.060940664 0.049903147 -0.048644837
0.03806371 0.09139643 0.06172389 0.0663803 0.047703862

weight f4 [13]
00000000: 8601 913e 5787 eb3e a949 433e 50ad ec3e
00000010: 4121 e13e 9237 b83e 830f 9a3e 8dbf 92be
00000020: e0c1 933e 8141 113f 78cd a33e dd10 e43e
00000030: 6a5b 923e
0.28321475 0.46001694 0.19071068 0.46225977 0.43970683 0.35979897 0.3008996 -0.28661767
0.28858852 0.56740576 0.31992698 0.44544116 0.28585368

bias f4 [13]
00000000: 5229 8e3e 3c84 903e 0707 323f 71fa b2bd
00000010: c1a6 c73d 2ac4 dc3d 06e1 db3d 7752 433d
00000020: 042b a5bd 7725 bc3e 265c 6b3e c6d9 393c
00000030: e240 2f3c
0.277659 0.28225887 0.6954197 -0.08739174 0.09748603 0.10779603 0.10736279 0.047686066
-0.08064845 0.36747333 0.2298437 0.011343425 0.010696622

running_mean f4 [13]
00000000: daac d73c 75a1 a63d ee48 27bd afc1 6e3d
00000010: fc7b 913d b799 833d ad81 b4bc 31be 6bbd
00000020: 182d c73e 47db 633d 4d59 b53d 66be 693d
00000030: f9a7 c8be
0.02632754 0.08136264 -0.040841036 0.05829018 0.07103726 0.06425803 -0.02203449 -0.057554428
0.3890159 0.05562904 0.088549234 0.057066344 -0.39190653

running_var f4 [13]
00000000: 37c3 9b3c 2625 f83c 9ef5 a53c 4c2c eb3c
00000010: 05b7 ad3c 90ab b53c e467 c63c 0499 983c
00000020: 719d db3c e1b0 bf3c 7dbf 893c d858 d33c
00000030: deda ce3c
0.019013984 0.030291151 0.020258721 0.028707646 0.021205435 0.022176534 0.02421946 0.018627651
0.026808472 0.023399772 0.016814942 0.0257992 0.025250848

weight f4 [13, 13, 3, 3]
00000000: 0404 c13a 0ccb 02be 3a92 723c 70ae a1bd
00000010: be9d 8fbd ed2d d4bb 8fc3 28be 74c2 54be
00000020: cfc9 c7bd ebef 6cbe 314b 7bbe 9918 cbbd
00000030: a753 54bd e3c8 423c 309c b03d 64d4 b13d
00000040: ec7a 2b3e a23e 063e 77a7 dcbd 1b54 613e
00000050: a2fa e7bb 4cc6 43bd b830 983e 572c aebd
00000060: cb6e 93bd c744 763e fcd9 483d 2618 983b
00000070: ab50 1f3d 9899 abbd d3dd 023d b740 2a3d
00000080: 0399 b73d 9a2c e73b 3c49 713b 23d0 603d
00000090: e787 87bd 06b5 ca3c 0696 c93d e15b 0b3d
000000a0: fe14 b63c 0210 8dba 3431 463d f07a 113d
000000b0: b97f 183d e701 b53c efaf 5fbc a318 873c
000000c0: 5537 6dbd 34ef 23bd dca7 963d 96dc 8e3d
000000d0: 96ac cbbd 9f23 e0bd 5c90 89bd 2687 4bbd
000000e0: c529 bd3c 79f4 61bc b4f6 023e 6c2b 15bd
000000f0: 98b0 4a3d d1e0 4a3e c28b afbd e705 093d
00000100: 28f7 783c 3411 97ba 5c59 173d f3f4 ccbd
00000110: 915b 69bd 3259 b9bc 5d43 8a3d b6df 8cbd
00000120: 0cca d03d 2ea7 023e 7d09 983d 5510 be3b
00000130: a18c cebd 91a9 75bd ffaa 993d 024f 8f3c
00000140: 3d73 653c 98c0 773c 2e49 893b c5be 943c
00000150: dac2 1f3e 259a 1f3e 202e 22bb 6fe8 603d
00000160: e6bc 973a abde b4bc 8d5b 0d3e 6123 343e
00000170: 58ea f63c c5f0 943d bcc3 8abd fd8d 2bbc
00000180: 58c7 f93c 65fb 88bd 7871 3a3d 24e3 84bd
00000190: dbaf a2bd 53b1 19bd 69e9 e53c acbd 123e
000001a0: 78ae 78bc 32f5 753d 420d 83bc fadd 19be
000001b0: 26e5 e43c 1edc 4fbe c4bc dabd f178 2a3e
000001c0: a9b3 393d 750c 973d 0b3a e63c 122f a7bc
000001d0: 3bdf 86bd cfe2 b23c edf8 cbbc e8d2 7c3a
000001e0: 20ab 563d 0b8c dc3d 51f9 063d 0c4d cf3d
000001f0: 2c4b 5c3e 1b89 253e 3777 6bbc f818 883e
00000200: da3e 82bd 6061 a93d b782 603e 9a29 253d
00000210: a126 f5bc 3daf 9bbd 7e4f 50bd 1226 ddbd
00000220: b5d9 0f3d 0b67 dbbd 8716 a4bd d7bf 4c3e
00000230: 3d81 e2bd 5673 1fbe 214d 043d 7a4c f3bd
00000240: 6c50 42bd d1fe bdbb a875 8a3e 592b c33d
00000250: b322 423d aca9 8cbd 7360 0e3d 2f5b 073d
00000260: b6ab 813c a8ee d03d 5e11 fc3c 6ffb a0bd
00000270: 8636 8f3b ca28 213d 4b3b 7a3d d397 c6bc
00000280: 4cff a6bb 8b29 37bd 0c0f b53d ca9d 8f3d
00000290: f261 a83c 4c02 be3d 94f6 d8ba 8518 593e
000002a0: c321 03be 919a 90bd b3a9 ed3c 2757 f43c
000002b0: 0fce 033e 313d 903c fced c33c f627 543c
000002c0: f1c8 023d 5d28 80bd a4c9 08bd 8993 6dbb
000002d0: a098 1f3d 790c d43d 49fa 6c3e 5e2b 453d
000002e0: b748 773e b98b bb3b d8e0 b5bc ecb6 eebd
000002f0: a70b 48bd 826b 153e 1115 233e 1b07 833d
00000300: 2da0 4d3e f3c8 8a3d 7757 d7bb 85f6 7c3d
00000310: 190b 903d 2703 423d 95ce 53bd 07a5 eebd
00000320: 1446 e3bc a5c4 333c 5ba4 a13d 0598 f43d
00000330: deb5 7b3d 58b6 7b3d 1d3b 0c3d 8479 ce3d
00000340: 58cf 04bc 6d64 183c 53f0 fa3d c26f babc
00000350: e873 eebd 5c00 ef3d ff8c 283c 7914 243d
00000360: d32e c0bc f5c0 353d e07f f3bc 33b4 c63b
00000370: caef 0d3e 04c9 293e 595e f4bd 3214 41bd
00000380: 48d3 513c 2d3f 0ebe 29c7 a13b 07b8 53be
00000390: 8586 03be f292 633e 0256 663c 7b27 22be
000003a0: cba0 25bd 7052 31be 38dd a6bd 3157 04be
000003b0: 439b 82be 3a04 6cbd 48ae fc3d 97be 653c
000003c0: eaf9 06be e4a3 c3bd 3db6 dbbd 834d d33c
000003d0: 7d32 f0bb 0d84 9d3c 7291 21be 6273 e5bc
000003e0: 13c1 4a3d 45c1 0b3d 663f 873d c840 553d
000003f0: a2e7 47be e5d8 a3bd 9bcd 0ebe e25a 303d
0.0014725928 -0.12772769 0.014805371 -0.078945994 -0.07012509 -0.0064752013 -0.1648085 -0.20777303
-0.09755289 -0.23138396 -0.24540402 -0.09916801 -0.05183759 0.011888715 0.086235404 0.086830884
0.1674611 0.1310983 -0.10774129 0.2200474 -0.0070794383 -0.047796533 0.2972467 -0.08504551
-0.071988665 0.24049674 0.04903601 0.0046415506 0.03889529 -0.08378905 0.03194983 0.041565623
0.089647315 0.0070548775 0.0036817333 0.054885995 -0.06617718 0.024744522 0.09843068 0.03402317
0.022226807 -0.0010762217 0.048386768 0.035517633 0.03723118 0.022095634 -0.013652786 0.01649124
-0.057914097 -0.040023044 0.073562354 0.06975667 -0.099450275 -0.10944294 -0.067169875 -0.049689434
0.023091206 -0.013791197 0.12789422 -0.036418363 0.04948482 0.19812323 -0.085715786 0.033452895
0.015195645 -0.0011525513 0.036950454 -0.10007658 -0.05697209 -0.02262554 0.0675113 -0.06878607
0.101947874 0.12759086 0.07423685 0.005800287 -0.100854166 -0.059976164 0.07503318 0.017493729
0.014004526 0.0151216015 0.004189632 0.018157372 0.15601674 0.15586145 -0.002474673 0.054909166
0.0011576682 -0.022078833 0.13804455 0.17591621 0.03014104 0.07272486 -0.067756146 -0.010470864
0.030490562 -0.06688575 0.04551837 -0.06488636 -0.07943698 -0.037522625 0.0280654 0.14330167
-0.015178315 0.06004829 -0.015997533 -0.15026084 0.027941298 -0.20298812 -0.106805354 0.16647698
0.045337353 0.07375423 0.028103849 -0.020408187 -0.065855466 0.021836666 -0.02489897 0.00096444646
0.05240929 0.107688986 0.03295261 0.101221174 0.21513051 0.16165583 -0.014371685 0.2658155
-0.06359644 0.08270526 0.21924864 0.040322877 -0.029925646 -0.076017834 -0.05085706 -0.10798277
0.03511973 -0.10713013 -0.08012109 0.19995056 -0.110598065 -0.15571341 0.03230012 -0.11879821
-0.047439978 -0.0057981987 0.2704289 0.09529752 0.047396373 -0.068683 0.03475995 0.033045944
0.015828948 0.1020177 0.03077 -0.07860457 0.0043705134 0.03934554 0.061091702 -0.024242317
-0.0050963517 -0.044717353 0.088407606 0.07012518 0.020554516 0.09277782 -0.0016552978 0.2120076
-0.12805848 -0.07060731 0.029011583 0.029826714 0.12871574 0.017607303 0.02391719 0.012948981
0.031929914 -0.06257699 -0.033395424 -0.0036251268 0.038963914 0.103539415 0.23142351 0.04813706
0.24148832 0.0057234433 -0.02220194 -0.11655983 -0.048839238 0.14591792 0.15926005 0.0639784
0.20080633 0.06776609 -0.006571706 0.061758537 0.07033367 0.047366288 -0.051710684 -0.1165257
-0.027743377 0.010972177 0.078926764 0.11943058 0.06145274 0.061453193 0.034236062 0.10081771
-0.008106075 0.009301287 0.122528695 -0.022758368 -0.11643201 0.116699904 0.010287522 0.040058587
-0.023459828 0.04437347 -0.029724061 0.006063962 0.13861004 0.16580588 -0.11932058 -0.0471384
0.012806721 -0.13891287 0.004937072 -0.2067567 -0.12844284 0.22224024 0.014058592 -0.15835373
-0.040436547 -0.17316604 -0.08147663 -0.12923886 -0.2550908 -0.05762122 0.12337929 0.014022491
-0.13181272 -0.09552744 -0.107281186 0.025793796 -0.0073302374 0.019228006 -0.15778139 -0.02800912
0.049500536 0.034119863 0.06603889 0.052063733 -0.19521955 -0.08000354 -0.1394562 0.043055423

bias f4 [13]
00000000: 1699 0f3d f486 073d e602 413d 4730 a23c
00000010: c7d1 f73c 1e17 263d 8f15 053d 845d 243d
00000020: d39f ac3c 6194 523c 4c15 773d 65ca ec3c
00000030: e65f 3c3d
0.035058104 0.033087686 0.047121905 0.019798411 0.030251397 0.04054939 0.032491263 0.040128246
0.021072304 0.012852759 0.060323045 0.028905103 0.045989893

weight f4 [13]
00000000: 4a48 733e 953d b43e 5db7 d83e a5c7 1f3f
00000010: 8035 333f 8c61 9a3e 7388 bf3e 0c21 9c3e
00000020: 188e a63e 8bb3 de3e fda1 5c3f f0d9 243f
00000030: f6fe 223f
0.23758045 0.35203233 0.42327395 0.6241401 0.7000351 0.30152547 0.3740879 0.30493963
0.32530284 0.43496355 0.86184675 0.64395046 0.6367029

bias f4 [13]
00000000: 180e a73e 666d 1dbe 100a 84be 77ae 193e
00000010: 9320 8e3c 813a 04be 094f 43bc c90b 8e3e
00000020: e664 173e b999 043f 79a6 1abf d20d a83e
00000030: 610c 6bbe
0.3262794 -0.15373763 -0.25788927 0.1500796 0.017349517 -0.12912942 -0.011920699 0.27743366
0.14784583 0.5179706 -0.6041027 0.32823044 -0.22953941

running_mean f4 [13]
00000000: 1453 d43e 6cb5 ef3e da30 473d faf5 a93f
00000010: c061 82be 3cb4 243f 3b97 113c 213a a5be
00000020: 65e2 233f 7800 8f3d 46e6 563e be8f 1f3d
00000030: 37af 143e
0.41469634 0.468181 0.048630573 1.3278191 -0.25465202 0.64337516 0.008886154 -0.3227091
0.64017326 0.06982511 0.2098628 0.038955443 0.14519964

running_var f4 [13]
00000000: cee3 dc3c b044 613d 1ff3 273d 28e7 063f
00000010: 9d3c a83e f191 e53c 11af b33d dba2 0f3d
00000020: f696 143e cadb 2b3f 0582 ea3d 0847 983e
00000030: 7225 c93d
0.026964094 0.054997146 0.041003343 0.52696466 0.32858744 0.028023692 0.08773626 0.03506742
0.14510712 0.67132246 0.114505805 0.29741693 0.09821595

weight f4 [13, 13, 3, 3]
00000000: 03a7 45be 10a3 31bc 25a5 fcbc 3357 bdbd
00000010: 8500 8d3d 4b9e a73d 01ad 9bbd e5ca e5ba
00000020: dfa4 2e3c 09fa 42bd 3e1c d0bd f5f6 f1bc
00000030: b3e4 cabd fe56 b03d 38ea 443e d71b fe3b
00000040: 527c 4fbd 1fef e33d e77e 093e 5e18 aa3d
00000050: e80f dabd e932 103e cbc6 3e3d 3191 e6bd
00000060: d968 4b3e 8d5a 723d 1a19 38be 13fd e63d
00000070: d65c ad3d a59a 0d3d 81a1 823d 3345 dd3e
00000080: 6d9b 32bd 757e 7d3d d4d5 ce3d 2ac7 af3d
00000090: 1a8a 02bc f554 c4bd abe9 0cbc fb25 d83d
000000a0: 68ce 6cbe fe27 20bd b28c c2bb 21bb 44be
000000b0: 4f86 08bd 513f c5bc 1ae2 8bbc 2cd5 043e
000000c0: 86d2 30bd 52fd 443d 51e7 453e 4970 263c
000000d0: da26 a0bc 730a 0a3d 9bbd ad3c 63ee 1f3d
000000e0: 72aa d1bc 7a41 c5bc bea4 723d 640d 86b8
000000f0: 7f44 78bc 9441 c4bd 6a64 8dbc d5ee e4bd
00000100: f80b 95bd c51c 9fbd eec7 69be 7543 ee3b
00000110: c05c 5ebd ede4 72be 3250 1ebd fe6b 66bd
00000120: 8166 693c 4b48 e1bd df5a 92bd 56cc cebb
00000130: ff5e cdbd 481e ab3c e223 08bc fdb7 5bbd
00000140: 4c3b 3bbc d6c0 393d d83a f33a 6eda 5e3b
00000150: d1b2 2a3e 4073 183f c913 863d fc28 433c
00000160: e67e d3bb 0ae5 54bd 5725 3cbd 1590 24bd
00000170: 49ef b53c fe0d 8bbb 0cf7 403c 3050 2c3e
00000180: d7d5 023d 62f8 003e c405 123d d862 813d
00000190: db8c acbd 5617 cabd bf75 8ebc 7d0b 03be
000001a0: 9904 18be cd36 f53b b5c7 cdbd 4422 17bd
000001b0: 8c84 2ebd 9e4f ec3c f3e3 12bc fcf9 a83d
000001c0: 4f00 483d 0764 403d 5ef6 d5bd f1e9 83bd
000001d0: c8c5 813d 3811 f4bd 105b 52be 4a77 28be
000001e0: c944 88bd 0ae4 b13d 6771 be3d ef7d e83c
000001f0: 11a8 d03d b76b 553d ec13 cebd 0afd a7bd
00000200: ecbf d7bd f9cc 5cbe f3b1 6a3e a911 64be
00000210: 6cc8 a5bd 1d8b f4bc a86d 01be f727 e83d
00000220: 5ad6 103e 968a f83c 4688 273e 65db ca3d
00000230: b92c 5f3d 0853 0f3e e081 c43d d9eb af3d
00000240: 8384 97bc 7f75 ab3d 5088 9d3b b5a7 003d
00000250: eaa8 743e 6843 193d a56a d23c 0978 6bbd
00000260: 2b82 74bd 1663 703d e3a4 3a3e 0e39 d93d
00000270: eea6 ca3d 7382 ff3e b08c 1e3d b26f 1fbd
00000280: 4763 45bc 89d3 4d3c a19d 87bc 591b 003c
00000290: b1dc bdbb 18da 18be 6198 d9bd 9e09 0abe
000002a0: 47f8 fbbd 372b 03be 8cf3 78bd 85df f43c
000002b0: b6f1 a6bd 5c67 063e eae1 443e acf0 18bd
000002c0: 9a9d 2c3d d1ad 8e3d e08b c03d afb4 483d
000002d0: 6572 91bd ebff 28bd c6ce b13c 5599 09be
000002e0: d847 3f3c 7fe7 5c3e 677e a5bd 885e 723c
000002f0: 295d dbbc 9d5c dbbc dc63 dfbc a245 4fbd
00000300: 1365 fabc adaa 54bd 056b 4abe 792f 29bd
00000310: 0ddf 38bd 69bf b9bd 1cc9 10bb 23da 9a3d
00000320: 9c74 12bd 3d4d 5e3c b0af 1f3a 8355 a0bd
00000330: 0f53 3fbd 1239 b6bc 93f5 e43c 1507 8abd
00000340: eddd 3abc 13f9 d9bd ece8 29be 4505 b6be
00000350: 1be9 06be 12cc 02bd 7531 29bd 3932 88bc
00000360: b634 e73d 550f 863e e685 a43d 8773 113e
00000370: f162 023d 3beb 323e 8377 113e 1cea 933d
00000380: 30a4 c73d a619 07be ae4d 85be 1b3c 11bc
00000390: 4b0c da3c bd39 18bd 0e4f a53d 2a86 a6bd
000003a0: cd0d 9bbd 1315 6cbc 2b0b 9ebd 4d73 43bd
000003b0: 97de 7bbd df8c 163c 67bc 663d ee15 cf3c
000003c0: a253 df3d 7369 203e 4ffb d43d fa89 bcbb
000003d0: 5bb6 b13c e5bf 24bd 810d f93b 9789 fbbc
000003e0: 0c89 82bd 3108 ec3d cec5 68bd 27c9 d0bd
000003f0: 30a0 f93c fd78 743d 6d7f 933d 9d75 eeba
-0.19301991 -0.0108421 -0.030840466 -0.092451476 0.06884865 0.08184489 -0.07601357 -0.0017531781
0.0106594255 -0.047601733 -0.10161637 -0.029536704 -0.09906902 0.086103424 0.19229972 0.0077547836
-0.05065567 0.11129593 0.13427316 0.08305429 -0.10647565 0.1408192 0.046576302 -0.11258162
0.19864215 0.059168387 -0.17978325 0.11278739 0.08464973 0.03457131 0.06378461 0.43216857
-0.043605257 0.061888177 0.10099378 0.085829094 -0.007967496 -0.09586517 -0.008600633 0.10554119
-0.23125613 -0.03910064 -0.0059371823 -0.19212009 -0.03333121 -0.024078043 -0.017075587 0.12971944
-0.04316952 0.048093148 0.19326521 0.010158607 -0.019549776 0.03370137 0.021208575 0.039045703
-0.02559397 -0.024079073 0.05923914 -6.392112e-05 -0.0151530495 -0.095828205 -0.017259795 -0.11178366
-0.072776735 -0.07769159 -0.22830173 0.007271225 -0.054287672 -0.23720141 -0.0386507 -0.056255333
0.01424563 -0.11000117 -0.071462385 -0.00631098 -0.10027885 0.020888463 -0.008309336 -0.05364226
-0.011427712 0.04534992 0.0018556966 0.0034004706 0.16669776 0.5955086 0.065467425 0.011911627
-0.0064543365 -0.05197624 -0.045934048 -0.04017647 0.022208827 -0.0042436114 0.011777651 0.16827464
0.031942215 0.1259475 0.03565003 0.06317681 -0.084253035 -0.09867732 -0.01739013 -0.12797351
-0.14845504 0.0074833394 -0.10047857 -0.036897913 -0.042606875 0.028846558 -0.00896548 0.08250806
0.04882842 0.046970394 -0.104473814 -0.06441105 0.06336552 -0.11917347 -0.2054255 -0.16451755
-0.06653745 0.08686073 0.092989735 0.028380362 0.10188306 0.052104678 -0.100623935 -0.0820256
-0.10534653 -0.21562566 0.22919445 -0.22272362 -0.08094868 -0.02985149 -0.12639487 0.11335748
0.14144269 0.03033952 0.16360578 0.099051274 0.05448601 0.13996518 0.09595084 0.08589906
-0.018495804 0.0837202 0.0048075095 0.031409938 0.2389256 0.0374178 0.025685618 -0.05748752
-0.05969445 0.058688246 0.18226962 0.106065854 0.098951206 0.49904212 0.03870839 -0.03892488
-0.012047595 0.012562641 -0.016554656 0.00781902 -0.0057941307 -0.14926946 -0.10624767 -0.13480231
-0.123032145 -0.12809454 -0.06077914 0.029891739 -0.081515715 0.13125366 0.19226804 -0.037338898
0.042142488 0.069667466 0.09401679 0.04900044 -0.07101897 -0.041259687 0.021705043 -0.13437398
0.011674844 0.21572684 -0.0808075 0.014793046 -0.02677782 -0.02677756 -0.027269296 -0.050603516
-0.030565774 -0.05192058 -0.19767387 -0.04130504 -0.045134593 -0.09069712 -0.0022092527 0.075611375
-0.03575574 0.01356822 0.0006091548 -0.0782881 -0.04671007 -0.02224401 0.02794913 -0.06739632
-0.01140545 -0.1064321 -0.16592759 -0.35550895 -0.1317486 -0.031932898 -0.04130693 -0.01662551
0.11289351 0.26183572 0.080333516 0.14204226 0.03183264 0.17472546 0.14205746 0.07222387
0.09748113 -0.13193378 -0.26035827 -0.008864428 0.02661719 -0.03716444 0.08071719 -0.081310585
-0.07570992 -0.014409321 -0.07716974 -0.04771738 -0.061491575 0.00918886 0.05633202 0.025279012
0.109046236 0.15665226 0.10399496 -0.005753753 0.0216934 -0.040222067 0.0076004867 -0.030705256
-0.06373796 0.11525 -0.056829266 -0.10194617 0.030471891 0.059685696 0.07202039 -0.001819301

bias f4 [13]
00000000: 8c3d a33c 1af8 ae3c 4ba0 923c aba0 5d3c
00000010: 8ae2 043d 3d73 963c 45bd 143d 6bf5 833c
00000020: a136 df3c 0ef7 9e3c 9ce3 de3c d4b4 803c
00000030: 5261 1a3d
0.019926809 0.021358538 0.0178987 0.013527076 0.032442607 0.018365497 0.036313314 0.016108235
0.027247729 0.019404914 0.027208142 0.015711226 0.037690468

weight f4 [13]
00000000: 66fd e33e 608b 783e 9c83 093f 5be5 f43e
00000010: 04f7 613f 2ded c63e 859c ee3e 6d41 963e
00000020: 784c 713e e49e de3e 0ac4 623f ffa6 003f
00000030: 9b00 df3e
0.44529265 0.24271917 0.53716445 0.47831234 0.8826754 0.38852826 0.4660379 0.2934679
0.23564327 0.434806 0.8858038 0.50254816 0.4355515

bias f4 [13]
00000000: da4c d03e a459 023e 9e36 053e 6e2d 823e
00000010: ef8a 05be 7f72 ac3e 2b9c 60bd 18f9 af3e
00000020: 3ca7 733e 42f0 a83d 06d0 8c3e 2490 003f
00000030: d48a 0c3e
0.40683633 0.12729508 0.13009116 0.25425285 -0.1304128 0.33681104 -0.054836433 0.3436973
0.23794264 0.082489505 0.2750246 0.5021994 0.13724834

running_mean f4 [13]
00000000: 514b 0f3d ee33 f53e 130e ab3e 16ba b53e
00000010: d9ec c1be 6f7e f93e 3b2a 16bf ae94 163f
00000020: 0607 c93c ad3e 723f 40f0 5fbe 2074 0c3e
00000030: e188 3fbe
0.034983937 0.47891182 0.33409175 0.35493535 -0.37876013 0.48729274 -0.5865819 0.5882062
0.024539482 0.94626886 -0.21868992 0.13716173 -0.18704559

running_var f4 [13]
00000000: dadc b43e 13c5 b53d 8637 f53e 9c86 463f
00000010: 7d90 f43e 7c8c 8f3e edc2 bc3d 63c7 503e
00000020: 284b 203d 946c 873e 23e6 303f 2b1f 203f
00000030: 3912 7d3d
0.35324746 0.088754795 0.47893924 0.7754915 0.47766486 0.2803687 0.09216867 0.2038856
0.039134175 0.26450026 0.6910116 0.6254756 0.061784957

weight f4 [13, 13, 3, 3]
00000000: b8a1 083d 4791 4e3d e681 343c 386c aa3d
00000010: c3c0 1e3e 2d08 d03d 1175 f23d 7f76 0e3e
00000020: 7247 2c3e cc4a 203d fbef 383d 21f4 4b3d
00000030: fad6 2d3d b7eb 3b3c 762c e13a 9fd7 333d
00000040: 377b b0bd cf28 c8be 3392 053c 16eb 6c3b
00000050: 926e 2bbc ea3f 053c 8030 45bc dc6c 88bd
00000060: 707a a73a 95b2 d2bd db0c b2bd 5491 f5bc
00000070: 1e2d f5bc 0e02 58bc 514a debc f020 093d
00000080: a26b 673e 93f7 2fbd 2901 8abd 5903 81bd
00000090: 5887 4a3d 8b12 c13c 2dee 9d3d 3bab 2abd
000000a0: 7d2e 80bc e199 133d 2c9d f03c 9931 173d
000000b0: ddfa d23c 37a8 f7ba 4a80 e0bd 2a35 cfbd
000000c0: a314 963d 08c1 bc3c d510 debd d0e9 953c
000000d0: 08e6 703d 8b7a 963d 68ae d1bd 6633 f0bd
000000e0: d248 dcbd 03b0 01be 727c 743c 5580 813d
000000f0: 7e52 25be 4859 a43d 4c63 ea3d a0eb a3bd
00000100: 14e5 5a3d 038f 56bc b779 f4bd 3447 743c
00000110: d987 133d 673b d4bd 3344 803c 6f5c 3cbd
00000120: fbb5 e13c b4d9 ac3d 1f5c ce3d 2a33 8e3d
00000130: d1e7 673d a858 763d 7466 b2bb c114 26bd
00000140: 737a 2f3d 8efc 7ebd 7795 3bbd dd86 49bd
00000150: 20c5 9dbd ecfd 353c f173 5cbc d41c 58bd
00000160: 263b 353d a89c 4f3d 2caa 3b3d 238d bc3d
00000170: 6cb2 933c 42fc d83d d8cb 063e f391 8dbd
00000180: 00a2 153d 0f8e a93c 1295 30bf 5871 af3c
00000190: 818f c13c ae66 7c3d 7978 59bd 6ddb c1bd
000001a0: cf31 17bd ddc1 593c 8ba0 97bd 4721 6cbe
000001b0: 14d5 383d c9c9 af3c 83a0 8a3d f0c9 963d
000001c0: 2415 6bbc e4ec aebd 0129 2c3e ffc6 e53c
000001d0: 8964 bf3c 03bc e23c cdff 4a3d 2325 9b3b
000001e0: 3b39 c63d 4802 2e3e 918c d7bd f78b 323e
000001f0: 0724 693e a033 4cbd 6160 6a3d 8ee6 c73d
00000200: 2ecb 4c3d a632 4c3e ef3e 5a3e 068e bd3d
00000210: 2d0c 8b3d 4564 c7bd b84a 6e3d 18a4 55bd
00000220: 4d47 8cbc 5051 66bd 7a6d afbd 9e5e febd
00000230: 1e8c 1cbe 7a78 71bd 2076 22be b078 2cbd
00000240: 2c9c 97bc c88d ecbc 49a7 a03c d39f 20bd
00000250: c75a e63d b2e0 d1bc 07bd 8cbd 7a0d 89bd
00000260: 927b 6e3d 5a6f 31be ee20 18be 9c19 00be
00000270: 5ba5 00be 68a0 e3bd e21c 00be 47b2 17be
00000280: 1f2b 173e ec97 bbbd 365c 6cbd f18f e1bb
00000290: d961 953b 0959 503d 63a1 8cbe a350 05be
000002a0: f018 653d fd86 7a3e 4796 42bd ae92 db3c
000002b0: 6399 aebd 8d5f 983c 74e7 3abe 6885 a9bd
000002c0: 04d5 e1bd d1df cdbd 430a dbbe 34ea d4bd
000002d0: 071c 9dbb 9bc3 4abb daf7 8c3b 470c 31be
000002e0: 7c30 9e3e ec93 9b3d fc00 e8bd be97 203e
000002f0: f9d6 033e 9921 18bc 3286 713d ebda c93b
00000300: e722 dbbc 94ed f03d 6d84 26bd 6a02 c8bd
00000310: 3abe a8bc 5564 e7bd fa50 fd3c 72eb 71bb
00000320: 80c2 55bc e660 61bd 3931 25be 3ed4 cebd
00000330: ca33 91bd 2698 c5bd ba07 56be 0022 dd3d
00000340: 0bc5 093e 5097 963d c6d6 6e3e 4c6c 7f3e
00000350: 5463 1f3e 89da 813e 3605 9abe b8d7 693e
00000360: 4768 5dbc 0826 70bc 5ef3 d2bc 6ef7 1b3c
00000370: 1f9c 203d 2bb5 e53d 579d 9b3c 0ee1 833e
00000380: 5f4c b43d 1bea 50bc bb74 4a3d ffe2 93bc
00000390: 71bb c4bc 9b61 09bd a1eb 653d 99d2 183e
000003a0: e90d a73e d9b6 de3d f6ea 81bd 0b69 26bc
000003b0: f3b0 f6bc 3257 b83d 7379 5bbd 11d2 81bc
000003c0: 065b e7bc cd1a d63c 84dd 6dbd 673b 8c3c
000003d0: 21c2 11bd 10bc 0fbd be5b 4f3d 789d 8a3d
000003e0: 7d79 a63c 99c8 8bbd 621d 97bd 928e ac3c
000003f0: 74fd 24bd ee6a 773d 30f7 683d c76c 8dbc
0.033357352 0.050431516 0.011017298 0.08321422 0.1550322 0.101578094 0.11838735 0.1391239
0.16824129 0.03913383 0.04515074 0.049793366 0.042441346 0.011469773 0.0017179388 0.043906804
-0.08617251 -0.39093634 0.008152532 0.0036150864 -0.010463374 0.008132914 -0.012035489 -0.06661388
0.0012777578 -0.10287968 -0.08693858 -0.029976524 -0.02992874 -0.013184084 -0.027135046 0.033478677
0.22599652 -0.042960715 -0.067385025 -0.06299467 0.04944548 0.023568412 0.07711444 -0.041667204
-0.015647167 0.036035422 0.02937182 0.036912534 0.025754387 -0.0018894736 -0.10961969 -0.10117562
0.07328155 0.023041263 -0.10843054 0.018299967 0.058813125 0.07347592 -0.102383435 -0.117285535
-0.10756077 -0.126648 0.014922248 0.063233055 -0.1614475 0.080248415 0.114447206 -0.08003926
0.053441122 -0.01309562 -0.11937278 0.014909554 0.036018226 -0.103628926 0.01565752 -0.04598659
0.027552595 0.08439961 0.100761645 0.069433525 0.05661756 0.060143143 -0.0054443423 -0.040547136
0.042841386 -0.062252574 -0.045796838 -0.04920088 -0.07703614 0.011107903 -0.013455377 -0.052761868
0.04424586 0.05068651 0.045816585 0.09206607 0.018029414 0.10594989 0.13163698 -0.06912603
0.03653145 0.020697622 -0.68977463 0.021416351 0.023627998 0.06162136 -0.053093407 -0.0946568
-0.036912736 0.0132908495 -0.07403668 -0.2305957 0.045125082 0.021458523 0.067688964 0.07362735
-0.014348302 -0.08541277 0.16812517 0.02804899 0.023363369 0.027677542 0.049560357 0.0047346517
0.096788846 0.16993058 -0.10524858 0.17436205 0.2276765 -0.04985392 0.05722082 0.09760772
0.049998455 0.19941196 0.2131307 0.092556044 0.06789432 -0.09735922 0.058176726 -0.052158445
-0.017123843 -0.05622989 -0.08565803 -0.124203905 -0.15287825 -0.058952786 -0.15865374 -0.042107284
-0.018507086 -0.0288762 0.019611018 -0.03921492 0.11247783 -0.025619838 -0.068719916 -0.066920236
0.058223315 -0.17327634 -0.14856312 -0.12509769 -0.12563078 -0.111145794 -0.12511018 -0.14814101
0.14762543 -0.09159836 -0.057705127 -0.006883614 0.0045587835 0.05086616 -0.27466878 -0.13019042
0.055931985 0.24465556 -0.047506597 0.02680334 -0.0852535 0.01860025 -0.18252355 -0.08277398
-0.11026958 -0.10052455 -0.42781267 -0.10396233 -0.004794601 -0.0030939344 0.004302007 -0.1728984
0.30896366 0.07596573 -0.11328313 0.15682885 0.12874974 -0.009285354 0.05896587 0.0061601303
-0.026750041 0.117640644 -0.040653635 -0.097660854 -0.02059852 -0.11298434 0.030922402 -0.0036914018
-0.013046861 -0.05502405 -0.16132058 -0.10099076 -0.07089956 -0.09648161 -0.20901385 0.107975006
0.13454072 0.07353079 0.23324117 0.24943656 0.15565234 0.25362042 -0.300821 0.22836196
-0.013513631 -0.014657505 -0.025750812 0.009519441 0.03921139 0.11216196 0.018995924 0.2575764
0.08803629 -0.012751128 0.04942773 -0.018052576 -0.02401516 -0.03354035 0.056132916 0.14924087
0.326278 0.10874719 -0.06343643 -0.01015688 -0.030113673 0.09001006 -0.05358262 -0.015847238
-0.028241646 0.026135826 -0.058072582 0.017118169 -0.035585526 -0.03509146 0.0506246 0.06768316
0.020321602 -0.0682537 -0.07378651 0.021064077 -0.040280774 0.06040471 0.05687636 -0.017263783

bias f4 [13]
00000000: f303 b33c 3ab6 063d db30 313c 9f5c 9b3c
00000010: 9a1d b83c 05e1 263c 17e5 363c ce28 703c
00000020: 7b17 943c 5040 643c b358 053d 44be f63b
00000030: 3509 883c
0.02185247 0.03288863 0.010814871 0.018965064 0.022475053 0.010185485 0.011163018 0.014658166
0.018077603 0.013931349 0.032555293 0.0075300056 0.016605953

weight f4 [13]
00000000: 2797 b73e 4403 323f 85d8 483e 1fe5 933e
00000010: c633 433e bbee 203f 3aad 3f3e 6663 023f
00000020: a65c d53e 10f7 6d3e 2036 603f b834 6b3e
00000030: c095 d13e
0.35857508 0.6953623 0.19613846 0.28885743 0.19062719 0.62864274 0.18718424 0.5093292
0.41672248 0.23238778 0.8758259 0.2296933 0.40934563

bias f4 [13]
00000000: a339 c7bd 152a aabe 04de a13d 2b8a 303e
00000010: a092 413e f3aa 903e df51 0d3f 9530 253e
00000020: 0b3b d03d b925 983e 22dd d2be 3c7e f23e
00000030: 2187 e13d
-0.0972779 -0.3323523 0.07903674 0.17240207 0.18903589 0.28255424 0.5520305 0.16131814
0.101675116 0.2971628 -0.41184336 0.47361934 0.11012102

running_mean f4 [13]
00000000: 5871 cebc 3902 2f3f 4562 f83e bd69 be3e
00000010: 5a0d 75be faae a63f 061a 81be 948d 293e
00000020: 72be 633e 5a4f 6b3e 5ae4 fd3e 9d77 3c3f
00000030: 9c2d 65bf
-0.02520053 0.68362767 0.48512474 0.37190047 -0.23930874 1.3022149 -0.25215167 0.16557914
0.22240618 0.22979489 0.4958828 0.73620015 -0.8952272

running_var f4 [13]
00000000: 9511 2a3e 45dd 8f3e 3158 493e 7f3a d93d
00000010: 8ca9 2c3d 4537 f93f 3364 3c3e 8bf0 3a3f
00000020: 5c13 983e d9a0 2b3e 3132 013f f748 1b3f
00000030: d2e4 c03e
0.1660827 0.28098503 0.19662549 0.1060686 0.04215388 1.9469992 0.18397598 0.7302329
0.2970227 0.16760577 0.5046721 0.6065821 0.37674576

weight f4 [13, 13, 3, 3]
00000000: 3040 bf3d 9065 913d ffe2 d63c 68f7 95bd
00000010: aa4f f73d d564 c83c 9676 be3c e9aa 083d
00000020: 387c 363d 9253 413d 6da2 253e 8a9f 803d
00000030: 2fce db3d 61a5 663e 8e9c ca3d da45 393d
00000040: 536f 5d3d e7af cb3c dbed 503c eb46 06bd
00000050: 5510 623d 961c febc 0175 f5bd 74d9 333d
00000060: dda8 4abd 5c25 36bd 32f9 3a3d 6635 1bbd
00000070: cb42 493d 8280 8d3d 8146 fd3b 9861 1b3e
00000080: 94eb fc3d c0f0 a33c f9e2 b33c 6fad a3b9
00000090: 4c90 ccbc 87e8 a0bd e9f4 41bc b902 82bd
000000a0: e3bd debd e8d4 81bd ec99 c53d b48f ef3d
000000b0: 6d0d cb3c 6efe 90bd 2884 bdbd 09b4 e9bc
000000c0: 1cd9 d6bc dbd3 9dbe eed2 d1bd 2329 1cbe
000000d0: 1dd8 0e3f 55ef 93bd 7053 323d 6e40 eebd
000000e0: cdd8 56bc 1e47 56bb 0191 583e fac4 97bd
000000f0: 210d 723d 8ff3 2b3e 9ad2 9cbd 8d13 293d
00000100: 7785 8d3d 148a 073d 8826 8f3c 17ef 82bd
00000110: d613 ce3c b3b3 733d ac4d 6f3e 1b1a b23c
00000120: 7cc5 823b 0683 773d cc94 4c3d 7a92 893c
00000130: debb 8a3d fb26 743d 6ab9 183c 8861 1e3c
00000140: cf1f 9fbe f335 bb3c 9e78 45bc aa0d b8bb
00000150: c35c f93c f5df ec3d fd9e 1dbb afdc 8c3d
00000160: ceea 4dbb 4167 463c b2d6 9f3c a8a9 b83c
00000170: 46ae 8b3d b1a4 c63c ddef 0d3d adcb 3a3e
00000180: 96e9 503d 512c 3d3e 692a 28bd 4a10 333d
00000190: b6db 9e3c 8636 823c 3e02 36bc 54d7 433d
000001a0: 8935 833d 3d10 71be 4d4b d03e 77bb 173d
000001b0: d38c 18bd 387a a7bd 1b5c 83bb 0a52 17bd
000001c0: ad4e 9dbe 207a 9cbd e528 07be a67f 84be
000001d0: f5d9 ffbd b7ea 6fbd 094c 0b3d 364d 3bbc
000001e0: 3a8e a53d 2b26 0b3d 3ec5 813c 7f0a b93d
000001f0: 96b4 253d 14b3 3b3d c85a b73d 0f1d 013e
00000200: 4e3a 183e 96c8 8e3d 8d34 0b3e 4464 053e
00000210: 0da8 c0bc 9c18 983c a1ea 2abc 021b 17bd
00000220: 1f75 8abd 4eb2 b93c 895f f9bc 592b 33bc
00000230: 92eb 963e 886d 79bc 7882 ccbd 938a 8abd
00000240: 37f5 043e 931c 273e e168 003e 2bbb 9a3d
00000250: 0907 423e 482f 2f3e 3e19 673d a588 c83d
00000260: 0c0f d13d e3b1 ffbb c1b4 19be e50c fe3b
00000270: 03e0 bb3c 3401 da3d 817f 573d 0391 033e
00000280: 102d 093e 0bfd 0d3e 7e3b 3dbe 9c08 bebd
00000290: 245f 52bd 753b 88be 66a6 023f 8b1e 3cbe
000002a0: a1ce 0fbe 793a 89be 910c 1fbe 7ec7 7d3d
000002b0: d479 4a3e e474 82bd e1cb 1d3e e872 9e3e
000002c0: 42eb 063c 7525 45bb 1f52 55bc 0271 50bd
000002d0: 2942 613d 49ee 2cbe 5d1c 2c3d 1442 173c
000002e0: d138 a03e 641f 733d 6fdc f53a b80e 843d
000002f0: 9cce 9e3c 589f 6b3c f7ce c13d e055 62bc
00000300: e36c 463d 3f4e c03d 0e7b 8ebe 80cd e23c
00000310: b5ca 0c3d dcb7 4ebc 4d18 213d 9cff cc3d
00000320: d5e5 01bd c239 593d fa5d 973d fc1d f3bd
00000330: 46b6 8c3c 5127 6c3d 35b2 84bd 02c6 d1bc
00000340: e337 143e 6c81 9f3d b691 0d3d d0b0 443e
00000350: 65fd cd3d 154a 60bb cd3e 073e 0e4e 0b3e
00000360: d48a 05bc f9ac 953d 911b 30bc 2723 4dbe
00000370: f5a1 143f 6efb de3d 0b6d d3bc 513f 39be
00000380: 8b85 973b 1bb5 5bbe 38ee 37be 785b bfbd
00000390: b4bd 19be 079a 65be d818 17be 7efa 88bc
000003a0: dc22 0bbe 6065 2abd 6935 3bbc d442 9e3d
000003b0: c2ea 5a3d b810 543c c4c3 d73d c926 8b3d
000003c0: 612c 023e 3ea0 ef3d 8624 c23d a016 6fbe
000003d0: a9d8 ddbe 1990 6bbe 2e84 22be 6a39 debd
000003e0: 9dac 71bd fbf6 81bd 7865 c0bd 0b0c 6fbd
000003f0: b904 5c3d 64f6 273e 061c 073e fb85 af3d
0.09338415 0.0709945 0.026231287 -0.073225796 0.120757416 0.024462143 0.023249906 0.033366118
0.044552058 0.04719884 0.16175242 0.0628043 0.10732686 0.22524025 0.09893142 0.04523263
0.054061245 0.02486415 0.012752022 -0.032782476 0.055191357 -0.03101949 -0.11985207 0.04390855
-0.049477447 -0.044469222 0.045647807 -0.03789272 0.049135964 0.069092765 0.007729352 0.15173948
0.123496205 0.02001226 0.021958815 -0.00031219 -0.02497115 -0.07856851 -0.011838176 -0.063481756
-0.10876062 -0.06339437 0.09648499 0.11697331 0.024786675 -0.070797786 -0.092537224 -0.02852823
-0.026226573 -0.30825695 -0.1024531 -0.15250067 0.5579851 -0.07223383 0.043536603 -0.11633383
-0.013113213 -0.0032696198 0.21149065 -0.07410617 0.059094552 0.16792129 -0.076573566 0.04127841
0.06910222 0.033090666 0.017474428 -0.06393259 0.025155943 0.059497546 0.23369473 0.021740964
0.003990827 0.060427688 0.04994659 0.016793478 0.06774114 0.059607487 0.00932155 0.009666808
-0.31078956 0.022852873 -0.012052683 -0.0056168633 0.03043974 0.11566154 -0.0024051063 0.068780296
-0.0031420472 0.012109579 0.019511554 0.022541836 0.068203494 0.024248453 0.03465258 0.18241759
0.051004015 0.18473937 -0.04105607 0.043716706 0.019391876 0.01589514 -0.011108933 0.047812775
0.064066954 -0.2354135 0.4068245 0.037044015 -0.037243675 -0.08177608 -0.0040087826 -0.036943473
-0.30724087 -0.07640481 -0.13199194 -0.25878638 -0.12492744 -0.05857345 0.03400806 -0.011431983
0.08083768 0.033971947 0.015841123 0.09035205 0.040455423 0.04582508 0.08952862 0.12608741
0.14865991 0.069718525 0.13594265 0.1302653 -0.023517633 0.018566422 -0.010431916 -0.03689099
-0.0676062 0.02266803 -0.030441063 -0.010935628 0.294766 -0.015223868 -0.099858224 -0.06764712
0.12984167 0.16319494 0.12540008 0.07555231 0.18947996 0.1710788 0.056420557 0.09791688
0.10207948 -0.007803188 -0.15010358 0.007753002 0.022933966 0.10644761 0.05261183 0.12848286
0.13396096 0.1386606 -0.18479726 -0.09278986 -0.051360264 -0.26607862 0.51035154 -0.18371026
-0.14043666 -0.26802424 -0.15532137 0.06195783 0.19773036 -0.06369951 0.15409805 0.30947042
0.008234801 -0.003008214 -0.0130200675 -0.050889023 0.054994736 -0.16887774 0.042019237 0.009232063
0.31293347 0.05935611 0.0018757711 0.0644812 0.019385628 0.014381252 0.094633035 -0.0138144195
0.048443686 0.09389924 -0.27828258 0.02768588 0.034373004 -0.012617078 0.039329816 0.10009691
-0.031713326 0.053033598 0.073909715 -0.118709534 0.017176758 0.057654683 -0.06479303 -0.025607113
0.14474444 0.07788357 0.03456279 0.19208074 0.10058097 -0.0034223844 0.1320755 0.13603994
-0.008150775 0.073083825 -0.01074876 -0.20032941 0.58059627 0.108878 -0.025808832 -0.1809056
0.004624074 -0.21455805 -0.17961967 -0.09343618 -0.15013772 -0.22422038 -0.14755571 -0.016721006
-0.13587517 -0.041600585 -0.011426308 0.0772759 0.05344654 0.012943439 0.10535386 0.06794507
0.12712242 0.11700486 0.094796225 -0.23348475 -0.4332936 -0.23004188 -0.15870735 -0.108507946
-0.059002507 -0.06345936 -0.09394354 -0.058361094 0.05371544 0.16402584 0.13194284 0.085704766

bias f4 [13]
00000000: b908 c73c de6f 843c 7b35 6f3d c90a c63c
00000010: 33fe 683c 88b6 2b3d 8edf ac3c 559a f43c
00000020: 37ab 2e3c bada 9d3c eff7 d13c aa17 433d
00000030: 3f2c b03c
0.024296151 0.016166624 0.058400612 0.024175065 0.014220762 0.041922122 0.021102693 0.029858747
0.010660938 0.019269336 0.02563092 0.04762999 0.021505473

weight f4 [13]
00000000: 4904 323f c6e5 173f 2c15 343f 138b 193f
00000010: 6b24 023f 92d5 db3e 85f7 113f eeb1 5e3f
00000020: b6cf 1d3e d679 193e 72bf 0c3f c270 023f
00000030: 70e4 183f
0.6953779 0.5933498 0.70344806 0.59977835 0.5083682 0.4293638 0.5701831 0.8699025
0.15411267 0.14987883 0.5497962 0.50953305 0.5972357

bias f4 [13]
00000000: 6ba5 483e 1b1d 8a3e 011f ccbe 8b26 6cbd
00000010: 647a ad3d 86b0 6ebd 0773 463d cfa1 52be
00000020: 9c3a ce3e c48f ef3d eb48 7c3d 08a7 bfbe
00000030: 85b4 f33d
0.19594352 0.2697533 -0.39867404 -0.057653945 0.0847061 -0.058273815 0.048449542 -0.20569538
0.4027909 0.11697343 0.061592977 -0.37432122 0.11899666

running_mean f4 [13]
00000000: 4581 e23e b164 283f ce96 83be 2042 743e
00000010: be11 07be b381 003f 111b eebd c569 c03e
00000020: 95ea cc3e f1d9 193d 3106 4f3e f991 4ebe
00000030: e54b 8dbe
0.4423925 0.6577864 -0.25700992 0.2385335 -0.13190362 0.50197905 -0.11626256 0.37580696
0.40022722 0.03756136 0.20217206 -0.20172872 -0.27596965

running_var f4 [13]
00000000: 4a3d fb3e 50bb 393f 8c26 9d3d 43f2 923e
00000010: 0563 5f3f 5559 8d3d 839c d33e e3e5 fb3e
00000020: 6f0d fc3d cfcd 153d 9ae0 6a3e a744 873d
00000030: ca28 f93e
0.49070197 0.7255144 0.07673368 0.28700456 0.87260467 0.06901804 0.41330346 0.49198827
0.1230725 0.036573227 0.22937241 0.06604891 0.48663932

weight f4 [13, 13, 3, 3]
00000000: a1cf 1cbc 73d9 dbbb e51d 08bc 72c1 5a3d
00000010: 98bc 9e3c b277 84bc 8abd 693c 8510 9f3b
00000020: 3e63 1a3c 728d 07bd 5c92 ac3c 88f7 49bc
00000030: d26c 813c 9b2f 0a3d 01f3 62bb 8852 ce3c
00000040: 9932 d1bb 4b38 71bc 50ec 41bd b1c1 a5bc
00000050: 064e 4a3a 89fa 14bd 27a2 c9bb 90a9 1abd
00000060: 89ae f43c 7192 8b3c 1bac 97bc 23b8 e5b9
00000070: 2dbc 713c 6eb6 debc 942a 1b3d 6146 0a3d
00000080: 539e ad3c dc77 b33b fa35 383d 7391 77bc
00000090: 7a13 2536 b8b3 54b5 f14e bd35 bba5 2636
000000a0: d8aa 3133 659e c9b4 82ec 93b6 3ec0 8bb5
000000b0: 319d b938 b7f1 f0ba 114d 0839 c58c b93a
000000c0: 3173 9f39 77d9 a83b 4189 0b3c 8911 f03a
000000d0: 4615 32ba 461c ac3a c72d 503c 711c 07ba
000000e0: 881e 12bb 8f5d e23b 0a0a 253b a838 82ba
000000f0: a5e3 8e3c 34f3 1fb8 cdda 913b e242 27bc
00000100: e5d6 f2bb a762 a2bc 8b50 413d edf6 e63c
00000110: 232b 3fbd 8667 c33c 1de3 abbb ca72 19bd
00000120: 0dbc 1739 b96d 1c38 a568 b737 6a02 bab9
00000130: 0d09 0939 0cd4 05b8 87c8 0eb8 4a19 50b8
00000140: a9d9 d736 6484 4e39 16e2 2e39 c5d9 e8b8
00000150: d0c4 3239 2a80 4838 7e76 0538 1d21 37b9
00000160: 7186 bc38 cf59 d738 4e0a dabc 081b 7b3c
00000170: 6f37 273c c6e4 64bc bf84 903c 70c5 73bc
00000180: c455 bbbc 53d5 f53c 89ac 3c3d 9b48 c0bb
00000190: 008a 9ebc b7ca 983c b2bb 383c ad49 06bd
000001a0: df88 1c3c fa10 f73b a12c cc3c d7be d1bb
000001b0: 8d59 a93c 82b7 b5bc e165 183c 0e30 7e3c
000001c0: a6e3 6ebc db3c 37bc 192f f83b c98c 2abd
000001d0: e01f c43c c9ed 6fbd 061f 9b3d 6834 fbbc
000001e0: f4d2 6cbc bc35 c5bc dfb3 1a3d 2a3f f83c
000001f0: 74f0 e33b 8668 683c 0eb1 163c 01e3 57bb
00000200: 4e40 92ba 7933 4fbd 7ca0 27bd c824 38bc
00000210: 6276 46bd edad 69bd edeb 4cbc 808c 993d
00000220: 6c2a d4bb 668a 6fbb e830 a4bc 00ad a03d
00000230: 5e4c 643c bd5a c83c 7309 bf3c 980d 033d
00000240: 800c 97bc a02f fabb 6716 b2bc 5e93 64bc
00000250: 48c3 e9bd 2824 45bc 65f8 69bb 3612 c0bd
00000260: 9c1a 91bd 76b3 0a3c f19a d4bb caa0 f9bc
00000270: f3e9 853c da22 1c3c 8875 163c 5cf0 82bc
00000280: 38fc 08bc 38e4 d9bb 0dc6 00bb 0129 033a
00000290: 2521 74bc 64bb d6bb f72e d33a 6d17 daba
000002a0: 62bd 77bc 6799 23bc 0787 45bc a547 323c
000002b0: 52fc 893c 770d 1b3d 0773 d53c 9bf7 2f3c
000002c0: 7f43 253c fe4e bb3c 8179 853c 96d8 4a3c
000002d0: 8eeb 14be 3a73 203d e5c6 b63c afc1 21be
000002e0: 149e 8abd 3cf9 e03c ac2f 1cbc 7ab6 8d3c
000002f0: 7f8b 33ba 7dc7 e6bb aaaa af3b fb0c 87b9
00000300: abe4 833b d600 ad3c 3b3f 91bb 5c00 e23a
00000310: 8aa3 1e3c 8cc0 ca3b bbb2 06bb 104e 953a
00000320: 9d76 b43a 5f7c de38 0afa 2e39 c3a0 093b
00000330: dcaf 01b9 73cd 453a 04d7 653a d60f 58bd
00000340: 746a f8bc 28b9 ab3c 1105 62bd 314c 8dbd
00000350: eaa4 3ebd 4e69 ebbc f6dc 63bc 9f26 acbc
00000360: 666c bbbb 452e 32bd 9897 7abd 5375 2abd
00000370: 868f 94bd 9e20 f0bb 3927 bd3b a197 47bd
00000380: 37a5 cf3a e8f4 3e3d 134d ea3c 83bb a23b
00000390: fc08 bb3c 0043 9e3d 90d7 d53c 9f8c 3a3d
000003a0: 704d be3c 3998 593d a02c 1fbd c0ef 21be
000003b0: 1cd9 6fbd b992 cebd 7154 013f cf89 c9bd
000003c0: 8d93 cebd 8be4 62be a849 82bd fb7c bfbb
000003d0: 8bdc cabb 7559 7fb8 3a00 babd 2031 1dbe
000003e0: de3e ecbb 4725 2abe 143c fc3e 744b f2bd
000003f0: eec3 013c 01f9 bc39 d314 0a3c c8d0 9a3b
-0.009570987 -0.0067092716 -0.008307909 0.05340714 0.019377038 -0.016170356 0.014266381 0.004854264
0.009423075 -0.033093877 0.021065883 -0.012327082 0.01579896 0.033736806 -0.0034629705 0.025185838
-0.0063842055 -0.014722894 -0.047344506 -0.02023396 0.0007717315 -0.03637174 -0.0061533633 -0.037759364
0.029868381 0.017037602 -0.018514683 -0.00043815476 0.014754337 -0.027186599 0.037882403 0.033758525
0.021193659 0.005476935 0.04497335 -0.015110361 2.4598253e-06 -7.923768e-07 1.4104572e-06 2.4832395e-06
4.1366405e-08 -3.7554415e-07 -4.4084745e-06 -1.0412257e-06 8.8507666e-05 -0.0018382584 0.0001299868 0.0014156332
0.00030412668 0.005152877 0.008516611 0.0018315773 -0.0006793331 0.0013130985 0.012706227 -0.00051540794
-0.002229603 0.0069081257 0.0025182986 -0.0009935098 0.017442534 -3.8135055e-05 0.004451132 -0.010208817
-0.0074108713 -0.019822432 0.047195952 0.028193915 -0.046671998 0.023853075 -0.00524558 -0.037462987
0.00014470537 3.7295486e-05 2.1864029e-05 -0.00035478483 0.0001306871 -3.1907155e-05 -3.4042194e-05 -4.9614617e-05
6.4328383e-06 0.0001969501 0.00016678157 -0.00011103185 0.00017048721 4.7803078e-05 3.1820025e-05 -0.00017464576
8.98958e-05 0.00010268727 -0.026616242 0.015326269 0.0102060875 -0.013970559 0.017641423 -0.014878616
-0.022868045 0.030008947 0.04606298 -0.0058680302 -0.019352913 0.01865135 0.011275219 -0.032785106
0.009554117 0.0075398656 0.024923624 -0.0064009237 0.020672584 -0.02218223 0.009301634 0.015514387
-0.014580643 -0.011183943 0.007573974 -0.04163817 0.02394098 -0.05857638 0.075742766 -0.030664638
-0.014454592 -0.024073474 0.037769195 0.030303556 0.0069561545 0.014185077 0.009197487 -0.0032941701
-0.001115808 -0.050586198 -0.040924534 -0.011239238 -0.048452742 -0.057050634 -0.012507421 0.074975014
-0.0064747836 -0.0036550998 -0.020042852 0.07845497 0.013934223 0.02445733 0.023319935 0.031995386
-0.018438578 -0.007635072 -0.021739198 -0.013951151 -0.114142 -0.012032546 -0.0035701033 -0.093784735
-0.070851535 0.008465638 -0.006488197 -0.030472178 0.016346907 0.009529794 0.009183295 -0.015983753
-0.008360915 -0.0066495202 -0.0019649297 0.00050033635 -0.01490048 -0.0065531004 0.0016112019 -0.0016639062
-0.015120836 -0.009985304 -0.012056119 0.010881339 0.016843949 0.037854638 0.026055826 0.010740186
0.010086893 0.022864815 0.01629329 0.01238074 -0.14542982 0.03917239 0.022311637 -0.1579654
-0.06768432 0.027462594 -0.00953285 0.017298926 -0.00068490946 -0.007042824 0.005360921 -0.00025758878
0.004025062 0.021118563 -0.0044325865 0.0017242539 0.009682545 0.006187504 -0.002055331 0.0011391062
0.001376826 0.00010608951 0.0001668708 0.0021000362 -0.00012367911 0.0007545568 0.00087676966 -0.052749477
-0.030324198 0.020962313 -0.055180613 -0.06899298 -0.046543993 -0.028736737 -0.013907662 -0.02101451
-0.005719709 -0.043501157 -0.061179727 -0.041615795 -0.072539374 -0.007328107 0.005772498 -0.04872859
0.0015842085 0.04662028 0.028601205 0.004966201 0.022831433 0.07727623 0.026103765 0.045544263
0.023230284 0.053123686 -0.038860917 -0.15814114 -0.05855666 -0.10086579 0.5051947 -0.09840738
-0.10086737 -0.22157495 -0.06361705 -0.0058437563 -0.0061908416 -6.088005e-05 -0.090820745 -0.15350771
-0.007209643 -0.16615783 0.49264586 -0.11830798 0.007920248 0.00036043677 0.008427816 0.0047245957

bias f4 [13]
00000000: cae3 95ae 0cb7 7b3c b3e4 a03c 3653 ea3b
00000010: 40e7 0680 9aca 0000 9ebb 5e3c 06d9 db3c
00000020: 127b 0db2 b54a 0037 523d bb3c c286 a53b
00000030: f6a6 0080
-6.816199e-11 0.015363466 0.019640302 0.007151033 -6.3397e-40 7.268e-41 0.013594536 0.026836883
-8.235263e-09 7.646789e-06 0.022856388 0.005051465 -5.9894e-41

weight f4 [13]
00000000: 73ab 7d3b 469e da3e a98a 083f d162 273e
00000010: 7512 923a 33e1 22bc ce02 b43e 3b44 043e
00000020: 9d5f b4b7 3502 c639 6d1b b83e 3190 143e
00000030: 8c10 c5bc
0.0038706928 0.42698878 0.5333658 0.16346289 0.0011144417 -0.009941387 0.3515839 0.12916653
-2.1502196e-05 0.00037767147 0.35958424 0.1450813 -0.024055742

bias f4 [13]
00000000: 5064 f1bc 4dfc cebe 2200 4bbe bb51 0ebe
00000010: 5356 4bbc 4b33 1ebd f229 4bbe 348b 61be
00000020: b8b9 deb8 1500 bdba b541 2fbe 4c41 fcbd
00000030: 4dc3 58bd
-0.029466778 -0.40426865 -0.1982427 -0.13898365 -0.012410718 -0.038623136 -0.1984022 -0.22025758
-0.00010620378 -0.001441958 -0.17114909 -0.12317142 -0.05292063

running_mean f4 [13]
00000000: cdc4 563d cf15 e1bd 9302 833d 392a b83e
00000010: d3bb 193e 8def a836 8565 583e 8d46 d13d
00000020: 7936 2e3d 7db8 6f3c 7e44 26be 9613 d23e
00000030: f7bd 403a
0.052433778 -0.10990488 0.06396975 0.35969713 0.15013056 5.0346775e-06 0.21132477 0.102185346
0.042532418 0.014631388 -0.16237065 0.41030568 0.0007352526

running_var f4 [13]
00000000: 5014 3e3c 3443 d23d ac92 d03e 8dec 713e
00000010: a2d5 5e3c 40ed ff2d 5bc1 a03e 06fb 2b3c
00000020: 37ac c73d 1fe1 563e 471e 1d3e a0ba 933e
00000030: 7348 c034
0.011601523 0.10266724 0.40736902 0.23625393 0.013600739 2.9095504e-11 0.3139752 0.01049686
0.09749644 0.20984314 0.15343581 0.2885332 3.58155e-07

weight f4 [1, 13, 3, 3]
00000000: 0803 babd e42c 4cbc dccb 893d 1287 33bb
00000010: 9820 fcbc 5d4b 77bb 73a8 f43c 6446 133d
00000020: 504a 903c 0072 b836 cd92 6d36 1051 5435
00000030: 5226 4fb4 e2f9 2037 5ce6 1035 955e 9134
00000040: 39f0 0336 a3fa 3936 9529 76b4 6435 bb3e
00000050: 292e 26b5 479b 44b4 cf29 deb4 0414 e8b4
00000060: cc88 94b3 536a 9bb2 8055 5db3 485c 3cbc
00000070: 6b83 2e3d 784b db3a f496 93bc 7c79 86bb
00000080: 65a6 aabe b6de ec3b daef 76bc c89c d0bb
00000090: e6a4 a1bc 57f3 053d 05fe 7dbd 4a86 7b3d
000000a0: 06c8 adbd c33a 5d3d 808c 833c f3c1 1bbd
000000b0: 1b95 3c3d 2deb 40bb b566 b9ba cdfa 5d3b
000000c0: d7b0 0d3c 9968 aeba c855 8ebb 1e8d 173a
000000d0: 9018 b03b cdf5 9aba 181b 81b6 b2a8 a435
000000e0: 5ad2 c734 9321 86b5 4e3c c9be ce6d 1435
000000f0: 13df b1b6 564a 67b4 c142 1d35 c51f d5b6
00000100: c7f9 9cbe bf91 66b6 346c 7bb6 640a d0b6
00000110: b267 3db3 f818 a6b5 d972 2335 c098 9335
00000120: fde2 3f3a 177d 27bb 6243 3eb8 3632 633c
00000130: 337d dabc 990a bf3a 422b 1fbb 3f64 8c3c
00000140: 0637 a63a bf60 02b9 7ddf 563a f6bb 523a
00000150: 2792 27bc bb99 143d 1d6e 1ebb 4af5 653b
00000160: 8f08 64bc 3b63 98ba 58e1 b234 f6be 88b5
00000170: c07f 2134 c8e5 fe34 1c02 bb34 9db6 9c3e
00000180: 28bb 52b5 4297 6c35 a58e d334 a4a5 503c
00000190: 4437 41bd 53e1 f2ba 9a7d a33c e4e3 943b
000001a0: 14e0 c8be 3c24 03bc d0a4 883c b3cb e63b
000001b0: 2bb3 afbb b195 46bb a783 853c f813 503b
000001c0: fa18 9bbb 3668 edbb 65f1 273d 3ceb b4bb
000001d0: 1974 d7bb
-0.090826094 -0.012461875 0.06728336 -0.002739374 -0.03077726 -0.003773413 0.02986548 0.0359558
0.01761356 5.4968987e-06 3.5401201e-06 7.9094116e-07 -1.9292318e-07 9.5949235e-06 5.39794e-07 2.7077172e-07
1.966035e-06 2.7713038e-06 -2.2925663e-07 0.3656417 -6.190699e-07 -1.8310412e-07 -4.1381142e-07 -4.322793e-07
-6.91667e-08 -1.8092726e-08 -5.1533334e-08 -0.011496611 0.0426058 0.0016730865 -0.018016316 -0.0041038375
-0.33330074 0.0072286977 -0.0150718335 -0.006366346 -0.01973195 0.03270277 -0.06200983 0.061407365
-0.08485417 0.054011118 0.016058207 -0.03802676 0.046040636 -0.002943705 -0.0014144989 0.0033871413
0.008648119 -0.0013306319 -0.004343722 0.0005781221 0.005374022 -0.0011822522 -3.8476537e-06 1.2268049e-06
3.721969e-07 -9.993549e-07 -0.3930382 5.5294083e-07 -5.3009803e-06 -2.1540595e-07 5.85842e-07 -6.351593e-06
-0.30659315 -3.4357506e-06 -3.7464897e-06 -6.2000927e-06 -4.4099302e-08 -1.2375231e-06 6.088936e-07 1.099681e-06
0.00073198957 -0.0025556737 -4.5362285e-05 0.013866952 -0.026671028 0.0014575302 -0.0024287258 0.017137645
0.0012681193 -0.00012433807 0.00081967545 0.00080388726 -0.0102277165 0.03627942 -0.002417452 0.003508883
-0.013918056 -0.0011626253 3.3319043e-07 -1.0188367e-06 1.5040769e-07 4.7478375e-07 3.4833e-07 0.30608073
-7.8503444e-07 8.813696e-07 3.94056e-07 0.012734804 -0.047171846 -0.0018530287 0.019957352 0.0045437682
-0.39233458 -0.008004244 0.016680151 0.007043326 -0.0053619347 -0.0030301625 0.016298128 0.0031750184
-0.004733202 -0.007245089 0.041001696 -0.005521206 -0.006575119

exp_avg_sq f4 [13]
00000000: c607 0334 9963 9c35 6657 e531 3bde 0b33
00000010: babe 2234 b3bc 1133 d7ab d034 c524 0c33
00000020: 0f9c 5434 b08d af34 b23e 9633 ba06 b734
00000030: de86 2b33
1.2203154e-07 1.1651892e-06 6.6747132e-09 3.2565577e-08 1.5156812e-07 3.3932064e-08 3.886805e-07 3.2629732e-08
1.9800812e-07 3.269938e-07 6.9963235e-08 3.40913e-07 3.99367e-08

exp_avg f4 [13]
00000000: 3dac 28b8 a674 0438 25ba a137 eacf f0b7
00000010: 13bd 0e36 99a2 9db8 9ab0 6d37 9343 1e38
00000020: afbc 8db6 7ffc 0db9 ef76 77b8 788c 73b8
00000030: f359 9037
-4.021473e-05 3.157989e-05 1.9279376e-05 -2.8707047e-05 2.1269705e-06 -7.5166296e-05 1.4167419e-05 3.773307e-05
-4.224093e-06 -0.0001354087 -5.9000155e-05 -5.8066536e-05 1.7208024e-05

exp_avg_sq f4 [13]
00000000: 47aa cb2a b652 472a 0619 282c 1084 e02a
00000010: 7cf3 022a c545 8f2b 1b8c 942a 229f 102b
00000020: 5a9a 9a29 c65f 682a de62 fc2a 3871 b82b
00000030: ef36 972a
3.6178197e-13 1.7703447e-13 2.3888127e-12 3.988203e-13 1.1630795e-13 1.0180126e-12 2.63873e-13 5.137992e-13
6.8657496e-14 2.0638967e-13 4.4832795e-13 1.3105411e-12 2.6861106e-13

exp_avg f4 [13]
00000000: 4dab ad33 a35a dfb1 a423 01b4 3843 ad32
00000010: 5b84 79b3 66ad a133 b38a e633 1e24 1333
00000020: 524f e832 9590 ac32 fc9e d1b3 f689 c8b3
00000030: a8e4 b333
8.0871e-08 -6.5004584e-09 -1.2027027e-07 2.0170418e-08 -5.8095207e-08 7.528688e-08 1.0735439e-07 3.4258953e-08
2.7044425e-08 2.0089184e-08 -9.76124e-08 -9.338321e-08 8.3769294e-08

exp_avg_sq f4 [13]
00000000: 56b8 2a22 58a4 5c2b e929 9b2a debc 3b29
00000010: 642a 9423 af36 b721 b03a 282a 2e58 0e2b
00000020: b195 c724 b494 2525 92e3 be2a 8d92 ea28
00000030: ac28 ab20
2.3136883e-18 7.8387774e-13 2.7562612e-13 4.1686157e-14 1.6064145e-17 1.2415037e-18 1.4941759e-13 5.057091e-13
8.655608e-17 1.4361851e-16 3.3908689e-13 2.6042775e-14 2.899544e-19

exp_avg f4 [13]
00000000: c40e 54a6 e590 dcb2 97c9 9233 4cbb 1433
00000010: 0200 0080 0400 0080 0d46 9eb2 81c4 bc33
00000020: bfad c1a9 3aa1 4e2e a0c0 3cb4 d6e1 9032
00000030: 0400 0080
-7.3572287e-16 -2.5677261e-08 6.835324e-08 3.462928e-08 -3e-45 -6e-45 -1.8425476e-08 8.790176e-08
-8.601062e-14 4.6982175e-11 -1.7578941e-07 1.6866505e-08 -6e-45

exp_avg_sq f4 [13]
00000000: a0e0 8933 b210 4635 95d7 b734 d4cc b435
00000010: 5fd3 8734 d8b9 8337 9320 da32 ef16 5634
00000020: 074b 2f35 aef2 de33 6b77 1235 a3d1 c132
00000030: dab6 a635
6.420419e-08 7.378504e-07 3.4243263e-07 1.3470658e-06 2.5299502e-07 1.5702957e-05 2.5393353e-08 1.9938646e-07
6.530176e-07 1.0381824e-07 5.4563014e-07 2.2563489e-08 1.2421181e-06

exp_avg f4 [13]
00000000: 85e3 9db6 6f5a a7b6 91ba 2fb8 eff9 5a39
00000010: 3108 a1b8 0e1a a536 5aaa 02b8 9eb7 7ab8
00000020: a324 2435 cf94 3db8 db4a f837 b5bd 9cb6
00000030: 1868 04b9
-4.7054514e-06 -4.9875157e-06 -4.1897005e-05 0.00020883208 -7.678604e-05 4.9204164e-06 -3.1153068e-05 -5.977565e-05
6.1148074e-07 -4.51997e-05 2.9598761e-05 -4.671247e-06 -0.00012627279

exp_avg_sq f4 [13]
00000000: 60ed 3b2b e18b 312b 5a1f c12b 4a03 862a
00000010: 9b52 022b ffb4 912b a11c 1c2b 5895 682b
00000020: 79ec 6d2a e6a2 d829 ec16 1b2c 4897 052b
00000030: e18a a12b
6.676517e-13 6.3077153e-13 1.3722177e-12 2.3805464e-13 4.6299916e-13 1.0353106e-12 5.5462064e-13 8.2630213e-13
2.1131871e-13 9.620585e-14 2.203955e-12 4.7461037e-13 1.1478285e-12
