pre-trained-clipped-noise/tiny_DnCNN_n2n_clipping_l1_2000.pt (torch, 84091 bytes, 37 tensors)

dncnn.0.conv.weight f4 [13, 1, 3, 3]
0.4796914 -0.3883406 -0.21564427 -0.69116116 1.1952809 -0.5706905 -0.7209906 -0.09450475
0.24654354 -0.3292768 -1.1574799 -0.31559658 -0.9454723 -0.8061631 -0.024389638 -0.25149983
-0.24308056 -0.06748885 0.00831869 0.096499674 -0.18974625 -0.13999961 0.7398408 0.11961098
-0.08856257 0.11449159 -0.3893797 -0.3759007 0.09992777 0.010476108 -0.2942516 0.33778557
0.37024942 -0.65828836 0.31709036 0.18228425 -0.28919575 -0.36906672 -0.37585366 -0.14463136
1.0169208 0.5769511 -0.11773349 0.39953667 0.36202022 -0.4605756 -0.019579578 -1.1959112
0.2324012 0.5616201 0.18879703 -0.5512949 0.7472777 0.71015096 0.95260006 -0.20880623
0.14163768 0.07752609 -1.1155878 -0.4417398 -0.49395472 0.7754842 -0.12165294 0.39099517
0.32640752 0.19162032 0.05700988 0.31489706 0.17550223 -0.55014026 -0.56061023 -0.36296687
0.40144137 0.22180389 0.042555466 0.52535725 -0.34642527 0.6474981 -0.59007543 -0.33418614
-0.49840444 0.34699473 0.23993576 -0.75926435 -0.08386833 -0.0036491945 -0.4577111 0.4029515
0.4303653 -0.13281596 0.173705 1.1848147 0.10376537 0.09081705 -0.39503434 -0.76232725
-0.2062893 0.05667231 0.7065159 0.53708965 0.5512669 -0.55924827 0.4536352 -0.79903555
-0.15035781 0.13968387 -0.1483605 -0.5588025 -0.69871634 -0.4261267 0.31995997 -0.5552329
0.15421379 -0.57698697 -0.5033025 -0.07289542 -0.5993997
00000000: 1c9a f53e 94d4 c6be dad1 5cbe f0ef 30bf
00000010: f7fe 983f c618 12bf d792 38bf b58b c1bd
00000020: e975 7c3e f896 a8be 4d28 94bf e095 a1be
00000030: 790a 72bf b460 4ebf c7cc c7bc 96c4 80be
00000040: 1cea 78be 9837 8abd 1d4b 083c 9fa1 c53d
00000050: d74c 42be 0f5c 0fbe 3566 3d3f 9af6 f43d
00000060: 4b60 b5bd 917a ea3d c75c c7be 0e76 c0be
00000070: eea6 cc3d fba3 2b3c 25a8 96be 3bf2 ac3e
00000080: 5591 bd3e 9685 28bf ab59 a23e b9a8 3a3e
00000090: 7711 94be 50f6 bcbe e46f c0be 3e1a 14be
000000a0: 762a 823f 11b3 133f 421e f1bd 1290 cc3e
000000b0: b75a b93e 91d0 ebbe 5a65 a0bc 9e13 99bf
000000c0: 95fa 6d3e 56c6 0f3f 0254 413e aa21 0dbf
000000d0: 974d 3f3f 74cc 353f 99dd 733f 4dd1 55be
000000e0: 7809 113e 00c6 9e3d 95cb 8ebf b82b e2be
000000f0: a2e7 fcbe 2286 463f 2d25 f9bd 8530 c83e
00000100: e31e a73e 1e38 443e 3183 693d 303a a13e
00000110: dbb6 333e fed5 0cbf 2784 0fbf cbd6 b9be
00000120: b989 cd3e 8f20 633e a44e 2e3d d07d 063f
00000130: a75e b1be 6fc2 253f 2f0f 17bf 721a abbe
00000140: de2e ffbe 4ba9 b13e b8b1 753e 265f 42bf
00000150: 29c3 abbd 5327 6fbb 1c59 eabe a94f ce3e
00000160: d758 dc3e e800 08be b9df 313e 02a8 973f
00000170: f082 d43d 4afe b93d f141 cabe e127 43bf
00000180: 813d 53be 3921 683d 3ade 343f b57e 093f
00000190: d41f 0d3f e52a 0fbf df42 e83e 988d 4cbf
000001a0: 66f7 19be 4a09 0f3e d1eb 17be ae0d 0fbf
000001b0: 13df 32bf 472d dabe cbd1 a33e be23 0ebf
000001c0: 38ea 1d3e 6bb5 13bf 6fd8 00bf 324a 95bd
000001d0: 4272 19bf

dncnn.0.conv.bias f4 [13]
-0.18236968 0.22436187 -0.06582732 0.18997909 -0.13060753 0.17457707 0.03993547 0.062909365
-0.17141661 -0.26918337 -0.013630105 0.010750486 0.29412818
00000000: 1ebf 3abe 1ebf 653e 79d0 86bd e189 423e
00000010: fbbd 05be 55c4 323e 6093 233d a0d6 803d
00000020: d687 2fbe 67d2 89be ce50 5fbc ce22 303c
00000030: f897 963e

dncnn.0.bn.weight f4 [13]
0.06488386 0.1385783 -0.0897728 -0.09900012 -0.09904756 0.044861954 -0.07542893 -0.09385771
0.05922261 -0.050007187 -0.063323945 0.0153669715 0.0018911914
00000000: d4e1 843d 78e7 0d3e cdda b7bd 93c0 cabd
00000010: 72d9 cabd 2bc1 373d 7c7a 9abd 7938 c0bd
00000020: 6893 723d 56d4 4cbd fcaf 81bd c0c5 7b3c
00000030: dae1 f73a

dncnn.0.bn.bias f4 [13]
0.24811858 -0.10828578 0.3461457 0.2260395 0.06367466 0.14555131 0.28446454 0.06742736
0.20769468 0.03660683 0.19347548 -0.08717877 -0.041364744
00000000: cc12 7e3e efc4 ddbd 023a b13e e676 673e
00000010: dc67 823d 670b 153e 56a5 913e 5b17 8a3d
00000020: eaad 543e 0bf1 153d 701e 463e c88a b2bd
00000030: 146e 29bd

dncnn.0.bn.running_mean f4 [13]
-0.49116233 -1.5406888 0.06501495 0.19824046 0.3368472 0.28759307 -0.16282287 0.06250207
-0.13868523 -0.27504933 0.3802523 -0.22128536 -0.95053035
00000000: a179 fbbe 4a35 c5bf 8f26 853d 8cff 4a3e
00000010: 3c77 ac3e 663f 933e 0abb 26be 1601 803d
00000020: 8003 0ebe 44d3 8cbe 6eb0 c23e a198 62be
00000030: f555 73bf

dncnn.0.bn.running_var f4 [13]
0.10422509 0.7998114 0.02621077 0.04229662 0.11852544 0.11954253 0.096567184 0.05351221
0.06153195 0.05359292 0.11273584 0.090832055 0.41556594
00000000: f773 d53d 71c0 4c3f f8b7 d63c 383f 2d3d
00000010: 77bd f23d b7d2 f43d 04c5 c53d 9e2f 5b3d
00000020: ed08 7c3d 4084 5b3d 0ce2 e63d 2806 ba3d
00000030: 0fc5 d43e

dncnn.1.conv.weight f4 [13, 13, 3, 3]
-0.16676739 0.06700569 -0.35580307 0.1749491 -0.8255675 -0.0070735137 -0.19964488 0.3038631
-0.013327349 -0.011652106 0.039182864 -0.20168008 0.06890074 0.018720224 -0.2166173 -0.026908467
0.028131949 -0.08800749 0.112591915 -0.17399788 0.0072968705 -0.2651714 0.8369717 0.11398278
-0.24835804 -0.0138695715 -0.03044858 0.16625574 -0.03467137 0.20044267 0.15438434 0.40388244
0.13799435 -0.054682437 -0.15649936 -0.24780448 -0.15039247 0.108142935 0.09905381 0.1264404
0.2939153 0.2718883 0.107622296 0.14378223 0.2159771 -0.21095006 -0.093556754 -0.33790502
0.070964016 0.011945781 -0.13522434 0.21720427 0.17717502 -0.06692698 0.032464825 -0.086796135
0.061836835 -0.00206284 -0.31422538 -0.016895082 0.08332334 0.12642512 0.09391053 0.24802099
0.022379609 0.23002474 0.1154299 0.3738695 0.018570814 0.22841378 0.24926355 0.0698165
-0.17752406 0.15697554 0.007807057 -0.06164827 0.09453399 -0.16156933 -0.030530903 -0.03996656
-0.11429176 0.021818377 0.12930839 -0.07019211 -0.012916268 0.32122833 0.052118707 -0.0094722
0.13175245 -0.043264795 -0.21238656 -0.08292582 -0.1525777 -0.009102479 -0.38168567 -0.019400518
-0.14804706 0.2470899 0.008899043 0.026678825 -0.14464886 0.26145813 0.046895545 -0.024295814
-0.40909618 0.06866222 0.01337553 0.25374267 -0.10008531 -0.11970453 0.0017243465 -0.06503588
-0.0738816 -0.08557044 -0.01424628 -0.08698971 -0.24886312 -0.05139874 -0.23450093 0.06640953
0.02624815 -0.16728468 0.25431404 -0.09425142 0.23062238 0.036645267 -0.11631321 0.033794235
0.098607115 -0.1396801 0.25828063 0.16403791 -0.08990761 0.07715276 -0.017573245 -0.017681602
0.03789263 -0.003053363 0.10432297 0.35142872 -0.28664422 -0.061329745 0.16444212 0.028321128
-0.06728451 -0.034140985 -0.23147386 0.16268887 0.17657295 -0.01344329 0.2336797 0.33155143
-0.44431275 0.04928768 -0.0049566985 0.052213725 -0.3504204 -0.14152059 -0.2574668 -0.083841264
-0.17850219 -0.016579006 -0.0053106216 -0.22258411 0.3973681 -0.21802592 -0.18681967 -0.03731362
-0.3188694 -0.23232499 0.008758738 0.121796414 0.07611663 0.16477375 0.10725475 -0.52633935
0.10354304 -0.37990364 0.3326741 0.093992025 -0.19615811 -0.10543021 0.06844613 0.017427158
-0.026786452 0.17520654 -0.38197172 0.03585062 -0.12816711 0.07276496 0.26540005 -0.06315343
-0.2179659 0.38937455 -0.14677694 0.06273593 -0.009159232 -0.0076520448 0.054661624 0.0029014524
0.14615844 -0.15808739 -0.19100809 0.20893884 0.22149815 0.24767108 0.23439786 0.009873212
0.13090977 0.026322128 -0.095510334 -0.12823027 -0.013307506 0.1487947 0.3069879 -0.014846157
0.1761 0.011956759 -0.13477091 0.11810214 0.19928245 0.07162142 0.14696135 -0.06236565
0.0020489732 -0.07794527 -0.14543682 0.08762573 -0.09004406 0.10232006 -0.08106602 -0.12105064
0.07029196 0.0031389757 -0.056867823 -0.05566758 -0.1781489 0.019570306 -0.23298478 -0.12201429
-0.14365381 -0.006423017 0.047842585 -0.010181772 -0.2705403 -0.14521454 0.11559366 -0.108573034
-0.15862145 -0.03983871 -0.0394762 -0.014022417 -0.16899908 -0.13256659 0.048377506 0.032325566
00000000: 12c5 2abe 473a 893d d22b b6be db25 333e
00000010: 6458 53bf efc8 e7bb b56f 4cbe f293 9b3e
00000020: f45a 5abc 7ae8 3ebc 367e 203d 3985 4ebe
00000030: d51b 8d3d 285b 993c edd0 5dbe 256f dcbc
00000040: f974 e63c 453d b4bd 9796 e63d 802c 32be
00000050: 961a ef3b 8cc4 87be c743 563f ce6f e93d
00000060: 9251 7ebe 333d 63bc 4d6f f9bc f23e 2a3e
00000070: 9103 0ebd d840 4d3e ee16 1e3e aec9 ce3e
00000080: 644e 0d3e b1fa 5fbd 5e41 20be 75c0 7dbe
00000090: 7c00 1abe 0b7a dd3d b9dc ca3d 9879 013e
000000a0: 117c 963e f134 8b3e 1469 dc3d a63b 133e
000000b0: 1a29 5d3e 4b03 58be af9a bfbd e301 adbe
000000c0: 9555 913d 3db8 433c 4078 0abe cc6a 5e3e
000000d0: 5e6d 353e 0311 89bd d6f9 043d 2cc2 b1bd
000000e0: 9f48 7d3d b630 07bb 26e2 a0be 8e67 8abc
000000f0: 6da5 aa3d 9675 013e 2a54 c03d 37f9 7d3e
00000100: 7155 b73c 9b8b 6b3e 8366 ec3d d36b bf3e
00000110: d221 983c 4de5 693e f23e 7f3e f4fb 8e3d
00000120: dec8 35be 32be 203e 57d2 ff3b e582 7cbd
00000130: 099b c13d 6e72 25be f21b fabc fab3 23bd
00000140: cc11 eabd 74bc b23c 6b69 043e e2c0 8fbd
00000150: c19e 53bc 0a78 a43e 6d7a 553d 4931 1bbc
00000160: 1dea 063e 6d36 31bd dd7b 59be 03d5 a9bd
00000170: 543d 1cbe 9022 15bc 4e6c c3be d6ed 9ebc
00000180: a699 17be 2205 7d3e 4bcd 113c 8d8d da3c
00000190: d51e 14be d7dd 853e 8b15 403d 0408 c7bc
000001a0: 0e75 d1be c79e 8c3d 0a25 5b3c 8fea 813e
000001b0: 87f9 ccbd a627 f5bd 7803 e23a 8831 85bd
000001c0: 3c4f 97bd 8e3f afbd 3b69 69bc a927 b2bd
000001d0: f9d5 7ebe 7c87 52bd 0321 70be b801 883d
000001e0: 5c06 d73c ad4c 2bbe 7335 823e e306 c1bd
000001f0: 4628 6c3e 5919 163d 9f35 eebd d36b 0a3d
00000200: 87f2 c93d 4d08 0fbe 5c3d 843e 8ef9 273e
00000210: 7b21 b8bd 4402 9e3d c4f5 8fbc 02d9 90bc
00000220: 4d35 1b3d ee1a 48bb 48a7 d53d 77ee b33e
00000230: 08c3 92be e634 7bbd 8463 283e b601 e83c
00000240: 76cc 89bd 6bd7 0bbd 7c07 6dbe e997 263e
00000250: 8acf 343e 3f41 5cbc bb49 6f3e 1cc1 a93e
00000260: f67c e3be e1e1 493d cd6b a2bb 0fde 553d
00000270: 4d6a b3be c6ea 10be b0d2 83be f8b4 abbd
00000280: 47c9 36be b2d0 87bc b904 aebb 17ed 63be
00000290: d573 cb3e 3042 5fbe a84d 3fbe 2bd6 18bd
000002a0: da42 a3be 9ae6 6dbe cf80 0f3c 6670 f93d
000002b0: 09e3 9b3d 73ba 283e 61a8 db3d 2dbe 06bf
000002c0: 600e d43d bb82 c2be 4254 aa3e e47e c03d
000002d0: acdd 48be cbeb d7bd 7c2d 8c3d 66c3 8e3c
000002e0: 436f dbbc 5869 333e cc91 c3be 1ad8 123d
000002f0: 3d3e 03be cc05 953d 84e2 873e 9656 81bd
00000300: 7432 5fbe 1a5c c73e b24c 16be b27b 803d
00000310: 9a10 16bc 01be fabb dee4 5f3d 4b26 3e3b
00000320: 8faa 153e a9e1 21be a097 43be 10f4 553e
00000330: 69d0 623e 7d9d 7d3e fe05 703e 41c3 213c
00000340: 360d 063e 81a1 d73c ec9a c3bd cc4e 03be
00000350: ba07 5abc a35d 183e 852d 9d3e 4c3d 73bc
00000360: 8f53 343e 48e6 433c 6301 0abe 89df f13d
00000370: b310 4c3e 40ae 923d 097d 163e 2073 7fbd
00000380: 1148 063b c5a1 9fbd 64ed 14be 1e75 b33d
00000390: 0569 b8bd 2e8d d13d f105 a6bd 66e9 f7bd
000003a0: 3bf5 8f3d 46b7 4d3b 3cee 68bd b003 64bd
000003b0: aa6c 36be e851 a03c 9093 6ebe a1e2 f9bd
000003c0: fc19 13be 2c78 d2bb 96f6 433d 72d1 26bc
000003d0: 4284 8abe 1fb3 14be 5ebc ec3d 8a5b debd
000003e0: a96d 22be ea2d 23bd ccb1 21bd 48be 65bc
000003f0: 180e 2dbe 89bf 07be 7e27 463d d067 043d

dncnn.1.conv.bias f4 [13]
-0.034673445 0.036250975 -0.09989387 -0.028944977 -0.022081384 -0.10702911 -0.028723244 -0.0325714
-0.047292147 -0.00066802313 -0.05506404 -0.06136167 -0.075835735
00000000: be05 0ebd e77b 143d 2895 ccbd 041e edbc
00000010: 05e4 b4bc 1432 dbbd 024d ebbc 9769 05bd
00000020: 69b5 41bd 461e 2fba d58a 61bd 6056 7bbd
00000030: c44f 9bbd

dncnn.1.bn.weight f4 [13]
0.105589256 0.060044575 -0.0014000228 -0.047780916 -0.0959209 -0.06613246 0.039618958 0.04936734
-0.11262179 0.06296067 -0.029280555 0.11746491 0.062520355
00000000: 2e3f d83d 4df1 753d f880 b7ba ecb5 43bd
00000010: 2d72 c4bd 7570 87bd 7d47 223d 6835 4a3d
00000020: 41a6 e6bd 86f1 803d c6dd efbc 7191 f03d
00000030: ac0a 803d

dncnn.1.bn.bias f4 [13]
0.3517721 0.21179825 -0.028215934 0.18030266 0.12768765 0.06135333 0.1573626 0.18577498
0.18466336 0.24552853 -0.06828427 -0.009333939 0.16080199
00000000: 791b b43e a4e1 583e 1a25 e7bc 43a1 383e
00000010: 8dc0 023e a14d 7b3d a923 213e cc3b 3e3e
00000020: 6418 3d3e d56b 7b3e a0d8 8bbd 61ed 18bc
00000030: 47a9 243e

dncnn.1.bn.running_mean f4 [13]
-0.066764854 0.15155907 -0.7111353 0.14609022 -0.04492457 -0.04831454 0.079166554 0.20761138
0.17481227 -0.08827062 -0.18030572 -0.51204693 0.1564165
00000000: 03bc 88bd 4d32 1b3e f70c 36bf ad98 153e
00000010: d302 38bd 78e5 45bd 1322 a23d 1498 543e
00000020: fd01 333e 3ac7 b4bd 10a2 38be 8215 03bf
00000030: a62b 203e

dncnn.1.bn.running_var f4 [13]
0.029937504 0.033163197 0.024843164 0.024168199 0.02134968 0.03693732 0.023165977 0.021263795
0.02152146 0.026410066 0.019839358 0.019604225 0.037847366
00000000: 7f3f f53c 22d6 073d e483 cb3c 63fc c53c
00000010: 86e5 ae3c 964b 173d 93c6 bd3c 6931 ae3c
00000020: c64d b03c ec59 d83c 2686 a23c 0a99 a03c
00000030: d705 1b3d

dncnn.2.conv.weight f4 [13, 13, 3, 3]
0.1397253 -0.16072877 -0.07410652 -0.07767979 -0.010267651 -0.36303085 -0.2677622 -0.2038609
-0.15138897 0.092727005 -0.12018387 -0.23457254 0.4675352 0.007517873 -0.1987147 0.3070087
-0.030705893 -0.09707474 -0.31739527 0.05240392 -0.06599978 -0.024718054 -0.049256075 -0.04300392
-0.10646523 0.03241787 0.06250804 -0.27654436 -0.041355565 0.06449129 -0.21902075 0.36344168
0.22276431 0.16003975 0.14083634 -0.113290615 0.21600218 -0.23199031 -0.08764584 -0.0681209
-0.3789022 -0.24516594 -0.23801258 0.04270273 0.3076365 -0.10542285 0.13830107 -0.24903086
-0.16659251 0.17737624 -0.2532458 -0.31654936 0.08110756 -0.09745039 -0.42742848 -0.014130071
0.16339938 -0.25110728 0.17024627 0.20684062 -0.11076223 -0.12962078 0.15285173 -0.010803173
-0.121211655 -0.04027674 0.28867573 0.3173761 0.113449775 0.13540167 0.038927108 -0.05911053
0.7132951 0.35931906 -0.2736466 0.21025449 0.36320907 0.21509328 0.04746204 -0.1862509
0.15940559 0.2081411 -0.0018674755 0.22765933 -0.09565978 0.632812 0.26878518 0.09047006
-0.17223927 0.093994066 -0.18767221 0.09324811 -0.36272246 -0.23917986 -0.09731974 0.030573051
0.08974175 -0.2854566 0.017339766 -0.5917061 -0.101606004 -0.39532822 0.18895832 -0.19187894
-0.044325575 0.095364 -0.01327448 -0.11076351 0.14006938 -0.12488076 -0.17330182 -0.18039817
0.1337277 0.20946404 -0.3223811 -0.0975662 0.0057513393 -0.10641725 -0.3194618 0.16145986
0.006967931 0.14784425 -0.16158181 0.11894977 0.27164572 -0.03450397 -0.2111606 0.48060787
-0.10564934 0.10199823 -0.06611343 -0.12420149 -0.18143858 0.16786763 0.25503686 0.17157857
-0.041594937 0.034595955 0.04822793 0.060441595 -0.032403514 -0.26771098 0.22696301 -0.0137224635
0.12933755 -0.12720881 -0.26718295 -0.17135778 -0.32938027 0.13812268 0.19771829 -0.17674737
0.04574865 0.05390167 -0.038788352 0.19107896 -0.08061703 0.11526363 -0.331242 -0.031222885
0.3172656 -0.24445675 0.04466862 -0.14962715 -0.18362908 0.09926398 0.23214407 -0.29263905
0.08887305 -0.2622422 -0.07879368 -0.0809227 0.19844224 -0.07193374 0.108549096 -0.21734193
-0.09442136 0.152696 -0.063890785 -0.08571462 -0.37622336 0.17703721 -0.12822135 0.10577999
-0.0644309 -0.09441123 -0.012539223 -0.28722662 0.005198469 0.2732963 0.166529 -0.061446227
0.08412602 0.1250206 -0.2023807 0.119400665 -0.29298356 -0.131432 -0.34931615 0.28484762
0.20207575 -0.11595477 0.0014588451 0.27320486 0.13084193 -0.12735811 -0.044753235 0.084031776
-0.00091153523 0.04713978 0.0873142 -0.09233763 -0.082702585 -0.24454312 0.1470742 -0.012535919
-0.54806703 0.24941769 -0.14630863 -0.19303103 -0.13463128 0.097554594 -0.41728464 0.098802365
-0.076989666 0.097171865 0.31138873 -0.06220394 -0.332395 0.1035913 0.3739391 -0.0057992935
-0.11623984 -0.3985681 -0.1257584 0.03356406 0.020850014 -0.11758798 0.17865004 0.15529773
0.090274714 -0.056369424 -0.058156267 -0.20641968 0.05490163 0.004514585 0.013081594 -0.06429374
0.27106667 -0.0063823075 0.15451893 -0.16650163 -0.055962496 -0.0418695 -0.031930763 -0.036550622
00000000: 2614 0f3e 1596 24be 29c5 97bd 9516 9fbd
00000010: a639 28bc 2edf b9be 2118 89be e9c0 50be
00000020: b605 1bbe a8e7 bd3d f622 f6bd c933 70be
00000030: c660 ef3e 7d58 f63b de7b 4bbe 3f30 9d3e
00000040: ed8a fbbc 1fcf c6bd a281 a2be 7ea5 563d
00000050: e52a 87bd 847d cabc bdc0 49bd e124 30bd
00000060: 710a dabd 9ac8 043d 3704 803d 3997 8dbe
00000070: 7464 29bd 0214 843d fa46 60be 0715 ba3e
00000080: 541c 643e 76e1 233e 6737 103e e904 e8bd
00000090: ad2f 5d3e de8e 6dbe aa7f b3bd f882 8bbd
000000a0: 78ff c1be c80c 7bbe 92b9 73be 0fe9 2e3d
000000b0: 8882 9d3e efe7 d7bd cc9e 0d3e f201 7fbe
000000c0: 3a97 2abe 1ea2 353e 6fa9 81be c212 a2be
000000d0: b81b a63d 1294 c7bd e8d7 dabe d081 67bc
000000e0: 2b52 273e 2291 80be 0a55 2e3e 07ce 533e
000000f0: 4fd7 e2bd 4fbb 04be 2a85 1c3e cbff 30bc
00000100: d13d f8bd 39f9 24bd 4ecd 933e 1f7f a23e
00000110: 5b58 e83d bca6 0a3e 0872 1f3d e21d 72bd
00000120: 829a 363f abf8 b73e 681b 8cbe f44c 573e
00000130: 8af6 b93e 6a41 5c3e 8e67 423d 8eb8 3ebe
00000140: 383b 233e f122 553e 14c6 f4ba 871f 693e
00000150: 46e9 c3bd f8ff 213f 369e 893e 5e48 b93d
00000160: 7e5f 30be f67f c03d 252d 40be ddf8 be3d
00000170: c2b6 b9be 91eb 74be 924f c7bd 5674 fa3c
00000180: 86ca b73d 5e27 92be 200c 8e3c 0d7a 17bf
00000190: cf16 d0bd 7668 cabe 4a7e 413e ea7b 44be
000001a0: bc8e 35bd 334e c33d 347d 59bc fbd7 e2bd
000001b0: 596e 0f3e 7cc1 ffbd 0876 31be 4cba 38be
000001c0: eaef 083e be7d 563e 230f a5be cad0 c7bd
000001d0: bb75 bc3b 4af1 d9bd 7f90 a3be bc55 253e
000001e0: 3e53 e43b 7c64 173e b475 25be f09b f33d
000001f0: 2615 8b3e 0954 0dbd 7c3a 58be 3c12 f63e
00000200: ae5e d8bd 73e4 d03d 7a66 87bd 5a5d febd
00000210: 09cb 39be 7ee5 2b3e 3194 823e 4bb2 2f3e
00000220: 745f 2abd 7db4 0d3d a68a 453d 9b91 773d
00000230: 8cb9 04bd 6a11 89be fe68 683e 2fd4 60bc
00000240: 1071 043e 0743 02be 34cc 88be 6a78 2fbe
00000250: 88a4 a8be 0870 0d3e aa76 4a3e 43fd 34be
00000260: f062 3b3d ffc7 5c3d 89e0 1ebd 34aa 433e
00000270: 8b1a a5bd 570f ec3d 8d98 a9be 23c7 ffbc
00000280: a370 a23e df52 7abe 71f6 363d dc37 19be
00000290: 4309 3cbe ea4a cb3d 2db7 6d3e c9d4 95be
000002a0: 1303 b63d 9c44 86be 955e a1bd cdba a5bd
000002b0: 7134 4b3e ff51 93bd fd4e de3d e28e 5ebe
000002c0: fc5f c1bd 575c 1c3e 2cd9 82bd 268b afbd
000002d0: 59a0 c0be 3e49 353e 754c 03be 2ea3 d83d
000002e0: 59f4 83bd ad5a c1bd 5071 4dbc 5e0f 93be
000002f0: eb57 aa3b 7eed 8b3e 9486 2a3e 0aaf 7bbd
00000300: 434a ac3d 6605 003e e33c 4fbe 5688 f43d
00000310: f101 96be 1c96 06be 91d9 b2be 8cd7 913e
00000320: f2ec 4e3e b279 edbd b836 bf3a 82e1 8b3e
00000330: 6dfb 053e 2a6a 02be 2b4f 37bd da18 ac3d
00000340: 18f4 6eba a415 413d cad1 b23d 831b bdbd
00000350: f95f a9bd 8369 7abe 9e9a 163e 7563 4dbc
00000360: 1f4e 0cbf 5a67 7f3e eed1 15be eda9 45be
00000370: c8dc 09be b4ca c73d 55a6 d5be e558 ca3d
00000380: c2ac 9dbd 0b02 c73d 586e 9f3e 8fc9 7ebd
00000390: ad2f aabe ad27 d43d f274 bf3e 0008 bebb
000003a0: 270f eebd 1e11 ccbe cfc6 00be 787a 093d
000003b0: a6cd aa3c f8d1 f0bd 09f0 363e 5e06 1f3e
000003c0: f3e1 b83d a0e3 66bd 4435 6ebd ae5f 53be
000003d0: 88e0 603d 15ef 933b 2f54 563c 70ac 83bd
000003e0: 40c9 8a3e ad22 d1bb 363a 1e3e 677f 2abe
000003f0: ee38 65bd 5a7f 2bbd d5c9 02bd 1bb6 15bd

dncnn.2.conv.bias f4 [13]
-0.015708523 -0.07019455 -0.037929997 0.04467928 0.029954486 -0.0055942293 -0.005472908 0.030726083
0.11406709 0.0913382 -0.010619924 0.03069622 0.0563933
00000000: 29af 80bc 29c2 8fbd 7c5c 1bbd 9f01 373d
00000010: 1c63 f53c cc4f b7bb 1456 b3bb 44b5 fb3c
00000020: 029c e93d 860f bb3d 31ff 2dbc a476 fb3c
00000030: a9fc 663d

dncnn.2.bn.weight f4 [13]
-0.07638793 -0.056834772 -0.057651564 0.059231333 0.050108537 0.011501145 -0.056273706 0.08383924
-0.061614465 0.12281765 0.06796775 0.009942109 0.11875625
00000000: 4671 9cbd 94cb 68bd 0c24 6cbd 8e9c 723d
00000010: 9c3e 4d3d 4c6f 3c3c 427f 66bd e8b3 ab3d
00000020: 735f 7cbd d287 fb3d ad32 8b3d 3ae4 223c
00000030: 7a36 f33d

dncnn.2.bn.bias f4 [13]
0.1811431 0.17150062 0.14666274 0.19677494 0.14744234 -0.07960815 0.14318581 0.13377585
0.106788285 -0.08157234 0.26111332 -0.07431551 0.40549284
00000000: 947d 393e dc9d 2f3e c22e 163e 5f7f 493e
00000010: 20fb 163e 9909 a3bd 4d9f 123e 89fc 083e
00000020: d1b3 da3d 660f a7bd a5b0 853e bb32 98bd
00000030: c29c cf3e

dncnn.2.bn.running_mean f4 [13]
0.12084319 -0.22049694 -0.25722143 -0.06871863 -0.0032821498 0.023140868 0.1586076 -0.51024574
0.4122957 0.5772451 -0.3014218 -0.5653072 0.113192365
00000000: a27c f73d f3c9 61be 87b2 83be 5abc 8cbd
00000010: 5619 57bb eb91 bd3c 086a 223e 779f 02bf
00000020: 6c18 d33e 56c6 133f f553 9abe f9b7 10bf
00000030: 66d1 e73d

dncnn.2.bn.running_var f4 [13]
0.036365524 0.03407937 0.011271664 0.028195491 0.02719622 0.014546163 0.017101113 0.043264464
0.023879 0.03352141 0.030385124 0.021473957 0.05313429
00000000: 04f4 143d cf96 0b3d c9ac 383c 3bfa e63c
00000010: 9bca de3c 0853 6e3c a217 8c3c 1436 313d
00000020: e59d c33c bf4d 093d 39ea f83c 27ea af3c
00000030: 57a3 593d

dncnn.3.conv.weight f4 [13, 13, 3, 3]
0.103393786 0.17271037 -0.25759768 0.08740532 0.34944504 -0.16478151 0.17374444 0.15280315
0.035651375 -0.005611683 -0.08781702 0.1461067 0.28970304 -0.17357066 0.0029607734 -0.023635387
0.165052 -0.15069637 -0.12152107 -0.34054092 -0.09765277 -0.26841027 0.2031176 0.15112004
0.077078685 -0.056071945 0.19307078 0.1157521 -0.12294692 0.10862391 -0.116565414 0.12375575
0.14566663 -0.034870125 -0.026439415 -0.29773176 0.14621678 0.26660278 -0.0985926 0.02268072
-0.250336 -0.013015481 -0.055282153 0.121970266 -0.16736026 -0.15785617 -0.1050572 -0.10063601
0.11073295 0.23492491 0.10927806 0.05104444 -0.042574406 -0.09404354 0.21031427 -0.17891473
0.10869743 0.14917156 0.42750424 0.10205996 0.026130036 0.3910128 0.124887384 0.104942575
0.14170729 -0.1599964 -0.26336342 -0.22404225 -0.072949365 -0.228664 -0.07653185 -0.26424393
-0.22513202 -0.061802156 -0.30104342 -0.2537693 0.03449504 0.32769778 -0.24862057 0.1510608
0.12462029 0.1472894 0.09219644 -0.29634327 0.17176625 0.23869818 -0.24850042 -0.2523111
0.2075156 0.040854122 0.1951863 -0.037160214 0.059504867 0.18833175 -0.09249832 -0.14711131
0.09171944 0.055474788 0.27773458 -0.0641324 0.2361434 -0.0061184 -0.036621165 -0.104740605
0.018550403 -0.01890467 -0.020335848 0.19877885 -0.057179116 -0.033151556 0.101297684 0.08522392
0.15939239 -0.5110855 -0.055199772 -0.40073767 0.009108758 -0.21885884 -0.35972133 0.080275476
-0.22672689 -0.58122873 -0.052199826 -0.10258725 -0.19353297 0.05979358 0.038686343 -0.10766267
-0.15014504 0.08505406 -0.12067466 0.081659004 -0.07594615 0.09435739 -0.16795109 0.007582739
0.29148716 0.17797282 0.28983295 0.15659443 0.2539817 0.10150697 0.43209267 0.10990646
0.1443953 -0.3543194 -0.26791263 -0.036172744 0.15342347 -0.3841238 0.21316579 0.10475203
-0.01129726 0.22647057 0.014036191 0.14906701 -0.04807246 -0.2729811 -0.10989781 -0.09220547
0.04756604 -0.18387972 0.03320117 0.09787038 0.13377595 0.123030245 -0.20413142 0.0067408625
0.06699075 -0.17809333 -0.2330147 -0.083957165 -0.29372007 -0.09608072 -0.111837626 0.3655832
-0.20749488 0.08334443 0.25108665 0.17485632 -0.41699868 -0.33863968 -0.093403205 -0.0898545
0.05913539 -0.10730907 -0.061324015 -0.38067836 -0.36495638 -0.19201697 -0.14040032 0.17401485
0.100945 -0.03429257 0.2206752 -0.2544082 0.23447359 0.2018375 -0.44652 -0.17349803
0.14169952 0.10285689 -0.26090115 -0.14431044 0.25708473 0.029435454 -0.10358209 -0.15735412
-0.08356776 0.12305206 -0.12132243 0.2561372 0.33627838 -0.043761943 0.028605076 -0.05536576
0.12327891 -0.053166725 0.05855061 -0.07100116 -0.12309997 0.24255316 0.06640315 -0.17097098
0.23859678 -0.10433198 0.08076632 0.15597828 0.12080461 -0.16685875 0.0654781 0.17614351
-0.06573617 0.1288689 -0.13736205 0.008026235 -0.11615507 -0.00028321455 -0.19722311 -0.03202844
-0.04237122 -0.085440904 -0.032514438 -0.027745312 -0.09434486 -0.117716864 0.0012665367 0.07200834
-0.09121176 0.05662646 0.058778126 0.21536069 -0.05595431 0.030197253 0.18168186 -0.33624068
00000000: 1fc0 d33d fdda 303e d8e3 83be 8f01 b33d
00000010: 76ea b23e 7cbc 28be 10ea 313e 6e78 1c3e
00000020: 2d07 123d 35e2 b7bb 69d9 b3bd ff9c 153e
00000030: f553 943e 82bc 31be 8909 423b 009f c1bc
00000040: 6403 293e 2650 1abe 0ae0 f8bd 615b aebe
00000050: 2dfe c7bd 126d 89be 0ffe 4f3e 36bf 1a3e
00000060: 6edb 9d3d b2ab 65bd 59b4 453e 700f ed3d
00000070: 98cb fbbd 3676 de3d d9b9 eebd a873 fd3d
00000080: a229 153e fad3 0ebd 7997 d8bc 4c70 98be
00000090: dab9 153e 2980 883e ebea c9bd ebcc b93c
000000a0: 0a2c 80be e23e 55bc 8a6f 62bd 8ccb f93d
000000b0: 7d60 2bbe 0ca5 21be 3b28 d7bd 411a cebd
000000c0: f5c7 e23d 2890 703e 2dcd df3d fa13 513d
000000d0: 8062 2ebd e699 c0bd a05c 573e 6c35 37be
000000e0: c29c de3d 6ec0 183e d6e1 da3e d004 d13d
000000f0: a80e d63c d432 c83e f5c4 ff3d 22ec d63d
00000100: b71b 113e 19d6 23be 92d7 86be 556b 65be
00000110: 7a66 95bd e526 6abe bbbc 9cbd fb4a 87be
00000120: 0289 66be 4224 7dbd 5d22 9abe 0dee 81be
00000130: ac4a 0d3d 01c8 a73e 6496 7ebe afaf 1a3e
00000140: ec38 ff3d 08d3 163e 7dd1 bc3d 4eba 97be
00000150: 7ee3 2f3e 4c6d 743e e576 7ebe ec2e 81be
00000160: f87e 543e a756 273d ebde 473e 4f35 18bd
00000170: 60bb 733d 0ada 403e c26f bdbd 59a4 16be
00000180: 67d7 bb3d 8839 633d 3a33 8e3e d957 83bd
00000190: 93cf 713e dc7c c8bb 1300 16bd 3e82 d6bd
000001a0: 04f7 973c f7dd 9abc 5d97 a6bc af8c 4b3e
000001b0: a634 6abd edc9 07bd 2975 cf3d e189 ae3d
000001c0: c237 233e 80d6 02bf 2819 62bd 7d2d cdbe
000001d0: e63c 153c 881c 60be 652d b8be 7867 a43d
000001e0: 182b 68be 68cb 14bf 7ccf 55bd 4419 d2bd
000001f0: 822d 46be 1dea 743d 9275 1e3d 3f7e dcbd
00000200: 9fbf 19be d330 ae3d 4724 f7bd d63c a73d
00000210: a889 9bbd 733e c13d 5ffb 2bbe a078 f83b
00000220: ce3d 953e 823e 363e fc64 943e 4a5a 203e
00000230: e409 823e e3e2 cf3d 403b dd3e a316 e13d
00000240: 5ddc 133e 5a69 b5be d82b 89be df29 14bd
00000250: 0b1b 1d3e e0ab c4be 2248 5a3e 3b88 d63d
00000260: 2518 39bc e7e7 673e 0df8 653c 06a5 183e
00000270: a1e7 44bd 2ec4 8bbe 1a12 e1bd 39d6 bcbd
00000280: 9cd4 423d f74a 3cbe f3fd 073d 4470 c83d
00000290: 90fc 083e 48f7 fb3d d407 51be 74e2 dc3b
000002a0: 7232 893d 195e 36be 689b 6ebe bcf1 abbd
000002b0: 7a62 96be f8c5 c4bd 200b e5bd b92d bb3e
000002c0: 8a79 54be 7cb0 aa3d 6e8e 803e 890d 333e
000002d0: da80 d5be 2e62 adbe 2e4a bfbd a305 b8bd
000002e0: f337 723d dcc4 dbbd e42e 7bbd 46e8 c2be
000002f0: 90db babe 19a0 44be 1ac5 0fbe f330 323e
00000300: 41bc ce3d 5e76 0cbd aef8 613e cb41 82be
00000310: d819 703e 7dae 4e3e 459e e4be 78a9 31be
00000320: ae19 113e a2a6 d23d d694 85be 1ec6 13be
00000330: 9ca0 833e 9f22 f13c d922 d4bd 7021 21be
00000340: 9325 abbd b802 fc3d e577 f8bd 6a24 833e
00000350: ae2c ac3e b93f 33bd 3155 ea3c 35c7 62bd
00000360: a779 fc3d 5ac5 59bd c4d2 6f3d 0e69 91bd
00000370: d61b fcbd db5f 783e 60fe 873d 0413 2fbe
00000380: b752 743e 01ac d5bd d068 a53d c5b8 1f3e
00000390: 6868 f73d 05dd 2abe 6219 863d f75e 343e
000003a0: afa0 86bd 35f6 033e a3a8 0cbe 7880 033c
000003b0: b6e2 edbd 6a7c 94b9 dbf4 49be 4130 03bd
000003c0: 728d 2dbd a4fb aebd dc2d 05bd 234a e3bc
000003d0: e137 c1bd 8a15 f1bd eb01 a63a 1c79 933d
000003e0: 3bcd babd 26f1 673d 55c1 703d 8387 5c3e
000003f0: 5930 65bd 3b60 f73c cf0a 3a3e bd27 acbe

dncnn.3.conv.bias f4 [13]
-0.064237915 0.13406691 0.1362667 0.057079062 0.066714354 0.022056352 -0.051913258 -0.09620928
0.04319542 0.0335428 0.05575261 -0.09744575 -0.026542846
00000000: 2b8f 83bd d648 093e 7f89 0b3e bccb 693d
00000010: 89a1 883d 86af b43c ffa2 54bd 5f09 c5bd
00000020: aeed 303d 2d64 093d d95c 643d a391 c7bd
00000030: 6270 d9bc

dncnn.3.bn.weight f4 [13]
0.06257802 -0.08030734 0.08733282 0.10490371 0.1449783 0.065488994 -0.06269209 -0.10900623
-0.058239505 0.07357449 -0.09436749 0.009864839 0.12696846
00000000: e828 803d 2d78 a4bd 8ddb b23d c2d7 d63d
00000010: 3175 143e 181f 863d b664 80bd a93e dfbd
00000020: 8c8c 6ebd 39ae 963d be43 c1bd 22a0 213c
00000030: 0504 023e

dncnn.3.bn.bias f4 [13]
0.2170687 0.14548239 0.21065544 0.33537692 -0.07702462 0.18373024 0.15389478 0.12896599
0.18971944 0.299582 0.13152875 -0.05358355 -0.09823548
00000000: 4247 5e3e 56f9 143e 0fb6 573e 86b6 ab3e
00000010: 15bf 9dbd c823 3c3e 9896 1d3e a90f 043e
00000020: d045 423e d062 993e 79af 063e 6d7a 5bbd
00000030: af2f c9bd

dncnn.3.bn.running_mean f4 [13]
-0.095862955 -0.04297038 -0.22296675 -0.18630686 0.13648506 -0.25723362 -0.09609102 0.50812185
-0.23730268 0.16382757 0.73411095 -0.3040455 -0.8051153
00000000: cc53 c4bd b601 30bd 6551 64be 3ac7 3ebe
00000010: bdc2 0b3e 20b4 83be 5ecb c4bd 4614 023f
00000020: 79ff 72be 6ac2 273e b2ee 3b3f daab 9bbe
00000030: 091c 4ebf

dncnn.3.bn.running_var f4 [13]
0.038840007 0.030630117 0.058557 0.0466054 0.019910354 0.029710414 0.019449187 0.03308385
0.025241937 0.03652941 0.02970358 0.013774326 0.0549477
00000000: b316 1f3d 03ec fa3c 77d9 6f3d 4ee5 3e3d
00000010: 0a1b a33c 4163 f33c e753 9f3c ee82 073d
00000020: 2ec8 ce3c dd9f 153d ec54 f33c b6ad 613c
00000030: d710 613d

dncnn.4.conv.weight f4 [13, 13, 3, 3]
0.2669733 -0.16235398 -0.2544457 -0.055476896 -0.01794943 0.07778145 0.15072039 0.09485942
-0.14311548 0.09066467 -0.033594973 0.15627211 0.040550448 0.41080782 -0.19346288 0.07330008
0.1281541 0.292805 -0.1787846 -0.22325887 -0.006838468 0.07564486 0.12698819 0.27219403
-0.21763395 0.09116911 0.16400231 0.12537421 0.11783265 0.058455873 0.1406741 -0.22576836
-0.12447112 -0.2241946 0.12581429 -0.17282459 -0.098671414 0.15986706 -0.13686931 -0.31530243
0.16753341 0.51440346 -0.8064482 -0.10571459 -0.46090317 -0.30772895 0.119229175 -0.38109133
0.060555298 -0.097389184 0.049152844 -0.08893865 -0.1774804 -0.13410169 -0.08007843 0.16236529
0.123157196 -0.30360508 -0.13374647 0.1629904 0.011814117 0.35487944 0.11983448 0.19467476
0.17922951 0.17045777 0.2728602 0.4260381 0.15305936 0.5505264 0.07216035 -0.22608842
0.09716155 0.33622298 0.30255643 0.20051819 -0.015467379 -0.5819276 -0.26572648 -0.31942788
-0.15488303 0.042779047 -0.22986677 -0.25481263 -0.186779 0.16582558 0.22832352 -0.153901
0.07173298 0.074109286 0.03991637 0.21683986 -0.11024693 0.070675746 0.10478188 0.08484804
0.33184925 -0.26971373 -0.06406562 0.1556452 -0.008750735 -0.025632344 -0.09573189 -0.090254314
-0.016570115 -0.02329654 -0.065341726 -0.047106173 -0.0035607517 0.2674259 0.24567257 0.14109036
-0.053231705 0.13682264 0.42311805 0.22219363 0.14985263 0.23081893 0.13001482 0.15574133
0.23476332 -0.33584112 0.15385383 0.1542848 -0.12838982 0.08251193 -0.02040974 -0.042372048
0.0029630174 -0.14707367 -0.12063615 0.06487227 0.023796475 0.0781657 0.25780994 -0.12623766
0.23863353 0.03874143 -0.13112359 -0.22033538 0.06380763 -0.22082952 0.00868577 -0.16367987
0.044201557 -0.08420656 -0.033946056 -0.026757715 0.6961635 -0.43751264 -0.16832559 0.4858717
-0.014950324 0.216704 0.39985022 -0.13439167 0.14270112 -0.24644366 0.19187512 -0.3497235
0.24280514 0.2581965 -0.26696765 0.11339137 0.13178293 0.035874046 -0.21470179 0.19924377
-0.17449664 0.018340565 0.03733091 -0.03308183 -0.15422103 0.047984444 -0.18758868 -0.09065504
0.097151496 0.12947337 0.30052665 -0.018685933 -0.062463142 -0.36319977 -0.24350572 0.2876482
0.03943869 -0.2740426 0.26501435 0.016976759 0.14811938 -0.11175209 0.075720005 -0.17500068
-0.2954732 0.30625477 -0.43119702 0.05421688 -0.06398038 -0.05164268 -0.04406675 -0.08778084
0.15047327 -0.1633676 0.543607 -0.15253432 -0.1967098 0.12052128 -0.22934073 0.1010126
0.020545423 -0.012881773 0.09717693 0.32201415 0.077599205 0.088915385 0.01938884 0.044693917
-0.19670548 0.09502458 -0.050504334 0.25252303 0.0917898 -0.06388576 -0.115436725 -0.18126175
-0.11755278 0.08226458 0.08490457 -0.01199877 0.07541926 0.015040004 0.014328173 0.3681001
0.07297181 0.12914832 0.037928265 0.33489776 0.2104527 0.15498126 -0.40447587 -0.37954527
0.1581189 -0.53599495 -0.51805127 -0.21641508 0.18394333 0.27818906 -0.41859955 -0.7943564
-0.17300871 -0.36705506 -0.53557056 -0.41358915 0.10292838 -0.18792146 -0.2904956 -0.088578925
00000000: b9b0 883e 1f40 26be b546 82be be3b 63bd
00000010: af0a 93bc e14b 9f3d 7256 1a3e a845 c23d
00000020: dd8c 12be 66ae b93d e29a 09bd cc05 203e
00000030: 3a18 263d 6755 d23e 221b 46be 5a1e 963d
00000040: d43a 033e 89ea 953e 4f13 37be f99d 64be
00000050: 3a15 e0bb b1eb 9a3d 3109 023e 045d 8b3e
00000060: 6fdb 5ebe dfb6 ba3d 39f0 273e 1962 003e
00000070: 3f52 f13d 6d6f 6f3d df0c 103e d22f 67be
00000080: b7ea febd 4593 65be 76d5 003e eef8 30be
00000090: 3d14 cabd 31b4 233e 7827 0cbe 526f a1be
000000a0: e18d 2b3e f2af 033f 6473 4ebf e480 d8bd
000000b0: 80fb ebbe a68e 9dbe 6d2e f43d 671e c3be
000000c0: d508 783d fb73 c7bd 7e54 493d 7825 b6bd
000000d0: 6cbd 35be f451 09be 2900 a4bd 1643 263e
000000e0: d739 fc3d 2072 9bbe d6f4 08be f5e6 263e
000000f0: 0090 413c c2b2 b53e c86b f53d d258 473e
00000100: f187 373e 7b8c 2e3e 55b4 8b3e aa21 da3e
00000110: 98bb 1c3e 4cef 0c3f cec8 933d b983 67be
00000120: a2fc c63d 6b25 ac3e ade8 9a3e a454 4d3e
00000130: e46a 7dbc 35f9 14bf 4d0d 88be 0d8c a3be
00000140: a899 1ebe 1539 2f3d 3262 6bbe cd76 82be
00000150: ff42 3fbe 2ece 293e a4cd 693e 3998 1dbe
00000160: bee8 923d 9cc6 973d 597f 233d 450b 5e3e
00000170: 24c9 e1bd 72be 903d e297 d63d cfc4 ad3d
00000180: 25e8 a93e eb17 8abe d634 83bd 7561 1f3e
00000190: 3e5f 0fbc ecfa d1bc 150f c4bd 41d7 b8bd
000001a0: 0dbe 87bc 63d8 bebc e2d1 85bd 67f2 40bd
000001b0: 805b 69bb 0cec 883e 9791 7b3e fe79 103e
000001c0: 7d09 5abd 3c1b 0c3e eea2 d83e ba86 633e
000001d0: f872 193e cc5b 6c3e 9b22 053e a87a 1f3e
000001e0: cc65 703e 5ef3 abbe dc8b 1d3e d6fc 1d3e
000001f0: 9f78 03be 04fc a83d 5432 a7bc 508e 2dbd
00000200: 2f2f 423b 7b9a 16be 1610 f7bd c1db 843d
00000210: d3f0 c23c 5715 a03d aaff 833e 7244 01be
00000220: 595c 743e 55af 1e3d 4345 06be 999f 61be
00000230: 93ad 823d 2221 62be c34e 0e3c b29b 27be
00000240: b10c 353d 7d74 acbd 050b 0bbd ff32 dbbc
00000250: c537 323f a801 e0be 8b5d 2cbe 2dc4 f83e
00000260: 34f2 74bc a7e7 5d3e 2bb9 cc3e f89d 09be
00000270: 3e20 123e ba5b 7cbe e97a 443e f50e b3be
00000280: e9a1 783e 5532 843e fcaf 88be bc39 e83d
00000290: 1bf2 063e aaf0 123d c9da 5bbe 8f06 4c3e
000002a0: 3faf 32be f43e 963c 4ce8 183d d080 07bd
000002b0: 1eec 1dbe 568b 443d 3f17 40be 5aa9 b9bd
000002c0: 5df7 c63d ab94 043e a1de 993e 3e13 99bc
000002d0: 5ad9 7fbd 52f5 b9be 9059 79be a046 933e
000002e0: 778a 213d 504f 8cbe f6af 873e d812 8b3c
000002f0: 9bac 173e 48de e4bd 1713 9b3d 6133 33be
00000300: 4348 97be 6dcd 9c3e dbc5 dcbe 8512 5e3d
00000310: 2508 83bd 4687 53bd 567f 34bd 71c6 b3bd
00000320: aa15 1a3e d649 27be d429 0b3f f531 1cbe
00000330: 4b6e 49be dcd3 f63d 4cd8 6abe b2df ce3d
00000340: e04e a83c 120e 53bc b304 c73d 0adf a43e
00000350: 55ec 9e3d 4519 b63d 58d5 9e3c f810 373d
00000360: 296d 49be 3f9c c23d a2dd 4ebd b34a 813e
00000370: 4afc bb3d 8ad6 82bd 176a ecbd ae9c 39be
00000380: 83bf f0bd 557a a83d 72e2 ad3d 7d96 44bc
00000390: 6a75 9a3d 596a 763c b7c0 6a3c 9e77 bc3e
000003a0: 3f72 953d 753f 043e ab5a 1b3d b877 ab3e
000003b0: ea80 573e 68b3 1e3e 7617 cfbe c253 c2be
000003c0: ece9 213e f736 09bf 029f 04bf ea9b 5dbe
000003d0: a45b 3c3e cc6e 8e3e ae52 d6be f15a 4bbf
000003e0: 3229 31be a4ee bbbe 271b 09bf f5c1 d3be
000003f0: 1dcc d23d 7c6e 40be d7bb 94be de68 b5bd

dncnn.4.conv.bias f4 [13]
0.024394657 -0.073215425 -0.06260182 -0.078531 0.05980105 -0.04017837 -0.002355804 0.0647915
-0.042759296 -0.03829038 -0.016002292 -0.009351166 0.043642752
00000000: 4ed7 c73c f8f1 95bd 6235 80bd dcd4 a0bd
00000010: f2f1 743d 1392 24bd d563 1abb 68b1 843d
00000020: 5f24 2fbd 60d6 1cbd 3d17 83bc a235 19bc
00000030: bec2 323d

dncnn.4.bn.weight f4 [13]
0.06202534 -0.07198052 -0.13827322 0.064619355 0.08341735 -0.05725122 0.06965413 0.09010237
-0.06955495 -0.06497639 -0.08601284 0.10169683 -0.06292229
00000000: 480e 7e3d 866a 93bd 7f97 0dbe 2757 843d
00000010: b7d6 aa3d 4180 6abd d3a6 8e3d 9787 b83d
00000020: d372 8ebd 5712 85bd 8027 b0bd 6d46 d03d
00000030: 67dd 80bd

dncnn.4.bn.bias f4 [13]
0.19303033 0.24676487 -0.11242266 0.19374204 0.19237323 0.1896002 0.2168657 0.31627387
0.15458618 0.07834291 0.17195283 0.06423628 0.10884302
00000000: bea9 453e eeaf 7c3e da3d e6bd 5064 463e
00000010: 7dfd 443e 8e26 423e 0b12 5e3e a6ee a13e
00000020: d74b 1e3e 3f72 a03d 6714 303e 508e 833d
00000030: 17e9 de3d

dncnn.4.bn.running_mean f4 [13]
0.1704388 0.093651064 -1.8237692 -0.7780839 0.056032233 0.08296155 0.890823 0.1071566
0.004470161 0.03206513 -0.473398 -0.40063563 0.037083194
00000000: 8287 2e3e 21cc bf3d 4571 e9bf 8230 47bf
00000010: 0e82 653d bfe7 a93d fa0c 643f eb74 db3d
00000020: 6e7a 923b ba56 033d 3961 f2be 1d20 cdbe
00000030: 8ce4 173d

dncnn.4.bn.running_var f4 [13]
0.04036771 0.07001682 0.04143692 0.046361946 0.06272949 0.033801228 0.038352177 0.062118467
0.058175083 0.024104396 0.049249914 0.045756508 0.039173134
00000000: 9d58 253d fb64 8f3d c3b9 293d 06e6 3d3d
00000010: 5278 803d 2873 0a3d 2c17 1d3d ef6f 7e3d
00000020: ff48 6e3d 9576 c53c 47ba 493d 2d6b 3b3d
00000030: 0274 203d

dncnn.5.conv.weight f4 [13, 13, 3, 3]
-0.0019487595 -0.38830125 0.056715664 -0.30509403 -0.3151174 -0.17351393 -0.31393754 -0.18508631
0.3808422 -0.018744359 -0.020201458 0.048922855 0.00028481137 0.21122444 -0.07971123 -0.03257264
-0.052753486 0.042617667 0.13962616 -0.109641604 -0.11560892 0.22881825 0.25891063 -0.005376232
-0.49128905 0.32646355 0.04955201 -0.116258174 0.37194502 0.25429037 0.10751083 -0.2501779
0.11815439 -0.046697278 0.25735563 0.83181083 0.36005065 -0.038068052 -0.08710526 0.48315313
0.11347822 -0.036257517 0.036887508 -0.021811932 0.017349545 -0.1585471 -0.15781757 -0.15639265
-0.26648608 -0.16759355 -0.077199884 0.5010774 0.17863297 -0.46258822 -0.5491628 0.0051258598
0.09865519 -0.36971927 -0.39459598 -0.20258352 0.10623238 -0.46725854 -0.02187117 0.24279208
0.17046858 0.30996323 -0.20334838 -0.5998544 0.2788333 0.3706354 -0.3457131 -0.17985974
-0.05004032 -0.5168893 -0.31401792 0.06651757 -0.39312002 -0.47007963 0.47384265 -0.26592287
0.20998016 0.29892302 -0.13233109 -0.49960405 -0.04752003 -0.16859469 0.19050545 0.40280533
0.057058305 0.04941637 0.4719307 -0.23895523 -0.103769906 0.6640417 -0.18960123 -0.21237844
0.24498472 0.06294143 -0.15569177 0.5252824 0.60117006 0.21186909 0.0067093396 0.18333673
0.009309156 0.34762722 0.004008525 0.32753262 -0.09887006 -0.46770996 0.34149277 -0.2898623
-0.7475828 0.030263439 0.2572136 0.072422065 0.20722693 0.22426482 -0.16787656 -0.07434784
0.20158471 0.22059281 -0.12605289 0.019727882 -0.026991535 -0.068748884 0.11809887 -0.14875321
-0.104463995 0.22202566 0.13358435 -0.058833733 0.22112834 -0.0679036 -0.09601285 -0.06342683
-0.020456547 0.3745985 0.19924152 -0.14845282 -0.37806833 0.15844624 0.43981194 0.112906516
0.05370241 0.3149319 0.035531163 -0.44959787 -0.30694467 -0.016498437 -0.30357003 -0.009103307
0.008856875 0.17582886 0.066864744 0.25363433 -0.20078683 0.018910041 0.16373055 0.28359511
-0.20741968 0.41916728 -0.10698199 0.0639294 -0.20491235 -0.10521506 -0.18251699 -0.11365613
0.487303 0.12588036 -0.27321208 0.2631263 -0.16272448 0.041756995 -0.12772362 -0.5066659
-0.17758705 0.0643534 0.007532583 -0.12504323 0.03588304 -0.06047867 -0.14601846 -0.12376001
-0.24080078 -0.023603912 0.15566893 -0.6013559 -0.46685258 0.12576959 0.17378552 0.12944096
-0.21322776 -0.072077855 -0.06850582 -0.20849407 -0.38833076 -0.31385136 -0.26993364 0.15823674
0.21848565 -0.27027854 -0.12549296 -0.2045536 -0.042051833 -0.080265164 0.2242878 0.16462058
-0.034004264 -0.17275967 0.13111435 -0.11815545 -0.12614451 0.030413792 -0.04341921 0.21015176
0.1262807 -0.13993485 0.16190055 0.06800692 -0.16528285 0.20983441 0.3955799 0.3915701
0.48587063 0.049567744 -0.109158464 0.019427054 -0.07892555 -0.1913684 0.1364797 -0.056788504
-0.026145056 -0.23718145 0.0481192 0.18663296 -0.3716369 -0.09065241 -0.16815533 0.1364284
0.17923896 0.40530095 0.073207624 -0.33680588 -0.21437277 -0.37502405 -0.034000218 0.2544198
-0.2015671 -0.35705876 0.05651065 -0.34709617 -0.02835501 -0.19396663 -0.20558701 0.25712472
00000000: 856d ffba 6ccf c6be af4e 683d 4935 9cbe
00000010: 1157 a1be a3ad 31be 6cbc a0be 4487 3dbe
00000020: c0fd c23e c58d 99bc 877d a5bc 5563 483d
00000030: bc52 9539 384b 583e a43f a3bd e36a 05bd
00000040: 0a14 58bd dd8f 2e3d 29fa 0e3e c78b e0bd
00000050: 5fc4 ecbd 554f 6a3e ef8f 843e 1a2b b0bb
00000060: 3d8a fbbe 3b26 a73e 0cf7 4a3d c418 eebd
00000070: 946f be3e 5932 823e a32e dc3d 5117 80be
00000080: eefa f13d a545 3fbd 1ec4 833e 8ef1 543f
00000090: 8f58 b83e 3fed 1bbd 3e64 b2bd d95f f73e
000000a0: 4567 e83d c382 14bd 5b17 173d f0ae b2bc
000000b0: a220 8e3c 2c5a 22be ee9a 21be 6525 20be
000000c0: dd70 88be a59d 2bbe f91a 9ebd 9c46 003f
000000d0: 90eb 363e 5dd8 ecbe ef95 0cbf d4f6 a73b
000000e0: bb0b ca3d d84b bdbe 7c08 cabe 0e72 4fbe
000000f0: 5d90 d93d 833c efbe 2b2b b3bc 7d9e 783e
00000100: 518f 2e3e 80b3 9e3e 8f3a 50be 0f90 19bf
00000110: 3dc3 8e3e ecc3 bd3e 4f01 b1be 272d 38be
00000120: 14f7 4cbd db52 04bf f5c6 a0be 5d3a 883d
00000130: 0747 c9be 47ae f0be 819b f23e 0b27 88be
00000140: 0a05 573e 700c 993e cd81 07be 1acc ffbe
00000150: 5da4 42bd 16a4 2cbe dc13 433e 803c ce3e
00000160: f8b5 693d d268 4a3d e7a0 f13e aeb0 74be
00000170: 5185 d4bd a3fe 293f d326 42be bc79 59be
00000180: 46dd 7a3e 70e7 803d aa6d 1fbe e878 063f
00000190: 48e6 193f 36f4 583e 05da db3b a0bc 3b3e
000001a0: 6e85 183c 32fc b13e f259 833b 5bb2 a73e
000001b0: 637c cabd ae77 efbe 24d8 ae3e d568 94be
000001c0: 9661 3fbf 08eb f73c 80b1 833e 0552 943d
000001d0: 4c33 543e ada5 653e d5e7 2bbe ae43 98bd
000001e0: 396c 4e3e 15e3 613e 0214 01be 5e9c a13c
000001f0: 5a1d ddbc 37cc 8cbd d2dd f13d c352 18be
00000200: 38f1 d5bd b25a 633e 56ca 083e a4fb 70bd
00000210: 786f 623e 0b11 8bbd 63a2 c4bd ede5 81bd
00000220: 7d94 a7bc 60cb bf3e f805 4c3e 0404 18be
00000230: 2c92 c1be bb3f 223e 082f e13e 883b e73d
00000240: 0ff7 5b3d c13e a13e 2089 113d b131 e6be
00000250: da27 9dbe bb27 87bc 886d 9bbe 0926 15bc
00000260: 6d1c 113c 7b0c 343e 62f0 883d 5cdc 813e
00000270: 109b 4dbe 3be9 9a3c fba8 273e 6133 913e
00000280: d365 54be 189d d63e 6019 dbbd 6bed 823d
00000290: 8bd4 51be fe7a d7bd bce5 3abe 8cc4 e8bd
000002a0: c77f f93e c8e6 003e 74e2 8bbe 7eb8 863e
000002b0: 3fa1 26be 6209 2b3d fbc9 02be dbb4 01bf
000002c0: 61d9 35be b7cb 833d e3d3 f63b 550b 00be
000002d0: 18fa 123d 7bb8 77bd dd85 15be e375 fdbd
000002e0: 7b94 76be fe5c c1bc ad67 1f3e 76f2 19bf
000002f0: 4d07 efbe bec9 003e d5f4 313e 2c8c 043e
00000300: 6158 5abe 8e9d 93bd c84c 8cbd 787f 55be
00000310: 4ad3 c6be 20b1 a0be be34 8abe d008 223e
00000320: b4ba 5f3e f361 8abe 3a81 00be 8076 51be
00000330: 8b3e 2cbd 1062 a4bd b3ab 653e 4c92 283e
00000340: 0e48 0bbd e9e7 30be d742 063e 7cfb f1bd
00000350: 072c 01be 5826 f93c 57d8 31bd 0632 573e
00000360: ba4f 013e 154b 0fbe 42c9 253e 3647 8b3d
00000370: e83f 29be d5de 563e 7389 ca3e e07b c83e
00000380: 09c4 f83e 8c07 4b3d 798e dfbd 7c25 9f3c
00000390: b8a3 a1bd 14f6 43be 56c1 0b3e 109b 68bd
000003a0: 282e d6bc b2df 72be a318 453d b61c 3f3e
000003b0: 3147 bebe f9a7 b9bd e930 2cbe e3b3 0b3e
000003c0: 6b8a 373e 9b83 cf3e e1ed 953d d271 acbe
000003d0: 8984 5bbe 2703 c0be d043 0bbd 5043 823e
000003e0: 9b67 4ebe 68d0 b6be b677 673d 97b6 b1be
000003f0: c448 e8bc 309f 46be 6785 52be daa5 833e

dncnn.5.conv.bias f4 [13]
-0.060522646 -0.06874185 -0.03586903 -0.04350564 -0.0504487 0.040757097 -0.05605875 -0.15188482
-0.0596071 0.012882411 0.010508635 0.040949404 0.021940716
00000000: 98e6 77bd 87c8 8cbd 67eb 12bd f832 32bd
00000010: 4ca3 4ebd eaf0 263d dc9d 65bd b287 1bbe
00000020: 9326 74bd bf10 533c 692c 2c3c 90ba 273d
00000030: 04bd b33c

dncnn.5.bn.weight f4 [13]
-0.08497581 -0.042964738 0.14479461 -0.082804896 0.052254155 0.06264102 -0.10048585 0.081873596
0.047227446 0.06198237 0.087245196 -0.0525524 0.06929847
00000000: cc07 aebd cbfb 2fbd 0a45 143e 9d95 a9bd
00000010: 7408 563d ef49 803d 86cb cdbd 58ad a73d
00000020: 9171 413d 3ae1 7d3d 9cad b23d 2f41 57bd
00000030: 5bec 8d3d

dncnn.5.bn.bias f4 [13]
-0.15436935 -0.07207277 -0.022463707 -0.094158374 0.106764436 -0.037585594 -0.057463374 0.13600886
0.11220875 -0.06455598 0.038809676 0.03811664 -0.053396527
00000000: 0013 1ebe e39a 93bd cf05 b8bc 1bd6 c0bd
00000010: 50a7 da3d 5af3 19bd b75e 6bbd e845 0b3e
00000020: b3cd e53d ed35 84bd e5f6 1e3d 3220 1c3d
00000030: 51b6 5abd

dncnn.5.bn.running_mean f4 [13]
-0.35551277 -0.67146134 -1.0618852 1.5648344 0.2166636 0.21189865 0.00987392 0.0526365
0.42292643 0.20712861 -0.6145596 0.5989911 0.30547342
00000000: c505 b6be e4e4 2bbf dbeb 87bf 7e4c c83f
00000010: 10dd 5d3e f6fb 583e 39c6 213c 5f99 573d
00000020: d089 d83e 8619 543e c753 1dbf 7b57 193f
00000030: 0367 9c3e

dncnn.5.bn.running_var f4 [13]
0.04449842 0.026305038 0.097845666 0.11163892 0.06835497 0.029621104 0.074491486 0.09156446
0.037430722 0.03399563 0.089290895 0.06090303 0.039014906
00000000: fa43 363d aa7d d73c 4f63 c83d f2a2 e43d
00000010: b1fd 8b3d f5a7 f23c fe8e 983d 2686 bb3d
00000020: f550 193d 003f 0b3d 25de b63d 7575 793d
00000030: 18ce 1f3d

dncnn.6.weight f4 [1, 13, 3, 3]
-0.1736896 -0.09903815 0.22355741 -0.07648074 -0.23431541 0.04688112 0.043101743 -0.13755472
-0.021371266 -0.046305485 -0.13771233 -0.06492138 0.0614993 -0.20634873 -0.17191331 0.23924786
0.25261086 0.14161892 0.021394605 -0.16662757 0.1446378 -0.0024386367 0.2871549 0.071365036
0.0603066 0.044625502 0.018768722 -0.03018105 0.489636 -0.087691545 -0.048365146 -0.32481647
0.025119198 -0.010557101 0.0010040283 0.03304597 0.22699879 -0.12418419 -0.04108232 0.16839038
-0.1893342 0.10687686 0.109429576 -0.20932683 -0.12523119 0.076796465 -0.013830407 -0.12558013
0.066388704 -0.0846347 -0.09867118 0.036638018 -0.014819415 -0.08025681 0.016047597 0.06561335
-0.033532925 0.019434059 0.18046916 0.19047505 0.01472761 -0.069361344 0.043966424 -0.044723574
-0.07725087 0.08018685 -0.03703007 -0.46812648 0.12072302 0.0026754206 0.22332127 0.01749403
0.08824219 -0.14163034 -0.118945606 0.11094824 -0.057494756 -0.09082191 -0.122692876 0.36529517
-0.12241705 0.098160304 0.2082063 0.14357784 0.085387446 0.07702151 0.0204438 -0.031357132
-0.14343706 -0.11429297 -0.035126574 0.26366112 -0.23099118 0.0035779087 -0.45357567 -0.11545804
-0.09758021 -0.07348703 -0.035475217 -0.064316474 0.10761341 0.039231803 -0.2899281 -0.31202134
0.016145917 0.16190328 -0.050037783 0.014972164 0.027274033 0.018939119 0.031221684 -0.045351192
-0.07089426 -0.004982182 -0.13282244 -0.06635749 -0.071652494
00000000: b0db 31be 83d4 cabd 3cec 643e efa1 9cbd
00000010: 61f0 6fbe 6b06 403d 748b 303d 25db 0cbe
00000020: cb12 afbc d2aa 3dbd 7604 0dbe 80f5 84bd
00000030: b1e6 7b3d 154d 53be 0b0a 30be 64fd 743e
00000040: 3656 813e 8d04 113e bd43 af3c 6ba0 2abe
00000050: ee1b 143e 89d1 1fbb f805 933e d527 923d
00000060: 0e04 773d 3bc9 363d ddc0 993c 403e f7bc
00000070: 92b1 fa3e a097 b3bd 881a 46bd 584e a6be
00000080: c7c6 cd3c b1f7 2cbc 9999 833a 365b 073d
00000090: 5f72 683e 4854 febd ef45 28bd 876e 2c3e
000000a0: d3e0 41be 41e2 da3d 9d1c e03d c659 56be
000000b0: 9b3c 00be 7747 9d3d ee98 62bc 1498 00be
000000c0: cdf6 873d f554 adbd 1e14 cabd bf11 163d
000000d0: 22cd 72bc af5d a4bd 4076 833c 4b60 863d
000000e0: d259 09bd 2d34 9f3c e8cc 383e e40b 433e
000000f0: 134c 713c 520d 8ebd 2316 343d 1130 37bd
00000100: b435 9ebd 0139 a43d d8ac 17bd 46ae efbe
00000110: a13d f73d 1c56 2f3b 55ae 643e a44f 8f3c
00000120: 52b8 b43d 8b07 11be c199 f3bd d538 e33d
00000130: 9f7f 6bbd d600 babd 6746 fbbd f807 bb3e
00000140: cab5 fabd 4508 c93d 0834 553e 1206 133e
00000150: 9ddf ae3d 74bd 9d3d c279 a73c 5670 00bd
00000160: 2ae1 12be 6f12 eabd e2e0 0fbd 97fe 863e
00000170: f488 6cbe 597b 6a3b 123b e8be 4475 ecbd
00000180: 22d8 c7bd 5e80 96bd 764e 11bd 5bb8 83bd
00000190: 6b64 dc3d 87b1 203d 7571 94be 43c1 9fbe
000001a0: 7144 843c f9c9 253e 6bf4 4cbd cf4d 753c
000001b0: cb6d df3c 3626 9b3c 9ec4 ff3c 2cc2 39bd
000001c0: 0331 91bd 9241 a3bb 9b02 08be 70e6 87bd
000001d0: 8bbe 92bd
