pre-trained/DCT4_soft-thr_L2_rnd-init_2000.pt (torch_old, 498154 bytes, 4 tensors)

thr f4 [1, 16, 1, 1]
0	0x3f800000	1.0
1	0x3f800000	1.0
2	0x3f800000	1.0
3	0x3f800000	1.0
4	0x3f800000	1.0
5	0x3f800000	1.0
6	0x3f800000	1.0
7	0x3f800000	1.0
8	0x3f800000	1.0
9	0x3f800000	1.0
10	0x3f800000	1.0
11	0x3f800000	1.0
12	0x3f800000	1.0
13	0x3f800000	1.0
14	0x3f800000	1.0
15	0x3f800000	1.0

weight f4 [16, 1, 4, 4]
0	0x3ee49fa2	0.4465304
1	0x3d841fad	0.06451354
2	0x3e39f05c	0.18158096
3	0x3cddc2f4	0.0270705
4	0x3e00d36a	0.12580648
5	0xbe75b964	-0.23996502
6	0xbe391dd4	-0.18077785
7	0xbe9871da	-0.29774362
8	0x3e886d9d	0.26646128
9	0x3c75a922	0.014993938
10	0x3ea63292	0.32460457
11	0x3e92fdeb	0.2870935
12	0x3c1bd614	0.009511489
13	0xbe7f2489	-0.24916281
14	0xbe61e9ed	-0.22061892
15	0xbe4ba1af	-0.19885896
16	0xbe8bd549	-0.2731116
17	0xbe1df0c0	-0.1542387
18	0x3f0954d1	0.53645045
19	0xbe49bc32	-0.19700697
20	0x3e7d0f77	0.2471293
21	0x3e146638	0.14492118
22	0xbd81c58b	-0.063365065
23	0xbefe855d	-0.49711123
24	0xbd904100	-0.07043648
25	0x3d12f4ae	0.035877876
26	0x3e0d6988	0.13809788
27	0x3cb03a61	0.021512212
28	0x3d468ba5	0.04847302
29	0x3d8ce795	0.06880108
30	0x3de27867	0.11058121
31	0xbe4ac8f4	-0.1980322
32	0x3e9b44fb	0.30326065
33	0xbd0cbadc	-0.03435789
34	0x3e8b4951	0.27204373
35	0x3e681da5	0.22667558
36	0x3d89fcac	0.067376465
37	0x3e9e91df	0.30970666
38	0x3dca1dcf	0.09868967
39	0x3eb2d535	0.3492829
40	0xbeaddfec	-0.339599
41	0xbdeb3b9d	-0.1148598
42	0x3f0d85f5	0.5528253
43	0xbdee3afb	-0.116323434
44	0xbe2e1477	-0.16999994
45	0xbe136cfe	-0.14397046
46	0xbea8dbc0	-0.32980156
47	0xbe188a5a	-0.14896527
48	0x3f01f535	0.5076478
49	0x3ea163ab	0.31521353
50	0x3cf9862e	0.03045949
51	0x3ec37178	0.38172507
52	0x3df4cd78	0.119532526
53	0x3d97b2be	0.07407139
54	0xbe55ddb0	-0.20885348
55	0x3e712d95	0.23552544
56	0xbebe815e	-0.37208074
57	0xbf3f2af4	-0.74674916
58	0xbef6e9d7	-0.4822528
59	0x3c9ea27a	0.019364584
60	0x3d789bd9	0.060695503
61	0xbe92140d	-0.28530923
62	0xbd09c36a	-0.033633627
63	0x3eadef94	0.33971846
64	0x3e00001d	0.12500043
65	0xbed2ca81	-0.41170123
66	0xbd984674	-0.07435313
67	0xbd02ff78	-0.031981915
68	0xbefc346e	-0.4925875
69	0x3e777f6c	0.24169701
70	0x3e93e821	0.28888038
71	0x3e2e856b	0.17043082
72	0x3e32700c	0.17425555
73	0xbe3aed07	-0.18254481
74	0x3e73e9f2	0.23819712
75	0x3cbf5be1	0.023359241
76	0x3da6ee33	0.08150902
77	0x3c035f27	0.008018292
78	0x3d226234	0.039644435
79	0xbd741129	-0.059586678
80	0x3ec29e46	0.38011378
81	0x3dec1587	0.115275435
82	0x3e496890	0.19668794
83	0xbce48007	-0.02789308
84	0x3c2beb96	0.01049318
85	0xbe21d916	-0.15805468
86	0xbe99345e	-0.29922765
87	0xbf03125e	-0.511999
88	0x3dcfbbaa	0.10143216
89	0x3e62b468	0.22139132
90	0x3d3c5d33	0.04598732
91	0x3e5a410d	0.21313877
92	0xbe3c0a08	-0.18363202
93	0x3baa3695	0.005194495
94	0xbc0a5e57	-0.008445344
95	0xbe67940d	-0.2261507
96	0xbc85e9d4	-0.01634685
97	0x3e5d2ca9	0.21599068
98	0xbe39dc36	-0.1815041
99	0xbeb8e761	-0.36114028
100	0xbdd45154	-0.103670746
101	0xbc8bb0bb	-0.017052045
102	0xbeeb3b4c	-0.45943677
103	0xbf0ab364	-0.5417998
104	0xbd53ca73	-0.051706742
105	0xbe049181	-0.1294613
106	0x3d6ae3fc	0.05734633
107	0x3e6389d3	0.22220545
108	0x3d0857c9	0.033286843
109	0x3d7b761a	0.061391927
110	0x3f17f39b	0.5935609
111	0x3f21e13e	0.6323432
112	0x3e55048a	0.20802513
113	0x3e6398d0	0.22226262
114	0xbd6d3db1	-0.05792016
115	0x3e32e466	0.1746994
116	0x3e265b59	0.16245784
117	0xbdff2be1	-0.12459541
118	0x3e664b8c	0.22489756
119	0xbedc9a51	-0.43086484
120	0xbde88e38	-0.11355251
121	0xbe3f2e38	-0.18669975
122	0xbe7b9a90	-0.2457068
123	0xbe16019f	-0.14649056
124	0x3b360e05	0.0027779352
125	0x3e85fed9	0.26170996
126	0x3e01d5dd	0.12679239
127	0xbe85af94	-0.26110518
128	0x3e34e071	0.17663743
129	0xbe60d196	-0.2195495
130	0xbc846ed6	-0.016166132
131	0x3e0b3ac8	0.13596642
132	0x3e6dc0ad	0.23218031
133	0xbec7d2db	-0.39028057
134	0xbe277db9	-0.16356553
135	0xbd9db069	-0.07699663
136	0x3e6cc2fd	0.23121257
137	0x3e68bd74	0.2272852
138	0x3e35134a	0.1768314
139	0x3dde1a18	0.10844821
140	0xbd7456a2	-0.059652932
141	0xbe3ad1bf	-0.18244074
142	0xbe4b44aa	-0.19850412
143	0x3d85122a	0.06497605
144	0x3eeaa3b6	0.45828027
145	0xbed2fb2d	-0.41207257
146	0xbe375531	-0.17903592
147	0x3d2aed12	0.041729994
148	0xbe544e43	-0.2073298
149	0xbe845402	-0.25845343
150	0xbef21ac2	-0.4728604
151	0x3d61bb60	0.055110335
152	0x3e408905	0.18802269
153	0xbe0af61f	-0.1357045
154	0x3c928f7f	0.01789069
155	0x3ee432d6	0.44570035
156	0x3e47186f	0.19442914
157	0xbe0b6fbb	-0.1361684
158	0xbd35a1a4	-0.044343606
159	0x3e2e513d	0.17023177
160	0x3e2f862b	0.17141025
161	0x3e85941f	0.2608957
162	0xbe586f7e	-0.21136281
163	0x3e1d4407	0.15357982
164	0x3eaf05b7	0.34184048
165	0xbdbb1dec	-0.091365665
166	0x3e09406b	0.1340348
167	0x3d945445	0.07242636
168	0x3d60fcb9	0.054928515
169	0xbd49c16f	-0.04925674
170	0xbe46d526	-0.19417247
171	0xbe94f690	-0.29094362
172	0x3e7d2059	0.24719371
173	0x3e8718b0	0.26386023
174	0x3da6d9e2	0.081470266
175	0xbe6f4ce3	-0.23369174
176	0xbde2d6fc	-0.11076161
177	0xbe62973d	-0.22128005
178	0xbdb35e6d	-0.08758245
179	0x3e02e96e	0.12784359
180	0xbe537155	-0.20648701
181	0xbd55a973	-0.052163552
182	0xbdd5d662	-0.10441281
183	0x3e7e0799	0.24807586
184	0x3e8d275c	0.2756909
185	0x3e59fc4b	0.21287648
186	0x3dda6de9	0.10665495
187	0xbdf35000	-0.11880493
188	0xbe8355d9	-0.25651434
189	0xbd871645	-0.065960445
190	0xbcfb17a8	-0.030650929
191	0xbce2f3fc	-0.027704231
192	0x3c8d8f3c	0.017280214
193	0xbd986e39	-0.07442898
194	0xbea49008	-0.32141137
195	0x3d0a12e4	0.03370942
196	0xbdb61d6d	-0.08892331
197	0x3dff9a55	0.124806084
198	0xbe8eabb3	-0.2786537
199	0x3dbb0958	0.091326416
200	0x3eb38bd8	0.3506763
201	0x3d991702	0.074750915
202	0x3d48b5c5	0.049001474
203	0x3d517cd6	0.051144443
204	0xbd568e74	-0.052381948
205	0x3e95cc2e	0.2925734
206	0x3d3c8775	0.04602762
207	0xbdfd6c41	-0.123741634
208	0xbcad1336	-0.021127325
209	0x3e723675	0.23653586
210	0x3e8563e0	0.2605276
211	0x3e4d0c91	0.20024325
212	0x3dec8571	0.115488894
213	0x3eb6fbf8	0.35739112
214	0xbbddcfb2	-0.006769144
215	0xbd0363b8	-0.03207752
216	0x3e6f341d	0.23359723
217	0x3f03f7d6	0.5155004
218	0x3eb9fa32	0.36323696
219	0x3df5eecb	0.12008437
220	0x3e3d7c95	0.18504556
221	0x3e85f7f1	0.26165727
222	0x3e6df428	0.2323767
223	0x3de8b011	0.11361707
224	0x3e5f1612	0.21785763
225	0x3c9da780	0.01924491
226	0xbe5c5a39	-0.21518792
227	0x3d952998	0.07283324
228	0x3dc65606	0.096843764
229	0xbeb9ca2a	-0.3628705
230	0x3c0b4fa1	0.008502872
231	0xbdba0605	-0.090831794
232	0xbdb48885	-0.088151015
233	0xbde1213c	-0.10992667
234	0xbdb5e699	-0.08881874
235	0x3d09ed15	0.033673365
236	0x3e226e83	0.1586247
237	0x3e1a13a5	0.15046556
238	0x3ddc9b49	0.10771806
239	0x3e2a8555	0.16652425
240	0x3dc589f8	0.09645456
241	0x3e631b34	0.22178346
242	0x3e862162	0.26197344
243	0xbdbfba98	-0.09361762
244	0xbf01b255	-0.5066274
245	0x3dab8ddf	0.08376669
246	0xbeb9ad12	-0.36264855
247	0xbe34aa11	-0.17643
248	0x3da6a153	0.08136239
249	0xbe46a55c	-0.19399017
250	0xbe4119fe	-0.18857571
251	0x3e486c62	0.19572595
252	0x3cd32205	0.025773058
253	0xbd298744	-0.041388765
254	0x3e0056d4	0.12533122
255	0x3e57c119	0.21069755

bias f4 [16]
0	0xbe54cd65	-0.20781477
1	0xbd85361b	-0.065044604
2	0xbbe4121f	-0.006960168
3	0xbf3472e9	-0.7048784
4	0xbe429cf5	-0.19005187
5	0x3e8e6491	0.278111
6	0xbf388a98	-0.7208648
7	0x3e7af2d6	0.24506697
8	0x3e106f08	0.14104855
9	0x3e861f96	0.26195973
10	0x3d12e385	0.03586151
11	0x3e476702	0.19472888
12	0x3d9ff027	0.07809477
13	0x3f38e689	0.7222677
14	0x3d932510	0.071848035
15	0x3e9235a1	0.2855654

weight f4 [1, 16, 4, 4]
0	0x3e3fea1f	0.18741654
1	0x3e7213a2	0.23640302
2	0xbea4f7c9	-0.32220295
3	0x3def9da5	0.1169999
4	0x3e8d2ba5	0.2757236
5	0xbe89a1c0	-0.26881218
6	0x3d2bf325	0.041979928
7	0x3e8ef7d5	0.27923456
8	0x3cb737d7	0.022365494
9	0xbd098299	-0.033571813
10	0x3ddcc022	0.10778834
11	0xbe9b148c	-0.30289114
12	0xbe616e99	-0.22014846
13	0xbbda8bea	-0.006669511
14	0x3b46aee1	0.0030316638
15	0xbda42d94	-0.08016506
16	0xbdde936b	-0.108679615
17	0xbd9511cd	-0.07278786
18	0xbd8365bb	-0.06415888
19	0xbdc7e3d7	-0.09760254
20	0xbea28047	-0.31738493
21	0xbe026915	-0.12735398
22	0x3ed5c443	0.41751298
23	0xbe6618da	-0.22470418
24	0xbe4bea35	-0.19913562
25	0x3d9de5f1	0.077098735
26	0x3e414f88	0.18877995
27	0x3e48d8f4	0.19614011
28	0xbed61c37	-0.418184
29	0xbe1cc006	-0.15307626
30	0xbdcaec2f	-0.0990833
31	0x3e359c9d	0.17735524
32	0xbc97a746	-0.01851238
33	0xbbf06598	-0.0073363297
34	0xbd0923be	-0.033481352
35	0xbd27cf2c	-0.04096906
36	0x3c8ee6d4	0.017444052
37	0x3e20a53c	0.15688032
38	0x3b006dc3	0.0019596673
39	0xbe0d84c4	-0.13820177
40	0x3d24802e	0.040161304
41	0xbd6756f3	-0.056479406
42	0x3d9ce222	0.07660319
43	0xbc96af94	-0.018394269
44	0xbc882e89	-0.016623752
45	0xbdcf572a	-0.10124047
46	0x3d1b88c8	0.03797224
47	0x3bd2aacb	0.0064290515
48	0x3d5fc842	0.05463434
49	0xbcd7f32e	-0.026361074
50	0xbd89889b	-0.067155086
51	0x3cbad108	0.022804752
52	0x3cdc5df1	0.026900264
53	0xbdc6743d	-0.096901394
54	0xbe37df2b	-0.17956226
55	0xbd8afdb8	-0.06786674
56	0x3d531adb	0.051539283
57	0xbd34eab7	-0.044169154
58	0xbcadb53d	-0.021204585
59	0x3d719544	0.05898024
60	0x3d80ad63	0.06283071
61	0x3c8a7d39	0.016905414
62	0x3d822a4c	0.06355724
63	0x3dc4cf48	0.09609848
64	0xbeb5d354	-0.35512793
65	0x3da026a9	0.07819874
66	0x3e96431d	0.29348078
67	0x3d1417a8	0.036155373
68	0xbefd1c71	-0.49435762
69	0xbde40fbe	-0.11135815
70	0xbd688f56	-0.05677732
71	0x3edbdde8	0.4294274
72	0xbd9472c5	-0.07248453
73	0xbe5aee94	-0.21380073
74	0x3dba50ca	0.090974405
75	0x3d699207	0.05702403
76	0x3d98c995	0.07460324
77	0x3e31bc64	0.17357022
78	0xbea5464d	-0.32280198
79	0x3d7a8482	0.061161526
80	0xbda5f19e	-0.081027254
81	0xbc232d14	-0.009959478
82	0x3d80a876	0.062821314
83	0x3dba38ea	0.09092887
84	0xbd09e8d0	-0.033669293
85	0x3e498faa	0.1968371
86	0x3d0b6605	0.03403284
87	0xbe83aa8d	-0.25716057
88	0x3c9a2b68	0.018819526
89	0x3d3aaaee	0.045573168
90	0xbe80a475	-0.2512547
91	0x3b891bf5	0.004184241
92	0xbcb287da	-0.021793295
93	0xbe80aee1	-0.25133422
94	0x3efa5172	0.48890263
95	0xbdd62eaa	-0.10458119
96	0x3e05c192	0.13062122
97	0x3de3cebd	0.111234166
98	0x3baa0f8c	0.0051898416
99	0x3bf51cf0	0.0074802563
100	0x3d56adbd	0.052411783
101	0x3cba0d22	0.02271134
102	0xbc8f03df	-0.0174579
103	0xbc48c6a3	-0.01225439
104	0xbdfac612	-0.1224481
105	0xbdc78879	-0.09742827
106	0x3c2c5f73	0.010520804
107	0xbc97873f	-0.018497108
108	0xbd75184e	-0.059837632
109	0xbcf5a130	-0.029984087
110	0x3d137fcd	0.036010552
111	0xbc4616e4	-0.0120904185
112	0xbe516a92	-0.2045081
113	0x3ecb54f3	0.3971325
114	0x3ea4177b	0.32049164
115	0xbe286b6e	-0.16447231
116	0x3c7d3b5b	0.015456046
117	0xbe90ae03	-0.2825776
118	0x3db8fd35	0.090326704
119	0x3e916a72	0.28401524
120	0x3d750f52	0.059829064
121	0x3dcc04e2	0.09961869
122	0x3ec18f47	0.37804624
123	0xbe586c5a	-0.21135083
124	0x3e9c170b	0.3048633
125	0x3ea81b99	0.32833555
126	0xbe78ea64	-0.24308163
127	0xbc39663c	-0.0113158785
128	0xbe1c3fe1	-0.15258743
129	0xbb80d370	-0.0039314553
130	0x3d88893d	0.06666801
131	0xbe828f86	-0.25500125
132	0x3e475a6a	0.19468084
133	0x3df37de4	0.11889246
134	0x3d04f826	0.032463215
135	0xbe08d713	-0.13363294
136	0xbd4db5df	-0.050222274
137	0xbe340e84	-0.17583662
138	0x3e348057	0.17627083
139	0xbed1e8cb	-0.4099792
140	0xbe59b143	-0.21259026
141	0x3cdc7344	0.026910432
142	0x3e945edb	0.2897862
143	0xbe800405	-0.25003067
144	0xbe9f87b2	-0.31158215
145	0xbd42597f	-0.04744863
146	0xbf0df02d	-0.55444604
147	0x3e9a19f9	0.3009794
148	0x3c61f8ae	0.0137922
149	0x3e501e1d	0.20323987
150	0xbdbcb765	-0.09214667
151	0xbb57c786	-0.0032925322
152	0x3e97fbcb	0.2968429
153	0x3e7e9973	0.24863224
154	0x3e418437	0.18898092
155	0x3de7bd7d	0.11315439
156	0x3d972ef5	0.07382003
157	0xbe031d75	-0.12804206
158	0x3e18e3ee	0.14930698
159	0xbe8e82f7	-0.27834293
160	0xbefe6e06	-0.49693316
161	0xbe54b64e	-0.20772669
162	0x3ec78505	0.38968673
163	0xbe9be57f	-0.3044853
164	0xbed8125f	-0.42201516
165	0xbe2e0ccb	-0.16997068
166	0x3e085439	0.13313378
167	0xbde2de7a	-0.1107759
168	0xbd15c9c6	-0.03656938
169	0xbe8a2c3b	-0.2698687
170	0x3e41bd2f	0.18919824
171	0xbe257b34	-0.1616028
172	0xbc3b522a	-0.011433164
173	0xbddee3fc	-0.10883328
174	0xbc479e90	-0.0121838
175	0x3df722e1	0.120671995
176	0x3f0dda4d	0.55411226
177	0x3e178f44	0.14800745
178	0xbe9a4082	-0.3012734
179	0x3e963d1e	0.29343504
180	0xbd96659e	-0.07343601
181	0x3e3267fd	0.17422481
182	0xbe8cc564	-0.27494347
183	0x3d324b3c	0.04352878
184	0x3e2e1daf	0.17003511
185	0xbddf06ad	-0.10889945
186	0xbd1c308e	-0.038132243
187	0x3db9a558	0.0906474
188	0x3d356d07	0.04429343
189	0x3ca50c01	0.020147325
190	0x3c0654f4	0.008198965
191	0xbdbd5916	-0.092455074
192	0x3e8b2aed	0.27181187
193	0x3d3f5dd5	0.046720345
194	0x3eefd982	0.46845633
195	0xbe4d560f	-0.2005236
196	0x3c8d6eae	0.01726469
197	0xbdc22e77	-0.09481519
198	0xbdd59d71	-0.1043042
199	0xbde6628d	-0.11249266
200	0x3e9857ea	0.29754573
201	0x3ce92cb8	0.028463706
202	0xbe30f7b8	-0.17281997
203	0xbdb2a044	-0.087219745
204	0xbed925f6	-0.42411774
205	0x3ecbb0dd	0.39783373
206	0x3d89a3e2	0.06720711
207	0x3ddb6587	0.10712724
208	0x3c9f087c	0.019413225
209	0x3c97e203	0.018540388
210	0x3d96db07	0.07365995
211	0xbd201a99	-0.039087866
212	0xbcac6ada	-0.021047045
213	0x3db150d0	0.08657992
214	0x3d69d0bc	0.05708383
215	0x3d047eb2	0.03234739
216	0x3c50ebd2	0.012751536
217	0xbdddf5ef	-0.10837924
218	0x3e19655f	0.14980076
219	0xbd0b0470	-0.03393978
220	0x3ca73873	0.02041266
221	0x3cac4198	0.021027371
222	0x3d2c6b53	0.04209454
223	0xbc23ce96	-0.009997984
224	0x3d41fd0e	0.047360472
225	0x3e935c11	0.2878118
226	0xbe29b22e	-0.16571876
227	0xbeb91433	-0.36148223
228	0x3d5b9908	0.05361274
229	0x3d6d80da	0.05798421
230	0x3f06cd42	0.5265695
231	0x3e848bf1	0.25888017
232	0x3d2ee3df	0.042697784
233	0xbe24b257	-0.16083656
234	0x3eb6e400	0.35720825
235	0x3ec858d5	0.39130273
236	0xbea95bf1	-0.33077958
237	0x3e9655b1	0.29362252
238	0x3ee611f0	0.4493556
239	0x3d5795c7	0.052633073
240	0x3e95eac7	0.29280683
241	0xbd3c64d6	-0.045994602
242	0x3d41e191	0.047334258
243	0x3f00659f	0.5015506
244	0xbe3eda96	-0.18638071
245	0x3d75fd08	0.060055763
246	0xbebb14a1	-0.36539176
247	0x3e11327d	0.14179416
248	0xbead4c69	-0.3384736
249	0xbea88ae9	-0.3291848
250	0xbd807c90	-0.062737584
251	0x3eb73353	0.35781345
252	0xbe7d33bf	-0.24726771
253	0xbec44152	-0.38331085
254	0xbde7a4fe	-0.11310767
255	0xbd966375	-0.07343189
