pre-trained/DCT4_soft-thr_L2_dct-init_0200.pt (torch_old, 58599 bytes, 9 tensors)

weight f4 [16, 1, 4, 4]
0	0x3e80a269	0.2512391
1	0x3e7f39f1	0.24924447
2	0x3e7f4e09	0.24932112
3	0x3e809b12	0.2511831
4	0x3e7f8ec6	0.24956807
5	0x3e7d4457	0.24733101
6	0x3e7d3f0e	0.24731085
7	0x3e7f7792	0.24947956
8	0x3e7f791b	0.24948542
9	0x3e7d4709	0.24734129
10	0x3e7d486d	0.2473466
11	0x3e7f96b7	0.24959837
12	0x3e809666	0.25114745
13	0x3e7f4b18	0.2493099
14	0x3e7f3ee2	0.24926332
15	0x3e80a79a	0.2512787
16	0x3e926976	0.28596085
17	0x3e035fb7	0.12829481
18	0xbe00686b	-0.12539832
19	0xbe8cc2f8	-0.274925
20	0x3ea98f85	0.3311731
21	0x3e44c457	0.19215523
22	0xbe4f1146	-0.20221433
23	0xbea73707	-0.3265917
24	0x3ea94765	0.33062282
25	0x3e44bff6	0.19213852
26	0xbe4bc927	-0.19900952
27	0xbea7979b	-0.32732853
28	0x3e911477	0.28335926
29	0x3e0022d8	0.12513292
30	0xbdfdb3e7	-0.12387829
31	0xbe8f4d51	-0.27988675
32	0x3e70dfe8	0.23522913
33	0xbe874ffc	-0.2642821
34	0xbe839b82	-0.2570458
35	0x3e6e33b6	0.23261914
36	0x3e8614bc	0.26187694
37	0xbe712370	-0.23548675
38	0xbe6b4684	-0.22976118
39	0x3e86ea09	0.2635043
40	0x3e8756c8	0.26433396
41	0xbe6c35d3	-0.23067407
42	0xbe70284d	-0.23452874
43	0x3e85400e	0.26025432
44	0x3e6bb710	0.23019052
45	0xbe844af3	-0.25838432
46	0xbe86ad4a	-0.26304084
47	0x3e70d5d7	0.23519073
48	0xbbb03f0a	-0.0053786086
49	0xbe8cbfd4	-0.27490103
50	0x3e9c6d3c	0.3055209
51	0xbcbf6354	-0.023362793
52	0x3d5025b5	0.05081721
53	0xbe991022	-0.2989512
54	0x3ea1775a	0.3153637
55	0xbd816eeb	-0.06319984
56	0x3d7b4c3b	0.061351996
57	0xbe9cffc1	-0.30663875
58	0x3e98d048	0.29846406
59	0xbd4b603e	-0.04965233
60	0x3c91912d	0.01776942
61	0xbe9b8536	-0.3037507
62	0x3e8cb48a	0.2748149
63	0x3b1fcd05	0.0024383676
64	0x3e94ec19	0.29086378
65	0x3ea63147	0.3245947
66	0x3ea84741	0.32866862
67	0x3e962e90	0.293324
68	0x3e17c6c3	0.14821915
69	0x3e470d4b	0.19438665
70	0x3e3494c2	0.17634872
71	0x3df21943	0.118212245
72	0xbdf11ee6	-0.117734715
73	0xbe33eb54	-0.1757024
74	0xbe46f7aa	-0.19430414
75	0xbe1769d9	-0.14786471
76	0xbe963bd0	-0.29342508
77	0xbea92315	-0.33034578
78	0xbea6572c	-0.32488382
79	0xbe945a83	-0.28975305
80	0x3eceaea3	0.40367612
81	0x3e7ab9bd	0.24484916
82	0xbdba2664	-0.09089354
83	0xbea6e4ca	-0.32596427
84	0x3e5ef387	0.21772586
85	0xbd87f88c	-0.066392034
86	0xbe68b672	-0.22725847
87	0xbe16185d	-0.14657731
88	0xbe16abcd	-0.14713974
89	0xbe6bfa94	-0.23044807
90	0xbd8d8db1	-0.06911791
91	0x3e54f20d	0.2079546
92	0xbea98caf	-0.33115146
93	0xbdb9bcb3	-0.09069195
94	0x3e811a57	0.25215408
95	0x3eced2ea	0.4039529
96	0x3e94454b	0.28959116
97	0xbea2bad5	-0.31783167
98	0xbea87288	-0.3289988
99	0x3e682e07	0.22673808
100	0x3e6b968d	0.2300665
101	0xbcaa03c7	-0.020753754
102	0xbe7558e7	-0.23959695
103	0x3d62f697	0.055410948
104	0xbd5bf13e	-0.053696863
105	0x3e820b71	0.25399354
106	0x3c07f6c4	0.00829858
107	0xbe623a02	-0.2209244
108	0xbe6b2d3b	-0.22966473
109	0x3ea9abd4	0.33138907
110	0x3ea4c573	0.32181892
111	0xbe949b76	-0.29024857
112	0xbcc676ea	-0.024226625
113	0xbed0fa6a	-0.4081605
114	0x3eb45bf7	0.35226414
115	0xbccea430	-0.025224775
116	0xbe4a81a2	-0.19776013
117	0xbd8ec56f	-0.06971251
118	0x3ea0b2d2	0.3138643
119	0xbe034347	-0.12818633
120	0xbe56d2e2	-0.20978883
121	0x3e9a1ef5	0.30101743
122	0x3d1ae048	0.037811548
123	0xbdb9d3c2	-0.09073593
124	0xbd05576c	-0.032554075
125	0x3ec590de	0.38587087
126	0xbe8c407c	-0.27392948
127	0x3d68a04c	0.056793496
128	0x3e616546	0.22011289
129	0x3e85508d	0.26038018
130	0x3e840808	0.25787377
131	0x3e57422e	0.2102134
132	0xbe83b3c9	-0.25723103
133	0xbe665bb6	-0.22495922
134	0xbe6e322b	-0.23261325
135	0xbe8ddcf4	-0.27707636
136	0xbe88f18b	-0.26746783
137	0xbe65ef6c	-0.22454613
138	0xbe5cf99d	-0.21579595
139	0xbe7d5f7d	-0.24743457
140	0x3e632a68	0.22184145
141	0x3e8a8b19	0.27059248
142	0x3e8f3e20	0.27977085
143	0x3e72f6f2	0.23727015
144	0x3e754413	0.2395175
145	0x3e87997c	0.26484287
146	0x3c4e7f87	0.012603647
147	0xbe3d3248	-0.18476212
148	0xbea9922d	-0.33119336
149	0xba5f8168	-0.0008526058
150	0x3e9a4058	0.30127215
151	0x3eae93cd	0.34097138
152	0xbeac1252	-0.33607727
153	0xbe9157f2	-0.2838741
154	0xbc955a3f	-0.01823151
155	0x3ea5bdb8	0.32371306
156	0x3e38e545	0.1805621
157	0xbc28c9d0	-0.010302022
158	0xbe8269b8	-0.25471282
159	0xbe79d5aa	-0.24397913
160	0x3e4e2c21	0.20134021
161	0xbe82a24b	-0.25514445
162	0xbe60b1be	-0.21942803
163	0x3e8416af	0.25798556
164	0xbe862b1f	-0.26204774
165	0x3e5b439b	0.21412508
166	0x3e8724d8	0.26395297
167	0xbe4d4acb	-0.20048063
168	0xbe4d728c	-0.20063227
169	0x3e872e3b	0.2640246
170	0x3e5b11c0	0.2139349
171	0xbe8595e4	-0.2609092
172	0x3e850939	0.259836
173	0xbe62dba8	-0.22154105
174	0xbe823b74	-0.25435984
175	0x3e4d4001	0.20043947
176	0x3e2fc9b1	0.17166783
177	0xbe9599bc	-0.29218853
178	0x3e67846f	0.22609113
179	0xbdf1b6f8	-0.11802477
180	0xbca15e5b	-0.019698313
181	0x3e9813ae	0.29702514
182	0xbeaef933	-0.341745
183	0x3d8ee8d1	0.06978
184	0xbda3a540	-0.07990503
185	0x3eafe387	0.34353277
186	0xbe980119	-0.29688337
187	0x3c9632cb	0.018334767
188	0x3de79689	0.11308009
189	0xbe63c9d2	-0.22244957
190	0x3e97d842	0.2965718
191	0xbe2cc3ae	-0.16871521
192	0x3cee98eb	0.029125651
193	0x3d9586d8	0.0730111
194	0x3d5fb5ac	0.054616615
195	0xbbcfe1ba	-0.0063440474
196	0xbeaafaeb	-0.3339456
197	0xbea995bd	-0.33122054
198	0xbea123dd	-0.31472674
199	0xbe9364df	-0.28787896
200	0x3e8833bb	0.26601967
201	0x3e9a8750	0.3018136
202	0x3ea46bbb	0.32113442
203	0x3ea22781	0.31670764
204	0x3c835522	0.016031805
205	0xbd19a15b	-0.037507396
206	0xbd5ed182	-0.05439902
207	0xbc6a3bec	-0.014296513
208	0x3e0047fc	0.1252746
209	0x3dbd934f	0.092566125
210	0xbc8d3262	-0.017235938
211	0xbd98422a	-0.07434495
212	0xbebf2e76	-0.37340134
213	0xbe17dd37	-0.1483048
214	0x3e2f82c5	0.17139728
215	0x3ec11ade	0.3771581
216	0x3ebc92c6	0.3683073
217	0x3e142821	0.14468433
218	0xbe3b482f	-0.18289255
219	0xbeca48b0	-0.3950858
220	0xbdc97b76	-0.098380014
221	0xbda0a02d	-0.07843051
222	0x3c8c917a	0.017159212
223	0x3d9ac325	0.07556752
224	0x3df820a6	0.12115602
225	0xbcb89a17	-0.022534413
226	0x3d6e5339	0.058184836
227	0x3e541b83	0.2071362
228	0xbe1d7c9a	-0.15379563
229	0x3ec41004	0.3829347
230	0x3e8c040b	0.27346835
231	0xbea5ffde	-0.32421774
232	0x3ea76ada	0.3269871
233	0xbe88e1b9	-0.26734713
234	0xbec10c96	-0.37704915
235	0x3e1495ad	0.14510222
236	0xbe48458a	-0.19557777
237	0xbd5ecdfe	-0.05439567
238	0x3cac026c	0.020997249
239	0xbe0f174e	-0.13973734
240	0x3d8a5fbf	0.06756543
241	0xbe1b760b	-0.15181749
242	0x3e1a7eaf	0.15087388
243	0xbd95b691	-0.073102124
244	0xbe1b8f3d	-0.1519136
245	0x3ed15762	0.4088698
246	0xbecf817f	-0.40528485
247	0x3e1c7080	0.1527729
248	0x3e1b68db	0.15176718
249	0xbecf613a	-0.40503865
250	0x3ed0a323	0.40749463
251	0xbe1a421f	-0.15064286
252	0xbd92501f	-0.07144188
253	0x3e1ba7b5	0.15200694
254	0xbe1b70be	-0.15179726
255	0x3d9e4263	0.07727506

weight f4 [1, 16, 4, 4]
0	0x3c904aa9	0.017613726
1	0x3c7f2ffd	0.015575406
2	0x3c8013dc	0.01563447
3	0x3c8fa61e	0.017535266
4	0x3c82471c	0.015903048
5	0x3c5ece7d	0.013599035
6	0x3c5e5e6e	0.0135723185
7	0x3c817246	0.01580156
8	0x3c81727c	0.01580166
9	0x3c5ec6d5	0.01359721
10	0x3c5f0c3e	0.013613759
11	0x3c828328	0.01593168
12	0x3c8f5226	0.017495226
13	0x3c7feddb	0.015620674
14	0x3c7f76b2	0.015592264
15	0x3c9097a5	0.017650435
16	0xbce02052	-0.027359162
17	0xbc38b264	-0.011273
18	0x3c373ba4	0.011183653
19	0x3cf7a57d	0.030230278
20	0xbce2e363	-0.027696317
21	0xbcdb3adf	-0.02676147
22	0x3cd2fdf0	0.025755852
23	0x3d01cdba	0.031690337
24	0xbcfe2318	-0.031022593
25	0xbcead4a8	-0.028665856
26	0x3cd43a4c	0.025906704
27	0x3ceb7046	0.02874006
28	0xbcf7fe80	-0.030272722
29	0xbc3f5841	-0.011678756
30	0x3c5740e7	0.0131380325
31	0x3cdb36fa	0.026759613
32	0x3c973260	0.018456638
33	0xbc81547c	-0.015787356
34	0xbc4e0820	-0.012575179
35	0x3c839df8	0.016066536
36	0x3c56dea0	0.013114601
37	0x3b0ed0aa	0.0021791854
38	0x3ba0e82b	0.004910489
39	0x3c95519f	0.018227397
40	0x3c92ec9e	0.017935093
41	0x3b8b39ad	0.004248819
42	0x3a1c53df	0.00059634255
43	0x3c70d986	0.014700299
44	0x3c8bb258	0.017052814
45	0xbc67b064	-0.014141176
46	0xbc8e6d67	-0.017386151
47	0x3c8a90ed	0.01691481
48	0xba7ef143	-0.0009725282
49	0x3d215e00	0.039396286
50	0xbd505a25	-0.05086722
51	0x3c2a0d5d	0.010379163
52	0xbcb80b9b	-0.022466471
53	0x3d29aa3e	0.04142212
54	0xbd3714f9	-0.044697735
55	0x3cc15db1	0.023604246
56	0xbccf7683	-0.025325065
57	0x3d413222	0.04716695
58	0xbd2fc0a9	-0.042908344
59	0x3cc0d1b9	0.023537504
60	0xbc770282	-0.0150762815
61	0x3d4f8bc2	0.050670393
62	0xbd2f891d	-0.04285537
63	0x3b26f74d	0.0025476993
64	0xbce486d6	-0.027896326
65	0xbcd99cd9	-0.026564049
66	0xbcf0d413	-0.029398
67	0xbcfe5576	-0.03104661
68	0xbc626de8	-0.013820149
69	0xbcbee0f9	-0.023300635
70	0xbc8e6261	-0.017380895
71	0xbc3ab370	-0.01139532
72	0x3c43b4ba	0.011944944
73	0x3c957652	0.018244896
74	0x3cc90aa5	0.024541209
75	0x3c7fb259	0.015606486
76	0x3cf29d30	0.029615968
77	0x3cecf4a0	0.02892524
78	0x3cd668b2	0.02617297
79	0x3ce32e42	0.027732018
80	0x3d061454	0.03273423
81	0x3d09a128	0.033600956
82	0xbbab7d37	-0.0052334326
83	0xbd1a5875	-0.037682015
84	0x3cff8651	0.031191977
85	0xbcd37560	-0.025812805
86	0xbd3275d8	-0.043569416
87	0xbc8b1875	-0.016979435
88	0xbc966483	-0.018358475
89	0xbd2b3f49	-0.0418084
90	0xbcd86dc6	-0.026419532
91	0x3d0135ac	0.031545326
92	0xbd16df58	-0.03683409
93	0xbbb19110	-0.005418904
94	0x3d0d033f	0.034426924
95	0x3d064867	0.032783892
96	0xbd092aa9	-0.03348795
97	0x3d316d35	0.04331704
98	0x3ca6757a	0.020319689
99	0xbce0ac46	-0.027425896
100	0xbd1cc35b	-0.038272243
101	0xbd077835	-0.033073623
102	0x3d7146c4	0.058905378
103	0xba1ac7f0	-0.0005904427
104	0xb977ccde	-0.00023632075
105	0xbd6e6fca	-0.05821208
106	0x3cf7ff25	0.03027303
107	0x3d208b73	0.03919549
108	0x3cdb9159	0.026802706
109	0xbcb6ae44	-0.022299893
110	0xbd3a51d6	-0.0454882
111	0x3d07a61a	0.03311739
112	0x3c407bcc	0.0117482655
113	0xbd018f74	-0.03163095
114	0x3d2ae5d1	0.041723076
115	0x3bd46a1a	0.006482375
116	0xbcc18ff9	-0.023628222
117	0x3c830fcf	0.015998749
118	0x3d82cf4f	0.06387197
119	0xbd572574	-0.052525952
120	0xbd078bfd	-0.033092488
121	0x3d8b7c0d	0.0681077
122	0xbb11da9e	-0.002225555
123	0xbd60330d	-0.054736186
124	0x3beb0b49	0.007172976
125	0x3d465b1a	0.048426725
126	0xbd8023f3	-0.06256857
127	0x3b94fc73	0.004546696
128	0x3c871503	0.016489511
129	0x3cb5e7d7	0.022205276
130	0x3cc5ad5e	0.02413052
131	0x3cab73eb	0.020929297
132	0xbc76169d	-0.01502004
133	0x3a84a31f	0.0010119415
134	0x3a641182	0.00087001186
135	0xbc8c05a2	-0.01709253
136	0xbca91639	-0.02064048
137	0xba7d4a72	-0.00096622773
138	0xba2052fa	-0.000611588
139	0xbc91f229	-0.017815666
140	0x3c8e14fb	0.017343989
141	0x3cb7d79a	0.022441674
142	0x3c9c1349	0.019052165
143	0x3c7c732c	0.0154083185
144	0xbcc409d8	-0.023930475
145	0xbd1f1fc2	-0.038848646
146	0xbbf43b12	-0.007453331
147	0x3cb7a25f	0.022416292
148	0x3d4341b8	0.047670096
149	0xbcb22d8b	-0.021750232
150	0xbd8472a2	-0.06467177
151	0xbcf457b6	-0.02982698
152	0x3cf58738	0.029971704
153	0x3d859e9d	0.06524394
154	0x3c8e1086	0.017341863
155	0xbd453ae6	-0.048151873
156	0xbcbc7afe	-0.023007866
157	0x3bf95b5f	0.0076097692
158	0x3d2a4c70	0.041576803
159	0x3cc88098	0.02447538
160	0x3c90e9f1	0.017689677
161	0xbd006bca	-0.031352796
162	0xbc43b79b	-0.01194563
163	0x3d0a1db4	0.033719733
164	0xbcc38437	-0.023866756
165	0xbc3e108f	-0.011600628
166	0x3cce4afd	0.025182242
167	0xba7cbd15	-0.00096412125
168	0xb9a7d430	-0.00032010814
169	0x3cc1f260	0.023675144
170	0xbc5f347e	-0.013623355
171	0xbccc8d00	-0.024969578
172	0x3d06bec2	0.032896765
173	0xbc3685ae	-0.01114027
174	0xbcf20eed	-0.029548133
175	0x3c8d8064	0.017273135
176	0xbbf1d3b8	-0.007379975
177	0x3ca2fcc1	0.019895913
178	0xbaf1303c	-0.0018401216
179	0xbc03c573	-0.008042681
180	0xbaa26315	-0.0012389148
181	0xbc0115ca	-0.00787873
182	0x3cc76a39	0.024342643
183	0xbc882d8f	-0.016623287
184	0x3c550898	0.013002537
185	0xbca82603	-0.020525938
186	0x3c0283dd	0.007966009
187	0xba34f46f	-0.00069028785
188	0x3bb63afe	0.0055612316
189	0x3b9af877	0.0047293263
190	0xbca1a16a	-0.019730289
191	0x3bc391ab	0.0059682927
192	0xbc0e68b5	-0.008691956
193	0xbcc0ce81	-0.023535969
194	0xbc818100	-0.015808582
195	0x3b713d3b	0.0036810178
196	0x3d3f6dc4	0.04673554
197	0x3d3366e4	0.043799296
198	0x3d1a858d	0.03772502
199	0x3d0be1e9	0.03415099
200	0xbd2aa31c	-0.04165946
201	0xbd2c2066	-0.042023085
202	0xbd3cb0e2	-0.046067126
203	0xbd5699b5	-0.05239268
204	0xb9c5c44c	-0.0003772102
205	0x3cad5ad5	0.021161476
206	0x3cdd9500	0.027048588
207	0x3c2c8afb	0.010531182
208	0x3ca6ccb3	0.02036128
209	0x3c357827	0.01107601
210	0xbc859b35	-0.01630936
211	0xbc5dc4a9	-0.013535657
212	0xbd813f6e	-0.063109264
213	0xbd087ec6	-0.033324026
214	0x3d010cee	0.03150647
215	0x3d6a4f09	0.05720428
216	0x3d7aa240	0.06118989
217	0x3d190af6	0.03736397
218	0xbcfaf750	-0.030635506
219	0xbd7de7fe	-0.061988823
220	0xbc544746	-0.012956446
221	0xbc2076e2	-0.009793969
222	0x3cadcbef	0.021215407
223	0x3cb8966a	0.02253266
224	0x3c89a7e6	0.016803693
225	0x3cc2fa97	0.023801131
226	0xbbb1ad65	-0.0054222816
227	0xbc010503	-0.00787473
228	0xbad55f7c	-0.0016279067
229	0xbd0a4947	-0.03376129
230	0xbbe49c38	-0.0069766305
231	0x3d0024ea	0.031285204
232	0xbcfefc53	-0.031126177
233	0x3becf37b	0.0072311736
234	0x3d02b996	0.03191527
235	0xb90945c5	-0.0001309133
236	0x3c293727	0.010328091
237	0x3b8e721c	0.004347099
238	0xbcc1ef59	-0.0236737
239	0xbca30886	-0.019901525
240	0x3bd8666c	0.0066040065
241	0xb962f492	-0.00021644149
242	0xbba6e09d	-0.005092694
243	0xbb718a75	-0.0036856208
244	0x3ac2f5b8	0.0014874255
245	0x3b0e48e6	0.0021710931
246	0xba7af034	-0.0009572536
247	0xbaca7bee	-0.0015448311
248	0xbabff038	-0.0014643734
249	0xbaaddd75	-0.0013264852
250	0x3b0b9d1d	0.0021303364
251	0x3b1a54ee	0.0023549157
252	0xbb62245e	-0.003450654
253	0xbb5e4418	-0.0033915099
254	0x3a438a61	0.000745928
255	0x3bf84540	0.0075766146

thr f4 [1, 16, 1, 1]
0	0x38244d7a	3.9172803e-05
1	0x3e4dc90a	0.20096222
2	0x3e48bb6e	0.19602749
3	0x3e746b22	0.23868993
4	0x3e48a5bd	0.19594474
5	0x3e5fb8f4	0.21847898
6	0x3e732b62	0.23747018
7	0x3e74617b	0.23865311
8	0x3e432daf	0.19060396
9	0x3e660953	0.22464494
10	0x3e822746	0.25420588
11	0x3e5d8fb8	0.21636856
12	0x3e7120e9	0.2354771
13	0x3e7dfed5	0.24804242
14	0x3e60b2db	0.21943228
15	0x3e49ec71	0.19719101

exp_avg_sq f4 [1, 16, 1, 1]
0	0x3542b69d	7.253637e-07
1	0x3216ed7f	8.7851495e-09
2	0x3125132f	2.4021565e-09
3	0x309a77a6	1.1238981e-09
4	0x321e2681	9.205565e-09
5	0x315f6475	3.2507874e-09
6	0x3083d6d2	9.59256e-10
7	0x304370cb	7.1100875e-10
8	0x3147242a	2.8978868e-09
9	0x30b79577	1.3357483e-09
10	0x2f8a1bbf	2.5121769e-10
11	0x30061d7f	4.879083e-10
12	0x30bfa61e	1.3944292e-09
13	0x302672bc	6.0553496e-10
14	0x300e1fc8	5.1704463e-10
15	0x306caf08	8.6105034e-10

exp_avg f4 [1, 16, 1, 1]
0	0x37fe9fb1	3.0353522e-05
1	0xb4905d1c	-2.6889836e-07
2	0x3692c6bd	4.3742752e-06
3	0xb60eb095	-2.1262433e-06
4	0xb7af19aa	-2.0873576e-05
5	0xb7abefbe	-2.0496427e-05
6	0x372d426a	1.0327067e-05
7	0xb7500185	-1.239812e-05
8	0xb633fd56	-2.682054e-06
9	0x36a89e20	5.0251983e-06
10	0xb6fc2a2a	-7.515094e-06
11	0xb6720b65	-3.6067443e-06
12	0x355a9712	8.1431165e-07
13	0xb69e173f	-4.711473e-06
14	0xb76af613	-1.40047805e-05
15	0x33934cd8	6.859199e-08

exp_avg_sq f4 [16, 1, 4, 4]
0	0x3466470a	2.1446263e-07
1	0x34674342	2.153802e-07
2	0x34676fc3	2.155421e-07
3	0x3466c6be	2.1492721e-07
4	0x3467577d	2.154538e-07
5	0x34686e83	2.1646888e-07
6	0x34688b0f	2.1657273e-07
7	0x3467aca4	2.1576358e-07
8	0x34673751	2.1533675e-07
9	0x346846e0	2.1632468e-07
10	0x34684c5d	2.1634465e-07
11	0x34675d81	2.1547568e-07
12	0x3465f39f	2.1415916e-07
13	0x3466d75c	2.1498767e-07
14	0x3466cbda	2.149458e-07
15	0x3465e8d3	2.1411988e-07
16	0x2f552b0d	1.9387532e-10
17	0x2f0fc3f2	1.3075388e-10
18	0x2f0bca1c	1.271378e-10
19	0x2f4bf2a0	1.854894e-10
20	0x2f751995	2.2291709e-10
21	0x2f1e2308	1.4382462e-10
22	0x2f165837	1.3673761e-10
23	0x2f62f760	2.0642466e-10
24	0x2f766a2b	2.2411288e-10
25	0x2f23086a	1.4827753e-10
26	0x2f105062	1.3125281e-10
27	0x2f630ae1	2.0649395e-10
28	0x2f5973e5	1.9777209e-10
29	0x2f1864d7	1.3860145e-10
30	0x2f08ece8	1.2453294e-10
31	0x2f4860d6	1.8224297e-10
32	0x2edc5b29	1.0020635e-10
33	0x2f212268	1.4655088e-10
34	0x2f1e8f7d	1.4420994e-10
35	0x2edc91ff	1.0030376e-10
36	0x2ed7f25a	9.820118e-11
37	0x2f28daa7	1.5357192e-10
38	0x2f2846a9	1.5304615e-10
39	0x2edae996	9.9549854e-11
40	0x2ed66944	9.750292e-11
41	0x2f27d266	1.526331e-10
42	0x2f28edd2	1.5364002e-10
43	0x2edab925	9.9463805e-11
44	0x2ed84dda	9.836372e-11
45	0x2f1f499c	1.4487117e-10
46	0x2f20ee34	1.4636542e-10
47	0x2edd1ab8	1.0054663e-10
48	0x2dbbb3ec	2.133934e-11
49	0x2ddbc774	2.4985992e-11
50	0x2dd0f360	2.3754942e-11
51	0x2db8e03b	2.1017956e-11
52	0x2db88bee	2.098052e-11
53	0x2dfa12b6	2.8430019e-11
54	0x2ddf61fb	2.5395677e-11
55	0x2db7b2df	2.0884126e-11
56	0x2db55e83	2.061929e-11
57	0x2dfb12a6	2.8543678e-11
58	0x2dde591f	2.5278056e-11
59	0x2db1d7e6	2.0218448e-11
60	0x2db77e18	2.0860688e-11
61	0x2de190e8	2.564389e-11
62	0x2dcb626f	2.3122141e-11
63	0x2db3d735	2.0445515e-11
64	0x2f4bc597	1.853294e-10
65	0x2f6c8f7e	2.1515054e-10
66	0x2f6f5f6b	2.1770823e-10
67	0x2f4d978c	1.8698482e-10
68	0x2efa78e6	1.13901596e-10
69	0x2f0b97d0	1.2695911e-10
70	0x2f0a89a8	1.2599932e-10
71	0x2f00c17d	1.1710273e-10
72	0x2f02f00a	1.190871e-10
73	0x2f0b3369	1.2660241e-10
74	0x2f0d0d83	1.2828676e-10
75	0x2efe0fed	1.1553412e-10
76	0x2f3f266d	1.7385e-10
77	0x2f5ea937	2.02509e-10
78	0x2f631427	2.0652689e-10
79	0x2f473e97	1.8121181e-10
80	0x2e8dbfeb	6.446029e-11
81	0x2e2ed0fc	3.9748635e-11
82	0x2e3f0eaa	4.3441396e-11
83	0x2eaf9c5c	7.9858536e-11
84	0x2e26f1de	3.795885e-11
85	0x2e4f5eff	4.7150724e-11
86	0x2e88c8eb	6.220254e-11
87	0x2e447012	4.466478e-11
88	0x2e4b092b	4.6165e-11
89	0x2e8d6dbb	6.43143e-11
90	0x2e48ec26	4.5684477e-11
91	0x2e2943d6	3.84864e-11
92	0x2eb0f7e1	8.0475855e-11
93	0x2e43b3b2	4.4497468e-11
94	0x2e245dec	3.7372702e-11
95	0x2e8f8178	6.5258854e-11
96	0x2e1e04f0	3.5929426e-11
97	0x2e3f51df	4.3501088e-11
98	0x2e587253	4.9214254e-11
99	0x2e1a000d	3.501559e-11
100	0x2e25d0eb	3.7702213e-11
101	0x2e481796	4.5495684e-11
102	0x2e5a081e	4.957467e-11
103	0x2e19d244	3.4974926e-11
104	0x2e1b4482	3.5303767e-11
105	0x2e3d58ff	4.305267e-11
106	0x2e26e754	3.794949e-11
107	0x2e3b7661	4.262402e-11
108	0x2e26a2bd	3.788857e-11
109	0x2e1b1bf5	3.526775e-11
110	0x2e067019	3.0567635e-11
111	0x2e392bd3	4.2103054e-11
112	0x2d76ee89	1.40364465e-11
113	0x2d97aab0	1.7242513e-11
114	0x2d9aaa64	1.7583442e-11
115	0x2d32b2ef	1.015786e-11
116	0x2da07f71	1.824649e-11
117	0x2d0fb1ff	8.168132e-12
118	0x2d85a6d6	1.519444e-11
119	0x2d14edda	8.46564e-12
120	0x2d60864a	1.2762744e-11
121	0x2d66efd3	1.3127238e-11
122	0x2d3a58f1	1.0592625e-11
123	0x2d2387ca	9.2956285e-12
124	0x2d483ac6	1.1381734e-11
125	0x2d9bf79c	1.773142e-11
126	0x2d95a65d	1.7013219e-11
127	0x2d283b5c	9.562875e-12
128	0x2ea170d4	7.3414747e-11
129	0x2ea44db1	7.471657e-11
130	0x2ea67949	7.5703506e-11
131	0x2ea6ec5a	7.5907905e-11
132	0x2ede4ac0	1.01086695e-10
133	0x2eea8bf8	1.06659515e-10
134	0x2ee7e382	1.0545077e-10
135	0x2eddde50	1.0089407e-10
136	0x2ed4aaab	9.6709606e-11
137	0x2ee282bc	1.0300513e-10
138	0x2ee6e2be	1.04994666e-10
139	0x2eda00f7	9.9136636e-11
140	0x2ea08484	7.299497e-11
141	0x2ea5cb24	7.539416e-11
142	0x2ea56e5f	7.522937e-11
143	0x2e9e3ac0	7.195444e-11
144	0x2e3538b3	4.1204994e-11
145	0x2e4ec331	4.7012342e-11
146	0x2e422fe8	4.4153042e-11
147	0x2e3390dd	4.0828552e-11
148	0x2e5320a3	4.8004833e-11
149	0x2e3ae685	4.2496246e-11
150	0x2e6a73e5	5.3308375e-11
151	0x2e3f1e75	4.3455423e-11
152	0x2e7c7208	5.7399446e-11
153	0x2e8b662a	6.339136e-11
154	0x2e2fca2b	3.9969954e-11
155	0x2e1f341b	3.6198693e-11
156	0x2e21b1a7	3.676495e-11
157	0x2e33429f	4.075906e-11
158	0x2e60c9f7	5.1111084e-11
159	0x2e54e1d3	4.840379e-11
160	0x2dd8d1ae	2.4649473e-11
161	0x2dcbcdde	2.3169851e-11
162	0x2dcfa90e	2.360825e-11
163	0x2dddbed8	2.5209543e-11
164	0x2dcea792	2.3493905e-11
165	0x2ddc8952	2.5072087e-11
166	0x2dec8994	2.689119e-11
167	0x2dd283db	2.3932792e-11
168	0x2dd01100	2.3654412e-11
169	0x2deb4146	2.6745394e-11
170	0x2ddee1bc	2.5338724e-11
171	0x2dcb385d	2.3103458e-11
172	0x2ddee697	2.534088e-11
173	0x2dd14d3d	2.379485e-11
174	0x2dcc0367	2.3193626e-11
175	0x2dd7d48a	2.4537056e-11
176	0x2bafb89f	1.248574e-12
177	0x2c88f370	3.8923795e-12
178	0x2c987ce7	4.3339668e-12
179	0x2ba52fdd	1.173724e-12
180	0x2bcd7b0e	1.4600281e-12
181	0x2c6ee462	3.3948612e-12
182	0x2c8240c8	3.7020144e-12
183	0x2bbf378d	1.3586785e-12
184	0x2bb98030	1.318062e-12
185	0x2c7a821c	3.5599362e-12
186	0x2c6f0406	3.3966176e-12
187	0x2bdadbee	1.5550874e-12
188	0x2ba80123	1.1937433e-12
189	0x2c979d07	4.3091117e-12
190	0x2c869ee5	3.82615e-12
191	0x2baf6794	1.2463247e-12
192	0x2dea0302	2.6604056e-11
193	0x2de75ea4	2.6303688e-11
194	0x2de06a18	2.5512967e-11
195	0x2de87517	2.6427345e-11
196	0x2e0f2321	3.2545636e-11
197	0x2e1ad153	3.5201463e-11
198	0x2e1451a8	3.372383e-11
199	0x2e046750	3.0105085e-11
200	0x2e0cabff	3.1985078e-11
201	0x2e1730ed	3.437688e-11
202	0x2e1c11fe	3.5486274e-11
203	0x2e0ce75f	3.2037813e-11
204	0x2de9a7d6	2.6563567e-11
205	0x2dd71253	2.4450808e-11
206	0x2ddd355b	2.5148486e-11
207	0x2de2b8d2	2.5775302e-11
208	0x2c9fd945	4.5431736e-12
209	0x2c3ab6e3	2.6533712e-12
210	0x2c63fae8	3.2397921e-12
211	0x2ca402b3	4.66146e-12
212	0x2d1d4238	8.93912e-12
213	0x2c50211a	2.9576953e-12
214	0x2c94a0a2	4.224247e-12
215	0x2d41b23d	1.1010357e-11
216	0x2d3eeff7	1.08535325e-11
217	0x2c86162b	3.81097e-12
218	0x2c468aa6	2.8214458e-12
219	0x2d1c2038	8.874727e-12
220	0x2c9ca16f	4.4517094e-12
221	0x2c649aef	3.2486754e-12
222	0x2c4ed211	2.939097e-12
223	0x2c9c3068	4.439161e-12
224	0x2bc3de6c	1.3917318e-12
225	0x2c1372a9	2.0953606e-12
226	0x2c526302	2.9897755e-12
227	0x2bf20c75	1.7198592e-12
228	0x2d0d52dd	8.033321e-12
229	0x2ca240b8	4.611502e-12
230	0x2c88877a	3.8803934e-12
231	0x2ca4068c	4.661887e-12
232	0x2c97fb1d	4.3195573e-12
233	0x2c97f653	4.3190256e-12
234	0x2cb14f2d	5.039433e-12
235	0x2d0ea608	8.108632e-12
236	0x2c07fc64	1.9324759e-12
237	0x2c4bb2e9	2.894735e-12
238	0x2c03a988	1.8710328e-12
239	0x2bd4f7c3	1.5132274e-12
240	0x2b06627b	4.774303e-13
241	0x2c22a86a	2.3115073e-12
242	0x2c1781ef	2.1530518e-12
243	0x2b0b5f37	4.9514857e-13
244	0x2c1d174a	2.232397e-12
245	0x2d2d1348	9.838193e-12
246	0x2d33b578	1.0215266e-11
247	0x2c136642	2.094672e-12
248	0x2c176d24	2.1518976e-12
249	0x2d3314bc	1.0179576e-11
250	0x2d2cb997	9.818277e-12
251	0x2c1e4a39	2.2494352e-12
252	0x2b0832ea	4.8387563e-13
253	0x2c189e0d	2.1688235e-12
254	0x2c22e3c7	2.3148026e-12
255	0x2aff386c	4.533625e-13

exp_avg f4 [16, 1, 4, 4]
0	0xb6a930bc	-5.042266e-06
1	0x360ac917	2.0680652e-06
2	0x36489a5c	2.9892171e-06
3	0xb631335d	-2.6404953e-06
4	0x357a461d	9.3234286e-07
5	0x37097898	8.193914e-06
6	0x371c6c39	9.323522e-06
7	0x3651b34b	3.124779e-06
8	0x35732281	9.0574764e-07
9	0x36ff7b11	7.613919e-06
10	0x3708bb05	8.149776e-06
11	0x3614f62f	2.2197016e-06
12	0xb6a2ab0f	-4.84789e-06
13	0x3584bea2	9.890248e-07
14	0x35b7c6f2	1.3692463e-06
15	0xb68c235b	-4.176441e-06
16	0xb5ed7ae5	-1.7693643e-06
17	0xb622abf7	-2.4239978e-06
18	0x35fa9f36	1.8672788e-06
19	0xb66a92b8	-3.4954119e-06
20	0xb628997d	-2.5123293e-06
21	0xb647d51b	-2.9777354e-06
22	0x36122f0d	2.1783083e-06
23	0xb5a9b04b	-1.2642789e-06
24	0xb650b734	-3.1101054e-06
25	0xb64eed60	-3.0834562e-06
26	0x35521701	7.826457e-07
27	0xb4fdedc4	-4.729792e-07
28	0xb579015b	-9.27617e-07
29	0xb6673149	-3.445037e-06
30	0xb52f2f74	-6.5261634e-07
31	0xb55d3a45	-8.241371e-07
32	0xb5adc36b	-1.2946379e-06
33	0x35389ad1	6.877063e-07
34	0xb51a3069	-5.7439917e-07
35	0xb5d79cd5	-1.6064392e-06
36	0xb629530d	-2.5231304e-06
37	0xb60988b7	-2.049417e-06
38	0xb633d90f	-2.6799423e-06
39	0xb640e377	-2.8742631e-06
40	0xb633afcc	-2.6775406e-06
41	0xb64e1473	-3.0708295e-06
42	0xb6376424	-2.7327415e-06
43	0xb634e614	-2.6956013e-06
44	0xb5e10df7	-1.6767871e-06
45	0xb58390fc	-9.802457e-07
46	0xb46beb31	-2.1971643e-07
47	0xb5e43f6f	-1.7005785e-06
48	0x3621e15a	2.4122041e-06
49	0x344bce0e	1.898081e-07
50	0x354fce8a	7.7414063e-07
51	0x35c3f2ea	1.459933e-06
52	0x3563bd18	8.483926e-07
53	0x3513ee1d	5.510827e-07
54	0x3588a1cc	1.0179879e-06
55	0x35fc7b6e	1.8811386e-06
56	0x34fb9e5e	4.686762e-07
57	0x3435d426	1.6934118e-07
58	0x360ad202	2.0685843e-06
59	0x35d69734	1.5988248e-06
60	0x35646f43	8.5098526e-07
61	0x35211034	6.000075e-07
62	0x36190667	2.2802503e-06
63	0x351346f6	5.486503e-07
64	0x36bdc665	5.655735e-06
65	0x36c32018	5.815189e-06
66	0x36db1abe	6.529822e-06
67	0x3713d03a	8.810364e-06
68	0x35fe580e	1.8950102e-06
69	0x3605fe48	1.9966556e-06
70	0x366ff611	3.5757005e-06
71	0x36979625	4.51763e-06
72	0x36204b3a	2.3885646e-06
73	0x35e05d7b	1.6716507e-06
74	0x3663248d	3.3846911e-06
75	0x36905db8	4.3024447e-06
76	0x342ba4c6	1.598556e-07
77	0x35eb18f1	1.7516123e-06
78	0x360bf25c	2.0853686e-06
79	0x3614bbe5	2.2163088e-06
80	0x36a92ca5	5.04179e-06
81	0x3578f4f2	9.274364e-07
82	0xb6468070	-2.957906e-06
83	0xb6c8138d	-5.9627405e-06
84	0x34f20f89	4.5087316e-07
85	0x36868435	4.008902e-06
86	0x361b4562	2.3137186e-06
87	0xb4642864	-2.1248849e-07
88	0xb6035d75	-1.957492e-06
89	0x362bcde9	2.560084e-06
90	0x3673218d	3.622935e-06
91	0x35d08da5	1.5538432e-06
92	0xb6c3d354	-5.8360547e-06
93	0xb66d3c14	-3.5350722e-06
94	0x357dfe33	9.4619753e-07
95	0x36c1d1bd	5.776265e-06
96	0xb5802697	-9.547974e-07
97	0xb497d5ad	-2.828141e-07
98	0xb5c4a6a6	-1.4651639e-06
99	0xb5c1c4fc	-1.443695e-06
100	0xb68a424b	-4.120438e-06
101	0xb6f67fe8	-7.3462616e-06
102	0x36992f1a	4.5652387e-06
103	0xb413a57a	-1.3750642e-07
104	0xb65c12d6	-3.2793519e-06
105	0xb7023459	-7.760792e-06
106	0x3655942d	3.1825723e-06
107	0x34722fc5	2.2555385e-07
108	0xb6779fb7	-3.6898834e-06
109	0xb60208dd	-1.9376669e-06
110	0xb6699e3f	-3.4811817e-06
111	0xb64d991d	-3.0636504e-06
112	0x32fdf00e	2.956224e-08
113	0xb4fe37ab	-4.735169e-07
114	0x368cd057	4.196579e-06
115	0xb5e12e57	-1.6777293e-06
116	0x35e84c66	1.7307582e-06
117	0x352b6758	6.385285e-07
118	0x34faf146	4.6741678e-07
119	0xb5636164	-8.470581e-07
120	0x35bf740d	1.4264384e-06
121	0x35d83bc9	1.6110654e-06
122	0xb5d5e14d	-1.5935308e-06
123	0xb5a3d9a0	-1.2207784e-06
124	0xb5e2e1cb	-1.6904027e-06
125	0x3675b162	3.6611095e-06
126	0xb6b646d4	-5.432268e-06
127	0xb59fb71f	-1.1899718e-06
128	0x35ad7fca	1.2926696e-06
129	0xb5578675	-8.02894e-07
130	0xb5bd67b7	-1.4111782e-06
131	0x34d7d12a	4.0199058e-07
132	0x35594a9a	8.094736e-07
133	0xb614f91e	-2.2198724e-06
134	0xb60a06fd	-2.056767e-06
135	0x3599bc86	1.1454256e-06
136	0xb50e6325	-5.3043397e-07
137	0xb6500882	-3.0999367e-06
138	0xb6486cc9	-2.9865644e-06
139	0xb47e0254	-2.365644e-07
140	0xb57297c4	-9.0372873e-07
141	0xb633439c	-2.6712432e-06
142	0xb62233f1	-2.4170115e-06
143	0xb51eaede	-5.911405e-07
144	0x367f6d24	3.806149e-06
145	0xb5bc8765	-1.4046497e-06
146	0xb5eebf97	-1.7788142e-06
147	0xb488dca9	-2.5492525e-07
148	0xb43c24c6	-1.7522243e-07
149	0xb67dd670	-3.7824757e-06
150	0xb6c82858	-5.965161e-06
151	0x36034688	1.9561576e-06
152	0xb50b9362	-5.1996005e-07
153	0x370191ca	7.722943e-06
154	0x36c62798	5.905469e-06
155	0x34ea3457	4.362398e-07
156	0x3656f403	3.2030518e-06
157	0x36464dba	2.9549542e-06
158	0x361d79bd	2.3465684e-06
159	0xb655d961	-3.1866005e-06
160	0x35d8c1ab	1.6149619e-06
161	0x346ac05b	2.1862927e-07
162	0xb57d228a	-9.4300106e-07
163	0xb323e236	-3.8157133e-08
164	0x346623f7	2.1433503e-07
165	0x36010a13	1.9228362e-06
166	0x34e38fdd	4.238672e-07
167	0xb5c0b0ef	-1.4356609e-06
168	0xb58db8ae	-1.0559068e-06
169	0x3487d414	2.5300017e-07
170	0x3606e134	2.0098641e-06
171	0x34e574d2	4.2739572e-07
172	0x34b75bd0	3.415321e-07
173	0xb38d9ab7	-6.5939666e-08
174	0x34f53482	4.567301e-07
175	0x35e1cd87	1.6823623e-06
176	0xb4a694f7	-3.1028296e-07
177	0x32aebd7b	2.0342432e-08
178	0x35e0e7a7	1.675672e-06
179	0xb4925222	-2.725438e-07
180	0xb592bb80	-1.0932417e-06
181	0x34b9de5c	3.4620723e-07
182	0x35482e1a	7.457289e-07
183	0x347ef8ac	2.374606e-07
184	0xb3627da3	-5.273399e-08
185	0xb52dc222	-6.473002e-07
186	0xb4f35531	-4.5324262e-07
187	0x35984091	1.1343674e-06
188	0x35111759	5.4050685e-07
189	0xb5caa17f	-1.5097174e-06
190	0xb36a4a4e	-5.454995e-08
191	0x349f8ddd	2.9719277e-07
192	0xb57fc565	-9.528215e-07
193	0xb647d6fd	-2.977845e-06
194	0xb633a7d8	-2.6770776e-06
195	0xb495822c	-2.7848125e-07
196	0xb51a2aca	-5.7431737e-07
197	0xb55b6dd9	-8.1743707e-07
198	0xb58c74ef	-1.0464845e-06
199	0xb5c57322	-1.4711152e-06
200	0x3298a3ec	1.7769672e-08
201	0xb539d1f1	-6.9223375e-07
202	0xb5c19b0e	-1.4424747e-06
203	0xb5b93d4d	-1.3801415e-06
204	0xb62f50bb	-2.6124023e-06
205	0xb5a1544d	-1.201997e-06
206	0xb5397f5a	-6.910319e-07
207	0xb61224c9	-2.1777107e-06
208	0xb5aa6287	-1.2694662e-06
209	0xb5d7cb8d	-1.6077989e-06
210	0xb5b1a6b3	-1.3236044e-06
211	0xb5a71694	-1.2449041e-06
212	0xb5c765f1	-1.4856324e-06
213	0xb6054f29	-1.9864622e-06
214	0xb5c79ae5	-1.4871736e-06
215	0xb5895981	-1.0233344e-06
216	0xb51c032a	-5.8119133e-07
217	0xb585d64d	-9.971642e-07
218	0xb5bb584d	-1.3958285e-06
219	0xb5df5d7b	-1.6642001e-06
220	0xb5a74d09	-1.246489e-06
221	0xb58bdfed	-1.0421478e-06
222	0xb5cdb76a	-1.5327071e-06
223	0xb5668e9d	-8.5889207e-07
224	0x359c6a35	1.1653816e-06
225	0xb5b5fdff	-1.3559473e-06
226	0xb63014b6	-2.62381e-06
227	0xb1f6bd7a	-7.1810833e-09
228	0xb6b068e3	-5.257419e-06
229	0xb3113c09	-3.3815045e-08
230	0x361be187	2.3228074e-06
231	0xb4df4cd0	-4.1592875e-07
232	0x3561ace6	8.407063e-07
233	0xb5f9bf1b	-1.8607565e-06
234	0x34d4259d	3.9515444e-07
235	0x36caac65	6.0401385e-06
236	0x34e55422	4.271579e-07
237	0x362ae269	2.5463762e-06
238	0x35daa40f	1.6290013e-06
239	0xb4674034	-2.1536908e-07
240	0x344bd8ea	1.8984761e-07
241	0x343ee698	1.7779018e-07
242	0x3484cf2a	2.4737648e-07
243	0x3434cc69	1.683817e-07
244	0x33a2938f	7.5705536e-08
245	0xb3736a96	-5.6674786e-08
246	0x33a5941f	7.710354e-08
247	0x348e77b4	2.6536657e-07
248	0x34405e1b	1.7915629e-07
249	0x334c3da1	4.7553502e-08
250	0xb2a0a1d1	-1.8700037e-08
251	0x3404932a	1.2346996e-07
252	0x3368b566	5.418169e-08
253	0x345b4542	2.042116e-07
254	0x344589e4	1.8397219e-07
255	0x341b12af	1.4442297e-07

exp_avg_sq f4 [1, 16, 4, 4]
0	0x38627a18	5.3996308e-05
1	0x3863738e	5.4228636e-05
2	0x3863a172	5.4271375e-05
3	0x3862fd26	5.411836e-05
4	0x3863899c	5.4249176e-05
5	0x38649d03	5.4505665e-05
6	0x3864b9f5	5.4532622e-05
7	0x3863df5f	5.4329048e-05
8	0x3863704c	5.4225602e-05
9	0x38647b3c	5.4474207e-05
10	0x38647f95	5.4478256e-05
11	0x38639325	5.4258056e-05
12	0x38623561	5.3932312e-05
13	0x38631434	5.4139833e-05
14	0x3863071f	5.412765e-05
15	0x3862272c	5.391908e-05
16	0x31800b03	3.726542e-09
17	0x3106813e	1.9573032e-09
18	0x31155989	2.1733249e-09
19	0x317aa742	3.6474863e-09
20	0x31bf1f66	5.562401e-09
21	0x312e7bbf	2.5390674e-09
22	0x3137038d	2.6632023e-09
23	0x31c2e8e2	5.672619e-09
24	0x31bf10de	5.560749e-09
25	0x31387549	2.6842193e-09
26	0x312cb987	2.5134754e-09
27	0x31c8b20c	5.8410077e-09
28	0x3180dbbf	3.7502725e-09
29	0x3115062e	2.1685866e-09
30	0x310296db	1.9003241e-09
31	0x318825e5	3.962429e-09
32	0x2ffd6877	4.609466e-10
33	0x30781803	9.0255997e-10
34	0x3069a855	8.500412e-10
35	0x2ff4a458	4.4500115e-10
36	0x301ad3f0	5.6326055e-10
37	0x309e07a3	1.1498184e-09
38	0x309d913f	1.1464535e-09
39	0x3013cbcb	5.3767896e-10
40	0x301a2d45	5.6089206e-10
41	0x309c3166	1.1364534e-09
42	0x30a3165d	1.1866167e-09
43	0x3013b3fc	5.373406e-10
44	0x30014859	4.703274e-10
45	0x306b0aac	8.550767e-10
46	0x30828c40	9.498606e-10
47	0x2ff4a149	4.4497941e-10
48	0x2f16fb96	1.3731802e-10
49	0x2f318839	1.6146452e-10
50	0x2f28d235	1.5354192e-10
51	0x2f06c208	1.2256163e-10
52	0x2f335125	1.6308783e-10
53	0x2f544ef0	1.9309332e-10
54	0x2f46e2eb	1.8088613e-10
55	0x2f298274	1.5416807e-10
56	0x2f3623db	1.6565542e-10
57	0x2f5494a4	1.9334095e-10
58	0x2f46d180	1.8082424e-10
59	0x2f32bf88	1.6257051e-10
60	0x2f122c00	1.3294255e-10
61	0x2f2f365d	1.5935471e-10
62	0x2f2dc72d	1.580502e-10
63	0x2f1a4a37	1.4032585e-10
64	0x31acdd1b	5.0309956e-09
65	0x31f99d62	7.264746e-09
66	0x31fa1383	7.278176e-09
67	0x31af315d	5.0987823e-09
68	0x31283936	2.4479738e-09
69	0x316084fe	3.2671887e-09
70	0x3169afdc	3.4005927e-09
71	0x313e6c72	2.7710283e-09
72	0x31262679	2.4178048e-09
73	0x3145c3b1	2.877851e-09
74	0x31417f4a	2.8157552e-09
75	0x3116775c	2.189572e-09
76	0x3193ccc2	4.3015413e-09
77	0x31dbdb87	6.3986962e-09
78	0x31e254f5	6.587124e-09
79	0x31a1cd0c	4.709028e-09
80	0x303f7d98	6.9663875e-10
81	0x2fb8f92a	3.3646447e-10
82	0x2fc3f413	3.5643719e-10
83	0x303c49c4	6.849883e-10
84	0x2fb83355	3.350588e-10
85	0x2fd25b5f	3.82637e-10
86	0x2fe1be93	4.1062673e-10
87	0x2fcf14b5	3.7667794e-10
88	0x2fbdc62f	3.4519718e-10
89	0x2fd5b928	3.8876036e-10
90	0x2fd0ed0a	3.8003406e-10
91	0x2fa95213	3.0799238e-10
92	0x3038d7a3	6.724525e-10
93	0x2fb31d46	3.258071e-10
94	0x2fc97fee	3.6652587e-10
95	0x304001d0	6.985177e-10
96	0x2f11d981	1.3264946e-10
97	0x2eea0128	1.06412934e-10
98	0x2f15279f	1.3565547e-10
99	0x2efb5197	1.1428652e-10
100	0x2f0a7df0	1.2595769e-10
101	0x2f0206a8	1.1825796e-10
102	0x2f38f359	1.6821157e-10
103	0x2efd3b07	1.1515593e-10
104	0x2efa0684	1.1369841e-10
105	0x2f4296e9	1.7697811e-10
106	0x2f22c013	1.4802053e-10
107	0x2efadf0a	1.14083035e-10
108	0x2eee9d93	1.0850978e-10
109	0x2f507f84	1.8962792e-10
110	0x2f212a8e	1.4657983e-10
111	0x2f045b10	1.2037682e-10
112	0x2ea6c027	7.582939e-11
113	0x2f1a2672	1.4019877e-10
114	0x2f334085	1.6302877e-10
115	0x2eb936ba	8.4225474e-11
116	0x2e1c3e27	3.5525496e-11
117	0x2e0f9864	3.2649786e-11
118	0x2e88b560	6.2167826e-11
119	0x2e7caa31	5.7449327e-11
120	0x2e52da67	4.7942452e-11
121	0x2e83dbb6	5.996219e-11
122	0x2dee65e1	2.710271e-11
123	0x2e42be70	4.4279636e-11
124	0x2ebcb045	8.580562e-11
125	0x2f3188a3	1.61466e-10
126	0x2f1d07a9	1.4281788e-10
127	0x2eb3848e	8.163524e-11
128	0x300a1889	5.0238974e-10
129	0x30388917	6.7133626e-10
130	0x3041fd69	7.057311e-10
131	0x30224845	5.903796e-10
132	0x30a5a92b	1.205341e-09
133	0x30cb1160	1.4775132e-09
134	0x30c3cf45	1.4247027e-09
135	0x309147a0	1.0570496e-09
136	0x307fbf5e	9.304041e-10
137	0x30b6d19e	1.330182e-09
138	0x30c7f858	1.4549739e-09
139	0x30a5b37d	1.2056344e-09
140	0x301a9202	5.6232363e-10
141	0x303b5810	6.815535e-10
142	0x30348d5f	6.568452e-10
143	0x3006a60c	4.8984883e-10
144	0x2f0fac1e	1.3066923e-10
145	0x2f1dacc6	1.4340448e-10
146	0x2f114435	1.3211905e-10
147	0x2eeaa07f	1.0669598e-10
148	0x2f23c31d	1.4894082e-10
149	0x2f0d95da	1.2877113e-10
150	0x2f6ae09c	2.1361973e-10
151	0x2f5fd719	2.035815e-10
152	0x2f53a2b8	1.9248148e-10
153	0x2f6a634f	2.1317458e-10
154	0x2f18ee44	1.3908968e-10
155	0x2f3f9359	1.7423697e-10
156	0x2ee78b23	1.05293795e-10
157	0x2f081f60	1.2380275e-10
158	0x2f1608d6	1.364556e-10
159	0x2f1009d2	1.3100213e-10
160	0x2ec3577b	8.883113e-11
161	0x2e76d49e	5.6122766e-11
162	0x2e4c89c1	4.650658e-11
163	0x2eed3723	1.07873065e-10
164	0x2e7f5fe6	5.8065462e-11
165	0x2eacd460	7.85938e-11
166	0x2ebf4dba	8.6994814e-11
167	0x2e66e216	5.249675e-11
168	0x2e5ad0b1	4.9752816e-11
169	0x2ec1d2d5	8.814075e-11
170	0x2eb57da1	8.253243e-11
171	0x2e82a705	5.941384e-11
172	0x2ef3416c	1.1061982e-10
173	0x2e5b2534	4.9827878e-11
174	0x2e9162dd	6.611398e-11
175	0x2ecdf673	9.366099e-11
176	0x2e3dabf3	4.3126346e-11
177	0x2f00a323	1.169949e-10
178	0x2f00cc31	1.1714076e-10
179	0x2e446ac5	4.466007e-11
180	0x2e4549e8	4.4858256e-11
181	0x2ec017b4	8.73536e-11
182	0x2ec4c714	8.9484115e-11
183	0x2e3dcefa	4.3157457e-11
184	0x2e4928fc	4.573851e-11
185	0x2ec36fc0	8.887424e-11
186	0x2ec0b707	8.763661e-11
187	0x2e4f7b01	4.71756e-11
188	0x2e4b0b62	4.6166966e-11
189	0x2f04abaa	1.2066317e-10
190	0x2efb7fc2	1.1436853e-10
191	0x2e3e5fe2	4.328616e-11
192	0x2f29fe21	1.5460745e-10
193	0x2f379f87	1.6700429e-10
194	0x2f3a498f	1.6942735e-10
195	0x2f235996	1.4856591e-10
196	0x2f54e529	1.9362702e-10
197	0x2f70cb22	2.190004e-10
198	0x2f764708	2.2398805e-10
199	0x2f64e65f	2.0818323e-10
200	0x2f6200db	2.0554884e-10
201	0x2f8019a3	2.330128e-10
202	0x2f7f75fd	2.3234033e-10
203	0x2f64c5c2	2.0806737e-10
204	0x2f197b9c	1.3959184e-10
205	0x2f36d600	1.6628832e-10
206	0x2f400908	1.7465507e-10
207	0x2f31387b	1.6118122e-10
208	0x2ec0a47c	8.7603674e-11
209	0x2e36d031	4.156692e-11
210	0x2e3b1796	4.2539826e-11
211	0x2ebf4be2	8.699154e-11
212	0x2f1c932f	1.4240407e-10
213	0x2e108564	3.2860284e-11
214	0x2e15e35c	3.4080613e-11
215	0x2f1b3990	1.4117618e-10
216	0x2f1ec5c4	1.4440277e-10
217	0x2e0a9d5c	3.151733e-11
218	0x2e11a39a	3.311449e-11
219	0x2f1d1246	1.4285559e-10
220	0x2ec3827a	8.8907506e-11
221	0x2e45d8ab	4.4985054e-11
222	0x2e3143c9	4.0305346e-11
223	0x2ebe5d9c	8.656828e-11
224	0x2e48fdd8	4.5700194e-11
225	0x2e79c19a	5.6787998e-11
226	0x2e69fba3	5.3201565e-11
227	0x2e790db4	5.6628216e-11
228	0x2f031948	1.1923362e-10
229	0x2ee105b5	1.0232829e-10
230	0x2ec47dd3	8.935399e-11
231	0x2f15a18d	1.3608865e-10
232	0x2f0e5505	1.294503e-10
233	0x2ec8f965	9.1392484e-11
234	0x2ee6867a	1.0483077e-10
235	0x2f08e309	1.2449787e-10
236	0x2e80f5c1	5.864421e-11
237	0x2e60e1ba	5.113219e-11
238	0x2e843d4a	6.013552e-11
239	0x2e5041ce	4.735217e-11
240	0x2db6a98d	2.07663e-11
241	0x2eb7ca72	8.357838e-11
242	0x2ebd124f	8.597977e-11
243	0x2da98005	1.9269928e-11
244	0x2eb61e9a	8.281838e-11
245	0x2fac51e5	3.1344807e-10
246	0x2fad3fef	3.1513944e-10
247	0x2eb33590	8.149492e-11
248	0x2eb98525	8.436477e-11
249	0x2faacc77	3.10681e-10
250	0x2fab1ddd	3.1125938e-10
251	0x2eb40011	8.185464e-11
252	0x2db2c98a	2.0325758e-11
253	0x2eb69023	8.3020056e-11
254	0x2eb7f93e	8.366151e-11
255	0x2db74cc4	2.0838782e-11

exp_avg f4 [1, 16, 4, 4]
0	0xb8ac3e04	-8.2131504e-05
1	0x38174ce4	3.6072815e-05
2	0x38649d28	5.45058e-05
3	0xb81c6d10	-3.729487e-05
4	0x37928569	1.746668e-05
5	0x3914a370	0.00014175265
6	0x39289dbe	0.00016080492
7	0x386d5ad4	5.6589794e-05
8	0x37aeda7c	2.0844156e-05
9	0x390cc186	0.00013423534
10	0x39137ede	0.00014066274
11	0x38219dc8	3.8532336e-05
12	0xb89a47b3	-7.356647e-05
13	0x37b5c251	2.1667367e-05
14	0x37c6a484	2.3680048e-05
15	0xb89058c4	-6.882989e-05
16	0x371e204f	9.425056e-06
17	0xb714f20f	-8.877846e-06
18	0xb8072bce	-3.2227304e-05
19	0xb7877d31	-1.615155e-05
20	0x3683cd74	3.928022e-06
21	0xb6c7d208	-5.955113e-06
22	0xb78218f1	-1.5508822e-05
23	0xb7691027	-1.3891643e-05
24	0x36a4b199	4.908256e-06
25	0x368dec30	4.2296233e-06
26	0xb6ef8df1	-7.139279e-06
27	0xb74e6f8c	-1.2304528e-05
28	0x3681c2bc	3.8671697e-06
29	0x37a243ed	1.9343535e-05
30	0xb707b104	-8.087842e-06
31	0xb7b7b80b	-2.1901002e-05
32	0x3521b223	6.0236397e-07
33	0x371efebd	9.476845e-06
34	0xb58cb717	-1.0484099e-06
35	0xb77467e9	-1.4567727e-05
36	0xb52291e5	-6.056201e-07
37	0x3695108d	4.442473e-06
38	0x369d316b	4.6847176e-06
39	0xb6c64721	-5.9091403e-06
40	0xb6325bb0	-2.6577436e-06
41	0x35c96544	1.5005139e-06
42	0x3707f873	8.104474e-06
43	0x35578afa	8.029598e-07
44	0xb7024e9d	-7.766907e-06
45	0x351bb804	5.800978e-07
46	0x375170c5	1.2483627e-05
47	0x36235218	2.4336678e-06
48	0xb6892a19	-4.087819e-06
49	0x366cbe5e	3.5277549e-06
50	0x36963332	4.4763083e-06
51	0x35cf7f57	1.5459763e-06
52	0xb67dd7a8	-3.7825466e-06
53	0x361b93c8	2.318282e-06
54	0x35ab814c	1.2778123e-06
55	0x36956b22	4.453018e-06
56	0xb6845c11	-3.9446245e-06
57	0x36095144	2.0461894e-06
58	0xb59fbf7a	-1.190215e-06
59	0x36c6007f	5.9009176e-06
60	0xb63ba491	-2.7960962e-06
61	0xb423aee3	-1.5244181e-07
62	0xb6215ee1	-2.4046096e-06
63	0x369fc7c4	4.761825e-06
64	0x36a3f3aa	4.886145e-06
65	0xb616efed	-2.2491397e-06
66	0xb63cccd3	-2.8133406e-06
67	0xb65c96e0	-3.2870375e-06
68	0xb6c4c974	-5.8647074e-06
69	0xb733d3d6	-1.0718553e-05
70	0xb689d76e	-4.1079975e-06
71	0x371a934e	9.213412e-06
72	0xb6ad36d9	-5.162187e-06
73	0x3761ebeb	1.3465974e-05
74	0x3794b3ef	1.7726763e-05
75	0x37444cf6	1.1700429e-05
76	0x371727ca	9.0095655e-06
77	0x374dba8c	1.2262386e-05
78	0x37289e8a	1.0050493e-05
79	0x3633c294	2.6786338e-06
80	0x36a89e68	5.025231e-06
81	0x3689d278	4.10742e-06
82	0xb68a1404	-4.1150506e-06
83	0xb6a9533a	-5.0462813e-06
84	0x36b6689c	5.436201e-06
85	0xb6ffa905	-7.6192687e-06
86	0xb75b44a2	-1.3069397e-05
87	0x3596eeb9	1.1245348e-06
88	0xb6d4b09c	-6.3386524e-06
89	0xb78d6eff	-1.6860196e-05
90	0xb6af0d78	-5.2169744e-06
91	0x37411e23	1.1510713e-05
92	0xb73351ed	-1.0688306e-05
93	0xb6b4610b	-5.3757153e-06
94	0x3740798a	1.147239e-05
95	0x373808c7	1.0969298e-05
96	0x363b1099	2.7874833e-06
97	0xb5a74141	-1.2461461e-06
98	0xb6a1ad0d	-4.8183197e-06
99	0xb62160ba	-2.4047172e-06
100	0x36408e66	2.8693116e-06
101	0x35f43f5d	1.8197858e-06
102	0xb6e0da9d	-6.70117e-06
103	0xb6ea539d	-6.9834773e-06
104	0x36a3e1be	4.8840584e-06
105	0x3648bc72	2.9912012e-06
106	0xb67e4be1	-3.7893117e-06
107	0xb6c5c72e	-5.894245e-06
108	0x36b761a4	5.465192e-06
109	0x3583fd22	9.833932e-07
110	0x34b49c2d	3.3641246e-07
111	0xb64ec1a6	-3.080911e-06
112	0xb5b91bd5	-1.3791674e-06
113	0xb6b9e8a4	-5.5405126e-06
114	0x36afc8fb	5.2388036e-06
115	0x35c21f2b	1.4463197e-06
116	0xb618e82a	-2.2784902e-06
117	0x35ec375e	1.7599484e-06
118	0x36bbf7c3	5.6018775e-06
119	0xb5fe64c1	-1.8953798e-06
120	0x3496caf6	2.808735e-07
121	0x369c0ce9	4.6506652e-06
122	0x3628d2ee	2.5156728e-06
123	0xb6943ee8	-4.418067e-06
124	0x35c36c90	1.4560228e-06
125	0x3650a460	3.1090094e-06
126	0xb638315b	-2.7446865e-06
127	0xb60befce	-2.0852199e-06
128	0x368203cf	3.8747453e-06
129	0xb60750ba	-2.0163557e-06
130	0xb6e68dd2	-6.871044e-06
131	0xb6f2be1e	-7.2342946e-06
132	0x36f6400d	7.338828e-06
133	0xb4a14871	-3.0041295e-07
134	0xb69e39e2	-4.7155054e-06
135	0xb636460b	-2.7160884e-06
136	0xb623cf62	-2.4409605e-06
137	0xb651868f	-3.122175e-06
138	0x3380f9b3	6.0058845e-08
139	0x3700cfb2	7.677752e-06
140	0xb6b8f921	-5.5126297e-06
141	0xb613fb21	-2.2050883e-06
142	0x3567749c	8.6223895e-07
143	0x367bf3d1	3.7543834e-06
144	0x35518a71	7.8060026e-07
145	0x364c0849	3.0403191e-06
146	0x36ce1d72	6.1427063e-06
147	0x35543c7b	7.9064165e-07
148	0x36037074	1.9585977e-06
149	0x362699ae	2.482538e-06
150	0x36658239	3.4199459e-06
151	0x351b5d28	5.787756e-07
152	0xb5f40ffd	-1.818407e-06
153	0xb6440d2f	-2.921395e-06
154	0x359ada69	1.153746e-06
155	0x36b18e1a	5.291554e-06
156	0xb667be52	-3.4532463e-06
157	0xb679f150	-3.7244354e-06
158	0x35044ce0	4.92857e-07
159	0x36ddf244	6.6145167e-06
160	0xb5bc2270	-1.4017114e-06
161	0x34e90937	4.3406337e-07
162	0x3626c0e0	2.4848196e-06
163	0x35e68064	1.7173702e-06
164	0xb6123d90	-2.179153e-06
165	0x34e1d830	4.2066813e-07
166	0x360e6ba6	2.1222309e-06
167	0x35dfbfce	1.6670617e-06
168	0x360055b3	1.912337e-06
169	0x362fa396	2.6172252e-06
170	0xb55187ec	-7.805636e-07
171	0xb622df93	-2.4270018e-06
172	0x359ab469	1.15264e-06
173	0x35926995	1.0908576e-06
174	0xb527731b	-6.237985e-07
175	0xb5d7f7d2	-1.6090873e-06
176	0x35baaa69	1.3907676e-06
177	0xb6616e54	-3.3591832e-06
178	0xb59e0d94	-1.1775869e-06
179	0x35146b33	5.529029e-07
180	0x359eddde	1.1836489e-06
181	0xb5a64776	-1.2388762e-06
182	0xb5db501d	-1.6340088e-06
183	0x35ea71f4	1.7467523e-06
184	0xb62bb8fe	-2.5588665e-06
185	0x35ee329c	1.7747111e-06
186	0x35b32522	1.3347346e-06
187	0xb4e844fa	-4.3263555e-07
188	0xb4e01ef0	-4.174576e-07
189	0x355e1b77	8.274141e-07
190	0x365988e8	3.241521e-06
191	0xb5862722	-9.995167e-07
192	0xb498bcf9	-2.8449702e-07
193	0xb50dd05f	-5.2829813e-07
194	0xb44c5d33	-1.9032886e-07
195	0x3493f782	2.756097e-07
196	0x3607fd09	2.0263853e-06
197	0x355feb07	8.3415983e-07
198	0x3355ecc1	4.9808254e-08
199	0xb61c47a9	-2.3287523e-06
200	0x363237d1	2.6556556e-06
201	0xb0bc1b9f	-1.3686651e-09
202	0xb5f45aa5	-1.8205798e-06
203	0xb5ba0737	-1.386018e-06
204	0xb6a374cc	-4.8713755e-06
205	0xb649d89c	-3.0077417e-06
206	0xb6076d31	-2.0180125e-06
207	0xb4572b9f	-2.0039305e-07
208	0x350297ad	4.864949e-07
209	0xb5646fe0	-8.509942e-07
210	0xb5a2e067	-1.213525e-06
211	0xb3a9fdd1	-7.915845e-08
212	0x35c8f197	1.4971473e-06
213	0x352987c4	6.315497e-07
214	0x358445f1	9.855122e-07
215	0xb5f288b1	-1.8070187e-06
216	0xb6209d99	-2.3933592e-06
217	0x359fdf1f	1.191136e-06
218	0x35a4dd10	1.228329e-06
219	0x35f9105a	1.8556705e-06
220	0x358a3350	1.0296735e-06
221	0xb5f96929	-1.8582551e-06
222	0xb606d1ac	-2.00896e-06
223	0xb5526fa5	-7.839356e-07
224	0x36121625	2.1768585e-06
225	0xb64f1f48	-3.0863612e-06
226	0xb6370ec4	-2.727772e-06
227	0xb6145cbb	-2.2107695e-06
228	0x35bccd07	1.4066762e-06
229	0x35a6bb9d	1.2422566e-06
230	0xb4bfcd54	-3.5725918e-07
231	0xb5fd1ae9	-1.8857801e-06
232	0x35db84f2	1.6355464e-06
233	0x364e91a8	3.0781175e-06
234	0x36827799	3.888225e-06
235	0x325e9450	1.2955823e-08
236	0x36a3d469	4.8825063e-06
237	0x36d908fb	6.4681494e-06
238	0x3653c0ba	3.1553632e-06
239	0x35af0be9	1.3041982e-06
240	0xb502d3f6	-4.873722e-07
241	0x3577e14e	9.234253e-07
242	0x349ba6f9	2.8992488e-07
243	0xb346e1c6	-4.6305807e-08
244	0x34e28b71	4.2197237e-07
245	0xb4c357d8	-3.6385495e-07
246	0xb56fe2e7	-8.9364625e-07
247	0xb535fd10	-6.779601e-07
248	0x3588566d	1.0157943e-06
249	0xb51f2e63	-5.929962e-07
250	0x3402ee5d	1.219391e-07
251	0x357e0a22	9.463712e-07
252	0xb533876b	-6.6879755e-07
253	0x35ac06d6	1.2816988e-06
254	0xb48b0565	-2.5894693e-07
255	0xb58dd440	-1.0567092e-06
