pre-trained/DCT4_soft-thr_L2_rnd-init_1000.pt (torch_old, 258146 bytes, 4 tensors)

thr f4 [1, 16, 1, 1]
000000 00 00 80 3f 00 00 80 3f 00 00 80 3f 00 00 80 3f
       1.0 1.0 1.0 1.0
000010 00 00 80 3f 00 00 80 3f 00 00 80 3f 00 00 80 3f
       1.0 1.0 1.0 1.0
000020 00 00 80 3f 00 00 80 3f 00 00 80 3f 00 00 80 3f
       1.0 1.0 1.0 1.0
000030 00 00 80 3f 00 00 80 3f 00 00 80 3f 00 00 80 3f
       1.0 1.0 1.0 1.0

weight f4 [16, 1, 4, 4]
000000 a2 ef 4f be 2c 2a fb bd 9d c7 67 be 2c 97 af bd
       -0.20306256 -0.12263903 -0.2263474 -0.085737556
000010 6a c4 fe 3d 41 12 36 3e 13 59 8c 3c 3f 9c 18 3e
       0.12439807 0.17780401 0.017132318 0.14903353
000020 67 17 1c 3d 21 1d 3d bd 1d 92 99 3e 3a 57 02 bc
       0.038108256 -0.046170358 0.29994288 -0.007955367
000030 b1 a3 94 be 69 99 b5 3d 95 7e 61 bd 9e 9c a8 be
       -0.29031137 0.08867151 -0.05505236 -0.3293199
000040 cd 40 bc bd 16 43 c6 3d 01 7f 01 be 92 85 c2 be
       -0.09192047 0.096807644 -0.12646104 -0.3799253
000050 61 10 ba be d2 bb 65 be b8 b7 78 be 11 ed 9a be
       -0.3634062 -0.22434929 -0.24288833 -0.30258992
000060 6a 23 b9 bd 98 d6 89 be 13 1b 36 be 54 8c c7 be
       -0.09039958 -0.26921535 -0.17783765 -0.3897425
000070 04 2f 4d be 09 1d 34 be bb eb 76 3c f8 59 6f be
       -0.20037466 -0.17589201 0.015070851 -0.23374164
000080 53 ad c7 3d b0 b6 b8 bc 57 f8 1f be 13 f0 a2 3e
       0.09749856 -0.02254805 -0.15622078 0.31823787
000090 a1 58 be 3c 8d ea 08 3e c2 a5 cc 3e 87 9e 8a 3e
       0.02323562 0.13370724 0.39970213 0.27074072
0000a0 75 1d e7 3d 7c dd 88 3e 1f 7e 29 bd ce 83 06 bc
       0.11284915 0.2673148 -0.041380044 -0.008210136
0000b0 d7 51 50 3e 07 8e 22 bb 79 c9 e0 be f0 6b 91 3b
       0.2034372 -0.0024803893 -0.4390371 0.004437916
0000c0 8b 40 84 bd 4f f5 2d 3e f1 07 3f be 0f 71 18 be
       -0.06457623 0.16988109 -0.18655373 -0.14886878
0000d0 88 24 90 bd fd 0b 09 bf bd 62 f4 be 53 78 e4 bd
       -0.07038218 -0.5353392 -0.4773158 -0.111557625
0000e0 e1 4f b3 3d 41 42 97 bd 99 61 51 bd 65 72 06 3f
       0.0875547 -0.07385684 -0.051118467 0.525183
0000f0 c5 8a 2b 3f 66 d9 81 bd d0 87 13 be 3a 4f ce 3e
       0.6700862 -0.063402936 -0.14407277 0.4029482
000100 65 99 96 3e 83 fb b3 3e 4a f5 db 3e 13 8d de be
       0.29413906 0.35152826 0.42960578 -0.43467006
000110 94 32 ec 3d ef a8 28 bc 1b 5c 04 bf 73 07 09 3e
       0.115330845 -0.010294183 -0.5170304 0.13381748
000120 ff a6 52 3e 30 2a e2 3d bd fb 40 be 29 42 9c 3d
       0.20571516 0.11043203 -0.1884603 0.076298065
000130 c1 d0 92 bd 59 53 8d 3d 29 69 45 bd 3e a6 63 bb
       -0.07168723 0.06900663 -0.04819599 -0.003473654
000140 fc ae 90 3d 78 9a 25 3e 70 99 9e 3e b6 6e 09 bd
       0.070646256 0.16172206 0.3097644 -0.033552848
000150 86 18 be 3e 75 db 02 be 8e f7 90 3d dd fd 46 3e
       0.37128085 -0.12779029 0.07078467 0.19432779
000160 11 98 f5 3e 3d da 81 be ff b1 3c 3e 5b 31 2d be
       0.4796758 -0.25361815 0.18427275 -0.16913359
000170 4e d4 30 be de 82 46 be a7 75 34 bd 31 1d 1a bb
       -0.17268488 -0.1938586 -0.044057515 -0.0023515935
000180 27 29 fa bd bc 80 8a 3e b3 d7 15 3d 19 5c 1a 3e
       -0.122148804 0.27051342 0.03658266 0.15074195
000190 04 16 7e bd 8f 6d f6 bd 88 a9 9a bd ac b1 b3 be
       -0.062032714 -0.120326154 -0.07551867 -0.3509649
0001a0 24 33 d3 bc 14 db 95 bd 9a b3 35 3d 5f 4b b0 3e
       -0.025781222 -0.073171765 0.044360735 0.34432504
0001b0 f7 6f a4 be 25 29 8a bd 1c 5b 19 bc 25 39 85 be
       -0.32116672 -0.06746129 -0.009360101 -0.2602016
0001c0 45 d0 37 b9 c1 38 5b be 42 95 f2 3e b6 1b 5a 3e
       -0.00017529826 -0.21408369 0.473795 0.21299633
0001d0 a4 7c 84 3e 01 95 6d 3e f4 f2 81 3e 21 15 89 3e
       0.25876343 0.23201372 0.2538067 0.26773933
0001e0 d4 e3 0c 3e e2 76 73 3e 04 c2 c4 3e 93 e3 1d 3e
       0.13758785 0.23775819 0.38429272 0.15418844
0001f0 d1 2c 7b 3e a3 83 3c 3e 67 33 a5 3c c9 fc c2 3e
       0.24528815 0.1840959 0.020166112 0.38083485
000200 66 47 1f be 0d 4c 48 be 41 f2 93 bd cb 0b 90 be
       -0.1555458 -0.19560261 -0.07223941 -0.28133997
000210 fb d0 eb 3c b5 db 14 3d 6c a0 eb bd ae 77 4f be
       0.028786173 0.03634234 -0.115052074 -0.20260498
000220 11 68 91 be 10 77 d0 bd e2 50 fb 3d a2 6b a1 3d
       -0.2839971 -0.10178959 0.122712865 0.078818575
000230 ad d1 cd bd d7 ac b3 bb e6 57 81 3e 64 9c 01 bd
       -0.10049758 -0.0054832506 0.25262374 -0.031643286
000240 56 cf 3d 3d 83 71 54 bd 15 26 0b bf 4f 5f ad 3d
       0.04634031 -0.051866066 -0.54354984 0.08465444
000250 78 b3 05 3e f5 fb 52 be aa 59 1b 3e e5 9c a9 3e
       0.13056743 -0.20603926 0.15170923 0.33127514
000260 ac e9 c5 3d 67 88 21 be d3 c9 61 be 03 f4 a7 bc
       0.0966371 -0.1577469 -0.22049646 -0.020502096
000270 81 a3 3d be a1 b1 94 3d a6 8b 03 3e 82 f7 b7 3d
       -0.18519403 0.072604425 0.1284624 0.08982755
000280 0d 9c 0f bd 27 99 13 3d c6 9c 11 3e c1 6f 51 3e
       -0.03506093 0.03603473 0.1421996 0.20452787
000290 f5 8a 8a 3e e2 b8 3e be da e8 85 bd 42 b7 2e 3c
       0.2705914 -0.18625215 -0.065385535 0.010663809
0002a0 94 39 70 3e a8 fb 57 be 39 9e 23 be fe dd 22 3e
       0.23459464 -0.21092093 -0.15978326 0.15904996
0002b0 79 44 18 3d 43 9b 88 3e c3 da cb 3d e8 11 d3 bd
       0.037174676 0.26680955 0.09953835 -0.1030615
0002c0 58 42 c1 bd a2 7c a0 3d 9c 1c d7 b9 b3 d8 8b 3b
       -0.09436482 0.07836272 -0.0004102931 0.004267776
0002d0 73 71 51 bc 99 11 70 3d 41 a4 33 bd 6d b1 33 3d
       -0.012783396 0.058610532 -0.043857817 0.04387038
0002e0 a0 f4 f1 3c 6f f6 6a bc 38 56 1b be db 50 2f 3d
       0.029535592 -0.014340981 -0.15169609 0.04280172
0002f0 72 b8 53 be 89 4f 17 3f 51 e1 c4 3d ca b3 e1 be
       -0.20675829 0.59105736 0.09613288 -0.4408248
000300 d3 6e b5 bd aa 51 e5 bd ba 6c a5 bd 21 72 3e 3e
       -0.08859029 -0.11197217 -0.080773786 0.18598224
000310 41 c3 a4 bd 69 e6 fb bd 24 86 32 be ac 48 c0 be
       -0.08045054 -0.122998066 -0.17433983 -0.37555444
000320 69 f9 6d 3e 4b 83 49 bd e8 a3 89 3e 40 77 99 bd
       0.23239674 -0.049197476 0.26882863 -0.07493448
000330 08 65 a6 3d 8c 6a 68 3d 8c 6e 3f 3e b5 fb 7a bd
       0.08124739 0.056742236 0.18694514 -0.061275203
000340 ba cd 3f be fe 96 ac bd 2e e3 99 3e c2 d3 b2 3c
       -0.18730822 -0.08427237 0.30056137 0.02182949
000350 3b bb d7 bd 61 20 b1 be 80 3d bb 3d 31 b3 0c 3f
       -0.10533758 -0.34595016 0.091425896 0.54960924
000360 5c 3a 17 3e b6 a6 a4 3d 94 d3 27 3e 09 f5 2d 3d
       0.14768356 0.0803961 0.16389304 0.04247001
000370 e8 66 89 3d 63 dc 82 bc 54 df 38 3a a8 15 8e bd
       0.06709081 -0.01597423 0.00070523215 -0.06937724
000380 89 26 ca bd 25 05 83 be 17 fa aa be 11 b5 81 3b
       -0.09870631 -0.25589862 -0.33393928 0.0039583524
000390 8a 68 b7 3d f9 07 7e be 18 37 72 3e 1d 88 b5 bd
       0.08955486 -0.24807729 0.23653829 -0.08863852
0003a0 5e 4c 44 3e 89 2d c9 3d f3 00 28 3e e8 27 d3 3c
       0.19169757 0.09823138 0.16406612 0.025775865
0003b0 44 40 69 bd 81 7f 45 3d dc 0a 98 be 37 40 8c be
       -0.056946054 0.0482173 -0.29695785 -0.27392742
0003c0 d4 c0 81 bd 12 c6 68 3e fd 13 87 be 7a 3e e4 3d
       -0.06335607 0.22731808 -0.26382437 0.11144729
0003d0 39 0b 94 be ec 71 b8 3e b7 0c e9 be f7 3b 80 3d
       -0.28914812 0.36024415 -0.45517513 0.062614374
0003e0 56 f0 70 bd 63 5a 95 bc 5f 45 2d bd 0e dc 06 bd
       -0.058822952 -0.018231576 -0.042302486 -0.032924704
0003f0 9b 80 dc 3d 7c 52 77 3e 00 bc 2f be bb e2 82 be
       0.10766717 0.24152559 -0.1716156 -0.25563607

bias f4 [16]
000000 1d cd 21 be e5 be 88 be 74 ba 86 be 7e 69 3a bf
       -0.15800901 -0.2670814 -0.26314127 -0.7281722
000010 8f 61 2a 3d 29 b2 18 be ac 8b 7a bd 2a 21 3f 3e
       0.041596945 -0.14911713 -0.061168358 0.18664995
000020 08 18 af 3d 98 fc 73 3e ca 6e 0e 3e 64 ec 97 3d
       0.085495055 0.23826826 0.1390945 0.07418135
000030 38 6d 49 be 4d c9 1b 3e f8 20 b8 3c b0 53 0c be
       -0.1967057 0.15213509 0.022476658 -0.13703799

weight f4 [1, 16, 4, 4]
000000 6a 63 e0 3e cf ed d2 be 9f 11 09 3f 16 ea 62 3b
       0.43825847 -0.4119706 0.5354251 0.003462439
000010 12 6b ab 3e d0 dd 50 3e 4e 8b 8a bc 4a 78 91 3e
       0.33480126 0.20397115 -0.016912129 0.28412086
000020 78 91 1f 3e 9c 91 0e bd 21 a0 6c bd 44 38 90 be
       0.15582836 -0.034806833 -0.0577699 -0.28167927
000030 ba dc b2 be d2 91 78 3e 54 0d 92 be 16 c3 e2 bc
       -0.34934026 0.24274376 -0.28525794 -0.027680915
000040 08 75 4d bc cf 90 a5 3e 96 ce 71 be 14 0f fe bd
       -0.012540109 0.32337043 -0.23613963 -0.1240522
000050 d6 01 88 be eb bf 9c be 90 85 e2 bd bc c6 41 3d
       -0.265639 -0.30615172 -0.11060631 0.04730867
000060 eb 80 6c bd 18 7e eb bd 12 44 d7 be 88 fb 06 be
       -0.057740133 -0.1149866 -0.4204412 -0.13181889
000070 b3 f9 17 3d a2 8d 2d 3e a3 46 c4 3d eb d7 de be
       0.037103366 0.1694856 0.095837854 -0.43524107
000080 0f c1 44 bd b5 5e 5e be bf a2 93 3d f0 3a 8c 3e
       -0.048035678 -0.21715815 0.07208776 0.27388716
000090 c8 55 bf be fc 44 b0 be 3a b1 16 bf 1a 27 db 3e
       -0.37370133 -0.3442763 -0.58864176 0.4280327
0000a0 0b 3c e6 3d 6b 5f d0 bd 98 69 eb bd e2 62 84 be
       0.11241921 -0.101744495 -0.1149475 -0.25856692
0000b0 79 82 87 3e 0e 61 1e bd 94 4a 56 3e 16 a3 b4 3e
       0.2646673 -0.038666777 0.20926887 0.35280675
0000c0 3b 99 78 3d 4f e1 66 bd e6 59 24 bc 59 ee 33 3e
       0.060693007 -0.056367215 -0.010031199 0.17571391
0000d0 e3 6e 0e 3e de 90 ae bc 2f 90 2e bd 83 ff 89 3d
       0.13909487 -0.021309312 -0.042617973 0.06738188
0000e0 98 a3 5e bc b0 3f f9 bd 13 88 37 be 53 7d a4 bd
       -0.0135888085 -0.121703506 -0.17923002 -0.08031716
0000f0 35 e7 2a bc c1 f5 88 bd 39 37 f3 3a d7 0a a7 3b
       -0.010431101 -0.06687499 0.0018555886 0.0050977278
000100 c8 86 8d be d2 d0 e5 bd 90 00 9e be fd 6e d9 bd
       -0.27641892 -0.1122147 -0.30859804 -0.106168725
000110 7c b3 b9 3d 54 aa 13 be f3 ff 6f 3b 63 57 9c be
       0.09067437 -0.14420444 0.0036621063 -0.3053542
000120 76 a2 44 3d f1 23 64 3d 10 f1 68 be 38 29 61 be
       0.048006497 0.05569834 -0.22748208 -0.2198838
000130 1b a9 74 3d 93 18 94 bd f2 61 b6 3d 83 1f 39 3d
       0.059731584 -0.0723125 0.089054 0.045196068
000140 8d 24 04 3d e2 b7 c8 be d1 13 7a 3e b8 96 1f 3e
       0.03226142 -0.3920279 0.24421622 0.15584838
000150 33 89 95 bd f0 fc 0d 3d 1c 80 0b be 7e 65 6e 3d
       -0.07301559 0.034665048 -0.13623089 0.05820226
000160 d2 2f 9b 3e cc 9a 8c 3e df b1 ff 3d 7a 16 c9 3d
       0.30309922 0.2746185 0.12485098 0.0981874
000170 80 30 7f 3e 94 9b 12 3e a2 79 9b 3e 43 e7 b3 be
       0.24920845 0.14317161 0.30366236 -0.35137376
000180 df ff 86 bc 7f 55 e6 bd 87 cd b1 bd 9f 62 8c 3e
       -0.01647943 -0.11246776 -0.08681779 0.27418992
000190 9e 97 11 3e f0 d6 ba 3e e1 14 60 be 10 8b 83 be
       0.14217994 0.3649211 -0.21882965 -0.25692034
0001a0 32 3e bc 3e 11 5c e2 3c 7e fe d1 3e 50 ba cf 3d
       0.367662 0.027631791 0.41014475 0.10142958
0001b0 2e f9 c5 bd 0d 99 92 3e 50 ca f7 bd 48 51 26 bb
       -0.09666668 0.28632393 -0.12099135 -0.0025378037
0001c0 5b c0 e0 bc e9 09 46 3e f3 42 b6 3c 51 72 42 be
       -0.027435472 0.19339718 0.02224872 -0.18988921
0001d0 5a 1b 96 be 2b a7 59 be 8f 19 39 be 99 26 ba bc
       -0.29317743 -0.21255176 -0.18076156 -0.022723483
0001e0 ce be 27 3d cd 15 78 bb 50 c8 c5 bd 23 ee ab be
       0.04095345 -0.003785479 -0.09657347 -0.3358012
0001f0 15 bf 05 bd 25 c6 16 3e 30 dd be 3d 59 9e 9a be
       -0.032652933 0.14724024 0.09319532 -0.30198935
000200 86 dd d9 3c 51 71 1d 3d 66 95 04 be de c2 b3 3d
       0.026594888 0.038438145 -0.12947616 0.08777402
000210 e2 c1 b4 be 33 b5 a1 be af f5 7c bd f4 93 af 3e
       -0.3530417 -0.31583557 -0.06175774 0.34292567
000220 79 a1 5b bd 4b 0e 41 be 13 37 36 be ac 13 0e 3e
       -0.05362079 -0.18853109 -0.17794447 0.13874692
000230 6e b3 a4 3e c9 de 13 3d 9d d4 88 bc b7 df 4d 3e
       0.32168144 0.036101136 -0.016702944 0.20104872
000240 45 8f d6 bd 11 f0 8d be 79 64 f4 bd 43 32 75 be
       -0.10476545 -0.2772222 -0.11933226 -0.23944955
000250 80 f7 69 bd ac a6 84 bc 2d aa 64 be 8c 84 86 3c
       -0.0571208 -0.016192757 -0.22330542 0.016420625
000260 d3 e1 79 bb 14 8b 37 3e c6 54 68 bc f3 19 92 3e
       -0.0038128986 0.17924148 -0.014180368 0.28535423
000270 5a f5 77 be 84 10 bc bd 8a 86 d5 3e 4d fa 9b be
       -0.24214688 -0.091828376 0.41704208 -0.30464402
000280 f5 eb 52 3d 44 b4 e8 bd f9 a9 d8 be 7d d4 1b be
       0.051494557 -0.11362508 -0.4231718 -0.15217777
000290 7c d6 59 be 80 68 51 be c1 87 fa 3e 14 74 be be
       -0.21273226 -0.2045002 0.48931697 -0.37197936
0002a0 ba cf f3 be 7a ba 00 be a3 1d 14 3d 01 03 3e be
       -0.4761942 -0.12571135 0.036161076 -0.18555833
0002b0 e4 74 0b 3d e6 f0 7f be ce 48 71 3e df f2 b0 3e
       0.034047022 -0.24994239 0.23562929 0.34560296
0002c0 3a 9e 80 bb 97 21 de bd 31 38 57 3e 42 74 aa be
       -0.003925112 -0.108462505 0.21017529 -0.33291823
0002d0 00 29 8f 3d 9d b2 9e be 6f 63 9a be e1 43 8f 3e
       0.06990242 -0.30995646 -0.30153987 0.27981475
0002e0 92 69 7c be 16 9f 4c bd ac 77 79 3e f4 27 69 be
       -0.24649647 -0.049956404 0.24362057 -0.22769147
0002f0 f5 03 a8 bd e0 b0 0e be cf 59 69 bc cf f7 17 bd
       -0.0820388 -0.1393466 -0.014242603 -0.037101563
000300 ec 92 9f 3d 59 8e 4f 3e f9 4b 10 be f2 15 96 3d
       0.07791695 0.20269145 -0.14091481 0.073284045
000310 76 f2 a4 bc 78 1f 91 bc e1 cc 84 bd 36 fb b3 be
       -0.020135146 -0.0177152 -0.0648439 -0.35152596
000320 14 0e 5e 3e 6e 92 6a be 57 a6 77 3d de be a5 be
       0.21685058 -0.22907421 0.06046137 -0.32372183
000330 3f 38 1e be 56 6a d8 3d 66 82 70 bd c0 33 1d bd
       -0.15451144 0.10567157 -0.058718108 -0.03837943
000340 64 ed 57 3d bb 48 02 be b0 89 bd be ff 75 c6 be
       0.052716628 -0.12723057 -0.3701911 -0.387619
000350 7b 91 00 3e d0 fb 73 3e 3c 37 14 bd e9 f5 ac 3e
       0.12555496 0.23826528 -0.036185488 0.33781365
000360 42 bb 82 3e 4b 46 bb bd 0d bc 0b be c0 bb ae be
       0.2553349 -0.09144267 -0.13645954 -0.34127617
000370 77 e6 2e bd 6a eb bd 3d 21 f6 d9 bd 7b 93 e5 be
       -0.042700257 0.09273417 -0.106426485 -0.4483908
000380 d0 5c 02 bf d0 13 88 3e 83 31 a5 bd 45 4c a0 3e
       -0.5092287 0.26577616 -0.08066084 0.3130819
000390 ea 7a c2 be bd 33 7f 3e 32 e1 24 be 26 b7 72 3d
       -0.379844 0.2492208 -0.1610153 0.059256695
0003a0 4b 00 6a be 10 5d c1 be 46 6e 9b 3e 84 a7 fe 3d
       -0.22851674 -0.37766314 0.3035757 0.12434295
0003b0 c6 33 6d bc 41 2f 74 3e b7 74 e5 bd 12 69 91 3e
       -0.014477676 0.23846151 -0.11203902 0.28400475
0003c0 73 19 9c bd aa 68 00 be cf f0 bb 3e 7e 16 de 3d
       -0.076220416 -0.12539926 0.3670716 0.10844134
0003d0 99 2c 57 be 98 b9 2d be 82 b2 af be 7d 7b 3c bd
       -0.21013106 -0.1696533 -0.34315878 -0.046016205
0003e0 2a de 71 be 35 36 6e be b4 80 84 3d 2f f0 63 3e
       -0.23619905 -0.23262866 0.06469861 0.22259592
0003f0 d3 4d db 3e 82 b3 cd 3d 07 dd 1e be 0e fa 0a 3d
       0.42832813 0.10044004 -0.15514003 0.033929877
