pre-trained/DCT4_soft-thr_L2_rnd-init_1800.pt (torch_old, 392004 bytes, 10 tensors)

weight f4 [16, 1, 4, 4]
0	0xbe2ab2d4	-0.1666978
1	0xbf03b4ba	-0.5144764
2	0xbf1db740	-0.6160774
3	0xbedf705f	-0.4364042
4	0xbd315157	-0.043290462
5	0x3d8c294a	0.06843813
6	0x3d6a18bb	0.05715249
7	0x3f071864	0.5277159
8	0x3bacbddf	0.005271658
9	0x3e9d9a59	0.3078182
10	0x3ecbdf25	0.39818683
11	0x3e89a165	0.26880947
12	0xbc30922b	-0.010777037
13	0x3e905484	0.2818948
14	0x3e23347d	0.15937991
15	0xbe91a458	-0.28445697
16	0xbdf7c470	-0.12098014
17	0x3d08249c	0.03323804
18	0x3d979b8c	0.07402715
19	0x3da94fa3	0.082671426
20	0x3ecd1bf9	0.40060404
21	0xbe247019	-0.16058387
22	0x3df4f0c4	0.11959985
23	0xbe349ab3	-0.17637138
24	0xbe285b05	-0.16440971
25	0x3e742986	0.23843965
26	0xbee0fc3b	-0.43942437
27	0x3d4dc523	0.050236832
28	0x3e41faa6	0.18943271
29	0x3e2ba64a	0.16762653
30	0x3c198363	0.009369704
31	0xbde0e4f5	-0.1098117
32	0x3eebfe34	0.4609238
33	0xbea94185	-0.330578
34	0x3ea9e8e0	0.33185482
35	0xbef96122	-0.4870692
36	0x3cb56315	0.022141973
37	0xbd96ead4	-0.07369009
38	0x3db0095e	0.08595537
39	0x3dc436b8	0.09580749
40	0xbe82c4a8	-0.25540662
41	0xbe1d60e7	-0.15368997
42	0x3ea36d9c	0.31919563
43	0xbeb59936	-0.35468453
44	0xbe196d8f	-0.149832
45	0xbd4c7f8d	-0.04992633
46	0xbc36a5f0	-0.011147961
47	0xbe578970	-0.21048522
48	0x3d99dc6b	0.075127445
49	0x3e7a482e	0.24441597
50	0x3e97e421	0.29666236
51	0x3e3d6543	0.1849566
52	0x3e6248d8	0.220981
53	0x3e972212	0.2951818
54	0x3eda1b04	0.42598736
55	0xbd0a01c6	-0.033693098
56	0x3e782205	0.24231727
57	0xbda1b10a	-0.07895096
58	0x3e6c7419	0.23091163
59	0xbdfe0c6c	-0.12404713
60	0x3df73448	0.12070519
61	0xbdcdc913	-0.100481175
62	0x3ebfb058	0.37439227
63	0x3ed8b76b	0.42327437
64	0x3dd8c1ea	0.10583861
65	0x3e707b85	0.23484619
66	0xbdba78e2	-0.09105088
67	0x3dba5a3e	0.090992436
68	0x3e931e70	0.2873416
69	0x3ea9f558	0.33194995
70	0x3e463383	0.19355588
71	0x3d1723fb	0.036899548
72	0x3ec57a07	0.38569662
73	0x3e8c1867	0.27362368
74	0x3efbcb3f	0.49178502
75	0x3e58e2d4	0.21180278
76	0x3daa1169	0.08304102
77	0x3dfd4a36	0.1236767
78	0x3dc2270f	0.09480106
79	0xbdad3fb7	-0.08459418
80	0xbe292476	-0.16517815
81	0xbc2c7c5f	-0.010527699
82	0x3ebe36cf	0.3715119
83	0xbf104c26	-0.56366193
84	0x3d89e28a	0.06732662
85	0x3ca5505a	0.020179916
86	0xbe3629b0	-0.1778934
87	0xbd3ab3f5	-0.045581777
88	0xbe2275e8	-0.1586529
89	0x3b320cbc	0.0027168235
90	0x3e259585	0.16170318
91	0x3caa51f9	0.02079104
92	0xbdf677b3	-0.120345496
93	0xbe80d5f3	-0.2516323
94	0x3debea24	0.11519268
95	0x3e47ee53	0.19524507
96	0xbe4ddef3	-0.2010458
97	0xbe55bc36	-0.20872578
98	0x3e4f5500	0.20247269
99	0xbe6afcf5	-0.22948058
100	0xbe6dc87e	-0.23221013
101	0xbe08ae83	-0.13347821
102	0xbaaf8612	-0.0013391396
103	0x3d9a0cc4	0.07521966
104	0xbda635aa	-0.08115704
105	0x3e533cf8	0.20628726
106	0x3d8b54cb	0.06803282
107	0x3e80a058	0.25122333
108	0xbea4e352	-0.32204682
109	0x3cef2195	0.029190818
110	0x3ddebde1	0.1087606
111	0xbe303a1b	-0.17209665
112	0x3e053478	0.13008296
113	0x3e067eb9	0.13134278
114	0x3e875d5c	0.26438415
115	0x3e54739e	0.2074723
116	0x3d4243e7	0.047428038
117	0x3e793f47	0.24340545
118	0xbe2451d7	-0.16046844
119	0x3e5c9222	0.2154012
120	0x3dfc81aa	0.12329419
121	0x3e0ce3b6	0.1375874
122	0x3e50ba19	0.2038349
123	0x3e9ea796	0.30987233
124	0x3dda5ea7	0.10662585
125	0x3e6fa2e8	0.23401988
126	0xbd978945	-0.07399229
127	0x3e1323b0	0.14369082
128	0x3e4e2fbc	0.20135397
129	0x3e8dd132	0.27698666
130	0x3ee279c7	0.44233534
131	0x3e7fe38b	0.24989145
132	0x3d2c0060	0.041992545
133	0x3f0db185	0.55349
134	0x3ed99fd2	0.42504746
135	0x3d82219a	0.06354065
136	0xbecd1090	-0.400517
137	0xbf1da909	-0.6158605
138	0xbcaaea9b	-0.020863822
139	0xbe9ff78d	-0.31243554
140	0xbe0c0592	-0.13674
141	0xbf234a7a	-0.6378552
142	0xbd899392	-0.067176
143	0xbdcc21a3	-0.09967353
144	0xbe982d17	-0.297219
145	0xbbbe3226	-0.005804318
146	0xbd475676	-0.04866644
147	0xbd9647e6	-0.07337932
148	0xbd56f1bd	-0.052476633
149	0x3ef6ac7f	0.4817848
150	0xbd438c2a	-0.047741093
151	0x3dcc644e	0.09980069
152	0xbe2208ef	-0.1582372
153	0x3e448bed	0.19194002
154	0xbe0a0084	-0.13476759
155	0x3e39a7d2	0.18130425
156	0x3eccf0d2	0.4002748
157	0xbebeb357	-0.372462
158	0xbe1e8ade	-0.15482661
159	0x3c43dc50	0.011954382
160	0xbea88b18	-0.3291862
161	0x3d3c564b	0.045980733
162	0x3ece40d3	0.40283832
163	0x3e0ea554	0.13930255
164	0xbf119010	-0.56860447
165	0xbeaa2766	-0.33233184
166	0x3f070b0d	0.5275124
167	0x3eb6c15f	0.35694405
168	0xbec749ce	-0.38923496
169	0xbe06171a	-0.1309475
170	0x3e831418	0.25601268
171	0xbe0c9ed1	-0.13732459
172	0xbecb30f7	-0.39685795
173	0x3eaa2a20	0.33235264
174	0x3e8b01f7	0.27149937
175	0xbd880ec0	-0.06643438
176	0xbe00098d	-0.12503643
177	0xbe334725	-0.17507608
178	0xbe3486d9	-0.17629565
179	0xbdc0a8d2	-0.094072
180	0xbe2f600c	-0.17126483
181	0xbeb9cabb	-0.36287484
182	0x3c8325b9	0.016009199
183	0xbd1a1bd1	-0.037624184
184	0xbecb3fc5	-0.3969709
185	0xbf0d148b	-0.5510947
186	0xbe83d5e2	-0.25749117
187	0xbee704fa	-0.45120984
188	0xbe3ada45	-0.18247326
189	0xbeab8929	-0.33503082
190	0xbe0d4341	-0.13795187
191	0xbe3d34ba	-0.18477145
192	0xba6dd627	-0.00090727437
193	0xbea5a2f1	-0.32350877
194	0xbe7e9903	-0.24863057
195	0xbe80b68a	-0.25139266
196	0xbe7f8198	-0.2495178
197	0xbf106d4f	-0.5641679
198	0x3d7632a4	0.06010689
199	0xbdaebdd0	-0.085322976
200	0xbe2c8fe8	-0.16851771
201	0xbdf5b939	-0.11998219
202	0xbe8a83bd	-0.27053633
203	0xbec7da56	-0.39033765
204	0xbd2b510c	-0.04182534
205	0xbe28abb1	-0.16471745
206	0xbe34fe5d	-0.17675157
207	0xbe055d45	-0.13023861
208	0xbdcfe8f9	-0.10151858
209	0x3d301251	0.042986218
210	0xbda606ae	-0.08106743
211	0x3da1276a	0.07868846
212	0x3ced3589	0.028956192
213	0x3e0ade8d	0.13561459
214	0x3d61d952	0.055138893
215	0x3e1d45e4	0.15358692
216	0x3e524854	0.20535403
217	0xbea4c764	-0.32183373
218	0x3b6ffbd9	0.0036618619
219	0xbdfb1b65	-0.122610845
220	0xbd1bf1eb	-0.038072508
221	0x3ea21c8a	0.316624
222	0x3cc16b56	0.023610752
223	0xbe42581c	-0.18978924
224	0xbd9a4161	-0.07532001
225	0xbc0c96e3	-0.008580896
226	0x3c69c403	0.014267924
227	0x3e20ca2f	0.15702127
228	0xbd7a409a	-0.061096765
229	0x3d1b733e	0.0379517
230	0x3e7d0148	0.2470752
231	0x3e86cfb9	0.26330355
232	0xbe46e080	-0.19421577
233	0xbe88870c	-0.26665533
234	0x3f04644e	0.5171555
235	0x3eb866dd	0.36015978
236	0xbebc87fa	-0.36822492
237	0xbf55cce8	-0.8351579
238	0x3d7dadaf	0.061933216
239	0x3e4477e9	0.19186367
240	0xbd2020fd	-0.03909396
241	0xbe7f4b84	-0.2493115
242	0xbea7eb30	-0.3279662
243	0xbefe4807	-0.49664328
244	0xbea847e9	-0.32867363
245	0xbe7ae81b	-0.24502604
246	0x3e91427a	0.2837103
247	0xbe275f23	-0.16344886
248	0xbe63b76d	-0.2223794
249	0xbdd78516	-0.10523431
250	0xbdf3b08c	-0.11898908
251	0xbe81dc99	-0.25363615
252	0xbe9e2be2	-0.30892855
253	0xbd83dd73	-0.064387225
254	0xbefc9e23	-0.493394
255	0xbe1097c8	-0.141204

bias f4 [16]
0	0x3f3959ab	0.7240245
1	0x3e0c325c	0.13691086
2	0x3d49b4a0	0.049244523
3	0x3e93a80e	0.28839153
4	0x3e9198c2	0.28436857
5	0xbe3929eb	-0.18082397
6	0x3e8bd5e9	0.27311638
7	0x3edb0424	0.42776597
8	0x3f3cc2f0	0.7373495
9	0xbcfcbc93	-0.030851638
10	0x3f3c3286	0.7351459
11	0xbd5abdfd	-0.053403843
12	0xbdf83e9c	-0.12121317
13	0xbd4eea58	-0.050516456
14	0xbf4570dc	-0.77125335
15	0xbe96e900	-0.2947464

weight f4 [1, 16, 4, 4]
0	0xbd02a099	-0.03189144
1	0x3c4215b1	0.011845992
2	0x3d25d49d	0.040485967
3	0xbb9ace8f	-0.0047243307
4	0x3d448910	0.047982275
5	0x3d78ee97	0.060774412
6	0x3d6577f1	0.05602259
7	0x3bf4204c	0.007450139
8	0x3da6e7e5	0.08149699
9	0x3c4873cd	0.01223464
10	0xbb5e0998	-0.003388023
11	0xbcc913bf	-0.024545548
12	0xbda743a9	-0.08167202
13	0xbdcf664a	-0.10126932
14	0xbd90d650	-0.07072127
15	0xbc8314b8	-0.01600109
16	0x3eb4dfe7	0.35327074
17	0xbd8b8789	-0.06812961
18	0x3ee3c6fd	0.44487754
19	0xbe12bdba	-0.14330187
20	0x3f08ad61	0.53389555
21	0x3e82c916	0.2554404
22	0x3e37488e	0.17898771
23	0xbeb85731	-0.36004022
24	0xbef06ea0	-0.469594
25	0x3e04bb0e	0.1296198
26	0xbcb6c2fe	-0.022309776
27	0xbf00440f	-0.5010385
28	0x3e0d7ff1	0.13818337
29	0x3e278a8c	0.16361445
30	0xbe40c260	-0.18824148
31	0xbe6fc4e1	-0.23414947
32	0xbc9795c6	-0.018504035
33	0x3d94c69d	0.07264445
34	0xbe395324	-0.18098122
35	0x3da4cf14	0.080473095
36	0xbdad3a66	-0.08458404
37	0x3e9f6e6d	0.31138936
38	0x3b688e68	0.0035485271
39	0x3da430c2	0.08017112
40	0xbd86de2a	-0.06585343
41	0x3e9ed8b7	0.31024715
42	0xbe6e7757	-0.23287712
43	0x3e0d0f9c	0.13775486
44	0xbdb6bc6e	-0.08922659
45	0x3eae7f35	0.34081426
46	0xbe7b59ff	-0.2454605
47	0x3e71bd7d	0.2360744
48	0xbd279479	-0.04091308
49	0x3c233858	0.009962164
50	0xbe1da2f9	-0.153942
51	0xbe185dea	-0.14879575
52	0xbbbcae6c	-0.0057580974
53	0x3c058276	0.00814878
54	0xbdd02359	-0.10162992
55	0xbe1c1865	-0.15243681
56	0xbdba9006	-0.091095015
57	0xbdc61a62	-0.09673001
58	0xbdcd6e94	-0.10030857
59	0xbdf765d9	-0.12079973
60	0xbd28aa27	-0.041177895
61	0xbd57a1ec	-0.052644655
62	0xbded8a90	-0.11598694
63	0xbc6fd3df	-0.014637916
64	0xbdb9481a	-0.090469554
65	0xbe1b0c5e	-0.15141436
66	0x3e2d1c4b	0.16905324
67	0x3e7bda43	0.24594979
68	0x3e577170	0.21039367
69	0x3ecae0b9	0.39624575
70	0xbd3415a9	-0.04396597
71	0xbcb1d11f	-0.021706162
72	0x3d1003a5	0.035159726
73	0x3d461e28	0.048368603
74	0x3cc4e3fe	0.024034496
75	0xbe7e2422	-0.24818471
76	0x3bf59fdc	0.0074958634
77	0x3e5edd47	0.21764098
78	0x3d3d72ee	0.046252184
79	0xbd38b16b	-0.045091074
80	0xbea43541	-0.3207188
81	0xbdc652a3	-0.096837305
82	0xbd9b938d	-0.075965025
83	0xbe833617	-0.25627205
84	0x3e6106e1	0.2197528
85	0x3cd3d5d5	0.025858799
86	0xbe438d57	-0.19096886
87	0x3ae9ccec	0.0017837561
88	0x3eea5bac	0.45773065
89	0xbe9b2480	-0.30301285
90	0x3d60588c	0.054771945
91	0xbd9f59a7	-0.07780772
92	0x3e9c9782	0.3058434
93	0xbe6421c2	-0.22278503
94	0xbe5c207d	-0.21496768
95	0xbeac5d99	-0.3366516
96	0xbe672409	-0.2257234
97	0x3df5d49b	0.12003442
98	0x3df3c000	0.119018555
99	0xbd7edac0	-0.062220335
100	0xbe9a8f92	-0.3018766
101	0xbe2e74cb	-0.1703674
102	0xbccf4e9a	-0.025306035
103	0xbd74b02d	-0.059738327
104	0xbe3db3d3	-0.18525629
105	0xbda53990	-0.0806762
106	0x3e6dca9a	0.23221818
107	0x3e38260b	0.17983262
108	0x3d0fc1d4	0.03509696
109	0xbe1a88d8	-0.15091264
110	0x3eb735fc	0.35783374
111	0xbf056359	-0.5210472
112	0x3e3d40d3	0.1848176
113	0x3dfcd52f	0.12345349
114	0xbc563ef8	-0.013076536
115	0xbebc8c88	-0.36825967
116	0x3e9197f4	0.28436244
117	0xbc5a8e3d	-0.013339576
118	0xbe893398	-0.26797175
119	0xbe7ee4e4	-0.24892002
120	0xbdfaae2e	-0.122402534
121	0xbdcd2248	-0.10016304
122	0x3e8a0b51	0.2696176
123	0xbde59cd2	-0.11211552
124	0x3c38f26d	0.011288268
125	0x3e3e13f7	0.18562303
126	0x3d8e678a	0.06953342
127	0x3d74081b	0.059578042
128	0xb884fa48	-6.340869e-05
129	0xbc7ed9b2	-0.015554832
130	0xbd99e1bd	-0.07513759
131	0xb8fd328a	-0.00012073394
132	0xbd0872b1	-0.033312503
133	0xbc555771	-0.013021336
134	0xbda64da9	-0.08120281
135	0xbd2d32ba	-0.042284705
136	0xbcc25dcd	-0.023726368
137	0x3d94683e	0.07246445
138	0x3da87297	0.08224981
139	0x3ba6c9cd	0.0050899745
140	0x3cbda27f	0.023148773
141	0x3d59975e	0.05312287
142	0x3d1be78d	0.03806262
143	0x3c659471	0.014012442
144	0xbcac98aa	-0.02106889
145	0x3d84534a	0.06461199
146	0x3ebc8861	0.368228
147	0xbe9f7056	-0.31140393
148	0xbdd8e08d	-0.10589705
149	0x3ea8b3b7	0.32949612
150	0xbdcc412f	-0.0997337
151	0xbd84b7e6	-0.06480388
152	0x3da7d570	0.08195007
153	0x3c3a9d3a	0.011390025
154	0x3e740364	0.23829418
155	0x3e8bfc7a	0.27341062
156	0x3d99ea65	0.0751541
157	0xbd2333be	-0.039844267
158	0x3e14b4e4	0.1452213
159	0xbe77eb0a	-0.24210754
160	0x3becbf3c	0.0072249454
161	0x3cdedc09	0.02720453
162	0x3cbc4008	0.022979751
163	0xbd815fd9	-0.063171096
164	0xbcdecdc9	-0.027197735
165	0x3cfbe8a2	0.030750576
166	0xbc54e39d	-0.01299372
167	0xbd06ff6b	-0.03295843
168	0x3d7d6f03	0.061873447
169	0x3db67a0a	0.08909996
170	0xbd78baa0	-0.060724854
171	0xbdb7ccc4	-0.08974603
172	0x38161d49	3.579006e-05
173	0x3d7e6270	0.062105596
174	0x3cb92e98	0.022605225
175	0xbd3fc14c	-0.0468152
176	0x3b52ba3b	0.003215446
177	0x3e27db45	0.16392238
178	0x3e41987f	0.18905829
179	0xbc706ed9	-0.014674866
180	0x3e96cc89	0.29452923
181	0x3e4b6130	0.19861293
182	0x3dc8a3b4	0.09796849
183	0xbe225e82	-0.15856364
184	0xbd98e6b2	-0.07465877
185	0x3e09b807	0.13449107
186	0x3d406fb7	0.04698154
187	0xbe31f68a	-0.17379203
188	0xbd80f5f1	-0.062969096
189	0x3e46182e	0.19345161
190	0x3e5c8865	0.21536405
191	0x3cb8847a	0.022524107
192	0xbda7066c	-0.08155522
193	0xbd3a5bad	-0.045497585
194	0x3e33a068	0.17541659
195	0xbe475816	-0.19467196
196	0x3d6ad585	0.057332534
197	0xbe2f7709	-0.17135252
198	0xbcca58cc	-0.024700545
199	0xbddb222f	-0.106998794
200	0x3d639d9a	0.055570222
201	0xbe81bad9	-0.25337866
202	0xbcde3bbd	-0.027128095
203	0xbc7f6da4	-0.015590105
204	0x3dd44432	0.1036457
205	0xbd438860	-0.04773748
206	0xbe304bc3	-0.17216401
207	0x3d69326f	0.056932863
208	0x3cd2b53f	0.02572119
209	0x3e61156c	0.21980828
210	0xbd9e547e	-0.07730959
211	0xbea96f63	-0.33092794
212	0x3e583ee4	0.21117741
213	0xbea1a1d6	-0.31568784
214	0x3e01789c	0.12643665
215	0xbd4c8bd6	-0.049938045
216	0x3e8a2696	0.26982564
217	0xbdcf0e08	-0.10110098
218	0x3e8efb83	0.27926263
219	0x3e7ff9e5	0.24997671
220	0x3de4950f	0.11161243
221	0x3e39c600	0.18141937
222	0xbd480a87	-0.048838165
223	0xbd7c1d11	-0.061551157
224	0x3ba36a64	0.004987048
225	0x3c97f5d5	0.018549839
226	0xbe1ea2fe	-0.15491864
227	0xbd7d1967	-0.061791804
228	0x3d655863	0.055992495
229	0x3dedbe4d	0.116085626
230	0xbd52f7d3	-0.051505875
231	0xbd2d96d4	-0.04238017
232	0x3cdaed4e	0.026724484
233	0x3ce3066d	0.027713025
234	0xbc864840	-0.016391873
235	0xbc906631	-0.017626854
236	0x3d1519a9	0.036401425
237	0x3c1c32cb	0.009533594
238	0xbc62cb6e	-0.013842447
239	0x3c1bbc63	0.009505364
240	0x3ccf3f41	0.025298717
241	0x3d7309a0	0.05933535
242	0xbeb6a5fb	-0.35673508
243	0xbd9e4441	-0.07727862
244	0xbd649477	-0.05580565
245	0xbdb2ec3f	-0.087364666
246	0xbda8d509	-0.08243758
247	0xbe43bff2	-0.1911619
248	0xbdb569b7	-0.08858054
249	0x3dae2232	0.08502616
250	0xbdf69057	-0.120392494
251	0xbbd417b3	-0.0064725517
252	0xb9cfdf79	-0.00039648617
253	0xbd553a08	-0.052057296
254	0xbe37cd87	-0.17949496
255	0xbde12258	-0.10992879

thr f4 [1, 16, 1, 1]
0	0x3f800000	1.0
1	0x3f800000	1.0
2	0x3f800000	1.0
3	0x3f800000	1.0
4	0x3f800000	1.0
5	0x3f800000	1.0
6	0x3f800000	1.0
7	0x3f800000	1.0
8	0x3f800000	1.0
9	0x3f800000	1.0
10	0x3f800000	1.0
11	0x3f800000	1.0
12	0x3f800000	1.0
13	0x3f800000	1.0
14	0x3f800000	1.0
15	0x3f800000	1.0

exp_avg_sq f4 [16, 1, 4, 4]
0	0x30bc5629	1.3703289e-09
1	0x308da475	1.0305842e-09
2	0x307961b3	9.072451e-10
3	0x30977169	1.1018929e-09
4	0x30e79ff0	1.6852919e-09
5	0x30fb93a4	1.8304616e-09
6	0x31022c9f	1.8942854e-09
7	0x3127f0ef	2.4438653e-09
8	0x310c4c86	2.041618e-09
9	0x312aabd2	2.4835924e-09
10	0x313bae8d	2.7311302e-09
11	0x312683c2	2.4231075e-09
12	0x31075012	1.96906e-09
13	0x311fc36e	2.3248634e-09
14	0x31124daf	2.1289954e-09
15	0x30eda439	1.7290694e-09
16	0x2807f186	7.5463775e-15
17	0x2855f0bc	1.1876076e-14
18	0x28899bb8	1.5277588e-14
19	0x28928869	1.6268415e-14
20	0x28fa26f3	2.7772467e-14
21	0x28232b51	9.05771e-15
22	0x27f1a184	6.7066053e-15
23	0x2790231b	4.000609e-15
24	0x287d9ba1	1.4078068e-14
25	0x28953669	1.656592e-14
26	0x26172849	5.2443246e-16
27	0x276fd72b	3.3284556e-15
28	0x28e678f8	2.5587591e-14
29	0x28cc8ce2	2.2709648e-14
30	0x27f7b4d2	6.8752318e-15
31	0x26b05712	1.2236054e-15
32	0x2e7e5434	5.78277e-11
33	0x2f6cb7f1	2.1529424e-10
34	0x2e8b032e	6.321553e-11
35	0x2f5658e5	1.9494768e-10
36	0x2ebb2716	8.5107185e-11
37	0x2f5996cd	1.978961e-10
38	0x2ea65d1d	7.565346e-11
39	0x2f530361	1.9191539e-10
40	0x2f0e5410	1.294469e-10
41	0x2f4a7787	1.8414258e-10
42	0x2ea9d1d7	7.722505e-11
43	0x2f6f9f17	2.1793443e-10
44	0x2f2adcf3	1.5539907e-10
45	0x2f31c596	1.6168253e-10
46	0x2efceb32	1.1501412e-10
47	0x2f5d0650	2.0102076e-10
48	0x36058693	1.9896877e-06
49	0x3605625a	1.9875793e-06
50	0x3606a140	2.0061416e-06
51	0x36074a18	2.0159696e-06
52	0x360909a6	2.0420207e-06
53	0x360993e6	2.050068e-06
54	0x360a4260	2.0602238e-06
55	0x36141320	2.206485e-06
56	0x36095409	2.0463506e-06
57	0x360eaebb	2.1261355e-06
58	0x360bb5a2	2.0818338e-06
59	0x360e921e	2.12447e-06
60	0x360c70da	2.0927314e-06
61	0x360edeb4	2.128928e-06
62	0x360ba021	2.0805821e-06
63	0x360c17f0	2.087556e-06
64	0x3513c160	5.5043165e-07
65	0x3515efeb	5.585595e-07
66	0x3516a9eb	5.612662e-07
67	0x35141be5	5.517489e-07
68	0x35197871	5.7172207e-07
69	0x351a1e3b	5.741346e-07
70	0x351b3590	5.7819943e-07
71	0x3516d83d	5.619402e-07
72	0x351955b0	5.7121633e-07
73	0x351c58c5	5.8243705e-07
74	0x351e39b2	5.8943544e-07
75	0x3518ae6b	5.6878224e-07
76	0x3516d60c	5.6190834e-07
77	0x35183c86	5.6712486e-07
78	0x351b587e	5.787077e-07
79	0x35161be2	5.591993e-07
80	0x363a9a3c	2.7805936e-06
81	0x3638f7bf	2.7562344e-06
82	0x363aa92c	2.781463e-06
83	0x363c4566	2.8054578e-06
84	0x363f2fb3	2.8488982e-06
85	0x363a6f94	2.7781107e-06
86	0x36428bcf	2.8989632e-06
87	0x36401e1b	2.8627753e-06
88	0x363da7fe	2.826098e-06
89	0x364076e6	2.8679437e-06
90	0x363e3f07	2.8348893e-06
91	0x363add6e	2.7845049e-06
92	0x363f6bee	2.8524041e-06
93	0x36451235	2.9365885e-06
94	0x363d8b7d	2.8244388e-06
95	0x363c669c	2.807391e-06
96	0x29e93e79	1.0358116e-13
97	0x29f749dc	1.0981816e-13
98	0x29923dc2	6.494416e-14
99	0x29e85cc9	1.0318965e-13
100	0x29f570df	1.08997657e-13
101	0x29d21f90	9.3313486e-14
102	0x2986e814	5.9910545e-14
103	0x298f3f56	6.361463e-14
104	0x29ac2421	7.644602e-14
105	0x293849b8	4.0920148e-14
106	0x290b98c5	3.0996707e-14
107	0x28d1e97b	2.3304917e-14
108	0x29f9cc62	1.1093276e-13
109	0x29a57c47	7.3490306e-14
110	0x2949da03	4.482006e-14
111	0x2996a771	6.6903846e-14
112	0x3481467d	2.407941e-07
113	0x348b1be9	2.5911075e-07
114	0x348d12d0	2.6276984e-07
115	0x349b8d11	2.897364e-07
116	0x347fd338	2.3825567e-07
117	0x3492ad90	2.7320903e-07
118	0x348cdbe3	2.623702e-07
119	0x349355e1	2.744337e-07
120	0x348f82cd	2.6730996e-07
121	0x34905f4c	2.6891428e-07
122	0x348e1096	2.646163e-07
123	0x3490b234	2.695175e-07
124	0x348b01db	2.5892118e-07
125	0x3483d549	2.4555837e-07
126	0x348cc337	2.621907e-07
127	0x348f025a	2.6637537e-07
128	0x310b7ca6	2.0298017e-09
129	0x3122fd55	2.3718105e-09
130	0x3129e0a3	2.4720428e-09
131	0x3117fa33	2.2115614e-09
132	0x30ff89ad	1.8592822e-09
133	0x31245ec8	2.3919018e-09
134	0x31255a24	2.40619e-09
135	0x310d3db6	2.055328e-09
136	0x30a36b0a	1.1890233e-09
137	0x30851efb	9.685829e-10
138	0x30dca0ec	1.6052843e-09
139	0x30b65595	1.3266567e-09
140	0x30a69431	1.2120208e-09
141	0x306bf255	8.5836876e-10
142	0x30b1d8ca	1.294006e-09
143	0x30bb7f88	1.3642287e-09
144	0x271d4d2c	2.1829962e-15
145	0x275bbabd	3.0493586e-15
146	0x278ffb72	3.996309e-15
147	0x275ee32a	3.0931835e-15
148	0x2734879e	2.5053536e-15
149	0x27f47ca1	6.7858727e-15
150	0x275f8765	3.1020864e-15
151	0x27a7ff37	4.6628516e-15
152	0x279c326c	4.3353365e-15
153	0x27babee7	5.1832347e-15
154	0x272dc1fd	2.4113734e-15
155	0x27a87853	4.6759823e-15
156	0x27d3c09e	5.87731e-15
157	0x27175abc	2.1004647e-15
158	0x2705d647	1.8573618e-15
159	0x27778915	3.4352448e-15
160	0x306cba21	8.6120805e-10
161	0x30bd85d7	1.37896e-09
162	0x31152171	2.1701363e-09
163	0x30f13ff7	1.7553238e-09
164	0x30395355	6.742103e-10
165	0x30997862	1.116643e-09
166	0x31234ec2	2.376439e-09
167	0x310423e4	1.922893e-09
168	0x305b44f9	7.976975e-10
169	0x30ada18d	1.2633322e-09
170	0x3109491c	1.9977682e-09
171	0x30dbd973	1.599615e-09
172	0x307f5f87	9.290421e-10
173	0x31014612	1.88118e-09
174	0x3102b3d0	1.9019701e-09
175	0x30d2bb3c	1.5332726e-09
176	0x35b9df41	1.384855e-06
177	0x35c2a04c	1.4500779e-06
178	0x35cf4a77	1.5444374e-06
179	0x35d7f48b	1.608992e-06
180	0x35c20c7c	1.445776e-06
181	0x35c5f2d0	1.4748312e-06
182	0x35cc3e2a	1.5217277e-06
183	0x35cb903d	1.5166657e-06
184	0x35c1d836	1.4442546e-06
185	0x35c349e4	1.4550137e-06
186	0x35c96be5	1.5007068e-06
187	0x35c89ecd	1.4947378e-06
188	0x35c1c118	1.4435818e-06
189	0x35c71703	1.4833353e-06
190	0x35c588c6	1.471745e-06
191	0x35c87323	1.493467e-06
192	0x34b8d095	3.4424434e-07
193	0x34bb28fe	3.486129e-07
194	0x34b6ee35	3.407346e-07
195	0x34b504cc	3.3717367e-07
196	0x34b44232	3.3575776e-07
197	0x34b8d3c1	3.4426742e-07
198	0x34b9ab0b	3.4583385e-07
199	0x34b38c33	3.3443357e-07
200	0x34b69b20	3.401301e-07
201	0x34b7b731	3.4219696e-07
202	0x34b705a9	3.4090525e-07
203	0x34b50cfd	3.3723327e-07
204	0x34b201a3	3.3156275e-07
205	0x34b5badb	3.3849832e-07
206	0x34b3871a	3.3439647e-07
207	0x34b31de4	3.3363096e-07
208	0x00000000	0.0
209	0x00000000	0.0
210	0x00000000	0.0
211	0x00000000	0.0
212	0x00000000	0.0
213	0x00000000	0.0
214	0x00000000	0.0
215	0x00000000	0.0
216	0x00000000	0.0
217	0x00000000	0.0
218	0x00000000	0.0
219	0x00000000	0.0
220	0x00000000	0.0
221	0x00000000	0.0
222	0x00000000	0.0
223	0x00000000	0.0
224	0x314325ba	2.839768e-09
225	0x313deed3	2.7638876e-09
226	0x31119320	2.1183908e-09
227	0x31104958	2.099645e-09
228	0x314d0116	2.9832044e-09
229	0x314f13ee	3.0133793e-09
230	0x30ecc28d	1.7226555e-09
231	0x3105d38c	1.9474298e-09
232	0x3170b192	3.5025534e-09
233	0x3164c44e	3.3289953e-09
234	0x30ceb3f8	1.5039623e-09
235	0x30e2924c	1.6485244e-09
236	0x31853f15	3.877981e-09
237	0x31a011b6	4.6586264e-09
238	0x312bb822	2.4988442e-09
239	0x310e3c09	2.0697846e-09
240	0x3703579e	7.828608e-06
241	0x37071ef4	8.053834e-06
242	0x36ff6e1f	7.612412e-06
243	0x36f817dd	7.393754e-06
244	0x3702fc2b	7.807316e-06
245	0x36ff4196	7.6072274e-06
246	0x36f98afd	7.4369586e-06
247	0x36ef2be6	7.1278655e-06
248	0x37053b6a	7.941251e-06
249	0x36fd9597	7.557402e-06
250	0x36f74063	7.3686692e-06
251	0x36ea9bbe	6.991874e-06
252	0x36fc86ec	7.525892e-06
253	0x36f1a5f2	7.2016783e-06
254	0x36f15c51	7.1931067e-06
255	0x36def5d1	6.6447324e-06

exp_avg f4 [16, 1, 4, 4]
0	0xb6eda12b	-7.081913e-06
1	0xb6e5e4f4	-6.8513855e-06
2	0xb698366a	-4.5362876e-06
3	0xb6f925e2	-7.4251884e-06
4	0xb6bff8da	-5.7212137e-06
5	0xb64784a2	-2.9730513e-06
6	0xb7570972	-1.2817198e-05
7	0xb6c56c24	-5.8836467e-06
8	0xb7909d3c	-1.7239356e-05
9	0xb794354e	-1.7667797e-05
10	0xb7afd476	-2.096056e-05
11	0xb7a91f2e	-2.016089e-05
12	0xb73464ba	-1.0752288e-05
13	0xb6e68a7c	-6.870656e-06
14	0xb6db432a	-6.5345275e-06
15	0xb7982df0	-1.8141203e-05
16	0xb211251c	-8.4485485e-09
17	0xb1ad3749	-5.041248e-09
18	0xb2169948	-8.766001e-09
19	0xb22c906f	-1.0044558e-08
20	0xb233374c	-1.0431744e-08
21	0xb1357fed	-2.6411684e-09
22	0xb10db7b5	-2.0622626e-09
23	0xb0c26d42	-1.4146411e-09
24	0xb22c21ea	-1.0019429e-08
25	0xb21ee278	-9.2483035e-09
26	0x30e63522	1.6749804e-09
27	0xb17638ce	-3.5830001e-09
28	0xb23d4456	-1.1016786e-08
29	0xb226ffff	-9.7206785e-09
30	0xb0dd56db	-1.6104552e-09
31	0xb0041190	-4.804628e-10
32	0xb5ea000a	-1.743437e-06
33	0xb5af1398	-1.3044219e-06
34	0xb6c33c4a	-5.8184714e-06
35	0xb5f32667	-1.8116087e-06
36	0xb678fa5a	-3.7100604e-06
37	0xb586f5f9	-1.0055365e-06
38	0xb6ee5d91	-7.1038453e-06
39	0x3496036f	2.7942176e-07
40	0xb66688f1	-3.435238e-06
41	0xb6268b7d	-2.481712e-06
42	0xb6d1e411	-6.255236e-06
43	0xb5ff49ba	-1.9020438e-06
44	0xb676258b	-3.667871e-06
45	0xb63b27ba	-2.7888295e-06
46	0xb6dcd0a0	-6.580798e-06
47	0xb61812d7	-2.2660731e-06
48	0x3858e665	5.1712985e-05
49	0x38a2d4ef	7.764424e-05
50	0x3893946f	7.037154e-05
51	0xb8096a48	-3.2762327e-05
52	0x38117822	3.4682576e-05
53	0x388c39d8	6.6864945e-05
54	0x3903d422	0.00012572159
55	0xb831651f	-4.2294265e-05
56	0x3803c2c4	3.1414223e-05
57	0xb7dba194	-2.6182075e-05
58	0x38812b33	6.159246e-05
59	0xb8562f59	-5.1065672e-05
60	0xb82e0237	-4.1486895e-05
61	0xb7a7c45b	-1.9999386e-05
62	0x389cb231	7.4718504e-05
63	0x38dd5bde	0.00010555213
64	0xb8b35d27	-8.552736e-05
65	0xb8810a63	-6.153134e-05
66	0xb921ae6f	-0.00015419138
67	0xb84770a9	-4.755022e-05
68	0xb908340c	-0.0001298936
69	0xb8f74058	-0.00011789863
70	0xb8b1548e	-8.455767e-05
71	0xb8f8b65f	-0.00011859531
72	0xb91c2876	-0.00014892392
73	0xb91942b0	-0.0001461606
74	0xb92910d6	-0.00016123368
75	0xb9178500	-0.00014450029
76	0xb9251ef9	-0.00015747164
77	0xb908c247	-0.00013042345
78	0xb91fdb32	-0.00015245078
79	0xb91ecd2f	-0.00015144491
80	0xb7cb349e	-2.4223988e-05
81	0xb79da78e	-1.8793882e-05
82	0xb755423d	-1.2711212e-05
83	0xb7f3ae4d	-2.9049022e-05
84	0xb7bbf58e	-2.2406482e-05
85	0xb7a06c7c	-1.9124003e-05
86	0xb78c59ba	-1.6731083e-05
87	0xb7bf5e5b	-2.2812912e-05
88	0xb7de645e	-2.65112e-05
89	0xb7b1f8ab	-2.121584e-05
90	0xb761f8c5	-1.3468966e-05
91	0xb78a5358	-1.6489692e-05
92	0xb7dac10e	-2.6077523e-05
93	0xb7dd479d	-2.63786e-05
94	0xb767a49c	-1.3806999e-05
95	0xb744881e	-1.1714203e-05
96	0xaebc9837	-8.576289e-11
97	0xaec0aea9	-8.762175e-11
98	0xae1884b3	-3.467866e-11
99	0xaec0aea9	-8.762175e-11
100	0xaecd0cc0	-9.3245855e-11
101	0xae87e3ac	-6.179532e-11
102	0xad131613	-8.360884e-12
103	0xae87e3ac	-6.179532e-11
104	0xae7a54a2	-5.6918588e-11
105	0xadc07b55	-2.1882643e-11
106	0xadb88d27	-2.0981062e-11
107	0xadc07b55	-2.1882643e-11
108	0xaecd0cc0	-9.3245855e-11
109	0xae87e3ac	-6.179532e-11
110	0xad131613	-8.360884e-12
111	0xae87e3ac	-6.179532e-11
112	0x36c56d08	5.8837504e-06
113	0xb8939349	-7.03694e-05
114	0xb6987b05	-4.5442744e-06
115	0x384ad4fd	4.8358914e-05
116	0xb7f6df57	-2.9429486e-05
117	0xb7ca04a8	-2.4082445e-05
118	0xb8621597	-5.3902706e-05
119	0xb7a0fbf3	-1.919081e-05
120	0xb7839233	-1.5684496e-05
121	0xb7b63faa	-2.1725737e-05
122	0xb80bc2cb	-3.3321598e-05
123	0xb70a08f0	-8.227522e-06
124	0xb5aee97b	-1.3031962e-06
125	0x387d7631	6.0429975e-05
126	0xb853c7f2	-5.0492534e-05
127	0xb623079b	-2.429332e-06
128	0xb6dfb55e	-6.667032e-06
129	0xb7ad4d03	-2.0659068e-05
130	0xb745b5df	-1.178446e-05
131	0xb69bd6cc	-4.6443656e-06
132	0xb7948389	-1.7704226e-05
133	0xb7add6eb	-2.0723286e-05
134	0xb75dae2f	-1.3213182e-05
135	0x36098dc5	2.0497112e-06
136	0xb74fa1a6	-1.2375798e-05
137	0xb73e1fb6	-1.1332266e-05
138	0x36ae3572	5.191826e-06
139	0xb6e5e9d8	-6.851955e-06
140	0xb759f7b1	-1.2991878e-05
141	0xb6f4fcb8	-7.301187e-06
142	0x35524920	7.8337507e-07
143	0xb74c962d	-1.2194313e-05
144	0x80000004	-6e-45
145	0x80000004	-6e-45
146	0x80000004	-6e-45
147	0x80000004	-6e-45
148	0x80000004	-6e-45
149	0x00000004	6e-45
150	0x80000004	-6e-45
151	0x00000004	6e-45
152	0x80000004	-6e-45
153	0x80000004	-6e-45
154	0x80000004	-6e-45
155	0x80000004	-6e-45
156	0x80000004	-6e-45
157	0x80000004	-6e-45
158	0x80000004	-6e-45
159	0x80000004	-6e-45
160	0x35978e12	1.1291725e-06
161	0xb61fa1f7	-2.3787122e-06
162	0xb7292546	-1.0081863e-05
163	0x35f19625	1.7999597e-06
164	0x36a68206	4.9623222e-06
165	0x36bb5d7d	5.5839178e-06
166	0xb75a701a	-1.3019913e-05
167	0xb6c7afbb	-5.95112e-06
168	0xb6a3f605	-4.886419e-06
169	0x3713352c	8.774263e-06
170	0xb64dd56a	-3.0671604e-06
171	0xb76bb7fa	-1.4049927e-05
172	0xb6ec04eb	-7.0339206e-06
173	0x37ab1f54	2.0399377e-05
174	0x36e9af15	6.9643233e-06
175	0xb6eadddd	-6.9995717e-06
176	0xb82330db	-3.890773e-05
177	0x3752dc9d	1.2568341e-05
178	0x382f0f6a	4.1737607e-05
179	0x38c08d5c	9.181604e-05
180	0x367460f3	3.6415265e-06
181	0xb636bb14	-2.7229007e-06
182	0x373aa7e9	1.1125559e-05
183	0x384a81af	4.828133e-05
184	0xb829e463	-4.050544e-05
185	0xb8b1aa2e	-8.471716e-05
186	0x374a2272	1.2048158e-05
187	0xb8cd73f5	-9.7967604e-05
188	0xb77eb74b	-1.5182256e-05
189	0xb7f2973a	-2.8919068e-05
190	0xb785274c	-1.5873135e-05
191	0xb84ab621	-4.8330174e-05
192	0x391ac523	0.00014760024
193	0x39285018	0.00016051566
194	0x39051475	0.00012691489
195	0x386e09d2	5.6752768e-05
196	0x38825af9	6.215828e-05
197	0x38a0b279	7.662638e-05
198	0x392afb68	0.0001630612
199	0x38daf3ef	0.00010440486
200	0x38db610b	0.000104608094
201	0x38d41c20	0.000101141864
202	0x38d62ad3	0.00010212292
203	0x38de5d73	0.00010603191
204	0x389b3b69	7.402042e-05
205	0x38d6f4b3	0.00010249894
206	0x38c0c35d	9.191663e-05
207	0x39116902	0.00013867396
208	0x00000000	0.0
209	0x00000000	0.0
210	0x00000000	0.0
211	0x00000000	0.0
212	0x00000000	0.0
213	0x00000000	0.0
214	0x00000000	0.0
215	0x00000000	0.0
216	0x00000000	0.0
217	0x00000000	0.0
218	0x00000000	0.0
219	0x00000000	0.0
220	0x00000000	0.0
221	0x00000000	0.0
222	0x00000000	0.0
223	0x00000000	0.0
224	0xb5e18062	-1.6801171e-06
225	0x378ea944	1.700654e-05
226	0x372498da	9.81075e-06
227	0x369aa27e	4.6084742e-06
228	0x36f402b7	7.2720827e-06
229	0x37b166d8	2.1147935e-05
230	0x36ffea08	7.626837e-06
231	0x365631c9	3.1917464e-06
232	0x3754bcfa	1.2680184e-05
233	0x37451224	1.1746339e-05
234	0x35d8be78	1.6148688e-06
235	0xb603e12f	-1.9651595e-06
236	0x37268f61	9.927754e-06
237	0x36891375	4.0851833e-06
238	0x367e58f8	3.7900736e-06
239	0xb519dbd5	-5.731684e-07
240	0x3994fc07	0.00028416535
241	0x398a1967	0.00026340337
242	0x39950e9d	0.00028430382
243	0x395a5160	0.00020820415
244	0x3985ce45	0.0002552142
245	0x39a16fb3	0.00030791535
246	0x3982a618	0.00024919282
247	0x398e3e16	0.00027130608
248	0x39ae2980	0.00033218786
249	0x3975c92d	0.00023439965
250	0x399bb122	0.00029695878
251	0x396f5187	0.00022823187
252	0x395c2807	0.00020995746
253	0x39907ecd	0.00027560294
254	0x39a9dfff	0.00032401082
255	0x3988d289	0.00026096802

exp_avg_sq f4 [16]
0	0x31daaa8a	6.364023e-09
1	0x28bd02b5	2.098439e-14
2	0x2f931291	2.6752336e-10
3	0x369076be	4.305358e-06
4	0x35bc8266	1.4045042e-06
5	0x366753cb	3.4470456e-06
6	0x29d3c1e0	9.403914e-14
7	0x34e5600c	4.2724457e-07
8	0x3202782a	7.594318e-09
9	0x27ed57aa	6.587576e-15
10	0x31c09b96	5.6056235e-09
11	0x364d7840	3.0617375e-06
12	0x35635755	8.4691175e-07
13	0x00000000	0.0
14	0x3241de2b	1.1284594e-08
15	0x37f052eb	2.8648841e-05

exp_avg f4 [16]
0	0xb7a914a3	-2.015598e-05
1	0xb234f72d	-1.053358e-08
2	0x35aa3d1d	1.2683773e-06
3	0xb8f639a2	-0.00011740929
4	0xb9a4c9e9	-0.00031430952
5	0xb7ee5f82	-2.8416285e-05
6	0xaeb36daf	-8.159461e-11
7	0xb8d5a7c4	-0.0001018788
8	0xb7ab4958	-2.0418942e-05
9	0x80000004	-6e-45
10	0xb5868909	-1.002366e-06
11	0x397c7b9f	0.00024078645
12	0x39742fec	0.00023287506
13	0x00000000	0.0
14	0x3604bd30	1.9779654e-06
15	0x3a869de1	0.001027044

exp_avg_sq f4 [1, 16, 4, 4]
0	0x30f45135	1.7776417e-09
1	0x30be45fb	1.3844209e-09
2	0x30c0675d	1.3999216e-09
3	0x30b1b8cc	1.2930967e-09
4	0x30c4f18c	1.4329529e-09
5	0x3109d94e	2.0059647e-09
6	0x30c66a59	1.4436622e-09
7	0x30be750d	1.3857587e-09
8	0x30da03e5	1.5862694e-09
9	0x308e6462	1.036039e-09
10	0x30bd4144	1.377011e-09
11	0x30bab268	1.3583987e-09
12	0x30bf821b	1.3934057e-09
13	0x30eaad22	1.7074948e-09
14	0x30c359ac	1.4213604e-09
15	0x309d5cd3	1.1449636e-09
16	0x23751650	1.32862015e-17
17	0x23cafb74	2.2007378e-17
18	0x23aa2da0	1.845076e-17
19	0x2385d372	1.450944e-17
20	0x243fc4d3	4.158324e-17
21	0x23bbf79b	2.0379446e-17
22	0x241e4a87	3.4323916e-17
23	0x2474d003	5.308526e-17
24	0x2363b916	1.2344888e-17
25	0x2423bfae	3.550735e-17
26	0x240c6434	3.0442536e-17
27	0x244d2d6a	4.4490756e-17
28	0x24216cfe	3.500363e-17
29	0x23cdce06	2.2313399e-17
30	0x23df08c4	2.4181421e-17
31	0x236301fc	1.2306115e-17
32	0x2b9d2947	1.1166978e-12
33	0x2bd73158	1.5290364e-12
34	0x2bd4df41	1.5125471e-12
35	0x2bb8bb77	1.3126018e-12
36	0x2bef4743	1.700175e-12
37	0x2ba79ad8	1.1909041e-12
38	0x2b2228bd	5.76105e-13
39	0x2b817c98	9.200583e-13
40	0x2c1a8af2	2.1961846e-12
41	0x2bd47b6d	1.5097764e-12
42	0x2bc85c09	1.42364e-12
43	0x2b73aaa7	8.656777e-13
44	0x2c1f67cc	2.2652878e-12
45	0x2becac63	1.6816655e-12
46	0x2c02c718	1.858463e-12
47	0x2b8fe1de	1.0223452e-12
48	0x35bc2c12	1.4019918e-06
49	0x35bb0355	1.3933555e-06
50	0x35b90161	1.3783975e-06
51	0x35b54d74	1.3508093e-06
52	0x35ba15ed	1.3864461e-06
53	0x35bb77f1	1.3967493e-06
54	0x35b9525e	1.3807546e-06
55	0x35b646d8	1.3580675e-06
56	0x35b8f50f	1.378039e-06
57	0x35bb3204	1.3947142e-06
58	0x35ba902c	1.390004e-06
59	0x35b7de98	1.3699346e-06
60	0x35b902d7	1.3784401e-06
61	0x35b888d8	1.3748895e-06
62	0x35b86ce8	1.3740764e-06
63	0x35b6f900	1.3632525e-06
64	0x359a2c40	1.1486773e-06
65	0x359c6eb8	1.1655129e-06
66	0x359d3b20	1.1714619e-06
67	0x359c865c	1.166201e-06
68	0x359d0a44	1.1700399e-06
69	0x35a0084d	1.1923345e-06
70	0x35a14fc8	1.2018654e-06
71	0x359ece09	1.1831881e-06
72	0x359d1cae	1.1705758e-06
73	0x359f58db	1.1872283e-06
74	0x35a071d9	1.1954063e-06
75	0x359e504a	1.1795285e-06
76	0x359b04de	1.1549816e-06
77	0x359c6a1f	1.1653791e-06
78	0x359ccc90	1.1682441e-06
79	0x359b2af3	1.15609e-06
80	0x33f18a2c	1.124757e-07
81	0x33e947c9	1.08629656e-07
82	0x33d26132	9.796567e-08
83	0x33db8dae	1.02237536e-07
84	0x33e86f76	1.08236165e-07
85	0x33d313f5	9.829083e-08
86	0x340a53b8	1.2882708e-07
87	0x33ef32d6	1.1138552e-07
88	0x33c8c104	9.348335e-08
89	0x3409b44b	1.282471e-07
90	0x3408f9b2	1.2756826e-07
91	0x34021c83	1.2117566e-07
92	0x33db7da6	1.02208375e-07
93	0x3409c3a9	1.28303e-07
94	0x3419f216	1.4337306e-07
95	0x341427d6	1.3798066e-07
96	0x23f94f09	2.7030107e-17
97	0x25202b71	1.3892506e-16
98	0x24d0c62c	9.054134e-17
99	0x2450456f	4.5161623e-17
100	0x24b752e6	7.9504034e-17
101	0x25692faf	2.0225684e-16
102	0x2501af6d	1.1248403e-16
103	0x24bdd5f3	8.232813e-17
104	0x23ac7ec6	1.8701968e-17
105	0x24474373	4.3208378e-17
106	0x246ff24b	5.2030094e-17
107	0x24d47f73	9.215625e-17
108	0x23d82d67	2.3437996e-17
109	0x2552b135	1.8274637e-16
110	0x2504320e	1.1466134e-16
111	0x25715231	2.0931265e-16
112	0x35b0ec3d	1.3181776e-06
113	0x35b55d30	1.3512672e-06
114	0x35b9d0a6	1.3844299e-06
115	0x35b09f75	1.315943e-06
116	0x35c5b217	1.4729475e-06
117	0x35be25e7	1.4167134e-06
118	0x35c34acf	1.4550404e-06
119	0x35c142d9	1.4399076e-06
120	0x35b73fc8	1.3653125e-06
121	0x35c16825	1.4409931e-06
122	0x35c8299c	1.4913271e-06
123	0x35bd06db	1.4083593e-06
124	0x35ba2d14	1.3871199e-06
125	0x35c7e8ee	1.4894447e-06
126	0x35cdb64e	1.5326748e-06
127	0x35ce2689	1.5359411e-06
128	0x313f6251	2.7850044e-09
129	0x31553dd2	3.103072e-09
130	0x31731e65	3.5378431e-09
131	0x3145e2b8	2.8796148e-09
132	0x31514979	3.0455267e-09
133	0x316e1b35	3.4649024e-09
134	0x31731455	3.5372711e-09
135	0x316db212	3.458926e-09
136	0x3165f45f	3.3462795e-09
137	0x3163ca13	3.3147713e-09
138	0x314b9fe9	2.9631286e-09
139	0x316190cc	3.2824117e-09
140	0x318becb0	4.0723407e-09
141	0x31996ca9	4.4652393e-09
142	0x31921826	4.2519046e-09
143	0x317d16f6	3.6829397e-09
144	0x240ae0b3	3.0114308e-17
145	0x242c6414	3.7381324e-17
146	0x23fcb91e	2.7400295e-17
147	0x250a7e78	1.2012441e-16
148	0x246b7847	5.105938e-17
149	0x24365053	3.9532996e-17
150	0x244f90ee	4.500873e-17
151	0x24b894f3	8.004961e-17
152	0x248c3280	6.080087e-17
153	0x24dbaafa	9.5265756e-17
154	0x24482c78	4.3405753e-17
155	0x23c7f523	2.1679443e-17
156	0x241a0586	3.3398105e-17
157	0x24e895c9	1.0086771e-16
158	0x240d494a	3.063658e-17
159	0x23839be5	1.4269072e-17
160	0x31203858	2.3315092e-09
161	0x3110a552	2.1048732e-09
162	0x3100bac2	1.873261e-09
163	0x30f018cf	1.7469349e-09
164	0x31191633	2.227705e-09
165	0x313ef8a0	2.7789966e-09
166	0x30bf5e5a	1.3923895e-09
167	0x311fbc03	2.3244418e-09
168	0x311f7bc2	2.3207893e-09
169	0x312d2728	2.519707e-09
170	0x30e829c4	1.6892092e-09
171	0x3129fe5a	2.4737319e-09
172	0x3114aa49	2.163363e-09
173	0x311c28f1	2.272426e-09
174	0x3100eef0	1.8762272e-09
175	0x31003791	1.8658037e-09
176	0x360039a3	1.9107035e-06
177	0x3602f2fa	1.951294e-06
178	0x36026917	1.943268e-06
179	0x3600dd07	1.9202141e-06
180	0x3601dd54	1.9351328e-06
181	0x360461ed	1.9726533e-06
182	0x36057674	1.9887493e-06
183	0x360341c2	1.9558797e-06
184	0x36021a15	1.9386691e-06
185	0x3602f931	1.9516558e-06
186	0x360303de	1.9522772e-06
187	0x360136b9	1.925435e-06
188	0x35fcf920	1.8847968e-06
189	0x36003aae	1.9107642e-06
190	0x35ffa672	1.9047422e-06
191	0x35fe52a3	1.8948525e-06
192	0x35b0e3a1	1.3179271e-06
193	0x35b254e6	1.3286742e-06
194	0x35b3e331	1.3402661e-06
195	0x35af3196	1.3052947e-06
196	0x35b3640f	1.336566e-06
197	0x35b5ff9e	1.3559945e-06
198	0x35b5ad00	1.35359e-06
199	0x35b2e11f	1.3327552e-06
200	0x35b3af01	1.3387472e-06
201	0x35b82335	1.3719315e-06
202	0x35b66b68	1.3591316e-06
203	0x35b2b2b3	1.3314042e-06
204	0x35b1ef9b	1.3257262e-06
205	0x35b3bf2d	1.3392179e-06
206	0x35b2c36a	1.3318906e-06
207	0x35b0c6ec	1.3170916e-06
208	0x00000000	0.0
209	0x00000000	0.0
210	0x00000000	0.0
211	0x00000000	0.0
212	0x00000000	0.0
213	0x00000000	0.0
214	0x00000000	0.0
215	0x00000000	0.0
216	0x00000000	0.0
217	0x00000000	0.0
218	0x00000000	0.0
219	0x00000000	0.0
220	0x00000000	0.0
221	0x00000000	0.0
222	0x00000000	0.0
223	0x00000000	0.0
224	0x31406158	2.799501e-09
225	0x315741a7	3.1323937e-09
226	0x318c296f	4.0792467e-09
227	0x31415f5c	2.8139402e-09
228	0x314f028b	3.012391e-09
229	0x3155e601	3.1126322e-09
230	0x312ad987	2.4861906e-09
231	0x313e0282	2.7650064e-09
232	0x31211ed6	2.3446112e-09
233	0x3132a666	2.5996996e-09
234	0x31352b7f	2.6363691e-09
235	0x31326c42	2.5963947e-09
236	0x3105d794	1.947659e-09
237	0x310f747c	2.0875452e-09
238	0x311aecbe	2.2544522e-09
239	0x311f4624	2.3177416e-09
240	0x36761786	3.667055e-06
241	0x367ebf27	3.7960215e-06
242	0x3675ab05	3.6607391e-06
243	0x366ac0a6	3.4980853e-06
244	0x36772953	3.6829922e-06
245	0x3672037b	3.6062836e-06
246	0x36727b04	3.6132415e-06
247	0x367482b7	3.643492e-06
248	0x36734309	3.6248841e-06
249	0x36763755	3.6689064e-06
250	0x36741865	3.6373033e-06
251	0x36700020	3.576286e-06
252	0x366d5409	3.5364667e-06
253	0x367186a0	3.599016e-06
254	0x368a5ea9	4.1237404e-06
255	0x367affef	3.7401876e-06

exp_avg f4 [1, 16, 4, 4]
0	0xb6eb3a3a	-7.010324e-06
1	0xb5e90574	-1.736144e-06
2	0xb6140514	-2.2056674e-06
3	0xb6c5b564	-5.892174e-06
4	0xb6eac109	-6.9962157e-06
5	0xb6eda7eb	-7.0826986e-06
6	0xb76c7d6a	-1.4095896e-05
7	0xb6dbd097	-6.5509917e-06
8	0x37681c79	1.3834907e-05
9	0x36b03418	5.2512733e-06
10	0x36a491f8	4.904574e-06
11	0x36df9a62	6.6638904e-06
12	0x376d32b0	1.4138102e-05
13	0x37840759	1.5739048e-05
14	0x379377c8	1.7579543e-05
15	0x373074cf	1.0517614e-05
16	0x2f0e4b07	1.294148e-10
17	0x2f614177	2.0486889e-10
18	0xb0a1827e	-1.175138e-09
19	0xafd3000b	-3.8380707e-10
20	0x2b4827e7	7.110965e-13
21	0x2d91883e	1.6545095e-11
22	0x2d6ba395	1.3394526e-11
23	0x2da8cecb	1.9191223e-11
24	0x23b81fb5	1.9962748e-17
25	0xa283bdcb	-3.5708572e-18
26	0xa2ac47c5	-4.6696682e-18
27	0xa2ce1086	-5.5853907e-18
28	0xa2509d68	-2.8272587e-18
29	0xa3221c3d	-8.788017e-18
30	0x21c5ba6d	1.3398586e-18
31	0xa2587d3c	-2.9339757e-18
32	0x3494fa21	2.774914e-07
33	0xb5697046	-8.6962643e-07
34	0xb58d035b	-1.0506295e-06
35	0xb41c1e91	-1.4539752e-07
36	0x34978cbd	2.8228342e-07
37	0x345a2a97	2.0318326e-07
38	0xb4968a45	-2.8040282e-07
39	0xb415b480	-1.3942372e-07
40	0x34c8f035	3.7427677e-07
41	0xb4055400	-1.2417149e-07
42	0xb57be30b	-9.383518e-07
43	0x34f6988f	4.5932072e-07
44	0x3549481a	7.4983257e-07
45	0x344fead2	1.9363804e-07
46	0xb4cea95e	-3.849372e-07
47	0x345a7add	2.034753e-07
48	0xb99f5066	-0.00030386745
49	0xb9475b8f	-0.00019012227
50	0xb995fa82	-0.00028606137
51	0xb95cde24	-0.00021063589
52	0xb929270e	-0.00016131645
53	0xb94ad898	-0.00019344909
54	0xb985e110	-0.0002553542
55	0xb96cb6f3	-0.00022574868
56	0xb9759da7	-0.00023423751
57	0xb981186f	-0.00024623002
58	0xb970b081	-0.00022953936
59	0xb98a3490	-0.00026360573
60	0xb9782c6a	-0.00023667669
61	0xb9713db6	-0.0002300654
62	0xb9981201	-0.00029005113
63	0xb92807ba	-0.00016024607
64	0xb9724b53	-0.00023106979
65	0xb988b508	-0.0002607482
66	0xb95b0dc1	-0.00020890591
67	0xb91627f8	-0.00014320004
68	0xb9526491	-0.00020064625
69	0xb97398d7	-0.00023231223
70	0xb99238b6	-0.00027889543
71	0xb95bfdad	-0.00020979969
72	0xb9741fb4	-0.00023281464
73	0xb96ecf19	-0.00022774599
74	0xb96a2695	-0.00022330352
75	0xb97cf31c	-0.00024123158
76	0xb927a8cd	-0.00015989244
77	0xb9281bf7	-0.00016032146
78	0xb910737e	-0.00013775934
79	0xb974a423	-0.00023330799
80	0xb59c5207	-1.1646779e-06
81	0xb58ba03c	-1.0402941e-06
82	0x34d2b139	3.9244495e-07
83	0xb4ddd9da	-4.1322966e-07
84	0xb320f950	-3.747965e-08
85	0xb4634295	-2.1165245e-07
86	0x33b866a7	8.58684e-08
87	0x33b91f30	8.620407e-08
88	0x35b2a0b5	1.3308805e-06
89	0xb4fc0e29	-4.694896e-07
90	0xb42ad43d	-1.5909696e-07
91	0xb468a3cc	-2.1666273e-07
92	0x359a68c4	1.1504385e-06
93	0xb59d90c3	-1.1739543e-06
94	0xb559e91b	-8.117801e-07
95	0xb4f440a9	-4.5495588e-07
96	0x9e014385	-6.843166e-21
97	0x9d44ad31	-2.6029922e-21
98	0x1e50b009	1.10478315e-20
99	0x9f4014b3	-4.0674703e-20
100	0x9e86f043	-1.4287172e-20
101	0x2d628520	1.2876172e-11
102	0xad160d56	-8.529474e-12
103	0xad103caf	-8.198927e-12
104	0x9e822410	-1.37792e-20
105	0xab477f48	-7.087564e-13
106	0xabeed14d	-1.696901e-12
107	0x2bc85587	1.4234593e-12
108	0x1f78ccfe	5.2685608e-20
109	0xad367b8e	-1.0372937e-11
110	0x2c736cdb	3.4592804e-12
111	0x2a4ef761	1.8382302e-13
112	0xb8d126de	-9.973136e-05
113	0xb94c3746	-0.00019475547
114	0xb934ad60	-0.00017230725
115	0xb91b7909	-0.00014827041
116	0xb8bb9bdd	-8.945887e-05
117	0xb94a5e60	-0.00019299379
118	0xb93ff69b	-0.00018307047
119	0xb90f23d1	-0.00013650885
120	0xb94b80d2	-0.00019407578
121	0xb93843a4	-0.00017572806
122	0xb8f3e456	-0.00011629674
123	0xb90d2363	-0.0001345999
124	0xb915bdd5	-0.00014280465
125	0xb90d2717	-0.0001346137
126	0xb914742b	-0.00014157656
127	0xb892cc2d	-6.999853e-05
128	0x36d30fe1	6.2901386e-06
129	0x37b5d2db	2.1675069e-05
130	0x37d0f8d2	2.4911398e-05
131	0x378b8ef1	1.6636654e-05
132	0x3630e255	2.6357786e-06
133	0x371cbfcb	9.34298e-06
134	0x374219b0	1.1569282e-05
135	0x3744c7f6	1.1729067e-05
136	0x3732216c	1.0617408e-05
137	0xb6d5466f	-6.356094e-06
138	0xb7945f86	-1.7687456e-05
139	0xb6bcc195	-5.6253725e-06
140	0xb70b9b76	-8.321242e-06
141	0xb751c2e9	-1.2502752e-05
142	0xb7955409	-1.7801316e-05
143	0xb5908e7e	-1.0770307e-06
144	0x00000004	6e-45
145	0x80000004	-6e-45
146	0x80000004	-6e-45
147	0x80000004	-6e-45
148	0x80000004	-6e-45
149	0x00000004	6e-45
150	0x80000004	-6e-45
151	0x80000004	-6e-45
152	0x80000004	-6e-45
153	0x00000004	6e-45
154	0x80000004	-6e-45
155	0x00000004	6e-45
156	0x00000004	6e-45
157	0x80000004	-6e-45
158	0x00000004	6e-45
159	0x00000004	6e-45
160	0xb7b99dbe	-2.2127173e-05
161	0x367d6272	3.775724e-06
162	0x37075286	8.065841e-06
163	0xb66e38fc	-3.5497933e-06
164	0xb7d22e9b	-2.5055653e-05
165	0x366015a8	3.3391207e-06
166	0x3653aee5	3.1543252e-06
167	0x34c5836f	3.678974e-07
168	0xb7a28e93	-1.9378296e-05
169	0xb77766fe	-1.4746327e-05
170	0xb6ea08c6	-6.974765e-06
171	0x37553909	1.2709069e-05
172	0xb6e88737	-6.92988e-06
173	0xb7870180	-1.6093953e-05
174	0xb7aa3360	-2.0289503e-05
175	0x375b4825	1.3070215e-05
176	0x396fbd98	0.00022863445
177	0x39b2a1c1	0.00034071322
178	0x39a64932	0.00031716522
179	0x39747982	0.00023314919
180	0x3990dbcd	0.00027629585
181	0x399f85b5	0.00030426463
182	0x39c8dbaf	0.0003831065
183	0x396ec6c7	0.00022771499
184	0x398639a6	0.00025601423
185	0x39862714	0.00025587587
186	0x394e3883	0.00019666743
187	0x396b5651	0.00022443502
188	0x395858fa	0.00020632512
189	0x3990f5c5	0.00027648933
190	0x3980f3d2	0.00024595723
191	0x397c3288	0.00024051417
192	0x3938d0f0	0.00017625443
193	0x3979863c	0.00023796497
194	0x39af39aa	0.00033421564
195	0x394aa108	0.0001932421
196	0x39761d57	0.00023471318
197	0x39823ee0	0.00024842378
198	0x399f6d74	0.00030408392
199	0x39110d3e	0.0001383321
200	0x397220ee	0.00023091186
201	0x392977be	0.00016161703
202	0x398dffb8	0.0002708414
203	0x398c993a	0.00026817044
204	0x3970c6b2	0.00022962203
205	0x3949e9de	0.00019255976
206	0x3964c6cf	0.00021817836
207	0x3981788d	0.00024694615
208	0x00000000	0.0
209	0x00000000	0.0
210	0x00000000	0.0
211	0x00000000	0.0
212	0x00000000	0.0
213	0x00000000	0.0
214	0x00000000	0.0
215	0x00000000	0.0
216	0x00000000	0.0
217	0x00000000	0.0
218	0x00000000	0.0
219	0x00000000	0.0
220	0x00000000	0.0
221	0x00000000	0.0
222	0x00000000	0.0
223	0x00000000	0.0
224	0xb7618da2	-1.34440215e-05
225	0x36dba8fb	6.5463805e-06
226	0x37cbf267	2.4312363e-05
227	0x3702c3eb	7.7942195e-06
228	0xb7aba133	-2.0459853e-05
229	0xb76d69b9	-1.4150916e-05
230	0x36f4c2de	7.294452e-06
231	0x379f011c	1.8954794e-05
232	0xb65f0786	-3.3233969e-06
233	0xb6b6dae2	-5.449504e-06
234	0xb6f227a7	-7.216778e-06
235	0x37352cd6	1.079888e-05
236	0x36fb8250	7.4955533e-06
237	0x36beb8e5	5.683966e-06
238	0xb663779d	-3.389526e-06
239	0x36decb5b	6.6397893e-06
240	0x39a75169	0.00031913377
241	0x39dc3a59	0.00042005142
242	0x3841630a	4.6107023e-05
243	0x39709989	0.0002294538
244	0x396a7e7c	0.00022363098
245	0x39a80cda	0.00032053032
246	0x39958357	0.0002851735
247	0x39299966	0.00016174241
248	0x396e9a57	0.00022754945
249	0x39e8aca4	0.00044379116
250	0x396b979b	0.00022467824
251	0x39ad43ea	0.0003304773
252	0x39ba6922	0.00035555015
253	0x39a59e0b	0.00031589004
254	0x380ee207	3.4065943e-05
255	0x3958ede8	0.00020687992
