pre-trained/DCT4_soft-thr_L2_rnd-init_1000.pt (torch_old, 225598 bytes, 10 tensors)

weight f4 [16, 1, 4, 4]
0	0xbe27f08d	-0.16400357
1	0xbf0341e1	-0.512724
2	0xbf1c31d0	-0.6101351
3	0xbee3079d	-0.44341746
4	0xbcdcf869	-0.02697392
5	0x3dbca515	0.092111744
6	0x3d59ea5d	0.053202022
7	0x3f0a3b70	0.53996944
8	0xbc0066a8	-0.007836975
9	0x3e996089	0.29956463
10	0x3ec330e6	0.38123244
11	0x3e81f373	0.2538105
12	0xbc69def6	-0.014274349
13	0x3e94d478	0.2906835
14	0x3e2f77c4	0.1713553
15	0xbe9ba505	-0.30399337
16	0xbdf66d6d	-0.1203259
17	0x3d0aee48	0.03391865
18	0x3d9996e4	0.07499483
19	0x3dab47d3	0.08363309
20	0x3ecc96df	0.39958856
21	0xbe254487	-0.16139422
22	0x3df64fe2	0.12026955
23	0xbe317a3c	-0.17331785
24	0xbe27f074	-0.1640032
25	0x3e75f81f	0.24020432
26	0xbedf50e4	-0.43616402
27	0x3d53ea9b	0.05173741
28	0x3e4065af	0.18788789
29	0x3e2b6941	0.1673937
30	0x3c2da17e	0.010597585
31	0xbdda85be	-0.106700405
32	0x3ef75e0a	0.48313934
33	0xbe92e3f8	-0.2868955
34	0x3e77f70e	0.24215338
35	0xbeea34a9	-0.45743302
36	0x3b84e79a	0.0040559294
37	0xbd0384aa	-0.03210894
38	0xbcb34bfc	-0.021886818
39	0x3e182cf1	0.14860894
40	0xbe86fdcd	-0.2636551
41	0xbe033f05	-0.12817009
42	0x3e783a6b	0.24241035
43	0xbea5d783	-0.32390985
44	0xbe128fc6	-0.14312658
45	0xbce2bfe4	-0.027679391
46	0xbd6006ea	-0.054694094
47	0xbe38021f	-0.17969559
48	0x3d90cf77	0.07070821
49	0x3e77d53b	0.24202435
50	0x3e96242e	0.29324478
51	0x3e3407c0	0.17581081
52	0x3e5c54ca	0.2151672
53	0x3e955828	0.2916882
54	0x3eda1193	0.42591533
55	0xbd31fdbe	-0.043454878
56	0x3e71e4c8	0.2362243
57	0xbdb4a449	-0.088203974
58	0x3e68e7ff	0.2274475
59	0xbe08f894	-0.13376075
60	0x3de28b6e	0.1106175
61	0xbddf9edb	-0.10918971
62	0x3ebe6fd3	0.3719469
63	0x3ed915bc	0.42399395
64	0x3dd54a76	0.10414593
65	0x3e734c56	0.23759589
66	0xbdcc043c	-0.09961745
67	0x3dc014a3	0.09378936
68	0x3e8f519e	0.27991956
69	0x3ea73d53	0.32663974
70	0x3e481490	0.19539094
71	0x3d106cda	0.03526006
72	0x3ec12335	0.37722173
73	0x3e8778dd	0.264594
74	0x3ef7c367	0.48391268
75	0x3e540390	0.20704484
76	0x3d9c004e	0.076172456
77	0x3df03fe2	0.11730935
78	0x3dae0840	0.08497667
79	0xbdbcc1c7	-0.092166476
80	0xbe2a449f	-0.1662774
81	0xbc3a7bbd	-0.011382041
82	0x3ebdedb2	0.3709541
83	0xbf10a178	-0.5649638
84	0x3d87cf81	0.06631375
85	0x3c9e071b	0.019290498
86	0xbe36ee5a	-0.17864361
87	0xbd3eee2c	-0.046613857
88	0xbe23a94b	-0.15982549
89	0x3ae313ef	0.0017324666
90	0x3e24f43f	0.16108797
91	0x3ca3da93	0.020001685
92	0xbdf8d69e	-0.1215031
93	0xbe816ec9	-0.25279835
94	0x3dea99d0	0.11455119
95	0x3e475e87	0.19469653
96	0xbe4eb37a	-0.20185652
97	0xbe5658e8	-0.20932353
98	0x3e4f14ea	0.20222822
99	0xbe6b952e	-0.23006126
100	0xbe6e7d0e	-0.23289892
101	0xbe093b7b	-0.13401596
102	0xbaeb40e4	-0.0017948416
103	0x3d98fdce	0.074702844
104	0xbda76085	-0.081727065
105	0x3e532385	0.20619018
106	0x3d8b44fe	0.068002686
107	0x3e80ae07	0.25132772
108	0xbea53f37	-0.32274792
109	0x3ceadd8f	0.0286701
110	0x3dddf03e	0.10836838
111	0xbe30bc38	-0.172593
112	0x3e075564	0.13216168
113	0x3df74610	0.1207391
114	0x3e87cf76	0.26525468
115	0x3e5c46a6	0.21511325
116	0x3d248f86	0.040175937
117	0x3e73db31	0.23814084
118	0xbe2c185d	-0.16806169
119	0x3e54a0ef	0.20764516
120	0x3de9163e	0.113811955
121	0x3e03adcd	0.12859268
122	0x3e4c5a23	0.1995626
123	0x3e9dbac2	0.30806547
124	0x3dd4e6ee	0.10395609
125	0x3e760f50	0.24029279
126	0xbda5d0fe	-0.08096503
127	0x3e16d57d	0.14729877
128	0x3e5a4bd6	0.21317992
129	0x3e8503b6	0.25979394
130	0x3ee28cb9	0.44247988
131	0x3e89213e	0.26783174
132	0x3cb58f25	0.022162983
133	0x3f091c71	0.53559023
134	0x3ed8f9b5	0.4237801
135	0x3dbe9503	0.093057655
136	0xbed75e06	-0.42063922
137	0xbf22998f	-0.6351556
138	0x3c9e8340	0.019349694
139	0xbe9d6c96	-0.30746907
140	0xbe2305d2	-0.15920189
141	0xbf258638	-0.64657927
142	0xbd23f56c	-0.040028974
143	0xbdd45a3c	-0.10368773
144	0xbe9893bc	-0.29800212
145	0xbbcd1b35	-0.006259347
146	0xbd490fb8	-0.049087256
147	0xbd9734ee	-0.073831424
148	0xbd57df8b	-0.05270342
149	0x3ef6b378	0.481838
150	0xbd449684	-0.047995105
151	0x3dcc857d	0.09986398
152	0xbe222cad	-0.15837355
153	0x3e445b58	0.1917547
154	0xbe0aa8c2	-0.13540938
155	0x3e3974e0	0.1811099
156	0x3ecce143	0.4001561
157	0xbebf1286	-0.3731882
158	0xbe1f68ba	-0.15567294
159	0x3c3a4f77	0.011371485
160	0xbeaa5b6e	-0.3327288
161	0x3d2a37d6	0.041557156
162	0x3ec29d74	0.38010752
163	0x3e195b5d	0.14976259
164	0xbf0d66bf	-0.55234903
165	0xbea1cc2b	-0.3160108
166	0x3efe54e9	0.49674156
167	0x3eb3d519	0.35123518
168	0xbed18ed2	-0.40929276
169	0xbddae026	-0.10687284
170	0x3e7822e0	0.24232054
171	0xbe27d3ff	-0.16389464
172	0xbed926c7	-0.42412397
173	0x3ec6d089	0.38830975
174	0x3e96eda6	0.29478186
175	0xbd870bfd	-0.065940835
176	0xbdf45bc9	-0.11931569
177	0xbe29363c	-0.16524595
178	0xbe29a431	-0.1656654
179	0xbda650a1	-0.081208475
180	0xbe279f48	-0.16369355
181	0xbeb5c21e	-0.35499662
182	0x3cd41d02	0.025892738
183	0xbcd490eb	-0.025948009
184	0xbec8febb	-0.39256844
185	0xbf0ccedf	-0.5500316
186	0xbe7d0749	-0.2470981
187	0xbee5e655	-0.44902292
188	0xbe334841	-0.17508031
189	0xbea8ca3b	-0.3296679
190	0xbe053e38	-0.13012016
191	0xbe37bdb6	-0.17943463
192	0x3c44e2cf	0.012016966
193	0xbe9fb7aa	-0.31194812
194	0xbe7491a6	-0.23883685
195	0xbe8109db	-0.25202832
196	0xbe7f0f12	-0.24908093
197	0xbf10ae79	-0.56516224
198	0x3d93bbd3	0.07213559
199	0xbda5434e	-0.08069478
200	0xbe25599f	-0.16147469
201	0xbdecf382	-0.11569883
202	0xbe8877a2	-0.26653773
203	0xbec54948	-0.38532472
204	0xbd23c54c	-0.03998308
205	0xbe22463d	-0.15847106
206	0xbe2f77c3	-0.17135529
207	0xbdf52192	-0.11969294
208	0xbdcfe8f9	-0.10151858
209	0x3d301251	0.042986218
210	0xbda606ae	-0.08106743
211	0x3da1276a	0.07868846
212	0x3ced3589	0.028956192
213	0x3e0ade8d	0.13561459
214	0x3d61d952	0.055138893
215	0x3e1d45e4	0.15358692
216	0x3e524854	0.20535403
217	0xbea4c764	-0.32183373
218	0x3b6ffbd9	0.0036618619
219	0xbdfb1b65	-0.122610845
220	0xbd1bf1eb	-0.038072508
221	0x3ea21c8a	0.316624
222	0x3cc16b56	0.023610752
223	0xbe42581c	-0.18978924
224	0xbdd094f8	-0.101846635
225	0x3cbd5523	0.023111885
226	0x3ce23b18	0.027616069
227	0x3e199abd	0.15000434
228	0xbd882cca	-0.06649168
229	0x3d9cc35e	0.07654451
230	0x3e8444ac	0.25833642
231	0x3e8460b3	0.25855026
232	0xbe44012a	-0.19141069
233	0xbe834f17	-0.25646278
234	0x3f022b73	0.5084755
235	0x3eb07987	0.34467718
236	0xbebb8cd0	-0.3663087
237	0xbf58af51	-0.8464251
238	0x3d44f532	0.0480854
239	0x3e36fd0b	0.17869966
240	0xbd0d199c	-0.03444825
241	0xbe7ab216	-0.24481997
242	0xbea55e9c	-0.32298744
243	0xbefcc61d	-0.49369898
244	0xbea65fde	-0.32495016
245	0xbe74e7de	-0.23916575
246	0x3e934886	0.28766268
247	0xbe222ac9	-0.15836634
248	0xbe5da24d	-0.21643944
249	0xbdd0dcec	-0.101983875
250	0xbde83efa	-0.11340137
251	0xbe7fe7b6	-0.24990734
252	0xbe9ceeed	-0.30651036
253	0xbd74dac6	-0.05977895
254	0xbef95ff8	-0.4870603
255	0xbe0b0f77	-0.13580118

bias f4 [16]
0	0x3f3a21a0	0.7270756
1	0x3e0b4bb7	0.13603102
2	0x3ddbaf25	0.107267655
3	0x3e8eafc6	0.2786848
4	0x3e883d11	0.2660909
5	0xbe3a57b9	-0.18197526
6	0x3e8b7bb1	0.27242807
7	0x3ed33902	0.4125443
8	0x3f3d04dc	0.7383554
9	0xbd00219d	-0.031282056
10	0x3f3c3ab1	0.73527056
11	0xbd127828	-0.03575912
12	0xbdd668a1	-0.10469175
13	0xbd4eea58	-0.050516456
14	0xbf46edfc	-0.77706885
15	0xbe8f9c39	-0.28048876

weight f4 [1, 16, 4, 4]
0	0xbd18b173	-0.037278604
1	0x3c6db718	0.014508985
2	0x3d3300fa	0.043702103
3	0xbb81605d	-0.003948255
4	0x3d4b3116	0.04960736
5	0x3d6e36fb	0.058157902
6	0x3d58d4b1	0.052937213
7	0x3bf67e99	0.007522416
8	0x3db27f6c	0.0871571
9	0x3c2f99b5	0.010717799
10	0xbaf4da1d	-0.0018680725
11	0xbcecc85e	-0.028904136
12	0xbdb0b3ed	-0.08628068
13	0xbdd0a702	-0.10188104
14	0xbd960ebb	-0.07327028
15	0xbc6a1bb1	-0.014288829
16	0x3eb47063	0.35241994
17	0xbd88b6fb	-0.06675526
18	0x3ee4ebe3	0.44711217
19	0xbe10042d	-0.14064093
20	0x3f0828fa	0.53187525
21	0x3e838cf9	0.2569349
22	0x3e3969dd	0.1810679
23	0xbeb6226b	-0.35573134
24	0xbef06be7	-0.46957323
25	0x3e03350b	0.12813203
26	0xbcba4186	-0.022736322
27	0xbf01073b	-0.5040166
28	0x3e0bc6fd	0.13650127
29	0x3e25a942	0.16177848
30	0xbe42cbb0	-0.19023013
31	0xbe702317	-0.23450886
32	0x3df60c42	0.12014057
33	0xbdaf310d	-0.085542776
34	0xbec8ce30	-0.3921981
35	0x3dbea9e7	0.0930975
36	0x3d0199e5	0.031640906
37	0x3e86b155	0.2630717
38	0xbdb81000	-0.08987427
39	0x3db26bdd	0.087119795
40	0x3cc6d84a	0.024273057
41	0x3e476e88	0.19475758
42	0xbeb992ec	-0.36244905
43	0x3e7e6b6d	0.24845667
44	0x3d0733a0	0.033008218
45	0x3e87ed15	0.26548067
46	0xbe2cf34c	-0.16889685
47	0x3e098589	0.13429846
48	0xbd417564	-0.047231093
49	0x3c3c2615	0.011483689
50	0xbe2561f6	-0.1615065
51	0xbe1bfd78	-0.1523341
52	0xba8464ab	-0.0010100802
53	0x3c2f9202	0.010715963
54	0xbdd5d678	-0.10441297
55	0xbe1fa8fb	-0.15591805
56	0xbdbd6428	-0.09247619
57	0xbdc9240c	-0.098213285
58	0xbdcb1981	-0.09916974
59	0xbe01fa4c	-0.12693137
60	0xbd30158b	-0.042989295
61	0xbd5c6a87	-0.05381253
62	0xbdf7bbe0	-0.12096381
63	0xbc583434	-0.01319604
64	0xbdbcf9bf	-0.09227323
65	0xbe1e8dfb	-0.15483849
66	0x3e2e2fe5	0.17010458
67	0x3e808de7	0.25108263
68	0x3e59bff8	0.21264637
69	0x3ecb644e	0.39724964
70	0xbd3c3dbd	-0.045957316
71	0xbcada942	-0.021198872
72	0x3d04cb57	0.032420482
73	0x3d446300	0.047945976
74	0x3ccbcf74	0.024879195
75	0xbe80d9e4	-0.25166237
76	0x3c1f7789	0.009733089
77	0x3e6068f2	0.21915033
78	0x3d4d9938	0.05019495
79	0xbd499a91	-0.04921967
80	0xbea45bed	-0.32101384
81	0xbdc6bb44	-0.09703687
82	0xbd9b54f5	-0.07584564
83	0xbe834387	-0.25637457
84	0x3e610a1e	0.21976516
85	0x3cd3533a	0.025796521
86	0xbe4383c7	-0.19093238
87	0x3ae8ea41	0.0017770008
88	0x3eea8649	0.45805576
89	0xbe9b34e4	-0.3031379
90	0x3d60582a	0.05477158
91	0xbd9f833a	-0.07788701
92	0x3e9cbb3f	0.30611607
93	0xbe6469c7	-0.22305976
94	0xbe5c42a6	-0.215098
95	0xbeac68a8	-0.33673596
96	0xbe6622e0	-0.22474241
97	0x3df62a52	0.12019791
98	0x3df2059e	0.11817478
99	0xbd8442fd	-0.064580895
100	0xbe9a4557	-0.30131027
101	0xbe2afe2c	-0.16698521
102	0xbcd87580	-0.026423216
103	0xbd78ffba	-0.060790755
104	0xbe3dd957	-0.1853994
105	0xbda7407e	-0.08166598
106	0x3e6e0853	0.23245363
107	0x3e378590	0.17922044
108	0x3d107bed	0.035274435
109	0xbe1d702e	-0.15374824
110	0x3eb7a99a	0.35871583
111	0xbf05d262	-0.52274144
112	0x3e41e179	0.18933667
113	0x3df9daf0	0.12199962
114	0xbc592732	-0.013253974
115	0xbebc0a73	-0.36726722
116	0x3e9508c6	0.29108256
117	0xbc5fc734	-0.013658334
118	0xbe89c34c	-0.26906812
119	0xbe7cb385	-0.24677856
120	0xbdfdfe87	-0.12402063
121	0xbdcac94b	-0.09901675
122	0x3e8bb847	0.2728903
123	0xbde12f17	-0.1099531
124	0x3c570ea6	0.013126051
125	0x3e41ac81	0.18913461
126	0x3d8ed7eb	0.06974777
127	0x3d872d7f	0.066004746
128	0xb956a8d0	-0.00020471518
129	0xbc54e363	-0.012993666
130	0xbd98e220	-0.07465005
131	0xbb19730b	-0.0023414518
132	0xbd07b788	-0.033134013
133	0xbbe86825	-0.007092493
134	0xbdad69da	-0.08467455
135	0xbd3c4d54	-0.045972183
136	0xbca9e03a	-0.020736802
137	0x3d9894c9	0.074502535
138	0x3d9fed7d	0.07808969
139	0x3b8feca9	0.0043922258
140	0x3cb20ab9	0.021733629
141	0x3d65019f	0.05590975
142	0x3d16d423	0.036823403
143	0x3c85d79f	0.016338168
144	0xbcac98aa	-0.02106889
145	0x3d841b4e	0.064505205
146	0x3ebc8419	0.36819533
147	0xbe9f81a2	-0.3115359
148	0xbdd8e08d	-0.10589705
149	0x3ea8c3d9	0.3296192
150	0xbdcc8ac4	-0.09987405
151	0xbd84ff0a	-0.06493957
152	0x3da7d570	0.08195007
153	0x3c3c7df3	0.011504638
154	0x3e73f2ba	0.23823062
155	0x3e8c0868	0.27350163
156	0x3d99ea65	0.0751541
157	0xbd2346cf	-0.03986245
158	0x3e14bed0	0.14525914
159	0xbe77b087	-0.24188434
160	0x3bfb08a8	0.007660944
161	0x3cf33c8e	0.02969196
162	0x3ce5475c	0.027988128
163	0xbd8fd56b	-0.07023128
164	0xbceb2c63	-0.028707689
165	0x3cf9ff0d	0.030517126
166	0xbc0dfcd9	-0.008666241
167	0xbd0cd92a	-0.03438679
168	0x3d82d7a2	0.06388785
169	0x3daaeea3	0.083462976
170	0xbd694fe2	-0.056960948
171	0xbdb22bd9	-0.086997695
172	0xba0ad257	-0.00052956253
173	0x3d626787	0.055274513
174	0x3caa69ba	0.020802367
175	0xbd53e253	-0.05172951
176	0x39840d73	0.00025187022
177	0x3e2a0c81	0.16606332
178	0x3e42fb00	0.19041061
179	0xbc880fee	-0.016609158
180	0x3e96d0aa	0.29456073
181	0x3e4ac057	0.19799934
182	0x3dd54da1	0.10415197
183	0xbe25d1bf	-0.16193293
184	0xbd99b15c	-0.07504532
185	0x3e0836d4	0.13302165
186	0x3d2fe3f6	0.04294201
187	0xbe34ee98	-0.17669141
188	0xbd86c77f	-0.065810196
189	0x3e486e36	0.19573292
190	0x3e5dc58d	0.21657391
191	0x3cb8a0fd	0.022537703
192	0xbdaea9f6	-0.08528511
193	0xbd3ace1d	-0.04560672
194	0x3e3d5f20	0.18493319
195	0xbe478e5b	-0.19487898
196	0x3d6c84aa	0.057743706
197	0xbe30b6f5	-0.17257293
198	0xbc9dc034	-0.019256689
199	0xbde7cdf7	-0.113185816
200	0x3d670235	0.05639859
201	0xbe85dc41	-0.26144603
202	0xbcc686cc	-0.024234198
203	0xbc431e31	-0.011909054
204	0x3dd5c334	0.10437623
205	0xbd5033a4	-0.0508305
206	0xbe2f3b8b	-0.17112558
207	0x3d75358a	0.059865512
208	0x3cd2b53f	0.02572119
209	0x3e61156c	0.21980828
210	0xbd9e547e	-0.07730959
211	0xbea96f63	-0.33092794
212	0x3e583ee4	0.21117741
213	0xbea1a1d6	-0.31568784
214	0x3e01789c	0.12643665
215	0xbd4c8bd6	-0.049938045
216	0x3e8a2696	0.26982564
217	0xbdcf0e08	-0.10110098
218	0x3e8efb83	0.27926263
219	0x3e7ff9e5	0.24997671
220	0x3de4950f	0.11161243
221	0x3e39c600	0.18141937
222	0xbd480a87	-0.048838165
223	0xbd7c1d11	-0.061551157
224	0xba736e6b	-0.0009286168
225	0x3c8551ff	0.01627445
226	0xbe1f1ed3	-0.15539102
227	0xbd827d52	-0.06371559
228	0x3d59f05c	0.05320774
229	0x3de7858b	0.11304768
230	0xbd51860f	-0.05115324
231	0xbd39827f	-0.045290466
232	0x3cd0be6e	0.025481429
233	0x3cec7482	0.028864149
234	0xbc62a180	-0.01383245
235	0xbca7e138	-0.020493135
236	0x3d1c007f	0.03808641
237	0x3c5aca9a	0.013353968
238	0xbc6bbf7b	-0.014388914
239	0x3c0bc793	0.008531469
240	0x3cebcee1	0.028785171
241	0x3d883a6a	0.066517666
242	0xbebc4487	-0.36771032
243	0xbd9da35c	-0.07697174
244	0xbd670dd0	-0.056409657
245	0xbdad0294	-0.08447757
246	0xbda78e27	-0.0818141
247	0xbe474a23	-0.19461875
248	0xbdb7ccd2	-0.08974613
249	0x3dbfc609	0.09363944
250	0xbdf8bed1	-0.1214577
251	0xbb27aa47	-0.002558367
252	0x3b584bb3	0.0033004105
253	0xbd4c444f	-0.04986983
254	0xbe40e298	-0.18836439
255	0xbde303d7	-0.11084717

thr f4 [1, 16, 1, 1]
0	0x3f800000	1.0
1	0x3f800000	1.0
2	0x3f800000	1.0
3	0x3f800000	1.0
4	0x3f800000	1.0
5	0x3f800000	1.0
6	0x3f800000	1.0
7	0x3f800000	1.0
8	0x3f800000	1.0
9	0x3f800000	1.0
10	0x3f800000	1.0
11	0x3f800000	1.0
12	0x3f800000	1.0
13	0x3f800000	1.0
14	0x3f800000	1.0
15	0x3f800000	1.0

exp_avg_sq f4 [16, 1, 4, 4]
0	0x31243641	2.389598e-09
1	0x30fe588d	1.85061e-09
2	0x30e7992f	1.6851e-09
3	0x30feb957	1.8533609e-09
4	0x313fa272	2.7886498e-09
5	0x314fa3ac	3.0215501e-09
6	0x314f0acf	3.0128608e-09
7	0x3184577d	3.851652e-09
8	0x315a5251	3.1769967e-09
9	0x31853a31	3.877425e-09
10	0x318e8f93	4.1490664e-09
11	0x31808086	3.7399017e-09
12	0x31574ff3	3.1332064e-09
13	0x318223bf	3.787562e-09
14	0x31715b88	3.5122145e-09
15	0x31403b18	2.7973268e-09
16	0x281d859e	8.744224e-15
17	0x280e2d25	7.892373e-15
18	0x287f4b42	1.41716625e-14
19	0x287e13e8	1.4104149e-14
20	0x28a4b34d	1.8285417e-14
21	0x28062959	7.44746e-15
22	0x2782e070	3.6325584e-15
23	0x273cc704	2.6198128e-15
24	0x27ce2baa	5.7223826e-15
25	0x2816e6fa	8.376758e-15
26	0x261388a9	5.118608e-16
27	0x26b4779b	1.2522428e-15
28	0x28a4b405	1.8285729e-14
29	0x2878767a	1.3792456e-14
30	0x27a7929e	4.6510774e-15
31	0x2701f33a	1.80342e-15
32	0x2bc4b0b8	1.3975687e-12
33	0x2d21cc57	9.197163e-12
34	0x2c1ac776	2.199544e-12
35	0x2d219a0e	9.1859974e-12
36	0x2c40e617	2.7412567e-12
37	0x2d15b0e0	8.5089435e-12
38	0x2c3c3a3d	2.6748736e-12
39	0x2d08bddb	7.772861e-12
40	0x2cbbe3f7	5.340169e-12
41	0x2d17ec02	8.6357605e-12
42	0x2c8c5dcd	3.9894533e-12
43	0x2d206774	9.117918e-12
44	0x2d0a5b27	7.864632e-12
45	0x2d166a07	8.550056e-12
46	0x2d0122ef	7.340558e-12
47	0x2d1faa2e	9.075891e-12
48	0x370f90cb	8.557176e-06
49	0x370f8b98	8.555966e-06
50	0x371106cc	8.644256e-06
51	0x3710b609	8.625452e-06
52	0x371377f7	8.789814e-06
53	0x37145ab2	8.842604e-06
54	0x37157d64	8.910287e-06
55	0x37202525	9.545392e-06
56	0x3713c056	8.8066645e-06
57	0x37195e7f	9.141512e-06
58	0x37170fb5	9.003958e-06
59	0x37196aa3	9.144339e-06
60	0x3716a294	8.97855e-06
61	0x371a1c4b	9.185703e-06
62	0x37175b09	9.021497e-06
63	0x3718477b	9.076549e-06
64	0x3611b2f0	2.171084e-06
65	0x3614ab91	2.2153583e-06
66	0x3614373a	2.2085865e-06
67	0x3612a221	2.1850067e-06
68	0x36162c8d	2.2377674e-06
69	0x36188f33	2.2733118e-06
70	0x361a0b96	2.2954532e-06
71	0x361559c2	2.2254976e-06
72	0x3616f858	2.2496297e-06
73	0x361910ac	2.280848e-06
74	0x361b5c88	2.315066e-06
75	0x3616d949	2.2478218e-06
76	0x36143331	2.2083516e-06
77	0x36157b73	2.2274587e-06
78	0x3618419e	2.268796e-06
79	0x36135756	2.1955543e-06
80	0x3767342d	1.3780821e-05
81	0x37653230	1.3661149e-05
82	0x37674efb	1.3787062e-05
83	0x37694187	1.3903139e-05
84	0x376ce3c6	1.4119729e-05
85	0x3767034b	1.376944e-05
86	0x37711253	1.4368986e-05
87	0x376e0af8	1.4188459e-05
88	0x376afba6	1.4006078e-05
89	0x376e79c4	1.4214256e-05
90	0x376bbfe6	1.4051771e-05
91	0x37678cfd	1.3801499e-05
92	0x376d2bf0	1.4136531e-05
93	0x37742b56	1.4553623e-05
94	0x376ae102	1.3999876e-05
95	0x37697719	1.3915612e-05
96	0x2b0b71df	4.954075e-13
97	0x2b146ae6	5.2728514e-13
98	0x2ab2ccd5	3.1761283e-13
99	0x2b0b7a5d	4.9552533e-13
100	0x2b12eccc	5.219824e-13
101	0x2afd6421	4.5011306e-13
102	0x2aa5517d	2.9366432e-13
103	0x2aac79ca	3.0637846e-13
104	0x2acf93f5	3.6873252e-13
105	0x2a634875	2.0186789e-13
106	0x2a2c84e4	1.5322775e-13
107	0x2a01c3c5	1.1525423e-13
108	0x2b157f80	5.3112376e-13
109	0x2ac76121	3.5416898e-13
110	0x2a773aa9	2.1958359e-13
111	0x2ab53df6	3.2195053e-13
112	0x359d2f34	1.171115e-06
113	0x35a6d585	1.2430106e-06
114	0x35abb653	1.2793556e-06
115	0x35bce15b	1.4072679e-06
116	0x359a4590	1.149414e-06
117	0x35b1a012	1.3234114e-06
118	0x35a9379b	1.2607665e-06
119	0x35b24ccc	1.3284384e-06
120	0x35a9e6e0	1.2658675e-06
121	0x35ac8ece	1.285656e-06
122	0x35ac2876	1.2826774e-06
123	0x35ae6ba0	1.2995333e-06
124	0x35a4ed9d	1.2288107e-06
125	0x359fdbe0	1.1910415e-06
126	0x35a9eb19	1.2659904e-06
127	0x35ac5985	1.2841052e-06
128	0x316cf601	3.4482357e-09
129	0x318d7120	4.116501e-09
130	0x319809bc	4.424889e-09
131	0x3187c22c	3.951092e-09
132	0x314b1f51	2.955819e-09
133	0x3180f790	3.753435e-09
134	0x318b21a9	4.049259e-09
135	0x3177f2b9	3.6081202e-09
136	0x3113e25a	2.1519981e-09
137	0x30df9259	1.626698e-09
138	0x31359430	2.6423201e-09
139	0x311b2ef7	2.2582165e-09
140	0x30ff96f9	1.8596601e-09
141	0x30c2fa6a	1.418653e-09
142	0x3112f216	2.1383406e-09
143	0x311ad1ba	2.2529165e-09
144	0x2834bde6	1.0033185e-14
145	0x2884ebc2	1.4757188e-14
146	0x28aee6a0	1.9417898e-14
147	0x2886e0a5	1.4974413e-14
148	0x285e5f49	1.2344137e-14
149	0x291770f0	3.3626693e-14
150	0x28897ade	1.526334e-14
151	0x28d01804	2.3103054e-14
152	0x28c12a05	2.1445527e-14
153	0x28e68d27	2.5596345e-14
154	0x284cead0	1.1375192e-14
155	0x28cfe75a	2.308195e-14
156	0x2903011a	2.90888e-14
157	0x282fc57d	9.757275e-15
158	0x28177a9a	8.408769e-15
159	0x28937b0d	1.6373643e-14
160	0x30562476	7.790456e-10
161	0x30b2d32f	1.3011227e-09
162	0x310bb150	2.0327953e-09
163	0x30f29c58	1.7652253e-09
164	0x30321810	6.479022e-10
165	0x30a3b07e	1.1909973e-09
166	0x311a878a	2.2486994e-09
167	0x31023d4e	1.8952337e-09
168	0x304941b6	7.3216755e-10
169	0x30b84cd6	1.34096e-09
170	0x310b8f51	2.0308628e-09
171	0x30d0bab9	1.5187062e-09
172	0x306afb7c	8.5486085e-10
173	0x310bb090	2.0327526e-09
174	0x31080336	1.979243e-09
175	0x30d4d49a	1.5485455e-09
176	0x36c3ef4a	5.83931e-06
177	0x36cd134b	6.111722e-06
178	0x36dc8180	6.5715867e-06
179	0x36e58126	6.8397667e-06
180	0x36cc7698	6.09348e-06
181	0x36d1bc44	6.2506024e-06
182	0x36d899a1	6.4551864e-06
183	0x36d71d71	6.4109267e-06
184	0x36cd411f	6.117057e-06
185	0x36cffc39	6.1984433e-06
186	0x36d480f6	6.3331054e-06
187	0x36d6b3fc	6.39865e-06
188	0x36cd2372	6.1136025e-06
189	0x36d405c1	6.318762e-06
190	0x36d12cfe	6.233923e-06
191	0x36d62d6b	6.3829843e-06
192	0x35aa852e	1.2704747e-06
193	0x35ad8d73	1.2930672e-06
194	0x35a9f040	1.2661403e-06
195	0x35a8c34f	1.2573818e-06
196	0x35a7eb96	1.2511034e-06
197	0x35acd0cf	1.287577e-06
198	0x35aa994a	1.27106e-06
199	0x35a6bd1b	1.2423001e-06
200	0x35a9c3fe	1.2648522e-06
201	0x35aa397a	1.2682715e-06
202	0x35aaa40d	1.2713732e-06
203	0x35a8fe7c	1.259104e-06
204	0x35a5eb51	1.2361944e-06
205	0x35a786b2	1.2481671e-06
206	0x35a741f3	1.2461663e-06
207	0x35a5884e	1.2333128e-06
208	0x00000000	0.0
209	0x00000000	0.0
210	0x00000000	0.0
211	0x00000000	0.0
212	0x00000000	0.0
213	0x00000000	0.0
214	0x00000000	0.0
215	0x00000000	0.0
216	0x00000000	0.0
217	0x00000000	0.0
218	0x00000000	0.0
219	0x00000000	0.0
220	0x00000000	0.0
221	0x00000000	0.0
222	0x00000000	0.0
223	0x00000000	0.0
224	0x31aa5e3d	4.958365e-09
225	0x319e4ae7	4.6069206e-09
226	0x3181c342	3.7765924e-09
227	0x31982e5c	4.4290527e-09
228	0x31b8e11b	5.3806963e-09
229	0x31ad233c	5.0389684e-09
230	0x315e71d7	3.2369962e-09
231	0x3197f597	4.4225987e-09
232	0x31d93d31	6.322488e-09
233	0x31c54f4d	5.74247e-09
234	0x314c4a60	2.9728184e-09
235	0x3167f6b6	3.3755163e-09
236	0x31f74e1d	7.1975266e-09
237	0x320e7c26	8.293716e-09
238	0x31a4284f	4.7776108e-09
239	0x318937c5	3.993565e-09
240	0x381cc97b	3.738094e-05
241	0x382179a9	3.8498696e-05
242	0x38183f41	3.6298534e-05
243	0x38140f2d	3.5300083e-05
244	0x381c6c06	3.7293903e-05
245	0x3817e041	3.6210058e-05
246	0x3814bdc4	3.5462683e-05
247	0x380e3d65	3.3912616e-05
248	0x381ecc4e	3.786041e-05
249	0x381749dd	3.6069996e-05
250	0x3813072b	3.5054207e-05
251	0x380b9a6f	3.328401e-05
252	0x3816c642	3.594743e-05
253	0x380fc12a	3.4273755e-05
254	0x380f4559	3.4158442e-05
255	0x38042e5a	3.151442e-05

exp_avg f4 [16, 1, 4, 4]
0	0x36a43f41	4.8949446e-06
1	0x362288b2	2.4219448e-06
2	0x35055b94	4.9679625e-07
3	0xb663405b	-3.3863096e-06
4	0x37063c68	8.001087e-06
5	0x371d0b9c	9.360632e-06
6	0xb631f338	-2.6516627e-06
7	0x36264616	2.4776723e-06
8	0xb6d54c48	-6.356775e-06
9	0xb66b8df9	-3.5100368e-06
10	0xb6f6c7e4	-7.3546416e-06
11	0xb7159e04	-8.917883e-06
12	0xb5ef0878	-1.7809352e-06
13	0x36b1f704	5.3037675e-06
14	0x36c3c1b7	5.8340042e-06
15	0xb70ae25d	-8.278145e-06
16	0x3168b931	3.3865712e-09
17	0x321e3f74	9.211238e-09
18	0x32519134	1.21984165e-08
19	0x323827d5	1.0719266e-08
20	0x3261dfd8	1.314762e-08
21	0x321974bf	8.932317e-09
22	0x32096e89	7.999582e-09
23	0x311057b5	2.1004614e-09
24	0xb076e54c	-8.982013e-10
25	0xb085bca0	-9.730634e-10
26	0xb1782ef5	-3.6115442e-09
27	0x318c7e24	4.088877e-09
28	0x3261dfd8	1.314762e-08
29	0x321974bf	8.932317e-09
30	0x32096e89	7.999582e-09
31	0x311057b5	2.1004614e-09
32	0xb4bc310f	-3.5053424e-07
33	0xb4d08eab	-3.8846824e-07
34	0xb6567a7e	-3.1959785e-06
35	0xb5bbc402	-1.3989631e-06
36	0xb6133f90	-2.1941705e-06
37	0xb5590138	-8.0840573e-07
38	0xb671acb6	-3.601233e-06
39	0xb4a47981	-3.0635786e-07
40	0xb6268b1b	-2.4816898e-06
41	0xb5cf73fc	-1.5456458e-06
42	0xb643a1ab	-2.9151367e-06
43	0xb597c3bc	-1.1307343e-06
44	0xb5d89d6b	-1.6139069e-06
45	0xb5efba20	-1.7861057e-06
46	0xb62de9ae	-2.5915028e-06
47	0xb5ceb3c7	-1.5400518e-06
48	0xb8376458	-4.3724052e-05
49	0x36b2c1fa	5.3273952e-06
50	0xb78b2c40	-1.6590697e-05
51	0xb8eb4a9c	-0.0001121957
52	0xb88ff8ca	-6.865112e-05
53	0xb7a43460	-1.9574712e-05
54	0x385169f4	4.992816e-05
55	0xb91401a2	-0.00014114988
56	0xb8968556	-7.177393e-05
57	0xb910a7ea	-0.00013795463
58	0xb7bf96b7	-2.2839156e-05
59	0xb910fd28	-0.00013827218
60	0xb925e51c	-0.00015820976
61	0xb90c8483	-0.00013400805
62	0xb78e34dd	-1.6952335e-05
63	0x3869df1b	5.5759312e-05
64	0xb7dfb448	-2.6667622e-05
65	0x35d41656	1.5801731e-06
66	0xb8f6990f	-0.000117587035
67	0xb5e1a8e7	-1.6812963e-06
68	0xb8bdb678	-9.04621e-05
69	0xb8c77afc	-9.511967e-05
70	0xb805e22d	-3.1920314e-05
71	0xb83ffb27	-4.5771852e-05
72	0xb8faee27	-0.00011965288
73	0xb8fb84a5	-0.0001199332
74	0xb8fd19cf	-0.00012068787
75	0xb8aef52f	-8.3426356e-05
76	0xb8e0fb2f	-0.00010727939
77	0xb8d9bc38	-0.00010382425
78	0xb9120098	-0.00013923866
79	0xb8f867d4	-0.00011844901
80	0xb7e2822e	-2.7001919e-05
81	0xb7b1ceb3	-2.1196296e-05
82	0xb7734c7c	-1.4501737e-05
83	0xb807f1ce	-3.2411706e-05
84	0xb7d83146	-2.5772151e-05
85	0xb7bb3d63	-2.2320723e-05
86	0xb7a31375	-1.9440175e-05
87	0xb7d982e3	-2.5929365e-05
88	0xb7f402aa	-2.9088307e-05
89	0xb7d13df1	-2.4943585e-05
90	0xb7877539	-1.614784e-05
91	0xb7a671cf	-1.9841738e-05
92	0xb7f116fa	-2.8740138e-05
93	0xb800968a	-3.065778e-05
94	0xb7919473	-1.7354474e-05
95	0xb76acecd	-1.3995636e-05
96	0xa914431d	-3.2920813e-14
97	0xa933867f	-3.986264e-14
98	0xa7f14cbe	-6.697414e-15
99	0xa933867f	-3.986264e-14
100	0xa917c2b5	-3.3697617e-14
101	0xa8987157	-1.6924543e-14
102	0xa7b5c148	-5.0447148e-15
103	0xa8987157	-1.6924543e-14
104	0xa8eec42c	-2.6508384e-14
105	0xa8014ebb	-7.1780105e-15
106	0xa8076453	-7.51576e-15
107	0xa8014ebb	-7.1780105e-15
108	0xa91cdc58	-3.4830076e-14
109	0xa8b1343f	-1.9673606e-14
110	0xa6cd5037	-1.4246475e-15
111	0xa8b1343f	-1.9673606e-14
112	0x37a8b0b9	2.0109454e-05
113	0xb8a7f1da	-8.008229e-05
114	0x37a0f2f6	1.9186624e-05
115	0x38a77707	7.985351e-05
116	0xb7c0b5cc	-2.297284e-05
117	0xb82af3ad	-4.07581e-05
118	0xb80c0983	-3.338746e-05
119	0xb864c0f4	-5.4539138e-05
120	0xb8659dfb	-5.4744985e-05
121	0xb88985ad	-6.557568e-05
122	0xb7ae0c29	-2.0748079e-05
123	0xb6af764e	-5.229179e-06
124	0xb6b8483c	-5.4920365e-06
125	0x3824c27f	3.9281786e-05
126	0xb82f6e90	-4.182622e-05
127	0x37f03f54	2.8639719e-05
128	0xb5474772	-7.4237244e-07
129	0xb7861bcf	-1.5986994e-05
130	0xb72ecb7a	-1.0418584e-05
131	0x35f33341	1.8119828e-06
132	0xb77417fa	-1.4549116e-05
133	0xb78518f5	-1.5866457e-05
134	0xb71a32c1	-9.190932e-06
135	0x36fb7a8e	7.49465e-06
136	0xb74f39e4	-1.235164e-05
137	0xb7394c5a	-1.1044636e-05
138	0x36f3e0cc	7.268134e-06
139	0xb63668b3	-2.7181056e-06
140	0xb759c168	-1.2979239e-05
141	0xb6e93500	-6.950111e-06
142	0x3623fcfd	2.4436151e-06
143	0xb6d2f102	-6.2865447e-06
144	0xab96ca5d	-1.0714308e-12
145	0xab194278	-5.4448763e-13
146	0xab1f663f	-5.663004e-13
147	0xab607e50	-7.975608e-13
148	0xab7dcdfb	-9.016951e-13
149	0xa73a1e17	-2.5828997e-15
150	0xab5744d3	-7.6478857e-13
151	0xaa977961	-2.6907212e-13
152	0xab1ba839	-5.530052e-13
153	0xaa9dc819	-2.8027648e-13
154	0xab911df2	-1.0311181e-12
155	0xaa1a693d	-1.371446e-13
156	0xaa778f84	-2.1987799e-13
157	0xab7f645d	-9.073348e-13
158	0xab480ba8	-7.107045e-13
159	0xab31ab9e	-6.31212e-13
160	0xb6bb36f5	-5.579432e-06
161	0xb70837f7	-8.119262e-06
162	0xb7976585	-1.8047876e-05
163	0xb6228082	-2.4214683e-06
164	0xb63b7fcc	-2.793956e-06
165	0xb6107e83	-2.1531312e-06
166	0xb7b97a2b	-2.2110607e-05
167	0xb70d988c	-8.4397725e-06
168	0xb722a94a	-9.695368e-06
169	0xb4f4ca67	-4.559581e-07
170	0xb7832419	-1.5633226e-05
171	0xb783d986	-1.571771e-05
172	0xb72d6cb6	-1.0336915e-05
173	0x373b43d8	1.1161865e-05
174	0xb625a3f9	-2.468236e-06
175	0xb70568a6	-7.951783e-06
176	0x389aba99	7.378049e-05
177	0x38facc23	0.000119589524
178	0x3914b1de	0.0001418064
179	0x3947ce04	0.00019054866
180	0x38d861c4	0.00010317893
181	0x38aed1c6	8.33604e-05
182	0x38f3e43f	0.00011629657
183	0x3926a7db	0.00015893525
184	0x3841e305	4.6226214e-05
185	0xb7fa326e	-2.9825806e-05
186	0x390e7f16	0.00013589518
187	0xb503ad30	-4.9053324e-07
188	0x38c33a53	9.309188e-05
189	0x381fed8d	3.812979e-05
190	0x38bd6392	9.030769e-05
191	0x384a9980	4.830351e-05
192	0x39011a41	0.00012312179
193	0x38fe3942	0.00012122329
194	0x38f34b76	0.00011601199
195	0x37d52850	2.541035e-05
196	0x37e8ec84	2.7766691e-05
197	0x37911d5d	1.729902e-05
198	0x390e5bb8	0.00013576343
199	0x3861e84a	5.3860516e-05
200	0x38b1b4ae	8.473672e-05
201	0x383b6914	4.4682136e-05
202	0x3897a856	7.231596e-05
203	0x3888b848	6.5193104e-05
204	0x384cbb9f	4.8812126e-05
205	0x38759012	5.8546728e-05
206	0x389819c5	7.252725e-05
207	0x38ced133	9.861812e-05
208	0x00000000	0.0
209	0x00000000	0.0
210	0x00000000	0.0
211	0x00000000	0.0
212	0x00000000	0.0
213	0x00000000	0.0
214	0x00000000	0.0
215	0x00000000	0.0
216	0x00000000	0.0
217	0x00000000	0.0
218	0x00000000	0.0
219	0x00000000	0.0
220	0x00000000	0.0
221	0x00000000	0.0
222	0x00000000	0.0
223	0x00000000	0.0
224	0xb75dd945	-1.32232135e-05
225	0x37b3ab6d	2.141829e-05
226	0x36f3dbb9	7.2675434e-06
227	0xb6c83d3b	-5.9675926e-06
228	0xb5f0daa0	-1.7945022e-06
229	0x37d21114	2.5041903e-05
230	0x368fc434	4.284573e-06
231	0xb611f991	-2.175195e-06
232	0x35e352e5	1.6936943e-06
233	0x372ed137	1.041992e-05
234	0xb6542b50	-3.1615673e-06
235	0xb691bf92	-4.3436385e-06
236	0xb292f68b	-1.7108752e-08
237	0xb6a03568	-4.774589e-06
238	0xb722cfce	-9.704336e-06
239	0xb69c7ca4	-4.6636724e-06
240	0x396b11a4	0.00022417918
241	0x39770553	0.00023557739
242	0x39783445	0.00023670595
243	0x3936065f	0.00017359246
244	0x394b3339	0.0001937867
245	0x39985ea4	0.00029062212
246	0x395597a6	0.00020369756
247	0x3988a578	0.00026063225
248	0x39953e0f	0.00028465732
249	0x393cf5c7	0.00018020636
250	0x3984edc2	0.00025354145
251	0x39478f27	0.00019031447
252	0x39089582	0.00013025667
253	0x397421d3	0.00023282254
254	0x39892e1d	0.00026165033
255	0x397acc81	0.00023918042

exp_avg_sq f4 [16]
0	0x322b2f0a	9.9642055e-09
1	0x287a4ca0	1.3894403e-14
2	0x2d24366c	9.334405e-12
3	0x37924cea	1.7440372e-05
4	0x36ac94df	5.1433303e-06
5	0x378f4e8c	1.7083505e-05
6	0x2afdce7d	4.5085108e-13
7	0x36089c82	2.0356679e-06
8	0x328eea84	1.6637621e-08
9	0x29102372	3.2005167e-14
10	0x31cd2f4c	5.9716623e-09
11	0x3746347e	1.18139415e-05
12	0x3645ebc3	2.949252e-06
13	0x00000000	0.0
14	0x32c49d4a	2.288893e-08
15	0x390d2506	0.000134606

exp_avg f4 [16]
0	0x3658c593	3.2301512e-06
1	0x324e2600	1.1999418e-08
2	0xb540b249	-7.178501e-07
3	0xb9764d5f	-0.00023489211
4	0xb99fe34b	-0.0003049619
5	0xb803406e	-3.129284e-05
6	0xa91881dc	-3.3863415e-14
7	0xb9202165	-0.0001527123
8	0xb743642a	-1.1646227e-05
9	0xab90a32b	-1.0277104e-12
10	0xb7687e07	-1.3857621e-05
11	0x39bb6000	0.00035738945
12	0x395e8b32	0.00021223424
13	0x00000000	0.0
14	0x34389638	1.7190985e-07
15	0x3a8e2e39	0.0010847516

exp_avg_sq f4 [1, 16, 4, 4]
0	0x3115fcea	2.1826119e-09
1	0x3106ea8b	1.9632889e-09
2	0x310e73c7	2.0729531e-09
3	0x310109d4	1.8777557e-09
4	0x310bac6e	2.0325177e-09
5	0x3132c5ff	2.6014957e-09
6	0x3112e34d	2.1375002e-09
7	0x31092aed	1.9960524e-09
8	0x310626c0	1.9521593e-09
9	0x30cdaa5e	1.4964134e-09
10	0x30f2278d	1.7619058e-09
11	0x30eab2b8	1.7076536e-09
12	0x30e49910	1.6632686e-09
13	0x31044bc2	1.9251591e-09
14	0x30e649a7	1.6755636e-09
15	0x30c3df6a	1.4251615e-09
16	0x232d2cd3	9.387841e-18
17	0x238b12d0	1.5078378e-17
18	0x243714f0	3.9699534e-17
19	0x23eef915	2.5909502e-17
20	0x251cacdd	1.3589411e-16
21	0x24303afb	3.8213875e-17
22	0x2491ece5	6.328504e-17
23	0x24e97a13	1.01254444e-16
24	0x2387f1a4	1.4739068e-17
25	0x2433f8c2	3.9025144e-17
26	0x24464af2	4.2997887e-17
27	0x2508a17a	1.185083e-16
28	0x2516d5f9	1.3082923e-16
29	0x23e6feed	2.5044615e-17
30	0x248be9e9	6.06779e-17
31	0x23d691ff	2.3263758e-17
32	0x28527424	1.1682526e-14
33	0x289c03c7	1.7321117e-14
34	0x29070492	2.9979986e-14
35	0x284b1f46	1.1275545e-14
36	0x28b556e6	2.0132723e-14
37	0x2893d1f4	1.6411331e-14
38	0x28ba3530	2.0673215e-14
39	0x284b017f	1.1269088e-14
40	0x2929f7e3	3.7740546e-14
41	0x29824bb7	5.786294e-14
42	0x292093df	3.5655395e-14
43	0x29003c3b	2.847395e-14
44	0x2962a777	5.0327333e-14
45	0x29bc03f2	8.3495615e-14
46	0x299d7c09	6.993717e-14
47	0x29938c7e	6.552483e-14
48	0x369db05e	4.6994965e-06
49	0x369d1cf1	4.682334e-06
50	0x36991d25	4.563148e-06
51	0x369715ac	4.5026736e-06
52	0x369a7d75	4.6041628e-06
53	0x369c2b1b	4.6541804e-06
54	0x3699a5ad	4.5790425e-06
55	0x36976e61	4.5130005e-06
56	0x36997671	4.5735437e-06
57	0x369bd378	4.643978e-06
58	0x369b211a	4.6232135e-06
59	0x3698c04e	4.55234e-06
60	0x369a7f56	4.6043815e-06
61	0x36998458	4.575162e-06
62	0x36996688	4.5716915e-06
63	0x369988d5	4.5756847e-06
64	0x366e62f2	3.5522357e-06
65	0x36732bb0	3.6235251e-06
66	0x36755722	3.6558563e-06
67	0x367400bc	3.635926e-06
68	0x367409ee	3.6364613e-06
69	0x3678a11a	3.7048653e-06
70	0x367b2f91	3.7429602e-06
71	0x3677bf74	3.6917309e-06
72	0x367386b2	3.6288225e-06
73	0x3677ecae	3.6943634e-06
74	0x367a0b7e	3.7259592e-06
75	0x3677040e	3.6808228e-06
76	0x367151bb	3.5959372e-06
77	0x36732541	3.6231506e-06
78	0x36754246	3.6546421e-06
79	0x3672ae66	3.6162323e-06
80	0x3515a92c	5.5753003e-07
81	0x35108b0e	5.384653e-07
82	0x35025a97	4.85606e-07
83	0x350809c7	5.0678176e-07
84	0x3510050c	5.3651524e-07
85	0x3502c951	4.872173e-07
86	0x352b6b0e	6.385825e-07
87	0x351435da	5.521266e-07
88	0x34f8c724	4.6338494e-07
89	0x352aa576	6.357071e-07
90	0x3529be3a	6.323422e-07
91	0x35213ca3	6.006541e-07
92	0x3507ffaf	5.066349e-07
93	0x352ab870	6.3598327e-07
94	0x353ec5ea	7.106852e-07
95	0x353798fa	6.839542e-07
96	0x24f44608	1.0593677e-16
97	0x2643fbac	6.7995295e-16
98	0x25dd6462	3.840541e-16
99	0x251606de	1.3012753e-16
100	0x25caeb08	3.5200678e-16
101	0x2638d8b8	6.413153e-16
102	0x260223eb	4.515149e-16
103	0x25bb70e1	3.251582e-16
104	0x24b0ad20	7.662112e-17
105	0x25362d54	1.5801341e-16
106	0x2576f55d	2.1420231e-16
107	0x25efb8aa	4.1585024e-16
108	0x24bd38c9	8.206188e-17
109	0x264af488	7.041423e-16
110	0x261b8093	5.395068e-16
111	0x2688351a	9.451289e-16
112	0x36a9e42d	5.0631556e-06
113	0x36af09d4	5.2165506e-06
114	0x36b545d4	5.4023494e-06
115	0x36aa5c21	5.07712e-06
116	0x36c258bb	5.79198e-06
117	0x36b937ed	5.5199403e-06
118	0x36c04db3	5.7310913e-06
119	0x36be7668	5.6762256e-06
120	0x36b14602	5.283161e-06
121	0x36bce099	5.628983e-06
122	0x36c61b5d	5.9040453e-06
123	0x36b93665	5.519762e-06
124	0x36b5bbe1	5.4160923e-06
125	0x36c61625	5.903438e-06
126	0x36ce1327	6.141508e-06
127	0x36ce29f9	6.1441647e-06
128	0x31a75986	4.8705173e-09
129	0x31acab57	5.025338e-09
130	0x31b57029	5.2805444e-09
131	0x31986776	4.4355444e-09
132	0x31c68b0c	5.7783662e-09
133	0x31d01984	6.0564975e-09
134	0x31cf36b6	6.030713e-09
135	0x31b52b98	5.2727493e-09
136	0x31dc9064	6.419258e-09
137	0x31ed7c16	6.9117148e-09
138	0x31d32d87	6.146084e-09
139	0x31c763c0	5.8030025e-09
140	0x32077d92	7.886586e-09
141	0x32107fb7	8.410942e-09
142	0x3207fda9	7.91571e-09
143	0x31e77fcb	6.737513e-09
144	0x252c19c1	1.4927348e-16
145	0x2554b8d7	1.8450695e-16
146	0x251c843f	1.357565e-16
147	0x262af2f8	5.930988e-16
148	0x2591e66a	2.5309625e-16
149	0x2560afa3	1.9488411e-16
150	0x257f7ef0	2.2160732e-16
151	0x25e3a085	3.9486995e-16
152	0x25adbc5d	3.0138356e-16
153	0x2607ab26	4.7069483e-16
154	0x2577b67c	2.1485663e-16
155	0x24f6c434	1.07017875e-16
156	0x253ede04	1.6555095e-16
157	0x261019dc	4.999508e-16
158	0x252efb4f	1.5177241e-16
159	0x249de465	6.847481e-17
160	0x31402ca7	2.796506e-09
161	0x312b6287	2.4939781e-09
162	0x310ddfce	2.0645419e-09
163	0x3104f72a	1.9349025e-09
164	0x313cd677	2.747951e-09
165	0x3150db8f	3.0392788e-09
166	0x30e8dbf0	1.6942732e-09
167	0x312662e2	2.4212388e-09
168	0x314195df	2.8170388e-09
169	0x313f6643	2.7852287e-09
170	0x3100d785	1.874896e-09
171	0x31226ce7	2.3636006e-09
172	0x31368fcc	2.6566225e-09
173	0x3125c17c	2.4120643e-09
174	0x31060f1d	1.9508157e-09
175	0x31029da3	1.9007096e-09
176	0x36c62e4a	5.9062486e-06
177	0x36cb103b	6.051761e-06
178	0x36ca60cb	6.0313373e-06
179	0x36c79a63	5.948635e-06
180	0x36c8dbcb	5.9860517e-06
181	0x36cc77f7	6.0936395e-06
182	0x36cdedb9	6.1371506e-06
183	0x36cbff29	6.079576e-06
184	0x36ca0b3c	6.021377e-06
185	0x36ca0069	6.020117e-06
186	0x36cabb6d	6.0418884e-06
187	0x36c87fe5	5.9753534e-06
188	0x36c38fa2	5.828174e-06
189	0x36c6cd4d	5.92476e-06
190	0x36c6bcae	5.922825e-06
191	0x36c622de	5.904919e-06
192	0x368bd132	4.1668764e-06
193	0x368d1f47	4.2057686e-06
194	0x368d87c9	4.217935e-06
195	0x368a6aae	4.1251396e-06
196	0x368decd7	4.2296992e-06
197	0x368ffbae	4.2910315e-06
198	0x368fb218	4.282465e-06
199	0x368d2e50	4.207519e-06
200	0x368de61c	4.2289157e-06
201	0x3690a8fc	4.311207e-06
202	0x369023fb	4.295723e-06
203	0x368d489c	4.2105803e-06
204	0x368d3b75	4.209049e-06
205	0x368e25a9	4.236314e-06
206	0x368dc042	4.224509e-06
207	0x368c4c54	4.181211e-06
208	0x00000000	0.0
209	0x00000000	0.0
210	0x00000000	0.0
211	0x00000000	0.0
212	0x00000000	0.0
213	0x00000000	0.0
214	0x00000000	0.0
215	0x00000000	0.0
216	0x00000000	0.0
217	0x00000000	0.0
218	0x00000000	0.0
219	0x00000000	0.0
220	0x00000000	0.0
221	0x00000000	0.0
222	0x00000000	0.0
223	0x00000000	0.0
224	0x31839275	3.829252e-09
225	0x31a60a2a	4.8323914e-09
226	0x31c3d0ef	5.699e-09
227	0x31a02231	4.6605e-09
228	0x31aa70a6	4.960458e-09
229	0x31886163	3.9691925e-09
230	0x317ee491	3.709179e-09
231	0x318911e1	3.9892574e-09
232	0x314be1f2	2.9668823e-09
233	0x317a0dd8	3.6387657e-09
234	0x317f4070	3.7144012e-09
235	0x31856d73	3.8832524e-09
236	0x3137c88b	2.6744e-09
237	0x31512df7	3.043963e-09
238	0x315bd794	3.1991236e-09
239	0x318274c8	3.7967745e-09
240	0x377203bb	1.4425193e-05
241	0x377ac4df	1.4946999e-05
242	0x376ddda0	1.4177902e-05
243	0x3764d7a2	1.3640065e-05
244	0x3773391b	1.4497225e-05
245	0x376bf9c0	1.4065241e-05
246	0x376d38f7	1.4139564e-05
247	0x37703363	1.4317079e-05
248	0x376e5374	1.4205336e-05
249	0x376e0c02	1.4188701e-05
250	0x376f20da	1.4253159e-05
251	0x376a95d7	1.3982374e-05
252	0x37675990	1.3789526e-05
253	0x376c59dc	1.4087618e-05
254	0x378ae2f9	1.6556574e-05
255	0x37795327	1.4860917e-05

exp_avg f4 [1, 16, 4, 4]
0	0x369c6b03	4.66162e-06
1	0x361b0133	2.3097498e-06
2	0xb4dece1c	-4.1500687e-07
3	0xb70157dd	-7.709456e-06
4	0xb7072472	-8.055113e-06
5	0xb6372f58	-2.7296683e-06
6	0xb6ce5371	-6.1489923e-06
7	0xb6d772e9	-6.4208766e-06
8	0xb6373c0a	-2.7304072e-06
9	0xb4847da4	-2.4678332e-07
10	0xb6832afc	-3.9091083e-06
11	0xb606afad	-2.0069813e-06
12	0xb28c81c9	-1.6357165e-08
13	0xb6109a27	-2.15474e-06
14	0xb63a86c1	-2.7794597e-06
15	0x36b54342	5.40205e-06
16	0xafbc35c9	-3.4235217e-10
17	0x2f84e7d0	2.4175373e-10
18	0x3010599f	5.2514254e-10
19	0xb0065a32	-4.887709e-10
20	0x2fafbed2	3.19679e-10
21	0x30b24232	1.2970018e-09
22	0x3127383d	2.4333666e-09
23	0x31659a08	3.3411443e-09
24	0x30b4ddb8	1.315974e-09
25	0x311b1158	2.2565327e-09
26	0xafbee776	-3.4725262e-10
27	0xb16e493f	-3.4675194e-09
28	0xb13176c5	-2.5824403e-09
29	0xb10427d7	-1.9231174e-09
30	0xb15f9b78	-3.2539145e-09
31	0xafdaa48b	-3.9770884e-10
32	0x34a2c6ce	3.03195e-07
33	0xb4bfb3ca	-3.5707336e-07
34	0xb5708fd8	-8.961629e-07
35	0x344d696b	1.9130464e-07
36	0x34e04c84	4.1778924e-07
37	0xb4016c49	-1.2053455e-07
38	0xb4db668c	-4.0866541e-07
39	0x3458fd45	2.0208707e-07
40	0x349486fe	2.7665368e-07
41	0xb523bbed	-6.09957e-07
42	0xb4a20a56	-3.0182372e-07
43	0x350d5920	5.2656287e-07
44	0x34bc980b	3.5128355e-07
45	0xb4fe6ad6	-4.738892e-07
46	0x351e1d33	5.890208e-07
47	0xb5022df1	-4.849563e-07
48	0xb926a48c	-0.00015892292
49	0xb87b6838	-5.9940125e-05
50	0xb93afaef	-0.00017831822
51	0xb93a156f	-0.00017746327
52	0x36fb3bf4	7.4873624e-06
53	0xb8a3128f	-7.7759025e-05
54	0xb8f91c59	-0.000118785254
55	0xb92c4c7a	-0.00016431688
56	0xb8a4f19d	-7.8651334e-05
57	0xb8fd4100	-0.00012076087
58	0xb84e8938	-4.9242022e-05
59	0xb938b463	-0.00017614807
60	0xb8d7e5e7	-0.000102948215
61	0xb8d0ec15	-9.9621866e-05
62	0xb90d53dc	-0.00013478048
63	0xb872ebf2	-5.7917037e-05
64	0xb8aa74d8	-8.1279955e-05
65	0xb90a1eae	-0.00013172135
66	0xb8aac9d4	-8.143825e-05
67	0xb84e6e27	-4.9216815e-05
68	0xb7a26466	-1.9358657e-05
69	0xb88916c3	-6.536909e-05
70	0xb8d241eb	-0.000100258585
71	0xb8d3be6a	-0.000100967314
72	0xb8e92a67	-0.00011118204
73	0xb8b3ea1f	-8.5789936e-05
74	0xb899a931	-7.327123e-05
75	0xb90d49d4	-0.00013474311
76	0xb885dc3d	-6.382957e-05
77	0xb856be66	-5.11989e-05
78	0xb7ef06f9	-2.8494267e-05
79	0xb8ec4727	-0.0001126661
80	0xb6002195	-1.9093034e-06
81	0xb58fbee4	-1.0709887e-06
82	0x352ddb65	6.4766783e-07
83	0xb52bf9cf	-6.4065983e-07
84	0x3076b9b0	8.9758156e-10
85	0xb45d03fe	-2.0583681e-07
86	0x3470bb19	2.2419808e-07
87	0xb1d70bd7	-6.2586696e-09
88	0x35c72307	1.483685e-06
89	0xb535d1f9	-6.7733305e-07
90	0xb0c87203	-1.4584319e-09
91	0xb4bc920b	-3.512399e-07
92	0x35af4c97	1.3060807e-06
93	0xb5c27771	-1.4488888e-06
94	0xb5551e21	-7.9392527e-07
95	0xb4fe074e	-4.7316502e-07
96	0x1a30dfcb	3.6576725e-23
97	0xa4a737c8	-7.25192e-17
98	0x238b8e12	1.513058e-17
99	0x23c24a38	2.1064955e-17
100	0xa719deca	-2.135379e-15
101	0x26d82f80	1.5000886e-15
102	0xa5478071	-1.7304016e-16
103	0xa52d7470	-1.5044809e-16
104	0x27a40162	4.5520643e-15
105	0xa7409be8	-2.672987e-15
106	0x23bd6f5b	2.0538582e-17
107	0x24b31d44	7.7678453e-17
108	0x27c9a445	5.596681e-15
109	0xa7ca540d	-5.615739e-15
110	0xa4a8a00f	-7.3129536e-17
111	0xa530bc19	-1.5329297e-16
112	0xb71a7f87	-9.208808e-06
113	0xb89839e5	-7.2587085e-05
114	0xb8b69300	-8.705817e-05
115	0xb8a265b1	-7.7437035e-05
116	0x381ac63a	3.6901074e-05
117	0xb86defe7	-5.672863e-05
118	0xb8da12cb	-0.000103985505
119	0xb85b4280	-5.22756e-05
120	0xb8e6f125	-0.00011012171
121	0xb80bd799	-3.3340973e-05
122	0xb818d986	-3.644221e-05
123	0xb81c24b4	-3.722748e-05
124	0xb84dcef9	-4.9068567e-05
125	0x37684b46	1.3845804e-05
126	0xb872bdea	-5.7874167e-05
127	0x3886c77b	6.426774e-05
128	0x3610d8bd	2.158383e-06
129	0x36919e2f	4.3397517e-06
130	0x372ae8ca	1.018699e-05
131	0xb66a63bd	-3.4926773e-06
132	0xb66310cb	-3.383541e-06
133	0xb6e48eb2	-6.8115414e-06
134	0xb67380d7	-3.6284816e-06
135	0xb7415f72	-1.1525919e-05
136	0x37bca818	2.2489621e-05
137	0x36ef4ff0	7.132061e-06
138	0xb6a1a7d3	-4.817711e-06
139	0xb7254e67	-9.853021e-06
140	0xb69c3a7d	-4.655971e-06
141	0xb75b0bf1	-1.30561975e-05
142	0xb7348032	-1.0758684e-05
143	0xb66c98c7	-3.5255669e-06
144	0x2793a6be	4.098148e-15
145	0xa7d75735	-5.9769038e-15
146	0x286e0b66	1.3214126e-14
147	0xa85a6dd2	-1.21252445e-14
148	0xa8a0f043	-1.7867765e-14
149	0x28bfaf3b	2.1281254e-14
150	0xa886aeb8	-1.495276e-14
151	0xa70364a8	-1.8234468e-15
152	0xa73bd65d	-2.606767e-15
153	0x28bddc63	2.1078793e-14
154	0xa86df927	-1.3210169e-14
155	0x28947cff	1.648551e-14
156	0x28370bed	1.0161127e-14
157	0xa83b30a3	-1.0391132e-14
158	0xa780504e	-3.5614203e-15
159	0x288f8016	1.5931738e-14
160	0xb4eb8a36	-4.3872723e-07
161	0xb781d7e4	-1.547853e-05
162	0xb5113e02	-5.410694e-07
163	0xb67340f9	-3.624764e-06
164	0xb5b182ec	-1.3225631e-06
165	0xb781a2bc	-1.5453777e-05
166	0x35c916b5	1.4982276e-06
167	0xb630042c	-2.6228472e-06
168	0x36f5173e	7.3042747e-06
169	0xb798f57b	-1.8234123e-05
170	0x3456185a	1.9939162e-07
171	0x3406a1b3	1.2538548e-07
172	0x360f01b0	2.1309643e-06
173	0xb7bb3208	-2.2315435e-05
174	0x36517056	3.1208815e-06
175	0x36c2706c	5.794738e-06
176	0x383092e1	4.209846e-05
177	0x38f9c5a4	0.00011910059
178	0x391e94a3	0.00015123426
179	0x38f2d007	0.00011578207
180	0x38cca5b5	9.7583434e-05
181	0x38840986	6.2960244e-05
182	0x39749fc4	0.0002332917
183	0x3882a0ba	6.228821e-05
184	0x38e497b4	0.00010900144
185	0x388f1688	6.822968e-05
186	0x3874233b	5.8206944e-05
187	0x38367789	4.3503507e-05
188	0x388ed146	6.810068e-05
189	0x390744cc	0.00012900232
190	0x38f44480	0.00011647586
191	0x388d373c	6.733692e-05
192	0x37ffa7cb	3.0476504e-05
193	0x38a8aeeb	8.043445e-05
194	0x3974ea0c	0.00023356843
195	0x390730a5	0.00012892725
196	0x38bd1330	9.015796e-05
197	0x387a9142	5.9739927e-05
198	0x394678cb	0.0001892775
199	0x380ea8c1	3.4012603e-05
200	0x38e58c6f	0.00010945729
201	0xb83983a8	-4.423005e-05
202	0x3923afb2	0.00015610343
203	0x390f2dc1	0.00013654587
204	0x38d970c7	0.00010368373
205	0x379eb613	1.8919853e-05
206	0x38db9218	0.00010469946
207	0x38d64d7d	0.000102187485
208	0x00000000	0.0
209	0x00000000	0.0
210	0x00000000	0.0
211	0x00000000	0.0
212	0x00000000	0.0
213	0x00000000	0.0
214	0x00000000	0.0
215	0x00000000	0.0
216	0x00000000	0.0
217	0x00000000	0.0
218	0x00000000	0.0
219	0x00000000	0.0
220	0x00000000	0.0
221	0x00000000	0.0
222	0x00000000	0.0
223	0x00000000	0.0
224	0x349cd843	2.9214615e-07
225	0xb782533c	-1.5535967e-05
226	0x370e1b9f	8.470291e-06
227	0xb775b07a	-1.4644227e-05
228	0x373db86d	1.1308218e-05
229	0xb69d4cf3	-4.6879227e-06
230	0x37425746	1.1583621e-05
231	0xb704a8a1	-7.907075e-06
232	0x3753f4b8	1.2633558e-05
233	0x3633b2f1	2.6777236e-06
234	0x36ab45a4	5.1043044e-06
235	0xb7136fed	-8.7879425e-06
236	0x374daa36	1.22585825e-05
237	0x37430183	1.1623258e-05
238	0x3745d7ed	1.1792389e-05
239	0xb69e358b	-4.715e-06
240	0x393292c7	0.00017030082
241	0x3996743a	0.00028696825
242	0xb94b552e	-0.0001939132
243	0x392085f1	0.00015308686
244	0x38b17e8e	8.46359e-05
245	0x39364d56	0.00017385682
246	0x39052c45	0.0001270036
247	0x385802aa	5.1500894e-05
248	0x38d6d62c	0.00010244208
249	0x399f8cc9	0.00030431736
250	0x38c02547	9.162217e-05
251	0x3961754a	0.00021501366
252	0x395743cf	0.00020529258
253	0x390d2990	0.00013462291
254	0xb9265664	-0.00015863177
255	0x38898c81	6.55884e-05
