pre-trained/DCT4_soft-thr_L2_dct-init_1500.pt (torch_old, 377778 bytes, 3 tensors)

thr f4 [1, 16, 1, 1]
00000000: 452b eeb7 63a5 4d3e fdbd 473e 970f 733e
00000010: e23f 483e 2d11 553e 4fdc 613e 83f8 7a3e
00000020: 73ca 403e 510f 663e 7562 853e 7586 5d3e
00000030: 7385 6e3e 9665 773e a290 5a3e 9e8c 4a3e
-2.839196e-05 0.20082621 0.19506069 0.23736416 0.1955562 0.20807333 0.22056697 0.24508862
0.18827228 0.2246678 0.2605168 0.21633323 0.23293094 0.24159846 0.21344236 0.19780204

weight f4 [16, 1, 4, 4]
00000000: dcec 803e 7a63 7f3e 844c 7f3e 19cb 803e
00000010: 9ca2 7f3e f2ef 7c3e b4df 7c3e bb72 7f3e
00000020: 207d 7f3e 11e7 7c3e aff6 7c3e d6a4 7f3e
00000030: 7ece 803e 2d50 7f3e d765 7f3e aeeb 803e
00000040: f2a6 903e cfe5 333e 54bf b1bd 1a65 8fbe
00000050: f6ee a33e e657 613e 43ac 2dbe 70ca a7be
00000060: 6b10 a73e db15 323e c32a 5cbe 65a3 a4be
00000070: 9848 8d3e 787f b43d 0b7b 34be 632b 92be
00000080: f485 6a3e 7009 84be 6fe5 83be 9630 683e
00000090: bdd0 843e 47b4 6abe 2fa8 68be 5448 873e
000000a0: 3617 853e 1a78 69be aa9f 69be c8e3 863e
000000b0: cf3c 663e bb6f 84be 14b1 83be 065b 6a3e
000000c0: 142d 403b 8e04 90be f830 943e b4df b8bc
000000d0: 94ff 513d 9c34 9abe 03e6 9b3e 0b4e 6cbd
000000e0: b44d 5f3d 7c9f 9dbe 0498 9c3e 94ef 66bd
000000f0: f05e b63c 7c6e 94be a76e 943e 90cb 8bbb
00000100: df9b 943e 870d a83e bfd8 a43e 5ddf 913e
00000110: bc94 f03d fca8 373e e880 4e3e 02ed 1d3e
00000120: b244 1bbe de7f 42be 329b 30be 6541 f7bd
00000130: 33a3 95be fc3d a6be 5242 a9be 1a8e 97be
00000140: 9a38 cd3e e856 3e3e 1546 4ebe d11b bdbe
00000150: 775b 783e 5651 c8bc 2099 20be 2924 a3bd
00000160: ae7c a7bd bb9d 22be d5f6 bbbc b2e2 7c3e
00000170: 2bcd bbbe abc1 47be cacf 3c3e c06e cb3e
00000180: 7a8e 083e 2490 a2be 48c8 8fbe b8d5 273e
00000190: eeff 8e3e e47a 203d b7a8 b6be 6680 96bd
000001a0: a0d6 8d3d 2473 b63e fedd 0dbd 7fbb 8fbe
000001b0: f90a 24be 476e 903e 8374 a03e a435 07be
000001c0: 14e8 2e3d a04a a9be cb30 c43e 94f1 97bc
000001d0: e088 f9bd d51a fdbc 3320 903e 6c77 3ebe
000001e0: cfd8 2ebe 44ac 923e 0597 51bd fc8b 0dbe
000001f0: db9c 6ebc 51b2 c23e a313 b6be 7ed3 003d
00000200: 3ec0 5c3e fe8b 813e a191 873e 28de 6a3e
00000210: 027e 87be 4f91 70be 9fc8 6cbe 02e7 86be
00000220: 99bd 82be a55a 64be e83e 69be 5664 84be
00000230: d7e4 753e 9169 8d3e c3c3 873e 26e9 693e
00000240: a5e7 2b3e f9e2 86bc 13e0 86be fe27 58be
00000250: 49bb 99be a7f2 a5be a777 08bd c57e 9f3e
00000260: a20f 9abe 2c57 023d 4573 a13e 0021 a03e
00000270: 3e35 583e 35c5 7f3e c233 6a3c 8423 29be
00000280: 130f 613e c91d 73be ee88 57be b0fe 803e
00000290: af51 7ebe 49e9 5a3e b862 783e 755f 6cbe
000002a0: 029a 6bbe 5740 793e 1546 5a3e 6216 7fbe
000002b0: 32bc 813e 029a 57be 2ca1 74be 9662 613e
000002c0: 4543 1e3e 978f 8cbe d1a4 853e 3a27 d6bd
000002d0: fa04 59bd fa21 9d3e 6290 a3be d0eb ad3d
000002e0: 0b68 b3bd 6feb a13e 6434 9ebe 6048 563d
000002f0: 590d e03d 840c 85be 72d6 8c3e 895e 1bbe
00000300: 91a7 d03c 4b63 773d 92a1 713d a150 3b3c
00000310: 834f a1be 909a 9ebe b9e1 a0be fdf1 99be
00000320: 335c 923e 3ffd 9b3e bcf4 9a3e 491b 9c3e
00000330: bea5 31ba 99f7 39bd cbab 42bd a10a 99bc
00000340: 4b39 ef3c ba79 4d3e 0230 0b3e 302e 56bc
00000350: 7790 cdbe f1e3 89be 2d50 9a3d 9d15 bf3e
00000360: 9c9e 9a3e f402 743c 6726 93be 3084 c6be
00000370: 27c3 a1bc 0a7c d03d 58e8 173e f990 233c
00000380: 9189 003e 826e adbd 63a5 6bbd ed9f 1e3e
00000390: 757a 85be 854a a43e 2c5c 9d3e dddf 8dbe
000003a0: 665a 903e cad9 9cbe 7c0e a3be 7ccb 873e
000003b0: c1ae 19be 06a7 443d a8fb 983d bc50 01be
000003c0: 5d9f 8f3d b0ac 19be d5f2 1d3e 84e0 91bd
000003d0: f4cd 1bbe d0da cf3e 5fc3 cfbe f57e 1a3e
000003e0: dbb6 1b3e b5a6 cfbe 09eb cf3e 7ed3 1dbe
000003f0: d53f 93bd 3b76 1c3e 9393 1abe 8e91 893d
0.2518071 0.24940291 0.24931532 0.2515495 0.24964374 0.24700907 0.24694711 0.2494611
0.24950075 0.2469752 0.24703477 0.24965224 0.2515754 0.24932928 0.24941193 0.2517981
0.2825237 0.17568134 -0.08679071 -0.28006822 0.3201825 0.22006187 -0.16960244 -0.32771635
0.32629713 0.1739115 -0.21500687 -0.3215591 0.27594447 0.08813375 -0.17625062 -0.28548726
0.22902662 -0.2578845 -0.2576098 0.22674784 0.25940505 -0.22920333 -0.22720407 0.2642237
0.2599427 -0.22799721 -0.22814813 0.26345658 0.22484134 -0.25866494 -0.25721037 0.22886285
0.0029323744 -0.28128475 0.2894361 -0.022567607 0.05126913 -0.30118263 0.30448923 -0.057691615
0.054517463 -0.3078574 0.3058473 -0.056380823 0.022262067 -0.28990543 0.2899067 -0.00426621
0.2902517 0.3282282 0.32196614 0.28490725 0.11747119 0.17935556 0.20166361 0.15422443
-0.15162924 -0.1899409 -0.17246702 -0.1207302 -0.29226074 -0.32469165 -0.3305841 -0.29600602
0.40082246 0.1858784 -0.20143922 -0.36935285 0.24253641 -0.024452846 -0.15683413 -0.079658814
-0.08178078 -0.15880482 -0.022944847 0.24695852 -0.36679968 -0.19507472 0.1843864 0.39732933
0.133356 -0.31750596 -0.2808249 0.16390121 0.27929634 0.039179698 -0.35675594 -0.07348709
0.06925702 0.3563472 -0.034635536 -0.28072736 -0.1601981 0.28209135 0.3133889 -0.13204056
0.042701796 -0.33064747 0.38318476 -0.01854781 -0.1218431 -0.030896584 0.28149566 -0.18600243
-0.17074893 0.28647053 -0.051169414 -0.13822931 -0.014563764 0.3802667 -0.35561857 0.031451695
0.2155771 0.25302118 0.26478294 0.22936308 -0.26463324 -0.23492931 -0.23123406 -0.2634812
-0.25535277 -0.22300203 -0.22777903 -0.258578 0.24013077 0.27619603 0.26516542 0.22842845
0.16787584 -0.01646565 -0.2634283 -0.21109006 -0.300257 -0.32411692 -0.033317234 0.31151405
-0.30090052 0.031821415 0.31533256 0.31275177 0.2111406 0.24977572 0.014294567 -0.16517454
0.21978407 -0.23741831 -0.21048328 0.2519431 -0.24835847 0.21378054 0.24256408 -0.23083289
-0.23007968 0.2434095 0.21315797 -0.24910882 0.25338894 -0.21054843 -0.23889607 0.22010264
0.15455349 -0.274533 0.26102307 -0.104567006 -0.05298326 0.30689985 -0.31946093 0.08492243
-0.08760079 0.31624934 -0.30899346 0.052315116 0.10940046 -0.2598611 0.2750736 -0.15172781
0.025470527 0.060397428 0.058991976 0.011432798 -0.31505975 -0.30977297 -0.31422213 -0.30067435
0.28585967 0.3046665 0.30264843 0.30489567 -0.00067767117 -0.045402143 -0.047527116 -0.018681826
0.029202124 0.20065966 0.13592532 -0.013072535 -0.4014928 -0.26931718 0.075348236 0.37321177
0.30199134 0.014893282 -0.28740236 -0.38772726 -0.019746376 0.101799086 0.14834726 0.009983295
0.12552477 -0.08468343 -0.057530772 0.15490694 -0.2606999 0.32088104 0.30734384 -0.27709857
0.2819397 -0.3063491 -0.31846988 0.26522434 -0.1500807 0.04801085 0.074698746 -0.12628454
0.07012818 -0.15007281 0.15424664 -0.07122901 -0.15215284 0.40596628 -0.40578744 0.15087493
0.15206473 -0.40556875 0.40609005 -0.15412709 -0.07189909 0.15279476 -0.15095358 0.067172155

weight f4 [1, 16, 4, 4]
00000000: 679d 943c 1e46 803c 89b4 7e3c 8542 923c
00000010: 4d64 823c fed1 573c 15ae 563c 74df 803c
00000020: 9827 813c 740f 573c 4426 583c ce6f 823c
00000030: 7c6c 923c 59db 7e3c 4353 803c 738e 943c
00000040: 8cd8 eabc a734 a4bc 1c66 133c db80 fa3c
00000050: cb04 c6bc e82e e7bc bcfa 9a3c 69bb f23c
00000060: ee9e f6bc f0eb 92bc f451 ee3c c854 c43c
00000070: 13a4 febc 50e4 13bc 4ad5 9f3c f3fe e93c
00000080: 97ae 813c 6539 82bc 4ec2 45bc 2b5a 9d3c
00000090: c124 8a3c b6d5 92b8 f6ec 383b de41 973c
000000a0: 5ba0 983c adfd 173b 8307 26b8 2b5c 853c
000000b0: 7a32 9d3c e052 41bc d6ec 85bc 5896 7e3c
000000c0: ab43 c6bb 7e44 453d afb9 43bd a2ab 3f3c
000000d0: 2a33 c8bc 5a92 3a3d e542 36bd f0d7 b13c
000000e0: ba4e afbc 4f62 2f3d 6af0 34bd af4c c23c
000000f0: 2d20 3cbc faaa 433d c154 3cbd 0bcd a13b
00000100: 411a febc a00c dfbc a6b4 c5bc 9602 f2bc
00000110: 2bd7 46bc 0db4 83bc 9dcf aabc 512c 9bbc
00000120: b7ac a33c 7859 bb3c 177b 8b3c 3293 4a3c
00000130: f0d8 e53c a078 c23c 958f dd3c ba8d f53c
00000140: fd27 f23c d396 883c 174a 92bc 0d87 ecbc
00000150: 34f1 ae3c 8159 eabb 169a f1bb 9cac f6bb
00000160: 81ce f1bb 2260 edbb 22ad fcbb 4941 b33c
00000170: 57c0 edbc 97d2 96bc ce51 8b3c cae8 f33c
00000180: 9780 90bc 03a9 4b3d 40cc eb3c 070a a8bc
00000190: 6e8e 43bd 883f 66bc bf39 a13d 770a 393c
000001a0: 9266 5ebc 509e a2bd ce18 883c 60cb 493d
000001b0: dade ba3c 987e e7bc 9a29 51bd bdf3 843c
000001c0: 9dbc 4a3c add6 6bbd 1798 763d e92a 253b
000001d0: 0b92 04bd f333 423b 9b21 843d 0639 3abd
000001e0: ee5e 4fbd 503d 823d 1493 df3b b86a e8bc
000001f0: 2b65 213b 7b2f 693d d57f 53bd 9ee2 483c
00000200: bddf 9c3c a14c 8b3c 5f13 a73c ca73 983c
00000210: d709 58bc eeda 24ba 1eb4 8737 f754 70bc
00000220: 80f9 8bbc 89fb e1ba 0e79 f2ba 5a38 78bc
00000230: 8765 8c3c ca0c 9f3c 485b 813c 263a 8d3c
00000240: 309c c2bc 15ad 36bb a35d 193d 38d6 be3c
00000250: 19f1 ce3c 8982 8e3d 8fa3 813c 52ac 38bd
00000260: ee79 473d 362d 8abc 5f5b 8dbd be37 c2bc
00000270: d268 bfbc c2e2 24bd 021c 6a3b e3db b83c
00000280: 58e6 e03c 76ec 9bbc fa4e 8cbc 933a ff3c
00000290: c257 c4bc 9b92 163b c988 d13b 7d3d d8bc
000002a0: 25c7 dfbc ea34 d13b 56d8 3f3b 3db6 c3bc
000002b0: e053 fa3c 34cf 8abc 60f7 9fbc 47b6 d93c
000002c0: 0634 27bc bb49 6f3c cc63 b6bb d9a7 e7ba
000002d0: 73a8 a1ba 9cca 38bc 4106 973c 6257 f2bb
000002e0: 2ba4 013c 661c 94bc df59 443c c3e7 093b
000002f0: d491 103b 9625 ac3b 7f63 6cbc cf30 2e3c
00000300: fed5 1fbc ebbe 86bc ef9f 92bc c462 a6ba
00000310: 57bd 483d cc5a 133d d716 163d b3b1 253d
00000320: 14a7 40bd 6f39 28bd e4d4 18bd 73ae 58bd
00000330: 0803 9e3b 0603 a73c d07d 963c f08a 453c
00000340: 2136 7ebb 510b 233d 639d dc3c 5a10 6abb
00000350: d085 80bd 7a6e 74bd 1001 74bc aa45 323d
00000360: efd9 7b3d 4972 bbba e7bd 6ebd b830 75bd
00000370: 54b6 9cbb ddd7 0c3d 94f8 613d 2f53 e3ba
00000380: 3d18 443a cd3e e53b 5698 e5b8 d6b9 17bc
00000390: c09f ed3b 9786 49bc f59e 03bc a9d5 473c
000003a0: 4f09 2abc 512b 123c fd99 853c e1e7 94bb
000003b0: b31c 163c 80cd 5839 3ae1 e1bb 957b 23bb
000003c0: d892 8c3b d03c 9a3a d138 1cbb a39c 6bbb
000003d0: 4c1b 663b 8f54 513b 4617 23bb a538 bbb8
000003e0: ebdf 7eb9 238b 3dbb 7f74 3b3b d742 2c3b
000003f0: 846a 74bb a6c7 28bb e272 8139 0856 5a3b
0.018141462 0.015658434 0.015545973 0.017853985 0.015916968 0.013172625 0.013103028 0.01573155
0.01576595 0.013126243 0.013192717 0.015922453 0.017873995 0.015555226 0.015664702 0.018134331
-0.02866771 -0.020044638 0.008996513 0.030579021 -0.024172207 -0.028220609 0.018918388 0.02963038
-0.03010508 -0.01793477 0.029091813 0.023966208 -0.031084096 -0.009026602 0.019510884 0.028563952
0.015830321 -0.015896508 -0.012070252 0.019208035 0.016863229 -7.001629e-05 0.0028217412 0.018464025
0.018631151 0.0023191974 -3.958448e-05 0.0162793 0.019189108 -0.011799544 -0.016348284 0.015538774
-0.006050547 0.048161022 -0.047784504 0.011698635 -0.02443846 0.045549728 -0.04449739 0.021709412
-0.021399844 0.042818364 -0.04417459 0.023718206 -0.011482281 0.047770478 -0.045979265 0.004937773
-0.031018378 -0.0272277 -0.024133991 -0.029542249 -0.012136261 -0.016077066 -0.02085095 -0.01894203
0.019979818 0.02286981 0.017026467 0.012364196 0.028057545 0.02373916 0.027046004 0.029974807
0.029560084 0.016673481 -0.017857594 -0.028872991 0.021355249 -0.007151783 -0.007373105 -0.007527901
-0.0073793535 -0.007244126 -0.0077110687 0.021881716 -0.029022379 -0.018410964 0.017006781 0.029774088
-0.017639441 0.04972173 0.028783917 -0.020512594 -0.047743253 -0.014053233 0.07872342 0.011293999
-0.013574259 -0.07940352 0.01661339 0.04926622 0.022811342 -0.028258607 -0.051065065 0.016229505
0.0123740705 -0.057577778 0.060203638 0.0025202578 -0.03236584 0.0029633015 0.06451722 -0.045464538
-0.05062764 0.06359351 0.006822953 -0.0283712 0.0024626951 0.056930047 -0.051635582 0.012261061
0.019149655 0.017004313 0.020394979 0.0186099 -0.01318594 -0.00062887266 1.6177128e-05 -0.014668695
-0.017086744 -0.0017241101 -0.0018499212 -0.015150154 0.017138256 0.019415278 0.015790597 0.017239641
-0.023756117 -0.002787416 0.037442815 0.023295507 0.025261449 0.06958491 0.015825061 -0.045086212
0.048700266 -0.016867261 -0.06902193 -0.02370822 -0.023365412 -0.040255316 0.003572226 0.022565788
0.027453586 -0.019033652 -0.017127503 0.03115586 -0.023967627 0.0022975567 0.00639448 -0.026396507
-0.02731664 0.0063844817 0.0029273233 -0.023890609 0.030557573 -0.016944505 -0.019527137 0.026576174
-0.010205274 0.014604981 -0.005566096 -0.0017673924 -0.0012333527 -0.011278775 0.0184356 -0.0073956707
0.007912676 -0.018079948 0.011984318 0.0021042682 0.0022059577 0.005253504 -0.014428019 0.010631754
-0.00975561 -0.016448459 -0.017898528 -0.0012694229 0.049008694 0.035975263 0.036642876 0.04045267
-0.047034338 -0.041070398 -0.037312403 -0.052900743 0.0048221387 0.020387184 0.018370539 0.012057051
-0.0038789588 0.039805714 0.026930517 -0.0035715313 -0.06275523 -0.05967567 -0.014892831 0.043523468
0.061487135 -0.0014301027 -0.058286574 -0.059860915 -0.0047824774 0.03438555 0.055168703 -0.0017343516
0.00074804184 0.006996012 -0.00010947946 -0.009260615 0.0072517097 -0.012300155 -0.008033504 0.012196937
-0.010378196 0.00892146 0.016308779 -0.0045442437 0.009162116 0.0002067592 -0.006893304 -0.0024945487
0.004289966 0.0011767391 -0.0023837576 -0.0035951517 0.0035111485 0.003194127 -0.0024885698 -8.927406e-05
-0.00024306744 -0.0028922043 0.0028603373 0.0026284957 -0.0037294934 -0.0025753765 0.00024690392 0.0033315439
