pre-trained/DCT4_soft-thr_L2_rnd-init_1600.pt (torch_old, 350404 bytes, 10 tensors)

weight f4 [16, 1, 4, 4]
000000 c6 b4 2a be 73 c2 03 bf 8b a8 1d bf 00 ba df be
       -0.16670522 -0.5146858 -0.615853 -0.43696594
000010 fd 7e 2d bd 3f 44 8f 3d 2c e9 68 3d 17 4f 07 3f
       -0.042357434 0.06995439 0.056862995 0.52855057
000020 e7 e5 8b 3b e5 39 9d 3e 81 34 cb 3e ac 14 89 3e
       0.00426935 0.30708233 0.39688495 0.26773584
000030 ec 92 35 bc 2c 8d 90 3e 31 e0 23 3e 87 5c 92 be
       -0.011082392 0.28232706 0.16003491 -0.28586218
000040 48 16 f8 bd ab 64 07 3d 6d 86 97 3d a6 6d a9 3d
       -0.12113625 0.03305499 0.073986866 0.08272867
000050 dd 02 cd 3e 97 cd 24 be da 45 f4 3d fe 3d 34 be
       0.40041247 -0.16094051 0.11927386 -0.17601773
000060 94 8a 28 be 88 16 74 3e 1a f7 e0 be 59 4b 4e 3d
       -0.16459113 0.2383672 -0.43938524 0.050364826
000070 84 c1 41 3e d2 91 2b 3e eb c2 1d 3c 1f 64 e0 bd
       0.18921477 0.16754845 0.009628992 -0.109565966
000080 07 a0 ec 3e 1d 1a a8 be 17 ef a7 3e 8b 70 f8 be
       0.4621584 -0.32832423 0.327996 -0.48523363
000090 8d e4 b4 3c bd 5d 92 bd 16 30 a5 3d 76 33 ca 3d
       0.022081638 -0.071467854 0.08065812 0.09873097
0000a0 aa ab 82 be 7c 12 1c be fd 30 a1 3e b4 a2 b4 be
       -0.25521594 -0.15241426 0.31482688 -0.35280383
0000b0 33 d6 18 be da 59 48 bd 43 07 64 bc 89 b6 55 be
       -0.1492546 -0.048913814 -0.013917747 -0.20870413
0000c0 df 1d 99 3d 0f 16 7a 3e d3 c0 97 3e fa 9b 3c 3e
       0.074764006 0.24422477 0.296393 0.18418875
0000d0 96 ce 61 3e 2a fe 96 3e 91 1b da 3e 3a 4e 0d bd
       0.22051463 0.29490787 0.42599156 -0.03449843
0000e0 18 a2 77 3e 26 3d a3 bd a6 28 6c 3e 5d b5 ff bd
       0.24182928 -0.079706475 0.23062381 -0.12485764
0000f0 65 89 f5 3d a5 42 cf bd 89 96 bf 3e f8 bd d8 3e
       0.119890966 -0.10120133 0.37419537 0.42332435
000100 e8 6a d8 3d 16 b8 70 3e 46 f8 bb bd 9f d4 ba 3d
       0.10567266 0.23507723 -0.09178214 0.091225855
000110 72 d4 92 3e 33 bf a9 3e 77 52 46 3e c3 7c 16 3d
       0.28677708 0.33153686 0.19367395 0.036740076
000120 62 1f c5 3e f3 b6 8b 3e b2 70 fb 3e ba 78 58 3e
       0.38500506 0.27288017 0.49109417 0.21139804
000130 5a db a8 3d bf 24 fc 3d 86 81 c0 3d 7a 98 ae bd
       0.08244963 0.12311696 0.09399705 -0.08525176
000140 7a 3c 29 be c3 9d 2d bc d9 30 be 3e 40 53 10 bf
       -0.16526976 -0.010596695 0.37146643 -0.5637703
000150 de b6 89 3d d4 b8 a4 3c a7 39 36 be 9e 0c 3b bd
       0.06724332 0.020107664 -0.1779543 -0.04566633
000160 65 8f 22 be a4 c2 2c 3b 7d 88 25 3e c5 cc a9 3c
       -0.15875013 0.0026361132 0.16165347 0.020727525
000170 21 aa f6 bd bd e2 80 be 8b ce eb 3d 1e e3 47 3e
       -0.12044168 -0.25172988 0.11514004 0.19520232
000180 f2 da 4d be 1f bb 55 be 93 4e 4f 3e 1d fb 6a be
       -0.20103052 -0.20872162 0.20244817 -0.22947355
000190 0e c7 6d be 5d ac 08 be 0a 93 af ba 0c 1a 9a 3d
       -0.23220465 -0.13347001 -0.0013395261 0.07524499
0001a0 e1 3f a6 bd 93 3d 53 3e 1c 58 8b 3d 09 a3 80 3e
       -0.08117653 0.20628957 0.06803915 0.25124386
0001b0 db e2 a4 be b1 36 ef 3c a7 ba de 3d c3 34 30 be
       -0.32204327 0.029200884 0.10875445 -0.17207627
0001c0 06 6f 05 3e 8a a4 05 3e 65 6c 87 3e 12 14 55 3e
       0.13030633 0.13051048 0.26449886 0.20808437
0001d0 a0 e8 3f 3d 33 d2 78 3e 49 fc 24 be 6c 00 5c 3e
       0.046852708 0.24298935 -0.16111864 0.21484536
0001e0 72 0c fb 3d b9 25 0c 3e a8 6b 50 3e 1f 93 9e 3e
       0.12258233 0.13686265 0.20353568 0.3097162
0001f0 7c f2 d9 3d a5 24 70 3e fd c7 98 bd 69 6e 13 3e
       0.10641953 0.23451479 -0.0746002 0.14397587
000200 3f ba 4e 3e 03 1d 8d 3e e1 6d e2 3e 1f 77 80 3e
       0.20188235 0.27561197 0.44224456 0.25090882
000210 b0 a5 25 3d a7 4f 0d 3f 16 81 d9 3e 7e e0 85 3d
       0.040441215 0.55199665 0.42481297 0.06536959
000220 3c f5 cd be 4a 14 1e bf 4c 4e 95 bc 49 d2 9f be
       -0.4022616 -0.6174971 -0.018225811 -0.31215122
000230 4d d6 0d be 63 87 23 bf 7b 29 86 bd 45 2c cd bd
       -0.1385128 -0.6387846 -0.065508805 -0.10018209
000240 17 2d 98 be 26 32 be bb 76 56 47 bd e6 47 96 bd
       -0.297219 -0.005804318 -0.04866644 -0.07337932
000250 bd f1 56 bd 7f ac f6 3e 2a 8c 43 bd 4e 64 cc 3d
       -0.052476633 0.4817848 -0.047741093 0.09980069
000260 ef 08 22 be ed 8b 44 3e 84 00 0a be d2 a7 39 3e
       -0.1582372 0.19194002 -0.13476759 0.18130425
000270 d2 f0 cc 3e 57 b3 be be de 8a 1e be 50 dc 43 3c
       0.4002748 -0.372462 -0.15482661 0.011954382
000280 8d c6 a8 be 82 4c 3b 3d cb 81 cd 3e e6 16 0f 3e
       -0.32963982 0.04572726 0.40138087 0.13973579
000290 0b 5e 11 bf 76 a2 a9 be 0e 8c 06 3f c5 89 b6 3e
       -0.56784123 -0.3313176 0.52557456 0.35651985
0002a0 34 09 c8 be 36 97 04 be 2a ad 82 3e 21 78 0e be
       -0.3906952 -0.12948307 0.2552274 -0.13913013
0002b0 ef 3d cc be 78 e6 ab 3e 7a b1 8b 3e e6 9f 88 bd
       -0.39891002 0.3357427 0.2728384 -0.06671123
0002c0 7e 1d ff bd 14 74 32 be e9 a6 33 be 4a 79 be bd
       -0.12456797 -0.17427093 -0.1754414 -0.09300478
0002d0 27 b0 2e be fe 74 b9 be 6b b0 89 3c 78 2c 16 bd
       -0.17059384 -0.3622207 0.016807755 -0.036663502
0002e0 19 0f cb be 46 10 0d bf 49 67 83 be 06 f0 e6 be
       -0.39659956 -0.55102956 -0.25664738 -0.45104998
0002f0 10 3e 3a be a1 54 ab be 85 9c 0c be 87 c0 3c be
       -0.18187737 -0.33463004 -0.13731582 -0.18432818
000300 d1 d8 f9 38 b0 23 a5 be b6 c0 7d be d1 bc 80 be
       0.000119136304 -0.3225379 -0.24780545 -0.25144055
000310 b9 73 7f be 47 72 10 bf 31 78 7a 3d 49 e9 ad bd
       -0.24946488 -0.56424373 0.06114978 -0.08491761
000320 80 f1 2b be 1a f6 f4 bd 5f 52 8a be 86 a9 c7 be
       -0.16791344 -0.11961003 -0.2701597 -0.38996524
000330 37 60 2a bd 84 28 28 be 53 81 34 be ff 7d 04 be
       -0.041595664 -0.16421705 -0.17627458 -0.12938689
000340 f9 e8 cf bd 51 12 30 3d ae 06 a6 bd 6a 27 a1 3d
       -0.10151858 0.042986218 -0.08106743 0.07868846
000350 89 35 ed 3c 8d de 0a 3e 52 d9 61 3d e4 45 1d 3e
       0.028956192 0.13561459 0.055138893 0.15358692
000360 54 48 52 3e 64 c7 a4 be d9 fb 6f 3b 65 1b fb bd
       0.20535403 -0.32183373 0.0036618619 -0.122610845
000370 eb f1 1b bd 8a 1c a2 3e 56 6b c1 3c 1c 58 42 be
       -0.038072508 0.316624 0.023610752 -0.18978924
000380 66 72 9d bd b2 bc d2 bb 8f c4 7b 3c 5f a0 20 3e
       -0.076878354 -0.0064311856 0.015366687 0.15686177
000390 87 5b 7b bd 69 23 26 3d 01 e5 7d 3e 57 ca 86 3e
       -0.061366584 0.040561114 0.2479439 0.26326248
0003a0 b1 ad 46 be 5d 2e 88 be 88 35 04 3f ec e5 b7 3e
       -0.19402196 -0.26597872 0.5164418 0.35917604
0003b0 28 7e bc be a4 00 56 bf 22 f4 79 3d 53 9a 43 3e
       -0.36815 -0.8359473 0.06102384 0.19101839
0003c0 a5 7c 1e bd 2c e4 7e be 7e b2 a7 be 78 26 fe be
       -0.03869309 -0.24891728 -0.32753366 -0.49638724
0003d0 4a 1e a8 be 10 62 7a be 7a 6e 91 3e 23 ef 26 be
       -0.3283561 -0.2445147 0.284046 -0.16302161
0003e0 d1 30 63 be d8 eb d6 bd 46 b9 f2 bd 98 b1 81 be
       -0.2218659 -0.104942024 -0.11851744 -0.25330806
0003f0 1e 10 9e be ce 09 83 bd 1b 57 fc be 18 20 10 be
       -0.3087167 -0.063983545 -0.49285206 -0.14074743

bias f4 [16]
000000 65 5f 39 3f e7 03 0c 3e 56 ad 58 3d 2b 3f 93 3e
       0.72411186 0.13673364 0.05289968 0.2875913
000010 f3 d1 90 3e 17 43 39 be 1c d7 8b 3e c1 61 da 3e
       0.2828518 -0.18091999 0.27312553 0.42652705
000020 0b b9 3c 3f 93 bc fc bc bb 24 3c 3f 83 d7 54 bd
       0.73719853 -0.030851638 0.73493546 -0.05196334
000030 ca 5c f5 bd 58 ea 4e bd 50 8a 45 bf e8 45 96 be
       -0.11980589 -0.050516456 -0.77164173 -0.2935021

weight f4 [1, 16, 4, 4]
000000 e4 fc 03 bd 32 23 47 3c 3d 3c 27 3d 7a 1d 96 bb
       -0.032223597 0.012154387 0.040828932 -0.0045811506
000010 0e db 43 3d 73 1b 78 3d 4d 6b 64 3d e4 83 f0 3b
       0.04781633 0.060573053 0.055766392 0.0073399413
000020 08 a1 a7 3d 8b 98 45 3c 94 cb 5f bb 9f 14 cd bc
       0.08185011 0.012060295 -0.0034148442 -0.025034247
000030 95 3b a8 bd 9a c1 cf bd b8 76 91 bd 55 4d 82 bc
       -0.08214489 -0.101443484 -0.07102722 -0.015906015
000040 93 ea b4 3e 95 98 8b bd 36 c4 e3 3e 21 c3 12 be
       0.35335216 -0.06816212 0.44485635 -0.14332248
000050 a3 b2 08 3f ba d3 82 3e 40 2d 37 3e fb 53 b8 be
       0.5339758 0.2555216 0.17888355 -0.36001572
000060 37 68 f0 be 56 b1 04 3e b3 e9 b5 bc 38 4b 00 bf
       -0.4695451 0.12958273 -0.022206163 -0.50114775
000070 41 68 0d 3e e2 6d 27 3e b5 cc 40 be e3 aa 6f be
       0.13809301 0.1635051 -0.1882809 -0.23405032
000080 3f b6 61 bc 46 41 8b 3d 6d b7 40 be e5 0c aa 3d
       -0.013776361 0.06799559 -0.18819971 0.08303241
000090 b1 80 a4 bd dc 25 9f 3e 4a 17 4d 3b 4c 84 ab 3d
       -0.080323584 0.31083572 0.00312944 0.08374843
0000a0 41 8d 7c bd 91 99 9d 3e 2e 7b 72 be 0e 39 13 3e
       -0.061658148 0.30781224 -0.23679802 0.14377233
0000b0 da 3b ac bd dd d1 ad 3e 7d a2 79 be a2 1f 70 3e
       -0.08409853 0.33949175 -0.2437839 0.23449567
0000c0 56 7c 29 bd bd 98 24 3c fc 39 1e be 7a af 18 be
       -0.04137834 0.010046181 -0.15451807 -0.14910689
0000d0 3d bd af bb 80 e6 08 3c 7a 83 d0 bd 1f 64 1c be
       -0.005363135 0.008355737 -0.10181327 -0.15272568
0000e0 b9 c9 ba bd 74 5d c6 bd 82 3f cd bd 8b 60 f8 bd
       -0.09120507 -0.096857935 -0.10021879 -0.12127789
0000f0 ee 53 29 bd fa 1c 58 bd ca 53 ee bd b2 37 6d bc
       -0.041339807 -0.05276201 -0.11637075 -0.014478611
000100 c1 86 b9 bd ca 55 1b be bf 32 2d 3e 93 38 7c 3e
       -0.090589054 -0.15169445 0.1691389 0.24630956
000110 e7 99 57 3e 1a ed ca 3e ea cb 34 bd 3d d9 b1 bc
       0.21054803 0.3963402 -0.04413978 -0.021710033
000120 bf 1e 0f 3d f2 10 46 3d bd 6d c5 3c ff 66 7e be
       0.03494143 0.048356004 0.024100179 -0.24843977
000130 b1 18 fb 3b 09 00 5f 3e 83 a9 3e 3d 0a 0b 3a bd
       0.0076628556 0.21777357 0.046548378 -0.045420684
000140 6e 38 a4 be 40 5b c6 bd 89 8e 9b bd 77 37 83 be
       -0.32074302 -0.09685373 -0.07595546 -0.25628254
000150 1d 07 61 3e 2c cc d3 3c 4e 8c 43 be 46 a8 e9 3a
       0.2197537 0.025854193 -0.1909649 0.0017826639
000160 4a 5f ea 3e d5 25 9b be f6 57 60 3d 70 5d 9f bd
       0.45775825 -0.303023 0.054771386 -0.07781494
000170 a5 9a 9c 3e 72 27 64 be 67 23 5c be 84 5e ac be
       0.30586734 -0.22280672 -0.2149788 -0.3366586
000180 79 2c 67 be a7 d9 f5 3d 53 e1 f3 3d fc 50 7f bd
       -0.22575559 0.120044045 0.119082116 -0.062333092
000190 f5 93 9a be b8 4b 2e be 0f d7 d0 bc 8c 7f 74 bd
       -0.30191007 -0.17021072 -0.025493173 -0.05969195
0001a0 4e b9 3d be a9 5b a5 bd 4f bd 6d 3e 2e 22 38 3e
       -0.1852772 -0.080741234 0.23216747 0.17981789
0001b0 2a 46 10 3d 5e 80 1a be 42 3a b7 3e 79 64 05 bf
       0.035223164 -0.1508803 0.35786635 -0.52106434
0001c0 19 a3 3d 3e a3 9c fc 3d b4 e6 56 bc 3e 83 bc be
       0.18519248 0.123345636 -0.013116527 -0.3681888
0001d0 8a db 91 3e 17 b4 5a bc 6f 42 89 be ce b6 7e be
       0.28487808 -0.013348601 -0.26808497 -0.24874422
0001e0 4e f6 fa bd 97 e8 cc bd 9d 2f 8a 3e 1b 37 e5 bd
       -0.1225401 -0.100053005 0.2698945 -0.11192151
0001f0 48 77 3b 3c e4 58 3e 3e b9 7b 8e 3d a6 24 76 3d
       0.011442013 0.18588597 0.06957192 0.060093544
000200 68 79 94 b8 c8 70 7a bc 0b 72 99 bd 2e f2 69 b9
       -7.0798036e-05 -0.015285678 -0.07492455 -0.0002231083
000210 65 d6 06 bd 51 ac 4d bc 0a 9e a6 bd 43 18 2d bd
       -0.032919306 -0.01255329 -0.08135612 -0.042259466
000220 7c 9c c0 bc 2e a0 94 3d 09 8a a7 3d 32 30 ab 3b
       -0.023512118 0.07257114 0.08180625 0.005224251
000230 3a 30 bc 3c 00 d3 5a 3d cf 8e 1b 3d 17 72 66 3c
       0.022972215 0.05342388 0.03797799 0.014065287
000240 aa 98 ac bc 4a 53 84 3d 61 88 bc 3e 56 70 9f be
       -0.02106889 0.06461199 0.368228 -0.31140393
000250 8d e0 d8 bd b7 b3 a8 3e 2f 41 cc bd e6 b7 84 bd
       -0.10589705 0.32949612 -0.0997337 -0.06480388
000260 70 d5 a7 3d 3a 9d 3a 3c 64 03 74 3e 7a fc 8b 3e
       0.08195007 0.011390025 0.23829418 0.27341062
000270 65 ea 99 3d be 33 23 bd e4 b4 14 3e 0a eb 77 be
       0.0751541 -0.039844267 0.1452213 -0.24210754
000280 b8 62 f4 3b ab cd e2 3c 7f 2c bf 3c c4 c0 81 bd
       0.0074580573 0.02768596 0.023336647 -0.06335595
000290 f6 45 de bc 45 c8 fe 3c a5 1b 4e bc 4a 0c 07 bd
       -0.02713297 0.031101355 -0.012579833 -0.032970704
0002a0 d7 e9 7e 3d 5d ff b5 3d 5d 03 78 bd 54 2f b7 bd
       0.062234726 0.08886597 -0.060550082 -0.08944574
0002b0 ab ae d0 38 82 cd 7d 3d e5 eb b6 3c 0d 16 40 bd
       9.950747e-05 0.061963566 0.02232928 -0.04689603
0002c0 bd 0f 43 3b f0 02 28 3e 7e bf 41 3e f4 e0 72 bc
       0.002976402 0.1640737 0.18920705 -0.014824141
0002d0 2a ce 96 3e 61 4c 4b 3e d9 a4 c9 3d cb a0 22 be
       0.29454166 0.19853355 0.09845895 -0.1588165
0002e0 67 f2 98 bd 2e 93 09 3e e6 14 3f 3d 0a 38 32 be
       -0.074681096 0.13435051 0.04665079 -0.1740419
0002f0 5a 70 81 bd 4c 47 46 3e 40 a3 5c 3e 8c 56 b8 3c
       -0.063202575 0.19363135 0.2154665 0.022502206
000300 31 a5 a7 bd a4 62 3a bd 74 6b 34 3e 9a 5e 47 be
       -0.08185805 -0.045504227 0.17619115 -0.19469681
000310 25 f0 6a 3d bd 9a 2f be a3 b8 c6 bc 56 21 dc bd
       0.057357926 -0.17148872 -0.024257964 -0.10748546
000320 80 e7 63 3d 1c 12 82 be 74 54 dc bc e9 28 7b bc
       0.055640697 -0.2540444 -0.02689574 -0.015329578
000330 89 74 d4 3d 5f 79 44 bd 73 35 30 be f1 fd 69 3d
       0.1037379 -0.04796731 -0.1720789 0.057126943
000340 3f b5 d2 3c 6c 15 61 3e 7e 54 9e bd 63 6f a9 be
       0.02572119 0.21980828 -0.07730959 -0.33092794
000350 e4 3e 58 3e d6 a1 a1 be 9c 78 01 3e d6 8b 4c bd
       0.21117741 -0.31568784 0.12643665 -0.049938045
000360 96 26 8a 3e 08 0e cf bd 83 fb 8e 3e e5 f9 7f 3e
       0.26982564 -0.10110098 0.27926263 0.24997671
000370 0f 95 e4 3d 00 c6 39 3e 87 0a 48 bd 11 1d 7c bd
       0.11161243 0.18141937 -0.048838165 -0.061551157
000380 d7 f5 96 3b 35 9e 97 3c 3e 7e 1e be e9 91 7e bd
       0.004606943 0.018508056 -0.15477845 -0.06215087
000390 fd 91 65 3d cd 6b ed 3d 43 92 52 bd 02 2a 30 bd
       0.05604743 0.11592827 -0.051409017 -0.04300881
0003a0 87 54 de 3c c8 02 e4 3c 60 2d 85 bc 69 40 94 bc
       0.027139915 0.027833357 -0.016256988 -0.01809712
0003b0 ca 33 16 3d a0 35 23 3c ab b5 60 bc 3e c4 1b 3c
       0.036670484 0.009961516 -0.013715188 0.009507237
0003c0 e9 90 d1 3c 53 7d 75 3d 18 1d b7 be 95 31 9e bd
       0.025581794 0.05993397 -0.35764384 -0.07724301
0003d0 19 c3 64 bd 9c 78 b2 bd 1a bd a8 bd 56 08 44 be
       -0.055850122 -0.08714411 -0.08239193 -0.19143805
0003e0 63 94 b5 bd 1e 8a af 3d 6d c6 f6 bd 46 4e c9 bb
       -0.08866193 0.08571266 -0.120495655 -0.006143364
0003f0 65 df 85 b8 6f 8d 54 bd bf 88 38 be 8e 56 e1 bd
       -6.383545e-05 -0.051892694 -0.18020914 -0.11002837

thr f4 [1, 16, 1, 1]
000000 00 00 80 3f 00 00 80 3f 00 00 80 3f 00 00 80 3f
       1.0 1.0 1.0 1.0
000010 00 00 80 3f 00 00 80 3f 00 00 80 3f 00 00 80 3f
       1.0 1.0 1.0 1.0
000020 00 00 80 3f 00 00 80 3f 00 00 80 3f 00 00 80 3f
       1.0 1.0 1.0 1.0
000030 00 00 80 3f 00 00 80 3f 00 00 80 3f 00 00 80 3f
       1.0 1.0 1.0 1.0

exp_avg_sq f4 [16, 1, 4, 4]
000000 9e dc cf 30 c9 d9 9c 30 ec 06 8b 30 51 d2 a5 30
       1.5123935e-09 1.1412392e-09 1.0115548e-09 1.2065106e-09
000010 d3 00 fd 30 61 e1 09 31 8b 4f 0d 31 eb 21 36 31
       1.8408407e-09 2.0064237e-09 2.0563415e-09 2.6503766e-09
000020 3a 49 17 31 e5 58 38 31 32 1e 49 31 13 03 34 31
       2.2015016e-09 2.6826055e-09 2.9266514e-09 2.6195195e-09
000030 4f 8b 12 31 6d 5d 2e 31 52 19 20 31 a6 f9 00 31
       2.1324984e-09 2.537344e-09 2.3297457e-09 1.876836e-09
000040 f0 d6 39 28 8d 6c 4f 28 27 16 90 28 b9 79 b4 28
       1.031617e-14 1.15143465e-14 1.5996819e-14 2.0036803e-14
000050 09 79 0e 29 af 6d 2a 28 9d e8 de 27 7a 0c 9c 27
       3.1635315e-14 9.4606795e-15 6.1869578e-15 4.3312225e-15
000060 3a ec 86 28 1c 8f 87 28 44 a1 1f 26 56 1e 96 27
       1.4979435e-14 1.5050075e-14 5.538276e-16 4.1666254e-15
000070 c8 76 08 29 76 d9 ff 28 b4 1b 0c 28 43 39 9e 26
       3.0301093e-14 2.8404996e-14 7.777568e-15 1.0978973e-15
000080 da bc 4d 2e 0b 12 44 2f 0f 20 68 2e e7 37 37 2f
       4.6779337e-11 1.7832506e-10 5.2779166e-11 1.6663614e-10
000090 b3 1a 96 2e 9c ba 34 2f 1e 42 8b 2e b7 a8 2e 2f
       6.825953e-11 1.6437202e-10 6.332733e-11 1.5885147e-10
0000a0 67 09 e6 2e a2 da 2d 2f d8 3a 91 2e fb 45 47 2f
       1.0460859e-10 1.5811932e-10 6.604289e-11 1.8123807e-10
0000b0 dd 8a 0c 2f b6 6d 1a 2f 98 cc db 2e 5e 11 3a 2f
       1.278226e-10 1.4045196e-10 9.99531e-11 1.6922772e-10
0000c0 75 29 41 36 9f 14 41 36 48 df 42 36 97 4d 43 36
       2.8783372e-06 2.8771244e-06 2.903822e-06 2.9102428e-06
0000d0 5a 55 46 36 fa 41 47 36 df 53 48 36 a5 4c 56 36
       2.955398e-06 2.9691714e-06 2.9851142e-06 3.1933098e-06
0000e0 31 cb 46 36 88 54 4e 36 dc 65 4a 36 3b 13 4e 36
       2.9622572e-06 3.0745596e-06 3.0159636e-06 3.0707586e-06
0000f0 d2 f1 4a 36 6e c6 4e 36 d1 63 4a 36 37 31 4b 36
       3.0241104e-06 3.0811893e-06 3.0158446e-06 3.0278004e-06
000100 f4 6b 51 35 45 31 55 35 03 ed 55 35 f3 ab 52 35
       7.801566e-07 7.942038e-07 7.969358e-07 7.8481315e-07
000110 19 e9 58 35 17 e5 5a 35 c1 ea 5c 35 24 b2 56 35
       8.080547e-07 8.15447e-07 8.2298e-07 7.998044e-07
000120 50 61 59 35 38 60 5d 35 e7 6d 60 35 ff 3b 59 35
       8.098041e-07 8.246893e-07 8.360643e-07 8.0926105e-07
000130 c7 17 56 35 8a 1a 58 35 66 37 5c 35 d5 cf 54 35
       7.9755813e-07 8.050489e-07 8.2037e-07 7.927859e-07
000140 04 35 8b 36 eb fd 89 36 0c 42 8b 36 e3 72 8c 36
       4.1486946e-06 4.112478e-06 4.1502117e-06 4.1856997e-06
000150 e2 a0 8e 36 1e 16 8b 36 93 23 91 36 b3 52 8f 36
       4.250659e-06 4.1450976e-06 4.325478e-06 4.2713596e-06
000160 01 7c 8d 36 1e 95 8f 36 bd ee 8d 36 70 68 8b 36
       4.2165634e-06 4.2790916e-06 4.2299203e-06 4.154681e-06
000170 44 cd 8e 36 0c 04 93 36 a2 68 8d 36 6c 8e 8c 36
       4.255826e-06 4.3814125e-06 4.2143083e-06 4.188905e-06
000180 b8 aa 2c 2a 92 ea 36 2a 1a 18 d9 29 bf d7 2b 2a
       1.5335899e-13 1.624623e-13 9.640917e-14 1.5262703e-13
000190 ea 27 35 2a 80 b5 1b 2a ef ba c8 29 08 05 d4 29
       1.6089877e-13 1.3829736e-13 8.914212e-14 9.415564e-14
0001a0 28 3d ff 29 8d 67 89 29 c2 ff 4f 29 35 81 1c 29
       1.1334884e-13 6.1019854e-14 4.6185068e-14 3.4751028e-14
0001b0 36 5c 38 2a bb d7 f4 29 a8 f6 95 29 99 fb de 29
       1.6374475e-13 1.08732e-13 6.659717e-14 9.902426e-14
0001c0 fa 81 bf 34 0c fa cc 34 52 e1 d0 34 d5 36 e6 34
       3.5671093e-07 3.8179894e-07 3.890696e-07 4.2880734e-07
0001d0 ee de bc 34 f8 e5 d8 34 fb a4 cf 34 96 e7 d9 34
       3.5179932e-07 4.040046e-07 3.8676794e-07 4.05879e-07
0001e0 8d 66 d2 34 77 81 d4 34 af 27 d2 34 6e 93 d5 34
       3.9190164e-07 3.9582275e-07 3.9144422e-07 3.978161e-07
0001f0 1c e5 cb 34 d5 25 c3 34 5d de cf 34 1e 14 d3 34
       3.7978396e-07 3.6349107e-07 3.8718545e-07 3.931645e-07
000200 77 da 17 31 b6 52 30 31 81 5b 39 31 34 92 26 31
       2.2097575e-09 2.5658387e-09 2.6973057e-09 2.4239286e-09
000210 0a 65 07 31 1f b9 2d 31 82 0c 32 31 6f 3f 1b 31
       1.970252e-09 2.5280043e-09 2.590952e-09 2.2591526e-09
000220 df 7b b0 30 ad 36 8e 30 62 17 ee 30 d9 7b c5 30
       1.2840892e-09 1.03474e-09 1.7323425e-09 1.4368836e-09
000230 e7 ae ae 30 9f ca 7b 30 da 46 bf 30 f8 8b c7 30
       1.2709876e-09 9.160121e-10 1.3917216e-09 1.4518937e-09
000240 3f b6 6a 27 51 ee a3 27 98 d6 d6 27 6d 49 a6 27
       3.257282e-15 4.549997e-15 5.9629595e-15 4.6153864e-15
000250 88 af 86 27 b8 66 36 28 f0 c3 a6 27 bd ab fa 27
       3.7382783e-15 1.0125303e-14 4.628669e-15 6.957514e-15
000260 66 10 e9 27 bb 52 0b 28 26 a2 81 27 79 60 fb 27
       6.468827e-15 7.733989e-15 3.5980494e-15 6.977109e-15
000270 c6 fa 1d 28 a2 d6 61 27 38 b3 47 27 03 ad b8 27
       8.7696286e-15 3.1341375e-15 2.7713952e-15 5.125784e-15
000280 31 9b 69 30 e3 69 ba 30 23 c8 11 31 5a a5 ef 30
       8.4985446e-10 1.3563376e-09 2.1214042e-09 1.7436534e-09
000290 ae d9 36 30 8e f1 98 30 ee 9d 1f 31 de c6 02 31
       6.6520556e-10 1.112811e-09 2.3227318e-09 1.9030533e-09
0002a0 d7 af 55 30 9a cb ae 30 eb fa 07 31 1f 85 d5 30
       7.773883e-10 1.2718033e-09 1.9787716e-09 1.5535625e-09
0002b0 10 95 78 30 d9 a6 03 31 93 66 02 31 70 1c cf 30
       9.0433705e-10 1.915785e-09 1.8975796e-09 1.5069315e-09
0002c0 1c 9c 05 36 62 f0 0b 36 ce 69 15 36 6d 54 1b 36
       1.9909412e-06 2.0852535e-06 2.2264317e-06 2.3145942e-06
0002d0 49 52 0b 36 ca 90 0e 36 7b 1d 13 36 29 5e 12 36
       2.076051e-06 2.1243927e-06 2.1921867e-06 2.1810504e-06
0002e0 50 71 0b 36 4d f4 0c 36 ea f0 10 36 d1 fe 10 36
       2.077857e-06 2.1003827e-06 2.1597903e-06 2.1605995e-06
0002f0 70 7a 0b 36 37 b7 0f 36 97 5d 0e 36 5a c1 10 36
       2.0783882e-06 2.1415306e-06 2.1214125e-06 2.1570218e-06
000300 26 47 01 35 61 0d 03 35 bf 60 00 35 d0 f5 fd 34
       4.815978e-07 4.882077e-07 4.78245e-07 4.7303774e-07
000310 20 79 fd 34 76 03 02 35 8b e6 01 35 e0 15 fc 34
       4.7213052e-07 4.843381e-07 4.839173e-07 4.6954574e-07
000320 58 49 00 35 d1 ef 00 35 9d c6 00 35 b3 82 fe 34
       4.7790445e-07 4.8032695e-07 4.7972736e-07 4.7406283e-07
000330 46 72 fa 34 73 82 fe 34 3c 7b fc 34 67 e3 fa 34
       4.6649274e-07 4.74061e-07 4.7028323e-07 4.6731586e-07
000340 00 00 00 00 00 00 00 00 00 00 00 00 00 00 00 00
       0.0 0.0 0.0 0.0
000350 00 00 00 00 00 00 00 00 00 00 00 00 00 00 00 00
       0.0 0.0 0.0 0.0
000360 00 00 00 00 00 00 00 00 00 00 00 00 00 00 00 00
       0.0 0.0 0.0 0.0
000370 00 00 00 00 00 00 00 00 00 00 00 00 00 00 00 00
       0.0 0.0 0.0 0.0
000380 96 43 54 31 fd 24 4c 31 3d dd 1e 31 0b cf 22 31
       3.0888478e-09 2.9706932e-09 2.3117785e-09 2.3691793e-09
000390 3d b8 5f 31 27 7e 5f 31 be cf 02 31 36 fc 19 31
       3.2555498e-09 3.252248e-09 1.9035578e-09 2.2407796e-09
0003a0 0d 0b 84 31 6c 7e 78 31 95 9e e6 30 0f 09 00 31
       3.842962e-09 3.6160612e-09 1.6779774e-09 1.86316e-09
0003b0 9c 8a 94 31 fc 78 b0 31 f0 7e 3f 31 6a 8d 20 31
       4.323125e-09 5.1360285e-09 2.7866314e-09 2.336345e-09
0003c0 a0 32 42 37 3e dd 47 37 0f c5 3c 37 fa 70 37 37
       1.1575088e-05 1.1912836e-05 1.12515545e-05 1.0933954e-05
0003d0 12 bb 41 37 12 8e 3c 37 81 74 38 37 19 ad 30 37
       1.1547252e-05 1.12387515e-05 1.099438e-05 1.053072e-05
0003e0 39 e7 44 37 72 87 3b 37 26 9f 36 37 f7 5b 2d 37
       1.1736346e-05 1.1177604e-05 1.08851e-05 1.0333016e-05
0003f0 76 ca 3a 37 60 8e 32 37 95 2b 32 37 1e 91 24 37
       1.1133603e-05 1.0642776e-05 1.0619774e-05 9.8089495e-06

exp_avg f4 [16, 1, 4, 4]
000000 a6 72 80 36 56 dc 40 36 d4 d2 72 36 06 c7 7d 35
       3.828044e-06 2.8738482e-06 3.6183528e-06 9.453946e-07
000010 a1 f0 21 37 00 3f 42 37 8c 31 08 36 ed 71 10 37
       9.652374e-06 1.1577969e-05 2.029442e-06 8.609594e-06
000020 df 99 17 b6 0d b5 9c b5 4a d1 7e b6 05 19 70 b6
       -2.2590318e-06 -1.1675598e-06 -3.7970772e-06 -3.577735e-06
000030 07 83 4f b5 f5 68 6a 36 ae 08 ac 36 92 6c f4 b6
       -7.730418e-07 3.492981e-06 5.12701e-06 -7.284406e-06
000040 ea 97 bb b1 bc 08 05 b2 78 37 00 b2 44 b0 e9 b1
       -5.459687e-09 -7.743605e-09 -7.463193e-09 -6.8012316e-09
000050 52 3c 36 b2 4e b5 e6 b1 95 84 d0 b1 51 af 7e 2f
       -1.06075095e-08 -6.714493e-09 -6.0686696e-09 2.316345e-10
000060 8b 05 86 b1 79 94 4d b1 31 fd 4c af 85 b1 db b1
       -3.9005434e-09 -2.9915823e-09 -1.8643644e-10 -6.3939205e-09
000070 54 3c 36 b2 70 b5 e6 b1 8d 84 d0 b1 37 ae 7e 2f
       -1.0607511e-08 -6.714508e-09 -6.068666e-09 2.3163059e-10
000080 43 be 27 b6 fe dc f4 b5 de 06 d5 b6 3c 77 19 b6
       -2.4995686e-06 -1.8243734e-06 -6.348694e-06 -2.286818e-06
000090 57 60 87 b6 99 d6 06 b6 6e ef 05 b7 53 e2 f2 b4
       -4.034529e-06 -2.0092468e-06 -7.983164e-06 -4.5240685e-07
0000a0 37 71 85 b6 e9 f6 55 b6 3b 0e fa b6 06 26 2b b6
       -3.976889e-06 -3.1883194e-06 -7.4522372e-06 -2.5503118e-06
0000b0 5b 16 93 b6 cc 2d 4e b6 1e 39 00 b7 ee 44 31 b6
       -4.383544e-06 -3.072305e-06 -7.642693e-06 -2.6415178e-06
0000c0 98 b8 c0 b5 89 5e 0d 38 4f fc 7c 37 c3 eb a1 b8
       -1.4358839e-06 3.3705062e-05 1.5079116e-05 -7.720992e-05
0000d0 53 91 ba b7 b2 07 a0 37 ab 6b 89 38 a4 40 d4 b8
       -2.22406e-05 1.907707e-05 6.552724e-05 -0.00010120988
0000e0 80 45 e5 b7 66 9b a6 b8 e4 16 55 37 d5 55 c5 b8
       -2.733129e-05 -7.944442e-05 1.2701119e-05 -9.4096795e-05
0000f0 2e 6b d5 b8 31 50 b6 b8 8a 93 9a 37 cc e0 90 38
       -0.00010176595 -8.693373e-05 1.8426934e-05 6.908327e-05
000100 71 e4 60 b8 c5 86 5c b7 a6 12 f2 b8 28 f1 d5 b7
       -5.3618514e-05 -1.31444e-05 -0.00011542933 -2.5503876e-05
000110 64 72 f5 b8 4d 5c d6 b8 70 59 38 b8 ee a9 9a b8
       -0.00011703817 -0.000102215075 -4.3952314e-05 -7.374944e-05
000120 e2 c3 02 b9 83 50 08 b9 1d 20 d8 b8 84 3a 90 b8
       -0.00012470738 -0.00012999964 -0.00010305664 -6.8773545e-05
000130 a2 7f b1 b8 3d 05 c7 b8 32 bf 17 b9 57 bd e8 b8
       -8.463791e-05 -9.490035e-05 -0.00014471708 -0.000110978894
000140 75 c3 a9 b7 94 39 7c b7 f8 9e 2e b7 92 b1 cb b7
       -2.0237387e-05 -1.5033776e-05 -1.0408221e-05 -2.4282173e-05
000150 b8 8d 9b b7 f5 0f 88 b7 e4 c2 6d b7 2f 88 9d b7
       -1.8543433e-05 -1.6219894e-05 -1.4171677e-05 -1.8779274e-05
000160 c2 bf ba b7 eb 57 9b b7 2f 0e 44 b7 fe 68 69 b7
       -2.2262222e-05 -1.851838e-05 -1.1685813e-05 -1.3912328e-05
000170 6e 61 bb b7 4d c5 bc b7 d1 f8 48 b7 25 90 1b b7
       -2.2337506e-05 -2.2503222e-05 -1.1978861e-05 -9.272281e-06
000180 c1 44 d5 28 61 40 bd 28 79 9b 97 26 f5 d5 22 28
       2.3677568e-14 2.1011135e-14 1.0519871e-15 9.039201e-15
000190 23 54 f7 28 91 33 bb 28 e4 2c e2 27 2a 27 82 27
       2.7458997e-14 2.0783534e-14 6.277627e-15 3.612471e-15
0001a0 97 a4 ee 28 13 68 3f 28 c1 1e ff 27 ab ac 21 a7
       2.6494687e-14 1.0625197e-14 7.081006e-15 -2.2436842e-15
0001b0 ad b8 0c 29 4e ad 10 28 71 1e 3c 28 76 87 fa 27
       3.1246425e-14 8.031185e-15 1.0442697e-14 6.9535806e-15
0001c0 be 77 3b 38 2e a7 12 b8 62 3e e8 37 38 cb 50 38
       4.4695793e-05 -3.496481e-05 2.7685604e-05 4.9780327e-05
0001d0 a7 d5 10 b6 63 47 0f 37 8e f5 19 b8 c0 b1 47 b8
       -2.1582034e-06 8.540085e-06 -3.6706733e-05 -4.761084e-05
0001e0 07 b3 06 b8 5e 76 58 b8 f9 94 20 b7 2e c8 05 37
       -3.211482e-05 -5.160865e-05 -9.571429e-06 7.974026e-06
0001f0 1e ec 2c b7 5f ca 15 38 37 03 c0 b7 10 83 12 38
       -1.0306974e-05 3.571284e-05 -2.288968e-05 3.4931174e-05
000200 ff e4 be 36 72 08 b9 b6 f2 e6 cf 35 23 9d 12 37
       5.6891e-06 -5.514413e-06 1.5489916e-06 8.738864e-06
000210 a2 60 5b b6 6e 07 1f b6 13 8d 81 36 fb 31 82 37
       -3.268979e-06 -2.369717e-06 3.860923e-06 1.5520482e-05
000220 61 bc 83 b6 62 e0 5a b6 0e 68 89 37 43 6e a8 36
       -3.9260344e-06 -3.261514e-06 1.6380127e-05 5.0196263e-06
000230 95 b8 9a b6 74 3f 69 b5 50 0d 1d 37 e0 96 9c 35
       -4.611046e-06 -8.68916e-07 9.361029e-06 1.1666816e-06
000240 21 01 61 87 0a ba 17 87 9e 9c 1e 87 0a ba 17 87
       -1.692745e-34 -1.1414649e-34 -1.1932625e-34 -1.1414649e-34
000250 88 86 8a 86 0d ef cc 05 ff ba aa 86 0d ef cc 05
       -5.2107506e-35 1.9271881e-35 -6.422166e-35 1.9271881e-35
000260 30 62 55 86 f7 72 9d 86 33 b2 40 87 f7 72 9d 86
       -4.0132984e-35 -5.922576e-35 -1.4496843e-34 -5.922576e-35
000270 51 d1 55 86 3d 1a 4d 87 ac 77 62 87 3d 1a 4d 87
       -4.021463e-35 -1.5430197e-34 -1.7037519e-34 -1.5430197e-34
000280 4b 97 dd 35 05 b5 47 36 80 f6 73 b6 c6 3c 0e 37
       1.6509815e-06 2.9758678e-06 -3.6353304e-06 8.4780095e-06
000290 02 0e ab 36 a0 cb 00 37 fb 6b c9 b6 11 b4 9a 36
       5.097828e-06 7.676805e-06 -6.0028374e-06 4.61052e-06
0002a0 1b c6 0a b6 00 6b 2c 37 9f 4b de b3 15 37 08 b6
       -2.0678915e-06 1.0276912e-05 -1.0351436e-07 -2.0297641e-06
0002b0 b8 ba a3 b6 5e f1 c2 37 1e ac 4a 37 56 7e c1 36
       -4.8795155e-06 2.3238998e-05 1.2080212e-05 5.7665557e-06
0002c0 a9 a6 51 38 f1 f1 c6 38 b6 8f c4 38 c7 ed 00 39
       4.9984697e-05 9.486441e-05 9.3727765e-05 0.0001229561
0002d0 c5 9d 79 38 cd 7c 48 38 24 b3 8d 38 a8 76 c1 38
       5.951316e-05 4.7799946e-05 6.7567715e-05 9.2250586e-05
0002e0 c5 8a db 36 05 e6 54 b8 35 74 b9 38 90 12 8b b7
       6.5428635e-06 -5.075896e-05 8.843133e-05 -1.6578735e-05
0002f0 e0 5c 5e 38 45 39 8b 37 63 f4 68 38 cf 5d d9 37
       5.301542e-05 1.659676e-05 5.5540713e-05 2.5912099e-05
000300 ce d8 03 39 d1 cd da 38 58 6d ed 38 1e 92 3c 38
       0.000125739 0.00010433386 0.000113214075 4.4958775e-05
000310 51 f4 5d 38 df 9c fc 37 93 d8 fb 38 0f 34 97 38
       5.2918043e-05 3.011379e-05 0.00012008953 7.209938e-05
000320 2a 51 b0 38 5c 66 8a 38 6d fb 8e 38 42 79 84 38
       8.407452e-05 6.599419e-05 6.817919e-05 6.3168365e-05
000330 1c 6a 45 38 9c 50 b0 38 b8 7b a8 38 af e4 b5 38
       4.7067282e-05 8.407349e-05 8.033909e-05 8.673348e-05
000340 00 00 00 00 00 00 00 00 00 00 00 00 00 00 00 00
       0.0 0.0 0.0 0.0
000350 00 00 00 00 00 00 00 00 00 00 00 00 00 00 00 00
       0.0 0.0 0.0 0.0
000360 00 00 00 00 00 00 00 00 00 00 00 00 00 00 00 00
       0.0 0.0 0.0 0.0
000370 00 00 00 00 00 00 00 00 00 00 00 00 00 00 00 00
       0.0 0.0 0.0 0.0
000380 87 b1 3d b7 95 80 8f 37 ab c7 be 36 7c 1a c3 b5
       -1.1306612e-05 1.7106804e-05 5.6856857e-06 -1.453634e-06
000390 6e f9 22 b5 29 b3 bb 37 a8 7f 8f 36 66 c3 05 b2
       -6.071267e-07 2.2375565e-05 4.2765932e-06 -7.786047e-09
0003a0 02 e4 23 36 21 64 25 37 b4 e9 75 b5 84 ce 53 b6
       2.442161e-06 9.8580795e-06 -9.1609695e-07 -3.1561658e-06
0003b0 7d 75 b8 b5 85 26 ba b6 76 01 fd b6 de 33 d2 b6
       -1.3743262e-06 -5.5477162e-06 -7.5401576e-06 -6.264526e-06
0003c0 7e e5 5c 39 06 dc 6a 39 36 29 6f 39 18 10 2e 39
       0.00021066327 0.00022397944 0.00022808168 0.00016599928
0003d0 fe 60 4b 39 b9 6b 93 39 d1 4b 54 39 ee 1b 6d 39
       0.00019395721 0.00028118285 0.0002024614 0.00022612486
0003e0 0a 90 89 39 2d 38 42 39 11 1a 7d 39 9f 76 42 39
       0.00026237994 0.00018522209 0.0002413767 0.00018545472
0003f0 5e 42 13 39 87 fd 54 39 b6 64 85 39 d2 34 71 39
       0.00014043736 0.00020312342 0.00025442772 0.00023003228

exp_avg_sq f4 [16]
000000 eb c1 ee 31 65 bc d5 28 6f 66 6c 2f 4b 9e cd 36
       6.9487576e-09 2.3729454e-14 2.1500467e-10 6.127904e-06
000010 70 bc 02 36 40 92 ac 36 44 92 1c 2a 45 a7 28 35
       1.9481195e-06 5.143025e-06 1.390633e-13 6.2828286e-07
000020 62 bb 15 32 2f 12 31 28 9b 86 c0 31 cb 21 90 36
       8.715547e-09 9.829417e-15 5.6032383e-09 4.2954684e-06
000030 1f 48 9c 35 00 00 00 00 be 57 5d 32 97 4a 30 38
       1.1643896e-06 0.0 1.2883843e-08 4.2031137e-05

exp_avg f4 [16]
000000 9b 0f d2 36 95 81 1b b2 77 9a 6a 35 f2 9f 13 b9
       6.2603044e-06 -9.051651e-09 8.739657e-07 -0.00014078597
000010 7c 3a 9f b9 01 cd c9 b7 a7 9d cf 28 64 bd a8 b8
       -0.00030370418 -2.405653e-05 2.3049987e-14 -8.046141e-05
000020 b1 58 0e 37 b0 31 4c 87 f3 93 8c 36 51 7f 92 39
       8.48451e-06 -1.5361856e-34 4.1895487e-06 0.00027942148
000030 08 01 6d 39 00 00 00 00 c4 53 f7 b5 7d 17 83 3a
       0.00022602465 0.0 -1.8427313e-06 0.0010001507

exp_avg_sq f4 [1, 16, 4, 4]
000000 12 74 ff 30 cd 15 cd 30 c0 b4 cc 30 d1 df bc 30
       1.8586681e-09 1.4921909e-09 1.4894326e-09 1.3742413e-09
000010 fc 84 d6 30 91 d3 10 31 fa 10 da 30 88 88 d6 30
       1.5608346e-09 2.107502e-09 1.5866413e-09 1.5609354e-09
000020 e2 1d e9 30 88 14 99 30 b7 fe c5 30 23 47 bd 30
       1.6961474e-09 1.113805e-09 1.4406031e-09 1.3771778e-09
000030 da d8 c0 30 85 a8 ee 30 80 a8 c4 30 80 f1 9d 30
       1.4031472e-09 1.7364675e-09 1.4308768e-09 1.1491892e-09
000040 06 5b 93 23 a4 55 dc 23 b5 55 d8 23 7d f3 c0 23
       1.5976322e-17 2.3888718e-17 2.3455065e-17 2.0919803e-17
000050 9a 61 8a 24 5e 5a f9 23 f2 ff 59 24 a6 89 b0 24
       6.0013303e-17 2.7034906e-17 4.727117e-17 7.656102e-17
000060 2b 3e 98 23 24 42 54 24 b7 52 1e 24 88 54 8f 24
       1.6506202e-17 4.6026195e-17 3.433085e-17 6.2159566e-17
000070 36 78 63 24 79 e5 0b 24 86 53 25 24 14 96 80 23
       4.93246e-17 3.033519e-17 3.584942e-17 1.3941348e-17
000080 aa 5f 6e 2b 13 cf aa 2b f2 e5 a4 2b 5b bd 6e 2b
       8.4687346e-13 1.2136701e-12 1.1716724e-12 8.481737e-13
000090 98 9e af 2b 2b 93 85 2b 56 f4 0d 2b fb c2 1e 2b
       1.2478516e-12 9.491066e-13 5.0432347e-13 5.6403466e-13
0000a0 4e c7 ef 2b 36 e9 b0 2b ec e9 a7 2b b8 af 34 2b
       1.703729e-12 1.2570281e-12 1.193099e-12 6.4192705e-13
0000b0 da 60 ff 2b f4 de ca 2b b5 8f d7 2b e2 2f 85 2b
       1.8145721e-12 1.4414845e-12 1.5316556e-12 9.463509e-13
0000c0 02 47 01 36 1d f6 00 36 8f de fd 35 a3 53 f9 35
       1.926383e-06 1.9216743e-06 1.8914742e-06 1.8576287e-06
0000d0 71 77 ff 35 c7 0a 01 36 07 cf fe 35 db da fa 35
       1.9033743e-06 1.9228771e-06 1.8984728e-06 1.8690147e-06
0000e0 b8 33 fe 35 40 fb 00 36 31 6e 00 36 41 35 fd 35
       1.8939527e-06 1.9219733e-06 1.9137626e-06 1.8865468e-06
0000f0 e7 d7 fe 35 2e 65 fe 35 36 f9 fd 35 41 8e fc 35
       1.898731e-06 1.8953922e-06 1.8922499e-06 1.8816864e-06
000100 d7 9c d0 35 f7 52 d4 35 ee d3 d5 35 0a ea d4 35
       1.5542854e-06 1.5819377e-06 1.5931416e-06 1.5863345e-06
000110 ab 56 d5 35 aa c7 d9 35 7c d2 db 35 9c 8b d8 35
       1.589496e-06 1.622587e-06 1.637803e-06 1.6133886e-06
000120 46 7e d5 35 20 16 d9 35 54 e1 da 35 4f 03 d8 35
       1.5906487e-06 1.6174199e-06 1.6307845e-06 1.6094217e-06
000130 9d aa d2 35 11 9c d4 35 b8 b5 d5 35 db 64 d3 35
       1.5695874e-06 1.5840652e-06 1.5922624e-06 1.5750078e-06
000140 d0 33 34 34 5f 0a 2e 34 9b f4 1c 34 b7 cc 23 34
       1.6782656e-07 1.6208786e-07 1.4617619e-07 1.5255033e-07
000150 ff 68 2d 34 ed 79 1d 34 5a 66 4e 34 b6 74 32 34
       1.6150078e-07 1.4666121e-07 1.922248e-07 1.6620001e-07
000160 09 c6 15 34 7d 78 4d 34 10 62 4c 34 1d 24 42 34
       1.3948751e-07 1.9135946e-07 1.9034655e-07 1.8080796e-07
000170 a7 c0 23 34 58 8f 4d 34 61 b4 65 34 ba 10 5d 34
       1.5250644e-07 1.9144261e-07 2.1392908e-07 2.0588314e-07
000180 a0 0b 38 24 49 b3 6e 25 53 d0 18 25 78 2b 8e 24
       3.9908487e-17 2.0703954e-16 1.3254481e-16 6.165632e-17
000190 07 df 07 25 d9 d0 8e 25 43 f2 2c 25 34 ea 08 25
       1.1784948e-16 2.4774594e-16 1.5000703e-16 1.1875471e-16
0001a0 64 8d fb 23 92 3e 8e 24 34 ca ae 24 a2 30 1e 25
       2.7273356e-17 6.168868e-17 7.5803017e-17 1.3720793e-16
0001b0 a3 ab f3 23 cd de 9a 25 a9 1b 44 25 a8 bf b3 25
       2.6418804e-17 2.6865717e-16 1.7009662e-16 3.1181422e-16
0001c0 50 be f9 35 c4 21 00 36 28 b5 03 36 20 cb f9 35
       1.8607334e-06 1.909314e-06 1.9625968e-06 1.8611063e-06
0001d0 9a 55 0c 36 72 ba 06 36 60 c6 0a 36 3c 54 09 36
       2.0911452e-06 2.0076081e-06 2.0679072e-06 2.0463622e-06
0001e0 10 c4 01 36 26 13 09 36 b6 5c 0e 36 62 2c 06 36
       1.9336621e-06 2.0425737e-06 2.1213614e-06 1.999339e-06
0001f0 b1 0c 04 36 cb 21 0e 36 fb ae 12 36 94 cd 12 36
       1.967692e-06 2.117932e-06 2.1857547e-06 2.1875358e-06
000200 78 72 50 31 35 a0 67 31 00 6d 82 31 01 44 4c 31
       3.0333052e-09 3.3705991e-09 3.79589e-09 2.9724563e-09
000210 4a 1b 69 31 85 44 81 31 75 db 85 31 bd 62 7c 31
       3.3921475e-09 3.762184e-09 3.895759e-09 3.6726953e-09
000220 73 60 83 31 0c 1b 83 31 d3 60 6a 31 8a d5 75 31
       3.823567e-09 3.8156767e-09 3.410652e-09 3.5773575e-09
000230 23 2b 9f 31 93 ff ad 31 f6 81 a7 31 31 76 8f 31
       4.632413e-09 5.064018e-09 4.8751145e-09 4.1752846e-09
000240 c2 38 4f 24 12 9d 80 24 c3 8b 3c 24 2c a6 4e 25
       4.4934046e-17 5.577724e-17 4.0884384e-17 1.7923953e-16
000250 8e ac af 24 41 04 88 24 31 db 9a 24 70 b5 09 25
       7.618647e-17 5.8987805e-17 6.715818e-17 1.1944329e-16
000260 c4 30 d1 24 8a e2 23 25 58 57 95 24 0d 2e 15 24
       9.0721914e-17 1.4214751e-16 6.4766416e-17 3.234823e-17
000270 60 d1 65 24 99 85 2d 25 ba d0 52 24 3b 60 c4 23
       4.9833807e-17 1.5050623e-16 4.571329e-17 2.1291118e-17
000280 28 f2 20 31 7c c0 13 31 49 c9 07 31 8f 6c ef 30
       2.3420714e-09 2.150073e-09 1.9759503e-09 1.7420393e-09
000290 d1 bf 1a 31 e5 c9 42 31 97 17 cb 30 2d fd 1f 31
       2.2518984e-09 2.834548e-09 1.4776899e-09 2.328146e-09
0002a0 73 e0 22 31 3f e0 2e 31 be e6 f4 30 72 8d 28 31
       2.3701687e-09 2.5447802e-09 1.7818917e-09 2.452762e-09
0002b0 83 21 1c 31 d0 15 1f 31 07 cc 02 31 99 95 fe 30
       2.2720037e-09 2.3149944e-09 1.9033466e-09 1.852345e-09
0002c0 b1 e6 2d 36 f1 d2 31 36 4a 6e 31 36 8b 3e 2f 36
       2.591329e-06 2.649784e-06 2.6439252e-06 2.6113437e-06
0002d0 14 87 30 36 7c f7 33 36 1b 8c 35 36 b1 e9 32 36
       2.630467e-06 2.6817133e-06 2.7052654e-06 2.6660093e-06
0002e0 0a 01 31 36 80 e8 31 36 bc 67 32 36 b1 00 30 36
       2.637566e-06 2.6510388e-06 2.6584448e-06 2.6226446e-06
0002f0 db c5 2b 36 7f 34 2e 36 74 0f 2e 36 14 0b 2d 36
       2.5596153e-06 2.5958577e-06 2.5937015e-06 2.5785457e-06
000300 05 b6 f0 35 cf e9 f2 35 b0 b9 f4 35 c3 b8 ee 35
       1.7934368e-06 1.8098452e-06 1.8233459e-06 1.7786155e-06
000310 9a ae f4 35 66 53 f8 35 c8 0a f8 35 76 f0 f3 35
       1.8230232e-06 1.8501712e-06 1.8480578e-06 1.8174894e-06
000320 b2 12 f5 35 ad ab fa 35 7d 29 f9 35 27 17 f4 35
       1.8259364e-06 1.8676416e-06 1.856402e-06 1.8186155e-06
000330 f8 13 f3 35 34 52 f5 35 7e 5a f4 35 8b 6a f1 35
       1.8110723e-06 1.8277847e-06 1.8205753e-06 1.7986907e-06
000340 00 00 00 00 00 00 00 00 00 00 00 00 00 00 00 00
       0.0 0.0 0.0 0.0
000350 00 00 00 00 00 00 00 00 00 00 00 00 00 00 00 00
       0.0 0.0 0.0 0.0
000360 00 00 00 00 00 00 00 00 00 00 00 00 00 00 00 00
       0.0 0.0 0.0 0.0
000370 00 00 00 00 00 00 00 00 00 00 00 00 00 00 00 00
       0.0 0.0 0.0 0.0
000380 c3 4f 42 31 4e 3d 60 31 e2 3b 97 31 af 42 5b 31
       2.8276055e-09 3.2631138e-09 4.4014863e-09 3.19066e-09
000390 09 e0 5e 31 cd 36 5a 31 b6 26 39 31 59 2b 53 31
       3.24326e-09 3.1754326e-09 2.6943048e-09 3.0729181e-09
0003a0 46 27 25 31 88 f7 36 31 62 82 44 31 b9 8b 46 31
       2.4032984e-09 2.662519e-09 2.8595868e-09 2.8892215e-09
0003b0 8d 68 0b 31 32 2e 1a 31 67 c5 2a 31 0d 21 32 31
       2.0286592e-09 2.2436208e-09 2.4850466e-09 2.5921196e-09
0003c0 b1 95 ae 36 dc ad b4 36 19 a5 ad 36 66 72 a6 36
       5.2030305e-06 5.384658e-06 5.1750217e-06 4.9605032e-06
0003d0 df 90 af 36 f9 8f ab 36 c6 14 ac 36 2c b3 ad 36
       5.2322716e-06 5.1129578e-06 5.128418e-06 5.17666e-06
0003e0 95 a9 ac 36 8e ed ad 36 df 36 ad 36 47 45 aa 36
       5.1457414e-06 5.183457e-06 5.1621896e-06 5.0744598e-06
0003f0 b5 48 a8 36 ec 5d ab 36 2c 2f c5 36 7a ad b2 36
       5.0152544e-06 5.107131e-06 5.876549e-06 5.3250087e-06

exp_avg f4 [1, 16, 4, 4]
000000 50 18 c1 b7 f4 34 96 b7 38 18 6f b7 6b ea 6e b7
       -2.3018714e-05 -1.7906052e-05 -1.4251149e-05 -1.4240485e-05
000010 49 16 c4 35 dc 88 1f 36 19 bb 3e b6 e2 98 af b6
       1.4609624e-06 2.377251e-06 -2.8421111e-06 -5.2332043e-06
000020 8f f8 d9 36 82 64 42 36 da 56 e5 36 fe 82 df 36
       6.49604e-06 2.8966756e-06 6.8348427e-06 6.6611674e-06
000030 1a 6b 86 35 7d d5 21 36 0b 9a ab 36 e3 81 b3 36
       1.0014949e-06 2.4115136e-06 5.11413e-06 5.3497365e-06
000040 a3 df b6 a6 c5 c3 24 a8 22 5c 65 a7 27 e3 15 27
       -1.2689404e-15 -9.1462796e-15 -3.183008e-15 2.0801043e-15
000050 0d 0f 94 af 5b 2d 9f 2f 70 77 f4 2f 0c 7c 21 30
       -2.6931737e-10 2.8954159e-10 4.4468207e-10 5.874774e-10
000060 61 38 cb 2f 8b 4f d1 2f c8 31 cb 2e 12 ef 22 af
       3.6965545e-10 3.8073397e-10 9.240214e-11 -1.4818749e-10
000070 4d 64 ac af e0 97 aa af 06 02 87 af 74 6e f3 2e
       -3.1357886e-10 -3.1030734e-10 -2.4557795e-10 1.1069981e-10
000080 73 f2 23 35 2b 72 4d b5 4c 7f 76 b5 7d 20 27 34
       6.107504e-07 -7.653459e-07 -9.182738e-07 1.5564906e-07
000090 f4 e9 26 35 33 da d4 33 91 39 ca b4 1c e8 78 34
       6.2180266e-07 9.9117095e-08 -3.7667317e-07 2.3181241e-07
0000a0 46 4d 49 35 a2 02 7e b4 34 fc 81 b5 63 ed 37 35
       7.499078e-07 -2.3656551e-07 -9.68465e-07 6.8518256e-07
0000b0 cf b3 65 35 2d 8f 84 b2 a7 c0 f1 b3 ff 38 5c 32
       8.5570804e-07 -1.5431931e-08 -1.125748e-07 1.2818645e-08
0000c0 b2 61 01 b9 4e be 96 b8 9e 8f 51 b9 05 66 23 b9
       -0.00012338793 -7.1880044e-05 -0.00019985295 -0.00015582897
0000d0 0e b2 43 b8 12 97 bd b8 f0 f0 1b b9 07 b1 27 b9
       -4.665745e-05 -9.040361e-05 -0.00014871708 -0.00015992309
0000e0 93 1f 03 b9 11 96 02 b9 ec 8a 9b b8 54 43 43 b9
       -0.00012504896 -0.0001245367 -7.416852e-05 -0.00018621731
0000f0 a3 c5 f9 b8 bb e3 e9 b8 86 47 07 b9 69 69 a0 b8
       -0.00011910058 -0.00011152724 -0.00012901248 -7.649029e-05
000100 09 31 ed b8 ed 48 19 b9 a5 e6 ee b8 fb 4a a2 b8
       -0.00011310174 -0.00014618384 -0.00011391685 -7.738728e-05
000110 d0 e5 83 b8 25 25 97 b8 63 47 0a b9 97 57 e1 b8
       -6.289373e-05 -7.20716e-05 -0.00013187299 -0.00010745151
000120 48 41 0e b9 ca 87 d9 b8 de f0 a9 b8 10 81 07 b9
       -0.00013566494 -0.00010372659 -8.103413e-05 -0.00012922683
000130 4e ea 8c b8 40 f6 a6 b8 fc 76 1f b8 da 3a 0a b9
       -6.719363e-05 -7.9613645e-05 -3.8019367e-05 -0.0001318263
000140 61 40 9c b5 2e 40 5f b5 dd 72 f0 34 d1 ec ee b4
       -1.1641642e-06 -8.316737e-07 4.4787058e-07 -4.450326e-07
000150 33 1d 12 34 75 d6 f9 b3 e5 2e 08 34 d6 62 be b3
       1.3607932e-07 -1.16339756e-07 1.2683047e-07 -8.8655426e-08
000160 50 79 8e 35 74 67 f2 b4 cd f3 de b3 4a d7 c2 b4
       1.0615131e-06 -4.5151285e-07 -1.0382028e-07 -3.629196e-07
000170 b6 96 7f 35 ef 07 6c b5 c0 e5 12 b5 31 61 bb b4
       9.5214216e-07 -8.7928396e-07 -5.472357e-07 -3.490218e-07
000180 ad 52 a9 a4 00 22 0a a7 68 e4 66 a7 ee 8b a2 a6
       -7.3432125e-17 -1.9169779e-15 -3.2042731e-15 -1.1278936e-15
000190 81 2f 9e 26 e6 76 af a3 b7 da 36 a7 de 25 b9 a6
       1.0976328e-15 -1.9023893e-17 -2.537614e-15 -1.2847218e-15
0001a0 dc d8 c3 26 bc 84 25 25 cc 51 04 a7 9a ae 61 a7
       1.3589623e-15 1.4356441e-16 -1.8363022e-15 -3.1319674e-15
0001b0 48 18 93 26 0b 61 5f 26 05 40 2c 26 5e c2 3b a7
       1.0206755e-15 7.7500185e-16 5.976125e-16 -2.605683e-15
0001c0 78 10 d7 b7 ce 51 d4 b8 d2 fb c5 b8 af 68 9a b8
       -2.5637666e-05 -0.00010124185 -9.440597e-05 -7.362791e-05
0001d0 0a f2 05 37 ec 9b a0 b8 d6 2d e1 b8 b3 20 65 b8
       7.983772e-06 -7.658437e-05 -0.00010737374 -5.4628308e-05
0001e0 77 ab f5 b8 d5 28 9f b8 60 70 48 b8 f4 57 5d b8
       -0.00011714448 -7.5893164e-05 -4.7788373e-05 -5.277242e-05
0001f0 fe 5a 57 b8 cb f6 c7 b6 16 a7 8f b8 33 55 8b 37
       -5.1344738e-05 -5.9593926e-06 -6.8498935e-05 1.6609765e-05
000200 9b 50 81 37 7c 76 b7 36 3a 04 de 36 bf 0c 9a 36
       1.5415533e-05 5.4676184e-06 6.6166076e-06 4.5910415e-06
000210 2a 92 a7 35 a5 a7 43 b7 b1 4a 80 b7 07 ad 2a b7
       1.2485009e-06 -1.16619385e-05 -1.529357e-05 -1.0173076e-05
000220 64 20 08 b6 84 b7 68 b7 d9 37 fd b6 de 45 dd b6
       -2.0284433e-06 -1.3871006e-05 -7.546489e-06 -6.594447e-06
000230 b4 6a 9a b5 0c f9 07 b6 ac df 93 36 db 2f 6f 35
       -1.1504949e-06 -2.0261532e-06 4.40698e-06 8.9104077e-07
000240 04 00 00 00 70 c6 e3 84 65 b3 01 84 b5 7b 44 85
       6e-45 -5.354968e-36 -1.5246251e-36 -9.238597e-36
000250 04 00 00 80 ac 20 05 05 db e4 1c 85 c7 21 32 85
       -6e-45 6.259631e-36 -7.377119e-36 -8.375724e-36
000260 04 00 00 80 ca 86 1e 05 3a e0 8c 84 a2 19 ab 04
       -6e-45 7.453881e-36 -3.311976e-36 4.0225447e-36
000270 04 00 00 00 48 e2 cc 83 32 fd 19 04 40 a4 40 05
       6e-45 -1.2041994e-36 1.8101325e-36 9.0579646e-36
000280 51 1c e7 36 8e f0 3f b7 21 6d 14 37 77 1e 09 b7
       6.887633e-06 -1.1440496e-05 8.846896e-06 -8.1729295e-06
000290 fd 45 37 37 93 4a 20 b7 8a ea ac 34 9e 5d a9 b6
       1.0923945e-05 -9.554106e-06 3.2208146e-07 -5.047491e-06
0002a0 db e0 ab 37 9b c7 9e b5 b4 48 0d b5 e8 8f 41 b7
       2.0489495e-05 -1.183001e-06 -5.263239e-07 -1.1537202e-05
0002b0 44 38 a1 37 6c 34 38 34 e0 20 0a 37 0c 98 42 b7
       1.9218896e-05 1.7155406e-07 8.233095e-06 -1.1598702e-05
0002c0 d5 79 9c 38 68 a9 25 39 7e 3f 3d 39 ec 61 02 39
       7.461353e-05 0.00015798735 0.00018048097 0.00012434245
0002d0 73 b3 f6 38 67 3d d9 38 e0 3d 64 39 c9 bd 9b 38
       0.00011763619 0.000103588034 0.00021766825 7.426326e-05
0002e0 d5 b2 14 39 e8 6b e2 38 7d 50 92 38 bc 92 a3 38
       0.00014181 0.00010796619 6.9768146e-05 7.799777e-05
0002f0 3c a2 a1 38 01 b4 03 39 55 98 0a 39 ef c2 da 38
       7.707297e-05 0.0001256019 0.00013217454 0.00010431359
000300 3a ba 4f 38 5c f6 c1 38 1b 09 81 39 30 0e ea 38
       4.9526083e-05 9.248845e-05 0.00024611581 0.00011160632
000310 7e 1c ca 38 e7 64 af 38 da c7 51 39 4c 33 28 38
       9.637418e-05 8.363445e-05 0.00020006244 4.0102095e-05
000320 8a 95 10 39 fd c5 a7 37 ce 69 10 39 e3 7f 0f 39
       0.00013788618 2.0000147e-05 0.00013772325 0.00013685184
000330 60 7a ec 38 6c 2c 42 38 2b a3 df 38 07 a1 08 39
       0.00011276151 4.6294575e-05 0.00010663861 0.00013029958
000340 00 00 00 00 00 00 00 00 00 00 00 00 00 00 00 00
       0.0 0.0 0.0 0.0
000350 00 00 00 00 00 00 00 00 00 00 00 00 00 00 00 00
       0.0 0.0 0.0 0.0
000360 00 00 00 00 00 00 00 00 00 00 00 00 00 00 00 00
       0.0 0.0 0.0 0.0
000370 00 00 00 00 00 00 00 00 00 00 00 00 00 00 00 00
       0.0 0.0 0.0 0.0
000380 45 71 1a b7 d9 45 a8 b7 39 82 16 b7 d7 99 c0 b6
       -9.205488e-06 -2.0059686e-05 -8.9710165e-06 -5.739955e-06
000390 2b 0a b0 36 35 e0 ea b6 63 ef 21 36 2f 85 d2 b6
       5.2463924e-06 -6.9998446e-06 2.413021e-06 -6.2739923e-06
0003a0 c9 53 83 36 3e ee 14 b7 ee 1b 69 35 bb 0a 9e b6
       3.913858e-06 -8.8769575e-06 8.6839907e-07 -4.710016e-06
0003b0 1e ed a5 36 2f ec 14 36 b6 cb f3 36 e0 f9 e7 b6
       4.9449873e-06 2.2191196e-06 7.2656794e-06 -6.9134258e-06
0003c0 e9 ed 42 39 28 e1 85 39 98 01 e4 b8 ab 93 1a 39
       0.0001858991 0.0002553549 -0.00010872184 0.00014741595
0003d0 06 53 eb 38 4b 14 45 39 23 72 13 39 61 80 77 38
       0.000112211375 0.00018794944 0.00014061532 5.900895e-05
0003e0 bd 0d 02 39 52 55 b1 39 2c 20 d7 38 2a a2 58 39
       0.00012402884 0.0003382364 0.000102579914 0.00020659776
0003f0 5d 0f 47 39 c9 3a 0d 39 03 6f d0 b8 dc ae ce 38
       0.00018983842 0.00013468707 -9.9388904e-05 9.8554156e-05
