pre-trained/DCT4_soft-thr_L2_rnd-init_0600.pt (torch_old, 142396 bytes, 10 tensors)

weight f4 [16, 1, 4, 4]
00000000: ee5d 1abe 422d febe 41af 19bf 61b3 edbe
00000010: 7ebd bc3c add5 163e 936f fa3c 1998 0c3f
00000020: c725 1bbd 3eb4 943e 666c b03e cbac 5b3e
00000030: f6d6 f4bc 7206 a13e a166 4e3e 39c5 adbe
00000040: 15eb 00be 74e7 df3c 6cd7 8a3d 9fff 9c3d
00000050: b0a8 c93e c4b2 2abe 2f92 ef3d cdab 32be
00000060: cb78 30be db1f 6f3e 4f38 debe a1ee 573d
00000070: 73ee 3a3e e513 253e 833d fb3b 8938 d9bd
00000080: 7e5e 0a3f 4aaa 6ebe f396 3e3e 2aab d5be
00000090: 892d 2d3c aec6 5f3c abbf 73bd 9c38 4c3e
000000a0: 6247 80be bb22 c9bd c965 683e 40e3 8fbe
000000b0: 0f7e e0bd bd98 a03b d4c4 23bd b0e5 12be
000000c0: 1654 803d 3006 743e d1d7 923e 0ee8 233e
000000d0: 65e1 4f3e de7b 913e df44 da3e 4293 80bd
000000e0: 0133 653e b0a6 dbbd 0b16 623e ca6b 1cbe
000000f0: 1c2a b63d 3068 01be 45d6 bb3e c1af da3e
00000100: 8e65 d23d 8aba 773e 238a efbd d29e c93d
00000110: b6ac 853e 9465 a03e 2591 4c3e 0e7f 063d
00000120: a746 b63e cd9f 7a3e 9874 ef3e e414 473e
00000130: c006 773d 370a d63d 7a0a 823d 8e74 dabd
00000140: a2d3 2cbe fe10 5cbc 6238 bd3e 3363 11bf
00000150: 2a10 833d e1c8 8c3c 71cc 38be b0a5 48bd
00000160: 9263 26be 776f 0eba 1562 233e e86c 943c
00000170: 8739 febd 8fc8 82be 9c68 e73d ecf6 453e
00000180: 847c 4fbe 2c40 57be ae8e 4e3e aa83 6cbe
00000190: 783f 6fbe 1dc8 09be 860f 11bb afa9 973d
000001a0: c7e9 a8bd 73e5 523e 0366 8a3d 2a85 803e
000001b0: dca3 a5be 09fc e53c 9134 dd3d f25f 31be
000001c0: 7fe8 0b3e 25d3 c13d 1128 883e c6cc 703e
000001d0: 8db7 e43c e148 643e ae0f 37be 9d81 403e
000001e0: 8819 ba3d 2520 df3d bfe4 413e 0573 9b3e
000001f0: 359e ce3d a0e5 823e 3f10 c4bd de14 1c3e
00000200: 7d55 7d3e 5b27 573e 5d32 da3e f2ae a13e
00000210: 2574 6bbc b2c2 fd3e 26ca cf3e c37c 243e
00000220: 3822 e7be 0448 2dbf f1a0 cd3d 3cd6 9bbe
00000230: d67f 51be ae2a 2abf fb73 993c 8109 dabd
00000240: b105 9cbe 65b1 83bb 5d1b 42bd 8be5 94bd
00000250: eaa7 65bd 0234 f93e 148e 4abd 2850 d63d
00000260: f64b 21be 6600 483e 594c 10be 53e7 3d3e
00000270: 6a53 ce3e 9795 c1be efa7 25be 2398 103c
00000280: aeed adbe 5a2f b83c 45ec 9d3e 97f6 313e
00000290: 62cf 06bf 384f 8bbe ac41 d13e 3962 a53e
000002a0: a008 ecbe cbd5 56bd afda 363e e2b4 6dbe
000002b0: d645 e8be 6abb 083f 3ba6 af3e ff52 3fbd
000002c0: 0812 d9bd 51af 14be 1e06 11be b3b1 5ebd
000002d0: a812 19be 617e adbe 5a00 473d 5461 05ba
000002e0: 3d03 c5be 45e2 0bbf bf98 65be f14c e3be
000002f0: 771d 22be b511 a2be 061f e8bd 698c 2cbe
00000300: 466e 303d 773c 94be ef87 5dbe beaa 81be
00000310: 9e6d 7ebe f087 11bf 9ce1 c53d 9500 98bd
00000320: 95b7 15be e19e e0bd 6cba 84be 6666 bebe
00000330: 4df3 1dbd b032 15be 0cbe 25be b370 c6bd
00000340: f9e8 cfbd 5112 303d ae06 a6bd 6a27 a13d
00000350: 8935 ed3c 8dde 0a3e 52d9 613d e445 1d3e
00000360: 5448 523e 64c7 a4be d9fb 6f3b 651b fbbd
00000370: ebf1 1bbd 8a1c a23e 566b c13c 1c58 42be
00000380: 086e 29be 1127 003e 408d 2c3d 71a1 cc3d
00000390: 57a0 aabd 71de 3b3e 3914 903e c698 673e
000003a0: 0edc 38be 7d14 62be ee6f ff3e 7ab6 a03e
000003b0: a31a b5be 05b7 5cbf 7706 033c 5223 143e
000003c0: a491 d1bc f993 71be 7e9a a0be 89b9 f9be
000003d0: 76a5 a2be 37c5 69be 9b56 973e 97f1 16be
000003e0: 0dd6 51be 6a23 c5bd 49da d0bd 54e3 78be
000003f0: 84d9 9abe b4d1 4fbd 0b4b f3be 397c ffbd
-0.15074894 -0.49643904 -0.6003304 -0.46425918 0.023039576 0.14729948 0.03057078 0.5491958
-0.037877824 0.29043764 0.344577 0.21452634 -0.029887658 0.3145023 0.20156337 -0.3393953
-0.12589677 0.027332045 0.0677937 0.07665943 0.3938651 -0.16669756 0.11697804 -0.1744835
-0.17233579 0.23351996 -0.43402335 0.05271781 0.18255024 0.1612087 0.007667245 -0.10606486
0.54050434 -0.23307148 0.1861227 -0.4173215 0.010569938 0.013658209 -0.05950896 0.1994347
-0.2505446 -0.098210774 0.22695078 -0.28103065 -0.10961544 0.0049010203 -0.03998263 -0.14345431
0.06266038 0.23830485 0.2868028 0.1600649 0.20300825 0.28414816 0.4263067 -0.06278087
0.22382738 -0.107251525 0.22078721 -0.15275493 0.088947505 -0.126374 0.36686912 0.42712215
0.10273276 0.24192253 -0.11696269 0.09844746 0.2610833 0.31327498 0.19977243 0.032836013
0.35600778 0.24475022 0.4676864 0.19441563 0.06030917 0.10451167 0.063496545 -0.10666762
-0.16877607 -0.013431786 0.3695708 -0.5679199 0.063995674 0.01718563 -0.18046738 -0.048986137
-0.1624892 -0.00054334797 0.15955384 0.018118337 -0.12413316 -0.2554364 0.112992495 0.19332474
-0.20262343 -0.21020573 0.20171615 -0.23097101 -0.23364055 -0.13455243 -0.0022134497 0.074054115
-0.082477145 0.2059534 0.067577384 0.25101596 -0.32351577 0.028074281 0.10801042 -0.17321756
0.13662909 0.09464101 0.26593068 0.23515615 0.027919555 0.22293426 -0.17877075 0.18799444
0.09086901 0.10894803 0.18934916 0.3036119 0.10088769 0.25565815 -0.09573411 0.15242335
0.24739642 0.21011107 0.4261655 0.31578785 -0.014370953 0.49562603 0.40583915 0.16063218
-0.45143294 -0.6768801 0.10040463 -0.30436885 -0.20458922 -0.66471374 0.018732062 -0.10646344
-0.30473092 -0.00401895 -0.047389377 -0.07270344 -0.05606834 0.4867249 -0.049451903 0.10464507
-0.15751633 0.19531402 -0.14091624 0.18545274 0.40298015 -0.3780944 -0.16177343 0.008825335
-0.33970398 0.022483516 0.30844322 0.17379223 -0.5266019 -0.27208877 0.40870416 0.323015
-0.4610033 -0.052449983 0.17856859 -0.23213533 -0.4536578 0.5341097 0.3430651 -0.04671001
-0.10599142 -0.14520003 -0.1416249 -0.054368686 -0.14948523 -0.33885482 0.04858432 -0.00050880504
-0.38479033 -0.54642135 -0.2242155 -0.4439464 -0.15831552 -0.31654134 -0.11334042 -0.16850437
0.043073915 -0.2895238 -0.21633886 -0.25325578 -0.24846503 -0.5684805 0.09662172 -0.07421986
-0.14620812 -0.10967804 -0.2592348 -0.371875 -0.038562108 -0.14570117 -0.16185778 -0.096894644
-0.10151858 0.042986218 -0.08106743 0.07868846 0.028956192 0.13561459 0.055138893 0.15358692
0.20535403 -0.32183373 0.0036618619 -0.122610845 -0.038072508 0.316624 0.023610752 -0.18978924
-0.1654588 0.12514903 0.042126894 0.0999173 -0.08331364 0.18346573 0.2814043 0.22616872
-0.18052694 -0.22078128 0.49890083 0.3138922 -0.35371885 -0.86216766 0.007997147 0.14466599
-0.025582142 -0.23591603 -0.31367868 -0.48774365 -0.31766862 -0.22829138 0.29558262 -0.14740597
-0.2049181 -0.09625895 -0.101978846 -0.24305469 -0.30244076 -0.050737098 -0.4751819 -0.124748655

bias f4 [16]
00000000: b695 3a3f 2e1c 053e cbeb 173e 9116 863e
00000010: c1ec 683e 61fe 3cbe 1c17 8b3e 7d21 c23e
00000020: df83 3e3f 8263 00bd 47d0 403f 5eaa 8f39
00000030: 93a1 94bd 58ea 4ebd 9a3a 49bf 9e33 82be
0.7288469 0.12999031 0.14836042 0.26189092 0.22746564 -0.18456413 0.2716607 0.37916175
0.7441997 -0.031344898 0.75317806 0.0002740202 -0.0725738 -0.050516456 -0.78605044 -0.25430006

weight f4 [1, 16, 4, 4]
00000000: 66c8 50bd 3beb ab3c 5016 3f3d 52fb 26bc
00000010: 54a3 5a3d 3b64 533d 44a5 303d 9d4f 023c
00000020: a8b3 cd3d e772 e03b 7031 4ebb 9a77 2cbd
00000030: 97e5 cbbd faa8 c7bd 32d2 acbd b608 05bc
00000040: 12d6 b33e e3ee 86bd 046e e53e 6713 10be
00000050: 22c9 073f bcee 833e ff2a 3a3e 6275 b4be
00000060: afbe efbe c10a 053e b386 bbbc 1a82 01bf
00000070: 004a 0a3e 12f7 243e ce56 44be e1d7 70be
00000080: 244f 4e3e d30b 57be 29bf 04bf 36b0 213d
00000090: af8c ff3d 1447 313e f2a1 32be 38da 1c3d
000000a0: 33d0 c13d 70c7 513d b067 d4be 7043 833e
000000b0: ff84 eb3d 9646 193e 118c 6cbd dc41 3b3c
000000c0: ea7d 82bd 34ea 843c 7725 37be 32a5 24be
000000d0: 5b4e 3c3c 4d2d 823c f164 e3bd bc04 27be
000000e0: beaa c0bd 92f8 d1bd 6bce c6bd cf68 10be
000000f0: a7d6 3dbd e71f 65bd edcc 06be 76ed 56bc
00000100: 77ba bfbd a35c 24be 4108 303e 81d4 873e
00000110: a0ef 613e bf79 cb3e 5ed7 4bbd cb9c 88bc
00000120: 4e95 d33c c325 3a3d 3062 e23c f139 85be
00000130: ea46 643c e553 633e 0978 763d 0aaf 64bd
00000140: 13b6 a4be 19a6 c7bd f6d8 9abd af62 83be
00000150: b30d 613e be28 d23c 8b77 43be ab30 e23a
00000160: 6be2 ea3e eb5a 9bbe 8876 603d 4de5 9fbd
00000170: 9105 9d3e f10a 65be ac8a 5cbe 1189 acbe
00000180: 6d6d 66be be06 f73d ef45 f23d 1962 86bd
00000190: 873f 9bbe bc5a 26be d5aa dcbc 888e 78bd
000001a0: 6ed7 3bbe 8960 acbd 85fe 6d3e 418b 373e
000001b0: b635 173d 0147 1fbe b096 b73e d3fb 05bf
000001c0: 8e58 4a3e d384 f33d f229 6fbc e2b4 bbbe
000001d0: 1532 9d3e 60f0 67bc bda6 8abe bfc4 77be
000001e0: 08ae 02be 4ad9 c5bd 5e03 8f3e 03e6 d8bd
000001f0: 618f 813c 21c3 4c3e 7029 8c3d ebee a53d
00000200: ac87 aa3b f055 3dbc f2fb 89bd 6dc9 adbb
00000210: 433e 01bd 324b 993a d4a5 b1bd 727e 66bd
00000220: c51b 55bc d423 a13d 1788 9b3d d593 a2ba
00000230: c133 903c 32de 7e3d 6013 183d 3ed8 ad3c
00000240: 3bc9 b9bc 673d 873d 84c1 bc3e 4e9f 9fbe
00000250: 5c4b ddbd 1c91 ab3e 63a1 cdbd dc4f 85bd
00000260: 6009 a63d dce3 773c e885 733e 696b 8c3e
00000270: 1e87 973d b463 22bd 05a7 143e 71df 76be
00000280: 2f86 ea3b 2dad 313d de83 2f3d ed72 afbd
00000290: e3cb fbbc 4297 d03c 0312 0e3b fcda 0fbd
000002a0: c69b 8f3d 4aab 923d 0075 4dbd fc32 9dbd
000002b0: e156 363b 31c1 153d 34fc a33b 3870 87bd
000002c0: 018e f1bb f1d9 2f3e 050a 453e a638 a7bc
000002d0: 2209 973e fa1d 4b3e b26d f53d 33cd 2ebe
000002e0: 23a5 9abd 2063 063e fc10 0d3d f6f7 3bbe
000002f0: 2555 8fbd 7e48 4e3e c840 603e e972 bf3c
00000300: 1dcb c1bd fa3a 41bd 661d 523e b7eb 46be
00000310: d8f5 723d b0c2 31be 8d42 00bc c8d9 03be
00000320: 1367 6f3d 85ff 8ebe 51b5 8ebc aa8d 24bb
00000330: 4e6c d43d 5443 73bd eeea 2cbe 0112 893d
00000340: 3fb5 d23c 6c15 613e 7e54 9ebd 636f a9be
00000350: e43e 583e d6a1 a1be 9c78 013e d68b 4cbd
00000360: 9626 8a3e 080e cfbd 83fb 8e3e e5f9 7f3e
00000370: 0f95 e43d 00c6 393e 870a 48bd 111d 7cbd
00000380: fbaa 4abc 79ba e13b 4821 22be f561 8ebd
00000390: 33b3 443d 5969 d53d bf3a 3fbd 1b8b 4abd
000003a0: c0f1 703c 3a5a db3c 4b0c 28bb 41ea f9bc
000003b0: 449d 173d 171c cc3c 8919 26bc a09d e23b
000003c0: 97d9 183d 5623 a93d 713f c7be 94a7 99bd
000003d0: 3d91 70bd 4cbf 9fbd 8ac6 a3bd d391 4fbe
000003e0: 96d4 bbbd 32b7 e53d 1730 fabd ae50 a43b
000003f0: 29f5 173c ad0b 33bd 7ea7 55be 35ba e4bd
-0.050972365 0.02098619 0.04665214 -0.010191755 0.053378418 0.05160926 0.04312636 0.007953552
0.10044032 0.006849635 -0.0031462573 -0.04210625 -0.099559 -0.097490266 -0.08438529 -0.008119753
0.3512426 -0.06588533 0.44810498 -0.14069901 0.5304128 0.25768077 0.18180464 -0.35245806
-0.46825168 0.12992384 -0.022891378 -0.50589144 0.13504791 0.16109875 -0.19173738 -0.23519851
0.20147377 -0.21000604 -0.5185419 0.03947469 0.12478005 0.1731227 -0.1744459 0.038294047
0.09463539 0.05121559 -0.41485357 0.25637388 0.11499976 0.14968333 -0.057750765 0.011429276
-0.063716725 0.016224958 -0.17885385 -0.16078642 0.011493291 0.015890742 -0.111032374 -0.163104
-0.094075665 -0.10252489 -0.0970734 -0.14102481 -0.046347287 -0.055938628 -0.1316411 -0.013118139
-0.09361737 -0.16050963 0.17190649 0.26529315 0.22064066 0.39741322 -0.049765937 -0.016676327
0.02582803 0.04544617 0.02763471 -0.26020768 0.013932923 0.22199972 0.06017307 -0.055830993
-0.32170162 -0.097484775 -0.07560913 -0.25661227 0.21977882 0.025654193 -0.19088571 0.0017256936
0.45875868 -0.30342802 0.05480054 -0.078074075 0.3066831 -0.22367455 -0.21537274 -0.33698323
-0.2250268 0.12061833 0.11829745 -0.065616794 -0.30321905 -0.1624555 -0.026936928 -0.060682803
-0.18343899 -0.0841685 0.23241623 0.17924215 0.036916457 -0.1555443 0.35857153 -0.5233738
0.19760343 0.118905686 -0.014597403 -0.3666144 0.30702272 -0.014156431 -0.27080336 -0.24196146
-0.127617 -0.09660585 0.27932256 -0.10590746 0.015815439 0.19996311 0.06843841 0.081022106
0.0052041616 -0.011556134 -0.06737508 -0.005303553 -0.031553518 0.0011695384 -0.08674207 -0.05627293
-0.013007109 0.07868162 0.075943165 -0.0012403677 0.017602803 0.06222362 0.037127852 0.021221276
-0.022678962 0.066035084 0.3686639 -0.31176227 -0.10805389 0.33509147 -0.10040548 -0.065093726
0.08107257 0.0151300095 0.2378155 0.27425697 0.073988184 -0.039645866 0.14516838 -0.24108674
0.007157109 0.043378044 0.042850368 -0.08566842 -0.03073687 0.02546275 0.0021678216 -0.03512095
0.07012133 0.07161577 -0.050160408 -0.0767574 0.002782278 0.036561195 0.00500443 -0.06613201
-0.0073716645 0.17172982 0.19242103 -0.020412754 0.29499155 0.19835654 0.11983813 -0.17070465
-0.075510286 0.1312375 0.034440026 -0.18356308 -0.06998662 0.20144841 0.21899712 0.023370223
-0.09462569 -0.047175385 0.20519027 -0.19425856 0.059316486 -0.17359424 -0.007828367 -0.12876046
0.05844791 -0.2792932 -0.017420443 -0.0025108852 0.1037222 -0.05939038 -0.16886494 0.06692887
0.02572119 0.21980828 -0.07730959 -0.33092794 0.21117741 -0.31568784 0.12643665 -0.049938045
0.26982564 -0.10110098 0.27926263 0.24997671 0.11161243 0.18141937 -0.048838165 -0.061551157
-0.0123698665 0.0068886844 -0.15833008 -0.069522776 0.04802246 0.10420484 -0.046686884 -0.049449068
0.014706075 0.026776422 -0.0025642093 -0.030507209 0.037015215 0.024915738 -0.010137924 0.006915763
0.037316885 0.08258693 -0.3891559 -0.07502666 -0.05873226 -0.07800159 -0.07996853 -0.20270471
-0.09171407 0.11216582 -0.12216204 0.0050145006 0.009274759 -0.043712307 -0.20864674 -0.11168329

thr f4 [1, 16, 1, 1]
00000000: 0000 803f 0000 803f 0000 803f 0000 803f
00000010: 0000 803f 0000 803f 0000 803f 0000 803f
00000020: 0000 803f 0000 803f 0000 803f 0000 803f
00000030: 0000 803f 0000 803f 0000 803f 0000 803f
1.0 1.0 1.0 1.0 1.0 1.0 1.0 1.0
1.0 1.0 1.0 1.0 1.0 1.0 1.0 1.0

exp_avg_sq f4 [16, 1, 4, 4]
00000000: e4b8 6f31 6d4a 3e31 566c 3131 6224 3531
00000010: 6249 8431 7e7c 8f31 a93b 8a31 b8aa b031
00000020: 2fb1 8f31 116b b131 6b34 ba31 3d42 a731
00000030: 6db0 8f31 1650 b131 3a1e a631 6dc0 8531
00000040: 54ae 7d28 7a59 3028 a0e9 8228 8d31 8628
00000050: c6f9 e128 7bda 3c28 2c5d d927 86db c827
00000060: 9cf1 e227 7f8c 6a28 1390 5426 9148 3c27
00000070: 7ead ee28 4e33 9e28 5306 0928 0b04 8f27
00000080: c896 b027 da89 be26 ce1a 2627 52a1 c126
00000090: 2ca6 fc26 8f00 0327 f005 0e27 6269 0127
000000a0: df3f 0727 fd2b e826 ce14 8027 1ee5 bb26
000000b0: 1a2b a226 43c1 2927 59a3 1327 73b4 ed26
000000c0: 32e1 8437 66c6 8437 6679 8637 8f30 8637
000000d0: 21cf 8837 d7c6 8937 2e38 8b37 2d0c 9737
000000e0: 7821 8937 db12 8f37 a5fd 8c37 21a3 8f37
000000f0: c334 8c37 853b 9037 bb87 8d37 e0d9 8e37
00000100: 527b 7036 a497 7536 d1cc 7336 9dde 7136
00000110: f972 7836 d463 7d36 c716 8036 26e9 7636
00000120: 336e 7936 a396 7c36 ff63 8036 4bb1 7836
00000130: 68d9 7336 68fd 7536 9563 7b36 6573 7236
00000140: 75ae 0038 4922 ff37 f4be 0038 16d2 0138
00000150: f1d8 0338 ec93 0038 992d 0638 237d 0438
00000160: a4c8 0238 f9ba 0438 a737 0338 d2e0 0038
00000170: 9300 0438 95e5 0738 8cbb 0238 42f2 0138
00000180: c1fe 9a2b 1fe6 a42b 99e8 462b 79f2 9a2b
00000190: df55 a32b 61ef 8c2b 4af5 372b 88cb 3f2b
000001a0: 60be 662b cbf3 fc2a 0bf9 bf2a e764 902a
000001b0: d12b a62b 15bd 5d2b 908f 092b 4e8c 492b
000001c0: 9569 2e36 ea1d 3836 ab94 3e36 fd18 5136
000001d0: fef7 2a36 2ec8 4436 6a76 3b36 0949 4536
000001e0: 3b11 3b36 0c8e 3e36 46df 3e36 9e44 4136
000001f0: 2d2e 3636 6a11 3136 7c3d 3c36 19ef 3e36
00000200: 2975 a531 960f c831 1b11 db31 3696 c431
00000210: 4b4b 8a31 1070 ab31 5ad4 bd31 ff96 b031
00000220: d2b5 6131 ad35 1e31 d5e7 7131 0b1c 5631
00000230: 58fb 2531 9baa 0531 cae0 3e31 300a 4f31
00000240: dc34 5228 c1a1 fd28 b5bd 2b29 da3f e528
00000250: c9cd a828 e13f 9e29 8d5b f128 ddb3 4c29
00000260: c1f5 3d29 ce07 6d29 5efb 8b28 f9f7 5629
00000270: 564c 8929 9851 7e28 d4c3 7d28 f68e 1329
00000280: 598e 2630 c3e2 8930 1e82 da30 027c ce30
00000290: 3349 1830 1f53 9930 5501 f630 a011 d930
000002a0: 0206 2230 50a4 a330 ec57 ef30 4e82 aa30
000002b0: 7331 4a30 3a46 f730 5d01 f130 079d bc30
000002c0: cf11 3537 7812 3e37 59ea 4e37 a016 5937
000002d0: 3926 3e37 6055 4337 cf76 4a37 1cff 4837
000002e0: 671d 3f37 7089 4137 5e5d 4537 760c 4937
000002f0: fbdc 3e37 53f5 4537 036b 4237 ccbc 4837
00000300: b02c 0036 a50e 0336 8aa4 fe35 ca71 ff35
00000310: 010b fb35 fafb 0136 6cdd fd35 eea2 f935
00000320: b812 fe35 9cae fe35 4a44 ff35 f100 fe35
00000330: 8092 f735 a200 fa35 2bca f935 c1f0 f635
00000340: 0000 0000 0000 0000 0000 0000 0000 0000
00000350: 0000 0000 0000 0000 0000 0000 0000 0000
00000360: 0000 0000 0000 0000 0000 0000 0000 0000
00000370: 0000 0000 0000 0000 0000 0000 0000 0000
00000380: 18c1 ef31 b863 d431 4648 c231 d16f f831
00000390: 6488 0732 4d15 eb31 1bdd a931 7eca 0132
000003a0: 2245 1f32 9ea8 0b32 db47 9f31 ff6f bb31
000003b0: d213 3732 fdf3 4d32 b87e f531 2360 d131
000003c0: db20 a838 8d54 ad38 a91b a338 dd95 9e38
000003d0: fdb5 a738 e78e a238 ec39 9f38 9dfb 9738
000003e0: c83a aa38 a9fc a138 6e30 9d38 fb1b 9538
000003f0: ac80 a138 0893 9938 8307 9938 d5cf 8c38
3.4884176e-09 2.7690945e-09 2.5818472e-09 2.6359648e-09 3.8500483e-09 4.176001e-09 4.023111e-09 5.1416826e-09
4.181991e-09 5.16355e-09 5.4192717e-09 4.86787e-09 4.181905e-09 5.1604827e-09 4.834672e-09 3.8926857e-09
1.4082123e-14 9.789365e-15 1.4534218e-14 1.4898478e-14 2.508834e-14 1.0483472e-14 6.0330616e-15 5.574916e-15
6.2989554e-15 1.3020075e-14 7.374753e-16 2.612958e-15 2.6498548e-14 1.7563774e-14 7.606399e-15 3.9694857e-15
4.901329e-15 1.3221263e-15 2.3051659e-15 1.3435791e-15 1.7531054e-15 1.8180205e-15 1.9709677e-15 1.7959474e-15
1.8769638e-15 1.6110157e-15 3.5549693e-15 1.3037834e-15 1.1252691e-15 2.3558229e-15 2.04889e-15 1.6494089e-15
1.5840491e-05 1.5828013e-05 1.6030575e-05 1.5996657e-05 1.6308915e-05 1.6424265e-05 1.6596252e-05 1.8006273e-05
1.6347258e-05 1.7055709e-05 1.6807413e-05 1.7122891e-05 1.671387e-05 1.7193854e-05 1.6871714e-05 1.7029175e-05
3.5834569e-06 3.6596111e-06 3.632904e-06 3.6041376e-06 3.7021803e-06 3.7758045e-06 3.817349e-06 3.6792567e-06
3.7168036e-06 3.7638608e-06 3.8263383e-06 3.7058078e-06 3.6336369e-06 3.6655347e-06 3.745988e-06 3.6127979e-06
3.0680054e-05 3.0414334e-05 3.0695417e-05 3.0951654e-05 3.1434876e-05 3.065534e-05 3.1990556e-05 3.1587795e-05
3.1181276e-05 3.1645384e-05 3.1284664e-05 3.072696e-05 3.1471787e-05 3.2400323e-05 3.1169082e-05 3.0981617e-05
1.1013067e-12 1.1716772e-12 7.0666525e-13 1.1009658e-12 1.1605681e-12 1.0014039e-12 6.5355067e-13 6.813929e-13
8.1976613e-13 4.4933358e-13 3.4101224e-13 2.5649554e-13 1.1807171e-12 7.8777376e-13 4.887141e-13 7.1604257e-13
2.5989477e-06 2.743555e-06 2.8398742e-06 3.1157972e-06 2.5476324e-06 2.9322796e-06 2.7934097e-06 2.93978e-06
2.78752e-06 2.8394888e-06 2.8442169e-06 2.8799182e-06 2.7146991e-06 2.6385192e-06 2.8049972e-06 2.845138e-06
4.8154516e-09 5.822538e-09 6.3756835e-09 5.7214278e-09 4.0248884e-09 4.989495e-09 5.5247655e-09 5.1394404e-09
3.2845162e-09 2.3022537e-09 3.5201897e-09 3.115704e-09 2.4153533e-09 1.9451025e-09 2.7776417e-09 3.0128255e-09
1.1668804e-14 2.8158792e-14 3.8134172e-14 2.5451798e-14 1.8740992e-14 7.027691e-14 2.6796079e-14 4.5453106e-14
4.2179588e-14 5.263134e-14 1.5541113e-14 4.7732627e-14 6.0972643e-14 1.4117525e-14 1.4086785e-14 3.2764556e-14
6.0592736e-10 1.0032511e-09 1.5898569e-09 1.5023718e-09 5.54013e-10 1.115584e-09 1.7899234e-09 1.5793837e-09
5.8943794e-10 1.1906511e-09 1.7414528e-09 1.2406163e-09 7.3557443e-10 1.7991575e-09 1.7535445e-09 1.372343e-09
1.0792587e-05 1.1329183e-05 1.233312e-05 1.2939476e-05 1.1333782e-05 1.1642784e-05 1.20678005e-05 1.1980326e-05
1.1391333e-05 1.1535696e-05 1.1763854e-05 1.1983435e-05 1.13763335e-05 1.1799234e-05 1.1588217e-05 1.1964887e-05
1.9099498e-06 1.9529045e-06 1.8972362e-06 1.9032097e-06 1.870416e-06 1.9369168e-06 1.8914411e-06 1.8599364e-06
1.8929923e-06 1.8975293e-06 1.9018855e-06 1.8924749e-06 1.8445571e-06 1.8626636e-06 1.8610784e-06 1.8398497e-06
0.0 0.0 0.0 0.0 0.0 0.0 0.0 0.0
0.0 0.0 0.0 0.0 0.0 0.0 0.0 0.0
6.9777677e-09 6.1813488e-09 5.6543596e-09 7.230462e-09 7.889046e-09 6.8418218e-09 4.943684e-09 7.55483e-09
9.270737e-09 8.129204e-09 4.635678e-09 5.4551488e-09 1.0656509e-08 1.1988047e-08 7.1448447e-09 6.09363e-09
8.016984e-05 8.265032e-05 7.777598e-05 7.561941e-05 7.9970785e-05 7.7513796e-05 7.5924996e-05 7.247108e-05
8.1171806e-05 7.72414e-05 7.495364e-05 7.1100854e-05 7.701045e-05 7.322995e-05 7.297008e-05 6.714432e-05

exp_avg f4 [16, 1, 4, 4]
00000000: d263 8036 467f 9a36 a146 2236 e37f 9cb5
00000010: 8804 2837 2a75 2637 092e 01b7 ffc5 88b6
00000020: c45a 00b7 4068 5ab5 1d65 06b7 e707 27b7
00000030: 83d8 67b5 7cd4 0a37 cea3 1a37 8575 64b6
00000040: f389 b684 4589 cd84 5477 2c85 f5aa 1a85
00000050: 59e1 4885 ba81 dc84 5710 5584 22ef 0f03
00000060: 41da 1d85 032f ee84 3029 2783 6652 a984
00000070: a08c 2c85 6673 2685 7809 f983 d072 0384
00000080: 4c78 8431 5c80 7132 cb80 ba31 5c80 7132
00000090: c38a 1b32 2b0e 6232 2d33 7831 2b0e 6232
000000a0: 251e 6232 0c10 5832 61a1 b72f 0c10 5832
000000b0: fdcc 6d32 a215 5032 5c1c 6431 a215 5032
000000c0: 119b 21b9 88d8 c4b8 4fae 1bb9 a5c8 83b9
000000d0: c638 67b9 9e3e 33b9 588f 6ab8 e676 b1b9
000000e0: 9208 6ab9 4cef abb9 ac76 2db9 65bf a9b9
000000f0: c2b0 bfb9 d28a 9db9 7d9c 21b9 55a9 59b7
00000100: 4a1d 8037 07b2 0638 45aa b9b8 352b 7838
00000110: 5b78 ecb8 45a6 88b8 91c5 4c38 65a9 7b37
00000120: 29cc 16b9 2698 e7b8 d994 acb8 52ff 9ab8
00000130: 2bdc e3b8 ab9e 90b8 50e0 f0b8 10c4 66b8
00000140: 7680 55b8 f887 31b8 4f00 fcb7 b53c 7cb8
00000150: 9725 48b8 73cd 34b8 acac 24b8 65f5 4db8
00000160: cec6 62b8 7978 42b8 9bf4 0ab8 352f 1fb8
00000170: 6bae 61b8 f418 62b8 2ca0 0ab8 5511 e8b7
00000180: 8561 c92e af53 952e e0d1 fead af53 952e
00000190: 441b cb2e 7c01 a82e 4e4d 682a 7c01 a82e
000001a0: 1a61 b82e e423 712e ee25 ee2c e423 712e
000001b0: 451b cb2e 8401 a82e 3c56 682a 8401 a82e
000001c0: 7ff5 2838 df63 35b9 2a82 86b7 abd8 0439
000001d0: 8632 73b8 1d68 f7b8 3b60 31b8 69e0 f2b8
000001e0: a84d 11b9 535f ecb8 1587 85b8 e809 31b8
000001f0: da55 05b7 140f b238 cb8d e1b8 1f6e b436
00000200: af99 5f36 31bc a6b7 c52a 73b7 db9d fb36
00000210: 185d 1cb7 def9 6eb7 9676 6ab7 153d 3f37
00000220: b433 ddb6 5769 06b7 31d8 1337 051f bdb6
00000230: e834 36b7 35d0 84b6 edca 8736 c1cc cbb6
00000240: 7e81 53a4 598f d926 10f7 d126 fabe b526
00000250: 6ea8 b126 67c3 8627 8479 3a26 518a f426
00000260: ac42 0127 a81d 2f27 acff 7026 1406 1a27
00000270: 08ed 3327 c5c3 ac26 b2b1 cf25 3cae 4227
00000280: 847b 8135 1bee 9d32 b3bf 3fb7 620d 6a36
00000290: f486 ad35 8818 2637 e54b 4db7 8874 76b6
000002a0: 5b0f 91b6 a392 1837 eb76 34b7 9e24 dfb6
000002b0: 55a0 3535 5751 c837 36eb c136 2408 0b37
000002c0: fa57 5339 f09d 8839 4d8a b039 122e c939
000002d0: d497 5339 c9c2 7139 579c ac39 4d53 be39
000002e0: 0234 0239 0728 d938 a515 a939 d42e ec38
000002f0: 66b2 7b39 41cf 5539 b4e1 8239 80ea 4439
00000300: 7be4 0c39 aad7 9038 880f b438 1b27 2fb8
00000310: 2f00 0fb8 1388 5eb8 3a38 c538 a215 96b7
00000320: cb32 6838 45ec b7b7 8812 8534 a8be 1c38
00000330: 9485 5db7 6de4 8d37 33fd 53b6 d199 a038
00000340: 0000 0000 0000 0000 0000 0000 0000 0000
00000350: 0000 0000 0000 0000 0000 0000 0000 0000
00000360: 0000 0000 0000 0000 0000 0000 0000 0000
00000370: 0000 0000 0000 0000 0000 0000 0000 0000
00000380: 4da3 9bb7 b618 f937 1ac1 03b6 090f c6b7
00000390: 2cc8 fdb6 eebf f737 5c11 1136 fee8 84b7
000003a0: bbf0 d135 5406 2c37 c11b 9bb6 52f3 2bb7
000003b0: 27a4 4a36 4149 dab6 0800 8bb7 56ce 78b7
000003c0: fb34 5039 66af 7039 17e3 4839 f4f3 c838
000003d0: d59b 2639 d6d3 7939 555a 2c39 8fb3 8939
000003e0: 705b 9039 6e1f c738 376a 8a39 38f8 f538
000003f0: 0f27 2638 d3dc 5239 f3d9 7939 e538 7339
3.826318e-06 4.604374e-06 2.4180993e-06 -1.1660126e-06 1.0014635e-05 9.92165e-06 -7.699718e-06 -4.0761656e-06
-7.650528e-06 -8.136303e-07 -8.010565e-06 -9.955816e-06 -8.636927e-07 8.274914e-06 9.217254e-06 -3.4043053e-06
-4.291468e-36 -4.832133e-36 -8.109318e-36 -7.272445e-36 -9.4453446e-36 -5.1840886e-36 -2.5045533e-36 4.2298434e-37
-7.4221914e-36 -5.5996705e-36 -4.912417e-37 -3.980738e-36 -8.11323e-36 -7.826478e-36 -1.4637079e-36 -1.5451695e-36
3.855382e-09 1.4057232e-08 5.4279545e-09 1.4057232e-08 9.053738e-09 1.3158153e-08 3.611784e-09 1.3158153e-08
1.3161785e-08 1.2576503e-08 3.3402173e-10 1.2576503e-08 1.3841825e-08 1.2112112e-08 3.3194487e-09 1.2112112e-08
-0.00015411923 -9.3863404e-05 -0.00014846887 -0.0002513576 -0.00022051026 -0.00017094097 -5.5923447e-05 -0.00033848657
-0.00022319172 -0.00032793952 -0.00016542774 -0.00032376792 -0.00036562054 -0.00030048803 -0.00015412453 -1.2973634e-05
1.5272428e-05 3.211389e-05 -8.8532026e-05 5.9168047e-05 -0.00011275775 -6.5159555e-05 4.882139e-05 1.5000206e-05
-0.0001438117 -0.00011043278 -8.229324e-05 -7.390849e-05 -0.00010865213 -6.896009e-05 -0.00011485873 -5.501887e-05
-5.0902796e-05 -4.232672e-05 -3.0040885e-05 -6.013802e-05 -4.7718724e-05 -4.3106684e-05 -3.926146e-05 -4.910435e-05
-5.406775e-05 -4.6365403e-05 -3.312957e-05 -3.795252e-05 -5.380662e-05 -5.390584e-05 -3.3050936e-05 -2.7664626e-05
9.157745e-11 6.790601e-11 -2.896966e-11 6.790601e-11 9.2362146e-11 7.640019e-11 2.063256e-13 7.640019e-11
8.3846e-11 5.4828933e-11 6.768578e-12 5.4828933e-11 9.236215e-11 7.640025e-11 2.0635658e-13 7.640025e-11
4.0282957e-05 -0.0001729871 -1.6034657e-05 0.00012669216 -5.798277e-05 -0.000117972704 -4.228971e-05 -0.00011581259
-0.00013857207 -0.000112711125 -6.367095e-05 -4.2209314e-05 -7.947407e-06 8.49051e-05 -0.00010755247 5.377238e-06
3.3319045e-06 -1.9876376e-05 -1.4493887e-05 7.4987597e-06 -9.32e-06 -1.4244082e-05 -1.3975097e-05 1.1398709e-05
-6.5923323e-06 -8.011549e-06 8.812219e-06 -5.63625e-06 -1.0860364e-05 -3.958145e-06 4.046937e-06 -6.073708e-06
-4.5863016e-17 1.5096254e-15 1.4569255e-15 1.2611162e-15 1.2327495e-15 3.7404327e-15 6.46964e-16 1.6968392e-15
1.793849e-15 2.4302205e-15 8.3613227e-16 2.1375088e-15 2.4969735e-15 1.1987961e-15 3.6029187e-16 2.701736e-15
9.647197e-07 1.8385483e-08 -1.1429121e-05 3.4876507e-06 1.2928781e-06 9.900083e-06 -1.2236623e-05 -3.6724687e-06
-4.3231244e-06 9.0940475e-06 -1.0756524e-05 -6.6501807e-06 6.766107e-07 2.3879735e-05 5.7792304e-06 8.286941e-06
0.00020155302 0.00026057614 0.00033672378 0.00038372033 0.00020179088 0.00023056114 0.0003292288 0.00036301688
0.0001241714 0.00010354822 0.00032250318 0.00011262079 0.00024003684 0.00020390471 0.00024963694 0.00018779375
0.00013436556 6.906626e-05 8.585962e-05 -4.175967e-05 -3.4094028e-05 -5.3055654e-05 9.404165e-05 -1.7891467e-05
5.5360415e-05 -2.1925322e-05 2.4786664e-07 3.737086e-05 -1.3203728e-05 1.6914879e-05 -3.1588831e-06 7.658045e-05
0.0 0.0 0.0 0.0 0.0 0.0 0.0 0.0
0.0 0.0 0.0 0.0 0.0 0.0 0.0 0.0
-1.8553483e-05 2.969462e-05 -1.963292e-06 -2.361044e-05 -7.5632906e-06 2.9534069e-05 2.1616788e-06 -1.5844122e-05
1.5641775e-06 1.0253472e-05 -4.622591e-06 -1.0249047e-05 3.0195895e-06 -6.505434e-06 -1.6570106e-05 -1.4829993e-05
0.00019856163 0.00022953525 0.00019158084 9.582183e-05 0.00015889046 0.00023825406 0.0001643685 0.00026264458
0.00027533947 9.494914e-05 0.00026400547 0.00011728745 3.961386e-05 0.00020109424 0.00023827683 0.00023195481

exp_avg_sq f4 [16]
00000000: 9d58 6532 9262 9f28 e7a4 d627 2239 ff37
00000010: 8f07 0737 2985 1f38 980e 8d2b b265 9636
00000020: d9fc f032 7318 8529 81c0 ca31 ff31 aa37
00000030: 452b 8d36 0000 0000 3115 1e33 4511 9839
1.3349703e-08 1.7695294e-14 5.957572e-15 3.0424973e-05 8.048387e-06 3.803257e-05 1.0022703e-12 4.4821873e-06
2.8054659e-08 5.910628e-14 5.900859e-09 2.028886e-05 4.2071647e-06 0.0 3.6806515e-08 0.00029004566

exp_avg f4 [16]
00000000: 2c31 60b7 5693 1685 debd 5932 081f bdb9
00000010: 74e8 c1b9 d7c1 73b8 2888 ae2e d215 87b9
00000020: 8fa4 fab6 5c27 3f27 4a5a db36 c42e 1e3a
00000030: db68 3839 0000 0000 e654 b0b6 08eb ac3a
-1.3362889e-05 -7.0800274e-36 1.2674233e-08 -0.0003607201 -0.0003698502 -5.8116242e-05 7.93679e-11 -0.00025765464
-7.4697377e-06 2.6527911e-15 6.5372196e-06 0.00060341903 0.00017586669 0.0 -5.255092e-06 0.0013192603

exp_avg_sq f4 [1, 16, 4, 4]
00000000: e4f4 1031 0d32 0b31 2a4e 0f31 af01 0231
00000010: c760 0631 eba9 2031 50e6 0b31 d104 0431
00000020: e2f6 da30 dbfe c730 7571 e730 de41 e430
00000030: 7df8 cd30 a080 e130 f56f c730 b6f6 b330
00000040: 4290 8223 b822 0c24 bb7d aa24 6a56 4324
00000050: 1b9c 9725 7e46 8d24 d3a3 9e24 a04e f924
00000060: 9404 9323 de78 2724 40cf d824 9da4 2925
00000070: 936b 8225 139d a223 8fa3 0f24 7be4 6424
00000080: 5396 7e22 1988 2223 3530 4123 65c3 0d23
00000090: a103 8c24 e027 9d25 2c10 fd22 4296 de23
000000a0: b913 a225 73c0 aa23 a983 b523 79b7 5223
000000b0: e7ee bc24 773b fa23 bff7 d422 1279 2824
000000c0: 4022 d136 451f cf36 66a5 c636 6784 c436
000000d0: ad53 c936 91ad cb36 cce2 c636 4aa2 c336
000000e0: 2726 c736 ee89 c936 ccb5 c836 9f3f c536
000000f0: b773 ca36 98de c536 fe9e c636 6f87 c936
00000100: da0f 8736 122b 8a36 90b6 8b36 e03d 8b36
00000110: 5d0a 8b36 ee12 8d36 d8d1 8e36 e3ba 8c36
00000120: b382 8a36 3fd1 8c36 f14d 8e36 467d 8c36
00000130: 161c 8a36 d0e1 8936 58cc 8b36 bc47 8a36
00000140: 5c9a a635 f5e7 a035 4a1c 9135 3770 9735
00000150: c452 a035 9097 9135 cdd2 be35 0cfd a435
00000160: 6978 8a35 dff6 bd35 6cf5 bc35 3e7d b335
00000170: f564 9735 f50b be35 915e d435 aa61 cc35
00000180: 55a7 8625 2c96 d826 e16b 7626 4587 a425
00000190: fa9c 5026 aae5 a726 08e3 8f26 cf9d 5026
000001a0: 257f 3a25 2fcd c325 19b8 0826 0a6d 8526
000001b0: f0b2 4725 bbaa de26 ac05 ad26 ac5e 1727
000001c0: ed1f 0e37 9d90 1337 327a 1a37 8714 0f37
000001d0: 292f 2837 4425 1e37 722b 2637 1ee9 2437
000001e0: 118a 1537 d236 2237 f7a5 2c37 9e0c 1f37
000001f0: 42e9 1a37 2db9 2c37 16fd 3537 c169 3637
00000200: 526e d131 2c18 d431 aa3c d231 a5d3 b831
00000210: 44ef fe31 4d51 0232 4832 0032 cee7 da31
00000220: ca18 1032 e73e 1832 c907 0732 248d e831
00000230: 7250 3032 4dab 3532 4e05 2932 e937 0d32
00000240: 7962 b825 c549 e225 1481 ac25 d6cc bd26
00000250: a388 1c26 09c3 c825 3437 0d26 9cf1 7c26
00000260: 3eee 3f26 835b 8d26 3707 0926 59db 8625
00000270: 3293 c925 3f04 a026 5d91 c225 da32 2b25
00000280: d0dd 0a31 4b77 0e31 1c1c df30 7d7f cb30
00000290: 7605 0a31 ef8f 2231 f438 b930 5656 f630
000002a0: c300 0b31 50b2 1331 e9d0 b530 07ce df30
000002b0: d43e 0a31 287a fa30 37a7 c030 7bb7 bc30
000002c0: 1b1c e036 445c e736 2e94 e436 0f37 e136
000002d0: 842e e336 5561 e736 697c e836 1518 e836
000002e0: 4a76 e736 653a e436 a4f2 e436 1bf0 e236
000002f0: 6b53 dc36 440f e136 8d89 e036 1886 e136
00000300: b96d a536 889f a636 83df a636 7058 a336
00000310: 64cd a736 25aa aa36 2be9 a936 8da2 a636
00000320: dac4 a736 b12b ab36 502d aa36 1482 a636
00000330: bf77 a736 24a9 a736 0543 a736 73a9 a636
00000340: 0000 0000 0000 0000 0000 0000 0000 0000
00000350: 0000 0000 0000 0000 0000 0000 0000 0000
00000360: 0000 0000 0000 0000 0000 0000 0000 0000
00000370: 0000 0000 0000 0000 0000 0000 0000 0000
00000380: dbf9 8e31 9c8c c831 bad5 c931 23c3 b431
00000390: 0c68 ec31 eea4 7d31 3d6e 8331 b5a9 9231
000003a0: 05d7 3c31 ceab 8031 38e9 8731 09bb 9531
000003b0: 2758 3f31 240b 6131 c5be 6531 8891 9f31
000003c0: a10b ce37 4ed0 d637 3dfd c737 9aa1 bf37
000003d0: f0e0 ce37 205b c637 f9e4 c737 06d3 cb37
000003e0: 1293 c937 fae6 c737 93f5 c937 8e7a c537
000003f0: 8df2 c137 5e07 c737 5e8f f437 8b8f d637
2.1093962e-09 2.0255613e-09 2.085367e-09 1.8918447e-09 1.9554578e-09 2.3379652e-09 2.035808e-09 1.9211266e-09
1.5931756e-09 1.455159e-09 1.6839709e-09 1.6607904e-09 1.4986338e-09 1.6407462e-09 1.4510976e-09 1.3094084e-09
1.4155724e-17 3.038707e-17 7.3938743e-17 4.235708e-17 2.6300106e-16 6.126842e-17 6.8799106e-17 1.0811973e-16
1.5939711e-17 3.631473e-17 9.402616e-17 1.4714187e-16 2.26243e-16 1.7630599e-17 3.114672e-17 4.963315e-17
3.4503e-18 8.810857e-18 1.0472759e-17 7.685002e-18 6.072147e-17 2.726218e-16 6.859291e-18 2.4132925e-17
2.8115885e-16 1.8512942e-17 1.967982e-17 1.1422975e-17 8.193672e-17 2.7130239e-17 5.7725027e-18 3.6531744e-17
6.2326726e-06 6.172721e-06 5.9201147e-06 5.856669e-06 6.000008e-06 6.0700772e-06 5.9272625e-06 5.830346e-06
5.9351037e-06 6.006324e-06 5.9816284e-06 5.878464e-06 6.03354e-06 5.896971e-06 5.919369e-06 6.0060333e-06
4.025159e-06 4.1177345e-06 4.163776e-06 4.149726e-06 4.1437293e-06 4.204331e-06 4.256359e-06 4.1940816e-06
4.127936e-06 4.1966846e-06 4.2410034e-06 4.186909e-06 4.11599e-06 4.109206e-06 4.1663116e-06 4.1210715e-06
1.2412888e-06 1.1988437e-06 1.0811575e-06 1.1283036e-06 1.1945017e-06 1.0847452e-06 1.4217454e-06 1.2292599e-06
1.0316845e-06 1.4153446e-06 1.4078519e-06 1.337299e-06 1.1279759e-06 1.4159583e-06 1.5822753e-06 1.5227608e-06
2.3358683e-16 1.5028715e-15 8.54946e-16 2.8541127e-16 7.237724e-16 1.1650203e-15 9.984155e-16 7.2378367e-16
1.6176007e-16 3.3966146e-16 4.743398e-16 9.258284e-16 1.7321125e-16 1.5450621e-15 1.2005824e-15 2.1006781e-15
8.471293e-06 8.795553e-06 9.207566e-06 8.528244e-06 1.0024561e-05 9.42621e-06 9.904486e-06 9.829439e-06
8.913238e-06 9.668716e-06 1.0290641e-05 9.480076e-06 9.233425e-06 1.02951135e-05 1.0847367e-05 1.0872668e-05
6.0952425e-09 6.17276e-09 6.118701e-09 5.379166e-09 7.4195743e-09 7.585482e-09 7.462013e-09 6.370988e-09
8.3875396e-09 8.861867e-09 7.859804e-09 6.7681345e-09 1.02628395e-08 1.0574536e-08 9.838301e-09 8.219993e-09
3.198564e-16 3.925474e-16 2.992471e-16 1.317003e-15 5.430855e-16 3.482663e-16 4.8994016e-16 8.7757505e-16
6.6589315e-16 9.808645e-16 4.75412e-16 2.339393e-16 3.4967685e-16 1.1103381e-15 3.3752137e-16 1.4849115e-16
2.0207729e-09 2.073153e-09 1.6233375e-09 1.4806428e-09 2.0084747e-09 2.365592e-09 1.3476709e-09 1.7923394e-09
2.0227595e-09 2.1492674e-09 1.3228859e-09 1.6283942e-09 2.0117357e-09 1.8224613e-09 1.4017364e-09 1.3730949e-09
6.678992e-06 6.8950776e-06 6.81218e-06 6.711932e-06 6.7705423e-06 6.8956674e-06 6.928622e-06 6.9169423e-06
6.898107e-06 6.8017275e-06 6.8231766e-06 6.763277e-06 6.566222e-06 6.7072997e-06 6.6917332e-06 6.721133e-06
4.9301566e-06 4.9657574e-06 4.9732057e-06 4.868074e-06 5.0008985e-06 5.0862022e-06 5.063737e-06 4.966109e-06
4.9999044e-06 5.1012835e-06 5.07167e-06 4.9623286e-06 4.990928e-06 4.9966784e-06 4.98479e-06 4.966912e-06
0.0 0.0 0.0 0.0 0.0 0.0 0.0 0.0
0.0 0.0 0.0 0.0 0.0 0.0 0.0 0.0
4.161149e-09 5.8367515e-09 5.874168e-09 5.260874e-09 6.8803327e-09 3.6910097e-09 3.8251344e-09 4.2684527e-09
2.7479825e-09 3.7448222e-09 3.955531e-09 4.357734e-09 2.7844267e-09 3.2748142e-09 3.3432326e-09 4.644054e-09
2.4562529e-05 2.5607787e-05 2.3840572e-05 2.2844226e-05 2.4661858e-05 2.3645873e-05 2.3829272e-05 2.4297751e-05
2.4029552e-05 2.3830205e-05 2.4075422e-05 2.3541299e-05 2.312034e-05 2.372608e-05 2.9153827e-05 2.557763e-05

exp_avg f4 [1, 16, 4, 4]
00000000: ec4d 0937 6dad 1037 8b86 7db6 7f27 ddb6
00000010: cbd7 cf35 aff6 17b5 966c 18b5 6904 5936
00000020: 0feb 89b6 717e d635 5940 0f36 31ee 2bb6
00000030: 5a31 aeb5 1432 5736 67e9 f4b6 c704 c2b6
00000040: 81f3 0c84 ef47 4204 0a0c 1e04 c9fb 6803
00000050: 3bd0 5d04 bb5b 4404 a4a5 f103 517f b004
00000060: 0266 4103 22f7 4584 a180 d803 ee20 2a04
00000070: f1cc ff83 ba2e 8784 21e7 a084 c9fa 1c84
00000080: e849 82af 1cef fab0 b0d3 b82b 490f 40ab
00000090: fab9 e02f 7b1a c8b0 681c bd2a ace1 bfab
000000a0: 9311 c22f 2f6b c0b0 ffb6 c92b 0444 3dac
000000b0: b1c4 1530 e89f d6b0 f130 822c ff3e 8c2b
000000c0: 5a1e ecb8 4544 d538 4009 74b8 4182 3a37
000000d0: 642a 4239 8e45 e138 21cc 0a38 fb5f 4337
000000e0: 49bf a038 6acd a937 839e b638 3fde 31b8
000000f0: 099e 1538 b5a8 6a38 296d fc36 48dc 8c38
00000100: b27a 8538 2ad0 ac37 a70c 9e38 5978 4239
00000110: c2a0 0539 0b50 3c38 6b1c 5738 8553 0439
00000120: 56c3 dcb6 7a8d 3038 7b55 e038 7ba1 3137
00000130: 29ae ae38 bd46 cb38 ec8e 2639 41f5 5038
00000140: 09a5 41b6 47b8 07b6 37bf 2e35 1a14 7db5
00000150: ec8e dd33 4bef 31b5 2110 0c33 6b57 e1b4
00000160: 6f4a 2c36 a6cf 9ab5 bb0e c933 3208 53b5
00000170: a4b1 0236 6724 36b6 9299 a9b5 5fd8 91b5
00000180: b9cf 0a2c 322c 612b 2380 0e9a 7f87 3e99
00000190: 6ae8 a52c 64c9 27ab 004e e7a8 ddcd 3aa9
000001a0: bd1d a9a7 0610 e4a8 20ab 0da8 9d54 c227
000001b0: 5c83 caa6 14da efa8 9d93 8f28 e38c cca8
000001c0: af09 ef38 9adc a537 6bd0 1538 dc88 5538
000001d0: e9cc 6139 1d8d 8038 04e3 3938 8614 fe38
000001e0: 6a1b 2737 7723 c238 7e72 1039 c978 cc38
000001f0: e3f3 9c38 50f0 6439 8ad0 1c38 b425 8039
00000200: 9331 04b5 d89c d9b5 d70c 7e37 6af8 2237
00000210: 2f2d f836 76df 8ab6 acaf aa36 6878 0437
00000220: ab8d a037 f3f8 86b6 5d62 2bb7 7c83 1036
00000230: dc0f 13b7 b88a 22b7 f68e 95b6 b576 bb36
00000240: 7819 95a4 e31d dc24 a7c6 25a4 a7f0 bda4
00000250: d555 cca4 e220 5525 d01f a7a4 17ba 0123
00000260: ba84 31a4 1e89 2625 5cdf 6ba4 4565 cc24
00000270: 70fd 9224 7021 d822 1abd 0ca5 fd03 c024
00000280: c6bb 2b37 340b c937 eed3 80b6 eb34 8f37
00000290: be91 4237 57f1 c137 9399 66b5 5aea a237
000002a0: 1b65 8237 b163 9237 37d6 92b6 f139 9337
000002b0: 5c9e 6937 6b1e 8237 b9e9 34b7 781e 7d36
000002c0: 1dea 16b9 ccfc 9fb7 9d26 93b8 011d fcb8
000002d0: 9590 32b8 07bf a4b8 a0af 9338 fd8c 43b9
000002e0: 6353 90b8 0818 dbb8 16e1 37b9 09df 30b9
000002f0: cdb4 d7b8 681a 24b8 112a a7b8 9b14 c7b8
00000300: d4b5 10b9 241e 9cb8 295c a238 72c6 abb8
00000310: c778 ebb7 b1cd a1b8 56be 5f35 4f1d 63b9
00000320: 8801 26b8 4b00 79b9 df7f 98b7 be91 b236
00000330: 96fc b0b8 207c 26b9 8499 83b8 868a 16b8
00000340: 0000 0000 0000 0000 0000 0000 0000 0000
00000350: 0000 0000 0000 0000 0000 0000 0000 0000
00000360: 0000 0000 0000 0000 0000 0000 0000 0000
00000370: 0000 0000 0000 0000 0000 0000 0000 0000
00000380: 9771 74b7 31e1 9ab7 563b 4ab6 933c 49b7
00000390: c9f2 02b7 ac1a 64b7 6530 5d36 ff25 19b7
000003a0: 28a5 0c34 2523 17b7 4729 a0b6 5b61 2ab7
000003b0: 88c5 3937 3397 1137 ac31 b1b6 1071 d8b6
000003c0: 1145 dc38 dcc2 7d39 f9c9 f2b9 8ea9 99b8
000003d0: e65c e9b8 a92b bb37 d702 beb8 ff58 83b9
000003e0: 91b6 c6b8 a396 5939 a65d d8b8 795e 1938
000003f0: 5f1b 1737 4cf0 c337 5bee 07ba 8366 f4b8
8.183979e-06 8.623448e-06 -3.7778252e-06 -6.590911e-06 1.5485506e-06 -5.6610855e-07 -5.6782426e-07 3.2338087e-06
-4.1102826e-06 1.5981042e-06 2.1346116e-06 -2.5619631e-06 -1.2978373e-06 3.2066646e-06 -7.2989383e-06 -5.7822067e-06
-1.6568732e-36 2.283762e-36 1.8578339e-36 6.8467708e-37 2.607404e-36 2.308181e-36 1.4202736e-36 4.1494323e-36
5.68347e-37 -2.3270717e-36 1.2724871e-36 1.9998525e-36 -1.5034605e-36 -3.178126e-36 -3.7828078e-36 -1.8452867e-36
-2.3699376e-10 -1.8257853e-09 1.3132741e-12 -6.8233315e-13 4.0877507e-10 -1.4559441e-09 3.3592855e-13 -1.3634003e-12
3.5300882e-10 -1.4000302e-09 1.4332701e-12 -2.6896272e-12 5.44854e-10 -1.5615997e-09 3.700256e-12 9.965083e-13
-0.0001125901 0.00010169348 -5.8182748e-05 1.1116791e-05 0.00018517073 0.000107417916 3.3091874e-05 1.1645253e-05
7.665024e-05 2.0242023e-05 8.7079614e-05 -4.240707e-05 3.567155e-05 5.5947068e-05 7.522893e-06 6.716751e-05
6.364788e-05 2.0600932e-05 7.536384e-05 0.00018546115 0.00012743755 4.489724e-05 5.128646e-05 0.00012619614
-6.579251e-06 4.209343e-05 0.00010697074 1.058762e-05 8.3294064e-05 9.69297e-05 0.00015884236 4.9819475e-05
-2.8855304e-06 -2.0223831e-06 6.5098305e-07 -9.4279096e-07 1.0317112e-07 -6.6285855e-07 3.261096e-08 -4.197312e-07
2.5673323e-06 -1.1534328e-06 9.362471e-08 -7.861555e-07 1.947491e-06 -2.7141302e-06 -1.2636176e-06 -1.0866314e-06
1.9726289e-12 7.999739e-13 -2.946842e-23 -9.850133e-24 4.715385e-12 -5.9609804e-13 -2.5679979e-14 -4.1478854e-14
-4.6939165e-15 -2.5320034e-14 -7.864179e-15 5.3937555e-15 -1.4052171e-15 -2.6628907e-14 1.5940206e-14 -2.270965e-14
0.00011398212 1.9772258e-05 3.5718473e-05 5.0910618e-05 0.00021534007 6.1298e-05 4.4318862e-05 0.000121154866
9.9603585e-06 9.257247e-05 0.00013775562 9.749976e-05 7.484087e-05 0.00021833298 3.7387515e-05 0.00024442154
-4.924597e-07 -1.6213407e-06 1.5142569e-05 9.713791e-06 7.396236e-06 -4.1387348e-06 5.0868457e-06 7.895847e-06
1.9139456e-05 -4.0224927e-06 -1.0215296e-05 2.1534206e-06 -8.765575e-06 -9.68825e-06 -4.457189e-06 5.5868536e-06
-6.4661595e-17 9.546042e-17 -3.5946937e-17 -8.2373365e-17 -8.86163e-17 1.8485946e-16 -7.24786e-17 7.03251e-18
-3.849318e-17 1.4444662e-16 -5.1146695e-17 8.8642455e-17 6.374675e-17 5.858232e-18 -1.2207134e-16 8.327348e-17
1.0236114e-05 2.3966284e-05 -3.839369e-06 1.707157e-05 1.1597234e-05 2.3119776e-05 -8.5905157e-07 1.9421033e-05
1.5544289e-05 1.7450979e-05 -4.376077e-06 1.7550747e-05 1.3924753e-05 1.5511372e-05 -1.0783254e-05 3.7717673e-06
-0.00014392329 -1.9071995e-05 -7.0166985e-05 -0.00012021699 -4.257316e-05 -7.855711e-05 7.042219e-05 -0.00018649171
-6.881987e-05 -0.0001044721 -0.00017536091 -0.00016867755 -0.00010285676 -3.912524e-05 -7.971016e-05 -9.4928975e-05
-0.00013800646 -7.444274e-05 7.741928e-05 -8.190879e-05 -2.8070424e-05 -7.715391e-05 8.335095e-07 -0.00021659325
-3.957891e-05 -0.000237466 -1.8179357e-05 5.32178e-06 -8.439382e-05 -0.00015877234 -6.275161e-05 -3.5891797e-05
0.0 0.0 0.0 0.0 0.0 0.0 0.0 0.0
0.0 0.0 0.0 0.0 0.0 0.0 0.0 0.0
-1.45699805e-05 -1.8463094e-05 -3.0134884e-06 -1.1994637e-05 -7.805132e-06 -1.3596069e-05 3.2959736e-06 -9.128357e-06
1.30986e-07 -9.008484e-06 -4.773177e-06 -1.0155457e-05 1.1072851e-05 8.677877e-06 -5.2807936e-06 -6.450464e-06
0.00010503282 0.00024200551 -0.00046308318 -7.3271905e-05 -0.000111276095 2.2312468e-05 -9.060435e-05 -0.00025052574
-9.4753814e-05 0.00020750849 -0.00010317126 3.6566027e-05 9.006674e-06 2.3357708e-05 -0.0005185359 -0.00011653921
