pre-trained/DCT4_soft-thr_L2_dct-init_1000.pt (torch_old, 225003 bytes, 9 tensors)

weight f4 [16, 1, 4, 4]
000000 ae 6b 82 3e 2f 75 7f 3e bb a5 7f 3e 08 28 82 3e
       0.25472778 0.24947046 0.24965565 0.25421166
000010 bb 0a 80 3e e7 a9 7a 3e 93 8b 7a 3e 95 9c 7f 3e
       0.25008187 0.24478875 0.24467306 0.24962075
000020 9c d6 7f 3e 5f ad 7a 3e 79 c7 7a 3e bf 12 80 3e
       0.2498421 0.24480198 0.24490155 0.25014302
000030 68 2a 82 3e 8f 85 7f 3e 78 62 7f 3e 7b 55 82 3e
       0.25422978 0.24953292 0.24939907 0.2545584
000040 7d 75 89 3e 1a a2 f8 3d ba e7 08 be 63 8c 86 be
       0.2684745 0.121402934 -0.13369647 -0.26278982
000050 5e bc a8 3e e9 50 38 3e 22 da 53 be a9 47 a8 be
       0.32956213 0.17999615 -0.2068868 -0.32867172
000060 bf 4f ac 3e f4 7e 3c 3e a8 24 42 be 8d d2 a5 be
       0.3365459 0.18407804 -0.18959296 -0.323872
000070 64 dd 8b 3e 13 fc 04 3e bf 4e e8 bd 88 54 87 be
       0.27317345 0.12986784 -0.113431446 -0.2643168
000080 9e 99 5e 3e 28 76 91 be 61 d6 85 be 02 74 67 3e
       0.21738288 -0.2841046 -0.2614012 0.22602847
000090 94 c5 82 3e a6 6c 66 be 94 f5 4c be 03 5e 8f 3e
       0.25541365 -0.22502384 -0.20015556 0.28001413
0000a0 03 5b 8a 3e 9c 4f 54 be a4 49 5a be 5b d6 85 3e
       0.2702256 -0.20733494 -0.21317154 0.26140103
0000b0 77 cc 54 3e b4 61 8a be 46 0f 8d be 49 c4 6b 3e
       0.20781122 -0.27027667 -0.27550715 0.23024096
0000c0 ee 06 ae bc cd ed 85 be ab 47 a2 3e 32 84 dd bc
       -0.021243539 -0.2615799 0.31695303 -0.027040575
0000d0 04 1c 85 3d f3 7f 9b be cb fa a4 3e aa 36 b1 bd
       0.06499484 -0.30371055 0.3222259 -0.086530045
0000e0 d6 32 b0 3d 61 3b 9f be 19 e3 91 3e df d2 81 bd
       0.08603446 -0.3109999 0.28493574 -0.063390486
0000f0 81 1a b0 3c a7 5f 9d be c9 dd 81 3e dc 90 00 3d
       0.021497013 -0.3073704 0.2536452 0.03138815
000100 2c d8 87 3e 00 9b 9f 3e 68 7f a0 3e 9c 60 85 3e
       0.26532114 0.31172943 0.31347203 0.2605027
000110 4b bd 44 3e 57 b0 6b 3e f8 9f 25 3e a0 f1 98 3d
       0.19212835 0.23016487 0.16174304 0.07467961
000120 19 f7 50 bd 7a f3 0d be 12 51 50 be b3 b4 2a be
       -0.0510169 -0.1386241 -0.20343426 -0.16670494
000130 c8 1d 94 be 18 d1 af be ed 28 aa be 56 e2 90 be
       -0.2892897 -0.34339213 -0.3323435 -0.2829768
000140 5a 61 bf 3e 1e da 88 3e ff 61 2c bd cb 8d 89 be
       0.3737896 0.2672891 -0.042085644 -0.26865992
000150 21 08 7a 3e 1e 55 f5 bd 65 ae 8b be c9 7d 31 be
       0.24417163 -0.119791254 -0.2728149 -0.1733314
000160 b6 7c 2e be 13 24 90 be 6b 7c e7 bd dc ac 6d 3e
       -0.17039761 -0.28152522 -0.11303028 0.23210472
000170 9a 28 93 be 2e 81 14 bd a2 2b 90 3e f0 9a bc 3e
       -0.28741914 -0.036256008 0.2815829 0.36836958
000180 8d b2 86 3e e4 8c 9d be d7 e1 92 be 41 a8 30 3e
       0.26308098 -0.30771554 -0.28687927 0.17251684
000190 84 a7 79 3e 13 ed be 3d df 2a a7 be 79 de 49 3d
       0.24380308 0.09322562 -0.32649896 0.049284432
0001a0 f9 29 20 bd c1 d2 ab 3e 91 5e fa bd cd 5b 6b be
       -0.03910253 0.3355923 -0.12225068 -0.22984238
0001b0 46 4a 2e be 49 d0 92 3e 35 ac 99 3e f7 68 85 be
       -0.1702052 0.28674534 0.30014196 -0.26056644
0001c0 f5 80 95 bd 6c b8 d8 be 6d 41 83 3e 41 80 63 3d
       -0.07299987 -0.42328203 0.25635853 0.055542234
0001d0 dd cf 96 be 6a c5 ee bd 25 20 c5 3e bb f6 84 bd
       -0.29455462 -0.116587475 0.38501087 -0.064923726
0001e0 28 45 a4 be fc 6f 99 3e aa ae 1b 3e dd 58 9a bd
       -0.32084012 0.2996825 0.15203348 -0.075364806
0001f0 77 d7 67 bd 12 4f a4 3e a5 4b 92 bd 87 2f dd 3c
       -0.056601968 0.32091576 -0.07143334 0.027000202
000200 f0 8c e2 3d 0e c9 3d 3e 78 c7 47 3e 24 90 ea 3d
       0.11062038 0.18533728 0.19509685 0.11453274
000210 9f 33 99 be 10 20 70 be e5 fd 7c be 62 cc a6 be
       -0.29922196 -0.23449731 -0.24706228 -0.32577807
000220 1c 9d 5d be 91 09 23 be 93 05 1a be ae 30 42 be
       -0.21641964 -0.15921618 -0.15041189 -0.18963882
000230 92 95 88 3e 6e d1 ac 3e 3b 93 ae 3e ee 97 8e 3e
       0.26676613 0.33753532 0.34096703 0.27850288
000240 b5 59 40 3e ee e9 8e 3e dc 6b 88 3d d1 55 c6 bd
       0.1878422 0.2791285 0.066611975 -0.09684337
000250 6a 5f 9d be 54 94 a7 3d b1 18 bf 3e a8 73 a0 3e
       -0.30736858 0.08182588 0.37323526 0.3133824
000260 34 44 9d be 8e 44 bc be a6 74 d9 bd 54 1e 94 3e
       -0.30716097 -0.36771053 -0.10617952 0.2892939
000270 f5 f4 d7 3d 7f 7f 63 bd b5 2a 87 be 8a d1 43 be
       0.10544769 -0.05554151 -0.2639977 -0.19122902
000280 fd 94 30 3e 65 2b 83 be 1c 4f 3f be 73 26 92 3e
       0.17244335 -0.25619045 -0.18682522 0.2854496
000290 fd 2a 87 be 27 bc 25 3e 36 0c 9b 3e 15 41 17 be
       -0.26399985 0.16185056 0.30282754 -0.1477092
0002a0 95 06 d2 bd f7 98 9c 3e df d0 ee 3d 3b 42 9a be
       -0.10255162 0.30585453 0.11660933 -0.30128655
0002b0 94 a4 92 3e 72 3a 7f be ab f6 93 be 0d 39 29 3e
       0.28641188 -0.24924639 -0.2889913 0.1652567
0002c0 86 e1 27 3e 0d d0 de bd 0a 78 82 3d a8 1b 17 be
       0.16394624 -0.10879526 0.06370552 -0.14756644
0002d0 d7 26 4c 3e d2 ad 6d 3e 43 8e 8d be 68 a6 1b be
       0.19936691 0.23210838 -0.276476 -0.15200198
0002e0 64 2c 14 3e 0e 37 8f 3e 0d 72 6c be 23 08 3b be
       0.14470059 0.2797169 -0.23090382 -0.18264823
0002f0 72 09 0a 3e db 35 9d bd c2 1c ce 3d 1d 08 13 be
       0.13480166 -0.07676288 0.10064079 -0.14358564
000300 37 7b 31 3d 6a 09 03 3e 78 d3 b7 3d e0 32 8f bc
       0.043330397 0.1279656 0.08975881 -0.017480314
000310 e3 07 bc be 1f f8 b1 be 77 d5 aa be 5c cc a0 be
       -0.36724767 -0.34759614 -0.33365986 -0.31405914
000320 96 44 50 3e 28 c8 8a 3e 21 43 9d 3e 15 d2 92 3e
       0.20338663 0.27105832 0.30715278 0.28675905
000330 d0 20 9c 3d a4 4b 81 3b ec 18 1c bd 33 3d 88 3c
       0.07623446 0.0039457846 -0.038109705 0.016630745
000340 13 7d d7 3d 38 59 bc 3d ad f3 ac bd 12 6f b7 bd
       0.10521903 0.091967046 -0.08444915 -0.08956732
000350 97 f6 bb be 14 dc 0e be cb 72 51 3e b9 03 c9 3e
       -0.3671157 -0.1395114 0.20453946 0.39260653
000360 e0 70 be 3e f9 87 3b 3e 5c f8 35 be bc 61 c3 be
       0.37195492 0.18313588 -0.17770523 -0.38160503
000370 5e 8f 72 bd 09 e2 d1 bd 79 da 5d 3c 2f 2a 14 3d
       -0.059218757 -0.10248191 0.0135408575 0.036173042
000380 73 0f 24 3e e6 45 39 3e de da 67 3e 28 1d 42 3e
       0.16021518 0.1809307 0.22642085 0.18956435
000390 5a f8 81 bd c5 d9 80 3e dd 95 65 3e 2e 46 97 bd
       -0.063461974 0.25166145 0.2242045 -0.073864326
0003a0 5e 5b 81 3d 7f 98 79 be 32 68 8e be 06 6e 08 3d
       0.06316255 -0.24374579 -0.2781387 0.03330805
0003b0 67 7a 22 be d1 e8 43 be 0c 4b 1e be ba 74 2b be
       -0.15867005 -0.19131781 -0.15458316 -0.16743746
0003c0 e3 4a 9e 3d 04 99 08 be 27 8c e9 3d e8 e2 c2 bd
       0.07729127 -0.13339621 0.11403685 -0.09515935
0003d0 fe 6e 0c be 17 47 d6 3e fa f8 ce be 34 11 04 3e
       -0.13714215 0.41851112 -0.4042433 0.12897187
0003e0 3c 18 01 3e f6 1c cd be 9e 9c d2 3e 94 5c 0d be
       0.12606901 -0.40061158 0.41135114 -0.13804847
0003f0 da 41 ac bd db bb fa 3d 23 d8 07 be e5 4a f7 3d
       -0.08410998 0.12242862 -0.13266043 0.12074832

weight f4 [1, 16, 4, 4]
000000 72 bf ae 3c cd 33 7e 3c cf fc 7e 3c 5e 5d a9 3c
       0.021331523 0.01551528 0.015563204 0.020674404
000010 66 83 85 3c 0c b8 25 3c 9a b9 22 3c 70 d5 80 3c
       0.016298007 0.010114681 0.009931946 0.015726775
000020 57 ea 81 3c 9f cc 23 3c e4 48 26 3c c7 58 85 3c
       0.015858812 0.009997516 0.010149214 0.016277684
000030 5e fe a8 3c ad bb 7c 3c a3 65 7c 3c 6f 36 ad 3c
       0.020629104 0.015425605 0.015405091 0.02114412
000040 b8 2b 11 bd ab 74 91 bc 2e f1 b7 3c 10 e4 1b 3d
       -0.035442084 -0.017755827 0.02245387 0.038059294
000050 c5 9e 1a bd 3b 80 c3 bc 4d 78 b1 3c 2f 65 36 3d
       -0.03774907 -0.023864856 0.02166381 0.04453009
000060 20 b9 2a bd 8e e6 dd bc a1 54 c2 3c f2 d8 21 3d
       -0.041680455 -0.027087476 0.023721995 0.039513536
000070 c7 70 19 bd 4e 7b bb bc a1 92 aa 3c 4b 6c 0e 3d
       -0.03746107 -0.022885945 0.020821871 0.034771245
000080 d9 36 8a 3c 17 f5 55 bc ca 35 5b bc 7b fd 24 3c
       0.016871857 -0.013058922 -0.0133795235 0.0100702
000090 8e 4b 17 3c 42 0d 29 3b 6b 8a b5 3b d5 a6 82 3c
       0.009234322 0.0025795256 0.0055401823 0.015948692
0000a0 70 81 82 3c 85 cf cb 3b 4b 2d 28 b9 8a b2 14 3c
       0.015930861 0.0062198066 -0.00016038601 0.00907577
0000b0 7d 1a 6c 3c 58 96 63 bc 8e 9d 81 bc f1 60 7a 3c
       0.014410612 -0.013890825 -0.015822198 0.015281902
0000c0 47 67 fd 3b bc 26 3c 3d c6 dd 6f bd ad 67 09 3c
       0.007733259 0.045935377 -0.05856111 0.008386535
0000d0 f7 6e 59 bc 5b 76 2b 3d cb 0a 3c bd 75 f5 44 3c
       -0.013271085 0.04186092 -0.04590873 0.012021412
0000e0 33 c9 58 bc d5 47 47 3d 8f d4 43 bd f4 5a 39 3c
       -0.013231563 0.04865249 -0.047810134 0.011313189
0000f0 ae 5b 12 bc 97 97 73 3d d7 b6 43 bd 34 de 8f bb
       -0.008932991 0.05947074 -0.04778179 -0.0043905023
000100 a8 80 22 bd 7c 6d 1e bd 28 df 32 bd 63 f5 2f bd
       -0.039673477 -0.03867863 -0.04366985 -0.04295863
000110 3b 32 a9 bc 1e 62 df bc db 52 40 bc 44 78 f8 bb
       -0.020653835 -0.027268466 -0.011738504 -0.007582696
000120 88 12 85 3c b0 fb 8c 3c 40 99 08 3d f5 4d e6 3c
       0.016244188 0.017209858 0.033349276 0.028113345
000130 1b 39 0e 3d b0 a5 20 3d af c8 12 3d 03 55 07 3d
       0.03472243 0.039220512 0.035835918 0.033040058
000140 89 73 00 3d 1d be 01 3d 89 05 d9 bb 51 ff 1a bd
       0.031360183 0.031675447 -0.0066229743 -0.037841145
000150 12 c5 ef 3c 86 e5 5e bc 17 6c 02 bd 59 ce be bc
       0.029268775 -0.013604527 -0.031841364 -0.023291754
000160 38 77 c6 bc 19 bf e0 bc 8c 30 68 bc 9b e1 02 3d
       -0.02422677 -0.027434872 -0.014171731 0.031953435
000170 21 f0 07 bd a2 de df bb a9 64 f4 3c 92 cf 07 3d
       -0.03318799 -0.00683196 0.029833155 0.03315694
000180 26 71 31 bd 27 81 3a 3d 33 48 fe 3c 4e 47 a7 bc
       -0.043320797 0.045533326 0.031040287 -0.020419743
000190 6c 89 24 bd 07 2a 1a bd 81 db 7e 3d 8e 63 33 3b
       -0.04017012 -0.037637737 0.062221054 0.0027372572
0001a0 c2 c8 55 bb 3d d5 75 bd bb df fc 3c 81 46 38 3d
       -0.0032620882 -0.060017813 0.030868402 0.044989113
0001b0 08 f9 8f 3c 81 cc f3 bc 38 3d 46 bd b0 ae 39 3d
       0.017574802 -0.029760601 -0.048398226 0.04533261
0001c0 da 45 a3 3b 16 f5 14 ba 73 4f 22 3d df ef 42 ba
       0.004982692 -0.00056822726 0.03962655 -0.0007436256
0001d0 7d 28 79 bc 8a e2 fe 3c a0 ca 51 3d c1 aa 6f bd
       -0.015207407 0.031113882 0.05121863 -0.058512453
0001e0 26 c7 b3 bb 7a 83 92 3d dc be a7 bc 48 6c 73 bd
       -0.005486387 0.071539834 -0.020476751 -0.059429437
0001f0 27 25 b1 3c a5 ac 04 3d ab bd 6d bd b2 07 3b bc
       0.02162416 0.03239121 -0.05804221 -0.011415409
000200 22 9c d0 3c c4 90 d5 3c 5d 34 ef 3c 89 26 02 3d
       0.025465075 0.026070006 0.029199773 0.03177503
000210 39 04 09 bc d8 6e c1 ba 31 0a be ba 70 af a6 bb
       -0.008362823 -0.0014757765 -0.0014498887 -0.0050868317
000220 26 80 ef bc a5 91 06 bc 57 8c ef bb d9 eb 01 bd
       -0.02923591 -0.008213435 -0.007310431 -0.031719062
000230 2b ba a6 3b 53 cc 93 3c 87 6e 64 3c 61 99 df 3a
       0.005088111 0.018041765 0.013942367 0.001705926
000240 6b c2 07 bd 10 77 27 bd 48 65 62 bc a3 b6 49 3c
       -0.033144396 -0.04088503 -0.013818093 0.01231161
000250 99 99 3b 3d 6d 1a ad bc 46 e2 7b bd f0 91 30 bd
       0.04580078 -0.021130765 -0.061495088 -0.043107927
000260 8a f9 45 3d a4 49 80 3d b0 e2 87 3c a3 91 3f bd
       0.048333682 0.06264046 0.016587585 -0.04676975
000270 c9 ad 32 bc 47 51 66 3c 5b dd 34 3d 40 d5 fa 3c
       -0.010905691 0.014057464 0.044156414 0.030619264
000280 69 ee 16 3d da 95 1d bd 33 cf 40 bd f1 36 24 3d
       0.03684846 -0.038472988 -0.0470726 0.04009146
000290 87 61 15 bd b6 e6 a6 bb 71 94 35 3d 8f 78 2c bc
       -0.036469962 -0.005093421 0.044331018 -0.01052679
0002a0 8a 0b 80 bc 8e cb 36 3d bb 6f 1a b9 af db 11 bd
       -0.015630502 0.04462772 -0.00014728207 -0.035609897
0002b0 c3 ec 2d 3d 9f 1e de bc 34 46 0b bd 15 b8 02 3d
       0.04246212 -0.02711421 -0.034002498 0.031913836
0002c0 62 24 0c 3d 63 e6 06 3d fd 22 ca bc 44 fc f5 bc
       0.034214385 0.032934558 -0.024674887 -0.030027516
0002d0 bb 70 db 3d be 82 54 3d db 0c 6b bd d5 c2 f9 bd
       0.10714861 0.051882498 -0.057385307 -0.121953644
0002e0 9e 37 07 3e 9d 51 7b 3d e4 ca 54 bd 1e dd ed bd
       0.1320481 0.06135713 -0.051951304 -0.116144404
0002f0 93 ab 17 3d 55 2d f6 3c a0 f3 ea bc b9 c2 2d bd
       0.03702886 0.030050913 -0.028680623 -0.04242203
000300 86 69 ca 3b 5c 51 51 bc a1 fb 3e bb f8 39 76 3c
       0.00617713 -0.012775745 -0.0029141682 0.015028469
000310 29 c7 15 3d 76 cd 22 3d 3a 5d f9 3c fe 13 be 3c
       0.036566887 0.039746724 0.030439962 0.023202892
000320 fd 9a 83 bd e5 06 3f bd 21 dc 3c bd d9 78 8c bd
       -0.06426046 -0.046637435 -0.04610837 -0.06858987
000330 02 64 09 39 50 54 4b 3c 8d f3 b2 3c c2 b3 5f 3c
       0.00013102594 0.012410238 0.02184465 0.013653697
000340 67 d1 97 3b 71 bb 9d 3a 23 9e e0 bc c5 b2 6f bc
       0.004633117 0.0012034011 -0.027419155 -0.014630024
000350 cc c3 96 bd b3 25 17 bd d0 db 2f 3d 50 b9 95 3d
       -0.07361564 -0.036901187 0.04293424 0.07310736
000360 a6 82 ca 3d 64 21 81 3d 7e 45 0e bd 04 27 a2 bd
       0.098882005 0.06305197 -0.03473424 -0.07917598
000370 b3 11 df ba d7 c5 fa bb 6a bf a6 3c 96 d8 83 3c
       -0.0017018825 -0.007652979 0.020354945 0.016094487
000380 97 b0 23 3d 53 00 e7 3d 13 63 9b 3d 92 ee 5f 3c
       0.03996333 0.11279359 0.07587256 0.013667719
000390 db 99 05 3d 8e 8d c6 3c be a7 28 3d 35 ea 6b 3d
       0.03261743 0.02423742 0.041175596 0.057596404
0003a0 92 0c 69 bd 88 7a 13 bd 93 c6 7e bc 98 07 b9 bc
       -0.056896754 -0.036005527 -0.0155502735 -0.022586629
0003b0 80 9a a5 bc 5a 37 c1 bd 21 9b e0 bd ad a4 0f bd
       -0.020215273 -0.094343856 -0.109670885 -0.035069156
0003c0 28 0e 46 3b b5 b4 50 3a 64 e1 cf bb 0e f7 27 bb
       0.003022084 0.0007961498 -0.0063440073 -0.0025629434
0003d0 16 63 d4 3a 53 8d 4e 3c 5a 36 17 bc c5 9d 12 bb
       0.0016203846 0.0126069365 -0.009229267 -0.002237187
0003e0 8d 2c be bb 32 38 3d bc 5d 4f 71 3c bf 55 b3 3b
       -0.0058036507 -0.011549043 0.014728394 0.005472868
0003f0 7e 62 42 bb 4a 00 5f bb 7b 05 ac 3b 5f 0c d4 3b
       -0.0029660757 -0.0034027272 0.0052496768 0.0064712013

thr f4 [1, 16, 1, 1]
000000 6c bf ed b5 d1 36 66 3e 7b 4b 55 3e cd 3f 74 3e
       -1.7713587e-06 0.22481848 0.20829575 0.23852463
000010 0e 05 65 3e b6 64 60 3e 2e 57 7a 3e fc b3 6a 3e
       0.2236521 0.21913418 0.24447319 0.22920221
000020 d6 d6 58 3e 20 39 6b 3e d0 e2 87 3e d6 7f ad 3e
       0.21175703 0.2297101 0.26540232 0.33886594
000030 48 0c 70 3e e7 c9 82 3e 14 43 b2 3e f7 d0 4e 3e
       0.23442185 0.25544664 0.34816802 0.20196901

exp_avg_sq f4 [1, 16, 1, 1]
000000 31 7e 3c 34 05 e7 ff 31 5e dc 6f 30 d9 54 c7 30
       1.7554773e-07 7.4477406e-09 8.7260854e-10 1.4503271e-09
000010 65 ac 05 32 b8 0d 38 31 d8 e3 ff 30 8c fe 00 31
       7.780817e-09 2.6783322e-09 1.8618449e-09 1.8771145e-09
000020 4e 68 f9 30 66 34 6c 31 08 4d b3 2f 03 0c 87 30
       1.814678e-09 3.4372305e-09 3.2614644e-10 9.825957e-10
000030 68 35 08 31 ff 7f 7b 30 84 bf 5e 30 63 9a 45 2f
       1.9820963e-09 9.149516e-10 8.103529e-10 1.7971895e-10

exp_avg f4 [1, 16, 1, 1]
000000 1c 60 a4 b7 c0 50 44 b7 3f a8 b1 b6 e9 bc 29 b6
       -1.9595078e-05 -1.1701311e-05 -5.2945975e-06 -2.5292923e-06
000010 b4 90 97 b7 13 75 d3 b6 9e 2a 9e b7 56 60 16 b6
       -1.8067985e-05 -6.3019193e-06 -1.8854913e-05 -2.2407817e-06
000020 bd 8d dc b6 06 8a 86 b7 de 1c 9c 36 c1 71 64 b6
       -6.5730114e-06 -1.6038317e-05 4.652523e-06 -3.404086e-06
000030 bd a6 e1 b6 e1 39 65 35 6f 8b 1f b5 d6 ac b6 b5
       -6.7249334e-06 8.539337e-07 -5.943502e-07 -1.3610359e-06

exp_avg_sq f4 [16, 1, 4, 4]
000000 b1 43 4f 33 9e 1c 50 33 1c 53 50 33 20 f0 4f 33
       4.8257508e-08 4.84548e-08 4.850436e-08 4.8414336e-08
000010 f2 18 50 33 9f 1f 51 33 65 53 51 33 78 a3 50 33
       4.845146e-08 4.8690364e-08 4.873745e-08 4.8577448e-08
000020 5b 03 50 33 5e fc 50 33 5d 23 51 33 f7 5e 50 33
       4.8431826e-08 4.86583e-08 4.8693767e-08 4.8515144e-08
000030 49 07 4f 33 81 b9 4f 33 35 d1 4f 33 8b 2f 4f 33
       4.820257e-08 4.8364658e-08 4.8386216e-08 4.8239183e-08
000040 87 ba 9c 2f 2b 14 85 2f 90 dc 84 2f a2 ce 9e 2f
       2.850877e-10 2.420689e-10 2.416738e-10 2.8886854e-10
000050 8a ba ad 2f 14 ff 89 2f bd 65 89 2f 85 08 af 2f
       3.160106e-10 2.51014e-10 2.4992444e-10 3.1838368e-10
000060 60 0a ae 2f 8e 4e 8b 2f 19 b3 87 2f c3 cd ad 2f
       3.1657788e-10 2.533977e-10 2.4683613e-10 3.161472e-10
000070 24 19 9d 2f 8e cb 86 2f a6 ec 82 2f c5 70 9c 2f
       2.8575997e-10 2.4519092e-10 2.381501e-10 2.8456362e-10
000080 ce 9e 37 2e 49 79 62 2e fc a9 5c 2e a0 4f 38 2e
       4.175043e-11 5.1494174e-11 5.0173185e-11 4.1907477e-11
000090 2e 67 38 2e 94 4b 64 2e 07 75 66 2e a1 91 3f 2e
       4.1928398e-11 5.1908325e-11 5.2399887e-11 4.3557716e-11
0000a0 68 a5 3a 2e 38 6a 64 2e 69 e9 65 2e 17 57 3b 2e
       4.2438414e-11 5.193554e-11 5.227588e-11 4.259623e-11
0000b0 8c 96 36 2e 05 c0 5d 2e bd 42 60 2e a2 6a 38 2e
       4.151572e-11 5.042013e-11 5.099098e-11 4.1931465e-11
0000c0 4e e2 45 2e 7d f8 84 2e d7 f6 8d 2e ef 0f 4c 2e
       4.4993613e-11 6.0468054e-11 6.455785e-11 4.639838e-11
0000d0 03 df 50 2e ae 44 99 2e e7 ab 9b 2e cb f8 52 2e
       4.74918e-11 6.9698344e-11 7.07912e-11 4.7969444e-11
0000e0 9a 1e 4f 2e 62 99 9a 2e 0e 44 92 2e 06 1d 4e 2e
       4.709353e-11 7.0303555e-11 6.6514e-11 4.6864755e-11
0000f0 be 5b 3e 2e b2 8e 8a 2e bf fd 81 2e f5 35 49 2e
       4.3282482e-11 6.300861e-11 5.911315e-11 4.5750032e-11
000100 88 33 a6 2f 54 bd b5 2f d4 9d b6 2f aa 86 a8 2f
       3.023184e-10 3.3058234e-10 3.321775e-10 3.0654707e-10
000110 a4 b0 94 2f aa a2 99 2f b1 cd 91 2f a5 4b 90 2f
       2.7046554e-10 2.7946118e-10 2.65215e-10 2.6247196e-10
000120 7e 4e 90 2f a8 69 91 2f 27 ab 95 2f 50 76 90 2f
       2.624922e-10 2.645042e-10 2.7224553e-10 2.6277513e-10
000130 76 ac a5 2f 05 a2 ba 2f 50 b2 ba 2f 91 3d a9 2f
       3.0135866e-10 3.3948325e-10 3.3959902e-10 3.0784666e-10
000140 47 9c ae 2e e0 e4 77 2e 2e b3 4c 2e ee 7e 95 2e
       7.940364e-11 5.636458e-11 4.6543373e-11 6.798283e-11
000150 12 f0 62 2e 01 95 61 2e 0e b7 a7 2e 17 de 75 2e
       5.1599676e-11 5.129142e-11 7.626798e-11 5.5903806e-11
000160 38 45 78 2e 38 ed ac 2e a8 a6 5c 2e 88 69 65 2e
       5.645015e-11 7.863793e-11 5.017023e-11 5.2162302e-11
000170 c3 3d 99 2e 63 14 51 2e cc 25 80 2e 81 b1 b1 2e
       6.9686056e-11 4.7539205e-11 5.82748e-11 8.080559e-11
000180 35 02 ab 2e b6 79 a5 2e 6f df c6 2e ae ce 92 2e
       7.776572e-11 7.5249515e-11 9.043687e-11 6.676025e-11
000190 2a 81 b9 2e 93 0c 97 2e cb 1f d9 2e cf 0f 93 2e
       8.43577e-11 6.8689186e-11 9.873665e-11 6.687594e-11
0001a0 3d 12 94 2e 68 ac d9 2e 2b 7c 98 2e b5 cf b4 2e
       6.7335006e-11 9.898643e-11 6.9342164e-11 8.2223485e-11
0001b0 01 21 94 2e 65 38 be 2e 1a fa 9c 2e b7 e9 ab 2e
       6.7361235e-11 8.6502173e-11 7.1384856e-11 7.817696e-11
0001c0 3b b9 bb 2e ae 49 d2 2e 57 e8 c8 2e 93 c2 9f 2e
       8.536679e-11 9.5627825e-11 9.136219e-11 7.265046e-11
0001d0 24 76 ef 2e 39 64 89 2e 40 9d ef 2e 8a 2b 9e 2e
       1.0889448e-10 6.247842e-11 1.0896395e-10 7.192742e-11
0001e0 21 2e cd 2e 17 c2 b5 2e 0f 9e c4 2e 6e 9d 93 2e
       9.330515e-11 8.265404e-11 8.941125e-11 6.712751e-11
0001f0 da 7e 9c 2e 86 e7 d1 2e 36 9a ca 2e c9 75 96 2e
       7.116592e-11 9.5453465e-11 9.21329e-11 6.842133e-11
000200 b9 eb 98 2e 35 24 90 2e 34 63 8d 2e a6 64 92 2e
       6.9540325e-11 6.5547935e-11 6.42956e-11 6.65719e-11
000210 c9 ea 97 2e cd 24 93 2e fd 17 92 2e 47 03 9a 2e
       6.908391e-11 6.691323e-11 6.6435725e-11 7.0036914e-11
000220 28 50 90 2e a2 5e 8b 2e f4 d1 8a 2e 97 b1 92 2e
       6.5626005e-11 6.337798e-11 6.3128086e-11 6.6708576e-11
000230 c6 13 94 2e 96 df a2 2e 4c 2d a0 2e 4e 2a 90 2e
       6.733773e-11 7.406624e-11 7.284004e-11 6.555877e-11
000240 58 7e 04 2f 95 0a 1c 2f b7 5e 0c 2f 8f 83 05 2f
       1.2050216e-10 1.4191877e-10 1.2766575e-10 1.2143019e-10
000250 10 55 15 2f d4 14 eb 2e 34 55 37 2f 21 fc 2e 2f
       1.3581691e-10 1.06902626e-10 1.6674023e-10 1.5914782e-10
000260 f9 88 31 2f c7 49 3f 2f f9 9b f0 2e 00 5d 0b 2f
       1.6146719e-10 1.739756e-10 1.0941643e-10 1.2675017e-10
000270 68 b4 02 2f 15 5c 0e 2f 16 79 1f 2f 25 15 0a 2f
       1.1887524e-10 1.2947539e-10 1.4503984e-10 1.2558539e-10
000280 55 b1 5d 2d 14 15 57 2d cb c7 44 2d 97 ab 8a 2d
       1.2601771e-11 1.2226015e-11 1.1185673e-11 1.5764985e-11
000290 67 52 52 2d a5 a5 5d 2d b4 1c a7 2d ae 99 4b 2d
       1.1955415e-11 1.2599176e-11 1.8998449e-11 1.1573338e-11
0002a0 4e 96 6f 2d be 88 a6 2d 7e 08 73 2d 41 c5 70 2d
       1.36189515e-11 1.893274e-11 1.3814836e-11 1.368622e-11
0002b0 da 2c 8a 2d b2 a1 58 2d 4f 51 71 2d f9 3b 58 2d
       1.5708702e-11 1.2314082e-11 1.3717318e-11 1.2291495e-11
0002c0 7e 8c 39 2f 37 5c 1b 2f 42 69 0f 2f 37 3a 23 2f
       1.6875565e-10 1.4129929e-10 1.304317e-10 1.4845446e-10
0002d0 81 bd 51 2f 89 54 1f 2f 3a c7 18 2f d5 81 4d 2f
       1.9075765e-10 1.4490999e-10 1.3895099e-10 1.8690767e-10
0002e0 97 c1 58 2f a7 da 26 2f 84 d7 17 2f 03 8b 3f 2f
       1.9713862e-10 1.5175293e-10 1.3809937e-10 1.7420736e-10
0002f0 43 9c 32 2f 93 e5 19 2f b5 92 1d 2f 91 e9 2d 2f
       1.6244521e-10 1.399683e-10 1.4331188e-10 1.5817238e-10
000300 e4 c1 9d 2e 54 76 a3 2e 07 70 9f 2e 6c 83 9d 2e
       7.173975e-11 7.433401e-11 7.250383e-11 7.1628786e-11
000310 ff 13 df 2e b9 7c e6 2e 41 e2 de 2e 16 84 d3 2e
       1.0144418e-10 1.0481344e-10 1.0135582e-10 9.618632e-11
000320 27 e2 bf 2e e2 32 d2 2e a2 1d de 2e ac 9d cf 2e
       8.725847e-11 9.558733e-11 1.0100655e-10 9.441278e-11
000330 77 31 ac 2e fc ba a4 2e bb a4 a0 2e 11 fc a1 2e
       7.830441e-11 7.4910717e-11 7.3052196e-11 7.366208e-11
000340 e6 6e 8b 2d a1 11 83 2d 02 17 7a 2d 9a 2e 88 2d
       1.585172e-11 1.4900805e-11 1.42159635e-11 1.5482105e-11
000350 55 2e 04 2e ce a9 7e 2d 20 f5 a4 2d 48 2a 19 2e
       3.0054476e-11 1.4475933e-11 1.8753499e-11 3.4825726e-11
000360 a0 d9 0c 2e aa d2 92 2d be 63 8e 2d 59 b0 10 2e
       3.2025604e-11 1.6691832e-11 1.6187825e-11 3.2898437e-11
000370 da ca 86 2d f6 5a 86 2d 78 52 7d 2d f0 9e 83 2d
       1.532412e-11 1.5274431e-11 1.4399697e-11 1.4963558e-11
000380 d2 1d 15 2f 3d 01 3c 2f fa b4 30 2f 7e cf 18 2f
       1.3562065e-10 1.709894e-10 1.6071403e-10 1.3898036e-10
000390 c6 5a 02 2f 3e 65 12 2f 9f 3b 06 2f 54 df 1a 2f
       1.185568e-10 1.3314591e-10 1.220841e-10 1.408556e-10
0003a0 43 bc 27 2f 1b 69 07 2f 13 5d 0b 2f 54 d4 01 2f
       1.5255446e-10 1.231552e-10 1.2675043e-10 1.1807916e-10
0003b0 09 be 1e 2f 12 1c 1e 2f ce 05 2b 2f 89 88 0e 2f
       1.443753e-10 1.4379989e-10 1.5554422e-10 1.2963332e-10
0003c0 02 6b 2c 2b ea 2c 85 2b 83 86 8b 2b 7b a8 2d 2b
       6.125518e-13 9.462685e-13 9.913879e-13 6.169576e-13
0003d0 18 14 84 2b 93 31 39 2c 09 31 3b 2c 3d 52 84 2b
       9.384741e-13 2.63176e-12 2.6601518e-12 9.40199e-13
0003e0 78 47 83 2b b8 fb 39 2c 76 45 38 2c b3 25 83 2b
       9.327946e-13 2.6429813e-12 2.6186531e-12 9.318573e-13
0003f0 a5 81 2d 2b 32 4a 88 2b 3c 61 83 2b ec 0d 2d 2b
       6.1641865e-13 9.683975e-13 9.335098e-13 6.1481267e-13

exp_avg f4 [16, 1, 4, 4]
000000 18 89 6b b7 9e a7 32 b7 f3 0c 3e b7 0c f5 64 b7
       -1.4039011e-05 -1.0648653e-05 -1.13278975e-05 -1.3646913e-05
000010 60 a2 25 b7 b7 0a f6 b6 3f cf 06 b7 d3 0b 2d b7
       -9.872572e-06 -7.3326187e-06 -8.035276e-06 -1.0314357e-05
000020 47 16 2e b7 d3 8f 05 b7 ce 26 09 b7 78 0d 2b b7
       -1.0376395e-05 -7.960904e-06 -8.174871e-06 -1.019553e-05
000030 d6 14 59 b7 2c 5f 2e b7 15 8b 2f b7 f7 32 5e b7
       -1.2939059e-05 -1.0393367e-05 -1.0463195e-05 -1.3244097e-05
000040 7a 7f 5d 36 07 f1 84 36 ee 7f 4d 36 5c 90 5e 36
       3.3005767e-06 3.961966e-06 3.0621845e-06 3.3164606e-06
000050 e8 a5 51 36 e4 cb b2 36 98 1f a2 35 15 68 4a 36
       3.1239997e-06 5.3285494e-06 1.2079136e-06 3.016093e-06
000060 a1 af 50 36 4a 54 bc 36 3d 7f 8e 35 d3 69 21 36
       3.1096645e-06 5.612649e-06 1.0616856e-06 2.4052467e-06
000070 be 1c 64 36 2d e7 72 36 5c 39 3d 36 d3 cd 24 36
       3.3991378e-06 3.6195372e-06 2.8196582e-06 2.455771e-06
000080 89 c4 54 34 76 de c6 32 d0 b5 30 b5 da 3b b2 b4
       1.9815538e-07 2.3151397e-08 -6.582968e-07 -3.319863e-07
000090 d9 18 28 35 7d 6d 2b b5 ce 8f cc b5 3e 8d bb b4
       6.2621035e-07 -6.386179e-07 -1.5241037e-06 -3.4934232e-07
0000a0 f0 83 9e 34 2c b5 4c b5 c4 0d 89 b5 98 0c 77 b3
       2.952579e-07 -7.625956e-07 -1.0211302e-06 -5.7520623e-08
0000b0 23 7f 21 35 0c f6 cf 31 07 69 ee b4 6d 63 21 b5
       6.016218e-07 6.052465e-09 -4.4407372e-07 -6.012186e-07
0000c0 80 03 99 34 4c 80 e1 34 57 ff cf 34 e7 fe 57 b2
       2.8501017e-07 4.2002864e-07 3.874254e-07 -1.2572605e-08
0000d0 27 da 79 33 37 8a fb 33 2d 10 19 34 2a 93 90 34
       5.817324e-08 1.17132394e-07 1.425512e-07 2.6929166e-07
0000e0 bf 92 73 34 32 6e a1 b4 52 4c 28 35 20 9c 5a b4
       2.2684524e-07 -3.0068765e-07 6.269594e-07 -2.035963e-07
0000f0 43 89 95 34 7a fa 1d b4 54 6a 60 35 2f a7 6b b4
       2.7853284e-07 -1.4712887e-07 8.360123e-07 -2.1946902e-07
000100 81 fe 2d 36 e0 dd 0e 36 95 6f f6 35 57 78 ed 35
       2.592715e-06 2.1288797e-06 1.8360903e-06 1.76929e-06
000110 f0 35 13 b6 4a 63 e0 b5 14 7c 86 35 d5 71 eb 35
       -2.1936103e-06 -1.6718197e-06 1.001989e-06 1.7541994e-06
000120 c2 63 bb b6 31 40 a1 b6 26 48 37 b6 70 34 3a b6
       -5.5846476e-06 -4.8056468e-06 -2.731112e-06 -2.7746682e-06
000130 d7 35 8c b5 bd d9 c0 b5 7c 62 42 b6 84 0a 91 b6
       -1.0446482e-06 -1.4368485e-06 -2.8965578e-06 -4.322561e-06
000140 39 b9 76 36 aa 2d b9 35 64 1e 82 35 78 e2 6a 35
       3.676467e-06 1.3796864e-06 9.6946e-07 8.750135e-07
000150 39 fb b9 35 5c 38 68 35 6e 37 00 35 2f 5c 10 35
       1.385669e-06 8.650875e-07 4.7764377e-07 5.3778325e-07
000160 24 54 06 36 40 4c 04 35 ce 9d 04 b2 d0 a7 ab 34
       2.0016532e-06 4.928479e-07 -7.719292e-09 3.1973332e-07
000170 99 00 3c 35 40 f4 25 34 53 0a e2 35 1b ef 68 36
       7.003633e-07 1.545568e-07 1.6841317e-06 3.4709872e-06
000180 02 b8 8e 36 15 b5 54 35 63 4a a5 b4 c2 55 b5 36
       4.253351e-06 7.9239663e-07 -3.0787768e-07 5.404204e-06
000190 6e 57 9f 36 87 cf 9a 35 a9 48 36 36 d9 15 51 36
       4.7487474e-06 1.1534293e-06 2.7162407e-06 3.1156144e-06
0001a0 44 8d 8e 36 0a 16 86 36 d8 05 be 36 fb ca 3b 35
       4.2483753e-06 3.996077e-06 5.6631216e-06 6.9958304e-07
0001b0 87 d5 35 36 70 7b f5 36 08 b6 bd 36 2f 7c 0c 36
       2.709539e-06 7.315939e-06 5.65383e-06 2.093391e-06
0001c0 cb 36 2a 36 c0 d4 61 b5 9b 72 97 36 c8 ef 90 b5
       2.5363868e-06 -8.4128624e-07 4.5134925e-06 -1.0798622e-06
0001d0 a3 01 68 36 a4 0c b7 35 b7 a6 55 b5 01 b9 94 b5
       3.4571647e-06 1.3638241e-06 -7.9591285e-07 -1.1080703e-06
0001e0 9b a9 4c 36 35 d6 91 35 30 a2 e0 b5 01 1a 17 35
       3.0497092e-06 1.0865684e-06 -1.6736503e-06 5.6289724e-07
0001f0 f9 ff 26 36 de 2b 63 36 b1 7b 78 b6 28 02 13 36
       2.4884923e-06 3.385117e-06 -3.7026878e-06 2.1905962e-06
000200 05 9f e0 36 36 31 bb 36 8b 04 b0 36 71 e9 cc 36
       6.6942325e-06 5.578763e-06 5.2457376e-06 6.10685e-06
000210 83 6b 21 36 a6 27 c6 35 68 51 05 36 23 d0 36 36
       2.405345e-06 1.4763689e-06 1.986593e-06 2.7241265e-06
000220 73 4b 19 b6 b9 6c c2 b5 4c 71 96 b5 3a 53 14 b6
       -2.2842694e-06 -1.4485769e-06 -1.1208845e-06 -2.2102163e-06
000230 7d 1e 35 b5 c6 ef f2 b4 56 eb 08 33 c9 f6 74 b4
       -6.747212e-07 -4.525047e-07 3.1879004e-08 -2.2814051e-07
000240 33 27 11 35 6a be 7f 35 4d 14 d2 b5 7c e1 86 b6
       5.407375e-07 9.527199e-07 -1.5652128e-06 -4.019761e-06
000250 e6 1e 68 b6 51 79 03 b6 e8 2a 69 35 ec cd d1 35
       -3.458868e-06 -1.9591137e-06 8.68617e-07 1.5631645e-06
000260 17 02 71 b6 b2 6c 11 b5 f5 3e 9f 35 80 57 42 36
       -3.5913015e-06 -5.417488e-07 1.1864746e-06 2.8959184e-06
000270 67 2c ad 35 fa e1 60 b5 c7 81 09 b6 84 55 ae b5
       1.2902427e-06 -8.377534e-07 -2.0490131e-06 -1.2988899e-06
000280 e1 4a ba 35 70 80 c3 35 02 d5 59 34 33 83 9a b4
       1.3879873e-06 1.4566012e-06 2.0287192e-07 -2.8780195e-07
000290 2c 58 a1 35 91 69 a9 35 2b 4d 88 b5 cf c8 bf 34
       1.2021096e-06 1.2622205e-06 -1.0155248e-06 3.572263e-07
0002a0 fa bd 9c b5 eb bc a2 b5 38 67 18 36 95 61 de 35
       -1.1678196e-06 -1.2124923e-06 2.2709846e-06 1.6568689e-06
0002b0 a4 56 a6 34 87 e0 07 36 9a 6d aa 35 05 80 d5 34
       3.098295e-07 2.024726e-06 1.2697885e-06 3.9767488e-07
0002c0 11 02 1f 37 8d 0a 49 36 45 6f db 36 f5 50 f9 35
       9.47762e-06 2.9957475e-06 6.539662e-06 1.8575507e-06
0002d0 d4 f9 12 36 0b 7e c1 36 00 69 80 36 b0 17 29 37
       2.1901114e-06 5.7665216e-06 3.826921e-06 1.00787e-05
0002e0 a1 56 a0 35 19 88 b9 36 90 9c 80 36 b1 1a 10 37
       1.1946141e-06 5.5292735e-06 3.8329235e-06 8.589283e-06
0002f0 88 69 15 37 92 8c 91 36 ed 7d fd 36 5d 13 9d 35
       8.905663e-06 4.3377013e-06 7.5546473e-06 1.1703047e-06
000300 7d a2 4b 36 7d 02 c7 35 21 13 c9 35 64 ff 06 36
       3.0343938e-06 1.482738e-06 1.4981234e-06 2.0116213e-06
000310 81 87 0e 32 9d 9c 42 b5 23 99 33 34 ac b2 a5 35
       8.296298e-09 -7.2498534e-07 1.6726385e-07 1.2345458e-06
000320 4e 15 55 36 80 c7 31 36 53 4a 2e 36 b8 4b 2d 36
       3.1751874e-06 2.649118e-06 2.5971283e-06 2.5823083e-06
000330 a9 1d 29 34 69 11 d1 34 37 85 a3 35 51 8e bc 33
       1.5750142e-07 3.894195e-07 1.2183217e-06 8.7803194e-08
000340 4c 18 9f b5 d0 5d ea b5 38 e7 1f b5 97 34 07 b5
       -1.1853494e-06 -1.7461662e-06 -5.9568583e-07 -5.036795e-07
000350 82 9a 1b b5 b5 17 b3 b3 29 b1 6f b5 95 ee 47 b5
       -5.796684e-07 -8.339649e-08 -8.929224e-07 -7.448046e-07
000360 cc 96 91 b5 65 4a e3 b5 11 79 09 b5 54 d5 56 b5
       -1.084723e-06 -1.693447e-06 -5.121265e-07 -8.0031646e-07
000370 36 85 d5 b5 ea ed 67 b5 da d9 43 b5 03 bd 24 b4
       -1.5908506e-06 -8.6400416e-07 -7.2960177e-07 -1.5342452e-07
000380 92 a8 6c 35 e9 38 a8 b6 3f 5b 40 b6 fb 12 87 36
       8.8162153e-07 -5.0134154e-06 -2.8663342e-06 4.025523e-06
000390 80 3e 69 35 f7 59 6b 36 5e 83 4b 35 32 e8 70 b6
       8.6890213e-07 3.5070095e-06 7.581456e-07 -3.5897942e-06
0003a0 22 42 bc 36 6c 02 c7 35 a2 c9 74 b5 43 61 ef 35
       5.6105355e-06 1.482736e-06 -9.11905e-07 1.7835195e-06
0003b0 63 fc 71 b6 40 73 39 36 a9 62 cd 36 b4 09 31 35
       -3.6058707e-06 2.7634233e-06 6.1209616e-06 6.595176e-07
0003c0 ae 9b 80 33 3b 94 88 b3 bb d2 a2 34 32 98 42 b1
       5.9887824e-08 -6.3599565e-08 3.0328178e-07 -2.8317229e-09
0003d0 06 a7 2d b4 bd 52 f4 b1 9a aa 1e b4 22 a3 69 33
       -1.6172643e-07 -7.110741e-09 -1.4776961e-07 5.439791e-08
0003e0 ad d8 13 34 17 b9 1e b4 aa 72 1b b2 bc a9 75 b4
       1.3769268e-07 -1.4782232e-07 -9.048259e-09 -2.2879152e-07
0003f0 a9 56 58 b4 ec 92 14 34 f4 df b2 b4 f1 e0 32 b4
       -2.0148094e-07 1.3837024e-07 -3.331803e-07 -1.6659375e-07

exp_avg_sq f4 [1, 16, 4, 4]
000000 75 19 4c 37 60 ec 4c 37 e4 26 4d 37 57 c9 4c 37
       1.2165275e-05 1.2214383e-05 1.2228007e-05 1.2206226e-05
000010 38 e7 4c 37 4b f7 4d 37 a4 2e 4e 37 fc 78 4d 37
       1.2213182e-05 1.227653e-05 1.2289416e-05 1.2247121e-05
000020 54 d7 4c 37 d7 db 4d 37 99 02 4e 37 f8 38 4d 37
       1.22094825e-05 1.2270138e-05 1.2279162e-05 1.2232216e-05
000030 bc e7 4b 37 c2 96 4c 37 d7 ab 4c 37 eb 12 4c 37
       1.2153698e-05 1.2194449e-05 1.2199357e-05 1.2163752e-05
000040 61 fb 27 31 2c d3 06 31 3f 14 10 31 86 ac 2f 31
       2.444459e-09 1.9619604e-09 2.0966267e-09 2.556392e-09
000050 ab 3c 57 31 64 af 0f 31 c2 32 14 31 d0 44 61 31
       3.1321103e-09 2.0908937e-09 2.1565687e-09 3.2780925e-09
000060 a4 b8 58 31 49 99 11 31 1d 1c 0f 31 da b3 64 31
       3.1537093e-09 2.118741e-09 2.082522e-09 3.32806e-09
000070 1b e2 2b 31 48 39 0b 31 29 b5 06 31 a2 b8 34 31
       2.5012301e-09 2.0259723e-09 1.9602544e-09 2.62984e-09
000080 2b 2f 25 30 50 08 52 30 89 31 4a 30 34 e7 18 30
       6.009368e-10 7.640937e-10 7.3557566e-10 5.562584e-10
000090 00 15 46 30 4b be 59 30 2d fb 5a 30 7e 3c 34 30
       7.2061823e-10 7.921456e-10 7.966488e-10 6.5569583e-10
0000a0 2e 5b 48 30 05 d3 51 30 35 91 5c 30 aa 25 34 30
       7.288915e-10 7.6333634e-10 8.0241885e-10 6.553714e-10
0000b0 51 68 28 30 10 9c 44 30 40 ba 4f 30 a9 b0 17 30
       6.1266286e-10 7.152616e-10 7.557084e-10 5.518453e-10
0000c0 57 ed 23 2f d6 24 35 2f d6 55 34 2f f1 a8 0c 2f
       1.4909084e-10 1.6474941e-10 1.64014e-10 1.2792946e-10
0000d0 ed 7b 44 2f bb 89 6d 2f 7b cb 6a 2f a7 b2 30 2f
       1.7870123e-10 2.1603956e-10 2.1354467e-10 1.6070577e-10
0000e0 2a 29 41 2f b1 55 75 2f 7d 4d 69 2f 92 ee 33 2f
       1.7567872e-10 2.2313064e-10 2.1218756e-10 1.6364712e-10
0000f0 32 91 19 2f 39 8e 3b 2f 28 5c 32 2f 23 f8 18 2f
       1.3966853e-10 1.7058079e-10 1.6221746e-10 1.3912475e-10
000100 74 36 3e 31 2e 30 73 31 20 96 78 31 3b cd 4a 31
       2.7679592e-09 3.538854e-09 3.6174086e-09 2.9511529e-09
000110 9f 19 18 31 31 5c 20 31 b1 35 1a 31 42 49 19 31
       2.2133475e-09 2.333547e-09 2.244047e-09 2.2306073e-09
000120 45 01 10 31 c4 ed 18 31 58 3d 1f 31 ce 2c 17 31
       2.095548e-09 2.2254065e-09 2.3172415e-09 2.199886e-09
000130 11 18 32 31 76 e6 5f 31 06 e1 65 31 1b 10 3a 31
       2.591609e-09 3.2581773e-09 3.3451797e-09 2.7075717e-09
000140 78 09 1e 30 d9 37 d6 2f 7b 4a ac 2f c2 37 07 30
       5.749352e-10 3.8966055e-10 3.133954e-10 4.919195e-10
000150 1c 8d b6 2f 07 91 a0 2f 02 dc 1e 30 18 b5 d2 2f
       3.320587e-10 2.9206879e-10 5.7792715e-10 3.8327452e-10
000160 c5 32 d2 2f c4 bc 1a 30 c5 7b a9 2f f2 b5 bb 2f
       3.8234851e-10 5.6293126e-10 3.0828864e-10 3.4144382e-10
000170 df 4b 07 30 80 bc ad 2f 29 e1 dc 2f d7 cc 1c 30
       4.9220533e-10 3.1602454e-10 4.0177753e-10 5.7043564e-10
000180 9e 05 63 2f 79 06 55 2f 59 3c 68 2f 36 d7 38 2f
       2.0647525e-10 1.9374537e-10 2.1121717e-10 1.6811161e-10
000190 26 08 68 2f c7 f3 25 2f 56 25 90 2f 06 e2 42 2f
       2.1103172e-10 1.509327e-10 2.6219976e-10 1.7724497e-10
0001a0 fc 40 42 2f 56 3c 93 2f a5 c3 24 2f 25 96 61 2f
       1.7667284e-10 2.6782015e-10 1.498522e-10 2.0516973e-10
0001b0 55 c7 3a 2f dd f5 78 2f 18 6f 5e 2f d8 d7 5c 2f
       1.6987418e-10 2.2642817e-10 2.0230251e-10 2.0085567e-10
0001c0 91 2d 10 2f 1c 7e 75 2f 63 e9 90 2f 91 32 6a 2f
       1.3112912e-10 2.2327423e-10 2.635928e-10 2.1300141e-10
0001d0 31 45 26 2f 55 cc 60 2f 12 64 68 2f b3 02 86 2f
       1.5122194e-10 2.0445275e-10 2.1135829e-10 2.4376376e-10
0001e0 82 ed 66 2f de 4b 98 2f c0 12 0b 2f 6a 00 84 2f
       2.1002758e-10 2.7702546e-10 1.2648638e-10 2.4010954e-10
0001f0 9b 15 53 2f ac 54 8b 2f 51 bb 8d 2f a0 9b 6e 2f
       1.9198014e-10 2.5344116e-10 2.5780847e-10 2.1701263e-10
000200 df eb 4e 30 9f f6 78 30 45 73 77 30 21 2f 4f 30
       7.5277556e-10 9.0572344e-10 9.0021884e-10 7.5373136e-10
000210 61 59 5a 30 1f b1 60 30 69 e7 65 30 9c 95 67 30
       7.9434953e-10 8.174243e-10 8.363857e-10 8.424992e-10
000220 b9 f4 76 30 62 ab 85 30 8f 9b 84 30 64 29 74 30
       8.984205e-10 9.725734e-10 9.648476e-10 8.88255e-10
000230 44 6f 27 30 df 1c 44 30 07 c6 3f 30 5f f6 21 30
       6.0912364e-10 7.1345413e-10 6.976681e-10 5.8921573e-10
000240 1f d2 ce 2f bd 8c e2 2f 9c fe c2 2f a6 16 bb 2f
       3.7620482e-10 4.120916e-10 3.5469305e-10 3.4031195e-10
000250 2a 33 e6 2f 94 8c 9c 2f b2 a2 16 30 f8 f0 ff 2f
       4.187311e-10 2.8476121e-10 5.4800886e-10 4.6555448e-10
000260 da 2f f2 2f 19 56 10 30 80 17 a2 2f ce cf ea 2f
       4.4053544e-10 5.2509247e-10 2.9484326e-10 4.2712006e-10
000270 a7 51 b2 2f 70 19 c6 2f c0 9b ef 2f 7a 76 e1 2f
       3.243603e-10 3.6034065e-10 4.3584514e-10 4.1011444e-10
000280 db 23 41 2e 46 65 24 2e cd 51 13 2e 2b ab 61 2e
       4.3914965e-11 3.737923e-11 3.3496584e-11 5.1311105e-11
000290 32 39 26 2e 15 37 1a 2e 50 7d 69 2e 77 58 0f 2e
       3.779483e-11 3.506447e-11 5.3089366e-11 3.2593008e-11
0002a0 46 ab 12 2e ab 11 6c 2e 4a af 22 2e b2 70 21 2e
       3.3348678e-11 5.367588e-11 3.6990223e-11 3.6707255e-11
0002b0 e7 d4 6b 2e f2 65 0b 2e 57 88 23 2e c9 34 40 2e
       5.362191e-11 3.1695487e-11 3.7183003e-11 4.370263e-11
0002c0 16 68 73 2e 12 fa a5 2e 94 5b a4 2e d2 09 6f 2e
       5.534425e-11 7.547753e-11 7.474124e-11 5.435103e-11
0002d0 58 33 92 2e 30 8a 94 2e b4 f5 b4 2e fc b4 8d 2e
       6.648432e-11 6.754808e-11 8.229098e-11 6.444087e-11
0002e0 f8 f7 8e 2e fe 9c ab 2e 04 c5 98 2e f9 5d 9b 2e
       6.5014605e-11 7.804067e-11 6.947157e-11 7.065277e-11
0002f0 69 82 62 2e 7b b4 a0 2e 7f af a1 2e 3e 14 80 2e
       5.1502278e-11 7.3080174e-11 7.352607e-11 5.824362e-11
000300 aa 50 3e 2f a9 49 48 2f bb b3 50 2f 2b f1 50 2f
       1.7309057e-10 1.8216063e-10 1.8981343e-10 1.900317e-10
000310 53 51 7d 2f 13 e1 8c 2f 82 1c 8a 2f 27 1d 81 2f
       2.3039108e-10 2.5625777e-10 2.512231e-10 2.3485677e-10
000320 b9 09 84 2f 7f 12 97 2f 2a e1 9a 2f 4a c9 8a 2f
       2.4017568e-10 2.7479882e-10 2.8172426e-10 2.5245078e-10
000330 2e 7e 3c 2f 4b a6 48 2f 83 ba 4e 2f fb 36 3f 2f
       1.7143328e-10 1.8248973e-10 1.8801853e-10 1.7390882e-10
000340 41 02 26 2e 94 a0 05 2e 49 0b fd 2d b8 90 21 2e
       3.7746032e-11 3.038332e-11 2.8767782e-11 3.6735698e-11
000350 6e b6 80 2e 31 2e c2 2d e5 d0 c4 2d 46 6f 83 2e
       5.853172e-11 2.207576e-11 2.2375388e-11 5.9769564e-11
000360 23 59 8c 2e 2c 84 bc 2d 03 19 b9 2d 52 28 87 2e
       6.382297e-11 2.1431822e-11 2.1043172e-11 6.1462516e-11
000370 5f 3c 2c 2e 1d 0c f9 2d 26 d7 f8 2d 6a f0 24 2e
       3.9161892e-11 2.8313402e-11 2.828988e-11 3.7502813e-11
000380 a7 eb c5 2e da 4c e6 2e b2 49 e9 2e 0d 56 d7 2e
       9.000383e-11 1.04728407e-10 1.0608704e-10 9.792354e-11
000390 18 55 04 2f 4d 78 01 2f 3b 21 da 2e 59 c0 f2 2e
       1.2035561e-10 1.1775221e-10 9.919395e-11 1.1039054e-10
0003a0 66 ad ed 2e 4f 9f de 2e e6 8f f5 2e 45 e2 f6 2e
       1.0808314e-10 1.012369e-10 1.11668716e-10 1.12269784e-10
0003b0 d4 de c9 2e 9a 29 e7 2e b3 f1 e3 2e 9d 4a bf 2e
       9.180004e-11 1.0512054e-10 1.0365699e-10 8.6989284e-11
0003c0 e4 0a 5e 2d 84 4a d3 2d 5b 71 d5 2d d6 b2 4b 2d
       1.2621657e-11 2.4021014e-11 2.4265636e-11 1.1578924e-11
0003d0 48 05 d7 2d cc 96 bb 2e 97 27 b6 2e 23 3f cc 2d
       2.4445015e-11 8.5305624e-11 8.2834344e-11 2.3220153e-11
0003e0 c2 cc d1 2d 35 cf b7 2e 84 6c bc 2e 2e bb d3 2d
       2.385148e-11 8.358684e-11 8.5685264e-11 2.4071047e-11
0003f0 21 c8 4d 2d a8 24 cd 2d 69 08 d4 2d 62 c0 5c 2d
       1.1697338e-11 2.332208e-11 2.4105344e-11 1.254827e-11

exp_avg f4 [1, 16, 4, 4]
000000 55 f4 72 b9 f9 70 28 b9 8d 4d 30 b9 19 f9 6d b9
       -0.00023169939 -0.00016063814 -0.00016813558 -0.00022694877
000010 20 32 23 b9 48 bf b1 b8 02 77 c0 b8 60 fb 26 b9
       -0.00015563564 -8.4756466e-05 -9.1774404e-05 -0.00015924638
000020 f0 7a 24 b9 80 6c b9 b8 4e 1d c2 b8 b0 b2 25 b9
       -0.00015686057 -8.841697e-05 -9.256099e-05 -0.00015802193
000030 48 a3 5f b9 b3 fa 21 b9 5a e9 23 b9 a8 27 68 b9
       -0.00021327764 -0.00015447549 -0.00015631822 -0.00022140017
000040 32 2c 37 36 b9 70 41 36 74 be 88 b6 ba 1d f1 35
       2.729485e-06 2.8824854e-06 -4.0752875e-06 1.7964551e-06
000050 f3 51 98 36 b7 57 89 35 f8 cd ad 35 5b 37 bb 36
       4.539493e-06 1.0232824e-06 1.2949449e-06 5.5794785e-06
000060 03 fa cd 36 6c 4f 1b b6 69 e2 9d b5 fe 77 c5 36
       6.1385813e-06 -2.314303e-06 -1.1763306e-06 5.8850264e-06
000070 27 ee f2 36 a4 7b 94 b6 6e 26 f2 b6 bf c6 79 36
       7.2398866e-06 -4.4251374e-06 -7.216636e-06 3.7219577e-06
000080 a7 ec ed b5 f2 ea ca 35 df be df b5 19 29 99 33
       -1.7726751e-06 1.5118551e-06 -1.6670346e-06 7.132093e-08
000090 95 1b 73 35 01 60 d3 b5 ad bc c9 b6 b5 44 5b 34
       9.056469e-07 -1.5748666e-06 -6.0122316e-06 2.042096e-07
0000a0 4c 75 fb 35 b7 e3 d2 b5 7f d0 ba b6 c0 03 f7 b4
       1.8735095e-06 -1.5712493e-06 -5.567504e-06 -4.6010064e-07
0000b0 57 4c 48 36 43 ae 7e 34 b5 cc b9 b6 97 4b 97 b4
       2.9846758e-06 2.371899e-07 -5.5372607e-06 -2.818094e-07
0000c0 0d 8b 9a 34 25 67 f9 b5 b5 54 b8 b4 c8 be 4b b6
       2.8785908e-07 -1.8581965e-06 -3.4334303e-07 -3.0360407e-06
0000d0 6a ff 62 33 e5 4a 08 b5 b5 17 b3 b5 c5 3e 11 b6
       5.2852023e-08 -5.0772934e-07 -1.3343439e-06 -2.164322e-06
0000e0 aa e5 18 34 b8 41 06 b5 c8 2a 0d b5 0e b2 b7 b5
       1.4239654e-07 -5.0014523e-07 -5.258885e-07 -1.3686383e-06
0000f0 24 8a 89 b3 af f1 c9 34 b4 83 b5 b4 c6 d5 f3 b5
       -6.404687e-08 3.7615015e-07 -3.3809704e-07 -1.8167127e-06
000100 b4 cf 14 b7 f7 e4 09 b7 96 94 d3 b6 60 e8 25 b7
       -8.869847e-06 -8.219146e-06 -6.3055877e-06 -9.88887e-06
000110 d8 9b b5 b6 eb 80 3c b7 e7 ab 53 b7 57 19 4f b7
       -5.412363e-06 -1.1235689e-05 -1.2616604e-05 -1.2344061e-05
000120 78 e9 43 b6 fc 12 63 b6 6c af 0b b6 bc 04 29 34
       -2.919316e-06 -3.3836686e-06 -2.0814723e-06 1.5741074e-07
000130 1e bc 43 36 91 7a d1 36 b3 07 08 37 b6 45 11 37
       2.9166763e-06 6.242954e-06 8.108024e-06 8.658904e-06
000140 8a ef a0 36 6b 66 42 36 01 3b 98 35 6b b2 95 b6
       4.7962576e-06 2.8967868e-06 1.1342055e-06 -4.4613166e-06
000150 9e a9 65 36 28 78 d6 35 00 6a ae b4 2d 18 e1 b6
       3.422239e-06 1.5979213e-06 -3.248715e-07 -6.708337e-06
000160 9f 6a b6 b3 e8 3a a2 b5 2e 04 6f b6 b7 d0 a6 b5
       -8.49443e-08 -1.2087085e-06 -3.5616208e-06 -1.2428708e-06
000170 9f 8b ad b6 f0 58 a6 b6 18 e9 e9 34 2b 13 24 37
       -5.172056e-06 -4.957539e-06 4.356923e-07 9.779625e-06
000180 4e de ab 35 be 85 83 36 8a 80 7d 36 22 28 ef 35
       1.2805192e-06 3.919674e-06 3.7774757e-06 1.7818568e-06
000190 35 6c 6f 35 61 f6 68 35 77 4a 8b 36 13 72 4a 36
       8.91919e-07 8.6785263e-07 4.1511917e-06 3.0166746e-06
0001a0 a0 87 0a b5 f3 b0 cf b4 6e 5a 65 36 27 26 91 36
       -5.1606366e-07 -3.8685502e-07 3.4176296e-06 4.3257783e-06
0001b0 fd 6d 11 b6 79 c3 32 b5 87 78 33 b6 88 07 08 36
       -2.1670705e-06 -6.659462e-07 -2.6743235e-06 2.0269963e-06
0001c0 71 00 29 33 75 09 20 36 ea 8c 88 36 25 cd a9 b5
       3.934878e-08 2.3847363e-06 4.0695204e-06 -1.2651186e-06
0001d0 41 7d 99 35 41 68 6f b5 15 54 42 36 5f 76 35 36
       1.1435842e-06 -8.918615e-07 2.8957195e-06 2.7040003e-06
0001e0 98 92 b3 b3 b8 db 6e b6 2b 18 90 36 25 31 e9 35
       -8.362002e-08 -3.5592657e-06 4.294348e-06 1.7374156e-06
0001f0 47 79 d5 b5 46 e7 59 b3 19 c6 44 b4 81 f6 1a b6
       -1.5905033e-06 -5.073459e-08 -1.832599e-07 -2.3091272e-06
000200 0a 94 1e b5 3e c3 b0 36 d8 a2 e8 36 72 0f 0e 36
       -5.907501e-07 5.267938e-06 6.9330963e-06 2.116864e-06
000210 94 96 49 35 37 3d ba 36 ad 39 6a 36 a6 aa 62 b6
       7.5097455e-07 5.5503583e-06 3.490229e-06 -3.3775955e-06
000220 80 05 eb b5 45 c4 d6 b6 ff c1 ea b6 90 31 71 b6
       -1.7510465e-06 -6.4005458e-06 -6.9963276e-06 -3.5940648e-06
000230 fa f8 18 b5 8a 62 51 b6 b0 ca 5b b5 77 ce cd 35
       -5.698672e-07 -3.1200784e-06 -8.1878807e-07 1.5333779e-06
000240 b6 b2 74 b6 e3 06 98 b6 70 9c 35 b6 7e f1 d5 35
       -3.6462857e-06 -4.5307547e-06 -2.706216e-06 1.594002e-06
000250 e0 d6 fb b4 03 60 c5 b6 99 58 08 b7 bd 64 4a b6
       -4.6908735e-07 -5.8822347e-06 -8.12686e-06 -3.0158983e-06
000260 ff 65 51 33 6b 02 fe 35 15 21 8f b6 e4 74 28 b7
       4.875437e-08 1.8925178e-06 -4.2655834e-06 -1.0040796e-05
000270 de 5a 7e b5 48 64 fc 35 de b4 46 36 21 50 76 b6
       -9.47546e-07 1.8804649e-06 2.9609578e-06 -3.6703498e-06
000280 67 7e d0 b5 a8 dd b8 35 15 5f 49 35 1a d5 33 b6
       -1.5533996e-06 1.3773579e-06 7.50167e-07 -2.679712e-06
000290 b3 d1 54 35 01 70 b2 34 b2 03 ef b5 6e 8c a1 35
       7.9281307e-07 3.3236577e-07 -1.7807963e-06 1.2036305e-06
0002a0 49 88 f1 b4 b2 f8 c5 b5 6b 41 d0 35 86 93 e0 35
       -4.498891e-07 -1.4750024e-06 1.5516247e-06 1.6732236e-06
0002b0 28 19 af b5 b1 c8 c8 35 14 a6 64 35 e7 39 1f b6
       -1.3045837e-06 1.495957e-06 8.5178294e-07 -2.372655e-06
0002c0 8d e5 00 36 f2 89 e4 35 0d 2a 45 b5 b3 78 9d b4
       1.9207102e-06 1.7027471e-06 -7.344941e-07 -2.933135e-07
0002d0 b1 9c a0 35 51 79 bf 35 fb 6e 4f 35 4c a3 d9 33
       1.1966532e-06 1.4265917e-06 7.7275007e-07 1.01345535e-07
0002e0 7a 1d 61 35 d9 61 e2 b5 fb b9 30 b5 9f 3e 14 36
       8.3861926e-07 -1.686679e-06 -6.5835746e-07 2.2090169e-06
0002f0 92 42 f2 35 12 e1 c1 b5 2c 63 3f b6 36 a9 a4 35
       1.804978e-06 -1.4445125e-06 -2.8518944e-06 1.2268199e-06
000300 4d 31 97 b6 71 91 7e b6 15 1c e9 b4 15 86 18 36
       -4.50589e-06 -3.7933607e-06 -4.3420064e-07 2.272781e-06
000310 3d 04 e6 36 91 29 b4 36 bb 4b 85 36 39 d7 3a 36
       6.8550276e-06 5.369257e-06 3.972525e-06 2.7841436e-06
000320 df 5a 2a b6 89 57 73 b6 d6 e7 ac b6 a5 a0 8c b6
       -2.5384868e-06 -3.6260774e-06 -5.1529887e-06 -4.1910266e-06
000330 8b 4a c0 35 8e 7a 8c 34 41 59 be b5 4b 49 9b b5
       1.432681e-06 2.6166202e-07 -1.418208e-06 -1.1569731e-06
000340 68 18 35 b4 47 22 72 b5 7f 26 18 b4 ac 29 7e b5
       -1.6865818e-07 -9.0201905e-07 -1.4170108e-07 -9.4683014e-07
000350 4a b8 6f 35 bd f7 6c 35 40 bb 89 b4 c3 56 2a 33
       8.9302614e-07 8.827736e-07 -2.565448e-07 3.966012e-08
000360 bf bf a6 b5 09 1f c7 33 c9 62 ac 35 23 48 95 35
       -1.2423769e-06 9.272305e-08 1.2843749e-06 1.112236e-06
000370 d1 1c 09 35 ed 65 25 34 ce bb 8f b5 aa 1b ff b4
       5.107841e-07 1.5403903e-07 -1.0708989e-06 -4.751758e-07
000380 89 90 72 b5 7a bc 86 b5 be da 6f b5 2c 5e a6 b5
       -9.036235e-07 -1.0038632e-06 -8.935275e-07 -1.2395371e-06
000390 55 a5 7e b6 94 a4 a4 b6 47 bd 73 b6 25 ac 51 b5
       -3.7945185e-06 -4.9067403e-06 -3.6319996e-06 -7.810907e-07
0003a0 2a 82 a5 b6 d9 aa 19 b6 15 1f 20 b5 f8 bc 0e b5
       -4.9325363e-06 -2.2898223e-06 -5.9649875e-07 -5.317411e-07
0003b0 45 35 19 b6 75 73 de 34 70 f9 e6 34 d0 e7 54 b5
       -2.2829784e-06 4.1434728e-07 4.3022328e-07 -7.9313486e-07
0003c0 03 49 89 35 f7 f4 0d b4 b5 b9 e4 34 5b 6f 30 b4
       1.0228545e-06 -1.3220766e-07 4.260343e-07 -1.6431788e-07
0003d0 47 f4 bb b5 08 36 3c b4 d9 90 5d 30 a3 fa 05 34
       -1.400368e-06 -1.7528521e-07 8.060517e-10 1.2477771e-07
0003e0 62 83 24 33 52 5b 7c b4 41 b0 68 35 bd 05 76 b3
       3.8303718e-08 -2.3502551e-07 8.668322e-07 -5.7281557e-08
0003f0 20 57 66 b5 df 40 a4 33 e6 6b b2 b3 53 bd b0 35
       -8.580846e-07 7.648645e-08 -8.3083975e-08 1.3168122e-06
