pre-trained/DCT8_soft-thr_L2_dct-init_0200.pt (torch_old, 151379 bytes, 9 tensors)

weight f4 [64, 1, 8, 8]
00000000: 2159 f83d c26a f83d 5474 f83d e16c f83d
00000010: 806a f83d cc6d f83d ff5f f83d a448 f83d
00000020: 376e f83d e587 f83d 6796 f83d 208e f83d
00000030: 898c f83d 3192 f83d 0d80 f83d 3760 f83d
00000040: 1278 f83d f697 f83d 8ca5 f83d 399c f83d
00000050: a09a f83d eba1 f83d 8691 f83d c96c f83d
00000060: f677 f83d 0696 f83d 5aa1 f83d 9097 f83d
00000070: 9996 f83d 599f f83d 5d91 f83d bf6d f83d
00000080: b678 f83d 6397 f83d 44a3 f83d 7c99 f83d
00000090: 6298 f83d 59a1 f83d bc93 f83d 6470 f83d
000000a0: 997a f83d a69a f83d f6a8 f83d c4a0 f83d
000000b0: 3da0 f83d b1a8 f83d 2999 f83d 7474 f83d
000000c0: 6671 f83d 938c f83d f79c f83d 4f97 f83d
000000d0: 5a97 f83d 2f9e f83d 5a8d f83d ab6e f83d
000000e0: d35d f83d 0371 f83d 8c7c f83d 0e79 f83d
000000f0: 6b79 f83d 847e f83d e071 f83d 485b f83d
00000100: 4b4c 303e 6bbe 153e 82fb c63d 28a4 0e3d
00000110: 8fac 00bd 31c3 c2bd 7f1e 14be e1e1 2ebe
00000120: cda7 313e 63ca 173e 6ffc c93d d076 103d
00000130: 6c47 03bd b037 c6bd 1153 16be 9156 30be
00000140: 39e2 313e f068 183e 8283 ca3d edec 0e3d
00000150: a7a6 05bd 9b0e c8bd 548a 17be 7120 31be
00000160: a96e 313e cf13 183e 99a4 c93d a445 0c3d
00000170: c99f 07bd d6ed c8bd e2fe 17be dd5a 31be
00000180: 0e19 313e bebd 173e 02dd c83d cfa0 0a3d
00000190: 946b 09bd 1ec1 c9bd 4b5f 18be e1bc 31be
000001a0: 4909 313e 9288 173e f026 c83d c2ca 083d
000001b0: f5ca 0bbd 4cc5 cabd d6ab 18be 6e34 32be
000001c0: 1440 303e 9a54 163e 2250 c63d 28be 063d
000001d0: c193 0cbd 9476 cabd 1920 18be 3bfc 31be
000001e0: b0b4 2e3e 08f2 133e 8ad1 c23d 5789 033d
000001f0: 0db2 0bbd bde4 c7bd b254 16be a7d2 30be
00000200: 089f 263e 2c9a 8c3d 32e8 8cbd d5fe 27be
00000210: 0afe 27be b4d4 8cbd 42b7 8c3d 4dfa 263e
00000220: 207a 273e 3c37 8e3d 9e49 8dbd 4c33 28be
00000230: 632b 28be 4831 8dbd 298a 8e3d 37c0 273e
00000240: 4c00 283e ea24 8f3d 3381 8dbd e1c9 27be
00000250: 42c6 27be a184 8dbd 0b7b 8f3d e628 283e
00000260: 2a59 283e ff96 8f3d 0c86 8dbd 5e63 27be
00000270: 236b 27be da98 8dbd 1ff6 8f3d 4565 283e
00000280: 835d 283e a5a6 8f3d 8d65 8dbd cc59 27be
00000290: 806f 27be 3dab 8dbd 3fe0 8f3d 2763 283e
000002a0: 6f25 283e e41a 8f3d 6062 8dbd a2c6 27be
000002b0: 33cf 27be f2a0 8dbd 5d58 8f3d bb0a 283e
000002c0: a5b2 273e e229 8e3d f11d 8dbd 982a 28be
000002d0: eb3e 28be 547c 8dbd 1c3c 8e3d a086 273e
000002e0: 82f7 263e 317c 8c3d 46cb 8cbd 1110 28be
000002f0: 3718 28be 0b2a 8dbd bc8b 8c3d 07a3 263e
00000300: ce13 163e 4947 11bd 260b 32be c16c c9bd
00000310: 0f19 c93d 6fd8 313e 4a81 123d e129 16be
00000320: f375 163e c5f0 10bd 044c 32be 9701 cabd
00000330: a969 c93d 8ffd 313e ded6 113d 3a93 16be
00000340: 92ac 163e 3041 10bd 8b2f 32be 8a52 cabd
00000350: a787 c93d 6adc 313e fd4b 113d a0a9 16be
00000360: 02b9 163e 3dd2 0fbd 8607 32be 216d cabd
00000370: aca6 c93d d1be 313e 6cfe 103d 8b99 16be
00000380: 29d9 163e 5ab7 0fbd c906 32be b48d cabd
00000390: 889f c93d cfbb 313e b918 113d 886b 16be
000003a0: 6fe8 163e 09bb 0fbd 7423 32be 1755 cabd
000003b0: f69b c93d 21ea 313e 0432 113d 5c54 16be
000003c0: 9ef7 163e 9201 10bd d734 32be b744 cabd
000003d0: 6a78 c93d 0c23 323e a4ff 113d 1716 16be
000003e0: 9c89 163e 5e42 10bd 09f6 31be 4bee c9bd
000003f0: 2712 c93d a3e9 313e be94 123d efb2 15be
0.12126375 0.121297374 0.12131563 0.12130142 0.12129688 0.12130317 0.12127685 0.1212323
0.12130397 0.12135295 0.12138062 0.12136483 0.1213618 0.12137259 0.12133799 0.121277265
0.121322766 0.12138359 0.121409506 0.12139172 0.121388674 0.121402584 0.121371314 0.12130124
0.12132256 0.1213799 0.1214015 0.12138283 0.12138099 0.12139768 0.12137101 0.121303074
0.12132399 0.1213825 0.121405154 0.1213865 0.1213844 0.121401496 0.12137553 0.12130812
0.12132759 0.12138872 0.12141602 0.121400386 0.12139938 0.1214155 0.12138588 0.12131587
0.12131004 0.121361874 0.12139314 0.12138235 0.12138243 0.12139546 0.12136336 0.12130483
0.121272705 0.1213093 0.121331304 0.12132464 0.12132534 0.12133506 0.12131095 0.121267855
0.17216603 0.1462342 0.0971594 0.03482452 -0.031414565 -0.09509886 -0.14464758 -0.17078353
0.17349167 0.14823298 0.09862601 0.03526956 -0.032050535 -0.0967859 -0.14680125 -0.17220522
0.17371453 0.1488378 0.098883644 0.03489392 -0.032629635 -0.09768411 -0.14798862 -0.17297532
0.1732737 0.14851306 0.09845848 0.034246102 -0.033111367 -0.098109886 -0.14843324 -0.17319818
0.17294714 0.14818475 0.09807779 0.033844765 -0.03354986 -0.09851287 -0.14880101 -0.17357208
0.17288698 0.14798191 0.09773052 0.03339649 -0.0341291 -0.09900913 -0.149093 -0.17402813
0.17211944 0.1468071 0.09683253 0.03289619 -0.034320597 -0.09885898 -0.14855994 -0.17381375
0.17061114 0.14447796 0.09512623 0.0321134 -0.03410535 -0.09760425 -0.14680746 -0.17267857
0.16271603 0.068653435 -0.06880225 -0.16405804 -0.16405502 -0.068765074 0.06870891 0.1630642
0.1635518 0.06944129 -0.06898807 -0.16425818 -0.164228 -0.06894165 0.06959946 0.16381918
0.16406363 0.06989463 -0.069094084 -0.16385604 -0.16384223 -0.069100626 0.070058905 0.16421852
0.16440263 0.07011222 -0.06910333 -0.163465 -0.16349463 -0.0691392 0.07029366 0.16444881
0.16441922 0.07014207 -0.06904135 -0.16342849 -0.16351128 -0.06917427 0.070251934 0.16444074
0.1642053 0.06987551 -0.06903529 -0.16384366 -0.16387634 -0.069154635 0.06999276 0.16410343
0.16376741 0.06941582 -0.068904765 -0.16422498 -0.16430251 -0.06908479 0.06945059 0.16359949
0.16305354 0.06859625 -0.06874709 -0.16412379 -0.16415487 -0.06892785 0.0686259 0.16273127
0.14655992 -0.035468373 -0.17387065 -0.09835196 0.09819233 0.17367719 0.03576783 -0.14664413
0.14693432 -0.035385866 -0.1741181 -0.098635845 0.09834606 0.17381881 0.035605304 -0.147046
0.14714268 -0.035218418 -0.17400949 -0.09879024 0.09840327 0.17369238 0.03547286 -0.14713144
0.14719012 -0.03511261 -0.17385682 -0.09884096 0.09846243 0.17357947 0.035398886 -0.1470701
0.14731278 -0.035086967 -0.17385401 -0.09890309 0.09844881 0.173568 0.035423968 -0.14689457
0.14737104 -0.03509048 -0.17396337 -0.09879511 0.098442 0.1737447 0.03544809 -0.14680618
0.14742896 -0.035157748 -0.1740297 -0.098763876 0.0983742 0.17396182 0.03564419 -0.14656864
0.14700931 -0.035219543 -0.17379011 -0.09859904 0.098179154 0.17374282 0.035786383 -0.14619039

weight f4 [1, 64, 8, 8]
00000000: 7c32 fb3a 071a 003b f285 013b a183 003b
00000010: 7939 003b 71b5 003b 6e9a fd3a c14d f73a
00000020: 2479 003b 5f24 043b 8f3c 063b 7d16 053b
00000030: eee3 043b edb4 053b fa2a 033b 9297 fd3a
00000040: a1e6 013b 8b70 063b 7661 083b 4c0f 073b
00000050: 11d8 063b 70e2 073b 4d99 053b 4087 003b
00000060: 5ce9 013b 4d31 063b 75cf 073b 5565 063b
00000070: e844 063b c282 073b 708c 053b b0a2 003b
00000080: 6803 023b 4a5f 063b 2d0e 083b d9a1 063b
00000090: ab79 063b a7bd 073b 06d4 053b d1f1 003b
000000a0: 4847 023b 72d5 063b 9ad9 083b 4da1 073b
000000b0: 688d 073b ecbd 083b 8f8b 063b f876 013b
000000c0: 48f4 003b 30d2 043b cb24 073b 8945 063b
000000d0: f942 063b d73d 073b fcd7 043b c69e 003b
000000e0: b79b fc3a f9f9 003b d5a0 023b 0711 023b
000000f0: 4e1b 023b dad3 023b 740a 013b d3fc fb3a
00000100: e413 3ebb 98dc ccba 02b3 da38 1cf4 8f39
00000110: 4a01 6fba 7e86 d0b8 0792 ab3a 9127 3a3b
00000120: 872a 52bb 6801 91bb 6e4f 17bb ecef e6b9
00000130: 26dd 3a39 abef 213b 81ee 8e3b 93af 423b
00000140: ee95 44bb edb1 a4bb 29ef 1bbb b189 5cb9
00000150: 5514 8438 2571 253b 265a ae3b 2630 443b
00000160: 3584 e0ba 4f1f 8ebb 4fce e3ba d8a9 4e39
00000170: ed25 1db9 19cd db3a 9689 903b 9fcd ce3a
00000180: 21fd f6ba df80 91bb cd27 ecba 5273 4a39
00000190: a009 dcb8 b613 dd3a 6b61 8e3b b225 d53a
000001a0: 8ce2 4abb 3eaa aabb 7472 25bb 65e0 e0b7
000001b0: 7ad4 fd39 0e5c 2b3b 631d ae3b 6fdb 453b
000001c0: fcae 4cbb 691b 91bb 577d 25bb 77f8 abb9
000001d0: 407d f539 0c8c 1d3b 4591 923b 2f94 503b
000001e0: be57 48bb 41c2 c9ba 1230 37b7 98b6 693a
000001f0: 9aa5 a2b9 7f1c 15b9 5fea af3a e979 453b
00000200: a0ec f43a 3c82 033a df4a 69ba 38b7 8dbb
00000210: 5f1c 8cbb ea16 9fba 73cb 4f3a aa98 293b
00000220: 2c9c 633b d3ef 1f3b 3cc5 08bb 6628 62bb
00000230: 7296 57bb 9dd8 ebba 600c 3f3b 370f 813b
00000240: 00a1 833b c244 513b 9dc4 3cbb 107c c0ba
00000250: 255d bcba f4e4 30bb 552f 5b3b c4b2 913b
00000260: f4e0 903b a09f 773b 3b1a 4abb bb2c 053a
00000270: d321 253a acba 35bb 2947 7c3b 4174 943b
00000280: c29e 8a3b fd99 733b ad13 49bb 1eb7 143a
00000290: 3839 0d3a 473d 45bb 448c 743b 434b 923b
000002a0: 5204 803b 2073 433b 96b9 3ebb 3ab0 b0ba
000002b0: e956 c3ba cff9 38bb 893c 5e3b bfba 8c3b
000002c0: 6b1b 5f3b fe20 283b 071c edba 839c 4fbb
000002d0: b344 63bb 5d81 08bb 74b6 283b 5eec 6b3b
000002e0: 7c7f 0d3b 4f08 3a3a 2bf4 8cba 70e9 8bbb
000002f0: 7fd0 91bb e41e a1ba 0160 0c3a 2424 ed3a
00000300: 511c 71bb 1d64 693a 0ee9 ac3b feeb ce3a
00000310: c079 a7ba d3d4 bbbb 20f5 b6ba 9274 573b
00000320: 4821 8fbb 79fa a4b8 77e3 933b b931 f33a
00000330: da01 03bb 6c3a 8dbb 9a67 4839 3606 8e3b
00000340: 2f1d a8bb 0265 86ba dae7 573b 3382 163b
00000350: 3f35 33bb ff7a 55bb 5451 903a 9575 a73b
00000360: 2563 a1bb b5a8 78ba e214 f23a ada3 193b
00000370: ff85 2ebb 601a f7ba 2207 c13a 9ec4 ae3b
00000380: fa70 a8bb a36c 85ba 3c9e fd3a a650 383b
00000390: 48ba 1abb 584f 07bb 3e80 773a 737e a83b
000003a0: 8a43 a6bb 5ad0 6bba 477f 503b 91e8 273b
000003b0: 694d 17bb 473f 60bb 8852 353a 0e68 af3b
000003c0: 155d 8fbb 4d13 4b38 6bee 8e3b 48f5 ed3a
000003d0: 6de0 e4ba 1347 9dbb d0d6 87b9 a4b9 963b
000003e0: 4adc 5bbb c7db 083b 4c54 ba3b 62cb 863a
000003f0: 9997 c9ba a124 c1bb af4f 8eba 06fc 763b
0.0019164826 0.0019546764 0.0019763676 0.0019609707 0.0019565506 0.0019639398 0.0019348392 0.0018867777
0.0019603455 0.002016328 0.0020482873 0.0020307594 0.0020277458 0.002040203 0.002001463 0.001934754
0.0019821303 0.0020513858 0.0020810044 0.0020608483 0.0020575563 0.0020734333 0.0020385564 0.0019611865
0.001982293 0.0020476163 0.002072302 0.0020507176 0.0020487849 0.0020677303 0.0020377897 0.001962822
0.0019838456 0.0020503574 0.0020760403 0.0020543246 0.0020519297 0.0020712407 0.0020420565 0.0019675384
0.0019878913 0.0020574 0.0020881654 0.0020695508 0.002068365 0.0020865155 0.002052996 0.0019754749
0.0019676853 0.0020266883 0.0020621296 0.0020488224 0.0020486696 0.0020636225 0.0020270338 0.0019625886
0.0019272481 0.0019680245 0.001993229 0.0019846575 0.00198527 0.00199627 0.0019690068 0.0019225128
-0.0029003555 -0.0015629707 0.00010428393 0.0002745696 -0.00091173186 -9.943264e-05 0.0013089784 0.002840493
-0.0032068805 -0.0044252165 -0.0023088115 -0.00044047774 0.00017820726 0.0024709504 0.004361928 0.0029706701
-0.0029996592 -0.005026093 -0.0023793674 -0.00021032129 6.2980376e-05 0.0025244441 0.005320805 0.0029935925
-0.0017129245 -0.0043372284 -0.001738021 0.00019708963 -0.00014986815 0.0016769498 0.004410933 0.0015777833
-0.0018843749 -0.0044404115 -0.0018017233 0.00019307181 -0.0001049221 0.0016866836 0.004345109 0.0016261844
-0.0030957786 -0.0052082827 -0.0025245221 -2.6807373e-05 0.00048414228 0.0026147398 0.0053135618 0.0030190607
-0.0031232229 -0.0044283164 -0.002525171 -0.00032800782 0.0004682336 0.0024039773 0.004472884 0.0031826606
-0.0030569877 -0.0015392975 -1.0918842e-05 0.0008915453 -0.0003102243 -0.00014220363 0.0013421288 0.0030132479
0.0018686242 0.000501666 -0.00088994013 -0.00432482 -0.004275843 -0.0012137566 0.00079267396 0.0025878348
0.0034730537 0.002440442 -0.0020869514 -0.0034508943 -0.003289607 -0.0017993633 0.0029151663 0.0039385813
0.0040169954 0.0031931852 -0.0028803714 -0.0014685411 -0.0014371021 -0.0026991935 0.003344496 0.0044463594
0.0044213478 0.0037784353 -0.0030838388 0.0005080213 0.00062992907 -0.0027729673 0.0038494563 0.00453046
0.004230351 0.0037170642 -0.0030681894 0.00056730385 0.00053872494 -0.0030096339 0.003731505 0.0044645383
0.003906765 0.0029823259 -0.0029102317 -0.0013480254 -0.001490322 -0.002822507 0.0033910593 0.004294723
0.0034043442 0.002565443 -0.0018090018 -0.0031678982 -0.00346784 -0.002082906 0.0025743516 0.003599904
0.002159088 0.0007096575 -0.001075392 -0.0042697713 -0.0044499035 -0.0012292531 0.0005354882 0.0018092436
-0.003679056 0.00089031627 0.0052768057 0.0015786884 -0.0012777373 -0.0057321577 -0.0013958551 0.0032875878
-0.004367981 -7.8667836e-05 0.0045132 0.0018554247 -0.0019990117 -0.004309943 0.00019112081 0.0043342365
-0.005130432 -0.0010253491 0.003294459 0.0022965788 -0.002734497 -0.0032574532 0.0011010566 0.0051104524
-0.004925149 -0.00094855885 0.0018469358 0.0023443506 -0.002663016 -0.0018852465 0.0014726857 0.005333497
-0.005140421 -0.0010179471 0.0019349526 0.0028124242 -0.0023609567 -0.0020646658 0.0009441412 0.005142027
-0.0050739693 -0.00089955854 0.0031814144 0.0025620798 -0.0023086912 -0.0034217404 0.00069169 0.0053529805
-0.00437511 4.8416947e-05 0.0043619177 0.0018154765 -0.0017461904 -0.0047997325 -0.00025909254 0.004599767
-0.003354805 0.002088295 0.0056863185 0.0010284001 -0.0015380263 -0.005894259 -0.0010857488 0.0037686839

thr f4 [1, 64, 1, 1]
00000000: ccee 4e3b 56ba 163e 2313 323e ba39 473e
00000010: 1c0c 473e 0942 4d3e 698a 443e a8eb 413e
00000020: b27e 0e3e 33bc 363e df27 3e3e 2e4a 5b3e
00000030: 959e 473e 6494 4f3e 8dc6 603e 24ce 403e
00000040: ceaa 2a3e f5c7 453e 19b3 4a3e 667f 493e
00000050: f0d9 463e e27a 463e 8242 443e 9864 3d3e
00000060: e41a 3b3e c0c6 513e 9fcb 4b3e 4aac 493e
00000070: 01cd 473e 0273 463e cf34 3f3e e3a2 463e
00000080: 4f7a 5e3e 27dc 473e 1ff9 473e 6903 513e
00000090: 8c60 473e 1bc1 653e 583e 3a3e 9568 3c3e
000000a0: c9ab 583e 54c1 493e 5a39 4f3e b6df 443e
000000b0: 94ac 3f3e 845b 403e 34ea 3e3e 0ab4 3e3e
000000c0: d019 4b3e 95a7 5d3e 6e21 4b3e c86d 403e
000000d0: edd0 3a3e 11b8 3a3e 5217 403e e33c 403e
000000e0: d828 713e da97 5e3e 1599 413e a37d 3f3e
000000f0: 888d 3b3e fdfe 443e 62cf 3e3e 297d 3c3e
0.003157544 0.14719519 0.17390113 0.19455615 0.19438213 0.20044722 0.19193424 0.18937552
0.13915518 0.1784523 0.18569897 0.21415016 0.19494088 0.2027145 0.21950741 0.18828636
0.1666672 0.19314559 0.19794883 0.19677505 0.19419074 0.19382814 0.19165996 0.18495405
0.18271977 0.20485973 0.19901894 0.1969463 0.19511797 0.1937981 0.18672489 0.19398074
0.21726345 0.19517575 0.19528626 0.20411457 0.19470423 0.22436945 0.18187845 0.1839927
0.21159281 0.19702655 0.20236722 0.19225964 0.18718177 0.1878491 0.18644029 0.18623367
0.19834065 0.21645959 0.19836971 0.18791878 0.18243761 0.18234278 0.18758896 0.18773226
0.23550737 0.21737614 0.18906052 0.1870027 0.18315709 0.19237895 0.18633798 0.1840712

exp_avg_sq f4 [1, 64, 1, 1]
00000000: c963 0d37 5a36 9732 75af 8f32 a1ea da32
00000010: eb96 0034 7547 5534 c4c4 a134 2485 8834
00000020: b711 8f32 1a53 4432 36af 3434 ddb4 8d32
00000030: 9a89 3534 8331 8f33 95d3 7732 d30e 2334
00000040: c0e4 2c32 3208 bc32 0b92 2b33 1ddb ea33
00000050: 9d48 4534 308d 2f34 4c68 0134 09b1 3b34
00000060: 2640 fd32 a924 0233 f918 b933 a183 2834
00000070: cc71 1b34 13a8 0e34 cbe5 2e34 81ab 1232
00000080: be1d df30 8387 4234 aedf 2d34 8c9f 4033
00000090: fbd9 1234 b818 6a31 3923 7234 3853 c033
000000a0: ff4d 1433 f071 2a34 719a 7d33 fe0e dc33
000000b0: 5402 3534 377e 1034 80c7 8533 93ff 7133
000000c0: 3066 2134 87c3 a232 2085 1f33 281a 2f34
000000d0: dd0a 7134 5d6a 6134 b0f8 ba32 df8a e632
000000e0: 6a9d 9131 b069 ee31 72be 1734 59ad 2c34
000000f0: 089b 1834 3f3a f831 2547 3633 a379 c933
8.427488e-06 1.760343e-08 1.672718e-08 2.5485237e-08 1.1975833e-07 1.9863167e-07 3.0131753e-07 2.5428847e-07
1.6655447e-08 1.1427597e-08 1.6827548e-07 1.6496807e-08 1.6906998e-07 6.6679625e-08 1.44254e-08 1.5185951e-07
1.0063729e-08 2.1889807e-08 3.9946865e-08 1.09363306e-07 1.8373471e-07 1.6349509e-07 1.2052004e-07 1.7480137e-07
2.9482248e-08 3.0301326e-08 8.619276e-08 1.5694106e-07 1.4476899e-07 1.3285926e-07 1.6288611e-07 8.537314e-09
1.6233839e-09 1.8116957e-07 1.6193255e-07 4.484859e-08 1.367661e-07 3.4065533e-09 2.255082e-07 8.955834e-08
3.4529872e-08 1.5873934e-07 5.9046616e-08 1.02472754e-07 1.6857786e-07 1.3456962e-07 6.229584e-08 5.634463e-08
1.5031469e-07 1.8948198e-08 3.714115e-08 1.630766e-07 2.2448826e-07 2.0993453e-07 2.176634e-08 2.6838675e-08
4.2379513e-09 6.938727e-09 1.4132254e-07 1.6081812e-07 1.4212503e-07 7.2243718e-09 4.2439883e-08 9.3819175e-08

exp_avg f4 [1, 64, 1, 1]
00000000: deea 7537 f316 0f37 663f e3b6 a9c4 21b7
00000010: 540b b8b7 16fc 3ab8 c44c 08b8 122b edb7
00000020: 092d 1637 674e 0c37 0b0a abb5 c34b 06b7
00000030: 7a14 c9b7 8a96 f1b7 20e3 93b7 33bd 08b7
00000040: d26c 3b35 3f76 d234 6a43 0bb7 36f6 ceb7
00000050: 7b0c e4b7 edd9 d6b7 c0a6 11b7 600e 84b6
00000060: a9ab 68b5 2fa2 85b7 8df7 bdb7 80cc feb7
00000070: 8c79 cfb7 1ff0 84b7 4bcc 94b6 32ed c5b5
00000080: 9cad 3fb5 c07c eeb7 93c4 ebb7 8408 c8b7
00000090: 1071 a1b7 265d 71b7 1d99 4033 3594 bfb4
000000a0: de61 c5b7 fd02 0fb8 4389 05b8 5870 a4b7
000000b0: 0e0a 0bb7 49c2 7cb6 62f1 2eb5 2ee3 53b4
000000c0: fdce bfb7 da24 c1b7 c6ae 69b7 eff5 0db7
000000d0: 0b9b d1b5 64fa 8233 ad0b 5f34 bab0 b633
000000e0: 21f2 5eb7 bf40 29b7 584b cdb6 becc 58b6
000000f0: 2221 93b5 9ad5 9fb4 cbbb 3533 7e76 6fb3
1.4657822e-05 8.5288075e-06 -6.7725077e-06 -9.642136e-06 -2.1939784e-05 -4.458063e-05 -3.249642e-05 -2.8272658e-05
8.951182e-06 8.362905e-06 -1.2743416e-06 -8.004662e-06 -2.3970602e-05 -2.8799539e-05 -1.7629529e-05 -8.150283e-06
6.9821283e-07 3.9201583e-07 -8.300742e-06 -2.4671765e-05 -2.718553e-05 -2.5612268e-05 -8.681498e-06 -3.93558e-06
-8.6676533e-07 -1.5930358e-05 -2.264583e-05 -3.0374387e-05 -2.4732923e-05 -1.5847441e-05 -4.4345265e-06 -1.4746677e-06
-7.140568e-07 -2.8429902e-05 -2.810572e-05 -2.3845823e-05 -1.9245344e-05 -1.4386407e-05 4.484274e-08 -3.5684357e-07
-2.3529803e-05 -3.409664e-05 -3.1837506e-05 -1.9602638e-05 -8.287387e-06 -3.7664015e-06 -6.517131e-07 -1.9733554e-07
-2.286536e-05 -2.3024553e-05 -1.3928575e-05 -8.461516e-06 -1.5616837e-06 6.0991425e-08 2.0772741e-07 8.507182e-08
-1.3288606e-05 -1.008826e-05 -6.1182473e-06 -3.2305684e-06 -1.0961996e-06 -2.9771473e-07 4.2313143e-08 -5.5754292e-08

exp_avg_sq f4 [64, 1, 8, 8]
00000000: 062e 2936 75ed 2936 6071 2a36 76b4 2a36
00000010: 20b9 2a36 377e 2a36 c401 2a36 684c 2936
00000020: ffd7 2936 e1a2 2a36 6c2e 2b36 cb76 2b36
00000030: 057d 2b36 863f 2b36 bbbc 2a36 a0fd 2936
00000040: a84c 2a36 141f 2b36 feaf 2b36 42fc 2b36
00000050: 2803 2c36 55c3 2b36 ae3b 2b36 9375 2a36
00000060: a683 2a36 635b 2b36 2cf0 2b36 813e 2c36
00000070: 9345 2c36 1105 2c36 167b 2b36 5ab1 2a36
00000080: f074 2a36 4e4d 2b36 2ae2 2b36 0f31 2c36
00000090: f038 2c36 24f9 2b36 586f 2b36 10a6 2a36
000000a0: 481d 2a36 34f2 2a36 2884 2b36 12d2 2b36
000000b0: 62da 2b36 049c 2b36 c515 2b36 7d51 2a36
000000c0: 1483 2936 9051 2a36 d7de 2a36 562a 2b36
000000d0: 5f33 2b36 58f8 2a36 6777 2a36 afba 2936
000000e0: 58a8 2836 306d 2936 72f4 2936 503d 2a36
000000f0: fc47 2a36 2a12 2a36 5e99 2936 c2e8 2836
00000100: 663c ee31 126b ee31 6128 ee31 7de9 ee31
00000110: ac96 f231 c0d6 f931 7251 0132 dd1b 0532
00000120: 38fb ee31 0481 ef31 374a ef31 2071 f031
00000130: d37a f431 8b8c fc31 a6f7 0232 29e6 0632
00000140: 6d4f ef31 a2c3 ef31 43d6 ef31 f390 f131
00000150: 6e17 f631 6983 fe31 9018 0432 45ee 0732
00000160: 72a4 ee31 3459 ef31 58a7 ef31 c0c8 f131
00000170: 96c1 f631 e05c ff31 7565 0432 c40e 0832
00000180: e631 ed31 3b25 ee31 e6bf ee31 e86a f131
00000190: 9bb7 f631 fc70 ff31 be38 0432 ef97 0732
000001a0: 961f eb31 7f5f ec31 0b86 ed31 9d7e f031
000001b0: 3323 f631 cf9b fe31 5e87 0332 3f84 0632
000001c0: b73b e931 a7af ea31 c438 ec31 7682 ef31
000001d0: 9f35 f531 a02d fd31 cb61 0232 d0e8 0432
000001e0: 66ff e631 9be0 e831 dbb3 ea31 7b2c ee31
000001f0: 1789 f331 d66b fa31 e771 0032 b98d 0232
00000200: f31c c932 4568 c532 a9c2 c032 d8e1 bd32
00000210: 5594 bd32 7da6 bf32 6744 c432 fd1e c832
00000220: 3fc7 ca32 bfc8 c632 5ed0 c132 acc8 be32
00000230: 0a72 be32 51a1 c032 ea9e c532 4fb4 c932
00000240: 25fd cb32 501d c832 9303 c332 fec9 bf32
00000250: fb76 bf32 02ac c132 bb8b c632 8649 ca32
00000260: afff cc32 e00f c932 f0e5 c332 619c c032
00000270: 752c c032 d381 c232 8926 c732 14c2 ca32
00000280: ac01 ce32 d3c8 c932 8777 c432 880f c132
00000290: fcbb c032 f51d c332 13bf c732 0727 cb32
000002a0: cf83 ce32 315d ca32 1cd9 c432 476f c132
000002b0: 0322 c132 52a8 c332 c428 c832 dc60 cb32
000002c0: 39b1 ce32 08a7 ca32 8b03 c532 ce69 c132
000002d0: e437 c132 8fae c332 7216 c832 8e24 cb32
000002e0: 48e4 cd32 1c4b ca32 34f6 c432 9597 c132
000002f0: a41f c132 6153 c332 8b9f c732 d053 ca32
00000300: 5523 1d33 bb18 1833 169a 1433 6851 1733
00000310: fd81 1d33 0cd5 1e33 5025 1933 6b8f 1133
00000320: 274c 1e33 8cf0 1833 5468 1533 547a 1833
00000330: 8a31 1f33 f594 2033 43b2 1a33 71c1 1233
00000340: bb04 1f33 f3c0 1933 1d3c 1633 ef72 1933
00000350: a55e 2033 e1d3 2133 48de 1b33 26db 1333
00000360: 653b 1f33 3343 1a33 d0c4 1633 42e8 1933
00000370: 36f6 2033 8f74 2233 09a3 1c33 6391 1433
00000380: c063 1f33 676f 1a33 dfba 1633 9a17 1a33
00000390: 8403 2133 4cd7 2233 7d1e 1d33 cf00 1533
000003a0: bfed 1e33 c3ec 1933 7a53 1633 7bb7 1933
000003b0: e3b4 2033 30b9 2233 b6ff 1c33 e605 1533
000003c0: e10d 1e33 b021 1933 0388 1533 4dcf 1833
000003d0: 0db7 1f33 d6e6 2133 1b47 1c33 9588 1433
000003e0: ace0 1c33 da34 1833 83bb 1433 a78b 1733
000003f0: 9573 1e33 e67b 2033 e6fd 1a33 0ad2 1333
2.5209752e-06 2.532118e-06 2.5397967e-06 2.5437016e-06 2.543973e-06 2.540544e-06 2.5333002e-06 2.5227437e-06
2.5308689e-06 2.5426782e-06 2.5508007e-06 2.5550132e-06 2.5553757e-06 2.5517961e-06 2.544183e-06 2.5330592e-06
2.5376594e-06 2.5499075e-06 2.5583427e-06 2.562782e-06 2.5631834e-06 2.5594684e-06 2.5515724e-06 2.5400411e-06
2.5408604e-06 2.553418e-06 2.5620784e-06 2.566638e-06 2.5670495e-06 2.5632946e-06 2.555263e-06 2.5435206e-06
2.540004e-06 2.5525983e-06 2.561263e-06 2.5658553e-06 2.566314e-06 2.5626005e-06 2.5545796e-06 2.5428635e-06
2.5349018e-06 2.5472955e-06 2.555791e-06 2.5603263e-06 2.5608101e-06 2.5571799e-06 2.5493657e-06 2.5379406e-06
2.525926e-06 2.537945e-06 2.5461684e-06 2.5505628e-06 2.5510888e-06 2.547653e-06 2.5401475e-06 2.5291627e-06
2.513194e-06 2.5246518e-06 2.5325248e-06 2.5367663e-06 2.5373874e-06 2.5342547e-06 2.5272234e-06 2.5169434e-06
6.933578e-09 6.938884e-09 6.931302e-09 6.953256e-09 7.0602564e-09 7.271268e-09 7.527307e-09 7.747954e-09
6.955272e-09 6.970483e-09 6.9642527e-09 6.99778e-09 7.115298e-09 7.350143e-09 7.623305e-09 7.852159e-09
6.964845e-09 6.9780564e-09 6.980174e-09 7.030502e-09 7.162206e-09 7.4073125e-09 7.688996e-09 7.91221e-09
6.945407e-09 6.9659567e-09 6.9748403e-09 7.0368458e-09 7.1815505e-09 7.4320354e-09 7.70648e-09 7.919599e-09
6.9032806e-09 6.9309443e-09 6.948528e-09 7.026177e-09 7.180416e-09 7.4343216e-09 7.696313e-09 7.89258e-09
6.842991e-09 6.8793606e-09 6.9128467e-09 6.9993136e-09 7.163544e-09 7.4100863e-09 7.6559825e-09 7.829896e-09
6.7879813e-09 6.8302657e-09 6.8749575e-09 6.970647e-09 7.1365345e-09 7.368456e-09 7.5892315e-09 7.736347e-09
6.7229164e-09 6.7776234e-09 6.8307435e-09 6.9317685e-09 7.087816e-09 7.288217e-09 7.476479e-09 7.59922e-09
2.3412644e-08 2.2981235e-08 2.2440263e-08 2.2105198e-08 2.206995e-08 2.2311037e-08 2.2848509e-08 2.3297156e-08
2.3606502e-08 2.3141522e-08 2.2562912e-08 2.2210166e-08 2.217077e-08 2.24251e-08 2.3006084e-08 2.3481475e-08
2.3747427e-08 2.3296394e-08 2.2702613e-08 2.2327182e-08 2.2289433e-08 2.2546377e-08 2.3113776e-08 2.354933e-08
2.3864997e-08 2.3406699e-08 2.2805551e-08 2.2422855e-08 2.2371959e-08 2.264361e-08 2.3184173e-08 2.3604152e-08
2.3982317e-08 2.3490804e-08 2.2871758e-08 2.247522e-08 2.2437227e-08 2.271461e-08 2.325354e-08 2.3650058e-08
2.4041496e-08 2.3558274e-08 2.2916133e-08 2.251876e-08 2.2483624e-08 2.2777531e-08 2.3301602e-08 2.3676357e-08
2.4062148e-08 2.3591852e-08 2.293543e-08 2.2516272e-08 2.2493573e-08 2.2780368e-08 2.3293271e-08 2.3648933e-08
2.3968951e-08 2.355005e-08 2.2929363e-08 2.2537089e-08 2.2482546e-08 2.2738904e-08 2.32392e-08 2.3554009e-08
3.6586545e-08 3.541275e-08 3.4599076e-08 3.5231466e-08 3.6672635e-08 3.6981007e-08 3.5657024e-08 3.389088e-08
3.6856502e-08 3.5609034e-08 3.4786652e-08 3.5501515e-08 3.7065128e-08 3.738838e-08 3.6018047e-08 3.4169208e-08
3.7024375e-08 3.5798575e-08 3.497927e-08 3.572762e-08 3.733898e-08 3.7678436e-08 3.6290913e-08 3.442542e-08
3.707409e-08 3.5917036e-08 3.5103596e-08 3.5834326e-08 3.747683e-08 3.7824574e-08 3.646986e-08 3.4591164e-08
3.7110794e-08 3.595724e-08 3.5094555e-08 3.5877385e-08 3.748893e-08 3.7914376e-08 3.658214e-08 3.46925e-08
3.700347e-08 3.5838422e-08 3.5000518e-08 3.5789963e-08 3.741742e-08 3.788699e-08 3.6554148e-08 3.469713e-08
3.6799864e-08 3.5653727e-08 3.4815468e-08 3.5578797e-08 3.7186556e-08 3.7695678e-08 3.638625e-08 3.4583156e-08
3.652592e-08 3.5438326e-08 3.4629476e-08 3.528444e-08 3.6892363e-08 3.7365588e-08 3.608684e-08 3.4417134e-08

exp_avg f4 [64, 1, 8, 8]
00000000: 825a 2e36 cbf1 2e36 d086 4336 c6e7 6236
00000010: 28b0 7736 6217 8236 bd94 8d36 5595 9936
00000020: f4d1 0e36 6322 0836 5250 1436 7da6 3336
00000030: 4b70 4a36 164f 5936 89f6 7936 c476 9136
00000040: 1323 0336 f41e e535 bc3b f735 934e 1a36
00000050: 5e8b 3036 b965 4036 c435 6436 4dcb 8c36
00000060: bb74 0936 475d e735 3639 fa35 814d 1e36
00000070: 7722 3636 d620 4836 213a 6b36 dedb 8f36
00000080: 2c24 1b36 c8c0 0036 5bd1 0936 fcf6 2a36
00000090: 00f4 3d36 54df 4e36 37af 7036 4977 9236
000000a0: 13a2 3336 c788 1336 d3d3 1836 9c99 3736
000000b0: 1533 4936 2dee 5b36 18c6 7e36 35b1 9936
000000c0: e444 6236 a8e9 4536 38c2 4136 37c1 5336
000000d0: 3407 5e36 94fe 7036 b257 8c36 d10b a336
000000e0: 6cd0 8636 2a54 7a36 2fd4 7336 72af 7736
000000f0: c63b 7c36 4fce 8736 2991 9836 6d9a aa36
00000100: 6218 52b5 81a0 39b5 1fd9 8833 143f 1cb5
00000110: cef6 2bb6 4fa6 6eb6 8e2a 50b6 98e4 49b6
00000120: b8bb 04b6 8b6b 0bb6 c6ca 59b5 1880 12b5
00000130: ecf7 f5b5 ce50 12b6 6960 c5b5 8dab 04b6
00000140: d8c1 3ab6 5ad1 43b6 2236 a4b5 6c6d 0db5
00000150: f4a6 b5b5 6788 aeb5 f6a2 0cb5 1f33 c6b5
00000160: 6b36 3eb6 c5b3 53b6 4339 adb5 b46d b2b4
00000170: d445 82b5 7542 9fb5 eb1c fbb4 bc9a c9b5
00000180: e66d 43b6 4a16 53b6 6fe0 9eb5 15ef 90b4
00000190: 25d7 80b5 60c1 a4b5 a6c5 06b5 f0b8 ceb5
000001a0: 87e9 58b6 6b4a 63b6 96ee b3b5 5fe2 9db4
000001b0: a32f 80b5 5286 9bb5 2e04 0bb5 ed1f ceb5
000001c0: 131e 4ab6 aff3 51b6 0e2b b0b5 11d3 f5b4
000001d0: 6a6f a0b5 5fe3 ccb5 cb24 95b5 b471 08b6
000001e0: 1b04 09b6 7d77 eeb5 5d0a 32b5 0d12 17b5
000001f0: 856f eab5 1e2f 2db6 8edb 26b6 9578 3cb6
00000200: 9a14 8536 5ac6 4736 bf5c fc35 ac2b 8b35
00000210: e1ca 4a35 79f4 de35 a0be 2a36 4e3d 6736
00000220: e45f 5536 5709 1d36 a276 2736 7a47 a235
00000230: e562 2935 e657 eb35 e844 e735 f6c0 2c36
00000240: c604 2036 ce7d 0136 e666 4936 0484 3a35
00000250: 3ae3 a933 3e08 0a36 80b6 9f35 f99e 0136
00000260: 05ae 1136 f13c ef35 2646 4e36 b077 1534
00000270: 0194 97b4 ec5d 1536 6609 7035 01de e035
00000280: 5219 1136 7c31 d135 54be 4836 b76b bd33
00000290: 1d1a 4bb4 1a83 1036 9a4e 4035 a6fa ea35
000002a0: 511c 1636 68a7 e335 8d3c 3c36 8d0c 6035
000002b0: 3f2e 0b35 944e 1636 483b 6f35 8975 0636
000002c0: 8cdf 3f36 8cc5 1836 3cd2 3436 de97 cb35
000002d0: d823 9435 14fc 0736 fa3d e635 c28d 3136
000002e0: 4f51 7936 4f06 5936 38fb 2536 f120 bc35
000002f0: dde7 8335 2907 f435 6465 3e36 521b 6c36
00000300: f74d 8c35 4891 c134 5b48 59b4 9944 9eb5
00000310: a872 2235 cfc1 aeb4 8ceb 9cb5 5cdf 00b6
00000320: 3807 4f35 4ab0 e234 4d83 bbb3 4b44 8eb5
00000330: 6dde b034 5116 0cb5 f010 3db5 5df8 d5b5
00000340: e84f 5235 a3ca 8634 ac8f aeb4 73c6 56b5
00000350: 555e 5334 d31d 28b4 e78a 08b5 d04d c6b5
00000360: 3d06 6635 5bea a7b0 7900 42b5 6c83 1db5
00000370: 90dc 9f34 eedf 8e34 6b80 abb4 4ddb a4b5
00000380: ef3f 2535 cb01 18b3 ea98 42b5 4168 b4b4
00000390: 8f16 7934 5ad6 b034 8ec6 cab4 b888 8ab5
000003a0: dbbd 1f35 aad9 2d2f 1fc1 97b4 1e26 f8b4
000003b0: 6737 7534 f705 04b4 d169 f7b4 a5af b5b5
000003c0: caf2 6935 c180 3334 3ef1 21b3 e6e3 5db5
000003d0: 402f d734 1a39 d1b4 dd40 69b5 9672 ebb5
000003e0: a7fe b935 ff87 fe34 b1b1 eeb4 3932 a7b5
000003f0: 83e6 7035 fd7a cfb3 115d a2b5 483a 13b6
2.5980703e-06 2.6068763e-06 2.9135736e-06 3.3811534e-06 3.6908405e-06 3.877024e-06 4.219443e-06 4.57714e-06
2.1281858e-06 2.0285595e-06 2.2100471e-06 2.6769987e-06 3.0165709e-06 3.2381554e-06 3.7247394e-06 4.335163e-06
1.9540937e-06 1.7070838e-06 1.8420319e-06 2.2993524e-06 2.6307166e-06 2.866944e-06 3.4005943e-06 4.1959925e-06
2.0482537e-06 1.7237988e-06 1.8643102e-06 2.3588948e-06 2.7140175e-06 2.9821435e-06 3.5051564e-06 4.287328e-06
2.3117855e-06 1.91857e-06 2.0536452e-06 2.5475738e-06 2.8305221e-06 3.0826386e-06 3.5864775e-06 4.3650257e-06
2.6767418e-06 2.1984322e-06 2.2773063e-06 2.7358537e-06 2.9981068e-06 3.277218e-06 3.7964255e-06 4.580385e-06
3.3716724e-06 2.9491293e-06 2.8872291e-06 3.1553916e-06 3.308477e-06 3.591097e-06 4.182534e-06 4.859154e-06
4.0177747e-06 3.7301893e-06 3.6333329e-06 3.690799e-06 3.758572e-06 4.047331e-06 4.546852e-06 5.0843723e-06
-7.826658e-07 -6.9151434e-07 6.3724876e-08 -5.820632e-07 -2.5624645e-06 -3.5561568e-06 -3.1019185e-06 -3.0084393e-06
-1.97788e-06 -2.0775212e-06 -8.1133874e-07 -5.457564e-07 -1.8326077e-06 -2.180273e-06 -1.4705703e-06 -1.9769388e-06
-2.7828992e-06 -2.9179123e-06 -1.2234707e-06 -5.2685823e-07 -1.3534141e-06 -1.3003709e-06 -5.2391204e-07 -1.4767028e-06
-2.8343882e-06 -3.154609e-06 -1.290617e-06 -3.3234903e-07 -9.706077e-07 -1.1865765e-06 -4.6773434e-07 -1.5020701e-06
-2.9121234e-06 -3.1454424e-06 -1.1837236e-06 -2.6996045e-07 -9.599358e-07 -1.2275232e-06 -5.0206506e-07 -1.540202e-06
-3.232244e-06 -3.3868953e-06 -1.3405977e-06 -2.9408235e-07 -9.550607e-07 -1.1587492e-06 -5.178762e-07 -1.5357488e-06
-3.011785e-06 -3.128527e-06 -1.3125552e-06 -4.5788377e-07 -1.1953355e-06 -1.5265358e-06 -1.1112073e-06 -2.0331763e-06
-2.041698e-06 -1.7767157e-06 -6.632525e-07 -5.627815e-07 -1.7466815e-06 -2.5806435e-06 -2.4863725e-06 -2.808437e-06
3.966107e-06 2.9768767e-06 1.8802456e-06 1.0369017e-06 7.554609e-07 1.661144e-06 2.5442932e-06 3.4457366e-06
3.179529e-06 2.340026e-06 2.4953993e-06 1.2090743e-06 6.3101317e-07 1.7534446e-06 1.7230896e-06 2.5742315e-06
2.3844636e-06 1.9295726e-06 3.0011229e-06 6.948251e-07 7.911008e-08 2.05684e-06 1.1899538e-06 1.9315032e-06
2.1707976e-06 1.7824624e-06 3.0737224e-06 1.3920248e-07 -2.823363e-07 2.22574e-06 8.9420644e-07 1.6753912e-06
2.1621422e-06 1.5586115e-06 2.9913108e-06 8.8205915e-08 -1.8915348e-07 2.1533983e-06 7.1639954e-07 1.7507307e-06
2.2368224e-06 1.696154e-06 2.8049428e-06 8.3464766e-07 5.184883e-07 2.239748e-06 8.9120704e-07 2.003597e-06
2.859134e-06 2.2764752e-06 2.6944463e-06 1.5168878e-06 1.1037291e-06 2.0263296e-06 1.7154373e-06 2.645757e-06
3.715122e-06 3.2339192e-06 2.4733145e-06 1.4016679e-06 9.827742e-07 1.81815e-06 2.8371223e-06 3.5182643e-06
1.0453504e-06 3.6054757e-07 -2.0236023e-07 -1.1791882e-06 6.051655e-07 -3.255104e-07 -1.1691459e-06 -1.9203499e-06
7.7124014e-07 4.2224048e-07 -8.7317495e-08 -1.05997e-06 3.294439e-07 -5.218654e-07 -7.0432634e-07 -1.594202e-06
7.8347375e-07 2.5106883e-07 -3.251456e-07 -8.0009994e-07 1.9685224e-07 -1.5657069e-07 -5.086608e-07 -1.4774796e-06
8.5690755e-07 -1.2217457e-09 -7.227132e-07 -5.86783e-07 2.9776538e-07 2.661249e-07 -3.1944668e-07 -1.2282777e-06
6.1560326e-07 -3.539189e-08 -7.249315e-07 -3.3603467e-07 2.3198139e-07 3.2938516e-07 -3.77699e-07 -1.0321592e-06
5.950839e-07 1.5811588e-10 -2.8266456e-07 -4.6221334e-07 2.2837558e-07 -1.2295628e-07 -4.6084327e-07 -1.353667e-06
8.715257e-07 1.6717514e-07 -3.7705142e-08 -8.266055e-07 4.008125e-07 -3.897083e-07 -8.689365e-07 -1.7542213e-06
1.3857688e-06 4.7410137e-07 -4.4460242e-07 -1.2457086e-06 8.9742406e-07 -9.66156e-08 -1.2097026e-06 -2.193863e-06

exp_avg_sq f4 [1, 64, 8, 8]
00000000: b7d0 023c d164 033c e4ce 033c 3b03 043c
00000010: 3503 043c ffce 033c f964 033c 69d1 023c
00000020: 3b5c 033c a3f9 033c eb6a 043c 6fa3 043c
00000030: 6ba4 043c e26d 043c 28fe 033c c262 033c
00000040: 02bf 033c b463 043c 8eda 043c 9216 053c
00000050: 5c18 053c 2de0 043c 586c 043c ddca 033c
00000060: 65ee 033c ba97 043c fc11 053c 0850 053c
00000070: c552 053c a21a 053c 19a5 043c 7300 043c
00000080: e0e4 033c f58e 043c 9c09 053c 4c48 053c
00000090: f74b 053c 0415 053c 3ea0 043c 2cfc 033c
000000a0: a4a0 033c 7547 043c bdbf 043c f2fd 043c
000000b0: 8602 053c 5dcd 043c b55b 043c febb 033c
000000c0: 1b25 033c b4c5 033c ac39 043c bb75 043c
000000d0: 177b 043c 9649 043c dddd 033c 0646 033c
000000e0: 087e 023c 6116 033c 6684 033c cabd 033c
000000f0: 50c4 033c 3397 033c 5633 033c c1a5 023c
00000100: 55d1 0235 c213 0c35 eca7 0d35 f19e 0535
00000110: 85dd f334 6657 dd34 671b cc34 ecc1 bf34
00000120: d85b 0d35 4c91 1835 001d 1a35 ff7b 1035
00000130: 7778 0235 22fa ea34 97a0 d834 e80e cb34
00000140: f45a 1435 dca1 2035 c556 2235 02e3 1735
00000150: 1e98 0835 dd3f f534 74b3 e134 062b d334
00000160: 9fea 1635 a579 2335 1a2d 2535 8bfe 1a35
00000170: fec9 0b35 4a6a fb34 e285 e734 e0ee d734
00000180: 1d80 1435 0fb7 2035 f6ab 2235 26c1 1935
00000190: 35c7 0b35 8b9e fc34 a00c e834 2784 d634
000001a0: d8a7 0d35 7cc5 1835 a85d 1b35 a356 1435
000001b0: 3144 0835 fb27 f834 fdec e234 a96c cf34
000001c0: be69 0335 f3c3 0c35 f6b2 0f35 11f3 0a35
000001d0: e7ae 0135 88a4 ee34 4b77 d934 719c c434
000001e0: 0c27 ef34 c19d fd34 d092 0135 2ae3 fd34
000001f0: 7757 f134 20e2 e034 5c14 cd34 5a26 b834
00000200: 29f9 0834 3c77 fe33 f9cd f133 6179 0334
00000210: cd54 0834 2f35 0a34 3ea9 1134 0d3f 0a34
00000220: f609 1034 3a6b 0434 51f2 f933 af02 0a34
00000230: 7899 0e34 4970 0e34 c943 1634 b350 0e34
00000240: 7655 1534 ad30 0834 6288 ff33 9632 0e34
00000250: 5d51 1234 06a4 1034 1777 1934 e85d 1134
00000260: 5bf8 1734 25fe 0934 e756 0134 a35f 1034
00000270: b5df 1334 eeba 1134 d7c2 1a34 6624 1334
00000280: b983 1734 4c87 0934 8b6c 0134 4f85 1034
00000290: 9095 1234 ffa0 0f34 8fa2 1834 2d18 1334
000002a0: 163b 1434 bfba 0634 73dd fe33 b295 0d34
000002b0: fcb4 0e34 a694 0b34 9124 1434 18fe 1034
000002c0: cd20 0f34 4dbd 0234 74a9 f933 66cf 0834
000002d0: d5ea 0834 4936 0634 4d33 0e34 e05e 0d34
000002e0: 4b92 0834 f585 fb33 90be f133 9741 0234
000002f0: 082d 0234 c18b 0034 a363 0834 22ca 0834
00000300: f002 0333 42f5 0033 9837 0833 2c9a d832
00000310: 15e1 f332 1cbc 0f33 147f 0033 157f 0133
00000320: bfec 0533 9b0d 0433 5d69 1033 24c1 df32
00000330: 64e1 fc32 ba51 1633 11a9 0333 d693 0533
00000340: b093 0933 8f71 0533 bd97 1533 1a5d e332
00000350: 9fa6 0133 820b 1c33 2e45 0633 7b90 0833
00000360: 5c3d 0933 b1bf 0533 8700 1933 fbe0 e732
00000370: 1ff8 0233 6c0c 1d33 23bb 0633 25f9 0a33
00000380: 5698 0733 32ac 0433 cae6 1733 635a e732
00000390: 7b41 0133 5d6a 1a33 57cd 0533 145f 0a33
000003a0: 66e1 0333 694b 0133 f358 1333 7880 e432
000003b0: b399 fc32 7262 1433 fbdd 0233 2f2a 0733
000003c0: 5d89 fc32 bc7a fb32 a1fc 0d33 f5a7 e132
000003d0: 8d85 f232 37f3 0a33 bb25 fe32 c1fb 0333
000003e0: 0c45 f332 6506 f132 60d5 0533 5774 dc32
000003f0: 33df e932 9769 0233 cc9e f532 611d fe32
0.007984332 0.008019642 0.008044932 0.008057411 0.008057405 0.008044957 0.008019679 0.007984498
0.008017595 0.0080551235 0.008082132 0.008095606 0.008095841 0.008082839 0.008056201 0.008019151
0.008041145 0.008080412 0.008108748 0.008123057 0.0081234835 0.008110088 0.008082472 0.008043972
0.008052443 0.008092815 0.008121964 0.008136757 0.00813741 0.008124026 0.008096003 0.008056748
0.0080501735 0.008090724 0.008119967 0.008134913 0.008135787 0.008122686 0.008094845 0.008055728
0.008033905 0.008073677 0.008102355 0.008117186 0.008118277 0.008105603 0.008078505 0.008040426
0.008004452 0.008042742 0.008070391 0.00808471 0.0080859875 0.008074185 0.008048502 0.0080123
0.0079646185 0.008000941 0.008027172 0.008040855 0.00804241 0.008031654 0.008007845 0.007974089
4.873339e-07 5.2182816e-07 5.277095e-07 4.977765e-07 4.5423454e-07 4.1228049e-07 3.80179e-07 3.571762e-07
5.2660243e-07 5.683585e-07 5.741167e-07 5.382462e-07 4.8604073e-07 4.3767892e-07 4.034998e-07 3.7822542e-07
5.526665e-07 5.984018e-07 6.047597e-07 5.6582223e-07 5.088531e-07 4.5681273e-07 4.2040085e-07 3.9333116e-07
5.6220773e-07 6.089925e-07 6.153292e-07 5.773988e-07 5.207547e-07 4.682973e-07 4.3124516e-07 4.0220675e-07
5.5320726e-07 5.987103e-07 6.059994e-07 5.727801e-07 5.207142e-07 4.7054013e-07 4.3222553e-07 3.995676e-07
5.277084e-07 5.691179e-07 5.787829e-07 5.526037e-07 5.076318e-07 4.622269e-07 4.2268212e-07 3.8635815e-07
4.895518e-07 5.243921e-07 5.3532074e-07 5.1762714e-07 4.831076e-07 4.4450667e-07 4.0506197e-07 3.662167e-07
4.454563e-07 4.7239703e-07 4.8269885e-07 4.7290206e-07 4.4953387e-07 4.188778e-07 3.819904e-07 3.4300575e-07
1.2756631e-07 1.1849485e-07 1.1259903e-07 1.2244483e-07 1.2696837e-07 1.28716e-07 1.3565747e-07 1.2875189e-07
1.3414669e-07 1.2332467e-07 1.1639043e-07 1.2853228e-07 1.3280612e-07 1.326563e-07 1.3994499e-07 1.3254139e-07
1.3907797e-07 1.2683695e-07 1.1899171e-07 1.3243184e-07 1.362691e-07 1.3470716e-07 1.429256e-07 1.353834e-07
1.4153322e-07 1.2851577e-07 1.2045676e-07 1.3445838e-07 1.3771826e-07 1.3572182e-07 1.441325e-07 1.3703684e-07
1.4110891e-07 1.280834e-07 1.2053549e-07 1.3459542e-07 1.365172e-07 1.3376483e-07 1.4215242e-07 1.3699237e-07
1.380507e-07 1.254766e-07 1.1868078e-07 1.3186107e-07 1.3290622e-07 1.2999462e-07 1.3796877e-07 1.3503484e-07
1.3329846e-07 1.217606e-07 1.16257894e-07 1.2741438e-07 1.2751418e-07 1.2499471e-07 1.3243444e-07 1.3166164e-07
1.2719208e-07 1.1712465e-07 1.12571e-07 1.2131055e-07 1.2123576e-07 1.1971771e-07 1.2702235e-07 1.2739523e-07
3.0503486e-08 3.0025383e-08 3.171553e-08 2.5215819e-08 2.8391279e-08 3.3465867e-08 2.99179e-08 3.0150733e-08
3.1181795e-08 3.074602e-08 3.362344e-08 2.6048447e-08 2.9439157e-08 3.4998926e-08 3.065458e-08 3.110093e-08
3.203212e-08 3.1069757e-08 3.482977e-08 2.6468616e-08 3.0186694e-08 3.6332047e-08 3.1262225e-08 3.179637e-08
3.1953604e-08 3.1140818e-08 3.5623568e-08 2.6994249e-08 3.049365e-08 3.656571e-08 3.1369506e-08 3.2357224e-08
3.1570686e-08 3.0890256e-08 3.536733e-08 2.6933042e-08 3.0094707e-08 3.5952656e-08 3.115323e-08 3.2217102e-08
3.0705813e-08 3.0103738e-08 3.4307003e-08 2.6601114e-08 2.9406555e-08 3.454847e-08 3.0469874e-08 3.1470503e-08
2.9399127e-08 2.9276059e-08 3.3058885e-08 2.6269825e-08 2.823324e-08 3.235183e-08 2.958665e-08 3.0729783e-08
2.8320322e-08 2.8059e-08 3.116054e-08 2.5664276e-08 2.722627e-08 3.0364017e-08 2.8593966e-08 2.9582852e-08

exp_avg f4 [1, 64, 8, 8]
00000000: f050 2439 bba2 2239 66ba 3439 6dbe 5239
00000010: a9cd 6539 11da 7039 edf0 8339 07f4 8f39
00000020: 8331 0639 8ae7 f938 4fc0 0639 95fa 2439
00000030: 26a9 3939 f656 4639 36ba 6639 5e0b 8839
00000040: cfe3 f538 7554 d038 1f5b df38 ec49 0d39
00000050: f250 2139 606c 2e39 8540 5139 6353 8339
00000060: b402 0139 45da d238 c737 e338 aae6 1139
00000070: e16c 2739 226f 3639 346e 5839 da45 8639
00000080: 0683 1139 8914 eb38 6fe2 fa38 b4b7 1d39
00000090: 8192 2e39 e399 3c39 0a4a 5d39 6ba0 8839
000000a0: 88d5 2739 e700 0639 0621 0a39 1d75 2839
000000b0: ab15 3839 d318 4839 ae26 6a39 6068 8f39
000000c0: 0d38 5439 c56d 3639 c1f6 3039 ae0b 4339
000000d0: 41df 4b39 de5d 5c39 ffb5 8139 5b64 9839
000000e0: 1842 7d39 868a 6939 893e 6239 3d8a 6639
000000f0: 3f23 6a39 a552 7b39 f800 8e39 e3ae 9f39
00000100: d2c9 1fb8 db33 89b8 63f0 a4b8 6188 85b8
00000110: 081f e9b7 752b 4236 3c4d 4d37 fb70 2537
00000120: 77e8 8db7 7fd6 35b8 be0e 8cb8 945a 87b8
00000130: 306e 33b8 b7a0 b7b7 798e 82b7 c2c1 39b6
00000140: 33c4 9b36 4e12 b2b7 bf7d 65b8 3e67 89b8
00000150: 051b 65b8 43a0 28b8 3a1a 0db8 9e69 75b7
00000160: 7b75 2837 4c94 89b7 ff85 6eb8 3584 92b8
00000170: 1331 7db8 1045 34b8 7a20 16b8 9d5e 91b7
00000180: 4d2a 9b37 203b 4cb7 7294 6cb8 03e2 92b8
00000190: 7c41 7fb8 3abf 2eb8 67da 0bb8 04d9 86b7
000001a0: f1d7 e637 ad6a cab6 6991 47b8 5464 83b8
000001b0: 99d1 76b8 8f59 3fb8 a968 21b8 8380 bfb7
000001c0: c722 0638 941e 24b6 20e1 13b8 4b1a 42b8
000001d0: 9293 42b8 a9ce 1bb8 d291 f2b7 2bde 8fb7
000001e0: 2f24 0238 cd3c ddb6 6d5e e0b7 723e ffb7
000001f0: dbde d6b7 3a38 8cb7 4b38 3fb7 9600 2ab7
00000200: 4e4a 3938 c232 0438 ecc4 74b6 d106 f1b7
00000210: c76c 18b8 c7d7 e4b7 7a2e 6d36 4808 8437
00000220: bb0d 3438 d10f 2738 58c7 0b37 b7e5 ccb7
00000230: 12c0 19b8 d413 fdb7 4276 a1b6 f2e8 4837
00000240: 2954 2638 155a 4338 d547 b437 72b3 8bb7
00000250: 972d 1db8 c658 03b8 4fd5 2ab7 b7ed a736
00000260: a27c 3538 c120 4d38 3f65 c637 925e 9fb7
00000270: aa64 3cb8 0d22 f9b7 e12c 2fb7 9a75 9236
00000280: 7e75 3338 bde9 4738 99f4 da37 3aa5 8ab7
00000290: 7ad2 46b8 0d2c 02b8 dd74 4cb7 5a82 a036
000002a0: 5603 2038 cf5e 2f38 8818 e037 c63d 48b7
000002b0: 8f73 27b8 da9a e7b7 bbf5 28b7 c7f7 bc36
000002c0: 6712 1c38 e884 2f38 dd24 d337 78a4 64b7
000002d0: 0a76 1bb8 fcbd c0b7 8623 c635 d1fe 6337
000002e0: 9c7d 1d38 3f87 3b38 7773 b837 bd66 61b7
000002f0: 8fff 0ab8 7c50 91b7 f0a0 5437 f1ca a837
00000300: f8af 5d35 cb3b b637 d7cf 8837 65b8 5d36
00000310: 1403 1ab7 c814 7ab7 e3ee 21b7 426e 91b5
00000320: 1de6 0bb6 e2af a837 ae4a 9337 339c f436
00000330: cb1c 7fb6 ea83 7fb7 97cd 7eb7 9c88 65b6
00000340: d940 0fb7 29fb 7637 4a90 a537 0acc 6437
00000350: 1ce6 fcb5 dc90 89b7 7428 92b7 4dbc 27b6
00000360: 79ea 2cb7 ade6 8737 e6c1 be37 ff5c 5f37
00000370: 3daf 85b6 973b 9db7 b513 9eb7 8a94 92b5
00000380: 0dde 01b7 1de8 9437 bf24 bd37 3c5a 7437
00000390: 6fa7 1532 75ae 8db7 9fc6 a7b7 466f 21b6
000003a0: c680 c4b6 44e7 8337 4356 a737 35da 8a37
000003b0: 9a50 1036 11c3 8fb7 7e20 a6b7 4bd0 46b5
000003c0: 6344 3eb7 b2b1 3d37 ffe9 be37 a891 bc37
000003d0: 25da b5b5 c166 bab7 a83a a1b7 34b3 2a36
000003e0: 447b 93b7 4adc a236 a085 e237 cec9 e737
000003f0: 67d9 b8b6 839e dab7 2801 98b7 90d9 1137
0.0001567041 0.00015510146 0.00017235577 0.000200981 0.00021915756 0.0002296942 0.0002516577 0.000274569
0.0001279768 0.00011916373 0.00012850876 0.00015733608 0.00017705988 0.00018915147 0.00022003878 0.0002594841
0.00011724943 9.933944e-05 0.00010650441 0.00013474346 0.00015384311 0.00016634306 0.00019955829 0.00025048395
0.00012303406 0.00010054236 0.00010834593 0.00013914207 0.00015966922 0.00017398273 0.00020640419 0.00025610515
0.00013877088 0.00011209498 0.000119631055 0.00015041122 0.0001664851 0.00017986404 0.00021103784 0.00026059462
0.00016005908 0.00012779572 0.00013173008 0.00016065357 0.0001755568 0.00019082734 0.00022330388 0.0002735285
0.00020238776 0.00017397765 0.00016876591 0.00018601 0.00019442757 0.00021015803 0.00024740395 0.0002906647
0.00024152582 0.00022272216 0.00021576336 0.00021986007 0.00022329109 0.00023968013 0.00027085072 0.00030457144
-3.8096514e-05 -6.542328e-05 -7.864905e-05 -6.367337e-05 -2.7790215e-05 2.8933548e-06 1.2236935e-05 9.861072e-06
-1.691676e-05 -4.3353528e-05 -6.678466e-05 -6.454173e-05 -4.2779546e-05 -2.1890139e-05 -1.5563552e-05 -2.767993e-06
4.6422006e-06 -2.1227777e-05 -5.4714965e-05 -6.5518994e-05 -5.462302e-05 -4.0203577e-05 -3.3641445e-05 -1.4627729e-05
1.0040933e-05 -1.6400729e-05 -5.6868415e-05 -6.986448e-05 -6.0365604e-05 -4.2979664e-05 -3.5793033e-05 -1.7329405e-05
1.8497138e-05 -1.2173114e-05 -5.6405035e-05 -7.0039205e-05 -6.0857725e-05 -4.1662926e-05 -3.3343586e-05 -1.60751e-05
2.7518692e-05 -6.032488e-06 -4.758072e-05 -6.265254e-05 -5.8846173e-05 -4.5621357e-05 -3.8482864e-05 -2.2828817e-05
3.198048e-05 -2.4455703e-06 -3.5257195e-05 -4.627769e-05 -4.639064e-05 -3.7147347e-05 -2.8916551e-05 -1.7150383e-05
3.1028114e-05 -6.5933914e-06 -2.6746851e-05 -3.0427447e-05 -2.5614563e-05 -1.6715483e-05 -1.1397594e-05 -1.0132926e-05
4.417664e-05 3.1518524e-05 -3.6473457e-06 -2.8732613e-05 -3.634093e-05 -2.7280197e-05 3.5342805e-06 1.5739482e-05
4.292813e-05 3.9830633e-05 8.331459e-06 -2.4425664e-05 -3.6656922e-05 -3.0169183e-05 -4.811941e-06 1.1975166e-05
3.9655864e-05 4.657552e-05 2.1491122e-05 -1.6653652e-05 -3.7474176e-05 -3.131551e-05 -1.0182454e-05 5.0046615e-06
4.3269836e-05 4.8906313e-05 2.3650586e-05 -1.8998315e-05 -4.4916444e-05 -2.969897e-05 -1.0441262e-05 4.3648297e-06
4.278635e-05 4.7662983e-05 2.6101525e-05 -1.6527822e-05 -4.74029e-05 -3.103544e-05 -1.2186557e-05 4.7835465e-06
3.815008e-05 4.181155e-05 2.6714304e-05 -1.1935312e-05 -3.9923525e-05 -2.7609454e-05 -1.0070794e-05 5.6316817e-06
3.7210437e-05 4.184703e-05 2.5170326e-05 -1.3628152e-05 -3.7064812e-05 -2.2976652e-05 1.4762488e-06 1.3589583e-05
3.75487e-05 4.4710232e-05 2.1988277e-05 -1.3434966e-05 -3.313977e-05 -1.7322825e-05 1.2673656e-05 2.0121663e-05
8.2584984e-07 2.1723934e-05 1.6309246e-05 3.3038898e-06 -9.179832e-06 -1.4906e-05 -9.651968e-06 -1.0835431e-06
-2.0846558e-06 2.0109062e-05 1.7558541e-05 7.2899506e-06 -3.801472e-06 -1.5229898e-05 -1.5187447e-05 -3.4203176e-06
-8.538563e-06 1.472122e-05 1.9736723e-05 1.3637366e-05 -1.8842434e-06 -1.6399128e-05 -1.7423394e-05 -2.4994545e-06
-1.0306591e-05 1.620067e-05 2.2740056e-05 1.3313488e-05 -3.9841093e-06 -1.8743607e-05 -1.8844245e-05 -1.0921078e-06
-7.740699e-06 1.7751061e-05 2.2547667e-05 1.4564543e-05 8.7110115e-09 -1.6889748e-05 -2.0000442e-05 -2.405564e-06
-5.8562464e-06 1.5724108e-05 1.994812e-05 1.6552493e-05 2.1504588e-06 -1.7137763e-05 -1.9803872e-05 -7.4063854e-07
-1.1340805e-05 1.1306651e-05 2.2758728e-05 2.2479173e-05 -1.3549039e-06 -2.2220776e-05 -1.922001e-05 2.5436284e-06
-1.7581166e-05 4.8536212e-06 2.7003523e-05 2.7631319e-05 -5.5089363e-06 -2.6061438e-05 -1.812035e-05 8.693329e-06
