pre-trained/DCT8_soft-thr_L2_rnd-init_0200.pt (torch_old, 152058 bytes, 10 tensors)

weight f4 [64, 1, 8, 8]
00000000: c2c4 2b3d f58c 153e a687 0bbe 7ab2 24bd
00000010: f2a3 babd 92d4 053d 8b7b 02bc b6cd a53d
00000020: 0e2a eebd f380 013e 66c3 7b3d b57c fcbb
00000030: fdfd 5f3e ed25 b0bc 06c1 203e d53a 11be
00000040: 5114 29be ab40 04bd 18de d2bd df1d 9dbd
00000050: bcfc 88bd 6ee0 0ebe 134d 3abd 8c54 e8bd
00000060: ac6f 393d a069 a0bd 746a 133d c7b3 40bd
00000070: aca3 8c3d 8eb9 12be 24b9 73ba de13 26bd
00000080: 1ce3 3d3e 5dea 3fbd fbfa 0c3e 000f 443d
00000090: f77e 563e eec1 dabb 36fb b5bc 0e40 7b3e
000000a0: 268d 843d 7ecc 0e3d 668c e0bd a747 b2bb
000000b0: ae96 493e fa37 063d aeeb e63c 6c8a 13be
000000c0: 4e0f 0cbe 5a2b 92bd 34e1 f7bc b9ff 513d
000000d0: d458 82be c68c 6dbe 5840 713c 0a6a 2bbe
000000e0: 3863 c1bd cb74 9a3d f4c3 ee3d f90b a93d
000000f0: 8f9b 7e3d 4f29 493d 7797 213e a3de 673e
00000100: af86 0cbd 7084 8a3d b713 89ba 67a6 eaba
00000110: 0c6f 81bc eae1 cfbd 4901 283d 89de d73c
00000120: 3d0f b7bc 41c3 b3bd 8598 c7bd 39e5 67bd
00000130: 5a7e 493d 416d 81be f0b5 c2bd 965d e5bb
00000140: c878 8fbc f583 bdbb f026 7ebd 2997 983c
00000150: 258f 383e 12be 053d 06ed fcbd 2ab3 323d
00000160: 73c3 653d 155f d73c 16dd 1abd 9aad bcbc
00000170: 362e 3cbd 1226 bdbd 2869 1fbe 8a56 393d
00000180: 553d 21be 00ce fdbc 15b5 94bd 9ee2 2abe
00000190: f4b1 b63c 2314 d23d d419 a3bd aca4 26be
000001a0: f128 6d3c dc94 8fbc 3d69 79bd a1ed 563d
000001b0: fea3 a3bc 4256 0dbe ca1f debd 8ea5 6abd
000001c0: 5d65 16be 0123 d8bd e072 053d 0278 1dbe
000001d0: ac59 40bc a708 8bbd 320d 42be 12a4 e9bd
000001e0: 6f34 3abd fd0b 4c3d b6d7 f83c 6d58 84bc
000001f0: cb98 89bd b7ff 80be 1b68 14be 637f 44bd
00000200: 70d4 8dbd 9ce2 c03c 9cde 75bc 8ed6 10bd
00000210: 6cba 1abe 1014 1dbe 52c8 d2bd cc20 7ebd
00000220: 97b6 53bc ab16 343e f59d 94be 30fd aebd
00000230: 2ae6 c0bc 8745 a4bd fee9 16bc d87d ae3a
00000240: 8fc1 eabb 9ded 303d ebca 0b3e fb88 d9bd
00000250: eb25 c0bc 61cb d63b 918a 7cbd 78f8 7fbd
00000260: e261 9dbd bfd5 22be 59f1 303d 87a3 12ba
00000270: 9e91 8b3d 1084 28be b382 833b a260 80bc
00000280: 89a5 45bd 2098 d83c c1be ae3d 1382 c53d
00000290: ef96 d6bd af9b 473d 56a4 833c 7697 263e
000002a0: b6e9 2a3d 6507 023e c593 973c c334 42be
000002b0: a0d1 e43c 086b 53be f98d 043d 4df1 9dbd
000002c0: 60f1 3ebe c094 cb3c c29b 853b 989d a5be
000002d0: 6556 2cbe 4431 bbbd a01d 22bd 6cee 04be
000002e0: fc9a 1e3e 1ed2 2abe a58e 43bd 6745 803d
000002f0: 26e9 0dbe 3d57 c0bd b65b 31be c288 093c
00000300: 9ea0 cbbc e25f cebd 658a debd c28f 2bbd
00000310: dc95 d7bb b7a3 b73c f82b 22be 5442 b1bd
00000320: e69e bf3c 9d17 753d 0190 6c3d 67d1 8b3d
00000330: d6a6 cc3d c57c 9bbd 5739 053e cb5c 263c
00000340: fcbc 0e3e a007 97bd 5312 183e 0f8b c2bd
00000350: 48f6 59bd 4fcb d3bd 58f2 433b d47f 37bd
00000360: fd66 23bd 465b 12be 692e 9fbd 7ba5 a63c
00000370: dbaa 043e bf5b a83c 1f5f 1ebe 9f2e 113e
00000380: 35a2 3c3d c7e9 1dbe ad74 063d 3a51 973d
00000390: 8bda 28bc 81ce cd3d b9e9 6e3c 7df0 c83d
000003a0: f632 913d 9039 173e ec35 473d d467 67bd
000003b0: 11b3 31bd 5e9e b53b 9b10 64be 1079 efbd
000003c0: cdf3 00bc b31d 053e e703 cfbd 769d bf3d
000003d0: 966e 843d 3042 07bd 48b5 293e 6ee8 6dbd
000003e0: 4b31 60bd 9667 33be 11f2 853e bec8 213d
000003f0: 3250 3ebd d568 8e3d 0b46 3dbd eb2d 43bc
0.04193569 0.14604552 -0.13625965 -0.04020927 -0.09113301 0.032673426 -0.007964025 0.08095877
-0.11629115 0.12646846 0.061465643 -0.007705296 0.21874233 -0.02150246 0.15698633 -0.14182599
-0.16511656 -0.032288235 -0.10296267 -0.07671713 -0.0668883 -0.139528 -0.04548366 -0.11344251
0.045272514 -0.07832646 0.035990193 -0.04704645 0.068671554 -0.14328596 -0.00092973025 -0.04054629
0.18543667 -0.046854366 0.13767616 0.047865868 0.2094687 -0.0066759503 -0.022214513 0.24536154
0.064722344 0.034862988 -0.10964279 -0.0054406705 0.19686386 0.032768227 0.028188553 -0.14408273
-0.13677713 -0.07137175 -0.030258752 0.051269267 -0.25458395 -0.23198232 0.014724813 -0.1673967
-0.094427526 0.07541808 0.11658469 0.08254237 0.06216007 0.04911166 0.15780436 0.22643523
-0.03430813 0.06763542 -0.0010458146 -0.0017902375 -0.015800022 -0.101505116 0.04101685 0.02635123
-0.022346133 -0.08777476 -0.09745888 -0.056615088 0.049192764 -0.25278667 -0.09507358 -0.0069996817
-0.017513648 -0.005783553 -0.062048852 0.018626766 0.18023355 0.03265197 -0.12349896 0.043627895
0.056094598 0.026290456 -0.0378085 -0.023031998 -0.045942508 -0.09235777 -0.15567458 0.045248546
-0.15746053 -0.030982018 -0.07261101 -0.1668801 0.022301652 0.10257747 -0.07963911 -0.16273755
0.014475093 -0.017527036 -0.06089138 0.052472714 -0.019975659 -0.13802436 -0.10845907 -0.05728679
-0.14687105 -0.105535515 0.032580256 -0.1537781 -0.011740129 -0.0678876 -0.18950346 -0.11408247
-0.04546016 0.04981612 0.030376296 -0.016155446 -0.06718596 -0.25195095 -0.14492838 -0.047973048
-0.06925285 0.023545556 -0.0150066875 -0.035360865 -0.15110177 -0.15339684 -0.10292114 -0.062042996
-0.012921951 0.17586772 -0.29026762 -0.085443854 -0.02354725 -0.08021074 -0.0092110615 0.0013312651
-0.0071641873 0.043195356 0.13651626 -0.1062183 -0.02345558 0.0065550064 -0.061655585 -0.062492818
-0.07684685 -0.1590185 0.043198917 -0.00055938255 0.06814884 -0.16456628 0.0040133833 -0.015671078
-0.04825357 0.026439726 0.08532477 0.0964395 -0.10478007 0.048732456 0.016069572 0.16268715
0.04172679 0.12698133 0.01850308 -0.1896544 0.027931988 -0.20646298 0.03236196 -0.0771204
-0.18646765 0.024851203 0.0040774057 -0.32346797 -0.16829832 -0.09140256 -0.039579034 -0.12981576
0.1548881 -0.16681716 -0.04774346 0.062632374 -0.1385847 -0.093916394 -0.17320141 0.008394422
-0.024856862 -0.10076882 -0.108662404 -0.041885145 -0.006579144 0.022416933 -0.15837085 -0.08655229
0.023391198 0.059836973 0.05775452 0.0682705 0.09992759 -0.07592157 0.13010155 0.0101539595
0.1393928 -0.07374501 0.1485074 -0.094991796 -0.053213388 -0.103415124 0.0029899087 -0.04479964
-0.03989314 -0.1429263 -0.07772524 0.02034258 0.12955801 0.02055156 -0.15465973 0.14177941
0.04605313 -0.1542121 0.032826114 0.073885396 -0.010306011 0.10049153 0.014582091 0.098114945
0.07089798 0.14768052 0.04863541 -0.056495503 -0.04338366 0.0055425605 -0.2227196 -0.11693013
-0.007870627 0.1299961 -0.10108166 0.09356205 0.06466405 -0.033022106 0.1657306 -0.05808299
-0.05473451 -0.17519984 0.26161245 0.039498083 -0.0464632 0.06953589 -0.046209376 -0.011912803

bias f4 [64]
00000000: 6e4c d33d d76a 8abd 912a a63c d298 e53d
00000010: 9677 a5be 5de0 b23d 9367 9abd f6bc 463d
00000020: 2ded 38bb cae9 a5be 796f c43a 86f5 a4bd
00000030: 1260 b5bc 9ae6 0dbc cc23 c33c fd6a 59be
00000040: e02e f13d 43e4 89bd 988c a13d a194 cabd
00000050: 54cc 4bbd 6ad7 e83d edac c03a ff1b 483d
00000060: f8c7 59bd fd76 b5bd feab d7bd 1b00 c03e
00000070: c2c4 953d b174 943e 798d 423d 0f5f 74bc
00000080: c76c 163e ff08 0abe 2413 0bbd 72f1 ce3d
00000090: 7433 663e 47c7 773c 46ff 41bd 327f ac3b
000000a0: ea57 e5bd 3758 28bb daac 1f3b 3cf0 4f3e
000000b0: 7425 d43d 753a 50bd 8509 883c 8987 82bd
000000c0: d2e0 05bd d575 e93d ddf7 a83d 52d8 fabd
000000d0: fef2 9bbd 2131 c43d c403 13bb 617e 60bd
000000e0: c17d d0bc cca3 bc3d 661b d53c fb50 babd
000000f0: d6c8 7ebd 7e43 d03d 89a5 3ebc 70e0 55bd
0.10317312 -0.06758659 0.02028397 0.11210789 -0.323178 0.087342 -0.075392865 0.04852005
-0.002821754 -0.3240493 0.0014986835 -0.080546424 -0.022140536 -0.008660937 0.02382078 -0.21232219
0.11776519 -0.067329906 0.07888144 -0.0989163 -0.04975541 0.11369212 0.0014699973 0.048854824
-0.05316922 -0.08860586 -0.10530852 0.3750008 0.07312919 0.28995278 0.0474982 -0.014915242
0.14689933 -0.13479994 -0.0339538 0.10104646 0.22480565 0.015123195 -0.04736259 0.0052641863
-0.11198409 -0.0025687346 0.0024364502 0.20306486 0.10358706 -0.050837 0.016606102 -0.063735075
-0.03268511 0.11399428 0.08250401 -0.12248291 -0.076147065 0.09579683 -0.0022432664 -0.054808024
-0.02545059 0.09210929 0.026014041 -0.09097477 -0.06220325 0.10169123 -0.011636146 -0.052215993

weight f4 [1, 64, 8, 8]
00000000: 976e ef3b 8957 2f3e 3d02 c83d 85b8 eebb
00000010: adf8 0fbc 7e02 1a3d 54a5 e23d 17e2 4a3d
00000020: b423 f7bd 6ff9 2bbe 12c5 7dbe 1337 1dbe
00000030: 1c2f 013d 4354 2abd 0dfb 41be aa65 9938
00000040: c67a 01be 5584 df3c 4f8f 7e3e c2f6 90bd
00000050: c11a e8bc 425d e63d e80f 003e 3020 39bd
00000060: 3de0 313e b2d9 123d 5dc4 79bd 3ac0 0f3d
00000070: 39fc bb3c 0539 873e ce3a 093e 2b09 933d
00000080: 4d9d 3b3d 518e 18bd de83 e03d dc09 19be
00000090: df92 bf3d ab58 1c3d 292e 35bb 2817 e43c
000000a0: 1af3 063d f523 63bd d1b4 8fbd cb38 1fbc
000000b0: 38d6 323d e243 23be eb9a cfbb 24ba 423d
000000c0: 7432 3d3c 725e ad3d 30b4 e1bc 5a38 6bbd
000000d0: 7f4a e93d 638f 2b3d b57b a1bc 840a 49bd
000000e0: a043 9dbd b6bc 5dbd 990f 12bd f8f1 c9bd
000000f0: 8e3e 27be 6e5f e93c 571e 863d e3ec 723d
00000100: 96fe 41bd c787 babd 3bf8 953d f508 17bd
00000110: 7d91 f63c 8f67 9d3d 38b2 873d f2f1 903c
00000120: 001c 91bd c5e7 6ebc 08c2 72bd ca7b 85bc
00000130: 5ab6 67bc 32ad 8ebd bf54 90bd ba99 123b
00000140: 2110 8ebc 0e24 003e d897 c1bd 55f1 efbc
00000150: e184 11bd 2bee 143e f484 0f3d 9da5 1c3e
00000160: 5183 67bc 8b4c b2bd 69a7 303e 0526 ba3d
00000170: 98b2 6cbe ae92 9b3c 3ede aabb a771 07be
00000180: c115 eb3d bbba 11be b4af a73d e02a c5bd
00000190: ed74 8a3d 02b0 e33d c0d3 0abd 7613 58bd
000001a0: 5692 4e3d 4370 39be 73e3 da3b b3be f7bd
000001b0: 13ff 07bd 1d0b 323d fff2 35bd 1298 16bd
000001c0: fbae 153d 3416 02bd 99f4 123e f6fe 313c
000001d0: 11e7 bc3d 0806 abbc 7072 1a3d f515 0cbd
000001e0: 95a8 323c 0083 00be e259 353d 3819 fc3d
000001f0: 31d5 693d 7561 983c 1e3c 9abd b10e 0c3e
00000200: 6c56 c93d 4fcb 16bd ab11 f53d 7aa9 d63b
00000210: 3441 60bd 6939 cebd 56d1 f53d 3853 a73c
00000220: 8289 b23d 135e c9bd 341f 643d 39a9 b0bd
00000230: ad15 bf3d b59e 1f3d 2e3c 86bd 553d 99bd
00000240: 68d4 ef3d 8b0e ed3a 096f 313e fbb1 99bd
00000250: 56c7 d8bd 4d2a 68bd 08d2 523e 2ef0 7e3c
00000260: ebc4 d53c 0740 29be 354b 103d 6c89 6d3c
00000270: 4ea9 e03c 2678 64bd 25d4 953c 89a3 a4bd
00000280: c5d7 95bd 8e27 453d 352a d2bc f87c 2dbe
00000290: 117b 0dbc bce9 4bbe 268b fa3b 3bce dbbb
000002a0: fcc0 98bb 9c4d 11b8 ef10 c2bd 0281 b83d
000002b0: c567 2a3e 016d 22bd eec1 e5bd 78a5 a23c
000002c0: e482 8c3d 2d43 9cb9 5dc7 5bbd b7f0 debd
000002d0: 2421 9cbd 6b16 6dbd c6fe 5cbe f6c5 0b3d
000002e0: f97a 403d 80e2 b7bd b24d 5e3c bc80 9fbd
000002f0: d240 a63c 5701 613b ec5e 0cbe d280 e33d
00000300: 2070 83be 3d49 dd3d d707 d1bb a98c 133d
00000310: f5d5 273e fb46 29bd d4b8 81be 53b9 5c3c
00000320: 419e 063c 7560 febc beeb 3e3d 0982 b0bc
00000330: bce6 cc3c a818 e53d 98f8 9c3d 9b10 06be
00000340: 1f65 e2bc f5e0 82bd 550f 2b3e 7f34 413e
00000350: 7597 fc3d e8d1 1cbe e735 1f3c b5a5 c93c
00000360: 9052 5bbe 777d 923e baf0 bf3c 76e2 d1bd
00000370: ba96 2e3e 80ab b3bd db5f f2bd 3119 41be
00000380: e86a f13d 16dc a23d 7550 8dbd d22d 243e
00000390: 716b 943d 302b 0d3e 9a75 87be 3fd8 fabd
000003a0: 8a5c b8bc 1996 18be 08f0 68be a6ca 1fbd
000003b0: fd3f b8bd adda 8a3d 6c00 463e b4c7 63bd
000003c0: fffe 21bc 9923 0bbd 01ca d53c 5e52 293e
000003d0: ab47 dfbd 1859 efbd a6cf 723d 0f34 46be
000003e0: a540 f7bb c533 88bc 93c9 e83d b9c7 2f3d
000003f0: 0bfb d6bd 12c2 793d 83d3 cfbd ffe8 3e3e
0.0073068845 0.17123236 0.09766052 -0.00728518 -0.008787316 0.037600033 0.1106669 0.049532022
-0.12067357 -0.1679437 -0.24782208 -0.1535304 0.031539068 -0.041584264 -0.18943425 7.314545e-05
-0.1264449 0.02728478 0.24859355 -0.07078315 -0.02833307 0.11248256 0.12506068 -0.045196712
0.17370696 0.03585214 -0.060978282 0.03509543 0.022947418 0.2641069 0.13401338 0.07179483
0.04580431 -0.0372451 0.10962652 -0.14945167 0.09354185 0.038170498 -0.0027645922 0.027843073
0.032946683 -0.055454213 -0.0701691 -0.00971813 0.043661326 -0.15943864 -0.0063356063 0.0475408
0.0115476735 0.0846528 -0.02755174 -0.057426788 0.11391162 0.04188479 -0.019712308 -0.049082294
-0.07678914 -0.054135047 -0.035659406 -0.09860605 -0.16332456 0.028487887 0.065487556 0.059307944
-0.047361933 -0.09107929 0.07322737 -0.036873776 0.030098671 0.07685768 0.066257894 0.017693494
-0.07085419 -0.014581625 -0.059267074 -0.016294379 -0.014142597 -0.06966628 -0.07047414 0.002236946
-0.017341675 0.12513754 -0.0945279 -0.02928988 -0.035527114 0.14543979 0.035038903 0.15297551
-0.014130429 -0.08706006 0.17251362 0.09089283 -0.23115003 0.01899084 -0.0052144816 -0.13226949
0.114787586 -0.14231388 0.081878096 -0.096273184 0.06760583 0.11117555 -0.033893347 -0.052752934
0.050432526 -0.1810923 0.006679946 -0.1209692 -0.033202242 0.04346763 -0.044421192 -0.03676612
0.036543828 -0.031759456 0.14351119 0.01086401 0.0922376 -0.0208769 0.037706792 -0.034200627
0.010904451 -0.12549973 0.044275172 0.123094976 0.05708808 0.018601159 -0.07530998 0.1367748
0.09830937 -0.036814984 0.119662605 0.006550965 -0.054749683 -0.10069544 0.12002818 0.020425424
0.08717634 -0.09832396 0.05569382 -0.08626027 0.09330306 0.038969714 -0.06554447 -0.07482401
0.11710435 0.0018085999 0.17327513 -0.0750465 -0.10584895 -0.056680966 0.20587933 0.015560193
0.026094874 -0.1652833 0.035227973 0.014498096 0.02742448 -0.055778645 0.018289635 -0.08039004
-0.073165454 0.048133425 -0.025654892 -0.16942203 -0.008635298 -0.19913381 0.0076459823 -0.006707934
-0.0046616774 -3.4642973e-05 -0.09475886 0.09008981 0.16641147 -0.039654735 -0.1121863 0.019854292
0.06860903 -0.00029804689 -0.053656925 -0.108857565 -0.076235086 -0.057882708 -0.21581563 0.034124337
0.046992276 -0.08978748 0.013568329 -0.07788226 0.02029458 0.0034333074 -0.13708085 0.11108555
-0.25671482 0.10804985 -0.0063791084 0.036022816 0.16390212 -0.041327458 -0.25336325 0.013471919
0.008216442 -0.031051854 0.04661154 -0.02154638 0.025012366 0.111863434 0.07664603 -0.13092272
-0.027636109 -0.063905634 0.16705067 0.18867682 0.12333576 -0.15314448 0.009717441 0.024615148
-0.21418214 0.28611347 0.023430217 -0.10248272 0.17049685 -0.087729454 -0.11834689 -0.18857266
0.11787969 0.07952134 -0.069001116 0.16033104 0.07247055 0.13786006 -0.2645691 -0.12248277
-0.022505064 -0.14901008 -0.22747815 -0.03901162 -0.0899658 0.0677999 0.19336098 -0.055610374
-0.009887456 -0.033969495 0.0260973 0.16535327 -0.109023415 -0.11686915 0.05928006 -0.19355796
-0.007545548 -0.016626248 0.11366572 0.04291508 -0.104971014 0.060976095 -0.101477645 0.18643568

thr f4 [1, 64, 1, 1]
00000000: 0000 803f 0000 803f 0000 803f 0000 803f
00000010: 0000 803f 0000 803f 0000 803f 0000 803f
00000020: 0000 803f 0000 803f 0000 803f 0000 803f
00000030: 0000 803f 0000 803f 0000 803f 0000 803f
00000040: 0000 803f 0000 803f 0000 803f 0000 803f
00000050: 0000 803f 0000 803f 0000 803f 0000 803f
00000060: 0000 803f 0000 803f 0000 803f 0000 803f
00000070: 0000 803f 0000 803f 0000 803f 0000 803f
00000080: 0000 803f 0000 803f 0000 803f 0000 803f
00000090: 0000 803f 0000 803f 0000 803f 0000 803f
000000a0: 0000 803f 0000 803f 0000 803f 0000 803f
000000b0: 0000 803f 0000 803f 0000 803f 0000 803f
000000c0: 0000 803f 0000 803f 0000 803f 0000 803f
000000d0: 0000 803f 0000 803f 0000 803f 0000 803f
000000e0: 0000 803f 0000 803f 0000 803f 0000 803f
000000f0: 0000 803f 0000 803f 0000 803f 0000 803f
1.0 1.0 1.0 1.0 1.0 1.0 1.0 1.0
1.0 1.0 1.0 1.0 1.0 1.0 1.0 1.0
1.0 1.0 1.0 1.0 1.0 1.0 1.0 1.0
1.0 1.0 1.0 1.0 1.0 1.0 1.0 1.0
1.0 1.0 1.0 1.0 1.0 1.0 1.0 1.0
1.0 1.0 1.0 1.0 1.0 1.0 1.0 1.0
1.0 1.0 1.0 1.0 1.0 1.0 1.0 1.0
1.0 1.0 1.0 1.0 1.0 1.0 1.0 1.0

exp_avg_sq f4 [64, 1, 8, 8]
00000000: 4231 9e2d 3062 a32d 81fe 882d a8ad 8b2d
00000010: 2230 892d 871e 922d 26c4 902d 428c 912d
00000020: 412a 6a2d 3a6b 7a2d 6aed 742d 3650 6d2d
00000030: b029 6a2d e400 4e2d 65f6 5f2d c1c8 3f2d
00000040: cf9c bd2c 2ceb cd2c 2652 d02c cab0 c12c
00000050: 4b3e c12c ba3a a12c 7904 d02c 5f79 c72c
00000060: f6ab a22d baf6 9d2d 60c5 a92d 83b8 9d2d
00000070: 2d82 9f2d 16ac 862d be39 8c2d ae69 882d
00000080: fcfd f12d c435 ea2d f5b8 fa2d d6ef f32d
00000090: 1b04 fb2d 1a7d e02d ebaf e02d f5ed f32d
000000a0: 2edb b32d 93f2 b72d 9102 af2d b24c b62d
000000b0: ab74 c52d d3ac b12d f249 bb2d c1ab ac2d
000000c0: aa6e 262d 2f3d 3b2d da62 452d 3639 522d
000000d0: 71ab 2c2d 7f0b 272d 9f26 512d bf35 362d
000000e0: 5998 882d 37b4 9b2d 9775 a22d ce37 a92d
000000f0: 375e a22d ddb1 9d2d 16b4 af2d 60e5 ad2d
00000100: b4ce c833 bfdd dd33 5352 b933 d17c bd33
00000110: 112f bf33 88bb bf33 e015 bc33 8843 ad33
00000120: fee8 cd33 140c c233 526e cd33 5a3b bc33
00000130: 4ec6 be33 322e bb33 9521 c733 3c91 c933
00000140: abc1 bc33 1613 e333 1562 c433 39eb c033
00000150: f106 be33 1dfd c833 82f1 be33 75a3 e333
00000160: 50aa c033 5efd bc33 c90a bc33 277e be33
00000170: 8d99 bf33 a5a9 c033 cf68 b633 6509 c533
00000180: d89f e933 afdf e633 53f6 be33 e1f1 d533
00000190: 6708 bb33 8029 c633 364e c933 108e b233
000001a0: 9714 c433 6124 be33 5d58 d533 923e c433
000001b0: 8c8a bb33 74ac c333 9340 ca33 1202 c833
000001c0: 8cf0 b433 2b63 c033 8706 d533 7acd c433
000001d0: 68d3 de33 b2ea 0534 c7bf b433 9743 c433
000001e0: 7eb6 c133 0eeb be33 eea5 b833 4adb e433
000001f0: 7c75 f833 f81b d233 5578 b633 5056 b533
00000200: ea25 9d37 968e 9e37 9524 a137 7642 a337
00000210: 8daa a437 a1a4 a437 5925 a237 9c2e 9f37
00000220: 540f 9d37 b803 9f37 894c a437 64c9 a437
00000230: 431d a537 2e92 a437 bdb5 a237 72a9 9f37
00000240: 339d 9d37 0df4 9e37 3248 a237 c976 a437
00000250: 6d79 a537 3105 a437 9469 a337 b5df 9f37
00000260: 353e 9e37 8f7b a037 dba9 a237 3663 a337
00000270: e7da a437 36f1 a437 981d a237 9c68 9f37
00000280: 792b 9d37 01a2 9e37 7611 a137 93a7 a237
00000290: 777b a437 9db3 a337 7cd8 a137 01de 9c37
000002a0: f4b6 9d37 3867 9d37 59cd a037 241a a437
000002b0: 7660 a337 0ce5 a437 cce3 a037 997b 9e37
000002c0: b4a5 9c37 d38d 9d37 8860 a037 537c a437
000002d0: 0b9a a437 4a65 a337 2b71 a037 5932 9e37
000002e0: 0668 9a37 a129 9d37 452d 9e37 1c38 9f37
000002f0: a8ee a037 4d22 a037 20ea 9e37 b84e 9b37
00000300: fc84 2924 b40d 5a22 c4cc 2824 2bd6 1325
00000310: 6b17 1624 35f9 fa24 6b17 1624 2bd6 1325
00000320: 041d c225 b0a2 ed25 9db6 5326 ce13 2426
00000330: 5ea9 7626 922e 3926 5ea9 7626 ce13 2426
00000340: 4500 8b26 990c e425 8a76 3126 2422 6825
00000350: 63c5 4225 52e2 2a25 63c5 4225 2422 6825
00000360: 9b97 2d23 24d7 6723 a670 8525 b27b 6d25
00000370: 2012 bf25 9763 ec25 2012 bf25 b27b 6d25
00000380: c695 2526 fd35 0126 dea2 2b26 68fa 2d26
00000390: b5df 9925 ff24 f025 b5df 9925 68fa 2d26
000003a0: 48ee 5e25 a371 3323 84a4 0b24 299f 4624
000003b0: 7caf d822 16ea 4124 7caf d822 299f 4624
000003c0: c695 2526 fd35 0126 dea2 2b26 68fa 2d26
000003d0: b5df 9925 ff24 f025 b5df 9925 68fa 2d26
000003e0: 9b97 2d23 24d7 6723 a670 8525 b27b 6d25
000003f0: 2012 bf25 9763 ec25 2012 bf25 b27b 6d25
1.7984395e-11 1.8574559e-11 1.5574432e-11 1.587959e-11 1.5596472e-11 1.6611835e-11 1.6458012e-11 1.6546878e-11
1.3310742e-11 1.4234664e-11 1.3922511e-11 1.3489701e-11 1.33106165e-11 1.1709942e-11 1.2730793e-11 1.0901669e-11
5.3891123e-12 5.8525598e-12 5.920836e-12 5.5050174e-12 5.492306e-12 4.582415e-12 5.912212e-12 5.669395e-12
1.8493634e-11 1.7958402e-11 1.9300728e-11 1.7930773e-11 1.8134017e-11 1.5310458e-11 1.59418e-11 1.5508341e-11
2.751132e-11 2.6626597e-11 2.8503847e-11 2.773241e-11 2.853722e-11 2.5521408e-11 2.5543975e-11 2.7731576e-11
2.044728e-11 2.0912416e-11 1.9896336e-11 2.0725064e-11 2.2448118e-11 2.019932e-11 2.1292277e-11 1.963041e-11
9.46058e-12 1.0643305e-11 1.1220103e-11 1.1949821e-11 9.815136e-12 9.495404e-12 1.188885e-11 1.0357436e-11
1.5529066e-11 1.7701491e-11 1.8469488e-11 1.9237858e-11 1.8459108e-11 1.792782e-11 1.997517e-11 1.9769686e-11
9.350825e-08 1.033145e-07 8.6297085e-08 8.823702e-08 8.902692e-08 8.928242e-08 8.758411e-08 8.068224e-08
9.5884374e-08 9.036026e-08 9.5661235e-08 8.765228e-08 8.883636e-08 8.716269e-08 9.272768e-08 9.38621e-08
8.78966e-08 1.0573983e-07 9.144802e-08 8.9834835e-08 8.848827e-08 9.359267e-08 8.8914945e-08 1.0600244e-07
8.9716764e-08 8.8005194e-08 8.756394e-08 8.8705114e-08 8.922061e-08 8.971555e-08 8.4941e-08 9.175236e-08
1.08789834e-07 1.07508974e-07 8.8923706e-08 9.962583e-08 8.7093945e-08 9.227642e-08 9.3740184e-08 8.314612e-08
9.1307065e-08 8.854182e-08 9.9346586e-08 9.138343e-08 8.7330676e-08 9.111764e-08 9.418104e-08 9.313602e-08
8.4256584e-08 8.958735e-08 9.919773e-08 9.164337e-08 1.0376135e-07 1.2471972e-07 8.416787e-08 9.139256e-08
9.020458e-08 8.890321e-08 8.59835e-08 1.0656966e-07 1.156977e-07 9.7839745e-08 8.496924e-08 8.4441695e-08
1.8733514e-05 1.8901465e-05 1.920973e-05 1.9462062e-05 1.9629742e-05 1.9626985e-05 1.9329296e-05 1.8975981e-05
1.8722996e-05 1.8956009e-05 1.9585963e-05 1.9644103e-05 1.9683159e-05 1.9618394e-05 1.9396533e-05 1.9033181e-05
1.878906e-05 1.8948713e-05 1.9345523e-05 1.9605637e-05 1.9726076e-05 1.9552741e-05 1.9480278e-05 1.9058449e-05
1.8864035e-05 1.9131023e-05 1.9391e-05 1.9477313e-05 1.9652258e-05 1.9662646e-05 1.9325686e-05 1.900299e-05
1.8736102e-05 1.8910507e-05 1.9200827e-05 1.9389938e-05 1.9607816e-05 1.9514753e-05 1.9293504e-05 1.8700028e-05
1.8801053e-05 1.8763923e-05 1.9169109e-05 1.9562496e-05 1.9476032e-05 1.9656982e-05 1.9179563e-05 1.8892622e-05
1.867381e-05 1.87819e-05 1.9118437e-05 1.9608216e-05 1.9622055e-05 1.947828e-05 1.9126184e-05 1.8858513e-05
1.840667e-05 1.8735243e-05 1.8856148e-05 1.8980405e-05 1.918462e-05 1.9089459e-05 1.894409e-05 1.8514096e-05
3.6758676e-17 2.9551764e-18 3.6602636e-17 1.282278e-16 3.25459e-17 1.0884239e-16 3.25459e-17 1.282278e-16
3.3673297e-16 4.1223188e-16 7.345282e-16 5.692577e-16 8.557793e-16 6.4247883e-16 8.557793e-16 5.692577e-16
9.645136e-16 3.9560232e-16 6.156986e-16 2.013436e-16 1.6893695e-16 1.482183e-16 1.6893695e-16 2.013436e-16
9.4104525e-18 1.2568093e-17 2.3148156e-16 2.0598383e-16 3.31455e-16 4.100696e-16 3.31455e-16 2.0598383e-16
5.7448856e-16 4.4829033e-16 5.954827e-16 6.0360796e-16 2.669286e-16 4.1658433e-16 2.669286e-16 6.0360796e-16
1.9336163e-16 9.727673e-18 3.028017e-17 4.306922e-17 5.873272e-18 4.2048482e-17 5.873272e-18 4.306922e-17
5.7448856e-16 4.4829033e-16 5.954827e-16 6.0360796e-16 2.669286e-16 4.1658433e-16 2.669286e-16 6.0360796e-16
9.4104525e-18 1.2568093e-17 2.3148156e-16 2.0598383e-16 3.31455e-16 4.100696e-16 3.31455e-16 2.0598383e-16

exp_avg f4 [64, 1, 8, 8]
00000000: a0bb 38b5 d8f6 50b5 a458 f0b4 a888 0ab5
00000010: 33f9 33b5 0392 3bb5 1864 37b5 5c62 7bb5
00000020: 27bc 50b4 e639 1db5 9418 53b5 9af4 3cb5
00000030: e96a 7cb5 97ba 3db5 56c6 0fb5 f5ec 8eb4
00000040: 3003 43b5 ed3c 3db5 cabb 26b5 a00f 44b5
00000050: 68c9 1fb5 2050 1fb5 ac3a 22b5 5b72 12b5
00000060: a3bb 52b5 c7d8 07b5 6d47 24b5 845d 0cb5
00000070: 8d94 d0b4 5525 82b4 14ac 25b5 bcd7 36b5
00000080: 0875 dfb5 6d55 c4b5 ac1d 02b6 bea5 edb5
00000090: 6532 05b6 8f69 fdb5 993a f1b5 1ced f1b5
000000a0: 85f1 7eb5 7fe6 adb5 be1d c2b5 ef4a c9b5
000000b0: 604a deb5 270a bcb5 2114 bbb5 eee6 86b5
000000c0: caaf aeb4 7ad2 c7b4 1ebe e6b4 9acb 0cb5
000000d0: ccbe 5bb3 3ddf 39b3 68a9 b0b4 c1f1 abb4
000000e0: 8802 7cb5 aee9 cbb5 2a47 feb5 6a8a f2b5
000000f0: f8a6 f1b5 b0cd dfb5 a46a f2b5 8f8e e1b5
00000100: 9276 0bb8 bc68 5a37 a733 e737 f5d5 c837
00000110: 27bd a8b7 8c89 1bb8 b2c7 e0b8 e024 0db8
00000120: 174e a236 0ecb 5638 bef3 a8b8 f58a a0b7
00000130: 396a 8938 c482 0b38 6f67 c238 a116 4eb8
00000140: e776 46b8 5d02 94b8 6620 0239 241b c6b6
00000150: 7445 3e38 e9f6 fd38 c5db 51b8 8316 b737
00000160: 87e2 bbb8 94a2 2938 9f09 8138 cc18 2ab7
00000170: 76ab 3738 9838 ab37 83ca 36b8 a6be afb8
00000180: 92ea 5cb8 9fd5 b138 cfd7 2338 b054 9a38
00000190: e7d6 fd37 c92f 0239 4fbb 1c37 f67d 45b8
000001a0: 91e7 9f37 6dd8 6cb8 4aee 8538 38d0 93b8
000001b0: 62f8 4338 e602 cfb6 44eb 8e38 e014 5c37
000001c0: 40fd c2b8 c3c7 78b7 c8e6 7038 4269 bc37
000001d0: 7679 0936 ec1a d138 d5a4 7838 662c cf38
000001e0: 1f78 6737 bb5b 4938 694c 90b7 6390 08b7
000001f0: 11bf c6b8 52a0 5838 c2fd d136 f8e5 b637
00000200: 7897 dd37 af48 3f3a 47fc dd39 ef4c c339
00000210: f04f a939 305f db39 9a30 1a3a 0650 ca39
00000220: 7f62 1c3a 7729 7c3a 53a2 2037 a37d df39
00000230: ad2f 263a 99fc 193a 5f1d 473a a31f 8839
00000240: 5288 ed39 a556 183a 7582 3d3a 378b 2a3a
00000250: 96ca 173a 4cd7 383a 1b7f 483a 12df 2f3a
00000260: ac76 333a 7137 033a 2adc 1c3a 2e5e 293a
00000270: 918d 5d3a 46de 1f3a b429 a439 ccda 0d3a
00000280: 7333 103a f741 643a a2b7 4b3a 9aeb 4c3a
00000290: 2b1e 103a 86b9 5b3a 3550 6e3a 5656 0a3a
000002a0: 5bad 953a 20f7 583a 4f24 4d3a 3b9a 133a
000002b0: 905d 153a 00e5 9139 8b7a 273a 891f 163a
000002c0: eac6 f739 b9d4 543a aa0d 343a a99c bf39
000002d0: 762b 2d3a ad14 0d3a cd27 0e3a 6007 423a
000002e0: 47bb 9a3a c7a6 653a c3a5 1b3a 8d4c 343a
000002f0: 4562 d039 f0f4 9d39 efec ee39 c987 483a
00000300: e3b0 a432 e9c8 ba31 4f57 a432 50cc 1933
00000310: 71f7 9a32 49b2 0d33 71f7 9a32 50cc 1933
00000320: 3a3b 7933 3be1 8933 9d0c b833 9f06 a233
00000330: ffa8 c633 8e21 ac33 ffa8 c633 9f06 a233
00000340: 53e7 d233 f311 8733 6581 a833 8bb8 4033
00000350: 0f88 3033 3e5a 2533 0f88 3033 8bb8 4033
00000360: 58a8 2632 6799 4032 4aa4 4e33 d2ed 4233
00000370: 3a45 7733 8984 8933 3a45 7733 d2ed 4233
00000380: c1c4 a233 9fc8 8f33 4bb7 a533 bfd7 a633
00000390: 6ae6 5d33 149b 8a33 6ae6 5d33 bfd7 a633
000003a0: b8dc 3c33 7b71 2932 a379 9532 9b44 b232
000003b0: 6ea9 0332 9224 b032 6ea9 0332 9b44 b232
000003c0: c1c4 a233 9fc8 8f33 4bb7 a533 bfd7 a633
000003d0: 6ae6 5d33 149b 8a33 6ae6 5d33 bfd7 a633
000003e0: 58a8 2632 6799 4032 4aa4 4e33 d2ed 4233
000003f0: 3a45 7733 8984 8933 3a45 7733 d2ed 4233
-6.881837e-07 -7.7845243e-07 -4.4767978e-07 -5.1607867e-07 -6.704533e-07 -6.9875404e-07 -6.831847e-07 -9.364792e-07
-1.9439959e-07 -5.857131e-07 -7.863939e-07 -7.03914e-07 -9.403289e-07 -7.067951e-07 -5.356027e-07 -2.662197e-07
-7.26478e-07 -7.0496645e-07 -6.211309e-07 -7.303843e-07 -5.95252e-07 -5.9348713e-07 -6.043508e-07 -5.455565e-07
-7.8504144e-07 -5.060687e-07 -6.11987e-07 -5.229015e-07 -3.8851104e-07 -2.424155e-07 -6.1717697e-07 -6.811422e-07
-1.6648855e-06 -1.4628e-06 -1.938878e-06 -1.7706113e-06 -1.9847878e-06 -1.888069e-06 -1.7972953e-06 -1.8024907e-06
-9.497383e-07 -1.2956588e-06 -1.4462782e-06 -1.4997476e-06 -1.6561935e-06 -1.4010046e-06 -1.3938444e-06 -1.0050987e-06
-3.253793e-07 -3.721978e-07 -4.2979167e-07 -5.2450343e-07 -5.116344e-08 -4.3276703e-08 -3.2905814e-07 -3.202713e-07
-9.3881e-07 -1.5192688e-06 -1.8945186e-06 -1.8070689e-06 -1.8004494e-06 -1.6674658e-06 -1.8061442e-06 -1.6805296e-06
-3.325061e-05 1.3018198e-05 2.7561398e-05 2.394149e-05 -2.0115242e-05 -3.708298e-05 -0.000107183485 -3.3651362e-05
4.837067e-06 5.1210685e-05 -8.056265e-05 -1.9138193e-05 6.5524546e-05 3.3261967e-05 9.269907e-05 -4.9135302e-05
-4.7317615e-05 -7.05763e-05 0.00012409835 -5.9040194e-06 4.5364213e-05 0.00012109971 -5.003416e-05 2.1825783e-05
-8.959049e-05 4.0444153e-05 6.1529914e-05 -1.0138563e-05 4.3790285e-05 2.0411142e-05 -4.3580785e-05 -8.380161e-05
-5.2670548e-05 8.479808e-05 3.9063216e-05 7.3590665e-05 3.0260022e-05 0.00012415567 9.341936e-06 -4.708577e-05
1.9062109e-05 -5.6468347e-05 6.386319e-05 -7.04829e-05 4.6722947e-05 -6.169418e-06 6.814909e-05 1.3117882e-05
-9.297812e-05 -1.4828463e-05 5.743539e-05 2.2460361e-05 2.048529e-06 9.970911e-05 5.928132e-05 9.878799e-05
1.3796641e-05 4.8007565e-05 -1.7201719e-05 -8.139849e-06 -9.4769646e-05 5.1647723e-05 6.2582267e-06 2.1803178e-05
2.6415786e-05 0.00072969025 0.00042340366 0.00037250618 0.0003229375 0.00041841855 0.0005881876 0.00038588064
0.0005965605 0.0009619216 9.574537e-06 0.0004262748 0.00063395017 0.0005874127 0.0007595624 0.00025963513
0.0004530573 0.0005811251 0.00072292174 0.000650573 0.00057903805 0.00070511247 0.0007648335 0.000670896
0.00068459916 0.0005005515 0.0005983735 0.0006460872 0.0008451576 0.000609849 0.0003131159 0.00054113264
0.00055008306 0.00087073393 0.0007771199 0.000781709 0.00054976594 0.0008381832 0.0009090931 0.0005277147
0.0011419462 0.00082765706 0.000782554 0.0005630587 0.0005697841 0.00027827173 0.0006388805 0.0005726745
0.00047259714 0.00081188563 0.0006868491 0.0003654708 0.00066059025 0.0005381804 0.0005422801 0.00074016117
0.001180508 0.00087605085 0.0005937481 0.0006877862 0.00039746068 0.00030127866 0.00045571427 0.0007649628
1.9172552e-08 5.4361533e-09 1.9131816e-08 3.580891e-08 1.8040483e-08 3.299127e-08 1.8040483e-08 3.580891e-08
5.8028697e-08 6.420529e-08 8.570462e-08 7.544917e-08 9.250834e-08 8.015478e-08 9.250834e-08 7.544917e-08
9.820965e-08 6.289692e-08 7.846646e-08 4.4871324e-08 4.1101938e-08 3.849913e-08 4.1101938e-08 4.4871324e-08
9.700749e-09 1.12107506e-08 4.8112533e-08 4.538544e-08 5.757213e-08 6.4036676e-08 5.757213e-08 4.538544e-08
7.579502e-08 6.695449e-08 7.716752e-08 7.769221e-08 5.1665133e-08 6.454334e-08 5.1665133e-08 7.769221e-08
4.3972904e-08 9.862897e-09 1.7401197e-08 2.0753125e-08 7.663727e-09 2.0505727e-08 7.663727e-09 2.0753125e-08
7.579502e-08 6.695449e-08 7.716752e-08 7.769221e-08 5.1665133e-08 6.454334e-08 5.1665133e-08 7.769221e-08
9.700749e-09 1.12107506e-08 4.8112533e-08 4.538544e-08 5.757213e-08 6.4036676e-08 5.757213e-08 4.538544e-08

exp_avg_sq f4 [64]
00000000: 919a fe2d 2dc7 3434 516e 1938 5c65 3f26
00000010: e087 9932 772f 172f f59e 0a2f 57a4 e033
00000020: a0d0 9730 753f 3632 df87 122e 7c44 8f2f
00000030: c65f 1a2b f381 ef38 0bc5 1637 d61c ee31
00000040: abea b426 2c29 d42d 7637 8429 2c64 4036
00000050: 0351 c02d 8285 8132 d501 ba28 334d 9d35
00000060: 5871 a232 8a20 ce2a 0000 0000 8214 3932
00000070: f2a3 af32 4fec dd30 2b17 eb35 836c f533
00000080: 810e d736 a07e 5231 20af 8133 ed63 462b
00000090: eb6d 9030 924e 2829 5c41 8034 61ec 272a
000000a0: e9aa 1e35 5cd0 2c2b ab7e ac30 9471 d638
000000b0: bf09 f42b 84b6 e62e 5362 8634 0cc9 5938
000000c0: 566e 4a32 2a55 7230 2890 5928 caac 0231
000000d0: 2901 0233 b239 2d38 d3f9 4b38 bfb6 0631
000000e0: aec1 c629 6599 0838 14a3 2436 484a 1728
000000f0: d5c6 a435 2269 9e2c d6be 6f2d 7fd2 2e2a
2.8945098e-11 1.6836266e-07 3.6580783e-05 6.6403804e-16 1.7873333e-08 1.3750233e-10 1.26075e-10 1.0460706e-07
1.1045991e-09 1.0608223e-08 3.3317234e-11 2.606021e-10 5.4844703e-13 0.00011420613 8.986574e-06 6.92999e-09
1.2553616e-15 2.4119894e-11 5.8715985e-14 2.8668537e-06 2.186385e-11 1.5078289e-08 2.0650943e-14 1.171988e-06
1.8910825e-08 3.661553e-13 0.0 1.077308e-08 2.0447235e-08 1.6147029e-09 1.7515607e-06 1.142844e-07
6.409188e-06 3.0631e-09 6.038886e-08 7.0482406e-13 1.050862e-09 3.7371643e-14 2.3889413e-07 1.491459e-13
5.9108294e-07 6.139583e-13 1.2550648e-09 0.00010225471 1.7339948e-12 1.04916104e-10 2.5030985e-07 5.192407e-05
1.1783035e-08 8.816011e-10 1.2077179e-14 1.901571e-09 3.026904e-08 4.1300147e-05 4.863164e-05 1.9603446e-09
8.8265644e-14 3.2567787e-05 2.4532828e-06 8.398291e-15 1.227682e-06 4.502302e-12 1.3627951e-11 1.5527335e-13

exp_avg f4 [64]
00000000: 8088 37b6 6fb7 1b39 3d1e a53a cbfe ae33
00000010: 5a8f 7239 caf8 ea34 5b3c 27b3 8072 2fb6
00000020: 99b8 1737 e379 0239 9f17 22b4 06bd d1b3
00000030: 9b20 7631 6764 beb9 de64 ac36 211d 5938
00000040: bc5a 7999 e927 c836 f080 43af 32d1 77b7
00000050: dcc6 af33 bd0d 81b5 70bb a6b0 6118 3ab7
00000060: 10cc c436 98cf 3034 0000 0000 5fa3 84b9
00000070: 28ce afb6 c81f 49b8 36ad 6538 d4b6 15b9
00000080: efe0 b5b9 2375 5db5 c597 0bb6 1897 2fb3
00000090: 2b8b b4b8 ce6a 5db2 14b5 24b6 d857 6331
000000a0: c03b a6b6 3f80 0934 f1bf 6ab5 1dc8 0dbb
000000b0: 5a28 d730 b3fa 8e34 92b6 a7b4 fced 443a
000000c0: 9ffa 82b6 93b0 abb3 a416 b630 79bb ec36
000000d0: c977 95b6 1d11 40b9 017b 9739 815f 9335
000000e0: fd4a ce23 b186 88b9 feec 27b8 4087 8217
000000f0: f2bd 21b7 a8ad d233 450f 56b3 e945 9f30
-2.7348578e-06 0.00014850286 0.0012597513 8.148853e-08 0.00023132321 4.3766914e-07 -3.893761e-08 -2.614368e-06
9.043281e-06 0.00012443172 -1.5096019e-07 -9.766704e-08 3.5816246e-09 -0.0003631443 5.137742e-06 5.176396e-05
-1.2891322e-23 5.9651106e-06 -1.7780954e-10 -1.4771054e-05 8.185245e-08 -9.615247e-07 -1.2131363e-09 -1.109214e-05
5.865011e-06 1.64668e-07 0.0 -0.00025298723 -5.239406e-06 -4.7951733e-05 5.475917e-05 -0.00014277856
-0.000346906 -8.249937e-07 -2.0800956e-06 -4.088278e-08 -8.608991e-05 -1.2888178e-08 -2.4543306e-06 3.308278e-09
-4.9541413e-06 1.2805775e-07 -8.7451104e-07 -0.002163417 1.5654777e-09 2.663197e-07 -3.123901e-07 0.0007512269
-3.903478e-06 -7.994927e-08 1.3248678e-09 7.055173e-06 -4.454491e-06 -0.00018316922 0.0002889261 1.0980149e-06
2.2366324e-17 -0.00026040294 -4.003662e-05 8.435195e-25 -9.640573e-06 9.810475e-08 -4.9839645e-08 1.1588642e-09

exp_avg_sq f4 [1, 64, 8, 8]
00000000: ef93 d529 553c 0a2a d506 1a2a 738a 212a
00000010: 21a2 282a 7887 2e2a 2c3e 152a 504c 0e2a
00000020: cdd9 642b 0cd2 6b2b 9523 7a2b 7d05 492b
00000030: 5f51 302b 5fc5 262b 4f36 152b 1ba4 122b
00000040: 185b 8b2a f8cc 9f2a 0083 a72a ff71 522a
00000050: 6b5e 7c2a 64ae 922a 28ba 8b2a 4803 ab2a
00000060: f8c8 2f2a 0f4e 632a 2f43 6e2a 551d 862a
00000070: 876d af2a b91c c12a 6a73 942a 8ef1 602a
00000080: ff52 bc2a 1f95 c82a 6bb0 e92a f486 952a
00000090: 068c a82a ebe4 972a 79d1 bf2a c66e 982a
000000a0: 218e 5c2a c77d 882a 7f6b 912a ee52 7e2a
000000b0: 438a 912a 5bf7 a92a d3c6 842a 31f0 572a
000000c0: 2b7a cb29 e375 ed29 5663 5c2a 7aa3 7c2a
000000d0: 76e4 882a 6cbd be2a a568 e82a af8b ed2a
000000e0: 5833 bb2a af7e 9e2a ce8a b92a 37c2 9a2a
000000f0: eb35 942a 9b37 832a a053 642a 5b56 552a
00000100: a186 de37 5a83 e137 0f74 e337 4afe e437
00000110: 4090 e337 34f8 e137 b1d1 df37 6f7e dd37
00000120: 0733 e037 9fdf e337 00e1 e537 90e2 e637
00000130: b666 e637 8d5e e437 1e0d e237 1319 df37
00000140: 7cea e137 e693 e537 8267 e737 0e29 e837
00000150: 46a9 e737 435c e637 bef6 e337 e6ca e037
00000160: 3140 e337 5716 e737 36dc e837 7b9d e937
00000170: aa33 e937 617f e737 ee17 e537 d99a e137
00000180: 7772 e237 f0ef e537 11e1 e737 1df9 e837
00000190: eafe e837 ffa1 e737 6dea e437 3b98 e137
000001a0: 04a5 e037 c77e e437 d7e6 e637 c673 e737
000001b0: 6f33 e737 0b2d e637 aed9 e337 c734 e037
000001c0: 3233 de37 5458 e237 ab91 e437 4422 e537
000001d0: 619e e437 8ddd e337 da7a e137 df11 de37
000001e0: 9818 dc37 845d df37 7a83 e037 13bd e137
000001f0: 33d8 e037 190f e037 6a9b dd37 48af da37
00000200: 7a88 4237 2581 4337 0bbc 4837 9597 4837
00000210: bc78 4737 edf0 4637 3dd2 4337 eb34 3f37
00000220: 25a5 4537 ef38 4737 834a 4937 d5f8 4a37
00000230: 5b21 4a37 2c06 4837 9398 4537 2962 4137
00000240: 65a6 4437 7dae 4837 bc66 4a37 f520 4c37
00000250: 4a06 4d37 486c 4937 0662 4637 e2e5 4337
00000260: c88a 4637 52e8 4a37 f043 4e37 bdfc 4d37
00000270: 2e43 4d37 360b 4c37 4e19 4a37 ad53 4537
00000280: db74 4837 3c27 4b37 c3a7 4d37 3793 5137
00000290: 9468 4f37 4fc1 4d37 1244 4c37 7a6c 4837
000002a0: a19e 4537 3296 4a37 aba8 4b37 4905 4e37
000002b0: a242 5037 2916 4d37 9bc9 4937 c7af 4937
000002c0: aef9 4337 ea26 4737 3263 4a37 625f 4b37
000002d0: b196 4c37 651f 4a37 fda7 4a37 1ab6 4337
000002e0: 2691 4137 047e 4537 2a92 4737 f090 4837
000002f0: d346 4837 e07a 4737 2863 4437 4630 4137
00000300: 0000 0000 0000 0000 0000 0000 0000 0000
00000310: 0000 0000 0000 0000 0000 0000 0000 0000
00000320: 0000 0000 0000 0000 0000 0000 0000 0000
00000330: 0000 0000 0000 0000 0000 0000 0000 0000
00000340: 0000 0000 0000 0000 e9ee 9621 4dbf 5521
00000350: a9df ef20 5342 1821 300d 2921 c9cf 5d21
00000360: 0000 0000 0000 0000 6a49 3c21 8d03 6720
00000370: 91ad c221 a435 b620 73b4 bb22 38e9 b422
00000380: 0000 0000 0000 0000 4e89 931e da7b 6121
00000390: a163 0d21 9e8b 151f 39bf d71d ba3a 4721
000003a0: 0000 0000 0000 0000 2adc 6721 a872 d620
000003b0: d6d1 171c 847f f21f fddb c521 4b0f 5620
000003c0: 0000 0000 0000 0000 6353 341d 74ab 7a1e
000003d0: c44b 7320 4db6 f520 ba84 2521 8727 8320
000003e0: 0000 0000 0000 0000 65e2 a521 46e7 c820
000003f0: ed77 3122 d5e5 9221 9499 1122 9963 131f
9.4847626e-14 1.2277794e-13 1.3680318e-13 1.4347707e-13 1.4977647e-13 1.5501305e-13 1.3255429e-13 1.263861e-13
8.130413e-13 8.378027e-13 8.886722e-13 7.141716e-13 6.2640686e-13 5.9248954e-13 5.30108e-13 5.209736e-13
2.475457e-13 2.83863e-13 2.975606e-13 1.8691297e-13 2.2414854e-13 2.6055818e-13 2.4820532e-13 3.037798e-13
1.5612847e-13 2.0188732e-13 2.1161955e-13 2.3823535e-13 3.1162245e-13 3.4303617e-13 2.6370166e-13 1.9979003e-13
3.34531e-13 3.563061e-13 4.151153e-13 2.656136e-13 2.9939956e-13 2.6981832e-13 3.4073766e-13 2.7077488e-13
1.9589236e-13 2.4245729e-13 2.5831765e-13 2.2588504e-13 2.5853113e-13 3.0192068e-13 2.3585872e-13 1.9179169e-13
9.036204e-14 1.05453644e-13 1.9574389e-13 2.2438814e-13 2.431698e-13 3.3882218e-13 4.128409e-13 4.2196582e-13
3.32535e-13 2.8154342e-13 3.2958917e-13 2.749066e-13 2.6327494e-13 2.3308859e-13 2.0279481e-13 1.8948161e-13
2.6527154e-05 2.6883255e-05 2.7114553e-05 2.729813e-05 2.712768e-05 2.6937669e-05 2.6681317e-05 2.6404128e-05
2.6726642e-05 2.716464e-05 2.7403701e-05 2.7523638e-05 2.7465965e-05 2.7223747e-05 2.6947408e-05 2.6595348e-05
2.693128e-05 2.7367798e-05 2.7585545e-05 2.7675673e-05 2.761617e-05 2.74611e-05 2.7175407e-05 2.6797363e-05
2.70904e-05 2.7547749e-05 2.7759099e-05 2.7849097e-05 2.7799822e-05 2.7596661e-05 2.731007e-05 2.6894197e-05
2.6994601e-05 2.7410657e-05 2.764215e-05 2.7772558e-05 2.7775259e-05 2.7612781e-05 2.7288881e-05 2.6892978e-05
2.6779722e-05 2.7238753e-05 2.752563e-05 2.7591257e-05 2.7561297e-05 2.7439111e-05 2.7161874e-05 2.6727457e-05
2.6488302e-05 2.698243e-05 2.724755e-05 2.7314883e-05 2.7253469e-05 2.7163676e-05 2.6879297e-05 2.6472784e-05
2.6237496e-05 2.6627218e-05 2.6764104e-05 2.6910135e-05 2.6803556e-05 2.6709911e-05 2.6417623e-05 2.6069247e-05
1.1595077e-05 1.16529745e-05 1.1964711e-05 1.1956222e-05 1.1889435e-05 1.1857815e-05 1.1671856e-05 1.1396808e-05
1.1780566e-05 1.187458e-05 1.1997882e-05 1.2098074e-05 1.2047904e-05 1.1922366e-05 1.1777639e-05 1.1526551e-05
1.1721252e-05 1.1961555e-05 1.2064058e-05 1.2167021e-05 1.22204165e-05 1.2005745e-05 1.18245425e-05 1.16764295e-05
1.1834032e-05 1.20942295e-05 1.2294375e-05 1.2277797e-05 1.2234594e-05 1.2161958e-05 1.204603e-05 1.1761597e-05
1.19481365e-05 1.2108878e-05 1.2258012e-05 1.2491647e-05 1.23625105e-05 1.226396e-05 1.2175196e-05 1.1946186e-05
1.1779049e-05 1.2075108e-05 1.2139014e-05 1.2279787e-05 1.241328e-05 1.2224112e-05 1.20274735e-05 1.202146e-05
1.1681039e-05 1.1870385e-05 1.2063234e-05 1.2121951e-05 1.2194433e-05 1.2047448e-05 1.2079251e-05 1.1665305e-05
1.1537491e-05 1.1771455e-05 1.1895356e-05 1.1954675e-05 1.1937419e-05 1.1889933e-05 1.1705597e-05 1.1514936e-05
0.0 0.0 0.0 0.0 0.0 0.0 0.0 0.0
0.0 0.0 0.0 0.0 0.0 0.0 0.0 0.0
0.0 0.0 1.0227634e-18 7.242039e-19 4.063618e-19 5.158738e-19 5.727688e-19 7.5152714e-19
0.0 0.0 6.379404e-19 1.9567636e-19 1.3191894e-18 3.0867496e-19 5.087751e-18 4.9036028e-18
0.0 0.0 1.5621018e-20 7.639688e-19 4.7904516e-19 3.1667466e-20 5.7107746e-21 6.7501547e-19
0.0 0.0 7.855723e-19 3.6328883e-19 5.0232916e-22 1.02701944e-19 1.340747e-18 1.8131565e-19
0.0 0.0 2.3865912e-21 1.32703455e-20 2.060797e-19 4.162525e-19 5.6079837e-19 2.221842e-19
0.0 0.0 1.1240761e-18 3.4034362e-19 2.4051461e-18 9.954181e-19 1.9732468e-18 3.1210846e-20

exp_avg f4 [1, 64, 8, 8]
00000000: b3cd 01b4 7e2c 91b3 8d9d 9fb3 a1ed 14b4
00000010: 2f9b 64b3 6a86 52b2 adf3 2533 5881 eab2
00000020: 196d 22b4 8335 51b4 d598 7fb4 1ca3 58b4
00000030: 61ca 28b3 34ca 3532 4f23 ebb2 9e62 cf33
00000040: 8b3e d9b3 2f7c 8f33 8a30 ef33 933f 8bb3
00000050: db93 72b3 bdc1 a5b2 8873 0eb4 44c9 a8b4
00000060: 2296 83b4 430e acb3 cb35 94b4 fae0 28b4
00000070: a6f0 16b3 9bfe 1333 0ab8 d2b2 8e8a 5db3
00000080: eba5 0232 273e 41b3 047f 0034 9357 c8b2
00000090: 0f6b e133 74da a833 f860 c633 1a9b a232
000000a0: c183 6db3 cd18 69b4 1a4f 29b4 13f2 61b3
000000b0: 07e0 90b3 e153 49b4 9e46 25b4 dec9 ceb3
000000c0: 891c ff33 ff41 9f33 5b7c c0b3 dfc8 6bb4
000000d0: b33b 8ab3 c68d 48b4 f44d 43b4 6f16 15b4
000000e0: f6fc 7ab4 376d e8b3 74dd 3ab4 d6f6 6ab4
000000f0: c2cd 26b4 3502 3fb4 ea3f 22b4 4c86 38b3
00000100: 232a 453a fcfd d439 c987 193a a358 823a
00000110: 8933 283a 0237 113a 8312 113a 7830 6f3a
00000120: 7308 393a 76b1 4c3a d7b1 f039 720a 263a
00000130: 593f 643a 074a 453a a930 103a 6f1c 3d3a
00000140: a877 363a eaa7 283a 0f0d 513a a1c9 263a
00000150: 47fb 273a 4f9c 2f3a 40a1 e939 9260 3b3a
00000160: 4b53 1c39 f09e 7c39 10d8 db39 b137 2b3a
00000170: a34a 203a 66f9 593a 6b19 0a3a f930 f839
00000180: dc54 d739 87d2 323a 265b 233a fc73 123a
00000190: 1ff4 203a 406d ed39 5366 1b3a 06c5 263a
000001a0: 56bd 9a39 8f82 cd39 dd50 bc39 20e1 423a
000001b0: ada3 563a a2d4 ec39 9245 0e3a fab5 3f3a
000001c0: 52b7 e039 7107 8939 b33b 253a e056 af39
000001d0: 8e2b 163a 333e 5a3a 7c31 1d3a 50ba 0a3a
000001e0: 943f 2ab9 97f5 75b9 ed6d a139 10ef 813a
000001f0: 6230 3b3a 4ca3 133a a4f6 403a ef20 083a
00000200: fa08 0a3a 2d30 ec39 f8d6 623a f854 2b3a
00000210: 8765 8139 164d d638 638d 673a d975 8439
00000220: 682d 4a3a da1b a8b5 f1fb 043a 20c2 ce39
00000230: 9241 8539 4033 2b39 b94a 9239 6b68 d139
00000240: d27c d539 f39f 5b3a 7918 493a 9547 6e39
00000250: c4c3 0b39 9411 083a d82a f139 5dda 293a
00000260: cb90 0f3a 801d e138 af45 e338 17e2 fe39
00000270: d896 343a 3a78 8339 0c63 b539 c184 7539
00000280: 8b76 bcb8 9b0f 003a 0705 e739 5ddd beb6
00000290: a0f4 d539 2cdd 1d39 d700 143a 6d69 a5b7
000002a0: 0c60 ce39 9b9c 8139 445a 0f3a 2583 f939
000002b0: 37d6 003a ed71 ca39 7db9 b839 adbd 423a
000002c0: 64ab 1a3a fb5c df39 93a9 3038 5fd9 cb39
000002d0: 1d54 5a39 7fa6 7139 adc6 03b9 ef9f 253a
000002e0: 3ea6 f139 ef90 10b9 7b2d 1b39 bd15 db39
000002f0: 656f 1a3a 94ee 9239 be38 093a fdd8 753a
00000300: 0000 0000 0000 0000 0000 0000 0000 0000
00000310: 0000 0000 0000 0000 0000 0000 0000 0000
00000320: 0000 0000 0000 0000 0000 0000 0000 0000
00000330: 0000 0000 0000 0000 0000 0000 0000 0000
00000340: 0000 0000 0000 0000 ffc4 5b31 66ee 3831
00000350: 1087 0a31 e114 1c31 a776 2431 3663 3c31
00000360: 0000 0000 0000 0000 6f91 2d31 6f41 c0b0
00000370: f597 79b1 f277 f1b0 3015 f5b1 489b f0b1
00000380: 0000 0000 0000 0000 4a48 d9af c7f0 3d31
00000390: 3268 1631 34af 1a30 5b60 832f 5d8a 3231
000003a0: 0000 0000 0000 0000 7d9b 4031 f3fa 0231
000003b0: 2fdb 9b2e 8948 8bb0 eb9f 7bb1 fd10 b9b0
000003c0: 0000 0000 0000 0000 efdb 292f 8944 c82f
000003d0: d74c c5b0 0c34 0c31 60bc 22b1 47dd cc30
000003e0: 0000 0000 0000 0000 c065 66b1 8d8d fdb0
000003f0: 0e82 a8b1 c8cf 58b1 57a1 98b1 ac90 19b0
-1.2088894e-07 -6.760182e-08 -7.432673e-08 -1.3870023e-07 -5.3226525e-08 -1.2254171e-08 3.8638678e-08 -2.7300004e-08
-1.5127115e-07 -1.9484109e-07 -2.3804326e-07 -2.0175906e-07 -3.929961e-08 1.0581562e-08 -2.7373657e-08 9.657127e-08
-1.01162264e-07 6.681545e-08 1.1138134e-07 -6.484256e-08 -5.647949e-08 -1.929663e-08 -1.326681e-07 -3.1438879e-07
-2.4509887e-07 -8.011968e-08 -2.7606288e-07 -1.5728065e-07 -3.5143465e-08 3.4457667e-08 -2.4530909e-08 -5.1581587e-08
7.604721e-09 -4.499284e-08 1.1967137e-07 -2.3322889e-08 1.0496853e-07 7.862846e-08 9.237732e-08 1.8929814e-08
-5.5300692e-08 -2.1708838e-07 -1.5768128e-07 -5.260706e-08 -6.746273e-08 -1.8750099e-07 -1.5392513e-07 -9.629342e-08
1.1879553e-07 7.416019e-08 -8.963317e-08 -2.1959157e-07 -6.436985e-08 -1.8678028e-07 -1.818915e-07 -1.3884868e-07
-2.3375091e-07 -1.0823208e-07 -1.7403164e-07 -2.1882747e-07 -1.5534809e-07 -1.7789064e-07 -1.5110678e-07 -4.296298e-08
0.00075212325 0.00040625024 0.00058567204 0.0009944629 0.0006416371 0.0005539508 0.00055340695 0.0009124349
0.0007058449 0.0007808426 0.00045908868 0.0006333954 0.00087069493 0.00075259845 0.0005500415 0.0007214015
0.0006960579 0.00064337126 0.0007974663 0.00063624425 0.00064079877 0.0006699012 0.00044561364 0.0007147874
0.00014908348 0.00024091802 0.00041931914 0.0006531431 0.00061146374 0.00083150563 0.000526807 0.00047338734
0.0004107122 0.0006821532 0.0006231539 0.0005586741 0.00061398925 0.0004528556 0.0005928028 0.0006361756
0.00029514235 0.0003919792 0.00035918402 0.0007434059 0.0008187842 0.00045171852 0.0005427237 0.00073131884
0.00042861194 0.0002613622 0.00063031464 0.00033443328 0.0005728536 0.00083253084 0.00059964485 0.0005292045
-0.00016236148 -0.0002345651 0.00030790214 0.0009913165 0.00071406935 0.0005631938 0.0007360971 0.0005192896
0.000526562 0.00045049321 0.00086532487 0.00065357937 0.0002468044 0.000102186736 0.0008833019 0.00025264805
0.00077124545 -1.2525081e-06 0.00050729426 0.00039436016 0.0002541659 0.00016326923 0.00027902963 0.00039941384
0.00040719524 0.00083780213 0.0007671188 0.00022724115 0.00013329001 0.00051906076 0.00045999023 0.0006479377
0.0005476593 0.00010734331 0.00010837183 0.00048615105 0.00068889325 0.00025075843 0.00034596806 0.00023414475
-8.986619e-05 0.0004885138 0.000440635 -5.6882113e-06 0.00040808786 0.0001505508 0.0005645877 -1.9718625e-05
0.00039362942 0.00024721478 0.0005468468 0.0004759069 0.0004914733 0.00038613324 0.00035233414 0.00074287766
0.0005900173 0.0004260315 4.21196e-05 0.0003888113 0.00020821435 0.00023045576 -0.00012567146 0.00063180825
0.00046090962 -0.00013786902 0.00014798895 0.0004178713 0.0005891233 0.00028025045 0.00052345905 0.0009378342
0.0 0.0 0.0 0.0 0.0 0.0 0.0 0.0
0.0 0.0 0.0 0.0 0.0 0.0 0.0 0.0
0.0 0.0 3.1980674e-09 2.6911038e-09 2.0158417e-09 2.2712856e-09 2.3932587e-09 2.7413996e-09
0.0 0.0 2.5257483e-09 -1.3988436e-09 -3.6320646e-09 -1.7569148e-09 -7.132847e-09 -7.0025727e-09
0.0 0.0 -3.9523435e-10 2.7639986e-09 2.18871e-09 5.627385e-10 2.3897226e-10 2.598106e-09
0.0 0.0 2.8028062e-09 1.9060138e-09 7.087519e-11 -1.0134197e-09 -3.661621e-09 -1.346535e-09
0.0 0.0 1.5448597e-10 3.6428485e-10 -1.4355476e-09 2.0402267e-09 -2.3681181e-09 1.4905844e-09
0.0 0.0 -3.3527243e-09 -1.8448404e-09 -4.904229e-09 -3.1550247e-09 -4.4421244e-09 -5.5866667e-10
