pre-trained/DCT8_soft-thr_L2_rnd-init_2000.pt (torch_old, 526450 bytes, 10 tensors)

weight f4 [64, 1, 8, 8]
00000000: ea2d 773d ee53 7a3e 029d 6dbc 9ac2 7dbd
00000010: 8825 1cbd 8654 a43a dda1 c13c 05cc 473d
00000020: afc0 35be d3f1 283e 4fae a13d 5b46 0bbd
00000030: 94d3 2e3e eff7 683b 9f26 0d3e d00b 0ebe
00000040: 37ed 13be a727 d2bd 0b2c 21be a570 58bd
00000050: 905e 7bbd f9a7 72be 2257 acbd 02ca 10be
00000060: 46e5 6b3c d491 17be 3a8c d9bd 4665 23be
00000070: 1699 3abe bb3a 08bf 6492 3dbe 5709 f03c
00000080: 91ee 073e 4266 443c 92e2 453e 234e 2b3e
00000090: 14d8 cb3e 8726 d53d 9c47 073d 4a81 933e
000000a0: 7edc 493d 51b2 6d3d 10a1 9f3c cf17 ef3d
000000b0: e4d9 d53e 8ff9 9b3e 05dc 343e 6dc6 d6bc
000000c0: 0610 8abd 1f4d f0bd 7094 0bbd ec8a 4cbc
000000d0: 7719 87be 5f66 61be 9d2b c8bc 05ed 62be
000000e0: d4c2 89bd 0661 533d 48a7 ea3d 3cfc 8c3c
000000f0: ddc4 97bc 22ac e13c e7e3 083e 3f06 043e
00000100: a5cb 0ebc 12e3 013d a1f8 00bd a2c3 42bd
00000110: bd92 9fbc 3e0d b7bd f45e 493d 157c bdbb
00000120: c59b 80bd f6f9 0dbe 4fba d1bd bb9a 3cbd
00000130: f5f0 873c 3cf6 78be 7ea2 b6bd c328 ddbc
00000140: 3972 4ebd 6ddf c43b 8817 84bd 2748 a83c
00000150: adb1 de3d e843 513b 498e c4bd 6f3c 623d
00000160: 739b 853d 5323 4cbc 16f5 33bd ec84 3bbd
00000170: a49a 94bd 0f22 dfbd 265e dbbd cdfb a43c
00000180: eb1b 07be 461d 1dbd 45ac c0bd febe 29be
00000190: 25ba cebc 4697 9e3c c078 88bd feba cfbd
000001a0: ad31 0fbc 63d6 aabb f8b0 c7bd b7c3 863d
000001b0: 96bc 2ebd fc94 e1bd f70a 06be 85a8 17bd
000001c0: fac3 d7bd f8b3 e5bd bda8 4d3b 3193 22be
000001d0: 4d89 cabc 7de9 c0bd db1b 13be 1a8a 02be
000001e0: 4e1e 03be 5c31 c2bb e91f b0bc 7344 9cbd
000001f0: 9b79 94bd 197a 36be 599f f8bd 2f50 abbd
00000200: 970e 72bd 07bf 02bc f67c 01bd 00f4 2abd
00000210: 5bcf 1cbe fe39 25be e109 f7bd d411 98bd
00000220: 2e95 19bd 6cec fe3d 7970 90be fb46 c7bd
00000230: 1342 4abd f7d6 d3bd 47a7 20bd e565 7ebc
00000240: 8947 8ebc 9638 623c 330f cf3d fcb7 fabd
00000250: f5d0 56bd 42ed dabb 1116 bfbd 5dff cbbd
00000260: 03e8 d0bd 286f 34be 99db 593c 70c2 f0bc
00000270: 0b8e 063d 5fc5 2dbe d468 82bc a924 2bbd
00000280: 8519 78bd 4688 29bc 0e8a 313d d431 753d
00000290: 0b77 01be add9 ce3c 818c a5bc 404e 053e
000002a0: c4e6 55bc ea3d a23d 8e33 aebc ba1b 52be
000002b0: 84b2 e43b aa6f 4abe 5fee e13b 6694 cabd
000002c0: 1689 46be be66 77bc 1f2a cabc 768f a5be
000002d0: 4ec6 35be c125 d3bd bf1d 57bd dff8 19be
000002e0: 38c3 c03d fe81 53be 1437 8cbd 7f73 1c3d
000002f0: cf81 fdbd 8ba3 aabd d094 28be a85f 7dbc
00000300: 565e a6bc 12d3 afbd e1e2 cabd 8a81 12bd
00000310: 04fe bc3a ddde bf3c 5294 15be f007 aebd
00000320: ea23 cf3c c043 783d 4a3d 643d 8fd5 7a3d
00000330: 8f82 bb3d ec92 a1bd 8d48 003e 71b8 be3b
00000340: 50d5 023e f6b0 9cbd 5eb1 0f3e bd06 d9bd
00000350: 09c2 69bd cecc d3bd c58d 9eb8 27a9 44bd
00000360: 7805 f3bc c6ba 07be c639 97bd 9766 a03c
00000370: 73c5 fb3d 53c0 a53c f08e 1fbe a9c2 0b3e
00000380: a477 0a3d aada 1abe e744 003d c423 933d
00000390: 19ca 42bc 18d6 bb3d 588c 7a3c 32b7 b73d
000003a0: ef39 573d e48f 0d3e ecb7 1a3d e032 88bd
000003b0: e7ce 15bd dffa 223c 14c9 58be 085d e9bd
000003c0: d089 a7bc 02cc e53d cbad f1bd 507e 993d
000003d0: 4bed 483d 46b6 37bd cff4 253e f33d 6dbd
000003e0: f4cd 6ebd 5a18 32be d8cc 733e e4c2 b63c
000003f0: 6f11 83bd f348 683d f2c2 68bd b69e 8dbc
0.06034652 0.24446079 -0.014502766 -0.061953165 -0.03812173 0.0012537397 0.023636753 0.048778553
-0.17749284 0.16498499 0.07894575 -0.034002643 0.17072898 0.003554817 0.13784264 -0.13871694
-0.14445959 -0.10261469 -0.15739457 -0.0528418 -0.06136948 -0.23696889 -0.08415057 -0.1413956
0.014397925 -0.14801723 -0.10622449 -0.15956602 -0.1822246 -0.53214616 -0.18512875 0.029301329
0.132746 0.011987271 0.19324711 0.16729026 0.39813292 0.10407739 0.033027276 0.28809577
0.049282543 0.058031384 0.01948598 0.11674463 0.417678 0.30463836 0.17662056 -0.026217664
-0.067413375 -0.1173346 -0.034077108 -0.012484293 -0.26386616 -0.22011708 -0.024434859 -0.22160728
-0.06726614 0.0516062 0.114576876 0.017210118 -0.018526489 0.0275479 0.13368188 0.12893008
-0.008715545 0.03171069 -0.03148711 -0.04754985 -0.01947915 -0.089380726 0.04916282 -0.005782614
-0.06279711 -0.13864884 -0.10240614 -0.046046 0.01659439 -0.24312681 -0.08917712 -0.026996976
-0.0504019 0.0060080797 -0.06449801 0.020542217 0.10873733 0.0031931344 -0.09597451 0.055233415
0.0652379 -0.012459594 -0.043934904 -0.04578106 -0.07256058 -0.10895168 -0.10711317 0.0201396
-0.13194244 -0.038357995 -0.09407858 -0.16576764 -0.025235245 0.019359242 -0.06663656 -0.10143088
-0.008739871 -0.005213545 -0.09750551 0.065802984 -0.04266032 -0.11014745 -0.1309012 -0.037025947
-0.105354264 -0.11215967 0.0031381093 -0.15876462 -0.024723673 -0.09419534 -0.14366095 -0.12747994
-0.12804529 -0.0059262943 -0.021499591 -0.07630243 -0.07249757 -0.17820014 -0.12139768 -0.08364903
-0.059095945 -0.007980115 -0.031613313 -0.041736603 -0.15313475 -0.16135404 -0.12062431 -0.074252754
-0.037495784 0.12447438 -0.2821081 -0.09730335 -0.04937942 -0.10343736 -0.039222028 -0.015527223
-0.017368095 0.013807436 0.10110321 -0.122421235 -0.05244537 -0.0066811154 -0.09330381 -0.09960816
-0.10200503 -0.17620528 0.013296985 -0.02938959 0.032850306 -0.16969822 -0.015919127 -0.04178301
-0.060571212 -0.0103474315 0.04334455 0.059861973 -0.12643068 0.02525028 -0.020208599 0.13018131
-0.013055507 0.079219654 -0.021264818 -0.2051839 0.0069792885 -0.19769159 0.006894871 -0.09891586
-0.19388232 -0.015100179 -0.024678288 -0.32336015 -0.17751428 -0.10309935 -0.052518602 -0.15036343
0.09412235 -0.20655057 -0.06846443 0.038196083 -0.12378275 -0.083319746 -0.16463017 -0.015464701
-0.020308655 -0.0858518 -0.09906555 -0.03576807 0.0014418964 0.0234217 -0.14607361 -0.08497608
0.02528568 0.060611486 0.055722512 0.06123882 0.091557615 -0.07889351 0.12527676 0.005820327
0.12776685 -0.0765094 0.14032504 -0.10596988 -0.057069812 -0.10341798 -7.560434e-05 -0.04801288
-0.029665694 -0.13254842 -0.07384066 0.019580169 0.1229352 0.020233309 -0.1558187 0.13648476
0.033805504 -0.15122476 0.03131571 0.07184556 -0.011889004 0.091716945 0.01529225 0.089704886
0.052545484 0.13824421 0.037773058 -0.06650329 -0.03657427 0.009947508 -0.21170455 -0.113946974
-0.020451456 0.11220552 -0.118007265 0.07494795 0.049054425 -0.044851564 0.16206668 -0.057920408
-0.05830188 -0.17392102 0.2380861 0.022309728 -0.063998096 0.056710195 -0.05682654 -0.017287593

bias f4 [64]
00000000: 387f 273f c18e 35be 588f f4bc 76f3 d33d
00000010: 422e 44bf 0720 ae3d 7af2 a6bd 5696 553d
00000020: 7c47 353d ccf1 46bf 4a04 643b 9fe4 9abd
00000030: 6d51 c2bc 3aeb 103d 9556 b33c 12a5 15bf
00000040: d735 e73d 6dc9 31bf 99f4 9f3d 36c2 c2bd
00000050: 7073 3bbd 598f f03d 33bd 873b 4d78 553d
00000060: 7961 5dbd ae65 1b3e fad8 c9bd 5665 413f
00000070: b515 a33d e259 303f 38aa 283d 3b34 603e
00000080: 80b3 423e 1144 05be 45c8 f6bc d873 033e
00000090: 59c4 723f 74ee 8e3c 8cab 2fbd c05f d83b
000000a0: 3d0c dcbd fc67 813e 6eca 033c 827e 8f3e
000000b0: 49e0 c63d 59a9 4fbd 80c7 923c dea1 d4bd
000000c0: 79dd fdbc 2e23 ed3d 1502 a53d 0780 7fbe
000000d0: 1376 99bd ed4a 2b3e 4e09 37bc e2db 78bd
000000e0: aa5c afbc 3d1f cb3d fa13 e23d 09c6 c2bd
000000f0: 55a3 6bbd 8295 c63d 3568 dabe d8de 50bd
0.65428495 -0.17730238 -0.029853508 0.10349171 -0.76633084 0.085022025 -0.081517175 0.052145325
0.044257626 -0.777127 0.0034792596 -0.07563137 -0.023720467 0.03538058 0.021891871 -0.58455
0.11289566 -0.69447976 0.07810325 -0.09509699 -0.045764387 0.117460914 0.0041424274 0.05211668
-0.054048035 0.15175506 -0.09855838 0.7554525 0.07963125 0.6888715 0.04117796 0.21894924
0.19013786 -0.13014247 -0.030124793 0.1283716 0.9483085 0.017447688 -0.04288821 0.006603211
-0.10744522 0.25274646 0.0080438685 0.28026205 0.09710748 -0.050698612 0.017917395 -0.10382436
-0.030989395 0.115789756 0.08057038 -0.24951182 -0.07493224 0.167278 -0.011171652 -0.06075657
-0.02140649 0.099180676 0.110389665 -0.095104285 -0.057528812 0.09696485 -0.4265763 -0.05099377

weight f4 [1, 64, 8, 8]
00000000: abd0 e33a a701 2b3c 1f47 963b 2921 0cbc
00000010: 77a1 ccbb 0461 443c 3d32 043b 9be5 90bb
00000020: 7ab0 99bc 9228 24bb eeba e6bc 8db2 e7bc
00000030: ab0a 89ba 68c2 e1ba 2e4f 98bc 0f51 5eba
00000040: 8545 debb 8915 403c e0f6 043d 1a07 203d
00000050: 3959 c73b 0869 f3bb 06f7 1039 2f63 d13b
00000060: c1f8 dc3c 2af6 063c 00ff 4b3c 019a 673d
00000070: 5b58 703c 833a 563c 172c 2d3a 4558 0d3c
00000080: 8d59 9a3c 168c 9bbc 0e15 8abd 40ad ebbc
00000090: 7b4f 9ebc 4f41 e3bb ac08 1dbc 59ab 4b3c
000000a0: 200b 85bc e759 c7bb e53a 8fbc 32a5 61bb
000000b0: 7ca1 91bb 0128 36bc fb36 52bc 792a 04bc
000000c0: fc6d 9abc 88ce 553c cc88 073c 4528 5c3c
000000d0: 64b6 b1bb e6e3 6d3b ddb1 b53c c396 96bc
000000e0: 22af d73b b735 bd3b 66ea b0bb 63c5 93bb
000000f0: 4124 73bc 557c 143b 54df e13c 52c4 a53b
00000100: e7f9 50bd 9194 b0bd cf9f a03d dcf7 30bd
00000110: 1a8b 093d 90c5 9b3d 59f2 863d 64c3 423c
00000120: 2efc 87bd 6df8 55bc 273c 40bd faac 4abc
00000130: 44f8 74bc d30c 8bbd 3c9f 94bd 57f5 133a
00000140: bb0b 97bc fa38 003e ddbe c0bd 530e e2bc
00000150: 6842 05bd 42ea 173e 804a 093d 0de9 193e
00000160: f320 e3bb f018 9abd c947 373e 6972 c03d
00000170: 311e 68be a5f1 9e3c b83f 12bb 5729 fdbd
00000180: 042a f23d 8cd2 0cbe f295 a73d e9e5 c0bd
00000190: eca2 8b3d d344 ec3d d762 16bd 5385 67bd
000001a0: 5fa0 593d 34b8 33be 134f 583c 5ff7 f8bd
000001b0: 0971 16bd e11a 433d bd40 35bd 26aa 34bd
000001c0: dc5a 053d b8ba a9bc 875d 123e b03d a03c
000001d0: d9e0 c03d cd5e 90bc 9bbe 143d 69d8 e2bc
000001e0: e6d3 fe3c 00f7 dabd c67d 4e3d 0903 ee3d
000001f0: 19cb 5f3d 929f fc3c 1a72 91bd 5f42 0b3e
00000200: eae2 b83d ba38 e4bc c519 d33d bfc8 3fba
00000210: 8e79 53bd 50d9 b9bd 3c7f c73d 96c9 c83c
00000220: b019 9f3d 73e8 a6bd 6bbb 703d c21c a2bd
00000230: 2427 c93d c73f 443d 46fe 75bd 2939 97bd
00000240: 3915 ef3d 7277 20bc 9c03 283e 1a21 7bbd
00000250: 3438 b9bd 3b74 60bd 237d 493e 0266 243c
00000260: 1ca7 b93c 07d8 1ebe 5fb7 3e3d b101 ae3c
00000270: a568 bf3c 5def 40bd 39eb bb3c a4ef 95bd
00000280: d511 65bd a374 4c3d 48c4 c5bc 76b7 17be
00000290: 9971 393b ff1d 3fbe b9fe 713b b73b 313c
000002a0: 0edf 4cbb f4db e63b c75f babd fb87 b73d
000002b0: f2c3 203e dea6 13bd ef07 d5bd 9533 623c
000002c0: 97b8 7e3d 5bdd b4ba bd93 0cbd a61a d0bd
000002d0: 9c5b 89bd 2571 39bd a65a 3fbe 7501 e23c
000002e0: 2cea 223d 9323 85bd d130 dc3c 5bb1 85bd
000002f0: 243c b63c 0c8d dd3c 4a76 00be 6203 c83d
00000300: 4afc 82be c06b df3d b1cd 3abc 0fa9 0e3d
00000310: 3219 283e 6fa4 30bd 62ac 81be 0352 6e3c
00000320: c5de dc3b 580a 03bd 2de0 453d 4d46 a9bc
00000330: 00f7 d13c 7304 e23d 59d1 9b3d bb33 06be
00000340: 5a18 d8bc 6889 7dbd 245c 263e fc73 3a3e
00000350: 8219 f33d 3a1b 1fbe f4b9 813b b1d0 c73c
00000360: c1ca 57be e24c 933e fc31 cc3c 8b6a cebd
00000370: c67d 2d3e 1f06 aebd e1e1 eebd 7d0e 3dbe
00000380: de13 f53d 759e 9e3d 8908 8ebd 4010 263e
00000390: 8872 993d ba53 0b3e c6ea 88be 8751 fdbd
000003a0: 449c b7bc cee7 17be 0425 6abe aa60 0dbd
000003b0: 02e3 babd a690 8b3d c1a3 473e 44ba 5ebd
000003c0: bc37 fdbb eb09 08bd 2ba2 ee3c 0751 2c3e
000003d0: 798e dcbd 533d f2bd 5fe2 7f3d c51e 46be
000003e0: be94 7ebb 35c4 7bbc 1b32 e83d bfad 323d
000003f0: ee23 d5bd 5412 843d e9aa c7bd 1ab2 3d3e
0.0017380913 0.010437406 0.004586115 -0.008552828 -0.006244834 0.011986021 0.0020171546 -0.0044219024
-0.018760908 -0.0025048596 -0.028165307 -0.028283382 -0.001045545 -0.0017224075 -0.018592443 -0.00084807066
-0.0067831897 0.011723884 0.032462 0.039069273 0.006083634 -0.007428292 0.00013824934 0.0063899974
0.026974084 0.008237401 0.012450933 0.056543354 0.014669503 0.013075474 0.0006605996 0.008627002
0.01884153 -0.018987697 -0.06742297 -0.028769135 -0.019325009 -0.0069352756 -0.009584587 0.012430989
-0.016240656 -0.0060837152 -0.017484138 -0.003443074 -0.0044442993 -0.011117936 -0.012830491 -0.008066767
-0.018851273 0.013049729 0.008272361 0.013437335 -0.005423354 0.0036299168 0.022179538 -0.018382436
0.0065821568 0.0057742256 -0.005399036 -0.0045096143 -0.014840187 0.0022657115 0.027572311 0.0050588036
-0.051019575 -0.08622087 0.07842981 -0.043205127 0.033579923 0.076060414 0.06589193 0.011887405
-0.06639896 -0.013059718 -0.046932366 -0.012370342 -0.014951769 -0.067895554 -0.07256934 0.00056441635
-0.01843821 0.12521735 -0.09411404 -0.027594721 -0.032534033 0.14835456 0.033518314 0.15030308
-0.006931418 -0.07524288 0.17898478 0.09396822 -0.22667767 0.019402334 -0.0022315811 -0.123614006
0.1182442 -0.13752192 0.08182897 -0.09418852 0.06818184 0.11536565 -0.036715355 -0.056523632
0.053131457 -0.17550737 0.0132024465 -0.12156557 -0.036728892 0.047633056 -0.044251192 -0.04410758
0.032557353 -0.020718917 0.1429349 0.019560665 0.09417886 -0.01762333 0.036314588 -0.027691083
0.0311069 -0.10691643 0.050412916 0.11621673 0.05463705 0.030837808 -0.07101841 0.13599537
0.090276554 -0.02785908 0.103076495 -0.0007315985 -0.051629595 -0.09074652 0.09741065 0.024510186
0.077685714 -0.08149805 0.058772486 -0.07915641 0.098219186 0.047912385 -0.060056947 -0.07383949
0.1167397 -0.009794103 0.16407627 -0.061310865 -0.09043923 -0.054798346 0.19676642 0.010034086
0.022662692 -0.15512095 0.046561595 0.02124104 0.023365328 -0.047103275 0.022939311 -0.073210984
-0.05592521 0.04991592 -0.024141446 -0.14816079 0.002829647 -0.18663786 0.0036925508 0.01081746
-0.003126088 0.0070452634 -0.09100299 0.08961483 0.15699747 -0.03604781 -0.10401904 0.013806243
0.062187757 -0.0013798879 -0.03432058 -0.10161333 -0.06706926 -0.04527392 -0.18686923 0.027588585
0.039774105 -0.06500926 0.026878746 -0.065279685 0.022245474 0.027044795 -0.12545124 0.0976627
-0.25583106 0.109092236 -0.01140158 0.034829196 0.16415861 -0.043125566 -0.2532683 0.01454592
0.0067404234 -0.031992286 0.048309494 -0.020663405 0.025630474 0.11036005 0.07608289 -0.13105671
-0.0263788 -0.06189862 0.16246086 0.18208307 0.118700996 -0.1553773 0.003958935 0.024391504
-0.21073438 0.28769594 0.024926178 -0.10078915 0.1694251 -0.08497261 -0.11664177 -0.18462558
0.1196668 0.07745067 -0.06935222 0.16217136 0.07492548 0.13606158 -0.26741618 -0.12369066
-0.02241338 -0.1483452 -0.22865683 -0.034516014 -0.091253296 0.06814699 0.19496061 -0.054376855
-0.0077275913 -0.033212584 0.029130062 0.16827784 -0.10769362 -0.11828103 0.062471744 -0.19347675
-0.0038845981 -0.015366604 0.11337682 0.04362273 -0.10407244 0.06448808 -0.097493954 0.18524972

thr f4 [1, 64, 1, 1]
00000000: 0000 803f 0000 803f 0000 803f 0000 803f
00000010: 0000 803f 0000 803f 0000 803f 0000 803f
00000020: 0000 803f 0000 803f 0000 803f 0000 803f
00000030: 0000 803f 0000 803f 0000 803f 0000 803f
00000040: 0000 803f 0000 803f 0000 803f 0000 803f
00000050: 0000 803f 0000 803f 0000 803f 0000 803f
00000060: 0000 803f 0000 803f 0000 803f 0000 803f
00000070: 0000 803f 0000 803f 0000 803f 0000 803f
00000080: 0000 803f 0000 803f 0000 803f 0000 803f
00000090: 0000 803f 0000 803f 0000 803f 0000 803f
000000a0: 0000 803f 0000 803f 0000 803f 0000 803f
000000b0: 0000 803f 0000 803f 0000 803f 0000 803f
000000c0: 0000 803f 0000 803f 0000 803f 0000 803f
000000d0: 0000 803f 0000 803f 0000 803f 0000 803f
000000e0: 0000 803f 0000 803f 0000 803f 0000 803f
000000f0: 0000 803f 0000 803f 0000 803f 0000 803f
1.0 1.0 1.0 1.0 1.0 1.0 1.0 1.0
1.0 1.0 1.0 1.0 1.0 1.0 1.0 1.0
1.0 1.0 1.0 1.0 1.0 1.0 1.0 1.0
1.0 1.0 1.0 1.0 1.0 1.0 1.0 1.0
1.0 1.0 1.0 1.0 1.0 1.0 1.0 1.0
1.0 1.0 1.0 1.0 1.0 1.0 1.0 1.0
1.0 1.0 1.0 1.0 1.0 1.0 1.0 1.0
1.0 1.0 1.0 1.0 1.0 1.0 1.0 1.0

exp_avg_sq f4 [64, 1, 8, 8]
00000000: 73b6 1a30 8fc3 2c30 0664 1830 0136 0f30
00000010: 37d7 0f30 6bec 1130 4550 1730 2ad8 1630
00000020: c7c5 0330 78ab 1b30 6c35 1630 1558 0f30
00000030: 9d32 1d30 4ed6 1330 959a 1630 9f1d 0330
00000040: dac7 ee2f 9f5c ee2f 6485 f02f a36b fa2f
00000050: 4385 f62f ed3c d92f 62c0 ee2f 99c3 ef2f
00000060: 154b 0d30 b407 0030 e1c9 0530 bf0e 0230
00000070: 5554 0430 a600 c42f 682e f02f bc84 1230
00000080: 75e9 3230 7765 3030 4bba 3f30 9af3 4a30
00000090: f34b 6d30 2b2f 5130 4fda 3f30 9d98 4730
000000a0: 3839 2f30 e06d 3030 a2d4 3630 5c66 4830
000000b0: acb1 6830 7258 5c30 b1b2 4830 cd3c 3230
000000c0: 8693 1b30 7664 1830 82e4 2430 55bb 2730
000000d0: 6fc6 1530 ac48 1330 0b3c 2130 5b5f 1430
000000e0: 9247 2330 9479 3130 9c44 4330 f748 3f30
000000f0: 27e9 3730 6e38 3930 8681 4d30 731d 4d30
00000100: 6567 c433 fe52 c833 20c0 c733 2c1d c733
00000110: 0563 c433 f4b1 be33 0b99 bc33 dba3 b333
00000120: f6cc c233 a385 c433 3682 c433 8883 c333
00000130: 6c13 bf33 b297 bc33 e234 b833 2184 b133
00000140: 66e5 bf33 9d43 c133 be2a c033 6809 bf33
00000150: f09a bf33 926a b833 f7e0 b733 bd19 ad33
00000160: e786 bc33 376d bb33 2aa1 bc33 ce96 b833
00000170: 0ba6 b533 7717 b233 8f31 b133 287a a933
00000180: df44 ba33 cd39 ba33 bd5d b833 4849 bc33
00000190: e8d5 b033 80f6 ad33 92b9 a833 042f a333
000001a0: e306 b433 7566 b533 c1d2 b333 97fe af33
000001b0: 4690 ac33 ad2a a733 21b7 a233 b94c 9d33
000001c0: 672d af33 1733 b033 0bba ad33 d347 a933
000001d0: 4fe2 a533 addb a333 7fdd 9d33 e020 9a33
000001e0: 961a ac33 3c3b aa33 bd38 a733 4a4a a633
000001f0: b49c a133 c755 9d33 03d9 9933 b36f 9533
00000200: 4915 8a36 8431 8b36 3c08 8c36 3e8f 8c36
00000210: 9964 8c36 c176 8b36 cc8e 8936 5247 8736
00000220: 68ae 8a36 c546 8c36 f680 8d36 c194 8d36
00000230: a90b 8d36 84f0 8b36 f21e 8a36 bedf 8736
00000240: 04cd 8a36 2935 8c36 b916 8d36 cbbd 8d36
00000250: b034 8d36 2ea5 8b36 5335 8a36 47f0 8736
00000260: 8ab0 8a36 d901 8c36 adab 8c36 8afa 8c36
00000270: 2c5e 8c36 8652 8b36 1353 8936 342d 8736
00000280: e989 8936 bce4 8a36 f995 8b36 26bf 8b36
00000290: 3e6b 8b36 bdef 8936 ed25 8836 33ce 8536
000002a0: 37ce 8836 a0b2 8936 ff51 8a36 01c7 8a36
000002b0: 98cd 8936 452b 8936 5ad0 8636 b9f4 8436
000002c0: 3011 8736 9def 8736 8b97 8836 de80 8936
000002d0: e27e 8836 1c35 8736 e349 8536 14a6 8336
000002e0: d52d 8536 d222 8636 2245 8636 6b53 8636
000002f0: b81e 8636 c009 8536 047f 8336 2f86 8136
00000300: ff8e 0a23 0c5a 7f24 ff0f 7124 5343 7024
00000310: 6f32 2324 a28c a323 6956 8524 839f ab23
00000320: 6389 6224 52b3 b424 e7c8 a924 5ab2 8f24
00000330: a519 0925 d187 e624 8ed7 0c25 e41e ca24
00000340: b39b 3924 2635 4224 7047 b624 760d 5324
00000350: baf4 6424 e953 7524 0913 5124 bd16 b124
00000360: fbda 3524 64c0 8a24 abce 6a24 35ef ff23
00000370: f12f 8624 ed9a a424 c37b c524 92e8 0325
00000380: 7153 1a24 dedd 9624 02c7 a224 0d03 9f24
00000390: 48bd 4c24 3190 3724 862b aa24 4f9a 4224
000003a0: ff43 8024 be6c 4824 c876 0d24 a3e2 a023
000003b0: f7b7 e023 8732 6324 8b50 6d24 b39c 1824
000003c0: 7826 e623 e505 8324 c2c6 7e24 3894 b424
000003d0: fa6d 0e24 5d32 4524 135c af23 eeb7 b824
000003e0: 704c 2223 ab93 9423 a1e5 ae24 5bc9 aa24
000003f0: 9155 9f24 ead6 9023 59a7 0424 a142 ca23
5.628415e-10 6.285114e-10 5.543942e-10 5.209984e-10 5.2328936e-10 5.3086663e-10 5.504755e-10 5.487687e-10
4.793858e-10 5.6632343e-10 5.46456e-10 5.214827e-10 5.7188193e-10 5.3782834e-10 5.4789356e-10 4.7699616e-10
4.343395e-10 4.335776e-10 4.3750525e-10 4.5551216e-10 4.4841827e-10 3.951536e-10 4.3428644e-10 4.3612827e-10
5.14022e-10 4.6577076e-10 4.8672005e-10 4.731468e-10 4.8141163e-10 3.5652653e-10 4.368872e-10 5.330312e-10
6.5087785e-10 6.4172617e-10 6.9750133e-10 7.383335e-10 8.632803e-10 7.6100787e-10 6.979563e-10 7.2612655e-10
6.374594e-10 6.418457e-10 6.6513384e-10 7.290504e-10 8.4653595e-10 8.016122e-10 7.301351e-10 6.4842426e-10
5.6598315e-10 5.544004e-10 5.998758e-10 6.102046e-10 5.4487875e-10 5.358156e-10 5.8656785e-10 5.3977595e-10
5.940076e-10 6.4565e-10 7.1038087e-10 6.9589084e-10 6.690634e-10 6.73828e-10 7.476263e-10 7.4620415e-10
9.1457686e-08 9.328322e-08 9.301607e-08 9.271966e-08 9.144973e-08 8.879934e-08 8.7822706e-08 8.365142e-08
9.071111e-08 9.1512696e-08 9.1506465e-08 9.1043205e-08 8.8976634e-08 8.7820254e-08 8.577787e-08 8.266239e-08
8.935858e-08 8.9995616e-08 8.9484715e-08 8.8958416e-08 8.9223136e-08 8.587553e-08 8.5625224e-08 8.060622e-08
8.778971e-08 8.727732e-08 8.783748e-08 8.595599e-08 8.458672e-08 8.293039e-08 8.2512194e-08 7.891896e-08
8.6738275e-08 8.671814e-08 8.5852186e-08 8.767762e-08 8.234548e-08 8.1007784e-08 7.856865e-08 7.598831e-08
8.383156e-08 8.447106e-08 8.373673e-08 8.195382e-08 8.035617e-08 7.784306e-08 7.577024e-08 7.324838e-08
8.157331e-08 8.204932e-08 8.089781e-08 7.8827405e-08 7.7245765e-08 7.630238e-08 7.351172e-08 7.177164e-08
8.01421e-08 7.9270166e-08 7.786864e-08 7.7434905e-08 7.525651e-08 7.326485e-08 7.164092e-08 6.958671e-08
4.1151984e-06 4.148287e-06 4.1732837e-06 4.1890007e-06 4.1840362e-06 4.1563476e-06 4.099542e-06 4.0316163e-06
4.133024e-06 4.180564e-06 4.2171405e-06 4.2194447e-06 4.203485e-06 4.1705225e-06 4.116323e-06 4.0493605e-06
4.1365874e-06 4.178514e-06 4.2047727e-06 4.2242223e-06 4.208261e-06 4.1617523e-06 4.1189282e-06 4.0512855e-06
4.1332723e-06 4.1725402e-06 4.192311e-06 4.2014917e-06 4.183288e-06 4.15213e-06 4.0925893e-06 4.028576e-06
4.098973e-06 4.1393487e-06 4.159982e-06 4.1647754e-06 4.1550074e-06 4.1108274e-06 4.057531e-06 3.9877136e-06
4.0771224e-06 4.103713e-06 4.122266e-06 4.1358876e-06 4.1068524e-06 4.0879554e-06 4.0177665e-06 3.962396e-06
4.0253144e-06 4.051208e-06 4.0707578e-06 4.0979203e-06 4.067887e-06 4.0294963e-06 3.9723104e-06 3.9234383e-06
3.9690444e-06 3.997565e-06 4.0015593e-06 4.0032223e-06 3.9970873e-06 3.964844e-06 3.918891e-06 3.8601206e-06
7.511276e-18 5.5370583e-17 5.2272094e-17 5.209873e-17 3.538771e-17 1.7732056e-17 5.782594e-17 1.8607413e-17
4.912231e-17 7.836634e-17 7.363241e-17 6.2318504e-17 1.1891545e-16 9.997668e-17 1.2216097e-16 8.7655866e-17
4.0247363e-17 4.2112063e-17 7.905094e-17 4.5764734e-17 4.964691e-17 5.319698e-17 4.5335774e-17 7.6800034e-17
3.9433602e-17 6.017388e-17 5.0915716e-17 2.7748464e-17 5.819445e-17 7.138612e-17 8.564479e-17 1.1441237e-16
3.3464105e-17 6.542799e-17 7.059343e-17 6.8960426e-17 4.4395776e-17 3.9803934e-17 7.379948e-17 4.219775e-17
5.562634e-17 4.3460195e-17 3.0675113e-17 1.7443219e-17 2.436404e-17 4.9265577e-17 5.1459406e-17 3.3092475e-17
2.4952942e-17 5.682218e-17 5.5245825e-17 7.831365e-17 3.0884495e-17 4.2760225e-17 1.9012533e-17 8.010887e-17
8.798224e-18 1.6108732e-17 7.584948e-17 7.406686e-17 6.910021e-17 1.5703531e-17 2.8764686e-17 2.1929102e-17

exp_avg f4 [64, 1, 8, 8]
00000000: 961e b2b6 fe5a 7cb6 def3 c6b6 e646 8fb6
00000010: d3a4 c1b6 7de9 dcb6 8e26 f5b6 b07e a3b6
00000020: c8e4 04b7 8f6d 8bb6 2814 9eb6 b3f4 c4b6
00000030: 2def b0b6 4e78 15b7 8a7f dcb6 d43d 04b7
00000040: c6ab e9b6 1352 93b6 c4c9 b8b6 3210 bcb6
00000050: 0f6b a1b6 2d99 c6b6 8890 ddb6 291a 07b7
00000060: 9aca cab6 266c a3b6 0a54 22b5 397f 3cb4
00000070: 3be2 6c36 af09 9e35 e154 77b6 0618 08b7
00000080: 870d a6b6 2f5b dcb6 91be 54b6 452d e0b6
00000090: 5c1d 32b7 33e3 36b7 0cea 04b7 6b4c 31b6
000000a0: 5fbc c9b6 3d4d c0b6 57b3 d1b6 58b2 e9b6
000000b0: b542 0eb7 67cd 10b7 ceb1 cdb6 6f48 d8b6
000000c0: 5b71 e4b6 2d60 b8b6 01cf afb6 26fe d1b6
000000d0: f539 0cb7 1842 f0b6 2a6f 74b6 6fb9 c6b6
000000e0: 20d2 96b6 2e7c 14b6 31bd 8234 029e 7935
000000f0: d9f9 8735 53d7 c335 d62f 9636 c908 b036
00000100: 2b2b dfb6 b54d 1837 c078 ca36 0e27 1336
00000110: 9f5a 82b7 0fb5 2cb7 f53a 2f37 7285 cdb7
00000120: 3ec9 c036 6601 f5b6 c426 1d37 5c6a 0cb7
00000130: 97fe 79b7 1cea 05b8 8a07 5736 e3d3 4db7
00000140: ffac 6236 db0f 9bb7 ba2d 5fb7 58f6 9235
00000150: 2091 9236 151d d2b7 b630 7937 d5ee 8ab7
00000160: 1fcb 5c37 395c 47b4 b024 7bb7 34c9 1d37
00000170: 0a8d 6236 e38c 88b7 3b13 a837 b95c f535
00000180: 81f2 7db7 e259 93b7 e5dc 86b7 bbac 1837
00000190: 2107 7337 1a7e 90b6 994a cd36 381b ceb6
000001a0: eefb 8ab6 1ade 9b37 3af7 04b7 7753 d937
000001b0: a3e4 25b6 f07e cfb7 8f3c bbb6 5a87 c035
000001c0: 2862 12b7 9abf 9cb6 c52d 23b6 f392 f836
000001d0: 1b88 c735 af3c ad36 f7da f2b6 0b71 ad36
000001e0: 2bf6 8a37 a4d1 2037 d143 b5b6 f49b 8337
000001f0: 6a92 7736 2d1e a7b7 7810 1db7 9168 8cb6
00000200: 5ba7 5037 b74b f338 7411 9038 b43a 3c38
00000210: fa47 6038 dfab 0638 5e7d aa38 f154 3b38
00000220: 038f 7d38 56dc 3339 4a66 8437 90f1 3d38
00000230: 082d e938 cad3 b238 a435 fa38 bd61 c438
00000240: 7085 e837 6319 1a39 099a 1839 0876 7238
00000250: a903 d838 4b43 9238 9e23 d138 abf0 b338
00000260: f108 8b38 715a 9938 b35c 0239 e34b c138
00000270: 45bf d938 1133 7538 0059 f838 af98 af38
00000280: ab5e 6938 74c7 fe38 4137 2a39 da4a f938
00000290: f5aa a338 0187 9e38 f78b fd38 abbe 0039
000002a0: 1174 0239 0e1b 1139 a620 0739 37d0 6038
000002b0: 77c5 bd38 80c5 6836 ccba e738 4af1 8c38
000002c0: f35b 1e38 78ab df38 45a6 c538 cfd3 1537
000002d0: 14ac ee37 3ecc ce37 c7d9 9938 0e13 6938
000002e0: a797 fe38 0064 b738 47cd aa38 22a1 9f38
000002f0: 5f0b ddb6 afb3 44b7 dd9e 6737 c887 8138
00000300: 0400 0080 0400 0080 0400 0080 0400 0080
00000310: 0400 0080 0400 0000 0400 0080 0400 0000
00000320: 0400 0000 0400 0000 0400 0000 0400 0000
00000330: 0400 0000 0400 0000 0400 0000 0400 0000
00000340: 0400 0000 0400 0000 0400 0000 0400 0000
00000350: 0400 0000 0400 0000 0400 0000 0400 0000
00000360: 0400 0080 0400 0000 0400 0080 0400 0000
00000370: 0400 0000 0400 0000 0400 0000 0400 0000
00000380: 0400 0000 0400 0000 0400 0000 0400 0000
00000390: 0400 0000 0400 0000 0400 0000 0400 0000
000003a0: 0400 0000 0400 0000 0400 0000 0400 0000
000003b0: 0400 0000 0400 0000 0400 0000 0400 0000
000003c0: 0400 0000 0400 0000 0400 0000 0400 0000
000003d0: 0400 0000 0400 0000 0400 0000 0400 0000
000003e0: 0400 0080 0400 0000 0400 0000 0400 0000
000003f0: 0400 0000 0400 0000 0400 0000 0400 0000
-5.308374e-06 -3.760389e-06 -5.9292497e-06 -4.2699858e-06 -5.7710363e-06 -6.5836925e-06 -7.3060573e-06 -4.872527e-06
-7.92108e-06 -4.155277e-06 -4.7111134e-06 -5.869742e-06 -5.2730525e-06 -8.909103e-06 -6.5713584e-06 -7.882209e-06
-6.963938e-06 -4.390496e-06 -5.507116e-06 -5.604722e-06 -4.810637e-06 -5.918692e-06 -6.603139e-06 -8.052718e-06
-6.043655e-06 -4.8703687e-06 -6.0471996e-07 -1.7555148e-07 3.5298424e-06 1.1774736e-06 -3.6855274e-06 -8.111825e-06
-4.9487603e-06 -6.567126e-06 -3.1701386e-06 -6.6809903e-06 -1.06164625e-05 -1.0900944e-05 -7.922306e-06 -2.6419536e-06
-6.012196e-06 -5.7310376e-06 -6.2495633e-06 -6.964703e-06 -8.479391e-06 -8.630893e-06 -6.1301753e-06 -6.445734e-06
-6.808126e-06 -5.4948237e-06 -5.239505e-06 -6.258272e-06 -8.358144e-06 -7.1602517e-06 -3.642354e-06 -5.922447e-06
-4.49481e-06 -2.2126e-06 2.4352042e-07 9.298966e-07 1.0130999e-06 1.45913e-06 4.475917e-06 5.2462315e-06
-6.6509433e-06 9.077999e-06 6.0341263e-06 2.192744e-06 -1.5539406e-05 -1.0294155e-05 1.044454e-05 -2.4500045e-05
5.7454736e-06 -7.301732e-06 9.366955e-06 -8.369414e-06 -1.4900833e-05 -3.1927702e-05 3.2041885e-06 -1.2268286e-05
3.3777321e-06 -1.8484823e-05 -1.3302482e-05 1.0949543e-06 4.368034e-06 -2.5047493e-05 1.4852898e-05 -1.6562097e-05
1.3160315e-05 -1.856687e-07 -1.4969308e-05 9.4047755e-06 3.375872e-06 -1.6278069e-05 2.0036116e-05 1.8280908e-06
-1.51364375e-05 -1.756562e-05 -1.6076907e-05 9.100123e-06 1.44855885e-05 -4.3062146e-06 6.1181604e-06 -6.142447e-06
-4.142049e-06 1.8580864e-05 -7.925375e-06 2.5907282e-05 -2.472e-06 -2.4735433e-05 -5.5800842e-06 1.4344507e-06
-8.725132e-06 -4.6714677e-06 -2.4315534e-06 7.408083e-06 1.4866267e-06 5.1628663e-06 -7.237653e-06 5.1689617e-06
1.6565513e-05 9.585554e-06 -5.402115e-06 1.5689038e-05 3.6891092e-06 -1.9922003e-05 -9.361764e-06 -4.1844983e-06
1.2436732e-05 0.00011601246 6.869706e-05 4.4877364e-05 5.3472795e-05 3.2108157e-05 8.129583e-05 4.4663382e-05
6.045309e-05 0.00017152852 1.5783258e-05 4.5286084e-05 0.000111186935 8.52715e-05 0.0001193092 9.3642135e-05
2.7718692e-05 0.00014696042 0.00014553232 5.780722e-05 0.000103003644 6.974357e-05 9.972531e-05 8.580213e-05
6.629702e-05 7.3124545e-05 0.00012432299 9.217092e-05 0.00010382993 5.846011e-05 0.00011842139 8.37309e-05
5.5639695e-05 0.00012148815 0.00016233047 0.000118871874 7.804289e-05 7.5591735e-05 0.000120900506 0.0001227806
0.00012441004 0.00013838356 0.00012886766 5.3599677e-05 9.049003e-05 3.4685654e-06 0.00011049732 6.720664e-05
3.775577e-05 0.00010665407 9.424662e-05 8.930408e-06 2.8451941e-05 2.4652221e-05 7.336173e-05 5.5569275e-05
0.00012139911 8.7447464e-05 8.1444676e-05 7.611724e-05 -6.587637e-06 -1.1724346e-05 1.3805661e-05 6.1764906e-05
-6e-45 -6e-45 -6e-45 -6e-45 -6e-45 6e-45 -6e-45 6e-45
6e-45 6e-45 6e-45 6e-45 6e-45 6e-45 6e-45 6e-45
6e-45 6e-45 6e-45 6e-45 6e-45 6e-45 6e-45 6e-45
-6e-45 6e-45 -6e-45 6e-45 6e-45 6e-45 6e-45 6e-45
6e-45 6e-45 6e-45 6e-45 6e-45 6e-45 6e-45 6e-45
6e-45 6e-45 6e-45 6e-45 6e-45 6e-45 6e-45 6e-45
6e-45 6e-45 6e-45 6e-45 6e-45 6e-45 6e-45 6e-45
-6e-45 6e-45 6e-45 6e-45 6e-45 6e-45 6e-45 6e-45

exp_avg_sq f4 [64]
00000000: 3c25 fa30 e232 6134 18a6 2037 27dc 1125
00000010: f7e1 fe31 657a 872c cc4a 772c a722 4431
00000020: 2a11 4f2f f7ce ad31 5b46 822b 8a03 ff2c
00000030: df30 b128 73fe 0b38 b598 8334 46ea f530
00000040: 20f5 6c26 2af6 5331 0884 c328 9dee a733
00000050: 68fe 342b ce7d e22f 2e8f 7126 224e 0933
00000060: 306b 1130 6bce e12f 20c8 152f 7396 e531
00000070: 4a7a 1930 5f0f 8a31 744a 4d33 a48d 6d33
00000080: 17cb 3135 f0dc b82e 438c e230 9b9d 6a2b
00000090: 833c c131 6077 3527 24f0 df31 3682 0628
000000a0: 0185 8a32 b530 d130 4642 172e 2cbc 2137
000000b0: e89d 7b29 08e0 562c 4b9c ea31 2957 9f36
000000c0: a277 b12f ce95 d52d ab5d 4926 19ae 8130
000000d0: 223c 6330 6b45 0736 1726 b235 52c7 6c2e
000000e0: 8acd ec27 5396 6f35 3f48 0734 bcf5 1d26
000000f0: 57da 0f33 57a8 292a 9a7a 1f30 87b7 3a28
1.8200477e-09 2.0973269e-07 9.575415e-06 1.2651336e-16 7.418062e-09 3.8505193e-12 3.5142332e-12 2.8541451e-09
1.8832638e-10 5.058492e-09 9.256583e-13 7.247929e-12 1.9672142e-14 3.3377157e-05 2.451176e-07 1.7892681e-09
8.2211154e-16 3.084447e-09 2.1706608e-14 7.819947e-08 6.4301906e-13 4.119855e-10 8.3807716e-16 3.196886e-08
5.2903015e-10 4.107393e-10 1.362257e-10 6.6818813e-09 5.583486e-10 4.018076e-09 4.7797997e-08 5.5309684e-08
6.6233173e-07 8.4065976e-11 1.6483529e-09 8.335222e-13 5.6239187e-09 2.518351e-15 6.517455e-09 7.466729e-15
1.6125798e-08 1.5220595e-09 3.4392288e-11 9.64016e-06 5.5870158e-14 3.0535591e-12 6.828065e-09 4.748716e-06
3.2281117e-10 2.4281823e-11 6.986283e-16 9.435467e-10 8.2667573e-10 2.0156974e-06 1.3273119e-06 5.383722e-11
6.5726004e-15 8.925319e-07 1.2599138e-07 5.480335e-16 3.349336e-08 1.506862e-13 5.801809e-10 1.036487e-14

exp_avg f4 [64]
00000000: bd74 5ab7 a8ce 1238 5788 8039 0400 0000
00000010: 886f 6137 1e3c a633 67dc c5b1 40b4 f1b4
00000020: 439a deb5 2e81 9c35 e848 c132 7e04 1a33
00000030: 214b 16af 2d9c a5b9 be12 9935 ba51 da37
00000040: 0400 0080 c1f5 4d36 23a5 2b31 a649 a0b5
00000050: 6d39 83b3 7d59 af32 0400 0000 c63b 84b5
00000060: 1041 0fb5 5610 bdb7 f883 a330 0554 1137
00000070: bf0e cdb3 90aa 13b8 d7ba deb4 1183 2cb8
00000080: 7617 48b8 3b82 5ab3 3f60 51b3 293d 0c35
00000090: 00e0 51b6 dc5b b8a3 f6fe a5b4 f604 fa2d
000000a0: 94f0 1733 391e ca35 0087 abb4 35f8 b7b9
000000b0: 7431 ce2c 7c5a 6db2 bf86 06b4 cd9b 3839
000000c0: c18c 0e33 beb6 8632 ca54 24b3 3111 3236
000000d0: b619 cab2 41d8 c0b8 18c0 c336 baab 10b4
000000e0: 33c0 992e 25e0 a1b6 263f 0cb8 0400 0080
000000f0: 5324 66b4 1eb6 0633 ca22 bf37 4854 442f
-1.3020993e-05 3.5001576e-05 0.00024515644 6e-45 1.3437013e-05 7.7409126e-08 -5.7585114e-09 -4.5020897e-07
-1.6585185e-06 1.1660502e-06 2.2501311e-08 3.5860005e-08 -1.3669112e-10 -0.00031587612 1.1404843e-06 2.6025682e-05
-6e-45 3.0690428e-06 2.4977644e-09 -1.1942363e-06 -6.1106086e-08 2.0413376e-08 6e-45 -9.852163e-07
-5.336633e-07 -2.2538163e-05 1.1897319e-09 8.662236e-06 -9.548739e-08 -3.520638e-05 -4.1486666e-07 -4.113006e-05
-4.7705566e-05 -5.0875524e-08 -4.874914e-08 5.2243064e-07 -3.1273812e-06 -1.9988224e-17 -3.0919153e-07 2.8423913e-11
3.537623e-08 1.5058969e-06 -3.1949457e-07 -0.0003508941 5.8603625e-12 -1.3815789e-08 -1.2528743e-07 0.00017605648
3.3189966e-08 1.5682755e-08 -3.826134e-08 2.6534074e-06 -2.3527587e-08 -9.195554e-05 5.8338155e-06 -1.3473519e-07
6.991776e-11 -4.8242678e-06 -3.3437413e-05 -6e-45 -2.1433634e-07 3.136494e-08 2.2785174e-05 1.7856039e-10

exp_avg_sq f4 [1, 64, 8, 8]
00000000: 132d fa30 9d86 ff30 5e0c 0831 89ba 0431
00000010: 092b 0331 5f80 fe30 dcd2 fb30 f3df eb30
00000020: 8830 0531 3918 0c31 d8c6 1631 e966 1231
00000030: 0e7d 0c31 6483 0431 3ae5 0031 f24c f330
00000040: f0ce 0131 7f98 0331 ce43 0b31 703b 1031
00000050: 97a0 0c31 fbe0 0731 39ae 0031 5fdc f630
00000060: 86c7 0231 9c81 0631 2bb1 fe30 5008 0431
00000070: 1ed4 0231 46fe fb30 4749 f630 0319 ee30
00000080: fe4d 0031 da65 0431 553c 1731 309d 0d31
00000090: 8094 0b31 9aa5 0431 ee44 ff30 26db ef30
000000a0: 50ae ea30 2678 f430 8d3d 0531 71ef 0231
000000b0: 682d fe30 81f5 f930 64b3 f430 1b87 ee30
000000c0: 6d6d bd30 a984 bd30 39da bd30 4f26 be30
000000d0: 25ce be30 c49b b830 ea4e b530 6bf1 b530
000000e0: 163b a930 4f78 ae30 de55 ae30 bd7f b130
000000f0: cd1f b130 7323 ac30 e84e b130 9845 ac30
00000100: f735 f837 b1a0 fa37 de12 fc37 9d93 fc37
00000110: ccf7 fb37 3d91 fa37 4551 f837 513f f537
00000120: 6da8 fa37 ba2d fd37 80cd fe37 9754 ff37
00000130: 3ea3 fe37 3528 fd37 25c1 fa37 ac8d f737
00000140: aa2c fc37 0bc4 fe37 ba28 0038 b275 0038
00000150: b925 0038 d8bb fe37 ce54 fc37 b81a f937
00000160: 92a8 fc37 6d54 ff37 e579 0038 f6bb 0038
00000170: b467 0038 1151 ff37 afe6 fc37 e48c f937
00000180: f821 fc37 5ab5 fe37 6e21 0038 1272 0038
00000190: d122 0038 cecb fe37 7765 fc37 fa16 f937
000001a0: 6aa0 fa37 fb20 fd37 ccbd fe37 a65c ff37
000001b0: 5db0 fe37 a53a fd37 48fa fa37 bcc4 f737
000001c0: 5025 f837 4b91 fa37 5b00 fc37 91b0 fc37
000001d0: e235 fc37 18d0 fa37 b68b f837 ee88 f537
000001e0: 3cf5 f437 8e42 f737 2495 f837 0e26 f937
000001f0: 229e f837 df66 f737 a051 f537 a178 f237
00000200: b616 d637 9a4c d837 4bef d937 2985 da37
00000210: 5523 da37 1fe7 d837 3dc5 d637 e80a d437
00000220: 0c6a d837 22ed da37 fb84 dc37 251c dd37
00000230: 76a2 dc37 f663 db37 bd2e d937 cd26 d637
00000240: eff3 d937 d77a dc37 361f de37 f4cc de37
00000250: b54b de37 7fe3 dc37 fdb2 da37 0d9f d737
00000260: 46f4 da37 146b dd37 0109 df37 c3b4 df37
00000270: 613c df37 d9c7 dd37 8470 db37 077a d837
00000280: 3321 db37 4d91 dd37 4239 df37 34ff df37
00000290: 827e df37 75f9 dd37 bd87 db37 5598 d837
000002a0: c16f da37 fde2 dc37 0f94 de37 ab37 df37
000002b0: d4c0 de37 5c4d dd37 68f7 da37 19f2 d737
000002c0: 3511 d937 bf5c db37 9108 dd37 cfa4 dd37
000002d0: 8f08 dd37 9295 db37 56a4 d937 d088 d637
000002e0: 2bdb d637 6a1f d937 5f78 da37 8c04 db37
000002f0: d789 da37 e948 d937 5c1f d737 ee51 d437
00000300: 067a 2e1e 1f3b 1f1e e8b7 ac20 a692 3020
00000310: 8914 8b1f bde3 141f ef74 fa1e 65ad 1320
00000320: 86f3 041f 4717 6d1e 71e9 4b21 e71e 701e
00000330: 25dc f91e 56d8 ce20 6cde 741f 2e19 fa1c
00000340: 1909 ee1e 712a a91f bd97 0920 3219 c020
00000350: e6c4 2c20 2342 9c1f 2c84 8f20 153c 3420
00000360: 6dce 2e20 73a7 b41e f7f7 e11f 0ab8 1920
00000370: a291 f81f 1315 8f20 3bb7 6420 baef 8c20
00000380: a76b fe1e bf37 c51f 5d01 bc1f 0bfa a120
00000390: 4f3f 1e20 b7f1 fa1e 1974 7320 5cd1 af1e
000003a0: c457 951e 704d 291f 4d82 3e1f 2469 cd20
000003b0: 8f77 011e 0634 b11e 768d b41f 8218 1f1e
000003c0: 29b7 6720 afbd 8d1e 6560 0020 cfa1 4820
000003d0: 5c5f 891f 6c02 bd20 80a9 0f20 52e0 831f
000003e0: 58bf a61f d25c 051e 149f 591f abbe 0d1f
000003f0: 74da be1f 4379 931f 1a8e c71f 6751 f81e
1.8202705e-09 1.8591951e-09 1.9797635e-09 1.931456e-09 1.9087472e-09 1.8517418e-09 1.8322583e-09 1.7162151e-09
1.9381634e-09 2.038645e-09 2.1940902e-09 2.1304294e-09 2.0443767e-09 1.9283215e-09 1.8756752e-09 1.7702446e-09
1.88896e-09 1.9149693e-09 2.0265705e-09 2.0988544e-09 2.0463966e-09 1.9772972e-09 1.8725486e-09 1.7961489e-09
1.9030906e-09 1.957324e-09 1.8531287e-09 1.9213253e-09 1.9038064e-09 1.8334922e-09 1.7919682e-09 1.7323888e-09
1.8670785e-09 1.9266424e-09 2.2007687e-09 2.0607551e-09 2.0311575e-09 1.9302662e-09 1.8573283e-09 1.7451824e-09
1.7075283e-09 1.7787485e-09 1.9389035e-09 1.9053596e-09 1.8493838e-09 1.8186911e-09 1.7804322e-09 1.7355178e-09
1.3782661e-09 1.3789264e-09 1.3813583e-09 1.3835207e-09 1.3882909e-09 1.3432033e-09 1.3191912e-09 1.3238098e-09
1.2313162e-09 1.269436e-09 1.2684571e-09 1.291475e-09 1.2887483e-09 1.2524722e-09 1.2900871e-09 1.2534427e-09
2.9589033e-05 2.987715e-05 3.0049527e-05 3.0109479e-05 3.0036921e-05 2.9869954e-05 2.9601748e-05 2.923576e-05
2.9880752e-05 3.0181243e-05 3.0374853e-05 3.0437759e-05 3.0355175e-05 3.0178673e-05 2.9892262e-05 2.9510666e-05
3.006154e-05 3.037045e-05 3.0555508e-05 3.062719e-05 3.055271e-05 3.0366631e-05 3.0080231e-05 2.9695555e-05
3.0119238e-05 3.0437683e-05 3.06311e-05 3.069263e-05 3.061416e-05 3.0436118e-05 3.0148161e-05 2.974872e-05
3.0056559e-05 3.0363608e-05 3.0548712e-05 3.0623814e-05 3.0550003e-05 3.0374063e-05 3.008799e-05 2.9693812e-05
2.9877021e-05 3.0175308e-05 3.036754e-05 3.0441512e-05 3.0361285e-05 3.0187259e-05 2.9918869e-05 2.9536306e-05
2.9581279e-05 2.986998e-05 3.0040906e-05 3.0122961e-05 3.0065832e-05 2.9899224e-05 2.9628962e-05 2.9270039e-05
2.9201263e-05 2.9475686e-05 2.9633353e-05 2.9700834e-05 2.963754e-05 2.9492598e-05 2.9244286e-05 2.890482e-05
2.5521364e-05 2.5784877e-05 2.5979845e-05 2.6049633e-05 2.6004078e-05 2.585683e-05 2.5602634e-05 2.5277448e-05
2.5798588e-05 2.6098049e-05 2.6287968e-05 2.6358359e-05 2.6301695e-05 2.6153382e-05 2.589018e-05 2.5528856e-05
2.5982006e-05 2.6283245e-05 2.6478996e-05 2.6559901e-05 2.6499716e-05 2.633198e-05 2.6070973e-05 2.5704061e-05
2.6101374e-05 2.6395115e-05 2.6587864e-05 2.6667845e-05 2.6611788e-05 2.6438314e-05 2.6159229e-05 2.580603e-05
2.6122294e-05 2.6412914e-05 2.6610334e-05 2.670251e-05 2.6642581e-05 2.6461415e-05 2.6170042e-05 2.5820142e-05
2.6039665e-05 2.6331743e-05 2.6533407e-05 2.6609594e-05 2.6554255e-05 2.6381276e-05 2.6102833e-05 2.5742733e-05
2.5876428e-05 2.6150023e-05 2.6349242e-05 2.6421998e-05 2.6349238e-05 2.6176484e-05 2.594494e-05 2.5574496e-05
2.5612846e-05 2.5883044e-05 2.6043677e-05 2.6108952e-05 2.6051812e-05 2.5902367e-05 2.56446e-05 2.531052e-05
9.236717e-21 8.429616e-21 2.9259632e-19 1.4956302e-19 5.890276e-20 3.15286e-20 2.6518142e-20 1.2508756e-19
2.8153525e-20 1.2551489e-20 6.908803e-19 1.2711885e-20 2.645495e-20 3.5040917e-19 5.1852993e-20 1.6550121e-21
2.5202993e-20 7.16445e-20 1.1654557e-19 3.2542738e-19 1.4634115e-19 6.6177984e-20 2.4312606e-19 1.5266473e-19
1.4806674e-19 1.9127497e-20 9.570143e-20 1.3020498e-19 1.05273015e-19 2.4239088e-19 1.9372977e-19 2.387556e-19
2.693782e-20 8.352497e-20 7.962335e-20 2.7439925e-19 1.3404068e-19 2.656975e-20 2.0621314e-19 1.8615435e-20
1.5812288e-20 3.5851197e-20 4.0341847e-20 3.4797927e-19 6.853927e-21 1.876212e-20 7.646699e-20 8.422458e-21
1.9627064e-19 1.5007407e-20 1.0873916e-19 1.6994197e-19 5.8179516e-20 3.2019448e-19 1.2168654e-19 5.5851765e-20
7.0620286e-20 7.060156e-21 4.6083124e-20 3.0015628e-20 8.082953e-20 6.245753e-20 8.4514866e-20 2.6291689e-20

exp_avg f4 [1, 64, 8, 8]
00000000: 704a a236 66f9 ab36 9d28 1637 bfa4 a936
00000010: d32f 8835 c2bd f335 a206 3137 2963 3337
00000020: 186f 48b6 d63c e2b5 c8b8 ff36 555e ad36
00000030: 19a2 8db5 e0ba 0cb6 704b 0f36 6660 4536
00000040: 2ccb bab6 a955 c9b5 b909 2536 5660 8736
00000050: 79cc af36 28c6 b136 c504 a136 ff31 7a36
00000060: 452d 02b7 ba3b afb6 e50e 17b7 7669 3fb7
00000070: af86 0db7 1ed6 d9b6 a4c8 22b7 876b 3fb7
00000080: 1998 75b7 7107 52b7 2e64 05b7 297b 61b7
00000090: 24d9 68b7 a2a5 81b7 3cc0 56b7 75e7 1cb7
000000a0: 5009 34b6 d7d5 8db5 4398 d136 72e8 0f36
000000b0: 5bd0 ce36 6987 2937 cbbf 5537 ada9 4737
000000c0: cf70 bbb6 5935 dbb6 892b d4b6 c01d 74b6
000000d0: f522 a8b5 1701 9235 d593 a536 d0d5 cb36
000000e0: f9f3 1d34 0214 beb6 b8a0 b0b6 ff76 89b6
000000f0: 6358 99b6 0702 5cb6 6e79 8bb6 71f6 02b5
00000100: dd89 d338 a3ca ac38 6de0 c438 b649 e438
00000110: afce ad38 3511 c038 baa4 e338 ab37 1739
00000120: 15e1 d138 9f64 0339 a2c2 b138 7f9d c738
00000130: 24c5 f938 c3e1 b238 38df 1839 4792 1e39
00000140: fdb0 2c39 cb99 2a39 7f6b 0939 7798 0639
00000150: 8beb 0f39 e1ea 0839 57d1 2839 d7b2 1239
00000160: e4d5 2039 7f08 1339 709c 1039 93dc 0539
00000170: 6953 fc38 7980 ec38 a16c f238 b627 cc38
00000180: 9b11 1239 a997 1339 bc08 2739 f864 0039
00000190: 3de3 2339 6c3d 0b39 d2cb 2239 6dc6 2c39
000001a0: 4d7d 2839 0fb7 2939 7263 1839 591e ef38
000001b0: 0e35 2639 1416 0839 9923 2239 1ae8 3339
000001c0: 576b 4039 e3c1 0139 6eb1 2e39 b0e4 b538
000001d0: 6326 f538 6806 be38 ef28 1339 e644 d638
000001e0: 142c 0d39 201c 0b39 668b 1c39 99f9 ed38
000001f0: 3cd6 1539 2712 cd38 3343 f738 60b9 2939
00000200: 83a6 5d39 9200 d238 39b2 4039 f28d 2039
00000210: 8ccb 0539 4da0 5738 d758 5c39 0fab 1a39
00000220: f237 4039 efc6 9f38 9356 0039 96b3 d638
00000230: f067 3039 ed37 1039 8acc 0639 3432 1939
00000240: 54af 5b39 27bc 4239 cf36 6139 f99b 0139
00000250: 791e 0e39 d7ff 1d39 6f3c 6039 a4f6 3b39
00000260: fdb7 5039 9b18 1039 6120 2a39 6b91 2839
00000270: 20d0 3b39 6efc fb38 08a8 1139 2108 0039
00000280: 30e0 1d39 09f8 2b39 bf01 2139 fcd9 cf38
00000290: 02f7 0039 eaf1 9e38 6fab 2f39 6545 de38
000002a0: e21f 5839 a339 1f39 b5e0 0b39 6d59 2e39
000002b0: a590 8439 8f8c 0d39 7c52 fc38 f865 4539
000002c0: b609 6539 7667 3839 a7c1 eb38 f8df f838
000002d0: f8d7 0a39 1f93 e738 1bb4 1438 72e3 3a39
000002e0: 8a88 7739 21c9 ce38 ba34 0839 7b2a 0439
000002f0: 1177 0139 5dc9 9f38 4dda e438 39c5 5039
00000300: 0400 0000 0400 0080 0400 0000 0400 0000
00000310: 0400 0000 0400 0080 0400 0080 0400 0080
00000320: 0400 0000 0400 0000 0400 0080 0400 0080
00000330: 0400 0080 0400 0000 0400 0000 0400 0000
00000340: 0400 0000 0400 0000 0400 0000 0400 0000
00000350: 0400 0000 0400 0000 0400 0000 0400 0080
00000360: 0400 0080 0400 0080 0400 0000 0400 0000
00000370: 0400 0000 0400 0080 0400 0080 0400 0080
00000380: 0400 0080 0400 0080 0400 0080 0400 0080
00000390: 0400 0080 0400 0080 0400 0080 0400 0080
000003a0: 0400 0080 0400 0000 0400 0000 0400 0080
000003b0: 0400 0000 0400 0080 0400 0080 0400 0000
000003c0: 0400 0080 0400 0080 0400 0080 0400 0080
000003d0: 0400 0080 0400 0000 0400 0080 0400 0080
000003e0: 0400 0080 0400 0080 0400 0000 0400 0000
000003f0: 0400 0000 0400 0080 0400 0080 0400 0000
4.836642e-06 5.125231e-06 8.950153e-06 5.0557715e-06 1.0146708e-06 1.8160138e-06 1.0551566e-05 1.0692319e-05
-2.9866987e-06 -1.6856018e-06 7.6211036e-06 5.1667835e-06 -1.0552495e-06 -2.0970401e-06 2.135257e-06 2.9411399e-06
-5.5668843e-06 -1.5000597e-06 2.4592575e-06 4.0345285e-06 5.23921e-06 5.2980795e-06 4.798729e-06 3.7282005e-06
-7.759144e-06 -5.2223595e-06 -9.003769e-06 -1.1409042e-05 -8.435613e-06 -6.4920305e-06 -9.702668e-06 -1.1409523e-05
-1.4638551e-05 -1.2518708e-05 -7.950743e-06 -1.34397205e-05 -1.3878835e-05 -1.5455127e-05 -1.2800152e-05 -9.352215e-06
-2.682751e-06 -1.0567554e-06 6.246411e-06 2.1443961e-06 6.163534e-06 1.0104713e-05 1.2740445e-05 1.190083e-05
-5.586167e-06 -6.532919e-06 -6.3231605e-06 -3.637615e-06 -1.2527149e-06 1.0878165e-06 4.934593e-06 6.0747625e-06
1.4710521e-07 -5.6647705e-06 -5.263919e-06 -4.096771e-06 -4.570045e-06 -3.2783735e-06 -4.156659e-06 -4.8787393e-07
0.00010086943 8.239343e-05 9.387811e-05 0.00010885617 8.287781e-05 9.1584785e-05 0.00010854886 0.0001442122
0.000100078214 0.00012530618 8.476271e-05 9.5183954e-05 0.000119099655 8.529753e-05 0.00014579005 0.00015122547
0.00016469132 0.00016269756 0.00013105384 0.00012836033 0.0001372529 0.0001305747 0.00016099714 0.00013990268
0.0001533847 0.00014022177 0.00013791188 0.00012766039 0.00012031833 0.00011277287 0.00011559693 9.734875e-05
0.00013930204 0.0001407551 0.00015929615 0.00012244645 0.00015629544 0.00013278954 0.00015525453 0.00016477118
0.00016068407 0.0001618529 0.00014532896 0.00011402061 0.00015850758 0.00012978195 0.00015462785 0.00017157235
0.00018350534 0.00012374627 0.00016660031 8.673349e-05 0.000116896605 9.061099e-05 0.00014034261 0.000102171485
0.00013463228 0.0001326655 0.0001492925 0.00011347532 0.00014289556 9.778543e-05 0.00011790395 0.00016186154
0.00021138233 0.000100136866 0.0001837694 0.00015311668 0.00012759696 5.1409286e-05 0.0002101393 0.00014750309
0.00018331388 7.618765e-05 0.00012239283 0.00010237766 0.00016823388 0.00013753744 0.00012855433 0.00014609919
0.00020950782 0.00018571374 0.0002147809 0.00012360503 0.00013553527 0.00015067995 0.00021384818 0.0001792559
0.00019904967 0.00013742076 0.00016224525 0.00016075901 0.00017911242 0.000120156314 0.00013890874 0.0001221006
0.00015056203 0.00016400231 0.00015354807 9.911132e-05 0.00012299049 7.579087e-05 0.00016753165 0.00010598711
0.00020611243 0.00015184893 0.00013339783 0.00016627247 0.0002528477 0.0001349917 0.0001203166 0.0001882537
0.0002184276 0.0001758615 0.00011241744 0.00011867279 0.0001324116 0.00011042342 3.5453686e-05 0.00017823072
0.0002360662 9.860309e-05 0.00012989613 0.00012604326 0.00012346754 7.619218e-05 0.00010912549 0.00019909897
6e-45 -6e-45 6e-45 6e-45 6e-45 -6e-45 -6e-45 -6e-45
6e-45 6e-45 -6e-45 -6e-45 -6e-45 6e-45 6e-45 6e-45
6e-45 6e-45 6e-45 6e-45 6e-45 6e-45 6e-45 -6e-45
-6e-45 -6e-45 6e-45 6e-45 6e-45 -6e-45 -6e-45 -6e-45
-6e-45 -6e-45 -6e-45 -6e-45 -6e-45 -6e-45 -6e-45 -6e-45
-6e-45 6e-45 6e-45 -6e-45 6e-45 -6e-45 -6e-45 6e-45
-6e-45 -6e-45 -6e-45 -6e-45 -6e-45 6e-45 -6e-45 -6e-45
-6e-45 -6e-45 6e-45 6e-45 6e-45 -6e-45 -6e-45 6e-45
