pre-trained/DCT8_soft-thr_L2_rnd-init_1800.pt (torch_old, 484848 bytes, 10 tensors)

weight f4 [64, 1, 8, 8]
00000000: 00cb 793d 0fbc 7b3e d8ad 70bc 5e58 7abd
00000010: 40e0 1cbd bda6 8b3a 4ea5 bd3c 789d 4b3d
00000020: 6142 37be 0be9 293e 6bd5 a23d 1016 0cbd
00000030: c78f 2f3e 7e45 f73a 2a64 0d3e 7bd3 0ebe
00000040: 9d86 15be 4fef d1bd 6ff3 21be 857a 59bd
00000050: b43f 7abd a5e1 73be b415 adbd ca23 12be
00000060: 9b65 603c 483f 18be 5051 d5bd a8b1 20be
00000070: 16f9 35be 5ea7 07bf 5e4a 3dbe f955 e13c
00000080: 1598 083e 7b71 333c 9f7b 463e 932d 2a3e
00000090: dd3c ca3e 17a7 cc3d cfbf fb3c 3bd4 933e
000000a0: ccdd 4a3d c925 6d3d a2d4 993c 0bfd ec3d
000000b0: 51f6 d43e 79fc 9a3e 77f1 343e 5c38 d8bc
000000c0: 95dc 8cbd 327e f2bd eb38 0ebd 4c47 5bbc
000000d0: ad34 88be 433c 63be 3b9d c1bc 0283 63be
000000e0: b11c 8abd ce0b 593d 3539 f03d 538f a63c
000000f0: 29a6 7bbc a5c9 f93c 541a 0d3e ffb5 083e
00000100: d660 0cbc ffb9 043d 3d91 fdbc 9911 41bd
00000110: 4b96 9ebc cdb5 b6bd c2f0 4b3d 1d4e bcbb
00000120: 280d 80bd c6c0 0dbe 272b d0bd ebcd 3bbd
00000130: b6c8 8a3c df60 79be 5750 b6bd 611f d9bc
00000140: f573 4dbd 70a1 cb3b 21f6 83bd 12f6 a83c
00000150: 223d e03d 8a8f 503b 21a6 c3bd fca0 643d
00000160: 3e0d 863d 5183 43bc 7060 32bd 8048 3abd
00000170: 61d6 93bd 61de debd 7974 dbbd 7f63 aa3c
00000180: 1543 07be 8127 1ebd b215 c0bd 13ec 29be
00000190: 61dc c8bc fb53 a33c d9ab 88bd fce7 cfbd
000001a0: fc07 0dbc 08d9 98bb 4dd8 c6bd 6d37 883d
000001b0: 1245 2cbd 6352 e2bd 29bc 05be 67eb 15bd
000001c0: a122 d8bd f1cd e5bd 86b6 783b 347c 22be
000001d0: 0eb7 c5bc 130a c0bd b374 13be d56d 02be
000001e0: e942 02be 9709 acbb e747 adbc bc34 9abd
000001f0: f719 93bd 2efa 36be bb4b f9bd 2d0e abbd
00000200: 361f 72bd f073 f6bb 3329 00bd a03a 2abd
00000210: 029c 1cbe ca1c 25be f361 f6bd e7c2 97bd
00000220: 7d67 18bd 153f 003e 976d 90be 35cb c6bd
00000230: 6d54 48bd cd37 d3bd 2798 1ebd 229e 77bc
00000240: 915a 8dbc 0775 6c3c 7e60 d03d 7b21 fabd
00000250: c6eb 54bd 72b6 d3bb 5124 bebd 672e cbbd
00000260: f674 d0bd 1e27 34be 4b6b 623c 6f9c ecbc
00000270: 0a8f 083d 6ba8 2dbe 7582 7cbc 7899 29bd
00000280: 0674 77bd 7c6b 1fbc 705d 343d 817b 773d
00000290: 9e1b 01be 3273 d13c 4a9d a1bc 24f5 053e
000002a0: dfaf 4cbc 01da a33d ae46 a9bc 46e6 51be
000002b0: 0541 f23b a77f 4abe 45a5 ef3b e9ed c9bd
000002c0: a974 46be a60b 6ebc e8bc c6bc 6e9a a5be
000002d0: ecbf 35be 53f4 d2bd df16 56bd 13a6 19be
000002e0: 28f7 c13d e327 53be 2a8d 8bbd 41e9 1d3d
000002f0: 89d9 fdbd b5e5 aabd dba5 28be c156 78bc
00000300: 565e a6bc 12d3 afbd e1e2 cabd 8a81 12bd
00000310: 04fe bc3a ddde bf3c 5294 15be f007 aebd
00000320: ea23 cf3c c043 783d 4a3d 643d 8fd5 7a3d
00000330: 8f82 bb3d ec92 a1bd 8d48 003e 71b8 be3b
00000340: 50d5 023e f6b0 9cbd 5eb1 0f3e bd06 d9bd
00000350: 09c2 69bd cecc d3bd c58d 9eb8 27a9 44bd
00000360: 7805 f3bc c6ba 07be c639 97bd 9766 a03c
00000370: 73c5 fb3d 53c0 a53c f08e 1fbe a9c2 0b3e
00000380: a477 0a3d aada 1abe e744 003d c423 933d
00000390: 19ca 42bc 18d6 bb3d 588c 7a3c 32b7 b73d
000003a0: ef39 573d e48f 0d3e ecb7 1a3d e032 88bd
000003b0: e7ce 15bd dffa 223c 14c9 58be 085d e9bd
000003c0: d089 a7bc 02cc e53d cbad f1bd 507e 993d
000003d0: 4bed 483d 46b6 37bd cff4 253e f33d 6dbd
000003e0: f4cd 6ebd 5a18 32be d8cc 733e e4c2 b63c
000003f0: 6f11 83bd f348 683d f2c2 68bd b69e 8dbc
0.06098461 0.24583457 -0.014689885 -0.06111943 -0.0382998 0.001065455 0.023150112 0.04971072
-0.17896415 0.16592805 0.079508625 -0.034200728 0.1714469 0.0018865315 0.13807741 -0.13947861
-0.14602132 -0.102507226 -0.15815519 -0.05309536 -0.06109591 -0.23816545 -0.08451405 -0.14271465
0.0136961 -0.1486789 -0.104159 -0.1569277 -0.177708 -0.5298976 -0.184854 0.027506815
0.13339265 0.010952349 0.19383095 0.16618948 0.3949956 0.09992807 0.03073111 0.28872856
0.04952793 0.057897363 0.018778149 0.115717016 0.41594175 0.30270746 0.17670237 -0.026394062
-0.0687801 -0.11840476 -0.03472225 -0.013383698 -0.26602688 -0.22190957 -0.023634544 -0.22217944
-0.06743754 0.052989773 0.117296614 0.020332014 -0.01535944 0.03049166 0.13779575 0.13350676
-0.008568009 0.032403942 -0.030953044 -0.047135923 -0.019358775 -0.089213945 0.04979015 -0.0057466165
-0.06252509 -0.13843068 -0.10164481 -0.045850676 0.01694141 -0.2435336 -0.08902042 -0.02650422
-0.050159413 0.006214313 -0.0644343 0.020625148 0.1094916 0.0031823837 -0.09553171 0.05581759
0.065454945 -0.011933164 -0.043549 -0.045479298 -0.07218624 -0.10882259 -0.10715575 0.020799397
-0.13209184 -0.038611893 -0.09379138 -0.16593961 -0.024519147 0.019937506 -0.06673402 -0.101516694
-0.008607861 -0.004664544 -0.09709225 0.06651197 -0.042058058 -0.1105087 -0.13060059 -0.03660145
-0.1055348 -0.11220921 0.003795059 -0.15867692 -0.024135139 -0.093769215 -0.14399986 -0.1273721
-0.12720837 -0.0052501666 -0.02115245 -0.075295895 -0.07182687 -0.17868873 -0.121726476 -0.08352313
-0.059111796 -0.007521145 -0.03128929 -0.041559815 -0.15293887 -0.16124263 -0.12030401 -0.074102215
-0.03720807 0.12524064 -0.2820861 -0.097067274 -0.04890864 -0.103133775 -0.038719323 -0.015113385
-0.0172551 0.014432198 0.101746544 -0.12213417 -0.051982664 -0.006460958 -0.092842706 -0.0992096
-0.101785585 -0.17593047 0.013819526 -0.028883187 0.033339538 -0.16958778 -0.015411963 -0.041406125
-0.060413383 -0.009730216 0.04403442 0.060420517 -0.12608191 0.025567625 -0.019728322 0.13081795
-0.012493103 0.08000565 -0.020663586 -0.20497999 0.007393005 -0.19775258 0.007313403 -0.09859831
-0.1938044 -0.014529144 -0.02426 -0.32344383 -0.17748994 -0.103005074 -0.052267905 -0.15004759
0.094709694 -0.20620684 -0.06814034 0.038552526 -0.12395007 -0.083445944 -0.16469519 -0.0151574025
-0.020308655 -0.0858518 -0.09906555 -0.03576807 0.0014418964 0.0234217 -0.14607361 -0.08497608
0.02528568 0.060611486 0.055722512 0.06123882 0.091557615 -0.07889351 0.12527676 0.005820327
0.12776685 -0.0765094 0.14032504 -0.10596988 -0.057069812 -0.10341798 -7.560434e-05 -0.04801288
-0.029665694 -0.13254842 -0.07384066 0.019580169 0.1229352 0.020233309 -0.1558187 0.13648476
0.033805504 -0.15122476 0.03131571 0.07184556 -0.011889004 0.091716945 0.01529225 0.089704886
0.052545484 0.13824421 0.037773058 -0.06650329 -0.03657427 0.009947508 -0.21170455 -0.113946974
-0.020451456 0.11220552 -0.118007265 0.07494795 0.049054425 -0.044851564 0.16206668 -0.057920408
-0.05830188 -0.17392102 0.2380861 0.022309728 -0.063998096 0.056710195 -0.05682654 -0.017287593

bias f4 [64]
00000000: 480c 273f cb6d 34be 2235 edbc 76f3 d33d
00000010: 770a 44bf ae50 ae3d 5cc4 a6bd 766e 553d
00000020: e66f 2e3d 04cf 46bf 1e02 603b eeff 9abd
00000030: 6298 c2bc 7574 0d3d 488f b33c 0bac 13bf
00000040: d735 e73d 9bab 31bf f6f2 9f3d acd5 c2bd
00000050: d195 3abd 8177 f03d 33bd 873b 3d53 553d
00000060: ea58 5ebd 3482 123e aacd c9bd 7689 413f
00000070: f9f2 a23d 7c31 303f d5c2 283d 5dd1 5e3e
00000080: a81a 423e fa3c 05be 0efb f6bc a4cf 023e
00000090: 08d7 723f 33a1 8c3c f0ca 2fbd 8c8e d43b
000000a0: 1325 dcbd f450 813e 2706 033c f0d8 8e3e
000000b0: 662a c73d 858f 4fbd 0488 923c 27d1 d2bd
000000c0: 3026 febc 890e ed3d ffd8 a43d 2803 7ebe
000000d0: 347c 99bd 9236 2a3e d2f5 35bc e2b8 78bd
000000e0: 8b89 afbc 1705 cb3d 2d54 df3d 09c6 c2bd
000000f0: 09cc 6bbd 4448 c63d 9992 d5be 2883 51bd
0.65253115 -0.17620008 -0.028956 0.10349171 -0.7657847 0.08511482 -0.08142921 0.052107297
0.042587183 -0.7765963 0.003418095 -0.07568346 -0.023754302 0.03453489 0.021918908 -0.5768439
0.11289566 -0.69402474 0.07810013 -0.09513411 -0.045553032 0.117415436 0.0041424274 0.052081335
-0.054284014 0.14307481 -0.098536804 0.75600374 0.079564996 0.6882551 0.04120143 0.21759553
0.18955481 -0.13011542 -0.03014901 0.12774521 0.9485936 0.01716671 -0.042918146 0.0064867195
-0.10749259 0.25257075 0.007997072 0.27899885 0.09724884 -0.05067398 0.017887123 -0.10293799
-0.031024069 0.11575038 0.08049201 -0.24805892 -0.07494393 0.1662238 -0.011105971 -0.060723193
-0.02142789 0.0991308 0.10904727 -0.095104285 -0.05756763 0.09681752 -0.41713408 -0.05115047

weight f4 [1, 64, 8, 8]
00000000: 843f ff3a e9fe 303c 1c0f 943b 2cc9 0cbc
00000010: 4c45 cabb bae7 443c 9a3d 033b 4e80 95bb
00000020: 928e 9dbc ff84 1fbb 346c eabc 1b68 eabc
00000030: e5fa b0ba 6667 06bb bb35 9cbc 1f57 78ba
00000040: 9d3b e4bb db81 443c fe6a 033d 5f2f 1d3d
00000050: f889 ae3b e3d8 06bc 7ece 83b9 c3db d83b
00000060: ccc9 e03c 301c 083c c3fd 403c ab8c 663d
00000070: f3db 6d3c ba12 5d3c 71df 543a 7422 113c
00000080: 677c 993c f0ab 9abc c98a 89bd 9e46 e4bc
00000090: 1610 9bbc 808d dabb 515e 1cbc 6ac1 4c3c
000000a0: fd95 87bc 73ef ccbb be62 90bc eb4a 48bb
000000b0: 1e57 8abb 60f8 34bc f983 4fbc 3c6b 05bc
000000c0: 8497 9dbc 76cc 563c e28c 003c 6b23 5a3c
000000d0: 041e b2bb 2f27 5f3b b4e8 b63c d6a4 9cbc
000000e0: c02e d43b b455 ba3b 1d04 b6bb b648 96bb
000000f0: cb73 73bc e918 233b 4cd8 e53c ffa8 ad3b
00000100: 474b 51bd 13dd b0bd fb6c a03d 010f 31bd
00000110: 2246 093d 88ab 9b3d 90d9 863d 61f9 423c
00000120: eb35 88bd 3e87 57bc b1f9 40bd fb72 4cbc
00000130: 88a2 75bc 5348 8bbd 4bb0 94bd 0be5 093a
00000140: f8db 96bc 4c35 003e 4edb c0bd f565 e2bc
00000150: 1b5b 05bd f7dc 173e f63c 093d ebd4 193e
00000160: ba9d e3bb 064d 9abd 2c38 373e 9a57 c03d
00000170: 9031 68be af31 9e3c 5ee4 18bb 887e fdbd
00000180: 6e1a f23d 65f0 0cbe ad87 a73d 2b02 c1bd
00000190: 16a8 8b3d 6429 ec3d fd70 16bd 8c93 67bd
000001a0: 86b7 593d 23c8 33be 5c40 573c 4e10 f9bd
000001b0: 9956 16bd 41e7 423d 7d42 35bd 0788 34bd
000001c0: 5691 053d dee8 aabc ba54 123e d379 9f3c
000001d0: 8ac9 c03d 4c7a 91bc 368f 143d 4cf6 e3bc
000001e0: 3844 fe3c 342b dbbd 5740 4e3d 6be7 ed3d
000001f0: fdcc 5f3d 9284 fb3c 5baa 91bd 9d40 0b3e
00000200: 5a3d b93d cebd e4bc 447c d33d e60b 2dba
00000210: 8152 53bd f00f babd c7ea c73d 2c31 c93c
00000220: fa3b 9f3d 1041 a7bd f38b 703d f256 a2bd
00000230: c137 c93d 3f53 443d 5233 76bd 9d4c 97bd
00000240: 7953 ef3d 9b43 1fbc f11d 283e dc98 7bbd
00000250: a76a b9bd 3d73 60bd 989a 493e 7931 243c
00000260: 8c7e ba3c 01e6 1ebe 34ae 3e3d cbba ad3c
00000270: 43a9 bf3c 7824 41bd a698 bb3c 7829 96bd
00000280: f83f 65bd 1456 4c3d f432 c6bc f6dc 17be
00000290: 11eb 333b d843 3fbe 28cd 733b 75b3 2e3c
000002a0: f210 47bb b24b e53b 258c babd b194 b73d
000002b0: 00ff 203e 0cb7 13bd a12d d5bd 82c3 623c
000002c0: 981c 7f3d 58cd b1ba b91c 0dbd 8552 d0bd
000002d0: fd7b 89bd c2e1 39bd 399e 3fbe 7f13 e23c
000002e0: 6c8d 233d 2984 85bd 7c5d db3c 9ef1 85bd
000002f0: 7170 b53c aace db3c f196 00be da1e c83d
00000300: 4afc 82be c06b df3d b1cd 3abc 0fa9 0e3d
00000310: 3219 283e 6fa4 30bd 62ac 81be 0352 6e3c
00000320: c5de dc3b 580a 03bd 2de0 453d 4d46 a9bc
00000330: 00f7 d13c 7304 e23d 59d1 9b3d bb33 06be
00000340: 5a18 d8bc 6889 7dbd 245c 263e fc73 3a3e
00000350: 8219 f33d 3a1b 1fbe f4b9 813b b1d0 c73c
00000360: c1ca 57be e24c 933e fc31 cc3c 8b6a cebd
00000370: c67d 2d3e 1f06 aebd e1e1 eebd 7d0e 3dbe
00000380: de13 f53d 759e 9e3d 8908 8ebd 4010 263e
00000390: 8872 993d ba53 0b3e c6ea 88be 8751 fdbd
000003a0: 449c b7bc cee7 17be 0425 6abe aa60 0dbd
000003b0: 02e3 babd a690 8b3d c1a3 473e 44ba 5ebd
000003c0: bc37 fdbb eb09 08bd 2ba2 ee3c 0751 2c3e
000003d0: 798e dcbd 533d f2bd 5fe2 7f3d c51e 46be
000003e0: be94 7ebb 35c4 7bbc 1b32 e83d bfad 323d
000003f0: ee23 d5bd 5412 843d e9aa c7bd 1ab2 3d3e
0.0019473885 0.010802963 0.0045184027 -0.008592885 -0.0061728116 0.012018139 0.002002573 -0.0045624143
-0.019233022 -0.0024340746 -0.028616048 -0.028614094 -0.0013502507 -0.0020508408 -0.01906859 -0.0009473431
-0.0069651143 0.011993851 0.032084458 0.038375255 0.0053265058 -0.008230421 -0.00025140116 0.0066179945
0.027439974 0.008307502 0.0117792515 0.056286495 0.014517772 0.013493234 0.00081204536 0.008858312
0.018736077 -0.018880814 -0.06715924 -0.027865704 -0.018928569 -0.0066697 -0.009543971 0.012497285
-0.016551012 -0.0062541305 -0.017625209 -0.0030562233 -0.004221811 -0.011045545 -0.012665742 -0.008143242
-0.019237287 0.013110271 0.007846089 0.013314108 -0.005435707 0.0034050455 0.022327758 -0.019121569
0.0064752996 0.005686486 -0.0055546896 -0.0045863045 -0.01485915 0.0024886674 0.02805724 0.005299687
-0.05109718 -0.086359166 0.078332864 -0.0432272 0.03351415 0.07601076 0.065844655 0.011900277
-0.06650909 -0.013154803 -0.047113124 -0.012478585 -0.014992364 -0.06800904 -0.07260188 0.00052602653
-0.018415436 0.12520331 -0.09416829 -0.027636508 -0.032557588 0.14830385 0.033505403 0.15022628
-0.0069462927 -0.07534222 0.17892522 0.09391709 -0.22675157 0.0193108 -0.0023329477 -0.123776495
0.11821447 -0.13763578 0.08180175 -0.09424242 0.06819169 0.11531332 -0.036728848 -0.056537196
0.053153537 -0.17556815 0.013137903 -0.12161313 -0.03670368 0.047583822 -0.04425286 -0.04407504
0.032609306 -0.020862993 0.14290133 0.01946727 0.094134405 -0.017758511 0.03626939 -0.027827404
0.031038389 -0.107016 0.050354328 0.11616405 0.05463885 0.030702863 -0.07112571 0.13598867
0.09044905 -0.027922537 0.10326436 -0.0006601199 -0.051592354 -0.09085071 0.09761577 0.02455958
0.077751115 -0.081667066 0.058727216 -0.0792674 0.09825087 0.047930952 -0.060107537 -0.0738766
0.11685843 -0.009720708 0.16417672 -0.061425075 -0.090535454 -0.0547974 0.19687879 0.010021561
0.02276542 -0.15517427 0.04655285 0.021207234 0.02339614 -0.04715392 0.022899937 -0.07332128
-0.05596921 0.049886778 -0.024194218 -0.14830384 0.0027453343 -0.18678224 0.003720114 0.010662903
-0.003037509 0.006997549 -0.09108762 0.089639075 0.15722275 -0.03606324 -0.10409094 0.013840558
0.06228313 -0.0013565226 -0.03445122 -0.10171989 -0.06713102 -0.045381315 -0.18712701 0.027597187
0.039929792 -0.06519348 0.026777975 -0.065402254 0.022148343 0.026831944 -0.1255758 0.097715095
-0.25583106 0.109092236 -0.01140158 0.034829196 0.16415861 -0.043125566 -0.2532683 0.01454592
0.0067404234 -0.031992286 0.048309494 -0.020663405 0.025630474 0.11036005 0.07608289 -0.13105671
-0.0263788 -0.06189862 0.16246086 0.18208307 0.118700996 -0.1553773 0.003958935 0.024391504
-0.21073438 0.28769594 0.024926178 -0.10078915 0.1694251 -0.08497261 -0.11664177 -0.18462558
0.1196668 0.07745067 -0.06935222 0.16217136 0.07492548 0.13606158 -0.26741618 -0.12369066
-0.02241338 -0.1483452 -0.22865683 -0.034516014 -0.091253296 0.06814699 0.19496061 -0.054376855
-0.0077275913 -0.033212584 0.029130062 0.16827784 -0.10769362 -0.11828103 0.062471744 -0.19347675
-0.0038845981 -0.015366604 0.11337682 0.04362273 -0.10407244 0.06448808 -0.097493954 0.18524972

thr f4 [1, 64, 1, 1]
00000000: 0000 803f 0000 803f 0000 803f 0000 803f
00000010: 0000 803f 0000 803f 0000 803f 0000 803f
00000020: 0000 803f 0000 803f 0000 803f 0000 803f
00000030: 0000 803f 0000 803f 0000 803f 0000 803f
00000040: 0000 803f 0000 803f 0000 803f 0000 803f
00000050: 0000 803f 0000 803f 0000 803f 0000 803f
00000060: 0000 803f 0000 803f 0000 803f 0000 803f
00000070: 0000 803f 0000 803f 0000 803f 0000 803f
00000080: 0000 803f 0000 803f 0000 803f 0000 803f
00000090: 0000 803f 0000 803f 0000 803f 0000 803f
000000a0: 0000 803f 0000 803f 0000 803f 0000 803f
000000b0: 0000 803f 0000 803f 0000 803f 0000 803f
000000c0: 0000 803f 0000 803f 0000 803f 0000 803f
000000d0: 0000 803f 0000 803f 0000 803f 0000 803f
000000e0: 0000 803f 0000 803f 0000 803f 0000 803f
000000f0: 0000 803f 0000 803f 0000 803f 0000 803f
1.0 1.0 1.0 1.0 1.0 1.0 1.0 1.0
1.0 1.0 1.0 1.0 1.0 1.0 1.0 1.0
1.0 1.0 1.0 1.0 1.0 1.0 1.0 1.0
1.0 1.0 1.0 1.0 1.0 1.0 1.0 1.0
1.0 1.0 1.0 1.0 1.0 1.0 1.0 1.0
1.0 1.0 1.0 1.0 1.0 1.0 1.0 1.0
1.0 1.0 1.0 1.0 1.0 1.0 1.0 1.0
1.0 1.0 1.0 1.0 1.0 1.0 1.0 1.0

exp_avg_sq f4 [64, 1, 8, 8]
00000000: 5623 1b30 756a 2d30 deb6 1830 8326 1030
00000010: 8fba 1030 f004 1330 b477 1830 4287 1830
00000020: 6779 0430 d3cb 1c30 d3ad 1630 b4c3 0f30
00000030: ad30 1e30 be72 1330 f978 1730 61eb 0330
00000040: 6912 f12f 0c06 f22f 0f06 f32f e05f fd2f
00000050: b964 f92f d14f da2f d231 f02f 3d80 f12f
00000060: 9741 0f30 abff 0130 bc90 0830 311c 0530
00000070: 5541 0830 4ff5 cc2f 026c f62f 2491 1530
00000080: 9837 3330 f045 3130 fe40 4130 9a91 4b30
00000090: 5fdd 6c30 8b3a 5030 5477 4130 46f9 4a30
000000a0: 32f2 3130 180f 3430 083a 3b30 c924 4c30
000000b0: 38d1 6b30 0c28 5f30 d479 4c30 121a 3530
000000c0: b25a 1f30 6577 1c30 b82e 2a30 57d1 2c30
000000d0: de76 1930 fd48 1730 38f4 2630 299e 1830
000000e0: 9f69 2830 0a22 3830 2acb 4a30 0c9f 4830
000000f0: 297a 4130 486d 4230 ccaa 5730 b48d 5730
00000100: 4007 0d34 9191 0f34 a6e5 0e34 678e 0e34
00000110: 1362 0c34 1689 0834 7d57 0634 769e 0034
00000120: 1ad1 0b34 e525 0d34 94cc 0c34 5af1 0b34
00000130: d5dc 0834 0296 0634 30b3 0334 5d08 fe33
00000140: 9c56 0934 125e 0a34 e93b 0934 d561 0834
00000150: 024a 0834 c934 0334 1c42 0234 fc60 f733
00000160: 5008 0734 0d63 0634 d802 0634 3cf7 0334
00000170: baf6 0134 3a7a fd33 1368 fb33 1436 f133
00000180: 0360 0534 0845 0534 624e 0334 f85a 0534
00000190: d994 fc33 c945 f733 66b5 f033 5cc2 e833
000001a0: 498b 0034 462b 0134 f73f ff33 a6d9 fa33
000001b0: b834 f533 e0b1 ed33 32e1 e633 5935 e033
000001c0: 70f1 f933 d3fb fa33 62f4 f633 bf4e f133
000001d0: 355f ec33 51af e833 0401 e033 cd74 db33
000001e0: c26c f533 4cad f233 0c78 ee33 ce0e ed33
000001f0: 9575 e633 9a0d df33 660e da33 c226 d433
00000200: 3021 cd36 9aaa ce36 cbf9 cf36 cdc9 d036
00000210: ea8f d036 1d2d cf36 3451 cc36 59f7 c836
00000220: 1bf8 cd36 e513 d036 b635 d236 c949 d236
00000230: ea70 d136 34d8 cf36 9716 cd36 45c5 c936
00000240: eb2c ce36 ab16 d036 c663 d136 f275 d236
00000250: e4a7 d136 116c cf36 1041 cd36 43e2 c936
00000260: f5fc cd36 9bf4 cf36 13db d036 3351 d136
00000270: 3e69 d036 b0f8 ce36 01ea cb36 a9bd c836
00000280: eb4d cc36 a126 ce36 6a29 cf36 ca75 cf36
00000290: 520f cf36 fbdf cc36 8f2a ca36 c599 c636
000002a0: 4713 cb36 7141 cc36 5b57 cd36 e523 ce36
000002b0: 90a8 cc36 bcc1 cb36 1d30 c836 2275 c536
000002c0: 70a7 c836 8bd0 c936 70d8 ca36 6b40 cc36
000002d0: 49ca ca36 57dd c836 d4f8 c536 f681 c336
000002e0: edb3 c536 5739 c736 b76f c736 ee7a c736
000002f0: 723c c736 c29e c536 6f58 c336 3f5a c036
00000300: dabe 4e23 c681 be24 b7d8 b324 0f40 b324
00000310: 3b82 7324 d008 f423 83f4 c624 6b0a 0024
00000320: 7302 a924 20d0 0625 a356 fd24 7a69 d624
00000330: b091 4c25 34fd 2b25 0727 5225 2ecb 1625
00000340: 7979 8a24 dce3 9024 9ffd 0725 1775 9d24
00000350: 84d0 aa24 5907 b724 4efb 9b24 4f1e 0425
00000360: c1ac 8724 8508 cf24 082e af24 23f1 3e24
00000370: 0f39 c824 1c9c f524 8a55 1325 9bd2 4425
00000380: b145 6624 431c e124 f6e1 f224 a843 ed24
00000390: 5abf 9824 e5f2 8824 cee9 fd24 522f 9124
000003a0: 1e63 bf24 4c87 9524 9a14 5324 3b0f f023
000003b0: 34a7 2724 a480 a924 de0c b124 10b7 6324
000003c0: 9fb4 2b24 6a80 c324 f213 be24 e8b8 0625
000003d0: 8485 5424 be1e 9324 12d4 0224 88cf 0925
000003e0: 132b 7223 abb1 dd23 ba7b 0225 50d5 fe24
000003f0: bcbe ed24 051e d823 48ef 4524 dce5 1624
5.6438887e-10 6.308832e-10 5.555715e-10 5.2441623e-10 5.265201e-10 5.3485305e-10 5.5467386e-10 5.548949e-10
4.8193843e-10 5.704212e-10 5.48167e-10 5.230121e-10 5.754924e-10 5.3641347e-10 5.510539e-10 4.7992016e-10
4.3850726e-10 4.402384e-10 4.4205747e-10 4.6088555e-10 4.5364404e-10 3.9710682e-10 4.3691145e-10 4.3928763e-10
5.2116306e-10 4.729325e-10 4.968219e-10 4.842518e-10 4.9569354e-10 3.7281686e-10 4.4823883e-10 5.441214e-10
6.5198824e-10 6.449161e-10 7.030535e-10 7.405788e-10 8.6170887e-10 7.5753154e-10 7.0382566e-10 7.384141e-10
6.4736405e-10 6.550507e-10 6.811267e-10 7.426704e-10 8.578982e-10 8.118384e-10 7.4387896e-10 6.5884465e-10
5.797275e-10 5.692214e-10 6.191203e-10 6.2870725e-10 5.5829996e-10 5.50372e-10 6.0737504e-10 5.5522037e-10
6.126814e-10 6.698718e-10 7.3775885e-10 7.2985595e-10 7.038659e-10 7.0732087e-10 7.845926e-10 7.8417917e-10
1.3134286e-07 1.337087e-07 1.3308326e-07 1.3276586e-07 1.3074195e-07 1.2715859e-07 1.251155e-07 1.1978577e-07
1.3021454e-07 1.3145434e-07 1.3112941e-07 1.3033187e-07 1.2746325e-07 1.2534295e-07 1.2265514e-07 1.1829318e-07
1.2790628e-07 1.2886474e-07 1.2780914e-07 1.2701578e-07 1.2692911e-07 1.2219529e-07 1.2131244e-07 1.1519475e-07
1.2575879e-07 1.2515757e-07 1.2480757e-07 1.2290269e-07 1.210382e-07 1.18034635e-07 1.1707029e-07 1.1232274e-07
1.2421519e-07 1.2411704e-07 1.2228841e-07 1.2419684e-07 1.176174e-07 1.15145276e-07 1.1208867e-07 1.08386956e-07
1.19716e-07 1.2029804e-07 1.1885998e-07 1.1681122e-07 1.1418291e-07 1.1068528e-07 1.07511724e-07 1.0440517e-07
1.1638883e-07 1.1687339e-07 1.14997206e-07 1.1236761e-07 1.10069244e-07 1.0835232e-07 1.04309976e-07 1.0219228e-07
1.14284845e-07 1.1300526e-07 1.1104575e-07 1.10388655e-07 1.0731598e-07 1.0386721e-07 1.0154035e-07 9.879069e-08
6.1133396e-06 6.159139e-06 6.1981605e-06 6.2223758e-06 6.215637e-06 6.1743326e-06 6.089127e-06 5.9892595e-06
6.1383594e-06 6.201199e-06 6.2647405e-06 6.2670774e-06 6.2418303e-06 6.19425e-06 6.112106e-06 6.013232e-06
6.1445076e-06 6.201522e-06 6.2403005e-06 6.2722183e-06 6.2482304e-06 6.1816613e-06 6.1170504e-06 6.016607e-06
6.138924e-06 6.1975566e-06 6.2243867e-06 6.238138e-06 6.211135e-06 6.1682294e-06 6.077113e-06 5.982544e-06
6.0887446e-06 6.1437754e-06 6.173902e-06 6.182793e-06 6.1708643e-06 6.1057485e-06 6.0250236e-06 5.918761e-06
6.0521156e-06 6.087292e-06 6.1196456e-06 6.143457e-06 6.099297e-06 6.072425e-06 5.9660656e-06 5.8846936e-06
5.9799568e-06 6.0145444e-06 6.0452658e-06 6.087173e-06 6.043618e-06 5.986232e-06 5.900025e-06 5.8265823e-06
5.8920036e-06 5.9373374e-06 5.9436675e-06 5.944973e-06 5.937699e-06 5.8895394e-06 5.821748e-06 5.732552e-06
1.1207697e-17 8.261921e-17 7.7996005e-17 7.7737395e-17 5.2802535e-17 2.6458265e-17 8.628303e-17 2.77644e-17
7.3296216e-17 1.1693163e-16 1.0986803e-16 9.298639e-17 1.774354e-16 1.4917674e-16 1.822782e-16 1.3079266e-16
6.005374e-17 6.2836054e-17 1.1795314e-16 6.8286254e-17 7.407899e-17 7.9376046e-17 6.764626e-17 1.1459444e-16
5.8839574e-17 8.978637e-17 7.597213e-17 4.1403933e-17 8.6832835e-17 1.0651627e-16 1.2779199e-16 1.7071646e-16
4.993233e-17 9.762607e-17 1.0533356e-16 1.0289698e-16 6.6243654e-17 5.939208e-17 1.1011734e-16 6.296389e-17
8.300096e-17 6.484765e-17 4.5770782e-17 2.6027302e-17 3.635398e-17 7.350999e-17 7.678331e-17 4.937784e-17
3.7232706e-17 8.478531e-17 8.2433154e-17 1.1685296e-16 4.6083264e-17 6.380317e-17 2.8368887e-17 1.195317e-16
1.3127968e-17 2.4036113e-17 1.1317623e-16 1.10516306e-16 1.0310548e-16 2.343148e-17 4.2920245e-17 3.2720764e-17

exp_avg f4 [64, 1, 8, 8]
00000000: d990 f1b5 842d 8fb5 c851 8cb6 0c32 01b6
00000010: b267 49b6 6cbf 1eb6 9ff3 f7b5 2fb0 d1b3
00000020: 26d4 9cb6 2337 3cb5 9efc cfb5 e489 1cb6
00000030: 6857 abb5 4188 a9b6 62fa 5eb5 38f9 27b6
00000040: e78e 9cb6 1e4d 20b6 24f2 5db6 8fca 51b6
00000050: 9018 02b6 1d60 4bb6 810d dbb5 180f 89b6
00000060: bbc3 a4b6 ac43 b0b6 3e71 70b5 7ce7 3e34
00000070: 3ea1 7b36 6e26 bd34 fa05 d3b5 e6b5 d1b6
00000080: 3318 82b6 48d2 e8b6 f4e9 7bb6 61ed dfb6
00000090: f3c2 36b7 3a06 47b7 db3a 11b7 8e31 d6b5
000000a0: 4968 79b6 26f0 87b6 5a40 b7b6 a7d6 d6b6
000000b0: 02c3 f1b6 884c f3b6 3f6e 81b6 da58 80b6
000000c0: 552d bdb6 3492 b0b6 15f8 aab6 7f85 adb6
000000d0: ce0d f8b6 30dc cfb6 a77c 00b6 a9c5 8ab6
000000e0: 1ec6 6eb6 9150 a7b5 1f43 d735 fba3 4f36
000000f0: 8a6a 7836 8985 4336 95a7 b836 6901 ed36
00000100: bdcb 4137 972b ab37 f911 3037 9b80 8037
00000110: e377 8f37 8d10 81b6 5346 7337 598e 4d37
00000120: 44ed 3937 9e5a da37 45c0 c937 5e4b 0737
00000130: a618 f937 f52f 8bb6 ad26 b437 8036 b337
00000140: d3cb 4d36 21c9 8137 5b7c 33b6 dcb7 73b4
00000150: 70ee 0838 a130 0537 4f2b fa37 543b e437
00000160: fb47 9336 3dab 8637 0363 afb4 28bb c337
00000170: 56e1 d637 353a 8635 1383 e534 3359 da37
00000180: efee 80b7 4738 94b7 3346 38b7 e4e2 9ab7
00000190: ce32 6b37 2d3b 8f37 5c17 6bb6 e527 f5b6
000001a0: ddad 6434 b084 0a37 e3f8 9e37 62f3 ab37
000001b0: e2bb 28b7 a005 cdb7 f2ad f836 15d7 4737
000001c0: 0138 f4b6 11a6 54b7 c2ad a836 d38b b9b6
000001d0: 2f96 b035 4222 d4b6 708e 51b7 fc9d 9c36
000001e0: ea41 eb37 bfde ac37 a4fc e536 49b3 6837
000001f0: f18a 6b35 6f97 89b7 d14b 3ab7 aa33 1337
00000200: d28d 08b8 593c 7338 acd4 3838 ada4 8537
00000210: 5448 5b37 63a6 6737 94a9 0e38 0683 0037
00000220: 4593 d237 394b e838 59db 6ab7 a3bc c737
00000230: 28b7 2138 ecdc 0638 adb1 9138 eeff 8038
00000240: 61e4 2337 fbd4 bc38 1cc6 b938 3cdd 5138
00000250: b1ac 9638 4ceb e037 823e 6838 f564 6838
00000260: 3a20 2338 ac8a 4138 939b 8338 851c 9b38
00000270: cd67 8c38 46ed 83b6 b7f7 9338 3e01 8538
00000280: 2eb5 9037 1565 cb38 2af4 c738 213a b538
00000290: 1434 8b38 499a 1d38 c8e9 6338 31a9 cd38
000002a0: 1d4b c438 e8d5 1739 14c2 d338 5172 9537
000002b0: 1f75 8038 1494 63b7 6e5f 8838 9f8e 5638
000002c0: 581f 82b4 d7ee bc38 ef71 ae38 5dfd a3b6
000002d0: b2a7 81b4 6bdc fd36 723d 0638 beaa 4338
000002e0: 5d27 e638 aa7f 8f38 4300 8138 da4a 9238
000002f0: 3803 f7b7 8984 acb7 4ea5 e3b6 06da 4838
00000300: 0400 0080 0400 0080 0400 0080 0400 0080
00000310: 0400 0080 0400 0000 0400 0080 0400 0000
00000320: 0400 0000 0400 0000 0400 0000 0400 0000
00000330: 0400 0000 0400 0000 0400 0000 0400 0000
00000340: 0400 0000 0400 0000 0400 0000 0400 0000
00000350: 0400 0000 0400 0000 0400 0000 0400 0000
00000360: 0400 0080 0400 0000 0400 0080 0400 0000
00000370: 0400 0000 0400 0000 0400 0000 0400 0000
00000380: 0400 0000 0400 0000 0400 0000 0400 0000
00000390: 0400 0000 0400 0000 0400 0000 0400 0000
000003a0: 0400 0000 0400 0000 0400 0000 0400 0000
000003b0: 0400 0000 0400 0000 0400 0000 0400 0000
000003c0: 0400 0000 0400 0000 0400 0000 0400 0000
000003d0: 0400 0000 0400 0000 0400 0000 0400 0000
000003e0: 0400 0080 0400 0000 0400 0000 0400 0000
000003f0: 0400 0000 0400 0000 0400 0000 0400 0000
-1.7998055e-06 -1.0667577e-06 -4.1818457e-06 -1.925163e-06 -3.0011693e-06 -2.3655257e-06 -1.8473837e-06 -9.7643685e-08
-4.6738596e-06 -7.011569e-07 -1.5496223e-06 -2.3326074e-06 -1.2765931e-06 -5.0524545e-06 -8.30658e-07 -2.5030004e-06
-4.6657983e-06 -2.3886746e-06 -3.307251e-06 -3.1261332e-06 -1.9385807e-06 -3.0305303e-06 -1.6320702e-06 -4.0846753e-06
-4.910367e-06 -5.253087e-06 -8.9571756e-07 1.7779342e-07 3.749577e-06 3.5231955e-07 -1.5722464e-06 -6.249861e-06
-3.877119e-06 -6.9386188e-06 -3.7538093e-06 -6.6735524e-06 -1.08934355e-05 -1.1862774e-05 -8.656377e-06 -1.5958665e-06
-3.7164593e-06 -4.0512705e-06 -5.4613165e-06 -6.402686e-06 -7.2050616e-06 -7.2508738e-06 -3.857334e-06 -3.825041e-06
-5.6379163e-06 -5.262229e-06 -5.0952754e-06 -5.1713428e-06 -7.392583e-06 -6.194714e-06 -1.9146044e-06 -4.135731e-06
-3.5580083e-06 -1.2465918e-06 1.6038283e-06 3.0940853e-06 3.7016894e-06 2.9134992e-06 5.5031364e-06 7.0633146e-06
1.1551133e-05 2.0405087e-05 1.0494602e-05 1.5318676e-05 1.7102755e-05 -3.8464264e-06 1.4500302e-05 1.2252095e-05
1.1082102e-05 2.6029822e-05 2.40506e-05 8.064175e-06 2.9694591e-05 -4.1481057e-06 2.1475682e-05 2.1363841e-05
3.0666022e-06 1.5471656e-05 -2.6745463e-06 -2.2698026e-07 3.264699e-05 7.93874e-06 2.982249e-05 2.7207345e-05
4.389321e-06 1.6053784e-05 -3.266833e-07 2.3332963e-05 2.5615718e-05 1.0000718e-06 4.2749943e-07 2.6029162e-05
-1.5370051e-05 -1.7669181e-05 -1.0983599e-05 -1.8463885e-05 1.401892e-05 1.7074484e-05 -3.5031326e-06 -7.3062133e-06
2.1297406e-07 8.256335e-06 1.8950965e-05 2.0498122e-05 -1.0057325e-05 -2.4440524e-05 7.411226e-06 1.1911402e-05
-7.2782864e-06 -1.267485e-05 5.0270182e-06 -5.5297073e-06 1.3156731e-06 -6.3220805e-06 -1.2490535e-05 4.667554e-06
2.8044877e-05 2.0607722e-05 6.854143e-06 1.3870021e-05 8.774651e-07 -1.640219e-05 -1.1104116e-05 8.773912e-06
-3.2557007e-05 5.7991918e-05 4.4067085e-05 1.5931519e-05 1.3070257e-05 1.3807413e-05 3.401337e-05 7.659901e-06
2.5102529e-05 0.000110766334 -1.3998558e-05 2.381049e-05 3.855597e-05 3.215384e-05 6.9472335e-05 6.151186e-05
9.768731e-06 9.004209e-05 8.858388e-05 5.0035524e-05 7.184724e-05 2.681245e-05 5.5371325e-05 5.5407134e-05
3.889224e-05 4.6143934e-05 6.275545e-05 7.396288e-05 6.6950546e-05 -3.9317265e-06 7.055647e-05 6.3421656e-05
1.7250506e-05 9.698622e-05 9.5345385e-05 8.64158e-05 6.637737e-05 3.7575406e-05 5.4338743e-05 9.806676e-05
9.359999e-05 0.00014480168 0.00010097414 1.7815417e-05 6.125331e-05 -1.35647315e-05 6.5027605e-05 5.1154402e-05
-2.4237193e-07 9.009026e-05 8.318188e-05 -4.887274e-06 -2.4150137e-07 7.5656476e-06 3.2005315e-05 4.665064e-05
0.000109745866 6.842551e-05 6.151248e-05 6.975765e-05 -2.9446193e-05 -2.0565714e-05 -6.784371e-06 4.7886766e-05
-6e-45 -6e-45 -6e-45 -6e-45 -6e-45 6e-45 -6e-45 6e-45
6e-45 6e-45 6e-45 6e-45 6e-45 6e-45 6e-45 6e-45
6e-45 6e-45 6e-45 6e-45 6e-45 6e-45 6e-45 6e-45
-6e-45 6e-45 -6e-45 6e-45 6e-45 6e-45 6e-45 6e-45
6e-45 6e-45 6e-45 6e-45 6e-45 6e-45 6e-45 6e-45
6e-45 6e-45 6e-45 6e-45 6e-45 6e-45 6e-45 6e-45
6e-45 6e-45 6e-45 6e-45 6e-45 6e-45 6e-45 6e-45
-6e-45 6e-45 6e-45 6e-45 6e-45 6e-45 6e-45 6e-45

exp_avg_sq f4 [64]
00000000: bb3a f730 942c a034 8b08 6e37 d1a3 5925
00000010: 0f1b 1532 d0ba c82c b310 b82c 2452 9231
00000020: e5ee 8e2f 4810 d531 fd1f c12b 4d39 3d2d
00000030: 4743 fd28 dd0c 4f38 515b c434 24bb 1131
00000040: b9c8 b026 fa65 5931 a1d6 0229 3f92 fa33
00000050: 5ad2 842b 6fe6 2830 9b37 b426 4bdf 4c33
00000060: 0ad7 5730 a678 b32f 0677 5f2f c9b2 1e32
00000070: 67f6 6430 bcf7 9531 bf27 9933 403d a333
00000080: 5135 8435 0eb0 092f 3bfe 2831 1988 2e2b
00000090: 6cc8 ee31 f5e6 7527 a310 2732 69a4 2d28
000000a0: 7cae ce32 fe7b e630 5067 612e 7ae5 6e37
000000b0: 9115 ba29 d124 9e2c 1607 2f32 c6ed eb36
000000c0: f343 0430 d3e5 1e2e 47b1 4c26 ecbc bd30
000000d0: 827e a930 8b21 4936 5ae8 0436 2958 b02e
000000e0: 5993 1b28 9bbe b235 84c2 4434 c3b1 6b26
000000f0: 22a3 5633 4cab 702a b1ff 1630 a5a4 7e28
1.7988308e-09 2.9834757e-07 1.41878945e-05 1.8877253e-16 8.679094e-09 5.7050822e-12 5.2314485e-12 4.2584976e-09
2.5999394e-10 6.200967e-09 1.3722353e-12 1.07561295e-11 2.811782e-14 4.9364626e-05 3.6574286e-07 2.1206654e-09
1.2266859e-15 3.1635623e-09 2.905196e-14 1.1668134e-07 9.437548e-13 6.144551e-10 1.2505081e-15 4.7700535e-08
7.8522133e-10 3.2645636e-10 2.0324017e-10 9.2374615e-09 8.3296076e-10 4.364635e-09 7.1318475e-08 7.60142e-08
9.850284e-07 1.2522625e-10 2.459173e-09 6.200609e-13 6.949497e-09 3.4125782e-15 9.724462e-09 9.63908e-15
2.4060903e-08 1.6769943e-09 5.1250837e-11 1.4239335e-05 8.2638005e-14 4.4947175e-12 1.0187952e-08 7.0312262e-06
4.811788e-10 3.6129166e-11 7.1016973e-16 1.3805255e-09 1.2332324e-09 2.9970859e-06 1.980478e-06 8.019214e-11
8.636179e-15 1.3317507e-06 1.8324687e-07 8.1772915e-16 4.9974126e-08 2.1375713e-13 5.493304e-10 1.4135534e-14

exp_avg f4 [64]
00000000: adba 2ab7 3079 0d38 80af 6d39 0400 0000
00000010: eb68 6d37 4faa 8732 0d52 10b2 1a91 03b3
00000020: 53ff aab5 c079 6d35 563d 88b1 59cb b0b2
00000030: b196 ab26 3aee e8b9 2049 8e35 308c ce37
00000040: 0400 0080 2309 b6b6 d052 d2b1 7460 12b5
00000050: 8d08 ac33 ecd5 66b4 0400 0000 6584 07b5
00000060: f22e e034 42a0 47b7 d51a 7f32 f5c5 7236
00000070: 4ce7 cdb3 0e1f 4bb7 bdac 2635 2d31 e4b7
00000080: b0ee 1db8 4088 93b3 9a42 36b4 0112 9433
00000090: 5257 0ab7 0297 3296 55a8 69b4 d476 fc9f
000000a0: 7921 02b5 b1a6 b1b4 9126 1fb2 cc32 a2b9
000000b0: 80b1 ac2b c716 1734 0d44 dab4 b5a7 2b39
000000c0: 538b 1f34 e5bb 1c34 0400 0000 0b02 5936
000000d0: ab9c 7fb3 6846 f0b8 d6ec b036 abfa 85b2
000000e0: c150 cc2e e078 6fb6 4a0c f5b7 0400 0080
000000f0: e19f 17b5 2ce1 67b2 2019 5937 93fb 48a4
-1.0176253e-05 3.3729884e-05 0.0002266746 6e-45 1.4150729e-05 1.5793516e-08 -8.400559e-09 -3.0632783e-08
-1.2740296e-06 8.846655e-07 -3.965094e-09 -2.0581568e-08 1.1906354e-15 -0.0004442798 1.0601107e-06 2.4622394e-05
-6e-45 -5.4250863e-06 -6.121219e-09 -5.4529596e-07 8.0109295e-08 -2.1498244e-07 6e-45 -5.048408e-07
4.1757409e-07 -1.1898637e-05 1.4849054e-08 3.6176036e-06 -9.588129e-08 -1.2106973e-05 6.2091186e-07 -2.7202617e-05
-3.7654012e-05 -6.870005e-08 -1.69743e-07 6.895062e-08 -8.245772e-06 -1.4426375e-25 -2.1761055e-07 -1.06922736e-19
-4.8477483e-07 -3.3090103e-07 -9.263787e-09 -0.00030936894 1.2270601e-12 1.4071257e-07 -4.0655178e-07 0.00016370307
1.4858715e-07 1.4596988e-07 6e-45 3.233671e-06 -5.9514303e-08 -0.00011457206 5.27278e-06 -1.5597228e-08
9.291191e-11 -3.5684134e-06 -2.9211998e-05 -6e-45 -5.648454e-07 -1.3497168e-08 1.2940058e-05 -4.358118e-17

exp_avg_sq f4 [1, 64, 8, 8]
00000000: 35e6 2531 5664 2b31 43b2 3331 7245 3131
00000010: a5db 2f31 5630 2a31 ebaa 2731 4f4e 1e31
00000020: 81be 2b31 df14 3431 2831 4131 9e5e 3d31
00000030: f010 3731 04f0 2d31 c973 2831 ad1d 2031
00000040: d5a9 2131 86c3 2431 3372 2d31 c593 3231
00000050: 8e2a 2e31 406f 2831 81a6 2031 1424 1b31
00000060: f15a 1e31 5523 2131 b694 1d31 fccf 2331
00000070: d4ff 2131 b13e 1d31 39fe 1831 2b73 1331
00000080: 2c41 1631 8b0b 1e31 7168 3031 bed8 2831
00000090: 668f 2731 e92b 1f31 3d12 1b31 9c33 1131
000000a0: 2d24 1031 59a9 1531 24e2 2031 9001 1d31
000000b0: 7c67 1a31 b3ab 1831 6e99 1531 fd51 1231
000000c0: d594 ec30 193f ee30 ca9f ec30 1d2a ef30
000000d0: 3cac ef30 bf7e ea30 dd3b e730 ff7e e630
000000e0: d961 d430 7f24 db30 bd02 d930 5c5f dc30
000000f0: b683 de30 9ab4 da30 ac67 dc30 49e3 d830
00000100: e383 3638 954b 3838 035e 3938 0bbe 3938
00000110: d948 3938 993e 3838 2e96 3638 ce52 3438
00000120: de52 3838 2e2e 3a38 e45d 3b38 ddc2 3b38
00000130: d741 3b38 252b 3a38 0e66 3838 5809 3638
00000140: dc76 3938 1e60 3b38 9e85 3c38 18f5 3c38
00000150: a981 3c38 265b 3b38 4d93 3938 ee2f 3738
00000160: abd6 3938 47cb 3b38 76ff 3c38 3264 3d38
00000170: a5ea 3c38 8acd 3b38 bc02 3a38 d286 3738
00000180: 2775 3938 3b5b 3b38 d481 3c38 0bf8 3c38
00000190: 9886 3c38 ae6d 3b38 31a5 3938 6933 3738
000001a0: 1656 3838 cd30 3a38 1c60 3b38 13d2 3b38
000001b0: e556 3b38 3244 3a38 419a 3838 d73a 3638
000001c0: fb7c 3638 5948 3838 a65a 3938 88db 3938
000001d0: 9b7f 3938 3576 3838 96cd 3638 ce8f 3438
000001e0: d61c 3438 58cf 3538 2ace 3638 5f3c 3738
000001f0: 29d6 3638 75ed 3538 9a66 3438 a04b 3238
00000200: 7dd9 1c38 b57b 1e38 b0ad 1f38 bf1c 2038
00000210: 46d2 1f38 c9e9 1e38 de58 1d38 a056 1b38
00000220: 0891 1e38 1f67 2038 ef96 2138 cf08 2238
00000230: 71af 2138 5fc0 2038 d321 1f38 a9e8 1c38
00000240: 16b6 1f38 ca92 2138 3dca 2238 d747 2338
00000250: 7fea 2238 40e1 2138 4241 2038 1201 1e38
00000260: 9f79 2038 a249 2238 8c80 2338 34f9 2338
00000270: 7d9c 2338 4f8e 2238 eed7 2038 94a6 1e38
00000280: 57a2 2038 7d6a 2238 46a2 2338 e933 2438
00000290: 6dd4 2338 0ab5 2238 d8ed 2038 c0c1 1e38
000002a0: d21e 2038 50eb 2138 fe24 2338 21a1 2338
000002b0: 9648 2338 6436 2238 207d 2038 ac46 1e38
000002c0: 0914 1f38 4dc7 2038 4a00 2238 5c73 2238
000002d0: 1306 2238 91f2 2038 9f7b 1f38 7736 1d38
000002e0: c36e 1d38 f918 1f38 6e1d 2038 7084 2038
000002f0: 942a 2038 b83a 1f38 31a6 1d38 fd93 1b38
00000300: 722b 821e 5097 6d1e a3db 0021 c9bb 8320
00000310: 1586 cf1f 1029 5e1f ecda 3a1f 0b5a 5c20
00000320: eb60 461f 2ae2 b01e 4b21 9821 d724 b31e
00000330: f168 3a1f 8551 1a21 a6af b61f 8896 3a1d
00000340: 9796 311f 376a fc1f ed4d 4d20 0e51 0f21
00000350: 51e5 8020 c827 e91f 8a24 d620 2677 8620
00000360: 676a 8220 45c7 061f f195 2820 cb5d 6520
00000370: 5772 3920 cf7e d520 91a2 aa20 274b d220
00000380: facf 3d1f cd22 1320 4543 0c20 1ab0 f120
00000390: 891f 6c20 0838 3b1f 5ca1 b520 982b 031f
000003a0: 3bd6 de1e 699e 7c1f 7521 8e1f 943f 1921
000003b0: 0e2e 411e 2934 041f e1b3 0620 9b63 6d1e
000003c0: 87df ac20 717e d31e 728d 3f20 deae 9520
000003d0: baf9 cc1f 0b03 0d21 445c 5620 46c6 c41f
000003e0: 7ace f81f 04fe 461e a75b a21f f17f 531f
000003f0: 3b63 0e20 320c dc1f 2ce1 1420 6742 391f
2.4141518e-09 2.494081e-09 2.6149258e-09 2.5796365e-09 2.5590705e-09 2.4765732e-09 2.4398854e-09 2.303654e-09
2.4992064e-09 2.6205311e-09 2.8113138e-09 2.7556903e-09 2.6639633e-09 2.5311246e-09 2.4513034e-09 2.3299933e-09
2.3525122e-09 2.3976283e-09 2.5239728e-09 2.5986406e-09 2.5344522e-09 2.4510456e-09 2.337771e-09 2.2575977e-09
2.304372e-09 2.3448667e-09 2.293104e-09 2.3837847e-09 2.3574005e-09 2.2882143e-09 2.226342e-09 2.145678e-09
2.1864919e-09 2.2998587e-09 2.5670739e-09 2.4570421e-09 2.438321e-09 2.3162505e-09 2.2565836e-09 2.1129614e-09
2.0975321e-09 2.1778617e-09 2.341161e-09 2.2847395e-09 2.2468774e-09 2.221651e-09 2.1769568e-09 2.1292401e-09
1.7213561e-09 1.7334713e-09 1.7216675e-09 1.7401508e-09 1.7438491e-09 1.7061764e-09 1.6824476e-09 1.6770797e-09
1.545284e-09 1.594472e-09 1.5789606e-09 1.603421e-09 1.619006e-09 1.5912918e-09 1.6036572e-09 1.5780667e-09
4.351501e-05 4.393941e-05 4.4194992e-05 4.428443e-05 4.417528e-05 4.3927317e-05 4.3532047e-05 4.2992462e-05
4.3946195e-05 4.4388864e-05 4.4671717e-05 4.4765755e-05 4.4645592e-05 4.4386037e-05 4.3964064e-05 4.3400883e-05
4.4218134e-05 4.467379e-05 4.4947134e-05 4.5050954e-05 4.494345e-05 4.4669163e-05 4.424462e-05 4.3675238e-05
4.4307362e-05 4.477359e-05 4.506061e-05 4.5154426e-05 4.5041223e-05 4.4775697e-05 4.4348402e-05 4.375616e-05
4.4216544e-05 4.466924e-05 4.4943605e-05 4.50537e-05 4.4948043e-05 4.468642e-05 4.4261284e-05 4.367848e-05
4.3949192e-05 4.4391305e-05 4.4673783e-05 4.477992e-05 4.46652e-05 4.4409368e-05 4.401268e-05 4.344698e-05
4.350858e-05 4.3936398e-05 4.419186e-05 4.431189e-05 4.422628e-05 4.3979107e-05 4.358365e-05 4.3049273e-05
4.29422e-05 4.3346867e-05 4.3584187e-05 4.3686825e-05 4.3591634e-05 4.3374912e-05 4.30109e-05 4.250894e-05
3.739585e-05 3.7785347e-05 3.8070313e-05 3.8173745e-05 3.8104386e-05 3.7887865e-05 3.751448e-05 3.7035556e-05
3.7805206e-05 3.824301e-05 3.852596e-05 3.8632013e-05 3.8548784e-05 3.8326132e-05 3.7940055e-05 3.740998e-05
3.8078135e-05 3.85221e-05 3.881216e-05 3.8929134e-05 3.88422e-05 3.859517e-05 3.820775e-05 3.7671132e-05
3.826024e-05 3.8692386e-05 3.8981947e-05 3.9094317e-05 3.900797e-05 3.8756345e-05 3.8348073e-05 3.7825273e-05
3.8298163e-05 3.8722985e-05 3.9013357e-05 3.9148992e-05 3.9060065e-05 3.8792416e-05 3.8368482e-05 3.785058e-05
3.8175676e-05 3.8604543e-05 3.889668e-05 3.901229e-05 3.892983e-05 3.8674465e-05 3.8263504e-05 3.7735954e-05
3.7927213e-05 3.8332586e-05 3.862408e-05 3.8731247e-05 3.8629467e-05 3.837288e-05 3.8023685e-05 3.748244e-05
3.753487e-05 3.793181e-05 3.817438e-05 3.8270315e-05 3.8186627e-05 3.796324e-05 3.7586495e-05 3.7092705e-05
1.3782254e-20 1.2577966e-20 4.3658774e-19 2.231653e-19 8.788973e-20 4.7044295e-20 3.956812e-20 1.8664518e-19
4.20083e-20 1.8728264e-20 1.0308733e-18 1.8967599e-20 3.9473838e-20 5.228512e-19 7.7370584e-20 2.4694718e-21
3.7605773e-20 1.0690187e-19 1.7389959e-19 4.855756e-19 2.1835792e-19 9.874515e-20 3.627719e-19 2.277933e-19
2.2093268e-19 2.8540436e-20 1.4279765e-19 1.9428088e-19 1.5707941e-19 3.6167518e-19 2.8906698e-19 3.5625115e-19
4.019434e-20 1.2462899e-19 1.1880719e-19 4.0943522e-19 2.0000412e-19 3.9645138e-20 3.0769371e-19 2.777639e-20
2.3593768e-20 5.349411e-20 6.019469e-20 5.192256e-19 1.0226859e-20 2.7995233e-20 1.1409758e-19 1.25672735e-20
2.9285851e-19 2.2392789e-20 1.622513e-19 2.53573e-19 8.68105e-20 4.7776686e-19 1.8157033e-19 8.3337245e-20
1.0537367e-19 1.0534562e-20 6.8761295e-20 4.478682e-20 1.20607e-19 9.31938e-20 1.2610591e-19 3.92302e-20

exp_avg f4 [1, 64, 8, 8]
00000000: 10eb 2336 1f9d 6d33 eafe eeb4 bcca de34
00000010: 728d 7836 021c 8236 3442 ea35 d233 a3b4
00000020: bc44 3db7 611f d1b6 4fd9 99b6 fff5 e9b6
00000030: 9114 dcb6 1df4 a7b6 ae5e c5b6 f27b 51b6
00000040: f5c2 41b7 6d72 3db7 dbc6 e5b6 98f6 3db7
00000050: f2c2 4bb7 7d5e 25b7 505e e4b6 54e8 4db6
00000060: 12b9 afb6 eeab 09b7 c003 9bb6 97d7 63b6
00000070: b232 68b6 9757 b3b5 9dcb 8bb6 5de1 aeb5
00000080: 216c 83b6 1c3a 3c35 2fdf 3e36 118b 9c36
00000090: d008 79b6 062c 0bb6 d788 6db6 a08c 5ab6
000000a0: 3601 35b6 f9d2 1936 1f82 6d35 4d61 d135
000000b0: 2b69 09b6 0f2f cb35 8dbe a434 bfcd b736
000000c0: 39e9 bdb6 e60f 66b6 a498 87b6 70e0 63b6
000000d0: 3278 29b6 16b9 d335 c0f9 49b5 fe57 76b6
000000e0: 5c69 28b6 4e85 c2b6 1b52 bcb6 6ac1 e8b6
000000f0: 4fc7 23b7 4ac4 1cb7 044a b1b6 c0b8 63b6
00000100: e89a b8b8 deeb dfb8 ad06 d3b8 adb3 aeb8
00000110: c44b d3b8 fcc9 b0b8 5372 b3b8 60d1 73b8
00000120: d1d6 f4b8 95f9 d0b8 6838 1bb9 66b6 0eb9
00000130: cba8 e0b8 0432 04b9 7212 b0b8 fac6 bdb8
00000140: d23b 3eb8 d4ee 82b8 8e07 d2b8 4579 f2b8
00000150: 0efa c4b8 05bf c9b8 ebef 99b8 a64c dfb8
00000160: 30f8 8fb8 3a0c e6b8 4c4e c4b8 9d7d ebb8
00000170: f352 04b9 5161 03b9 26cb 09b9 8db3 23b9
00000180: 8e86 89b8 0d40 f6b8 9afc 93b8 b984 cdb8
00000190: 980e a7b8 dcff d9b8 545a a7b8 b74f 95b8
000001a0: 5a54 a6b7 f903 82b8 5da1 55b8 6d98 68b8
000001b0: 29fa 5cb8 7872 b3b8 9ee2 75b8 3488 feb7
000001c0: e6a7 4637 9e69 a5b8 1f45 40b8 2b7d a3b8
000001d0: 8f3c 84b8 58b0 e1b8 1ebb 99b8 a00b e3b8
000001e0: cdc8 05b8 7b5f 0bb8 1c16 17b8 8c7a 47b8
000001f0: e7ec ebb7 9014 c3b8 3c8c abb8 5ed9 04b8
00000200: 359f 3838 bc2e 8fb8 b606 e637 9419 0bb8
00000210: 6890 02b8 17f7 c6b8 c348 3137 dda6 2eb8
00000220: c164 c3b6 72ef fdb8 15c8 adb8 75a7 07b9
00000230: 9cff 88b8 0663 6eb8 0e7f e9b8 946b dbb8
00000240: 5e4d 53b7 e22e 3cb8 96a6 07b8 fb84 01b9
00000250: a213 0ab9 8c18 dfb8 30cc 4eb8 5af6 bbb8
00000260: 6eb3 62b7 567b c2b8 f579 98b8 5c97 cbb8
00000270: 9761 a2b8 97a8 07b9 29fb e6b8 fe5f feb8
00000280: f1e8 a0b8 33e6 85b8 a8c4 b4b8 cd4b 18b9
00000290: 3799 00b9 f046 17b9 0cc6 9bb8 9bb5 1bb9
000002a0: 2286 8036 b763 76b8 ce63 a8b8 be0f 3bb8
000002b0: 7193 0738 5e53 41b8 4fce 9eb8 1dbf 45b8
000002c0: b76b 4437 a6eb 89b7 7a17 a8b8 08b5 83b8
000002d0: 689f 85b8 b53a c8b8 2f3c 1fb9 45d4 30b8
000002e0: a2c3 3538 964c d5b8 994c 8eb8 9c1b a3b8
000002f0: bbab 8cb8 36bf 0db9 33ff cab8 6b30 60b7
00000300: 0400 0000 0400 0080 0400 0000 0400 0000
00000310: 0400 0000 0400 0080 0400 0080 0400 0080
00000320: 0400 0000 0400 0000 0400 0080 0400 0080
00000330: 0400 0080 0400 0000 0400 0000 0400 0000
00000340: 0400 0000 0400 0000 0400 0000 0400 0000
00000350: 0400 0000 0400 0000 0400 0000 0400 0080
00000360: 0400 0080 0400 0080 0400 0000 0400 0000
00000370: 0400 0000 0400 0080 0400 0080 0400 0080
00000380: 0400 0080 0400 0080 0400 0080 0400 0080
00000390: 0400 0080 0400 0080 0400 0080 0400 0080
000003a0: 0400 0080 0400 0000 0400 0000 0400 0080
000003b0: 0400 0000 0400 0080 0400 0080 0400 0000
000003c0: 0400 0080 0400 0080 0400 0080 0400 0080
000003d0: 0400 0080 0400 0000 0400 0080 0400 0080
000003e0: 0400 0080 0400 0080 0400 0000 0400 0000
000003f0: 0400 0000 0400 0080 0400 0080 0400 0000
2.4425717e-06 5.5323763e-08 -4.451643e-07 4.149823e-07 3.7037212e-06 3.8775624e-06 1.7453626e-06 -3.039882e-07
-1.1281281e-05 -6.2323384e-06 -4.5850534e-06 -6.972579e-06 -6.558905e-06 -5.0054064e-06 -5.8820797e-06 -3.1215573e-06
-1.1549088e-05 -1.129192e-05 -6.8478817e-06 -1.1322692e-05 -1.2145132e-05 -9.856766e-06 -6.805909e-06 -3.0682613e-06
-5.2369514e-06 -8.205867e-06 -4.6197965e-06 -3.3951126e-06 -3.4600203e-06 -1.3362031e-06 -4.1662265e-06 -1.30296e-06
-3.916692e-06 7.012002e-07 2.8442116e-06 4.6653518e-06 -3.710902e-06 -2.073824e-06 -3.5395403e-06 -3.2566386e-06
-2.6971807e-06 2.292158e-06 8.847873e-07 1.5600032e-06 -2.0475807e-06 1.5138374e-06 3.0686024e-07 5.477777e-06
-5.6597896e-06 -3.4281925e-06 -4.0410832e-06 -3.3956276e-06 -2.5252925e-06 1.5774592e-06 -7.524177e-07 -3.6708075e-06
-2.5095278e-06 -5.7971693e-06 -5.612395e-06 -6.936655e-06 -9.761962e-06 -9.344027e-06 -5.2836276e-06 -3.3933175e-06
-8.802657e-05 -0.00010677402 -0.000100625075 -8.330434e-05 -0.000100753765 -8.4299565e-05 -8.55668e-05 -5.813071e-05
-0.00011674839 -9.964701e-05 -0.00014802965 -0.00013610124 -0.000107125925 -0.00012607133 -8.39577e-05 -9.0492846e-05
-4.5355242e-05 -6.243368e-05 -0.000100149875 -0.000115620474 -9.3925846e-05 -9.620007e-05 -7.340297e-05 -0.000106477455
-6.865e-05 -0.00010969532 -9.360592e-05 -0.000112290705 -0.00012619402 -0.00012529387 -0.00013141017 -0.00015611779
-6.557732e-05 -0.000117421245 -7.056557e-05 -9.799883e-05 -7.965899e-05 -0.00010395024 -7.9800055e-05 -7.119722e-05
-1.9828021e-05 -6.199623e-05 -5.093344e-05 -5.5455068e-05 -5.2685067e-05 -8.5567066e-05 -5.8623606e-05 -3.0342584e-05
1.1840812e-05 -7.887486e-05 -4.584074e-05 -7.79576e-05 -6.3055304e-05 -0.00010761683 -7.330462e-05 -0.00010826369
-3.189668e-05 -3.3229106e-05 -3.6021796e-05 -4.7559428e-05 -2.81245e-05 -9.302155e-05 -8.180036e-05 -3.167369e-05
4.401729e-05 -6.827476e-05 2.7421262e-05 -3.3164004e-05 -3.1128904e-05 -9.4874e-05 1.0566963e-05 -4.1640236e-05
-5.823182e-06 -0.0001210858 -8.286551e-05 -0.00012936986 -6.532596e-05 -5.6835845e-05 -0.000111339716 -0.00010462772
-1.25945935e-05 -4.4866356e-05 -3.2341653e-05 -0.00012351938 -0.0001316802 -0.00010638041 -4.930439e-05 -8.9627414e-05
-1.3512426e-05 -9.273614e-05 -7.270641e-05 -9.707987e-05 -7.7429395e-05 -0.00012937408 -0.00011014037 -0.00012129544
-7.672783e-05 -6.384812e-05 -8.619699e-05 -0.00014524088 -0.00012264108 -0.00014426908 -7.427865e-05 -0.00014849605
3.8303124e-06 -5.8743837e-05 -8.029454e-05 -4.4598935e-05 3.2323824e-05 -4.6092428e-05 -7.572455e-05 -4.714645e-05
1.170759e-05 -1.6441405e-05 -8.015237e-05 -6.2802865e-05 -6.371626e-05 -9.547678e-05 -0.00015185842 -4.215936e-05
4.333596e-05 -0.00010170897 -6.785355e-05 -7.777588e-05 -6.7077075e-05 -0.0001351804 -9.679645e-05 -1.3362714e-05
6e-45 -6e-45 6e-45 6e-45 6e-45 -6e-45 -6e-45 -6e-45
6e-45 6e-45 -6e-45 -6e-45 -6e-45 6e-45 6e-45 6e-45
6e-45 6e-45 6e-45 6e-45 6e-45 6e-45 6e-45 -6e-45
-6e-45 -6e-45 6e-45 6e-45 6e-45 -6e-45 -6e-45 -6e-45
-6e-45 -6e-45 -6e-45 -6e-45 -6e-45 -6e-45 -6e-45 -6e-45
-6e-45 6e-45 6e-45 -6e-45 6e-45 -6e-45 -6e-45 6e-45
-6e-45 -6e-45 -6e-45 -6e-45 -6e-45 6e-45 -6e-45 -6e-45
-6e-45 -6e-45 6e-45 6e-45 6e-45 -6e-45 -6e-45 6e-45
