pre-trained/DCT8_soft-thr_L2_rnd-init_2000.pt (torch_old, 529258 bytes, 4 tensors)

thr f4 [1, 64, 1, 1]
00000000: 0000 803f 0000 803f 0000 803f 0000 803f
00000010: 0000 803f 0000 803f 0000 803f 0000 803f
00000020: 0000 803f 0000 803f 0000 803f 0000 803f
00000030: 0000 803f 0000 803f 0000 803f 0000 803f
00000040: 0000 803f 0000 803f 0000 803f 0000 803f
00000050: 0000 803f 0000 803f 0000 803f 0000 803f
00000060: 0000 803f 0000 803f 0000 803f 0000 803f
00000070: 0000 803f 0000 803f 0000 803f 0000 803f
00000080: 0000 803f 0000 803f 0000 803f 0000 803f
00000090: 0000 803f 0000 803f 0000 803f 0000 803f
000000a0: 0000 803f 0000 803f 0000 803f 0000 803f
000000b0: 0000 803f 0000 803f 0000 803f 0000 803f
000000c0: 0000 803f 0000 803f 0000 803f 0000 803f
000000d0: 0000 803f 0000 803f 0000 803f 0000 803f
000000e0: 0000 803f 0000 803f 0000 803f 0000 803f
000000f0: 0000 803f 0000 803f 0000 803f 0000 803f
1.0 1.0 1.0 1.0 1.0 1.0 1.0 1.0
1.0 1.0 1.0 1.0 1.0 1.0 1.0 1.0
1.0 1.0 1.0 1.0 1.0 1.0 1.0 1.0
1.0 1.0 1.0 1.0 1.0 1.0 1.0 1.0
1.0 1.0 1.0 1.0 1.0 1.0 1.0 1.0
1.0 1.0 1.0 1.0 1.0 1.0 1.0 1.0
1.0 1.0 1.0 1.0 1.0 1.0 1.0 1.0
1.0 1.0 1.0 1.0 1.0 1.0 1.0 1.0

weight f4 [64, 1, 8, 8]
00000000: 23f1 b9bd ae72 f7bd 36af 78be cfd3 183e
00000010: 5a17 a23d 8321 6f3e 0023 b8bc 8bc6 9dbd
00000020: 7c3e b0bb c7da 34bd 46c9 853e 2078 253e
00000030: f435 f33c d53e 483d a77d a83c e15e b13c
00000040: 14ce 8d3d ae10 dabd 28bc 423e 51d8 e339
00000050: ae86 b13d 9523 ae3d 03e8 a6bc ea72 013e
00000060: 4c02 a7be dcfc 483b dccc 32be 42bf 1f3e
00000070: 207d 11bd be90 83bd 2977 043c 1b6e e6bd
00000080: f855 903d 2f51 d1bd 18d0 993d bc95 ac3d
00000090: 47b4 733d 22ce 873d fa13 4e3e 4de4 e33d
000000a0: 674d 3b3e f2c2 cbbd c713 12bb cace 90bd
000000b0: f379 61bd 487c f4bb 919c bcbd 3679 8fbd
000000c0: e8f6 6bbe d195 c9bd 4e7c 1a3d fbe5 983d
000000d0: 171e 6dbd b10a 98bc bdf3 103e 7cab 963d
000000e0: fe57 a3bc 8529 eabd 43d6 9fbc 2872 aa3c
000000f0: ae4b 173e 3aa9 8abd 44c0 e8bd 034a 6e3b
00000100: 0948 c2bd 9a4b 913d 3722 04be 1d5f b2bd
00000110: b29e c3bd 38b2 453e 0d4f 1dbd f756 7dbe
00000120: 062a 5d3b 4a1e 6cbd eb25 013e da55 96bd
00000130: 0998 8dbd 26c8 e13a de36 f1bc 2fec 8dbd
00000140: 5f2e 40bc 4816 8c3c 08d9 2a3e d260 83bd
00000150: 06ae a83d 07f1 84bd cbf5 bebd 7c3e 28bd
00000160: 76fc a1bc 7b0d ce3d 2ae9 6e3d 2bb9 54bc
00000170: 2f3e d4bd 5124 2b3e 5795 c13d 89a4 4a3d
00000180: a275 d4bc 3e89 9fbc e1be c8bc fcb7 57bb
00000190: ef67 3a3e ee8a 463d a2a1 d7bc 445b 0cbe
000001a0: 42aa b73c a042 803d 9818 493e 1063 44be
000001b0: 7cf1 683c 258f d3bc 5284 a63d 3e35 aabc
000001c0: 7ff5 4bbd 43a6 0e3e 6e09 593e 14db 6f3d
000001d0: 3d8c c2be 4276 a2bd aa8d 793c 2a88 2fbd
000001e0: c5f5 963d d71a dd3d e9bf ef3d c7d8 8abd
000001f0: d6db 1ebd 969e 313d 0681 ba3d 6a12 453d
00000200: f18c 2d3d 8a10 373d cdc5 a13c b313 5e3d
00000210: 4540 a8bd c6c0 103e 84bf 3e3e 4386 abbd
00000220: 469b cfbb ec95 76bc 5b44 07bc 449b 423d
00000230: 32f1 af3d 4bc3 16bd 6e27 cbbd 99d9 183c
00000240: a1f8 923d 3371 b13d abcc b63d 1ea0 05be
00000250: d411 263e 7722 553d c062 cbbc 153a 9f3d
00000260: 04f0 c73d f8f9 6fbe 6ab6 5dbd 470f 5d3e
00000270: 3c1c 49bc f210 283e 94ef 08bd bf3a 46bd
00000280: 1a0f ea3d fdd4 573d bfb3 2ebe 25d6 5f3c
00000290: 5ef6 123e a356 33bd 6053 63bd 412e 28bd
000002a0: 73eb 9d3c eebb 6fbc 1791 af3d 191f 2ebe
000002b0: 82b1 a0bd de66 babd dbea 83bb 1623 d33d
000002c0: 4d97 0ebd 84b3 013c 0433 eabd 9346 33bd
000002d0: 258e 2cbe 1438 fe3d cc5e 86bb 662f f2bc
000002e0: 2e39 23bd af29 8e3d 6b44 393e e988 e2bd
000002f0: e552 00be c7e9 52bd a539 c6bd 635a f33c
00000300: d284 393e b62b 8bbc bf10 513d c6dc 96bc
00000310: ecdd d3bc d4f4 3bbd 8600 cf3d a576 8dbd
00000320: e452 3cbd b223 83bd 130b 693d 0564 05bd
00000330: 1bd6 99bc fba8 bf3d d10c fbbb 64be 27be
00000340: 657f 5dbd bc50 99bd 762b 83be 3f07 fd3c
00000350: e322 19be f6c8 12bd 59da fb3d bfc3 60bd
00000360: f5a8 c9bd 64b7 90bc f45c 333d 14fd 0f3e
00000370: a3e1 d5bd 355d 90bc 4552 68be 62c9 b33c
00000380: 933f 243c 1e8e 723c d754 333c e6a9 7f3c
00000390: f28b fdbc 5b81 e0bd 5b34 ed3c a6a4 14bd
000003a0: 470e 3bbe 65ef 983c 4945 1d3e 4a4c 013e
000003b0: 121a b43c f2aa 1c3e 7ca7 1ebd 1024 dabc
000003c0: ee83 743e b26e 7e3d a114 8cbd 836b 0abe
000003d0: 4bf8 cebd b0a7 5c3d 5c57 f6bc 7929 a23b
000003e0: 68a5 153d f5c4 d1bd 5104 8abd 272a c73d
000003f0: 8d4e ba3c 786b aabd 3a05 4b3d 79c2 213e
-0.09079196 -0.1208242 -0.24285588 0.14924549 0.0791461 0.23352627 -0.022477627 -0.07703885
-0.0053785425 -0.044153955 0.26130122 0.16159105 0.029688813 0.048888046 0.020567728 0.021651687
0.06924072 -0.10647713 0.19017088 0.00043457982 0.08668266 0.085028805 -0.020374304 0.12641492
-0.3261894 0.0030668294 -0.1746096 0.15600303 -0.03551972 -0.06424092 0.008085051 -0.1125147
0.07047647 -0.10220563 0.07510394 0.08426997 0.059498098 0.066311136 0.20124808 0.11127529
0.18291245 -0.09949292 -0.002228962 -0.07070692 -0.05504794 -0.0074611045 -0.0920955 -0.07005541
-0.23043406 -0.09843028 0.037716202 0.0746574 -0.057890024 -0.018559786 0.14155479 0.07356927
-0.019939419 -0.114337005 -0.019511348 0.020806387 0.14774963 -0.06770559 -0.11364797 0.0036360032
-0.09486396 0.07094498 -0.12903677 -0.08709548 -0.09551753 0.19306266 -0.038405467 -0.24740206
0.0033746972 -0.057646073 0.12612121 -0.07340594 -0.06913764 0.0017225787 -0.029445108 -0.06929814
-0.011729806 0.017100468 0.16684353 -0.064149514 0.08236317 -0.06491285 -0.09324225 -0.041075215
-0.019773703 0.10061165 0.05832783 -0.012983601 -0.10363423 0.16713072 0.094523124 0.04947332
-0.025934998 -0.019474622 -0.02450508 -0.003291606 0.1820371 0.048472337 -0.02632219 -0.1370669
0.022420052 0.06262708 0.19638288 -0.19178414 0.014217731 -0.025825093 0.08130707 -0.020777341
-0.04979467 0.13930611 0.21195003 0.05855854 -0.37997618 -0.07932712 0.015231529 -0.042854466
0.073710956 0.10796135 0.11706526 -0.06779628 -0.03878387 0.04336413 0.091066405 0.048113264
0.04237074 0.044693507 0.01974764 0.054218005 -0.082153834 0.14136037 0.18627745 -0.08375218
-0.0063356487 -0.015050393 -0.008256043 0.047511354 0.08590926 -0.03680734 -0.0991963 0.009329223
0.071763285 0.08664169 0.08925756 -0.13049361 0.16217738 0.05203482 -0.024827361 0.0777475
0.09762576 -0.234352 -0.05412904 0.21587859 -0.012274798 0.16412714 -0.033431605 -0.04839587
0.11428662 0.052693356 -0.17060755 0.013661896 0.14351794 -0.043783795 -0.055499434 -0.041059736
0.01927731 -0.014632208 0.085725956 -0.1700405 -0.07846357 -0.091016516 -0.0040257997 0.103094265
-0.03481226 0.007916335 -0.11435512 -0.043768477 -0.16851099 0.1241304 -0.004100656 -0.029563617
-0.039849453 0.06941544 0.18092506 -0.1106127 -0.12531622 -0.05149248 -0.096789636 0.029706186
0.18117073 -0.016988616 0.05104136 -0.01841582 -0.025862657 -0.045887783 0.10107522 -0.06907395
-0.04597749 -0.06403293 0.056895327 -0.03256609 -0.018778851 0.09358402 -0.00766144 -0.16381222
-0.05407657 -0.07486102 -0.25619096 0.030887244 -0.14954714 -0.035836183 0.12297506 -0.054874178
-0.09846679 -0.017665572 0.04378982 0.14061385 -0.104434274 -0.01762257 -0.22687633 0.021946613
0.010024923 0.014804391 0.01094552 0.015604472 -0.03095052 -0.109621726 0.02895563 -0.036289833
-0.18267165 0.01866884 0.15358461 0.12626758 0.021985088 0.15299585 -0.038733944 -0.026628524
0.23878452 0.062117286 -0.06839872 -0.13517575 -0.10105952 0.053870857 -0.030070953 0.0049487916
0.036534697 -0.10242645 -0.067391045 0.09724837 0.022742534 -0.08321279 0.04956553 0.15796842

bias f4 [64]
00000000: 8bd7 c5bd c5d3 003e 95d5 663d 8323 cfbd
00000010: 0980 2dbe 16ce a9bd d51a be3d 6cca 723d
00000020: 7337 08be 051f fb3c 2340 4c3f 5e52 51bc
00000030: 3204 ad3d 72c2 983d 6aa3 3f3b dc8f 973d
00000040: 728f b23d f5a7 dcbd eab7 4c3e 1a78 9d3b
00000050: 4be4 b9bd 060d f43d a904 a43d 076f cdbc
00000060: 593f ebbb fc83 bfbd f458 fabc f84b 213d
00000070: a856 d2bc 3568 f03d c8b9 cabd 7d43 1fbc
00000080: c099 80bd c922 0d3d 1b03 ccbd d148 fd3b
00000090: cfe2 d4be d14a 41bb 1c04 6339 5946 c5bd
000000a0: b566 903c af17 d1bd a92f 3b3d 21f6 8c3d
000000b0: c19b 2a3d c43c b7bd 77f3 7ebd d4e1 9bbd
000000c0: b185 babc a5d3 493d 9e7b 913d b2d9 d23c
000000d0: 40c3 16bd 6ad5 903d 6c95 313d 90e5 39bd
000000e0: 246e cb3c c730 87bd 64b8 233d af62 ff3d
000000f0: 16c7 113e 84ea 9e3c 0358 52bd 323e ca3d
-0.09660252 0.12580784 0.05635603 -0.10114195 -0.16943373 -0.08291261 0.092824616 0.059275076
-0.13302402 0.03065444 0.79785365 -0.0127759855 0.08448066 0.074589625 0.002924169 0.07400486
0.08718766 -0.10774223 0.19992033 0.004805577 -0.090767466 0.119165465 0.08008701 -0.025077356
-0.0071791825 -0.09351346 -0.030559994 0.03937909 -0.025676087 0.11738626 -0.09898716 -0.00972068
-0.062793255 0.034457 -0.0996153 0.0077296277 -0.4157929 -0.0029494057 0.00021649938 -0.096325584
0.0176271 -0.102095954 0.04569975 0.06882883 0.041652445 -0.08947137 -0.062243905 -0.07611433
-0.022768827 0.049274106 0.07103656 0.02573857 -0.0368073 0.070719555 0.04335539 -0.045384943
0.024832793 -0.066011004 0.03997077 0.12469994 0.14236102 0.019398935 -0.051353466 0.09875144

weight f4 [1, 64, 8, 8]
00000000: 8034 34be 302e 213d bdd6 7cbb 9a8d de3d
00000010: acdb 0dbe 618d c5bd f0eb 6b3e 4d24 253e
00000020: d750 21be ad1d cb3d 9540 7ebd 77a7 433d
00000030: e194 3a3d 2bbe d63c 9e21 19be 1ac2 693d
00000040: 7c3c 5f3d 632e b2bc 1882 8e3c 0b22 1f3e
00000050: f4d5 01be bd87 6f3d 76a5 d0bd a0b9 073d
00000060: c739 f5bc 659d 9dbd 0172 aabc ef0f d03d
00000070: 09c5 883c 26d4 63be b18c 84bd 769a 90bd
00000080: 24bf 373b 393e 253d 0087 8c3b 3a8e 8d3d
00000090: 5c6b cf3d 9f3f 0c3e db8c b33d 427d b33d
000000a0: 0f9f 60bc e0d5 17be d873 9c3d f8c6 d6bd
000000b0: 8044 3f3e 21d5 663d e2af 58be d954 0dbd
000000c0: 6934 f03c bc88 593e 87f8 8a3d 73e4 89bc
000000d0: 70e6 ec3d c6e0 d63d 2e4b 203d 035c 533e
000000e0: d4d5 273d 1a9f c63d e709 113d c7a3 4bbd
000000f0: 8fbf 29bb 7b6f e33c 930f 38bd 3ceb d1bd
00000100: 22df 9a3d 7872 5b3e 678b bf3d 8731 383e
00000110: f0e0 043d d90f 48bc 98bd 0abd d138 3b3c
00000120: 95a7 273d 7a98 38bc 1fc8 bcbb 01ab 5d3d
00000130: 9277 8e3e 5578 45bc 2248 543d 46a3 5a3d
00000140: b767 1a3e 00bb 9cbd fb46 333e d669 083c
00000150: 2135 91bd 6eab a4bc 4472 43be c175 8b3d
00000160: 975c 893d c3b6 8fbd 9617 5f3d ec13 23be
00000170: edff cd3b 0e77 0e3e e8ff b23b b684 4b3e
00000180: 548d 073e 1559 173d 686e 92bd ccb0 14bc
00000190: c2d3 babd 0916 473e 8991 3e3e 5f8b 023d
000001a0: d0b8 e93d 7484 a5bd 3e55 3bbe c6d5 663e
000001b0: c787 ff3d 4b85 1abd ed7b 053e e70a 813e
000001c0: d99e a73d a146 b8bd fa78 cb3b e692 c03d
000001d0: 2c91 3b3e 3396 34bd fefe 0c3e 2ec4 033d
000001e0: e2cf d23c 858f 423d 3af5 e6bd 8298 413e
000001f0: f972 ba3d f476 e93c 662d 1abd d57b 01bc
00000200: 8297 293e 9955 383e 2585 debd dff7 753c
00000210: 63c0 83be 221f fc3d b6b0 293e b903 c63d
00000220: 4e67 043d 1fd0 c83d 146c 8b3e 653c 4b3e
00000230: 9655 bc3d 0972 a03c 9911 88bd 4865 abbd
00000240: 5b3b 7dbd da1f 8c3c bd5a 82bc 7235 c8bc
00000250: 85f3 da3d d335 9abd 3872 143e c36a b53b
00000260: 5ff8 d7bd ad22 bfbd 4ea7 fa3d ba44 a63c
00000270: a871 013e 8c83 e0bd d20f 6bbd 798a 8d3b
00000280: 78aa b5bd b5ac b13e 8c9b 643e af6e d5bb
00000290: 4a1a c4bb a8ad 3cbc eb96 853d 8120 efbd
000002a0: ab9c 6abb 16ca a8bc 6d92 a03d 9404 57bd
000002b0: fea6 153d fc76 23be 09ac a2bd 43b8 f2b8
000002c0: f869 bebb 5e86 393d 4916 423d f918 493e
000002d0: 2490 c4bd 80c6 033e 9be6 d1bd a0ee 613c
000002e0: f1d2 4a3e 1da7 f13d 0844 8bbb fe0f 91bd
000002f0: fce9 333e 815d 193e 1ae9 42be 42fe b13c
00000300: c9f1 603e 2f53 113d 7e18 1dbe e37d 963d
00000310: 0628 bf3d f56a 8bbc 3324 443c 1411 a03d
00000320: 3374 453e 1d49 a2be bd63 2ebd 8f30 80bd
00000330: 8971 4a3e fe42 c4bc 8559 5d3d 789f e73c
00000340: 9b23 2e3d 4db6 e13c c6b9 ddbd a25f 49be
00000350: 26b1 02be cfd0 86bd cd8f 77be 1689 303e
00000360: 9f7f 043c 7908 67bd 9fc3 303e 4fc6 00be
00000370: ab4d a1bd fb57 18bc 6989 70bd 502b bb3d
00000380: f919 333e eeff bc3d 79cc 153e 368f 7d3d
00000390: d719 d3b9 8c24 dc3c c260 173d 10f0 d2bc
000003a0: 20bd 12bb b0b2 a53d 7b30 bbbd beb0 fdbc
000003b0: 49d2 833d 002b da3d 8598 acbc cbba 32be
000003c0: fa1f 65bd 5980 d53d 0d7f 1d3d 1239 7c3c
000003d0: a0aa 94bc 280b 903d 1bc7 f9bd bdaa 313b
000003e0: e517 e8bd dafe 55bd 9261 4f3d 5f14 79bd
000003f0: e4d0 2e3d 050b 3c3d 4fa9 bebc 8ac6 efbd
-0.17598152 0.03935069 -0.0038580142 0.10866852 -0.1385333 -0.096461065 0.23039222 0.16127129
-0.15753494 0.099177696 -0.06207331 0.04776713 0.04555214 0.026213726 -0.1495423 0.057069875
0.05450104 -0.021750635 0.017396018 0.1554033 -0.12679273 0.05847906 -0.10187809 0.03313601
-0.029934777 -0.07696036 -0.020806314 0.10159289 0.016695516 -0.22248897 -0.06472147 -0.07060711
0.0028037513 0.040342543 0.004288554 0.06911893 0.10127899 0.13696145 0.087671004 0.087641254
-0.0137097975 -0.1482768 0.07639283 -0.10487169 0.18678474 0.0563556 -0.21160844 -0.034504745
0.029321866 0.21243566 0.06785684 -0.016832566 0.1156739 0.10492091 0.039134197 0.20640568
0.040975407 0.09698315 0.035409834 -0.049716737 -0.0025901531 0.027763119 -0.044936728 -0.102499455
0.075620905 0.21430385 0.09352761 0.17987643 0.03244108 -0.01221081 -0.033872217 0.01142712
0.040931303 -0.011266822 -0.005761161 0.05411816 0.278256 -0.012052615 0.051826604 0.053378366
0.15078627 -0.07652855 0.17507546 0.0083260145 -0.07090212 -0.020101275 -0.19086558 0.06809569
0.06707113 -0.07017281 0.054465853 -0.15925568 0.0062866122 0.13912603 0.0054626353 0.19874844
0.13237506 0.03695019 -0.071499646 -0.009075355 -0.09122421 0.19442 0.18610205 0.031871196
0.11412203 -0.08081904 -0.18294236 0.22542486 0.12477069 -0.037724774 0.13035555 0.2520363
0.08184595 -0.089978464 0.00620949 0.09403019 0.18317097 -0.044088554 0.13769147 0.032169513
0.025733892 0.047500152 -0.11277242 0.18905833 0.091039605 0.028499104 -0.03764095 -0.007903059
0.16561702 0.18001403 -0.10865239 0.01501271 -0.25732717 0.123106256 0.16571316 0.09668679
0.03232508 0.09805321 0.27230895 0.19847257 0.09196012 0.019585626 -0.066439815 -0.08368927
-0.061824184 0.017105032 -0.015912408 -0.024439547 0.10690979 -0.075297974 0.14496696 0.0055364086
-0.1054542 -0.09332786 0.12238942 0.020296443 0.12641013 -0.109625906 -0.057388134 0.0043194857
-0.08870405 0.34702078 0.22324961 -0.0065134387 -0.005984579 -0.011516012 0.06522926 -0.116761215
-0.0035798948 -0.020604175 0.078404285 -0.0524946 0.03653621 -0.15963358 -0.07942969 -0.00011573781
-0.0058109723 0.04529416 0.047384534 0.19638433 -0.09597805 0.1286869 -0.10249063 0.013789803
0.1980703 0.117994525 -0.0042500533 -0.070831284 0.17569727 0.14977075 -0.19034234 0.021727685
0.21967234 0.03547972 -0.15341374 0.0734823 0.09333806 -0.017018775 0.011971521 0.078157574
0.19282608 -0.31696406 -0.042575587 -0.06259262 0.19769873 -0.023957726 0.05404045 0.028274283
0.042514425 0.027552748 -0.10826449 -0.19665387 -0.1276289 -0.06582796 -0.2417595 0.17239794
0.008087068 -0.056404565 0.17262124 -0.12575649 -0.07876142 -0.00929832 -0.058724795 0.091391206
0.17490377 0.09228502 0.14628781 0.061904155 -0.00040264308 0.026872896 0.03695751 -0.025749236
-0.002239056 0.080907226 -0.09140106 -0.030968066 0.06436593 0.10652733 -0.02106882 -0.17454068
-0.0559387 0.10424871 0.038451243 0.015394466 -0.018147767 0.07033378 -0.121961795 0.0027109825
-0.113326825 -0.052245 0.05063016 -0.060810443 0.042679682 0.045908947 -0.023274092 -0.1170779
