pre-trained/DCT8_soft-thr_L2_dct-init_1500.pt (torch, 61770 bytes, 3 tensors)

thr f4 [1, 64, 1, 1]
000000 6a d3 8e 3b a0 10 15 3e 04 36 2f 3e 0a ff 43 3e
       0.0043586986 0.14557123 0.17110449 0.19140258
000010 82 4e 52 3e a6 d8 55 3e 81 1a 58 3e 7c 62 44 3e
       0.20537761 0.20883426 0.2110386 0.19178194
000020 b7 03 0f 3e 90 18 35 3e 80 5b 43 3e 70 99 5e 3e
       0.13966261 0.17685151 0.19077873 0.2173822
000030 34 c2 4e 3e 80 12 55 3e 76 bf 45 3e 3f 48 4d 3e
       0.2019127 0.20807838 0.19311318 0.20047091
000040 03 58 2a 3e a7 f0 40 3e 1c 03 4b 3e 12 50 47 3e
       0.16635136 0.18841802 0.19825405 0.19464138
000050 71 f6 4b 3e b3 74 54 3e bb 16 4f 3e 22 70 3f 3e
       0.19918229 0.20747642 0.20223515 0.18695119
000060 b8 a1 39 3e 35 09 5d 3e c4 fa 4a 3e 36 1b 5a 3e
       0.18128097 0.21585543 0.19822222 0.21299443
000070 8b ba 4d 3e 81 af 4c 3e 65 55 42 3e 8c 2f 3c 3e
       0.20090692 0.19988824 0.18977888 0.18377513
000080 dc 13 5e 3e 59 ed 4d 3e 0d 5e 4d 3e 91 21 4e 3e
       0.21687263 0.20110072 0.20055409 0.20129992
000090 c4 1b 43 3e c8 1c 3d 3e 79 86 3a 3e c8 bb 3b 3e
       0.1905356 0.1846801 0.1821536 0.18333352
0000a0 86 ba 58 3e d5 bb 59 3e 20 47 51 3e 0d ff 4a 3e
       0.21164903 0.21263058 0.20437288 0.19823857
0000b0 25 6b 49 3e 3f 7d 44 3e 26 11 55 3e 6d 81 3b 3e
       0.19669779 0.19188403 0.20807323 0.18311091
0000c0 10 fa 43 3e 6b f6 77 3e 4b b2 4c 3e d7 99 5c 3e
       0.1913836 0.24215095 0.19989888 0.2154306
0000d0 dc fe 3a 3e a9 a8 3b 3e 20 52 3b 3e 7e ad 3f 3e
       0.18261284 0.18326057 0.18293047 0.18718526
0000e0 19 1f 60 3e dc c6 87 3e 31 c7 47 3e 25 53 47 3e
       0.21886863 0.26518905 0.19509579 0.19465311
0000f0 20 c2 3b 3e 36 ed 45 3e db 39 42 3e 03 6a 45 3e
       0.18335772 0.1932877 0.18967383 0.19278722

conv_in.weight f4 [64, 1, 8, 8]
000000 0e 83 f8 3d 9c 9a f8 3d 05 a4 f8 3d 2d 9e f8 3d
       0.12134372 0.121388644 0.12140659 0.12139545
000010 24 a1 f8 3d f4 a9 f8 3d 24 a3 f8 3d 8c 8e f8 3d
       0.1214011 0.12141791 0.121404916 0.12136564
000020 c9 9f f8 3d bd c0 f8 3d 90 ce f8 3d 0d c5 f8 3d
       0.121398516 0.12146137 0.12148774 0.121469595
000030 92 c7 f8 3d cc d3 f8 3d 4c c8 f8 3d ba a9 f8 3d
       0.1214744 0.12149772 0.121475786 0.12141748
000040 71 ac f8 3d d7 d2 f8 3d 92 dc f8 3d 6f cf f8 3d
       0.121422656 0.121495895 0.121514454 0.1214894
000050 bf d1 f8 3d 41 e1 f8 3d da d8 f8 3d 19 b5 f8 3d
       0.12149381 0.12152339 0.12150736 0.12143917
000060 32 a9 f8 3d 60 cd f8 3d 77 d3 f8 3d c7 c3 f8 3d
       0.121416464 0.12148547 0.12149709 0.121467166
000070 e5 c5 f8 3d 6e d7 f8 3d 7e d2 f8 3d a7 b1 f8 3d
       0.121471204 0.12150465 0.12149523 0.121432595
000080 ca a7 f8 3d 14 cc f8 3d c3 d1 f8 3d e1 c1 f8 3d
       0.12141378 0.121483 0.12149384 0.121463545
000090 e2 c3 f8 3d 5d d5 f8 3d 11 d0 f8 3d 65 af f8 3d
       0.12146737 0.12150071 0.121490605 0.12142829
0000a0 6a a9 f8 3d 18 d0 f8 3d 11 d9 f8 3d 3a cb f8 3d
       0.12141688 0.12149066 0.12150777 0.121481374
0000b0 f9 cc f8 3d d3 db f8 3d 9c d2 f8 3d 2c af f8 3d
       0.121484704 0.12151303 0.121495456 0.121427864
0000c0 d8 9c f8 3d e9 bd f8 3d 54 ca f8 3d 07 c0 f8 3d
       0.121392906 0.121455975 0.12147966 0.12146001
0000d0 af c1 f8 3d d7 cc f8 3d 72 bf f8 3d 4e a1 f8 3d
       0.12146317 0.12148445 0.1214589 0.121401414
0000e0 8e 7d f8 3d 3d 95 f8 3d f2 9d f8 3d d1 97 f8 3d
       0.12133323 0.1213784 0.12139501 0.12138332
0000f0 7f 99 f8 3d 36 a1 f8 3d 53 98 f8 3d 3a 84 f8 3d
       0.12138652 0.121401235 0.121384285 0.12134595
000100 9e 30 30 3e ca e0 15 3e 85 56 c6 3d d1 27 0b 3d
       0.17206046 0.14636531 0.09684471 0.03397352
000110 94 78 0d bd 54 43 c5 bd f1 3d 15 be 4d b5 2f be
       -0.03453882 -0.096319824 -0.1457441 -0.17159005
000120 39 e1 31 3e 14 a5 18 3e a3 0d ca 3d 15 1f 0d 3d
       0.17371072 0.14906722 0.09865882 0.03445347
000130 10 d2 0f bd 15 1a c9 bd 12 f8 17 be 37 68 31 be
       -0.03511244 -0.09819428 -0.14840725 -0.17324911
000140 81 5c 32 3e 5c bb 19 3e be 59 cb 3d 34 85 0d 3d
       0.174181 0.15012878 0.09929226 0.03455086
000150 88 f3 10 bd 10 bd ca bd 31 26 19 be b9 ed 31 be
       -0.0353885 -0.09899342 -0.14955975 -0.1737584
000160 81 06 32 3e 80 9f 19 3e a5 11 cb 3d 3e 27 0d 3d
       0.17385294 0.1500225 0.09915475 0.034461252
000170 ad 27 11 bd 9c bd ca bd 33 2c 19 be 13 b9 31 be
       -0.03543823 -0.09899446 -0.14958267 -0.17355756
000180 6a 01 32 3e 87 9d 19 3e 53 f2 ca 3d cd d6 0c 3d
       0.17383352 0.15001498 0.09909501 0.034384537
000190 b2 02 11 bd a7 b3 ca bd 82 34 19 be 74 be 31 be
       -0.03540296 -0.09897547 -0.14961436 -0.17357808
0001a0 a1 4a 32 3e f4 b0 19 3e 22 0d cb 3d 8e d3 0c 3d
       0.17411281 0.15008909 0.09914614 0.03438144
0001b0 f2 fa 10 bd 37 cb ca bd e7 43 19 be a6 09 32 be
       -0.03539557 -0.099020414 -0.14967309 -0.17386493
0001c0 6d c1 31 3e 0d 75 18 3e f1 7f c9 3d ab eb 0b 3d
       0.17358942 0.14888401 0.09838856 0.034160297
0001d0 26 3a 10 bd b1 72 c9 bd d4 2f 18 be 84 91 31 be
       -0.035211705 -0.09836329 -0.14861995 -0.17340666
0001e0 3a ef 2f 3e df 90 15 3e 01 9b c5 3d 07 9c 09 3d
       0.17181101 0.14606045 0.09648705 0.033596065
0001f0 06 03 0e bd 84 c5 c5 bd 87 9b 15 be 73 f3 2f be
       -0.034670852 -0.09656814 -0.1461011 -0.17182712
000200 9a d0 26 3e 91 fe 8b 3d 43 60 8d bd 1d 4e 28 be
       0.16290513 0.06835664 -0.06903126 -0.16436048
000210 18 5d 28 be 8d db 8d bd ee 8a 8b 3d ed 55 26 3e
       -0.16441762 -0.069266416 0.06813608 0.16243716
000220 b6 10 28 3e 37 7d 8e 3d ef 29 8e bd ae 79 28 be
       0.16412625 0.069574766 -0.06941592 -0.16452667
000230 8c 81 28 be b6 85 8e bd 00 1f 8e 3d 2d 86 27 3e
       -0.16455668 -0.06959097 0.069395065 0.16359778
000240 05 1c 29 3e 46 59 90 3d e2 e2 8e bd 3d c7 27 be
       0.16514595 0.070482776 -0.06976868 -0.16384597
000250 18 ce 27 be ad 1a 8f bd bb fd 8f 3d 84 77 28 3e
       -0.16387212 -0.0698751 0.07030817 0.16451842
000260 3b af 29 3e a5 4a 91 3d a6 36 8f bd d0 0b 27 be
       0.16570751 0.070943154 -0.06992845 -0.163131
000270 1b 15 27 be 0b 5e 8f bd 18 dc 90 3d 01 ee 28 3e
       -0.16316645 -0.07000359 0.070732296 0.16497041
000280 09 bd 29 3e 3d 53 91 3d 88 32 8f bd 95 fd 26 be
       0.16576017 0.070959546 -0.0699206 -0.16307671
000290 d9 07 27 be 6f 4b 8f bd d1 e2 90 3d 88 e2 28 3e
       -0.16311587 -0.0699681 0.07074512 0.16492665
0002a0 32 47 29 3e fe 6f 90 3d 54 df 8e bd f0 af 27 be
       0.16531065 0.07052611 -0.0697619 -0.16375709
0002b0 d2 b6 27 be 59 04 8f bd 0f 04 90 3d e5 60 28 3e
       -0.16378334 -0.06983251 0.07032024 0.16443212
0002c0 40 58 28 3e 63 ad 8e 3d 30 10 8e bd 11 5a 28 be
       0.16439915 0.06966665 -0.06936681 -0.16440608
0002d0 ff 66 28 be 81 6f 8e bd 5c 47 8e 3d 57 65 27 3e
       -0.1644554 -0.069548614 0.069472045 0.16347252
0002e0 c6 2f 27 3e 68 35 8c 3d 0f 29 8d bd 63 27 28 be
       0.16326818 0.06846124 -0.06892597 -0.16421275
0002f0 fd 40 28 be a4 bd 8d bd 3c d2 8b 3d 8a 20 26 3e
       -0.16431041 -0.06920937 0.068272084 0.1622335
000300 24 ea 15 3e 2b d0 14 bd 06 d3 32 be aa df c9 bd
       0.14640099 -0.036331337 -0.17463312 -0.09857114
000310 b5 bc c9 3d 07 c0 32 3e d0 ba 14 3d 72 c4 15 be
       0.09850446 0.17456065 0.03631097 -0.14625719
000320 c0 48 16 3e 67 f6 13 bd bb 29 33 be 95 bb ca bd
       0.1467619 -0.03612366 -0.17496388 -0.0989906
000330 f9 4c ca 3d 5b 00 33 3e c9 e4 13 3d 0b 36 16 be
       0.098779626 0.17480604 0.03610686 -0.14669053
000340 36 90 16 3e c3 3f 13 bd c9 f8 32 be 9a 4c cb bd
       0.1470345 -0.03594948 -0.17477717 -0.0992672
000350 9c cd ca 3d 90 c0 32 3e 35 30 13 3d 8f 6d 16 be
       0.09902498 0.1745627 0.035934646 -0.14690231
000360 e4 93 16 3e 0d f4 12 bd c3 b0 32 be 59 95 cb bd
       0.14704853 -0.035877276 -0.17450242 -0.09940595
000370 49 fb ca 3d 7b 7c 32 3e 87 eb 12 3d 3e 7e 16 be
       0.0991121 0.17430298 0.035869148 -0.14696595
000380 0b 8c 16 3e 85 cb 12 bd b4 ac 32 be 75 87 cb bd
       0.1470186 -0.035838623 -0.17448694 -0.09937946
000390 ed 09 cb 3d 76 7f 32 3e ed 2c 13 3d b1 7a 16 be
       0.099140026 0.17431435 0.035931516 -0.1469524
0003a0 23 8b 16 3e c1 d3 12 bd 1f f2 32 be 2a 5a cb bd
       0.14701514 -0.035846476 -0.17475174 -0.09929307
0003b0 80 c7 ca 3d 63 ce 32 3e 0f b7 13 3d 04 3e 16 be
       0.09901333 0.17461543 0.03606325 -0.14672095
0003c0 9a 58 16 3e 78 bb 13 bd b4 28 33 be 83 e3 ca bd
       0.14682236 -0.036067456 -0.17495996 -0.09906676
0003d0 50 57 ca 3d f7 0a 33 3e 1f a8 14 3d 64 ff 15 be
       0.09879935 0.17484652 0.036293145 -0.14648205
0003e0 30 0d 16 3e e6 bf 14 bd 6b dd 32 be 20 4b ca bd
       0.14653468 -0.03631582 -0.17467277 -0.0987761
0003f0 6d a0 c9 3d 5f ce 32 3e 9e 9b 15 3d b4 6c 15 be
       0.09845052 0.17461537 0.03652536 -0.14592248

conv_out.weight f4 [1, 64, 8, 8]
000000 43 5c f8 3a 23 cb fe 3a bd c0 00 3b 81 b7 ff 3a
       0.0018948395 0.0019439202 0.001964613 0.0019509644
000010 8a 2a 00 3b ce 5d 01 3b 1f 4c 00 3b 75 d0 fa 3a
       0.0019556605 0.001973975 0.0019576622 0.0019135611
000020 e1 28 00 3b 7e cf 04 3b df cf 06 3b f8 67 05 3b
       0.0019555616 0.0020265277 0.0020570678 0.002035616
000030 0d ac 05 3b bd 60 07 3b 23 ac 05 3b 05 51 01 3b
       0.002039674 0.0020657026 0.002039679 0.001973213
000040 23 f3 01 3b 9b 5c 07 3b 64 cd 08 3b 95 e7 06 3b
       0.0019828759 0.0020654562 0.0020874375 0.002058481
000050 46 2c 07 3b 28 5c 09 3b aa 25 08 3b f8 08 03 3b
       0.0020625754 0.002095947 0.0020774403 0.001999436
000060 96 86 01 3b 13 a1 06 3b 27 8d 07 3b a6 58 05 3b
       0.0019764057 0.0020542785 0.0020683499 0.0020347028
000070 c7 9c 05 3b b3 19 08 3b 7d 5e 07 3b 09 b1 02 3b
       0.0020387636 0.002076727 0.0020655685 0.0019941947
000080 3f 61 01 3b 77 7e 06 3b 2f 66 07 3b dc 2e 05 3b
       0.00197418 0.0020522156 0.0020660271 0.002032212
000090 10 74 05 3b ed ee 07 3b bb 2d 07 3b 74 89 02 3b
       0.0020363368 0.0020741776 0.0020626623 0.0019918354
0000a0 ab 9e 01 3b 00 1c 07 3b 90 7f 08 3b b5 91 06 3b
       0.0019778411 0.0020616055 0.0020827986 0.0020533626
0000b0 30 d3 06 3b cf f9 08 3b e1 ac 07 3b 1d a4 02 3b
       0.0020572655 0.002090085 0.002070241 0.0019934245
0000c0 fb be ff 3a 15 91 04 3b 73 74 06 3b 7f 0a 05 3b
       0.0019511873 0.0020228077 0.0020516186 0.0020300446
0000d0 f7 49 05 3b b0 ec 06 3b ba 09 05 3b 3e c0 00 3b
       0.0020338276 0.0020587854 0.0020299987 0.0019645835
0000e0 c0 1a f7 3a 19 bf fd 3a ed 36 00 3b 13 d2 fe 3a
       0.0018852577 0.001935932 0.0019563988 0.0019441269
0000f0 8c 5b ff 3a 13 d4 00 3b 6f 21 ff 3a ef 90 f9 3a
       0.0019482239 0.0019657656 0.001946492 0.0019040386
000100 6d 77 43 bb d6 25 7b ba 35 fc 5c 3a 92 eb 25 3a
       -0.0029825822 -0.0009580528 0.0008429916 0.0006329353
000110 b7 c6 45 ba e1 5b 35 ba 57 ab 59 3a f1 ec 46 3b
       -0.00075445644 -0.0006918293 0.00083034247 0.003035363
000120 3a 56 4b bb a7 06 9c bb 90 c8 28 bb 4f ac 02 ba
       -0.0031026737 -0.004761535 -0.002575431 -0.00049847824
000130 36 08 d5 39 dd 09 28 3b 7d ad 9f 3b 94 cb 53 3b
       0.00040632644 0.0025640645 0.0048729763 0.0032317387
000140 b6 2c 40 bb 49 dc ba bb 96 f5 1f bb 22 79 1c b9
       -0.0029323525 -0.0057025296 -0.0024407855 -0.00014922445
000150 e4 ad 32 39 b5 2f 22 3b 13 89 bd 3b 42 47 46 3b
       0.00017040182 0.0024747674 0.005784163 0.0030254875
000160 91 d6 ab ba 39 2d 94 bb 5e 91 ba ba 00 a2 63 39
       -0.001311021 -0.0045219925 -0.0014233997 0.00021708757
000170 58 ed 80 b9 52 b5 ba 3a 81 a3 93 3b a0 a5 a1 3a
       -0.00024590897 0.0014244711 0.004505575 0.0012332685
000180 57 66 a6 ba 25 02 93 bb aa cc bd ba f3 a9 84 39
       -0.0012695295 -0.0044863396 -0.001448055 0.00025303624
000190 97 fd 4f b9 b4 a7 ba 3a b8 ba 92 3b 86 57 a7 3a
       -0.00019835528 0.0014240653 0.004477825 0.0012767173
0001a0 82 92 42 bb 68 1c be bb f8 a3 26 bb a3 5b 32 b9
       -0.0029689376 -0.005801726 -0.0025427323 -0.0001700954
0001b0 2d 78 57 39 e2 50 1e 3b 44 3c ba 3b 3f 3a 47 3b
       0.00020548767 0.0024157097 0.0056834538 0.0030399708
0001c0 a0 ed 4e bb db d4 9f bb 39 2d 2d bb 18 b5 d6 b9
       -0.003157474 -0.0048776693 -0.002642466 -0.00040952186
0001d0 1a 08 01 3a aa c3 27 3b 7a 33 9d 3b 6a 6d 4e 3b
       0.00049221667 0.0025598803 0.0047973963 0.0031498321
0001e0 54 c0 48 bb 82 ff 5a ba eb 99 5f 3a ab aa 26 3a
       -0.0030632215 -0.00083541137 0.00085297105 0.0006357829
0001f0 5c a0 3f ba 4d 11 20 ba 86 67 8a 3a e1 04 44 3b
       -0.0007309967 -0.00061060936 0.0010559417 0.0029910135
000200 d8 f8 b8 3a e1 39 95 b9 ff 57 af ba bd ce a0 bb
       0.0014112247 -0.00028462618 -0.0013377665 -0.0049074576
000210 21 09 9e bb 45 cc 8a ba 9d 22 b1 b9 e9 b4 b2 3a
       -0.0048228656 -0.0010589442 -0.0003378586 0.0013634238
000220 ba e9 5d 3b 45 8a 1f 3b d0 cb 0c bb 43 37 6a bb
       0.0033861236 0.002434389 -0.0021483786 -0.0035738505
000230 2e 9c 74 bb f7 33 17 bb aa 40 1e 3b 9a 4f 5d 3b
       -0.0037324536 -0.0023071745 0.002414743 0.003376937
000240 b1 44 8d 3b 8b 09 5b 3b 25 fb 5f bb 3c a3 c0 ba
       0.004311167 0.0033422436 -0.0034176793 -0.0014697085
000250 2c 87 bd ba 44 dc 65 bb 95 d5 60 3b 83 9b 91 3b
       -0.001445984 -0.0035073915 0.0034306992 0.0044435873
000260 bc 9f 91 3b 5b 47 84 3b 56 bf 6d bb b8 16 89 3a
       0.0044440906 0.0040368265 -0.0036277375 0.0010459041
000270 67 e4 90 3a c1 29 76 bb 7f 16 87 3b 21 91 97 3b
       0.0011054397 -0.0037561508 0.004122555 0.004625455
000280 54 48 93 3b a5 b8 83 3b 2b 3e 70 bb 7c 11 92 3a
       0.004494706 0.004019814 -0.0036658149 0.0011144127
000290 31 39 94 3a 32 3a 74 bb ed cd 84 3b dc c9 94 3b
       0.0011308548 -0.0037266132 0.0040528686 0.004540665
0002a0 04 30 91 3b f0 26 63 3b 69 5d 59 bb 36 79 ba ba
       0.0044307727 0.003466066 -0.003316725 -0.0014226798
0002b0 74 cf bd ba 83 fc 65 bb b4 2f 5a 3b 6c 54 90 3b
       -0.0014481382 -0.0035093136 0.0033292593 0.004404595
0002c0 3b 3e 5e 3b cc a3 25 3b 9d 08 0a bb 7d b8 69 bb
       0.0033911604 0.0025274632 -0.0021062263 -0.0035662942
0002d0 8d 0c 69 bb 1d 0d 0a bb 7a 55 23 3b 75 99 64 3b
       -0.003556046 -0.0021064945 0.0024922774 0.0034881507
0002e0 5d 37 ab 3a f5 67 ab b9 28 9d ab ba dd bd a0 bb
       0.0013062764 -0.00032693116 -0.0013093101 -0.004905446
0002f0 a8 86 9d bb da a9 8c ba 0f db a9 b9 de da af 3a
       -0.004807312 -0.0010731772 -0.00032397403 0.0013416668
000300 fe 2d 42 bb 25 fe e3 3a fb 6a c4 3b 13 25 93 3a
       -0.0029629464 0.0017394467 0.0059941984 0.0011226259
000310 89 bd 8d ba 3e bd c2 bb 83 3b e7 ba 04 25 51 3b
       -0.0010813932 -0.0059429696 -0.0017641637 0.0031912932
000320 8a 6d 89 bb b3 8e 96 b9 90 3c 8e 3b 1c c1 f4 3a
       -0.0041939663 -0.0002871655 0.0043407157 0.0018673274
000330 01 24 ed ba d7 b2 94 bb 34 84 b3 39 7e 76 8c 3b
       -0.0018092395 -0.004537921 0.0003424004 0.0042865863
000340 2f 49 a7 bb 9d b1 a1 ba 66 81 51 3b b7 e9 39 3b
       -0.0051051597 -0.0012336258 0.0031967997 0.0028368065
000350 43 d2 33 bb 4a 60 4b bb 4a f9 ba 3a 2e bb ad 3b
       -0.0027438558 -0.0031032735 0.0014264968 0.0053018546
000360 67 d3 ac bb ed 1e c4 ba 84 ed bb 3a 43 97 43 3b
       -0.0052742246 -0.001496283 0.0014337753 0.0029844798
000370 3a 00 3d bb 1e 34 b8 ba fa d2 c5 3a 9a fb a9 3b
       -0.0028839246 -0.0014053618 0.0015092783 0.005187464
000380 d7 5a ad bb 70 aa b9 ba e5 a7 bb 3a 98 dd 34 3b
       -0.00529037 -0.0014165174 0.0014317004 0.00275979
000390 40 a7 46 bb a5 36 bc ba dd 54 b9 3a cc 8d ac 3b
       -0.003031209 -0.0014359547 0.0014139671 0.005265927
0003a0 13 85 a8 bb e8 1f a3 ba 7d 52 57 3b bd cd 34 3b
       -0.005142817 -0.0012445422 0.0032855563 0.002758845
0003b0 26 e2 35 bb 7d 74 56 bb 1d 78 98 3a 23 c6 aa 3b
       -0.0027753203 -0.003272324 0.0011632476 0.005211608
0003c0 b8 b8 8a bb 24 97 9f b9 46 5f 8f 3b 66 0c f3 3a
       -0.004233446 -0.00030439452 0.004375371 0.0018543124
0003d0 7c 41 07 bb 32 a0 95 bb 20 93 c2 39 5c 7a 8e 3b
       -0.0020638397 -0.004566216 0.0003711218 0.0043480825
0003e0 b6 51 4c bb 3f fc cd 3a 87 a4 c3 3b d5 b0 98 3a
       -0.0031176633 0.0015715434 0.005970541 0.001164938
0003f0 28 70 96 ba 9b e7 c2 bb 0f 51 d6 ba 62 76 40 3b
       -0.0011477517 -0.0059480197 -0.0016351062 0.0029367437
