pre-trained/DCT8_soft-thr_L2_dct-init_2000.pt (torch_old, 528692 bytes, 3 tensors)

thr f4 [1, 64, 1, 1]
0.004332155 0.1455583 0.17109944 0.19138737 0.20544223 0.20894049 0.21115227 0.1918441
0.1396331 0.17684118 0.1907612 0.21740137 0.2019902 0.20819579 0.19317332 0.20056452
0.16635878 0.18843125 0.1983024 0.19470449 0.19925617 0.20758694 0.20233597 0.18697497
0.18125646 0.21587296 0.19828314 0.21312515 0.20099267 0.19996633 0.18980005 0.18378212
0.2168454 0.2011658 0.20063287 0.20138597 0.19058152 0.18470243 0.18215679 0.18333688
0.21174996 0.21275048 0.20448379 0.19831677 0.19677068 0.19190834 0.2081461 0.18311091
0.19142616 0.24234544 0.19996642 0.21560915 0.18261208 0.18326057 0.18292771 0.18718526
0.21903713 0.26544026 0.19514258 0.19468503 0.18335983 0.19329368 0.18967374 0.1927871
00000000: c0f4 8d3b 3c0d 153e b134 2f3e 0dfb 433e
00000010: 735f 523e 7ff4 553e 4d38 583e c872 443e
00000020: fbfb 0e3e db15 353e e756 433e 779e 5e3e
00000030: 85d6 4e3e 4731 553e 3acf 453e c960 4d3e
00000040: f559 2a3e 1ff4 403e c90f 4b3e 9d60 473e
00000050: cf09 4c3e ac91 543e 2931 4f3e 5e76 3f3e
00000060: 4b9b 393e cd0d 5d3e bc0a 4b3e 7b3d 5a3e
00000070: 06d1 4d3e f9c3 4c3e f25a 423e 6131 3c3e
00000080: b80c 5e3e 68fe 4d3e b472 4d3e 2038 4e3e
00000090: cd27 433e a222 3d3e 4f87 3a3e aabc 3b3e
000000a0: fbd4 583e 43db 593e 3364 513e 8d13 4b3e
000000b0: 417e 493e 9f83 443e 4024 553e 6d81 3b3e
000000c0: 3805 443e 6729 783e ffc3 4c3e a5c8 5c3e
000000d0: a9fe 3a3e a9a8 3b3e 6751 3b3e 7ead 3f3e
000000e0: 454b 603e c9e7 873e 75d3 473e 835b 473e
000000f0: aec2 3b3e c7ee 453e d539 423e fb69 453e

weight f4 [64, 1, 8, 8]
0.12134318 0.12138826 0.12140619 0.12139498 0.1214006 0.12141753 0.12140452 0.1213651
0.12139817 0.121461265 0.121487595 0.12146929 0.12147411 0.12149755 0.12147564 0.12141712
0.12142239 0.12149591 0.121514365 0.12148914 0.121493556 0.12152329 0.12150735 0.121438876
0.121416196 0.12148541 0.12149693 0.12146679 0.12147083 0.12150448 0.121495195 0.121432364
0.12141349 0.12148294 0.12149362 0.12146314 0.12146696 0.12150052 0.121490575 0.12142801
0.12141665 0.121490605 0.12150763 0.12148105 0.12148437 0.1215129 0.12149545 0.121427596
0.12139257 0.12145582 0.12147944 0.12145967 0.12146281 0.12148424 0.121458754 0.12140104
0.12133264 0.121378 0.12139454 0.12138279 0.12138593 0.12140073 0.12138386 0.12134538
0.1720476 0.14635566 0.09682699 0.033962417 -0.03452861 -0.096302554 -0.14573474 -0.17157847
0.17370906 0.1490781 0.098654956 0.034446053 -0.035106026 -0.098191105 -0.14841764 -0.17324828
0.17418218 0.15014797 0.09929368 0.03454519 -0.035383523 -0.09899516 -0.149578 -0.17375971
0.17385077 0.15003942 0.09915396 0.034455094 -0.035432152 -0.09899395 -0.14959869 -0.17355593
0.1738312 0.15003194 0.09909403 0.03437802 -0.03539687 -0.098974556 -0.14962994 -0.1735758
0.1741136 0.15010805 0.09914739 0.034375485 -0.035390027 -0.0990218 -0.1496908 -0.173866
0.17358723 0.14889398 0.09838447 0.034152877 -0.035204962 -0.09835992 -0.14862928 -0.17340422
0.17179717 0.1460499 0.09646916 0.03358502 -0.03466018 -0.09655137 -0.14609109 -0.17181358
0.1628917 0.06835118 -0.069033146 -0.16436085 -0.16441818 -0.069269426 0.06813025 0.16242397
0.16412254 0.06957856 -0.06942161 -0.16452748 -0.16455752 -0.06959705 0.06939873 0.16359355
0.16514981 0.070492834 -0.06977855 -0.16384068 -0.16386682 -0.06988482 0.07031814 0.16452171
0.16571543 0.07095638 -0.0699407 -0.16311964 -0.16315499 -0.07001563 0.07074508 0.1649771
0.16576815 0.070972845 -0.069932796 -0.16306543 -0.16310473 -0.06998016 0.07075791 0.16493307
0.1653147 0.070536554 -0.0697721 -0.16375174 -0.16377819 -0.069842674 0.07033017 0.16443491
0.16439521 0.069670506 -0.06937337 -0.16440699 -0.16445647 -0.06955532 0.0694755 0.16346814
0.16325529 0.06845587 -0.068928756 -0.16421257 -0.16431098 -0.06921268 0.06826674 0.16222033
0.14638852 -0.036341004 -0.17464001 -0.098568335 0.09850191 0.17456856 0.036321886 -0.14624415
0.14675236 -0.036131095 -0.1749728 -0.09899044 0.098779544 0.17481533 0.03611566 -0.14668037
0.14702621 -0.0359554 -0.17478403 -0.09926934 0.09902724 0.17456983 0.035941716 -0.14689323
0.14704047 -0.035883043 -0.17450619 -0.09940898 0.09911537 0.17430745 0.0358758 -0.1469571
0.14701065 -0.035844244 -0.1744908 -0.09938253 0.09914359 0.17431864 0.035938203 -0.1469435
0.14700711 -0.035852276 -0.17475836 -0.09929473 0.09901594 0.17462249 0.03607044 -0.14671187
0.1468129 -0.036075436 -0.17496942 -0.09906613 0.09879985 0.1748558 0.036302216 -0.14647149
0.14652209 -0.03632646 -0.17467998 -0.09877271 0.09844832 0.17462322 0.03653668 -0.14590907
00000000: c682 f83d 689a f83d cfa3 f83d ee9d f83d
00000010: e1a0 f83d c1a9 f83d efa2 f83d 448e f83d
00000020: 9b9f f83d afc0 f83d 7dce f83d e4c4 f83d
00000030: 6bc7 f83d b5d3 f83d 38c8 f83d 8aa9 f83d
00000040: 4dac f83d d9d2 f83d 86dc f83d 4ccf f83d
00000050: 9dd1 f83d 34e1 f83d d8d8 f83d f2b4 f83d
00000060: 0ea9 f83d 58cd f83d 62d3 f83d 95c3 f83d
00000070: b3c5 f83d 57d7 f83d 79d2 f83d 88b1 f83d
00000080: a3a7 f83d 0ccc f83d a6d1 f83d abc1 f83d
00000090: abc3 f83d 44d5 f83d 0dd0 f83d 40af f83d
000000a0: 4ba9 f83d 11d0 f83d fed8 f83d 0fcb f83d
000000b0: cccc f83d c1db f83d 9bd2 f83d 08af f83d
000000c0: ab9c f83d d4bd f83d 36ca f83d d9bf f83d
000000d0: 7ec1 f83d bbcc f83d 5ebf f83d 1ca1 f83d
000000e0: 3f7d f83d 0795 f83d b39d f83d 8a97 f83d
000000f0: 3099 f83d f2a0 f83d 1a98 f83d ed83 f83d
00000100: 3f2d 303e 42de 153e 3b4d c63d 2d1c 0b3d
00000110: df6d 0dbd 463a c5bd 7d3b 15be 44b2 2fbe
00000120: cae0 313e eea7 183e 9c0b ca3d 4e17 0d3d
00000130: 56cb 0fbd 6b18 c9bd cbfa 17be ff67 31be
00000140: d05c 323e 64c0 193e 7c5a cb3d 427f 0d3d
00000150: 50ee 10bd f9bd cabd fa2a 19be 11ee 31be
00000160: f005 323e efa3 193e 3b11 cb3d c920 0d3d
00000170: 4e21 11bd 57bd cabd 6630 19be a5b8 31be
00000180: ce00 323e f9a1 193e d0f1 ca3d f7cf 0c3d
00000190: 4ffc 10bd 2cb3 cabd 9738 19be dbbd 31be
000001a0: d64a 323e edb5 193e c90d cb3d 4fcd 0c3d
000001b0: 22f5 10bd f1cb cabd 8c48 19be ee09 32be
000001c0: dac0 313e aa77 183e cc7d c93d e3e3 0b3d
000001d0: 1433 10bd ed70 c9bd 4632 18be e090 31be
000001e0: 99eb 2f3e 1b8e 153e 9f91 c53d 7290 093d
000001f0: d5f7 0dbd babc c5bd e798 15be e6ef 2fbe
00000200: 15cd 263e b4fb 8b3d 4061 8dbd 364e 28be
00000210: 3d5d 28be 21dd 8dbd df87 8b3d 7852 263e
00000220: bd0f 283e 347f 8e3d eb2c 8ebd e479 28be
00000230: c481 28be e688 8ebd ec20 8e3d 1185 273e
00000240: 081d 293e 8c5e 903d 0ee8 8ebd dac5 27be
00000250: b4cc 27be c61f 8fbd f502 903d 6178 283e
00000260: 4eb1 293e 9451 913d 123d 8fbd d608 27be
00000270: 1a12 27be 5b64 8fbd cce2 903d c2ef 283e
00000280: 20bf 293e 365a 913d ed38 8fbd a0fa 26be
00000290: ed04 27be c251 8fbd 86e9 903d 37e4 283e
000002a0: 4248 293e 7875 903d ade4 8ebd 89ae 27be
000002b0: 78b5 27be ad09 8fbd 4409 903d a061 283e
000002c0: 3857 283e 69af 8e3d a013 8ebd 4e5a 28be
000002d0: 4767 28be 0573 8ebd 2c49 8e3d 3164 273e
000002e0: 652c 273e 9732 8c3d 852a 8dbd 5727 28be
000002f0: 2341 28be 61bf 8dbd 6fcf 8b3d 161d 263e
00000300: dfe6 153e 4eda 14bd d5d4 32be 32de c9bd
00000310: 5fbb c93d 1ac2 323e 42c6 143d 07c1 15be
00000320: 4046 163e 33fe 13bd 122c 33be 80bb cabd
00000330: ee4c ca3d ca02 333e 04ee 133d 6133 16be
00000340: 0a8e 163e f845 13bd 96fa 32be b94d cbbd
00000350: cbce ca3d 6fc2 323e 9f37 133d 2e6b 16be
00000360: c791 163e 19fa 12bd c0b1 32be ef96 cbbd
00000370: 00fd ca3d a77d 323e 81f2 123d ec7b 16be
00000380: f689 163e 6ad1 12bd b7ad 32be 1189 cbbd
00000390: cb0b cb3d 9680 323e f033 133d 5b78 16be
000003a0: 0889 163e d6d9 12bd dbf3 32be 095b cbbd
000003b0: dfc8 ca3d 3dd0 323e 99be 133d a33b 16be
000003c0: 1f56 163e d6c3 13bd 2f2b 33be 2fe3 cabd
000003d0: 9357 ca3d 660d 333e a2b1 143d 9ffc 15be
000003e0: e309 163e 0ecb 14bd 4fdf 32be 5949 cabd
000003f0: 469f c93d 6ed0 323e 7ca7 153d 3069 15be

weight f4 [1, 64, 8, 8]
0.001894236 0.0019435022 0.0019641945 0.0019504494 0.0019551297 0.0019735259 0.0019572056 0.0019129453
0.0019551895 0.0020264206 0.0020569593 0.0020353377 0.0020393683 0.0020655436 0.002039507 0.0019727764
0.0019825643 0.0020654579 0.002087371 0.0020581908 0.0020622644 0.002095828 0.002077376 0.0019990653
0.0019760954 0.002054225 0.0020681794 0.0020342893 0.0020383368 0.0020765108 0.0020654567 0.0019938296
0.0019738723 0.0020521653 0.002065853 0.0020317936 0.0020358975 0.002073945 0.0020625442 0.0019914624
0.0019775212 0.0020615887 0.0020826976 0.0020530412 0.0020569267 0.0020899393 0.0020701755 0.001993056
0.0019507841 0.0020226531 0.0020514515 0.0020297114 0.0020334807 0.0020585859 0.0020298322 0.001964169
0.0018846322 0.0019354686 0.0019559213 0.0019435622 0.0019476514 0.0019652764 0.0019460435 0.0019034343
-0.002983094 -0.00094805233 0.00085340784 0.00063558546 -0.0007564992 -0.0007054306 0.0008158379 0.003035715
-0.0031010685 -0.004761606 -0.0025738273 -0.00049732404 0.00041229744 0.0025647467 0.0048715277 0.0032273293
-0.0029297802 -0.005702154 -0.0024345717 -0.00014613252 0.00017350928 0.0024719979 0.0057827057 0.0030196276
-0.0013007002 -0.00451573 -0.0014134848 0.00022007179 -0.00024608982 0.0014172165 0.004498291 0.0012193243
-0.0012576116 -0.0044785347 -0.0014377682 0.00025457467 -0.00019989924 0.0014173893 0.0044723623 0.0012641835
-0.0029628673 -0.005799037 -0.0025359346 -0.00017003562 0.00020473012 0.002412143 0.005682246 0.0030325935
-0.0031500987 -0.0048741936 -0.0026414753 -0.00041432225 0.00049292407 0.002557776 0.0047932384 0.0031401261
-0.0030578803 -0.00081864523 0.00086473237 0.00063437567 -0.00073479634 -0.0006245467 0.0010375003 0.0029812122
0.0013977567 -0.00029113604 -0.0013273718 -0.004903243 -0.0048257764 -0.0010587926 -0.000346938 0.0013611944
0.0033817005 0.0024392325 -0.0021400673 -0.0035659608 -0.0037311253 -0.0023037896 0.0024227346 0.0033827978
0.0043084235 0.0033481668 -0.0034100811 -0.0014573273 -0.0014413863 -0.0035067394 0.0034372273 0.0044485885
0.004444648 0.004043696 -0.0036231107 0.0010601269 0.0011145981 -0.0037558267 0.004129903 0.0046287896
0.0044966117 0.004027764 -0.0036617497 0.0011276735 0.0011402952 -0.0037297297 0.004058694 0.0045436756
0.004431724 0.0034733487 -0.0033128874 -0.0014124812 -0.0014417057 -0.003511958 0.0033376045 0.0044081067
0.0033943243 0.002537598 -0.002100164 -0.003558724 -0.0035536138 -0.0021102491 0.0025028489 0.0034916787
0.0013026816 -0.00033061448 -0.0013047056 -0.004899059 -0.0048056403 -0.0010741684 -0.00032464473 0.0013373642
-0.0029550714 0.0017234359 0.005993013 0.0011209715 -0.0010611359 -0.005948588 -0.001775329 0.003186216
-0.0041949973 -0.00030631476 0.004344547 0.00186813 -0.0017948403 -0.0045450176 0.00033437554 0.0042906045
-0.0051137763 -0.0012515493 0.0032065436 0.0028412654 -0.0027305975 -0.0031108158 0.0014151026 0.0053058797
-0.0052776407 -0.0015082723 0.0014387073 0.0029893294 -0.0028719914 -0.001410707 0.0015015102 0.0051904297
-0.005295971 -0.001428081 0.0014336123 0.0027672793 -0.0030188728 -0.0014409727 0.001406181 0.0052659176
-0.005149542 -0.0012550949 0.0032864495 0.0027644953 -0.0027627852 -0.00327734 0.0011572158 0.005217336
-0.0042335344 -0.00030901568 0.0043704747 0.0018509078 -0.002047663 -0.0045671402 0.0003633575 0.004348038
-0.0031062346 0.0015765547 0.005959749 0.0011466442 -0.0011276713 -0.0059432876 -0.0016454471 0.0029277198
00000000: 0348 f83a 1dbd fe3a b7b9 003b 39a6 ff3a
00000010: a221 003b 4556 013b 7644 003b cbbb fa3a
00000020: a322 003b b2cd 043b 0dce 063b 4d63 053b
00000030: eca6 053b 125e 073b 40a9 053b b249 013b
00000040: e9ed 013b a25c 073b 46cc 083b b6e2 063b
00000050: 0e27 073b 295a 093b 9624 083b c002 033b
00000060: 6181 013b 2da0 063b 4b8a 073b b651 053b
00000070: 9e95 053b 1216 083b 9d5c 073b e9aa 023b
00000080: 155c 013b 9f7d 063b 4363 073b d727 053b
00000090: b16c 053b 06eb 073b c02b 073b 3283 023b
000000a0: 4d99 013b b81b 073b de7d 083b 518c 063b
000000b0: 81cd 063b 5df7 083b c8ab 073b ee9d 023b
000000c0: 74b1 ff3a 7d8e 043b a571 063b e804 053b
000000d0: 2544 053b 57e9 063b ef06 053b 4ab9 003b
000000e0: c305 f73a 8daf fd3a ea2e 003b 20bf fe3a
000000f0: 5648 ff3a decb 003b 6212 ff3a a87c f93a
00000100: 0380 43bb b786 78ba 3bb7 5f3a 6b9d 263a
00000110: cd4f 46ba a5ec 38ba f4dd 553a d9f2 463b
00000120: 4c3b 4bbb 3f07 9cbb a8ad 28bb da5e 02ba
00000130: a029 d839 4f15 283b 56a1 9f3b 9a81 533b
00000140: 8e01 40bb 22d9 babb 568d 1fbb 263b 19b9
00000150: 0bf0 3539 3e01 223b da7c bd3b f2e4 453b
00000160: 427c aaba b0f8 93bb ae44 b9ba 12c3 6639
00000170: 9e05 81b9 e5c1 b93a 6666 933b bcd1 9f3a
00000180: 71d6 a4ba acc0 92bb 7f73 bcba 6f78 8539
00000190: 0b9c 51b9 b1c7 b93a e58c 923b f6b2 a53a
000001a0: aa2c 42bb d905 bebb ec31 26bb 974b 32b9
000001b0: d3ac 5639 0b15 1e3b 2232 ba3b 7abe 463b
000001c0: e371 4ebb b3b7 9fbb 9a1c 2dbb 6439 d9b9
000001d0: 9337 013a 5ca0 273b 9910 9d3b 93ca 4d3b
000001e0: b866 48bb 5a9a 56ba 35af 623a 3b4c 263a
000001f0: 599f 40ba 9fb8 23ba bcfc 873a 7160 433b
00000200: ef34 b73a 9ea3 98b9 35fb adba 62ab a0bb
00000210: 8c21 9ebb 2fc7 8aba 3be5 b5b9 1b6a b23a
00000220: 859f 5d3b 88db 1f3b 5f40 0cbb e5b2 69bb
00000230: e585 74bb 2dfb 16bb bec6 1e3b eeb1 5d3b
00000240: ad2d 8d3b eb6c 5b3b ab7b 5fbb ca03 bfba
00000250: e6ec bcba 53d1 65bb 1b43 613b 77c5 913b
00000260: 69a4 913b fb80 843b b671 6dbb f5f3 8a3a
00000270: b517 923a 5124 76bb 2354 873b 1aad 973b
00000280: 5058 933b 55fb 833b f7f9 6fbb 72ce 933a
00000290: f575 953a 7b6e 74bb cbfe 843b 1de3 943b
000002a0: ff37 913b 1fa1 633b 071d 59bb 0123 b9ba
000002b0: 9ef7 bcba e128 66bb b6bb 5a3b e171 903b
000002c0: 5073 5e3b d44d 263b e8a2 09bb 7b39 69bb
000002d0: bfe3 68bb 1b4c 0abb d606 243b a6d4 643b
000002e0: bebe aa3a 5356 adb9 a802 abba 4988 a0bb
000002f0: a278 9dbb 1ccb 8cba 1435 aab9 7f4a af3a
00000300: dfa9 41bb eae4 e13a 0961 c43b 90ed 923a
00000310: d015 8bba 5fec c2bb 28b2 e8ba d6cf 503b
00000320: 3076 89bb df98 a0b9 b45c 8e3b 0bdc f43a
00000330: d940 ebba 5fee 94bb 204f af39 3398 8c3b
00000340: 7791 a7bb 070b a4ba e024 523b 8634 3a3b
00000350: d3f3 32bb d4de 4bbb f77a b93a f2dc ad3b
00000360: 0ff0 acbb 38b1 c5ba 0293 bc3a a0e8 433b
00000370: 0538 3cbb 79e7 b8ba 52ce c43a 7b14 aa3b
00000380: d389 adbb 722e bbba 0ce8 bb3a 3e5b 353b
00000390: 48d8 45bb 05df bcba 9b4f b83a b88d ac3b
000003a0: 7dbd a8bb ff81 a4ba 7961 573b 892c 353b
000003b0: d80f 35bb a4c8 56bb b8ad 973a 30f6 aa3b
000003c0: 76b9 8abb 6203 a2b9 3336 8f3b 299a f23a
000003d0: 1632 06bb f3a7 95bb 0581 be39 fd79 8e3b
000003e0: f891 4bbb 66a4 ce3a 004a c33b ff4a 963a
000003f0: 5fce 93ba e9bf c2bb 0bac d7ba fdde 3f3b
