pre-trained/DCT8_soft-thr_L2_rnd-init_1500.pt (torch_old, 409256 bytes, 4 tensors)

thr f4 [1, 64, 1, 1]
1.0 1.0 1.0 1.0 1.0 1.0 1.0 1.0
1.0 1.0 1.0 1.0 1.0 1.0 1.0 1.0
1.0 1.0 1.0 1.0 1.0 1.0 1.0 1.0
1.0 1.0 1.0 1.0 1.0 1.0 1.0 1.0
1.0 1.0 1.0 1.0 1.0 1.0 1.0 1.0
1.0 1.0 1.0 1.0 1.0 1.0 1.0 1.0
1.0 1.0 1.0 1.0 1.0 1.0 1.0 1.0
1.0 1.0 1.0 1.0 1.0 1.0 1.0 1.0
00000000: 0000 803f 0000 803f 0000 803f 0000 803f
00000010: 0000 803f 0000 803f 0000 803f 0000 803f
00000020: 0000 803f 0000 803f 0000 803f 0000 803f
00000030: 0000 803f 0000 803f 0000 803f 0000 803f
00000040: 0000 803f 0000 803f 0000 803f 0000 803f
00000050: 0000 803f 0000 803f 0000 803f 0000 803f
00000060: 0000 803f 0000 803f 0000 803f 0000 803f
00000070: 0000 803f 0000 803f 0000 803f 0000 803f
00000080: 0000 803f 0000 803f 0000 803f 0000 803f
00000090: 0000 803f 0000 803f 0000 803f 0000 803f
000000a0: 0000 803f 0000 803f 0000 803f 0000 803f
000000b0: 0000 803f 0000 803f 0000 803f 0000 803f
000000c0: 0000 803f 0000 803f 0000 803f 0000 803f
000000d0: 0000 803f 0000 803f 0000 803f 0000 803f
000000e0: 0000 803f 0000 803f 0000 803f 0000 803f
000000f0: 0000 803f 0000 803f 0000 803f 0000 803f

weight f4 [64, 1, 8, 8]
-0.090797305 -0.1208331 -0.24285321 0.14930505 0.07921013 0.23359819 -0.022422351 -0.07698963
-0.0053798174 -0.044147104 0.26133063 0.1616575 0.029751467 0.04895181 0.020623663 0.021701373
0.06924546 -0.10646072 0.19021022 0.000493958 0.08674675 0.08509284 -0.020315247 0.12647042
-0.3261954 0.0030797825 -0.17456731 0.15606292 -0.035467744 -0.06418916 0.008136418 -0.112472646
0.07047843 -0.10219443 0.075164214 0.084336296 0.059553567 0.06637211 0.2013111 0.11132858
0.18291718 -0.09948523 -0.0021743728 -0.07063934 -0.055001862 -0.007414464 -0.09205063 -0.07001479
-0.23044153 -0.09842648 0.03776902 0.074732155 -0.057839524 -0.018510493 0.141605 0.07361971
-0.019940687 -0.11433334 -0.019460818 0.020885209 0.1478091 -0.0676595 -0.113607295 0.0036831761
-0.09483685 0.07098879 -0.12899636 -0.087078884 -0.09550095 0.19309801 -0.03838142 -0.2473919
0.0034026427 -0.057601564 0.12616897 -0.07338789 -0.069120966 0.0017565432 -0.029419696 -0.06928586
-0.01170138 0.017147621 0.16689526 -0.06412837 0.08238267 -0.064878166 -0.09321533 -0.041061077
-0.019744352 0.10066074 0.05837964 -0.0129590565 -0.103613466 0.1671699 0.09455484 0.049490448
-0.025905283 -0.019425998 -0.024454271 -0.003266861 0.1820609 0.048509263 -0.026290942 -0.13705158
0.022451622 0.062678106 0.19643725 -0.19176261 0.014234878 -0.02579306 0.08133941 -0.020759294
-0.049762413 0.13935846 0.21200491 0.05858076 -0.37996584 -0.079297744 0.015262579 -0.04283534
0.07374564 0.10801318 0.11711767 -0.06777437 -0.038769 0.043394983 0.091099024 0.048135284
0.04237085 0.044693656 0.019747462 0.05421782 -0.08215376 0.14136058 0.1862776 -0.08375226
-0.006335913 -0.015050376 -0.008256041 0.04751125 0.08590909 -0.03680737 -0.09919615 0.009329106
0.0717625 0.08664162 0.08925765 -0.13049328 0.16217749 0.052034777 -0.024827516 0.07774723
0.09762492 -0.23435265 -0.054129947 0.21587867 -0.012274824 0.16412728 -0.03343157 -0.04839522
0.114285655 0.05269207 -0.17060848 0.01366079 0.1435184 -0.043783046 -0.05549834 -0.041058745
0.01927609 -0.014633248 0.08572531 -0.1700406 -0.078463495 -0.09101602 -0.0040248022 0.10309493
-0.034812484 0.007916173 -0.114355 -0.043768283 -0.16851099 0.12413059 -0.004100557 -0.029563256
-0.039849892 0.06941512 0.1809252 -0.11061258 -0.12531623 -0.05149253 -0.09678993 0.029706074
0.18113664 -0.017028213 0.051000915 -0.01845823 -0.025905993 -0.045931328 0.10103521 -0.06911837
-0.04602521 -0.06408149 0.05684715 -0.032615043 -0.018827707 0.09353774 -0.007709654 -0.1638632
-0.054129213 -0.074916326 -0.25624982 0.030835994 -0.14960347 -0.035889868 0.1229251 -0.05492594
-0.09852001 -0.017716788 0.043742064 0.14057124 -0.10448698 -0.017677683 -0.2269345 0.021894503
0.009982585 0.014766166 0.010914282 0.015575233 -0.03098575 -0.10966687 0.028910184 -0.03633607
-0.18270637 0.01864817 0.15356995 0.126252 0.021968607 0.15297806 -0.03876451 -0.026664374
0.2387681 0.0620981 -0.06842477 -0.13520516 -0.10108585 0.05385166 -0.030090513 0.004921308
0.03651227 -0.10245375 -0.0674193 0.09722251 0.022716837 -0.08323813 0.049544904 0.15794851
00000000: f0f3 b9bd 5877 f7bd 83ae 78be 6ce3 183e
00000010: ec38 a23d 5d34 6f3e 14af b7bc bdac 9dbd
00000020: 2e49 b0bb 98d3 34bd 21cd 853e 8b89 253e
00000030: 59b9 f33c b181 483d f5f2 a83c 14c7 b13c
00000040: 90d0 8d3d 1408 dabd 78c6 423e f67c 013a
00000050: 48a8 b13d 2845 ae3d 296c a6bc 7681 013e
00000060: 1503 a7be 2dd6 493b c6c1 32be f5ce 1f3e
00000070: a046 11bd 9b75 83bd 9c4e 053c 0f58 e6bd
00000080: ff56 903d 504b d1bd b2ef 993d 82b8 ac3d
00000090: 71ee 733d 1aee 873d 7f24 4e3e 3d00 e43d
000000a0: a44e 3b3e eabe cbbd ec7f 0ebb 5cab 90bd
000000b0: a249 61bd 08f5 f2bb 0a85 bcbd ea63 8fbd
000000c0: ddf8 6bbe d393 c9bd b0b3 1a3d 2c0d 993d
000000d0: 23e9 6cbd 51a3 97bc e700 113e eec5 963d
000000e0: a75a a3bc 9927 eabd 4b6c 9fbc 7517 ab3c
000000f0: 455b 173e 1091 8abd f1aa e8bd 7161 713b
00000100: d339 c2bd 9262 913d 9f17 04be 6a56 b2bd
00000110: 0196 c3bd 7cbb 453e d635 1dbd 4d54 7dbe
00000120: dffe 5e3b 9eef 6bbd 7032 013e 644c 96bd
00000130: 4b8f 8dbd cf3b e63a 9301 f1bc bfe5 8dbd
00000140: 25b7 3fbc 2b79 8c3c 97e6 2a3e bc55 83bd
00000150: 3fb8 a83d d8de 84bd aee7 bebd a92f 28bd
00000160: e8be a1bc 3827 ce3d 7d1f 6f3d 3952 54bc
00000170: 4c33 d4bd 962e 2b3e f8a5 c13d 7fb6 4a3d
00000180: 5137 d4bc 4523 9fbc 5354 c8bc d518 56bb
00000190: 2c6e 3a3e a6b1 463d 1a60 d7bc 4057 0cbe
000001a0: 77ec b73c 615d 803d d926 493e 6b5d 44be
000001b0: 6839 693c f84b d3bc 4795 a63d 650f aabc
000001c0: acd3 4bbd fcb3 0e3e d117 593e 61f2 6f3d
000001d0: e28a c2be db66 a2bd e50f 7a3c 1c74 2fbd
000001e0: f407 973d 0436 dd3d 64db ef3d 4acd 8abd
000001f0: 3ecc 1ebd f0be 313d 2092 ba3d 8129 453d
00000200: 0e8d 2d3d b210 373d 6ec5 a13c 8113 5e3d
00000210: 3b40 a8bd d4c0 103e 8ebf 3e3e 4e86 abbd
00000220: 7e9d cfbb da95 76bc 5944 07bc 289b 423d
00000230: 1bf1 af3d 53c3 16bd 5a27 cbbd 1bd9 183c
00000240: 38f8 923d 2971 b13d b7cc b63d 08a0 05be
00000250: db11 263e 6b22 553d 1363 cbbc f139 9f3d
00000260: 93ef c73d 24fa 6fbe 5db7 5dbd 4c0f 5d3e
00000270: 581c 49bc fb10 283e 8bef 08bd 113a 46bd
00000280: 990e ea3d a4d3 573d fdb3 2ebe 82d1 5f3c
00000290: 7df6 123e da55 33bd 3a52 63bd 372d 28bd
000002a0: e4e8 9d3c 4ac0 6fbc c090 af3d 1f1f 2ebe
000002b0: 78b1 a0bd 9b66 babd 7de2 83bb 6f23 d33d
000002c0: 8997 0ebd d6b2 013c f432 eabd 5f46 33bd
000002d0: 258e 2cbe 2e38 fe3d f75d 86bb a42e f2bc
000002e0: a439 23bd 8429 8e3d 7544 393e d988 e2bd
000002f0: e652 00be d5e9 52bd cc39 c6bd 275a f33c
00000300: e27b 393e c07e 8bbc 56e6 503d b735 97bc
00000310: ce38 d4bc 7d22 3cbd 8ceb ce3d ef8d 8dbd
00000320: ee84 3cbd 283d 83bd 8fd8 683d 5a97 05bd
00000330: 903c 9abc b790 bf3d 44a1 fcbb c1cb 27be
00000340: 98b6 5dbd bb6d 99bd 2d33 83be c49b fc3c
00000350: a731 19be 4101 13bd 28c0 fb3d 06fa 60bd
00000360: dcc4 c9bd cc22 91bc e12a 333d e8f1 0f3e
00000370: 45fd d5bd cad0 90bc 8461 68be 1a5c b33c
00000380: ff8d 233c caed 713c d1d1 323c 432f 7f3c
00000390: d4d5 fdbc 0699 e0bd 0dd5 ec3c 22d5 14bd
000003a0: 6117 3bbe 0cc4 983c 7141 1d3e 3448 013e
000003b0: 82f7 b33c 48a6 1c3e 89c7 1ebd 3f6f dabc
000003c0: a07f 743e 945a 7e3d 4922 8cbd 3973 0abe
000003d0: 1906 cfbd 8f93 5c3d 6180 f6bc ec42 a13b
000003e0: e48d 153d 46d3 d1bd 2113 8abd 981c c73d
000003f0: a918 ba3c c178 aabd 99ef 4a3d 41bd 213e

bias f4 [64]
-0.096561395 0.12585355 0.056355976 -0.10119304 -0.16950247 -0.082833484 0.0928057 0.05921709
-0.13310218 0.030599335 0.8054058 -0.012772306 0.08446973 0.07466909 0.0028489246 0.0739466
0.087036125 -0.107743084 0.19978926 0.0047720955 -0.090745986 0.119096056 0.079996586 -0.024982778
-0.0072831507 -0.093375966 -0.030560883 0.039384604 -0.025673306 0.11746257 -0.09892856 -0.009687955
-0.06263631 0.03446637 -0.09956412 0.007591367 -0.41399053 -0.0030179129 0.00030051556 -0.0964731
0.017627362 -0.10212018 0.045728475 0.06881307 0.04160198 -0.08940592 -0.062204905 -0.07621801
-0.022702757 0.04939732 0.07107987 0.02582793 -0.03690926 0.07063885 0.04342423 -0.045541387
0.024774998 -0.06600146 0.039879892 0.12474762 0.1424136 0.01931616 -0.051289186 0.09883265
00000000: fbc1 c5bd c1df 003e 86d5 663d 4c3e cfbd
00000010: 0e92 2dbe 9aa4 a9bd ea10 be3d 9f8d 723d
00000020: f04b 08be 75ab fa3c 132f 4e3f ef42 51bc
00000030: 77fe ac3d 1cec 983d 06b5 3a3b 5171 973d
00000040: ff3f b23d 68a8 dcbd 8e95 4c3e 3d5f 9c3b
00000050: 08d9 b9bd a2e8 f33d 40d5 a33d afa8 ccbc
00000060: 7fa7 eebb e63b bfbd d15a fabc c051 213d
00000070: d350 d2bc 3790 f03d 0f9b cabd 3aba 1ebc
00000080: 7747 80bd 9c2c 0d3d 46e8 cbbd 00c1 f83b
00000090: 91f6 d3be 2dc8 45bb 848e 9d39 b093 c5bd
000000a0: 4267 903c 6324 d1bd c84d 3b3d deed 8c3d
000000b0: d666 2a3d 731a b7bd 92ca 7ebd 3018 9cbd
000000c0: 22fb b9bc d854 4a3d 5392 913d 1895 d33c
000000d0: 2a2e 17bd 1aab 903d 9bdd 313d 9b89 3abd
000000e0: f0f4 ca3c c62b 87bd 1959 233d ae7b ff3d
000000f0: dfd4 113e ec3c 9e3c 9c14 52bd c668 ca3d

weight f4 [1, 64, 8, 8]
-0.17608683 0.03937037 -0.0038010965 0.108723454 -0.13869227 -0.096470855 0.23066744 0.16138448
-0.15763988 0.09920314 -0.062032957 0.047821954 0.04545442 0.026232516 -0.14937022 0.057140235
0.0545093 -0.021747563 0.017460413 0.15552033 -0.1269089 0.058523472 -0.10167225 0.03320066
-0.02995917 -0.07697527 -0.020760631 0.1016509 0.016572421 -0.22257353 -0.06448554 -0.07058108
0.0028400822 0.040403675 0.004376561 0.06919332 0.10117564 0.13698538 0.08797836 0.087731436
-0.013681486 -0.14829385 0.076496966 -0.104830496 0.18671179 0.056258336 -0.21140638 -0.034458954
0.029369827 0.21254066 0.06794708 -0.016770065 0.115593046 0.104864925 0.039451554 0.2065542
0.041024253 0.097043775 0.0354608 -0.04971275 -0.0027299626 0.027814848 -0.044679143 -0.10245726
0.07562274 0.21430385 0.09352704 0.17987722 0.032443583 -0.012212319 -0.033872124 0.011428816
0.040933695 -0.011267967 -0.0057621957 0.054120097 0.27825624 -0.012054302 0.0518271 0.053380556
0.15078764 -0.076529525 0.17507532 0.008327059 -0.07089925 -0.020102851 -0.19086558 0.068098195
0.06707393 -0.0701735 0.05446381 -0.15925564 0.0062896507 0.13912603 0.005462826 0.19875023
0.13237618 0.036949705 -0.07150236 -0.009074907 -0.09122138 0.19441995 0.18610205 0.031873472
0.114124686 -0.08081909 -0.18294367 0.2254252 0.12477406 -0.037726983 0.13035555 0.2520363
0.081848204 -0.08997848 0.0062074084 0.09403107 0.18317415 -0.04409074 0.13769147 0.032171175
0.025735952 0.047500063 -0.112774774 0.18905848 0.09104259 0.028497918 -0.037642088 -0.007901541
0.16561688 0.18001403 -0.10865247 0.015012833 -0.25732717 0.12310517 0.16571316 0.09668714
0.032324076 0.09805293 0.27230895 0.1984726 0.09196071 0.019586189 -0.06643972 -0.08368898
-0.061824884 0.017104847 -0.01591147 -0.024437778 0.106911846 -0.07529792 0.14496663 0.0055358047
-0.10545392 -0.09332658 0.12238981 0.02029398 0.12641014 -0.109624 -0.05738733 0.0043192892
-0.0887035 0.34702078 0.22324942 -0.0065149353 -0.0059856586 -0.011514841 0.06523187 -0.11676127
-0.0035806946 -0.02060471 0.07840481 -0.05249365 0.03653633 -0.15963362 -0.07942937 -0.00011506122
-0.005810688 0.04529485 0.047385547 0.19638465 -0.095977634 0.1286869 -0.10249091 0.013789891
0.19807084 0.11799517 -0.004248815 -0.070830695 0.17569727 0.14977077 -0.19034244 0.021727135
0.21966438 0.0354752 -0.1534132 0.073483415 0.09333953 -0.017013509 0.011974831 0.078155465
0.19282654 -0.3169749 -0.042580437 -0.0625931 0.19770736 -0.023956439 0.054032456 0.028261852
0.042517945 0.027549548 -0.10828016 -0.19666934 -0.12764435 -0.06584387 -0.2417738 0.17239904
0.00809013 -0.05640076 0.17262779 -0.1257599 -0.07877493 -0.009306524 -0.05872817 0.09139307
0.17490578 0.09229177 0.14629605 0.061908893 -0.0004110627 0.026875574 0.03696347 -0.025745176
-0.0022424965 0.0809057 -0.09140253 -0.030966438 0.06436452 0.10653549 -0.021063477 -0.17454
-0.055939775 0.10424844 0.038448825 0.015394397 -0.018148163 0.070336096 -0.12196205 0.002711479
-0.11332843 -0.052250173 0.050626528 -0.060811985 0.042680338 0.045906905 -0.023280574 -0.11708828
00000000: 1b50 34be d342 213d d11b 79bb 67aa de3d
00000010: 5905 0ebe 8392 c5bd 1634 6c3e f941 253e
00000020: 596c 21be 042b cb3d 4516 7ebd f4e0 433d
00000030: 6a2e 3a3d 93e5 d63c 82f4 18be e10b 6a3d
00000040: 2545 5f3d f227 b2bc 2409 8f3c b940 1f3e
00000050: 68f4 01be 4fb6 6f3d 8a39 d0bd 6afd 073d
00000060: ef6c f5bc 36a5 9dbd 3312 aabc 592e d03d
00000070: e3c2 873c 51ea 63be ff10 84bd d08c 90bd
00000080: ac20 3a3b 537e 253d 4169 8f3b 3ab5 8d3d
00000090: 2d35 cf3d e545 0c3e 002e b43d 8aac b33d
000000a0: 5028 60bc 58da 17be 71aa 9c3d 5fb1 d6bd
000000b0: 6031 3f3e 246f 663d ea7a 58be d524 0dbd
000000c0: fe98 f03c 42a4 593e d727 8b3d 6061 89bc
000000d0: 0cbc ec3d 6cc3 d63d f497 213d f282 533e
000000e0: 0c09 283d e3be c63d 583f 113d 999f 4bbd
000000f0: 2ce9 32bb f7db e33c 7a01 37bd 1dd5 d1bd
00000100: 18e0 9a3d 7872 5b3e 1b8b bf3d bc31 383e
00000110: 90e3 043d 2e16 48bc 7fbd 0abd ee3f 3b3c
00000120: 17aa 273d 479d 38bc cdd0 bcbb 09ad 5d3d
00000130: 9a77 8e3e 687f 45bc a748 543d 92a5 5a3d
00000140: 1368 1a3e 83bb 9cbd f246 333e 386e 083c
00000150: a033 91bd bcae a4bc 4472 43be 1177 8b3d
00000160: 0e5e 893d 20b7 8fbd 7215 5f3d e913 23be
00000170: 6a19 ce3b 0e77 0e3e 8201 b33b 2e85 4b3e
00000180: 9f8d 073e 9358 173d d46f 92bd ebae 14bc
00000190: 46d2 babd 0616 473e 8991 3e3e c28d 023d
000001a0: 34ba e93d 7b84 a5bd 9655 3bbe ddd5 663e
000001b0: 8b89 ff3d 9c87 1abd ed7b 053e e70a 813e
000001c0: 08a0 a73d a346 b8bd 8467 cb3b 5d93 c03d
000001d0: 0192 3b3e 7e98 34bd fefe 0c3e ecc5 033d
000001e0: 34d4 d23c 6d8f 423d 76f6 e6bd 8c98 413e
000001f0: 8a74 ba3d 7774 e93c 972e 1abd 7775 01bc
00000200: 7997 293e 9955 383e 3085 debd 63f8 753c
00000210: 63c0 83be 901e fc3d b6b0 293e e803 c63d
00000220: 4066 043d f9cf c83d 146c 8b3e 673c 4b3e
00000230: e655 bc3d 3773 a03c 8c11 88bd 2165 abbd
00000240: 173c 7dbd 771f 8c3c c558 82bc bc31 c8bc
00000250: 99f4 da3d cc35 9abd 2272 143e b265 b53b
00000260: 3af8 d7bd 0222 bfbd 82a7 fa3d 903f a63c
00000270: a971 013e 8c82 e0bd fa0e 6bbd d388 8d3b
00000280: 2eaa b5bd b5ac b13e 7f9b 643e 3d7b d5bb
00000290: 5823 c4bb bea8 3cbc 4998 853d 8820 efbd
000002a0: 16aa 6abb 35cb a8bc b392 a03d 9503 57bd
000002b0: 1ea7 153d ff76 23be deab a2bd 064d f1b8
000002c0: 9567 bebb 1887 393d 5917 423d 0f19 493e
000002d0: ec8f c4bd 80c6 033e c1e6 d1bd ffee 613c
000002e0: 15d3 4a3e 74a7 f13d a539 8bbb af0f 91bd
000002f0: fce9 333e 825d 193e 21e9 42be 1bfd b13c
00000300: b3ef 603e 714e 113d 5a18 1dbe 797e 963d
00000310: cc28 bf3d ea5f 8bbc 1532 443c f90f a03d
00000320: 5274 453e 894a a2be d368 2ebd d030 80bd
00000330: cc73 4a3e 4b40 c4bc 2351 5d3d 6685 e73c
00000340: 4c27 2e3d 97af e13c fdc1 ddbd b063 49be
00000350: 33b5 02be 27d9 86bd 8d93 77be 6089 303e
00000360: 778c 043c 7c04 67bd 57c5 303e 34c7 00be
00000370: c054 a1bd 647a 18bc f38c 70bd 4a2c bb3d
00000380: 801a 333e 7803 bd3d a2ce 153e 2e94 7d3d
00000390: e783 d7b9 2a2a dc3c 0267 173d 8ce7 d2bc
000003a0: d9f6 12bb e3b1 a53d 4031 bbbd 54ad fdbc
000003b0: 8cd1 833d 472f da3d 508d acbc 9dba 32be
000003c0: 1b21 65bd 3580 d53d 847c 1d3d c838 7c3c
000003d0: 75ab 94bc 5f0c 903d 3dc7 f9bd 12b3 313b
000003e0: bc18 e8bd 4704 56bd c35d 4f3d fd15 79bd
000003f0: 94d1 2e3d e108 3c3d e7b6 bebc fbcb efbd
