pre-trained-tp3/layer_inspector_tiny_DnCNN_1000.pt (torch, 637474 bytes, 43 tensors)

inspector0weight f4 [1, 13, 1, 1]
0	0xbee5f1a1	-0.4491091
1	0xbe439ae7	-0.1910206
2	0x3eb64dc9	0.3560622
3	0xbf175bda	-0.5912453
4	0xbf4720e4	-0.7778456
5	0x3d5f6a1b	0.05454455
6	0xbec4993f	-0.38398167
7	0x3e86ef98	0.2635467
8	0xbc678946	-0.01413185
9	0xbf02c121	-0.5107594
10	0x3ed3a583	0.41337213
11	0xbf1ec49a	-0.6201874
12	0xbf717506	-0.9431919

inspector1weight f4 [1, 13, 1, 1]
0	0x3f76853b	0.96297044
1	0x3e790ed4	0.24322063
2	0xbeab89cf	-0.33503577
3	0x3e16181e	0.14657637
4	0x3dce29e3	0.10066583
5	0x3e954344	0.29152882
6	0xbf168390	-0.587945
7	0x3e1e7057	0.15472542
8	0xbe9f1e95	-0.3107802
9	0xbdf4695d	-0.11934159
10	0x3ed76c46	0.42074794
11	0x3e123732	0.14278868
12	0x3eea5a7b	0.45772156

inspector2weight f4 [1, 13, 1, 1]
0	0x3d0b5773	0.034018945
1	0x3db48da6	0.0881608
2	0x3bd41af8	0.0064729415
3	0x3d367af6	0.04455086
4	0xbce8d601	-0.028422358
5	0x3dbfc15d	0.09363053
6	0xbeba29ff	-0.36360165
7	0xbf9048da	-1.1272233
8	0xbdf61dca	-0.120174006
9	0x3d6deecc	0.058089063
10	0x3e8d393e	0.27582735
11	0xbc719209	-0.01474429
12	0x3e66a8ba	0.22525302

inspector3weight f4 [1, 13, 1, 1]
0	0x3daa1c36	0.08306162
1	0x3e8fb0e6	0.2806465
2	0xbda9c786	-0.08290009
3	0xbf966974	-1.1750932
4	0xbef89eb0	-0.4855857
5	0xbd1e612e	-0.038666897
6	0xbd59baf6	-0.053156815
7	0xbe387fd2	-0.1801751
8	0x3f2cde64	0.6752684
9	0xbe95b121	-0.292367
10	0xbeb33cb0	-0.35007238
11	0xbcbab70a	-0.022792358
12	0x3ead7bff	0.33883664

inspector4weight f4 [1, 13, 1, 1]
0	0xbd8f4359	-0.069952674
1	0x3cb95c6e	0.022627082
2	0xbcc11987	-0.023571743
3	0xbf2e1ce5	-0.6801284
4	0x3e947522	0.28995615
5	0x3ede2cf6	0.43393677
6	0x3c2c9538	0.010533623
7	0xbc0a0754	-0.008424599
8	0xbeda1d02	-0.42600256
9	0x3e40a8b9	0.18814363
10	0xbe14bbec	-0.14524812
11	0xbb9cafae	-0.004781685
12	0x3f04e6e5	0.5191482

inspector5weight f4 [1, 13, 1, 1]
0	0x3f02d874	0.5111153
1	0x3ea7e302	0.3279038
2	0x3e3517d9	0.17684878
3	0x3db14ef8	0.0865764
4	0xbed54e71	-0.4166141
5	0xbbe71328	-0.007051844
6	0x3eb7bd2f	0.35886523
7	0xbd9fd05b	-0.078034125
8	0x3e09cb6f	0.1345651
9	0x3c51b00f	0.012798323
10	0xbdf0a32e	-0.11749874
11	0xbde4eb84	-0.111777335
12	0xbe9d5984	-0.30732358

weight f4 [13, 1, 3, 3]
0	0x3d0ce5cd	0.034398843
1	0xbbfa6def	-0.0076424996
2	0xbc206224	-0.009789024
3	0x3db36880	0.08760166
4	0x3d951858	0.07280034
5	0x3ce424ab	0.027849516
6	0xbe09fc1e	-0.13475081
7	0xbd425325	-0.047442574
8	0xbc14625e	-0.009056656
9	0x3c71e1ab	0.014763276
10	0xbcd4fa4f	-0.025998263
11	0xbc3e63c5	-0.011620467
12	0x3dd06d36	0.1017708
13	0x3b8fcefb	0.0043886877
14	0xbd94ede2	-0.07271935
15	0x3dfd3686	0.12363915
16	0xbc148522	-0.009064944
17	0xbdec7358	-0.115454376
18	0x3c7c7c2b	0.015410463
19	0xbcc822d4	-0.02443067
20	0x3c398efa	0.011325592
21	0xbc8d033e	-0.01721346
22	0xbe04bc05	-0.12962349
23	0xbcab631c	-0.020921282
24	0x3bc36ffc	0.0059642773
25	0xbc3892cd	-0.011265469
26	0x3cba41aa	0.02273639
27	0xbd6b0adf	-0.057383414
28	0x3d916b3e	0.07100533
29	0x3ad76406	0.0016433008
30	0x3ddb54ec	0.10709557
31	0xbe49329b	-0.1964821
32	0xbd0852f0	-0.03328222
33	0x3c607018	0.0136986
34	0x3c038f14	0.008029718
35	0x3c4b13a4	0.012394819
36	0xbc1651ce	-0.009174777
37	0x3b9063b2	0.004406416
38	0x3c90fbe2	0.017698232
39	0x3c1bf70c	0.00951935
40	0x3d474eda	0.048659183
41	0x3e04f4f2	0.12984064
42	0xbc00098e	-0.007814778
43	0xbbb6160a	-0.0055568265
44	0x3c9caa5e	0.019124206
45	0x35126d74	5.4548514e-07
46	0xb47c6c26	-2.3508673e-07
47	0x355d898b	8.2529067e-07
48	0xb559251f	-8.089282e-07
49	0xb4ca2a7e	-3.765635e-07
50	0x35bc767f	1.4041578e-06
51	0x3603e0d7	1.9651395e-06
52	0x36009251	1.9158654e-06
53	0xb59d1c40	-1.1705633e-06
54	0xbd72572c	-0.059165165
55	0xbdfe36e1	-0.12412811
56	0xbd7e4e61	-0.062086467
57	0xbc011d9e	-0.007880596
58	0x3c50d4b0	0.012746021
59	0x3c503a7a	0.012709254
60	0x3d704e06	0.05866816
61	0x3df8f8be	0.12156819
62	0x3d5e9ac9	0.054346833
63	0xbd3f7c84	-0.046749607
64	0x3b86415e	0.004097148
65	0xbd06114e	-0.032731347
66	0xbd932b61	-0.07186008
67	0x3e7fae4b	0.24968831
68	0x3d0bfd5d	0.034177173
69	0xbd9417bc	-0.072310895
70	0xbcb77a3f	-0.022397159
71	0xbc7390a4	-0.014866028
72	0x3e0cf7d2	0.13766411
73	0xbcf5eebe	-0.030021068
74	0xbd307b03	-0.043086063
75	0x3d9331f0	0.07187259
76	0xbde0998d	-0.109667875
77	0x3a3c2a3f	0.0007177926
78	0xbc454e5c	-0.012042608
79	0xbd09fc2a	-0.033687748
80	0x3d4627ec	0.048377916
81	0xbd4ce07a	-0.050018765
82	0xbd6cdb5b	-0.05782638
83	0x3e0266ca	0.12734523
84	0xbe0436fd	-0.12911601
85	0xbe34383f	-0.17599581
86	0x3e784494	0.2424491
87	0xbd1f0f14	-0.03883274
88	0xbd542c9b	-0.05180035
89	0x3ddbf064	0.1073921
90	0x3d8fdb64	0.07024267
91	0x3e24f013	0.16107206
92	0x3d9b958e	0.07596885
93	0x3aff8235	0.0019493761
94	0xbc852c36	-0.016256433
95	0xbc760f25	-0.015018259
96	0xbd966513	-0.07343497
97	0xbe168783	-0.14700131
98	0xbd83f596	-0.06443326
99	0x3d48f984	0.04906608
100	0xbb992975	-0.0046741315
101	0x3d0a71ca	0.033799924
102	0x3d976b44	0.07393506
103	0xbe848e18	-0.2588966
104	0xbd0d8e10	-0.03455931
105	0x3d9932d6	0.07480399
106	0x3cbcd371	0.023050042
107	0x3c82bfd4	0.015960611
108	0x3d9a37e6	0.07530193
109	0x3de7bb59	0.113150306
110	0x3d87d7e7	0.06632977
111	0xbcfe450d	-0.031038785
112	0xbdbe469e	-0.09290813
113	0xbd498e15	-0.049207766
114	0xbd1987bb	-0.03748296
115	0xbd44103a	-0.047867037
116	0xbc6f01b9	-0.014587813

bias f4 [13]
0	0x3cafe4d7	0.021471424
1	0x3c95e3e0	0.018297136
2	0x3ca7a934	0.020466425
3	0x3c3c20c3	0.01148242
4	0x3c94f20f	0.018181829
5	0x0005e670	5.41843e-40
6	0x3cab389a	0.020901013
7	0x3cd34c66	0.025793266
8	0x3cc7b06e	0.02437612
9	0x3c39f30e	0.011349453
10	0x3c83d4db	0.016092708
11	0x3caccf80	0.021095037
12	0x3c562280	0.013069749

weight f4 [13]
0	0x3d9592c3	0.07303383
1	0x3da95522	0.08268191
2	0x3da677a8	0.08128291
3	0x3d3f2e43	0.046674978
4	0x3dc8f643	0.09812596
5	0xbbbf5bb0	-0.0058397874
6	0x3dcba2f8	0.09943193
7	0x3df4c8d6	0.11952369
8	0x3dbd87d6	0.09254424
9	0x3db64819	0.0890047
10	0x3dc06bea	0.09395583
11	0x3dd56eae	0.10421501
12	0x3d582f81	0.05277968

bias f4 [13]
0	0xbd0683c4	-0.032840505
1	0xbc18280b	-0.009286891
2	0xbdb8abad	-0.090171196
3	0x3e5dcfda	0.2166132
4	0xbe397099	-0.18109359
5	0xb910c595	-0.00013806515
6	0xbd2672a2	-0.040636666
7	0xbd6a224e	-0.05716162
8	0xbd97505a	-0.07388373
9	0x3e1178e9	0.1420628
10	0x3d27fba1	0.041011456
11	0x3d52041a	0.051273443
12	0x3daa8446	0.083260104

running_mean f4 [13]
0	0x3ceffa50	0.029294163
1	0x3cb6b8ca	0.022304911
2	0xbd31fc5f	-0.04345357
3	0xbcac214d	-0.021011973
4	0x3dd72e49	0.10506875
5	0x35e232e7	1.6853127e-06
6	0x3cc3d382	0.023904566
7	0x3d2a1aa8	0.041529328
8	0x3d0cf2f2	0.03441138
9	0xbb4ca898	-0.003122842
10	0x3c53abe1	0.012919397
11	0x3b9f9b66	0.00487082
12	0x3b636c13	0.0034701868

running_var f4 [13]
0	0x3a6b08a0	0.0008965824
1	0x3ad720ab	0.0016412934
2	0x3aba5e86	0.0014218844
3	0x3aa6d558	0.0012728376
4	0x3b222d71	0.0024746323
5	0x2b8a790f	9.83909e-13
6	0x3aea97e5	0.0017898051
7	0x3ae73465	0.0017639516
8	0x3a892079	0.0010461948
9	0x3b9fea73	0.0048802434
10	0x3b33734d	0.0027381957
11	0x3af811fd	0.0018926259
12	0x3aad47ff	0.0013220309

weight f4 [13, 13, 3, 3]
0	0xbc1b0ea8	-0.009463944
1	0x3a7f5d60	0.0009741392
2	0x3c817b77	0.015805943
3	0xbbbd1218	-0.005769979
4	0xbc754c7d	-0.0149718495
5	0xbbecf3c0	-0.0072312057
6	0xbb8d882d	-0.004319212
7	0xbc3b2d60	-0.011424392
8	0xbc725406	-0.014790541
9	0x3c42d7b0	0.011892244
10	0xbb9e4449	-0.0048299176
11	0xbb834517	-0.004006039
12	0x3c4807dd	0.012208906
13	0xbc98671e	-0.018603858
14	0xbba4df8b	-0.005031531
15	0x3c0b5053	0.0085030375
16	0x3a12172f	0.00055729126
17	0xbb989b04	-0.004657151
18	0xbb331875	-0.002732781
19	0xbc32bdf6	-0.010909548
20	0xbbcc82ff	-0.006241202
21	0x3b1fb8cc	0.0024371622
22	0x3b56f61a	0.0032800497
23	0xb965eae8	-0.00021926651
24	0x3b8de633	0.0043304204
25	0x39c9c388	0.0003848339
26	0x3b186e67	0.0023259164
27	0xbbbda168	-0.0057870634
28	0x3c848909	0.016178625
29	0x3c89c510	0.0168176
30	0xbc974b9e	-0.018468674
31	0xbe428929	-0.18997635
32	0x3d2ca71f	0.042151567
33	0xbc9b6632	-0.018969629
34	0x3ccd357c	0.025049917
35	0xbc56c668	-0.013108827
36	0x3ce817f2	0.02833173
37	0x3c81d836	0.015850168
38	0x3bfd6f91	0.007734247
39	0x3dacd926	0.08439855
40	0x3d70b911	0.058770243
41	0x3ca85c7d	0.020551914
42	0x3d0d86f0	0.034552515
43	0x3cf13a32	0.029446695
44	0x3c47a6a0	0.012185723
45	0x2e6541ab	5.2126897e-11
46	0x30659d53	8.3533286e-10
47	0x2fd445ba	3.861212e-10
48	0xb1069b22	-1.958775e-09
49	0xb291d529	-1.6977156e-08
50	0xaf0a7720	-1.2593349e-10
51	0x2ec51bd8	8.963469e-11
52	0x2fa49464	2.9936864e-10
53	0x30794b38	9.0692565e-10
54	0xbbb506e5	-0.0055245035
55	0x3ca83d19	0.020536946
56	0xbc381565	-0.01123557
57	0xbb9f1742	-0.0048550675
58	0xbcbff05b	-0.02343004
59	0xbcadaed5	-0.02120153
60	0xbbe99d2d	-0.0071293325
61	0xbd2e2e41	-0.04252458
62	0xbc35b4dc	-0.0110904835
63	0xbb53e095	-0.0032329906
64	0xbd26bdbf	-0.0407083
65	0xba8480b9	-0.0010109163
66	0xbc12ed09	-0.008967646
67	0x3e1aacbd	0.15104957
68	0xbc4a2fcf	-0.0123405
69	0xbbaadcad	-0.005214295
70	0xbc90a93b	-0.01765882
71	0xbc613a90	-0.013746873
72	0xba2f5f8f	-0.00066899596
73	0xbad87a4c	-0.001651594
74	0xbbf09de0	-0.007343039
75	0xbacf5e3f	-0.0015820934
76	0x3be6a496	0.007038663
77	0xbbe0fc10	-0.0068659857
78	0x3b21102e	0.0024576294
79	0x3bed65f5	0.0072448202
80	0x3ada0c22	0.0016635696
81	0x3bd3d4d4	0.00646458
82	0xbbf769de	-0.007550462
83	0xbc1a8fd1	-0.009433703
84	0x3d306055	0.04306062
85	0xbce4918e	-0.027901437
86	0xbca12175	-0.019669274
87	0x3ae59b9a	0.0017517686
88	0xbcc91efe	-0.024550911
89	0xbc8b995d	-0.017040903
90	0xbbf31dc9	-0.007419322
91	0xbd2cc960	-0.042184234
92	0xbc21d8e4	-0.009878371
93	0xbc695d0f	-0.014243378
94	0xbc57bc89	-0.013167509
95	0xbc3aa11f	-0.011390953
96	0xbc05f932	-0.008177089
97	0x3d0f1d7f	0.03494024
98	0xbbc93cdb	-0.0061412877
99	0x3b8dadd7	0.004323702
100	0x3d1e59e7	0.038659956
101	0x39f9a55b	0.0004761618
102	0x3c83ea71	0.016103001
103	0xbdebaf20	-0.11508012
104	0x3cb037d4	0.021510996
105	0x3afc376b	0.001924259
106	0x3c5412c0	0.0129439235
107	0x3c9dff4b	0.019286772
108	0x3bb6c586	0.005577746
109	0xbbd32c6a	-0.0064445036
110	0x3b3402c6	0.0027467473
111	0xbb9ce6b9	-0.0047882465
112	0xbc9ffb1a	-0.019528914
113	0xbc55ead7	-0.013056478
114	0x3c464d49	0.012103387
115	0x3d2563ce	0.040378384
116	0x3ca5902d	0.02021035
117	0xbd418a18	-0.047250837
118	0xbbeaf79d	-0.007170631
119	0xba883a13	-0.0010393284
120	0xbcf02f59	-0.029319452
121	0xbb5b76ba	-0.0033487515
122	0xbb8be4be	-0.0042692116
123	0xbb64937d	-0.003487795
124	0x3c67a145	0.014137571
125	0x3ca44b33	0.020055389
126	0xbc033ba1	-0.008009822
127	0xbc5417f5	-0.012945165
128	0xbc8641b5	-0.016388753
129	0x3c207285	0.009792929
130	0xbc295d0e	-0.010337127
131	0xbc638f04	-0.013889078
132	0xbaf07a8a	-0.0018347066
133	0x3c6b5d0c	0.014365446
134	0x3c5479e0	0.01296851
135	0xbaff2b4c	-0.001946786
136	0xbbd75ee1	-0.0065725897
137	0xba1cf483	-0.0005987363
138	0x3c191642	0.009343686
139	0x3bc8df8c	0.0061301645
140	0x3b0ec873	0.0021786958
141	0xbb767c62	-0.003761076
142	0x3cc0a2fe	0.02351522
143	0x3b92df02	0.004482151
144	0x3c9fadc4	0.019492038
145	0x3d7cb12b	0.061692398
146	0x3d0f5881	0.034996513
147	0x3b766cd1	0.003760148
148	0x3aa54a0e	0.0012610571
149	0x3bad38a7	0.0052862945
150	0x3ba5c574	0.0050589386
151	0xbd037f60	-0.032103896
152	0xbac660b1	-0.0015135017
153	0x3d24b964	0.040215865
154	0x3c871a39	0.016491996
155	0x3c2baf6b	0.010478835
156	0xbc4e5217	-0.012592814
157	0xbc91850a	-0.017763633
158	0x3c6f5aed	0.014609081
159	0xbd3bf7be	-0.045890562
160	0xbd0fda1c	-0.035120115
161	0x3b03873d	0.0020069622
162	0xa5b0451c	-3.0577964e-16
163	0xa749b09a	-2.799009e-15
164	0xa50b77b8	-1.209689e-16
165	0xa753ef8a	-2.9411987e-15
166	0xa8083216	-7.560377e-15
167	0xa61666bf	-5.218095e-16
168	0xa4951692	-6.4656685e-17
169	0xa6f76a3c	-1.7167863e-15
170	0xa68b343b	-9.65922e-16
171	0xbc8f5d0b	-0.017500421
172	0x3c5d94ef	0.013524278
173	0x3afdbec9	0.0019359227
174	0xbcbcc4cc	-0.023043059
175	0x3c810a18	0.015751883
176	0xbbab9fd2	-0.005237558
177	0x3c5d4305	0.013504748
178	0x3d41bff5	0.047302205
179	0x3cb54e39	0.022132026
180	0xbc8776c7	-0.01653613
181	0xbd25e7e7	-0.040504362
182	0xbaa4efb3	-0.0012583643
183	0x3aaa97fa	0.0013015263
184	0x3bcc9bde	0.0062441668
185	0xbad1c865	-0.0016005157
186	0x3b828968	0.0039836653
187	0x3d81f733	0.06345978
188	0x3c10e3f4	0.008843411
189	0xbb320097	-0.0027160996
190	0x3c7c29c8	0.015390821
191	0xbcef9210	-0.029244453
192	0x393e9a52	0.00018177301
193	0xbcbe2b14	-0.0232139
194	0xbc01589c	-0.007894661
195	0xbc1a042a	-0.009400407
196	0xbc5ead5d	-0.013591138
197	0x3c47e51d	0.012200621
198	0x3c8aba26	0.016934466
199	0xbcb01888	-0.021496072
200	0xbc0a4453	-0.008439141
201	0x3c01da32	0.007925557
202	0xbcf166e1	-0.029468002
203	0x3be96570	0.007122688
204	0xbc9ebc86	-0.019377004
205	0x3ca0e60d	0.019640947
206	0x3bea0514	0.0071417186
207	0xbd247a33	-0.0401556
208	0xbd920b9f	-0.07131123
209	0xbcbf7955	-0.023373285
210	0xbbc19510	-0.005907662
211	0xbcfff855	-0.031246344
212	0x3cd9144a	0.026498932
213	0xbb2c0fe9	-0.00262546
214	0xbd45965b	-0.048239093
215	0x3c7d37d6	0.015455207
216	0xba565928	-0.00081767375
217	0x3ce74eb4	0.02823577
218	0xbc8124b9	-0.015764581
219	0x3be258dd	0.006907566
220	0xbc00499e	-0.007830052
221	0xbc7a6fd7	-0.015285454
222	0xbc6cbfa0	-0.014449984
223	0xbc6727f8	-0.01410865
224	0xbbcaa320	-0.006183997
225	0x3acb684a	0.0015518751
226	0xbbe2c539	-0.0069204834
227	0x3c2d5531	0.010579393
228	0xbba307b1	-0.004975282
229	0xbd3d5913	-0.046227526
230	0xbca95c53	-0.020673906
231	0xbc1c749f	-0.009549289
232	0xbd7d0fe0	-0.061782718
233	0xbd137aa4	-0.03600563
234	0xbc362c2d	-0.011118931
235	0xbbdd3b13	-0.006751427
236	0xbb924047	-0.004463229
237	0xbbbdafc8	-0.005788777
238	0xbc043efb	-0.008071656
239	0xbadbbd8c	-0.0016764863
240	0xbd044fe7	-0.032302763
241	0xbcd2a501	-0.025713446
242	0xbc42140a	-0.011845598
243	0x3cf729de	0.030171331
244	0x3cb4dc06	0.022077572
245	0x3cd0019e	0.025391396
246	0x3c612e90	0.0137440115
247	0xbcc7591b	-0.024334481
248	0xb9b6560e	-0.0003477786
249	0xbcef6a62	-0.029225532
250	0xbd5a22a5	-0.053255696
251	0xbc9a6417	-0.018846555
252	0xb9f184a7	-0.00046065936
253	0x3ab9356d	0.0014130302
254	0x3c76b2ba	0.01505726
255	0x3c776cec	0.015101653

bias f4 [13]
0	0x3caaf609	0.020869272
1	0x3ce28544	0.027651437
2	0x3ce96e5e	0.02849501
3	0x3d29a344	0.041415468
4	0x3d123770	0.0356974
5	0x3cf07186	0.029351007
6	0x3c956a5e	0.018239196
7	0x3d2fb003	0.042892467
8	0x3d06114f	0.03273135
9	0x3cd66e6d	0.026175702
10	0x3cf14850	0.029453427
11	0x3d270912	0.040780134
12	0x3d1b08e5	0.03785028

weight f4 [13]
0	0x3d89de7c	0.06731889
1	0x3d32a8b9	0.043617938
2	0x3d434a15	0.047678072
3	0x3d8c989a	0.06865044
4	0x3d2b9a4a	0.04189519
5	0x3d244cd3	0.040112328
6	0x3d64c750	0.05585414
7	0x3d91564f	0.0709654
8	0x3d434978	0.047677487
9	0x3d8bdae2	0.06828858
10	0x3d54672a	0.051856197
11	0x3d841bd3	0.064506195
12	0x3d4b0d5a	0.04957328

bias f4 [13]
0	0x3e867c32	0.26266629
1	0x3d9e7630	0.07737386
2	0x3d0fd2cc	0.03511314
3	0xbd01e05c	-0.031708106
4	0x3d415305	0.047198314
5	0x3d8cf406	0.06882481
6	0x3dd35dbe	0.10320614
7	0xbd3010fe	-0.042984955
8	0x3cce15c1	0.025156857
9	0x3d3a77f9	0.04552457
10	0x3dbb5a68	0.09148103
11	0xbd169bbc	-0.036769614
12	0xbc2158c2	-0.009847822

running_mean f4 [13]
0	0xbca4a2c5	-0.020097146
1	0x3c905b51	0.017621668
2	0xbae1f71e	-0.0017239784
3	0x3db4a437	0.08820384
4	0x3d00ce7b	0.031446915
5	0x3d18d606	0.037313484
6	0x3cc6bfb9	0.024261342
7	0x3da14b90	0.078757405
8	0x3ba0f608	0.0049121417
9	0x3d24ce06	0.04023554
10	0x3a3a08a9	0.00070966274
11	0x3d578686	0.052618526
12	0x3d159d7e	0.03652715

running_var f4 [13]
0	0x3a5ae611	0.00083503226
1	0x3941f705	0.00018497936
2	0x395160b5	0.0001996782
3	0x394ebbb8	0.00019715622
4	0x38e52b74	0.00010927665
5	0x391708f9	0.00014403825
6	0x3a34b5cd	0.00068935455
7	0x396a1eb7	0.00022327421
8	0x392e23ac	0.00016607222
9	0x3a0b8996	0.0005322931
10	0x397fd98f	0.00024399742
11	0x3951f63f	0.00020023527
12	0x38fd76c9	0.000120861056

weight f4 [13, 13, 3, 3]
0	0x3b3e26be	0.0029014791
1	0x3c74420f	0.014908328
2	0xbbc46e0c	-0.005994564
3	0x3b8319a1	0.004000858
4	0x3be9b306	0.007131937
5	0xb9717b55	-0.00023029496
6	0xbc4d3386	-0.012524491
7	0x39d4f15e	0.00040615624
8	0x3a6a1ca7	0.0008930661
9	0xbb55f677	-0.0032648125
10	0xbd4cde0c	-0.050016448
11	0xbc865cab	-0.01640161
12	0x3cffd7cf	0.031230835
13	0xbcfa12df	-0.030526577
14	0x3b94e414	0.0045437906
15	0xbc977b6c	-0.01849147
16	0xbd1a29cc	-0.037637517
17	0x3bfe1e68	0.0077550896
18	0x3cd78809	0.026309984
19	0xbcc480c4	-0.023987181
20	0xbc8dd8fb	-0.017315378
21	0xbab6ed0c	-0.0013956144
22	0xbd252f00	-0.040328026
23	0xbbc16ee3	-0.0059031113
24	0xbd7570a7	-0.059921887
25	0xbd73173b	-0.059348326
26	0xbc8d3f9d	-0.017242247
27	0xbc05c8e7	-0.008165575
28	0xbd2efe3a	-0.042722918
29	0xbcd8461a	-0.026400615
30	0xbbce3266	-0.006292629
31	0xbc4f82fe	-0.012665508
32	0x3c8495d8	0.016184732
33	0xbcc5bf64	-0.024139114
34	0x3cf410e4	0.02979321
35	0x3ca257e7	0.019817306
36	0xbb77d89b	-0.0037818316
37	0x3b241f50	0.0025043078
38	0x3c4d81a0	0.012543112
39	0xb9b76ccd	-0.00034985543
40	0x3ca78e13	0.020453488
41	0x3bcc3da5	0.0062329345
42	0xbcf9e816	-0.030506175
43	0x3c3a30ac	0.011364143
44	0xbc86567e	-0.016398665
45	0xbaee8b23	-0.0018199425
46	0x3d3e7482	0.04649783
47	0x3d38c771	0.045112077
48	0xbbc5bf54	-0.006034771
49	0x3c93aaec	0.018025838
50	0xbc110999	-0.008852386
51	0x3cb424ba	0.021990169
52	0x3d437f87	0.04772904
53	0x3b9ab8f3	0.0047217547
54	0x3aec604a	0.0018034067
55	0x3c52aaff	0.012858151
56	0xbb7284d1	-0.0037005434
57	0x39c1c2cd	0.00036956967
58	0x3cece0fe	0.028915878
59	0x3c0e9b67	0.008704043
60	0x3c842a49	0.016133444
61	0x3cd9ed3a	0.026602376
62	0xbbfb040b	-0.007660394
63	0x3b0fd8c4	0.002194927
64	0x3c3b796a	0.011442522
65	0xbc2327ad	-0.00995819
66	0x3c485322	0.012226852
67	0x3c95d6f4	0.018290974
68	0x3c3b0f55	0.01141723
69	0xbcc7c11e	-0.024384078
70	0xbd06a068	-0.03286782
71	0xbcb85b8a	-0.022504587
72	0x3ca664ce	0.02031174
73	0x3c79e625	0.015252625
74	0xbd296ae1	-0.041361693
75	0xbc7dbeae	-0.015487356
76	0xbc59a971	-0.013285027
77	0xbca2b2e7	-0.019860698
78	0xbc95bc3f	-0.01827824
79	0x3bf8820b	0.0075838617
80	0x3d0bcd72	0.034131475
81	0xbb8bdf35	-0.0042685517
82	0x3af679f0	0.0018804651
83	0xbbb8dbe1	-0.005641446
84	0x3b315cac	0.0027063293
85	0x3be35771	0.006937914
86	0x3c13c339	0.009018713
87	0xbc28707d	-0.010280726
88	0x3c86d268	0.016457751
89	0x3c7fa5c0	0.015603483
90	0x3d2bb394	0.041919306
91	0x3cf59578	0.029978499
92	0xbbc6a715	-0.006062398
93	0xbc0937c5	-0.008375113
94	0x3bf95723	0.0076092645
95	0x3c47bac0	0.012190521
96	0xbd099e60	-0.033598304
97	0x3c7ddc87	0.015494472
98	0x3cc34dd3	0.02384082
99	0xbca78bc2	-0.020452384
100	0xbd3404f3	-0.043950032
101	0x3bae64b7	0.0053220647
102	0x3ceef8b9	0.029171335
103	0xbc7ffc85	-0.01562417
104	0x3c6087ed	0.013704282
105	0x3ce1f4db	0.027582576
106	0x3b6bbb34	0.0035969736
107	0xbc9175e6	-0.017756414
108	0xbc2e0500	-0.010621309
109	0xbc2fbc80	-0.010726094
110	0xbb80e918	-0.003934037
111	0xbcad697e	-0.021168467
112	0xbc8a03e2	-0.016847555
113	0xbab8a517	-0.0014087287
114	0xbc6de1c0	-0.014519155
115	0x3c82cfdb	0.015968254
116	0x3c993185	0.01870037
117	0xb90d58f3	-0.00013479944
118	0x3c89f4e9	0.016840415
119	0x3c59e0b7	0.013298205
120	0x3cab3eed	0.020904029
121	0x3d658999	0.056039426
122	0x3c5544ae	0.013016863
123	0x3d0c4d36	0.03425332
124	0x3ccfc619	0.025363015
125	0x3c0ad0cd	0.008472634
126	0xba180233	-0.00057986676
127	0x3d035d80	0.03207159
128	0xbc702f25	-0.014659678
129	0xbd16a6e7	-0.036780264
130	0x3ca34a9e	0.019933041
131	0xbc95abb8	-0.018270358
132	0xbc864eee	-0.016395058
133	0x3cd42dd3	0.025900757
134	0xbc693898	-0.014234684
135	0xba873646	-0.0010315857
136	0x3c481901	0.012212993
137	0xbced44d3	-0.028963482
138	0x3c363d33	0.0111229895
139	0x3d143457	0.036182728
140	0x3bcdc22f	0.006279252
141	0xbc3a919c	-0.011387255
142	0x3d01c64c	0.03168325
143	0xbb9a3ddf	-0.0047070826
144	0xbc528dcc	-0.01285119
145	0xbcd482d2	-0.025941286
146	0xbcc7132f	-0.02430114
147	0x3caa7c7c	0.020811312
148	0xbc0be9f4	-0.0085396655
149	0x3ae1552f	0.0017191524
150	0x3d01aae3	0.03165711
151	0xbcae58f6	-0.021282654
152	0x3beac1e1	0.0071642254
153	0xbce52e4b	-0.027976176
154	0xbd319028	-0.04335037
155	0xbd67aa66	-0.05655899
156	0xbd02faff	-0.03197765
157	0xbd3ae620	-0.04562962
158	0xbd272041	-0.040802244
159	0xbd88868c	-0.06666288
160	0xbca8c5ad	-0.020602072
161	0xbd09538a	-0.033526935
162	0xbc0e3da0	-0.008681685
163	0xbb9077f5	-0.0044088312
164	0x3c95f81b	0.018306782
165	0xbc74a434	-0.014931727
166	0xbc4ace0e	-0.012378229
167	0xbbc45c26	-0.0059924303
168	0xbabe6605	-0.0014526254
169	0xbcafdcca	-0.021467585
170	0xbc9941a6	-0.018708061
171	0x3818901e	3.6373844e-05
172	0xbab7dd22	-0.0014027695
173	0x3b8e7eb4	0.0043486003
174	0xbc322578	-0.010873191
175	0xbca7abda	-0.020467687
176	0xbbb15187	-0.00541133
177	0xba36410c	-0.0006952442
178	0xbb6139bb	-0.0034366685
179	0x3c75c5a7	0.015000737
180	0xbc8bfdec	-0.017088853
181	0x3c24ca08	0.010057934
182	0x3b4e113e	0.0031443383
183	0xbc191c18	-0.009345077
184	0xbc55d8a3	-0.0130521385
185	0xbc871f3f	-0.016494391
186	0xbb4e9855	-0.0031523902
187	0x3c52e88f	0.012872829
188	0xbb56ed70	-0.0032795332
189	0xbbb11a27	-0.005404729
190	0xba9fdcea	-0.0012196575
191	0xb9b3b704	-0.00034277898
192	0x3cc369b7	0.02385412
193	0x3cd726f0	0.026263684
194	0xbab863c8	-0.0014067823
195	0xbbe89952	-0.0070983553
196	0x3d082e34	0.033247188
197	0x3a1773fe	0.0005777477
198	0xbb476000	-0.003042221
199	0xbc5ac254	-0.0133519955
200	0xbc784378	-0.015152805
201	0x3c0fc2a2	0.008774431
202	0xbba56999	-0.0050479886
203	0xbcc53cc8	-0.024076834
204	0x3c019ac5	0.007910435
205	0x3bbb0362	0.0057071904
206	0xbcbc167a	-0.022959936
207	0xbcda248f	-0.02662876
208	0xbcc6d578	-0.024271712
209	0x3bf59a20	0.00749518
210	0x3d8b76e0	0.06809783
211	0x3c963790	0.018337041
212	0x3cd562b5	0.026048044
213	0xbc610303	-0.013733628
214	0xbd42f457	-0.047596302
215	0x3b2d61e6	0.0026456057
216	0xbb70e714	-0.0036758827
217	0x3c68d04d	0.014209819
218	0x3b2346fe	0.002491414
219	0xbd132a42	-0.035928972
220	0xbd1efb52	-0.038813896
221	0xbc5d5997	-0.013510129
222	0xbb933bcc	-0.0044932123
223	0x3bfb243b	0.007664231
224	0xbc39fc0d	-0.0113515975
225	0x3d31f42c	0.04344575
226	0x3b29e5b6	0.0025924272
227	0xbb43b705	-0.0029863727
228	0xbbbb2289	-0.005710904
229	0xbcec067e	-0.02881169
230	0xbc5166b6	-0.012780836
231	0xbcbdd5d7	-0.023173256
232	0xbcda06db	-0.026614597
233	0xbb16dd73	-0.0023020178
234	0xbb8366d9	-0.004010063
235	0xbaaf035c	-0.0013352442
236	0xbbedb61a	-0.007254374
237	0xbc1ef1cd	-0.0097012045
238	0x3c6e1ca6	0.0145331975
239	0xbc40a2d5	-0.011757572
240	0x3c2e2600	0.010629177
241	0x3cfe09c2	0.031010512
242	0x3cd1a6dc	0.02559226
243	0x3d76c857	0.060249653
244	0x3d830eda	0.06399317
245	0x3c80cca4	0.01572258
246	0x3c50e7d7	0.012750587
247	0x3cbbf2ab	0.022942862
248	0xbcb745d6	-0.022372168
249	0x3ba6c997	0.0050899494
250	0x3d25e26f	0.040499147
251	0x3c09e24e	0.008415772
252	0xbcc9d806	-0.02463914
253	0xbaf84333	-0.0018940925
254	0xbcd09d13	-0.025465524
255	0xbc465caf	-0.012107058

bias f4 [13]
0	0x3d1322c0	0.035921812
1	0x3d0de074	0.034637883
2	0x3d18d83f	0.037315603
3	0x3d21cf8f	0.039504584
4	0x3d1be070	0.038055837
5	0x3d39a667	0.04532471
6	0x3ce8093a	0.028324712
7	0x3ca9f135	0.0207449
8	0x3d1e5583	0.03865577
9	0x3d14ad12	0.036297865
10	0x3d30cf31	0.043166343
11	0x3d127401	0.03575516
12	0x3d32403b	0.043518286

weight f4 [13]
0	0x3d2fd6d6	0.042929493
1	0x3d3d8d60	0.046277404
2	0x3d31e8d7	0.043434944
3	0x3d41e72d	0.047339607
4	0x3d3b159b	0.0456749
5	0x3d7190cc	0.05897598
6	0x3db034f0	0.08603847
7	0x3d87bc04	0.06627658
8	0x3d47c965	0.04877605
9	0x3d6368bb	0.0555198
10	0x3d8023c1	0.062568195
11	0x3d1d765c	0.038442954
12	0x3db98d95	0.09060208

bias f4 [13]
0	0x3c951a81	0.018201115
1	0x3d08e106	0.033417724
2	0x3cf34812	0.029697452
3	0x3d1da8b1	0.038490955
4	0x3d1bcdb1	0.03803796
5	0x3c88def4	0.016707875
6	0x3d958f21	0.0730269
7	0x3e5f292b	0.21793048
8	0x3cb3e86c	0.021961413
9	0xbd74ec93	-0.059795927
10	0xbd1cdd79	-0.03829715
11	0x3d68ff16	0.056883894
12	0xbbb81bd8	-0.0056185536

running_mean f4 [13]
0	0x3d48c15a	0.04901252
1	0x3d661503	0.056172382
2	0x3d02b061	0.03190649
3	0x3bb01f9f	0.0053748633
4	0x3d1dc4b3	0.038517665
5	0x3d2e36d2	0.04253275
6	0x3b74f6db	0.0037378583
7	0x3bd24aad	0.0064175935
8	0x3c08df94	0.008354086
9	0x3d0212ce	0.031756215
10	0x3cd902c9	0.026490586
11	0x3d438c50	0.047741234
12	0x3d71e52b	0.059056442

running_var f4 [13]
0	0x38dd9adf	0.00010566948
1	0x390bf3f8	0.00013346958
2	0x38c2ba66	9.28536e-05
3	0x38de2037	0.000105917854
4	0x38d56379	0.0001017516
5	0x390598e8	0.0001274083
6	0x3a3948f6	0.0007068062
7	0x3a4baebe	0.0007769874
8	0x38f87843	0.00011847962
9	0x392189d0	0.00015405496
10	0x391804d3	0.00014497647
11	0x38b51b8e	8.635885e-05
12	0x399cfa0c	0.00029940938

weight f4 [13, 13, 3, 3]
0	0x3c457267	0.012051201
1	0x3c638cc0	0.013888538
2	0x3d322c83	0.04349948
3	0x3d1779d9	0.036981437
4	0x3c6077e2	0.013700457
5	0x3c22e059	0.009941184
6	0x3c9a6ee0	0.018851697
7	0x3c5c28f6	0.0134375
8	0x3c4087e6	0.011751151
9	0x3b711881	0.0036788287
10	0x3b42765a	0.0029672594
11	0x3d527e96	0.051390253
12	0x3d16a5ac	0.03677909
13	0x3c01c89a	0.007921362
14	0x3d0434ca	0.032276906
15	0x3caaa39a	0.020829964
16	0xbce78c69	-0.028265195
17	0xbc9d50d9	-0.01920359
18	0xbcfc2185	-0.030777702
19	0x3c864d04	0.016394146
20	0x3c259325	0.010105883
21	0xbcd0842c	-0.02545365
22	0xbccbb485	-0.024866352
23	0xbd0b4f5f	-0.03401124
24	0x3b229f9c	0.0024814373
25	0xbc30fbf8	-0.0108022615
26	0xbce40f52	-0.027839337
27	0x3d0d779b	0.034537893
28	0xbb85c390	-0.0040821508
29	0x3babe755	0.005246083
30	0x3ca280f7	0.019836886
31	0xbad78248	-0.0016442025
32	0x3c82e9c4	0.015980609
33	0x3d0cf11f	0.03440964
34	0x3b946442	0.004528553
35	0x3d35b575	0.044362504
36	0x3aa507c2	0.0012590813
37	0x393b745f	0.00017877061
38	0x3d1a17ec	0.03762047
39	0xbb9b78ae	-0.0047446107
40	0xbc8e0a3b	-0.017338863
41	0xb9d98c83	-0.00041494155
42	0xbcf77cd0	-0.030210882
43	0xbcddc16e	-0.027069774
44	0x3d1729c4	0.036905065
45	0xbd7c1eb2	-0.06155271
46	0x3b30212f	0.0026875248
47	0x3d3af41b	0.045642953
48	0xbcfeaed3	-0.031089222
49	0x3c6a6f56	0.014308771
50	0x3d175a14	0.03695114
51	0xbd2c4b42	-0.04206396
52	0x3b9c5d59	0.00477187
53	0x3cbf99d4	0.02338878
54	0xbca2503a	-0.019813646
55	0xbc31fe3d	-0.010863838
56	0x3c286dd7	0.010280094
57	0xbcc36cac	-0.02385553
58	0xbd3ac558	-0.045598358
59	0xbc158efb	-0.0091283275
60	0xbd206a55	-0.039163906
61	0xbc183044	-0.009288851
62	0x3bb4529c	0.005503012
63	0x3cb6e168	0.022324279
64	0x3c272b12	0.01020314
65	0xbcc93c98	-0.024565026
66	0x3d181658	0.037130684
67	0x3ce618ec	0.028088056
68	0x3b237b0c	0.0024945168
69	0x3d16b0a3	0.036789548
70	0xbb02c3ac	-0.0019953055
71	0xbcbdeed8	-0.023185179
72	0xbbde90f5	-0.0067921826
73	0xbbd9903d	-0.006639509
74	0x3cd5e5ef	0.026110617
75	0xbd348c5a	-0.044079162
76	0xbcf14dd4	-0.029456057
77	0xbc0c0d64	-0.008548114
78	0xbc89edd2	-0.016837034
79	0xbc7d07a9	-0.015443721
80	0x3c1c158c	0.009526622
81	0x3c6b913c	0.014377888
82	0x3c9a22e7	0.01881547
83	0xbb5dde27	-0.0033854337
84	0xbbcf99b9	-0.006335464
85	0xbcb6b2e6	-0.022302102
86	0xbc44394b	-0.01197655
87	0xbb8cfde9	-0.0043027294
88	0xbc1671b3	-0.009182381
89	0xbaa4585c	-0.001253854
90	0x3cd77e52	0.026305351
91	0x3ae6b892	0.0017602614
92	0x3ae3b4fa	0.0017372661
93	0xbbb81f6d	-0.0056189806
94	0xbc61ced4	-0.013782222
95	0xbc7cc0ff	-0.015426873
96	0x3ce84d33	0.028357124
97	0x3c698534	0.0142529495
98	0xbca3b249	-0.019982474
99	0x3d1629f7	0.036661115
100	0x3b57e7c6	0.0032944544
101	0xbc70a01b	-0.01468661
102	0x3d4f31e2	0.05058468
103	0xbb0ac1a5	-0.002117255
104	0x3cb39a19	0.021924065
105	0x3ced7844	0.028988011
106	0x3c8effed	0.01745602
107	0xbc1bef19	-0.009517455
108	0x3b1ea283	0.0024205751
109	0xbb1e3484	-0.0024140188
110	0xbcf9ebe2	-0.030507986
111	0x3cf5afdb	0.029991081
112	0x3c52bd9a	0.012862587
113	0xbca78cd2	-0.02045289
114	0x3c9eb210	0.019372016
115	0x3c305935	0.010763456
116	0xbc86fda8	-0.016478375
117	0xbb49e9fe	-0.0030809636
118	0xbcf1b4dc	-0.029505186
119	0xbcc6e33a	-0.024278272
120	0xbce3c13d	-0.027802104
121	0x3badb2ee	0.005300871
122	0x3b9427ed	0.004521361
123	0xbd040a1e	-0.03223621
124	0x3d2203c3	0.03955437
125	0x3b9e41b6	0.0048296107
126	0xbcab9ec5	-0.02094973
127	0xbc82d062	-0.015968505
128	0xbc8caa21	-0.017170968
129	0xbc68dfd1	-0.014213518
130	0x3b1cb233	0.0023909926
131	0xbca480ec	-0.020081006
132	0x3c893ce5	0.01675267
133	0xbc4f07ea	-0.012636164
134	0xbd0762e1	-0.033053283
135	0xbd4f7543	-0.05064894
136	0xbb9e184b	-0.0048246733
137	0x3c0e1ec8	0.008674331
138	0x3badddd5	0.0053059855
139	0x3c0787b7	0.008272103
140	0x3bc917f4	0.0061368886
141	0x3caa1a2d	0.020764435
142	0x3ce7537c	0.02823805
143	0x3c9a8b2f	0.018865196
144	0x3cee147a	0.029062498
145	0x3c210f4c	0.009830307
146	0xbbe76f0e	-0.0070627993
147	0xbcb6656b	-0.022265157
148	0xbca1ae09	-0.019736307
149	0xbcf166b5	-0.02946792
150	0xbd00a6b6	-0.031408988
151	0xbd20bd91	-0.039243285
152	0xbd164c5f	-0.036693927
153	0x3b35cbea	0.002773995
154	0x3c53d7b5	0.0129298465
155	0x3d2dfacd	0.04247551
156	0xb9da6e5a	-0.00041662419
157	0x3b59fc1d	0.0033261843
158	0x3cc4caf5	0.024022559
159	0xbc403933	-0.011732387
160	0x3cc643b5	0.024202207
161	0x3c01bf94	0.007919211
162	0xbca2ed4f	-0.019888548
163	0xbd2b62a1	-0.041842107
164	0xbd20a328	-0.039218098
165	0xbc6374ae	-0.013882799
166	0xbd22253e	-0.0395863
167	0xbc80d921	-0.015728535
168	0xbc2d70f5	-0.010586013
169	0xbcf8c0dc	-0.0303654
170	0xbc19d5fb	-0.009389396
171	0xbcf98984	-0.03046108
172	0x3c3ce156	0.011528334
173	0x3cdada56	0.026715439
174	0xbda1d01d	-0.079010226
175	0x3aacdfc6	0.0013189248
176	0x3c382a78	0.011240594
177	0xbc079a26	-0.008276498
178	0x3cc0ff4b	0.023559233
179	0x3c13ee1b	0.009028937
180	0x3cdffd42	0.027342442
181	0x3ca03ccd	0.019560242
182	0xbc898e00	-0.016791344
183	0x3d1bd5bc	0.03804563
184	0x3d6b7aa4	0.057490006
185	0x3cf35040	0.029701352
186	0x3c4d7567	0.012540198
187	0x3bdca324	0.006733315
188	0x3c56fdfb	0.013122077
189	0xbc9a04b6	-0.018801074
190	0x3c17e8f0	0.009271845
191	0xbce71a4a	-0.028210778
192	0xbac97dbf	-0.0015372558
193	0x3b1627c2	0.002291188
194	0x3c8dfe93	0.017333305
195	0x3c2582f1	0.01010202
196	0x3bbedf96	0.0058249934
197	0x3bcb2770	0.0061997697
198	0x3cd3b2e0	0.02584213
199	0xbca78001	-0.02044678
200	0xbceec22f	-0.029145328
201	0xbc791f2a	-0.015205184
202	0x3d095840	0.033531427
203	0x3ceb455f	0.028719602
204	0xbc4d966a	-0.012548069
205	0x3c80ae0e	0.015707996
206	0x3d0fe01e	0.035125844
207	0xbc2437b1	-0.0100230435
208	0x397663f7	0.00023497628
209	0xbc537a82	-0.012907626
210	0xbc21649b	-0.009850646
211	0x3ce81d2b	0.02833422
212	0xbc913006	-0.017723095
213	0xbd169033	-0.036758613
214	0xbbd80e39	-0.0065934923
215	0xbd059592	-0.032613344
216	0xbd5e40f5	-0.054261167
217	0xbcec510a	-0.028847236
218	0x3a165e59	0.0005736105
219	0xbd14feb4	-0.036375716
220	0xbc85b436	-0.016321283
221	0xbc5a223d	-0.013313827
222	0xbc4d3f4d	-0.012527299
223	0xbc0cc3a9	-0.008591571
224	0xbc44abc7	-0.012003846
225	0x3cde0ddb	0.027106216
226	0xb9bce04c	-0.00036025268
227	0xbc778fef	-0.01511
228	0x3d58f416	0.052967153
229	0x3bbee84c	0.005826032
230	0x3b6e73f1	0.0036385024
231	0x3c4a564c	0.012349676
232	0x3c25955f	0.010106414
233	0x3b44ecf8	0.003004847
234	0xbcfae1c8	-0.030625239
235	0x3cfabcc3	0.030607587
236	0xbd1c8f6f	-0.038222726
237	0xbc9785f6	-0.018496495
238	0x3911bb86	0.00013898136
239	0xbcc6acd0	-0.024252325
240	0xbd067fc6	-0.032836698
241	0x3c2977b3	0.01034348
242	0xbcf64fe5	-0.030067394
243	0xbbf420b2	-0.0074501866
244	0xbca6c832	-0.020359132
245	0xbb22b1bc	-0.0024825176
246	0xbcbf4c4a	-0.023351807
247	0xbca1231b	-0.01967006
248	0x3cbb78da	0.022884775
249	0xbd088f41	-0.033339743
250	0xbc8f6520	-0.017504275
251	0x3cc423ba	0.023942817
252	0xbd4dfe29	-0.050291214
253	0xbd7afe35	-0.061277587
254	0xbcc09209	-0.023507135
255	0xbc843694	-0.016139306

bias f4 [13]
0	0x3d22acb2	0.039715476
1	0x3d5daacc	0.054117963
2	0x3d174b36	0.03693696
3	0x3ca1784d	0.019710684
4	0x3d193134	0.03740044
5	0x3d187657	0.037222233
6	0x3d0ede76	0.034880124
7	0x3d1043f1	0.035221044
8	0x3ce41857	0.027843637
9	0x3d39f261	0.045397166
10	0x3d4b408e	0.04962211
11	0x3d1b91d3	0.037980866
12	0x3ce99f2e	0.028518286

weight f4 [13]
0	0x3d2854ee	0.04109662
1	0x3d8db09f	0.069184534
2	0x3d215d01	0.039395336
3	0x3d9043e8	0.07044202
4	0x3d274145	0.04083373
5	0x3d3a69d3	0.045511078
6	0x3d1d34dd	0.038380492
7	0x3cf17da6	0.02947886
8	0x3d858d90	0.065211415
9	0x3d5b0b2e	0.05347746
10	0x3d910801	0.07081605
11	0x3d2307ab	0.039802235
12	0x3d05b35b	0.03264175

bias f4 [13]
0	0x3cd972ad	0.02654394
1	0xbda4a382	-0.08038999
2	0x3cae36e9	0.021266418
3	0x3e06037b	0.13087265
4	0x3d15bece	0.03655892
5	0x3c91a614	0.017779388
6	0x3ca7b7e3	0.020473426
7	0x3c6ffac9	0.014647194
8	0x3d4d8edd	0.050185073
9	0xbd9f82fe	-0.07788657
10	0xbdacaace	-0.08431016
11	0x3d11797f	0.03551626
12	0x3d617255	0.055040676

running_mean f4 [13]
0	0x3d80714b	0.06271609
1	0x3d900320	0.07031846
2	0x3d5bd043	0.05366541
3	0x3dbfbb81	0.093619354
4	0x3cfbc3d8	0.030733034
5	0x3cd73088	0.026268259
6	0x3cc9e963	0.02464742
7	0x3d3dd4b4	0.046345428
8	0xbc462614	-0.0120940395
9	0x3d47f102	0.048813827
10	0x3d2faadb	0.04288755
11	0x3d51e735	0.051245887
12	0x3c2bd38c	0.010487448

running_var f4 [13]
0	0x389dbdb8	7.521681e-05
1	0x38e538e5	0.00010930168
2	0x38acc0c2	8.237503e-05
3	0x3a83f87c	0.0010068561
4	0x38a40078	7.820217e-05
5	0x38e29567	0.00010804348
6	0x38af10ba	8.347766e-05
7	0x3854909c	5.0679417e-05
8	0x39d067ff	0.00039750335
9	0x38ba0b72	8.871303e-05
10	0x39137b9c	0.0001406506
11	0x38a7d5d6	8.0030106e-05
12	0x38c6c207	9.477516e-05

weight f4 [13, 13, 3, 3]
0	0xbc2bac9e	-0.010478167
1	0xbc1df94e	-0.009641958
2	0x3d39fbd2	0.04540617
3	0xbd0a9008	-0.033828765
4	0xbc3784a2	-0.011201056
5	0xbc63fdd1	-0.013915495
6	0xbb649659	-0.0034879653
7	0xbcd7492d	-0.02628001
8	0xba2f1039	-0.00066781376
9	0x3caa5699	0.020793246
10	0x3c43c5d7	0.011949024
11	0xbca5e543	-0.020250922
12	0x3bde41ce	0.006782747
13	0x3c1c0c1b	0.009524371
14	0x3c48878e	0.01223935
15	0xba82c119	-0.000997576
16	0xbc418012	-0.0118103195
17	0x3d637afb	0.055537205
18	0xbd33f1fe	-0.043931954
19	0xbd737566	-0.05943813
20	0xbcbae9a6	-0.02281649
21	0xbc3938cb	-0.011305044
22	0xbd3fc525	-0.04681887
23	0xbd074ac1	-0.033030275
24	0x3d0127ab	0.03153197
25	0xbc204e02	-0.0097842235
26	0xbcc084a1	-0.023500742
27	0x3c6f3ebc	0.014602359
28	0x3c7e29de	0.015512912
29	0x3be74fbd	0.007059066
30	0x3ce2bcc7	0.027677907
31	0x3b7abd87	0.003825994
32	0xbc3e3c28	-0.011611022
33	0xba281170	-0.000641129
34	0xbca24081	-0.019806148
35	0xbc5a4264	-0.013321493
36	0x3cca1063	0.024666017
37	0x3c4f7044	0.012661044
38	0x3c86b6fb	0.016444674
39	0x3ba06e9d	0.0048959986
40	0x3d00fe41	0.031492475
41	0x3c523f20	0.012832433
42	0xbbef82ea	-0.0073093073
43	0x3d08f36d	0.033435274
44	0x3d15de38	0.036588877
45	0xbcfe48b9	-0.031040536
46	0xbc07dc91	-0.008292333
47	0x3ba68b43	0.0050825193
48	0xbdb1d13a	-0.08682485
49	0xbd3c9075	-0.046036202
50	0xbd57f326	-0.05272212
51	0x3a34cbf2	0.00068968453
52	0xbb4895c4	-0.0030606845
53	0xbc8bd056	-0.017067116
54	0x3b8bdbce	0.004268146
55	0x3ad9e6aa	0.0016624529
56	0xbd1ba9c4	-0.038003698
57	0xbc0cff77	-0.008605829
58	0x3c4dc19a	0.012558365
59	0xbca21609	-0.019785898
60	0x3ca5c3f0	0.020235032
61	0x3d55ceae	0.05219906
62	0x3d078a1e	0.033090703
63	0xbd5af97f	-0.053460594
64	0xbc964815	-0.018344918
65	0xbd6c4130	-0.057679355
66	0xbc8fe775	-0.017566422
67	0x3bcaeeb9	0.0061930087
68	0xbc722497	-0.0147792315
69	0xbd71605b	-0.058929782
70	0xbc876dbc	-0.016531818
71	0xbd15f276	-0.036608182
72	0xbc3c4069	-0.011489966
73	0xbbe1a2a0	-0.0068858415
74	0xbc169baf	-0.009192391
75	0xbc2d11ed	-0.010563356
76	0xbb2eb9e7	-0.00266611
77	0x3b342bdb	0.002749196
78	0xbb59d5d6	-0.0033239028
79	0x3c6be40d	0.014397633
80	0x3c03dc2f	0.008048101
81	0x3d87218e	0.06598197
82	0x3cdee404	0.027208336
83	0xbbb039a9	-0.0053779674
84	0xbcd29548	-0.025705948
85	0x3d0231f9	0.03178594
86	0x3d56efa9	0.05247465
87	0x3ca60f61	0.020271005
88	0x3ca74850	0.020420223
89	0x3d2ea6e9	0.042639647
90	0x3ccc6ce3	0.024954265
91	0xbca72b0a	-0.020406265
92	0xbcb2b3c3	-0.021814233
93	0xbd4efb81	-0.05053282
94	0xbcd6eca7	-0.026235892
95	0xbbbe0d2d	-0.0057999105
96	0xbc743102	-0.0149042625
97	0xbcf2c57a	-0.02963518
98	0xbd53c8b2	-0.05170507
99	0x3cc85d59	0.024458574
100	0xbc0c1ff8	-0.008552544
101	0x3cc21e36	0.023696046
102	0x3ceceb57	0.028920813
103	0x3cc1eadc	0.02367156
104	0x3d28ffa0	0.041259408
105	0x3cfa900b	0.030586263
106	0x3c366c69	0.011134245
107	0x3cae9294	0.021310128
108	0xbc2f8b94	-0.01071443
109	0xbc2a3021	-0.010387451
110	0x3c4a84d2	0.012360768
111	0xbcf597b4	-0.029979564
112	0xbb92c763	-0.004479335
113	0x3b850ed8	0.0040606074
114	0xbb0a9995	-0.002114867
115	0xbbfe35d9	-0.007757884
116	0xbcc38046	-0.023864876
117	0xbd4a7f74	-0.049437955
118	0xbc2ce79a	-0.010553265
119	0x3cd5d541	0.026102664
120	0xbc82b335	-0.015954593
121	0x3c785081	0.015155912
122	0x3c963050	0.018333584
123	0xbccd4486	-0.025057089
124	0x3a7e299b	0.0009695531
125	0xba11f0eb	-0.00055672106
126	0xbcbc505d	-0.022987539
127	0xbca29233	-0.019845104
128	0x3d49332a	0.04912106
129	0xbae9087c	-0.0017779018
130	0x3b5100ea	0.0031891414
131	0xbabdd531	-0.0014483092
132	0x3d59e72a	0.05319897
133	0x3d57928b	0.05262999
134	0xbc87ab20	-0.016561091
135	0xbce91720	-0.02845341
136	0x3acd3584	0.0015656208
137	0xbc344f10	-0.011005178
138	0xbc2b8d15	-0.010470648
139	0x3aeb7593	0.0017964117
140	0xbc827bdb	-0.0159282
141	0x3cc5c656	0.024142426
142	0x3d0c7ef3	0.034300756
143	0x3bf5468b	0.007485216
144	0xbc80c5d4	-0.015719332
145	0xbc5ced76	-0.0134843495
146	0xbbee104c	-0.0072651263
147	0xbb99b0ca	-0.0046902644
148	0x3c502bca	0.012705753
149	0x3c017890	0.0079022795
150	0xb8f01506	-0.00011448008
151	0x3c910cd0	0.017706305
152	0xbba33487	-0.004980627
153	0x3d6e486b	0.058174532
154	0x3d0a0e29	0.03370491
155	0x3d4a8362	0.049441703
156	0x3bdf28bf	0.0068102772
157	0xbcc89c3c	-0.02448856
158	0x3b9a4ce1	0.0047088717
159	0xbc9e1c8f	-0.019300727
160	0xbd304ef7	-0.043044057
161	0xbb90d6c2	-0.0044201324
162	0x3cbed504	0.023294933
163	0x3ad5c3c2	0.0016308951
164	0xbcf8f014	-0.030387916
165	0xbc272e94	-0.010203976
166	0xbca89559	-0.020579027
167	0x38f1f229	0.00011536881
168	0xbcd24c88	-0.025671259
169	0xbc78d5ad	-0.015187663
170	0x3cdc1ede	0.026870187
171	0xbbf1aa7d	-0.00737506
172	0xbd8fc791	-0.07020486
173	0xbce2d3ba	-0.02768885
174	0xbd03203b	-0.03201316
175	0xbda2f35b	-0.079565726
176	0x3bc133ff	0.005896091
177	0xbcd4686e	-0.025928702
178	0xbd53439a	-0.05157814
179	0xbc83d36f	-0.01609203
180	0xbaa4a5aa	-0.0012561579
181	0xbc8a6cc3	-0.016897565
182	0xbc09fe4c	-0.0084224455
183	0xbc0058f6	-0.00783371
184	0xbc8dc1d7	-0.017304344
185	0xb92423ff	-0.00015653668
186	0x3b8326d0	0.0040024295
187	0xbae1e27b	-0.0017233634
188	0xbc1a63bc	-0.009423193
189	0x3c0c0978	0.008547179
190	0xbc95ff29	-0.018310146
191	0xbb77de16	-0.0037821583
192	0xbc039107	-0.008030183
193	0xbbe29ed9	-0.006915909
194	0xbc4ef661	-0.0126319835
195	0xba183748	-0.00058065774
196	0x3ae15019	0.0017190009
197	0xbac8435a	-0.0015278861
198	0xbc71bbb3	-0.014754224
199	0xbc460890	-0.012087002
200	0x3cc42bec	0.023946725
201	0xbd0e489f	-0.034737226
202	0xbd7cb310	-0.061694205
203	0xbc29a8aa	-0.010355154
204	0x3c3e17c4	0.011602346
205	0x3b761931	0.0037551636
206	0xbc6a7698	-0.0143105015
207	0x3c38b733	0.011274147
208	0xbcd12d84	-0.025534399
209	0xbb1c9797	-0.0023894066
210	0xbc423ae6	-0.011854863
211	0xbc0ac636	-0.008470109
212	0xbc8dd57f	-0.017313717
213	0xbcb0e501	-0.021593573
214	0xbca01898	-0.019542977
215	0xbc20cc89	-0.00981439
216	0xbc1320df	-0.008980005
217	0xbae44c90	-0.0017417837
218	0xbc4f8245	-0.012665336
219	0xbc3c976b	-0.01151071
220	0x3c29808d	0.01034559
221	0xbae02460	-0.0017100684
222	0xbc064cc3	-0.008197012
223	0xbc40c627	-0.011765993
224	0xbc9b8d70	-0.018988341
225	0x3cb320ae	0.021866169
226	0x3d1c9e9f	0.03823721
227	0x3d42af62	0.04753054
228	0xbc5028b2	-0.012705015
229	0x3d3e5a4c	0.046472833
230	0x3cb200af	0.021728842
231	0x3cb9ff9d	0.022704894
232	0x3d8b8d0d	0.06814013
233	0x3caf4837	0.02139674
234	0xbb588c54	-0.0033042626
235	0x3bd7d31a	0.0065864446
236	0x3d3462e1	0.04403961
237	0xbb3e8b1b	-0.0029074613
238	0x3ba6e3e0	0.005093083
239	0x3d305692	0.04305131
240	0xba0388a1	-0.0005017613
241	0x3c0b1366	0.008488512
242	0x3ce4cc73	0.02792952
243	0x3c35e77c	0.011102553
244	0x3d287975	0.041131455
245	0x3d017b84	0.031611934
246	0xbc9a6f52	-0.01885191
247	0x3c30cd9c	0.010791209
248	0x3b8f0538	0.004364636
249	0xbc190c33	-0.009341287
250	0x3c078dcf	0.008273556
251	0x3cb16604	0.02165509
252	0xbbe5a53a	-0.007008222
253	0xbca3d8ab	-0.020000776
254	0xbbab08b9	-0.0052195457
255	0xbb569437	-0.0032742152

bias f4 [13]
0	0x3d6cc6dd	0.05780684
1	0x3d5ee197	0.054414358
2	0x3d36f51e	0.044667356
3	0x3d1746ee	0.03693288
4	0x3d85ea0d	0.06538782
5	0x3d448e57	0.04798731
6	0x3d3227e4	0.043495074
7	0x3d59e9fb	0.053201657
8	0x3d1e0a67	0.03858414
9	0x3d805a82	0.06267263
10	0xbf9067fb	-1.1281732
11	0x3d3d93ac	0.04628341
12	0x3d212479	0.039341424

weight f4 [13]
0	0x3d8454cf	0.064614885
1	0x3d768ed7	0.060194816
2	0x3d568d52	0.052380867
3	0x3dce4a78	0.100727975
4	0x3da3f91e	0.080065
5	0x3d44f4b6	0.048084937
6	0x3d759451	0.0599559
7	0x3d64a18e	0.055818133
8	0x3d8cf059	0.0688178
9	0x3d9e4ae6	0.077291295
10	0xbf58c169	-0.8467012
11	0x3d2f61f2	0.042818017
12	0x3d90e6a8	0.07075244

bias f4 [13]
0	0x3d8134f5	0.06308929
1	0x3d003e60	0.031309485
2	0xbde6f4a0	-0.11277127
3	0x3e2abd5b	0.16673796
4	0xbdba91b2	-0.091098204
5	0x3dc0aa44	0.094074756
6	0x3db344a8	0.087533295
7	0x3d8e29bc	0.06941554
8	0x3e430d10	0.19047952
9	0xbdec3657	-0.11533802
10	0xbe394a05	-0.18094642
11	0x3db22d96	0.08700101
12	0x3cdcd84f	0.026958613

running_mean f4 [13]
0	0x3d558f8c	0.05213885
1	0x3d5d585f	0.054039355
2	0x3d97597c	0.07390115
3	0x3d90e915	0.07075707
4	0x3d58144b	0.052753728
5	0x3cff25ca	0.031145949
6	0x3d60a055	0.054840405
7	0x3d711646	0.058859132
8	0x3d7056f2	0.058676668
9	0x3d742e17	0.059614267
10	0xbf90497e	-1.1272428
11	0x3d114643	0.035467397
12	0x3d7839ec	0.060602114

running_var f4 [13]
0	0x38bcd631	9.004435e-05
1	0x38be9743	9.088081e-05
2	0x38dc3832	0.00010500885
3	0x3a19737b	0.0005853695
4	0x38c6a567	9.472184e-05
5	0x38942fd9	7.066102e-05
6	0x3909db5e	0.00013147059
7	0x38a907b9	8.0599864e-05
8	0x3980f35e	0.00024595385
9	0x38c7108f	9.492144e-05
10	0x34e6013e	4.2841742e-07
11	0x386785c9	5.519929e-05
12	0x39801dd0	0.00024436275

weight f4 [13, 13, 3, 3]
0	0x3b8f157d	0.0043665753
1	0x3ba2cdd2	0.0049683833
2	0xbc35c065	-0.011093234
3	0x3c98eedb	0.018668583
4	0xbbfbb762	-0.007681773
5	0xbb722891	-0.003695045
6	0xbb203049	-0.0024442843
7	0xbd1373fa	-0.035999276
8	0x3b59b75a	0.0033220858
9	0x3bac990b	0.0052672676
10	0xbd59b4a7	-0.0531508
11	0x3c6dc7e8	0.014512993
12	0x3c338f74	0.010959495
13	0xbc8ec0ed	-0.017425979
14	0x3b337fde	0.0027389447
15	0x3ccbea4e	0.024891999
16	0x3d60cfec	0.05488579
17	0xbc3bc054	-0.011459429
18	0x3c1717a0	0.009221941
19	0xbb7d29ac	-0.0038629575
20	0xba8e392d	-0.001085078
21	0xbc052aca	-0.0081278775
22	0xbc96ce60	-0.018408954
23	0xbc24ca76	-0.010058036
24	0xbbebaffd	-0.0071926103
25	0xbb0f2518	-0.0021842178
26	0xbbc4139c	-0.005983783
27	0xbc67a3d1	-0.014138178
28	0x3c5dc6cd	0.013536167
29	0x3bbda21b	0.0057871467
30	0x3c2591f2	0.010105597
31	0x3c02ef9c	0.007991698
32	0xb9ef2122	-0.00045610318
33	0x3c2552eb	0.01009057
34	0x3b2631b0	0.0025359206
35	0xbc4ccaad	-0.012499494
36	0xbbd42dc1	-0.006475181
37	0xbcd0b357	-0.02547614
38	0xbca6329e	-0.020287808
39	0xb9f2c3ad	-0.00046303627
40	0x3c7fcb60	0.015612453
41	0xbc56d010	-0.013111129
42	0x3b822681	0.003971875
43	0x3c4f5710	0.012655035
44	0xbcd1381f	-0.025539456
45	0x3ca00727	0.01953466
46	0x3d43d1f7	0.04780766
47	0xbcefec25	-0.029287407
48	0x3c43156e	0.011906965
49	0x3d29f80c	0.04149632
50	0x3c2aa7fc	0.010416027
51	0xbd0d7417	-0.03453454
52	0xbc98e053	-0.018661654
53	0xbd05a3b7	-0.032626834
54	0xbcd229f8	-0.025654778
55	0xbcea33ee	-0.028589215
56	0xbce5eb4e	-0.028066304
57	0xbcb953ce	-0.022622969
58	0x3c2820a4	0.010261688
59	0x3bef89a2	0.0073101083
60	0xbb3a5b67	-0.0028435828
61	0x3cfa4f49	0.030555384
62	0xbb63e66c	-0.0034774793
63	0xbd2a8cc3	-0.041638147
64	0xbc9bcbfc	-0.019018166
65	0xbccf99ec	-0.02534195
66	0x3cb90721	0.022586407
67	0x3c16e95d	0.009210912
68	0xbc4c7cd8	-0.012480937
69	0x3d0f72b4	0.0350215
70	0x3ca5a9b2	0.020222519
71	0x3b21889d	0.0024648078
72	0x3bfc8c7d	0.007707177
73	0x3b6b0f2f	0.0035867204
74	0x3b8de8a5	0.004330712
75	0x3b4c9bb9	0.0031220748
76	0x3cc725cb	0.024310013
77	0x3cc672e2	0.024224702
78	0xbca3957c	-0.01996874
79	0xbbc2504d	-0.0059299828
80	0x3bd5f3bc	0.0065292995
81	0x3b4361c3	0.002981291
82	0x3bb8d92d	0.0056411237
83	0xbc782257	-0.015144906
84	0x3c9f2546	0.019426953
85	0xbcb0db2d	-0.021588886
86	0xbc01c49c	-0.0079204105
87	0xbb20a8ed	-0.002451475
88	0xbcc34ed5	-0.023841301
89	0xbc88f658	-0.016719028
90	0xbc64c7b4	-0.013963629
91	0x3adddee6	0.0016927391
92	0x3b4276a8	0.0029672775
93	0x3b99ad1b	0.0046898252
94	0xbc1fb853	-0.009748536
95	0x3cec4e1d	0.028845841
96	0xbc16a2ef	-0.00919412
97	0xbb62e5b1	-0.003462177
98	0x3c44c431	0.012009666
99	0xbcc39372	-0.023874018
100	0xbc3f2fe0	-0.011669129
101	0xbc6ae32a	-0.014336387
102	0xbb755c7a	-0.0037439154
103	0x3cb41f3b	0.021987548
104	0xbc453445	-0.012036388
105	0xbcc9eba7	-0.0246485
106	0x39907360	0.0002755178
107	0xbd46b9c0	-0.04851699
108	0x3c9bcd9e	0.019018944
109	0x3c9ccdd7	0.01914112
110	0x3b72054a	0.0036929422
111	0xbc4beebd	-0.012447056
112	0x3c1f8d96	0.009738347
113	0x3bea76e0	0.0071552843
114	0xbc65270f	-0.013986363
115	0x3aea4d82	0.0017875882
116	0x3c025bcf	0.007956459
117	0x3d1436f0	0.036185205
118	0x3d69d8cd	0.057091523
119	0x3c81ae59	0.015830206
120	0x3d6e2406	0.058139823
121	0x3c852ca7	0.016256643
122	0xbd5c147c	-0.053730473
123	0x3b983209	0.0046446365
124	0xbced28e5	-0.028950164
125	0xbd215565	-0.03938808
126	0x3b592699	0.0033134578
127	0xbd146335	-0.036227424
128	0xbcb15d7c	-0.021651022
129	0xba93724d	-0.0011249274
130	0xbb7b7797	-0.0038370842
131	0xbba29558	-0.004961651
132	0x3b57f014	0.0032949494
133	0x3cbf9687	0.023387207
134	0x3c8362a5	0.016038248
135	0x3c3a322f	0.011364504
136	0x3d0e6c43	0.034771215
137	0x3cd9cd17	0.026587052
138	0x3c71bb71	0.014754162
139	0x3dfe4fde	0.12417577
140	0x3d359118	0.044327825
141	0x3c8f507b	0.01749443
142	0x3d101b69	0.03518239
143	0x3cbbbfb1	0.022918554
144	0xbb3f4ad1	-0.002918888
145	0x3cafaffa	0.021446217
146	0x3ba20d52	0.0049454356
147	0x3d8ef248	0.06979805
148	0xbe438115	-0.1909221
149	0x3cb705d4	0.022341646
150	0xbc282ce1	-0.010264606
151	0x3d0b14f7	0.03395554
152	0x3be96c7b	0.0071235276
153	0xba9b393c	-0.0011842619
154	0xbd23d2b3	-0.03999586
155	0xbd5cf1bb	-0.05394147
156	0x3c8cfca4	0.017210312
157	0x3daa7bb2	0.08324374
158	0x3b7b7f36	0.0038375384
159	0xbc21c3ca	-0.00987334
160	0x3c4ecedd	0.012622562
161	0x3c415407	0.011799819
162	0xbc3b7311	-0.011441008
163	0x3bb650e0	0.0055638403
164	0x39fdb554	0.0004839102
165	0xbbe47bf8	-0.006972786
166	0x3d89e6f0	0.06733501
167	0x3c55db9a	0.013052845
168	0x3bc89e60	0.0061223954
169	0xbc4d3270	-0.012524232
170	0x3a56fbd5	0.0008200978
171	0xbbe45545	-0.0069681727
172	0xbcc5a7bf	-0.02412784
173	0x3afdd295	0.0019365126
174	0xbd933161	-0.07187153
175	0xbcd136ba	-0.025538791
176	0x3d2bf700	0.041983604
177	0xbc82945e	-0.015939888
178	0x3cf79a13	0.030224836
179	0x3caa60b3	0.020798063
180	0xbc1d63eb	-0.009606342
181	0xbd023306	-0.03178694
182	0xbd624134	-0.055237964
183	0x3d106481	0.035252098
184	0x3cbefbdd	0.023313457
185	0xbca5d315	-0.020242253
186	0x3cb8dedb	0.022567203
187	0x3d32bcf2	0.043637224
188	0x3bb5283b	0.0055284775
189	0xbd26cc32	-0.04072208
190	0x3d250d53	0.04029591
191	0xbcb1b9b4	-0.021694995
192	0x3d71f781	0.05907393
193	0xbe14f4db	-0.1454653
194	0x3c1392f3	0.009007203
195	0x3c713480	0.01472199
196	0x3b8873ee	0.0041642105
197	0x3b106774	0.002203432
198	0xbc5e7737	-0.013578228
199	0x3d39359b	0.045217138
200	0x3ca8231c	0.020524554
201	0x3d46bf3c	0.04852222
202	0x3c8b14bc	0.01697766
203	0xbcb0de6f	-0.02159044
204	0x3c087f45	0.008331125
205	0xbd4f9c4e	-0.050686173
206	0xbcf426b4	-0.029803611
207	0xbb5504eb	-0.0032504152
208	0xbaa071b7	-0.0012240921
209	0x3c1c5853	0.0095425425
210	0xbca1a2ce	-0.019730952
211	0xbd31b1eb	-0.043382566
212	0xbba4ea84	-0.0050328393
213	0x3ba776e7	0.00511061
214	0xbc54c679	-0.012986773
215	0xb9370683	-0.00017454666
216	0x3a4bedde	0.00077792804
217	0x3c424271	0.011856661
218	0x3c175707	0.0092370575
219	0xbc7c79fa	-0.015409941
220	0xbc94face	-0.018186
221	0x3b7f8e2c	0.0038994653
222	0xbbab7ad4	-0.005233148
223	0xbc106c54	-0.00881489
224	0x3bc0adf4	0.005880112
225	0xbc2e6737	-0.0106447255
226	0xbcd97a36	-0.026547533
227	0x3b78ee4c	0.0037983833
228	0xbd2da0d6	-0.042389713
229	0x3df8ec25	0.12154416
230	0xbcf3f08d	-0.02977779
231	0x3b1aa299	0.002359545
232	0xbc8b5fca	-0.01701345
233	0xbc7bb26a	-0.015362361
234	0xbd35b294	-0.04435976
235	0xbb40997b	-0.0029388356
236	0xbc8f7945	-0.01751388
237	0xbc6c9ccf	-0.014441683
238	0xbb9d2ece	-0.0047968393
239	0x3c4451c3	0.011982384
240	0x3c99a567	0.018755628
241	0xbcb8b48b	-0.022547027
242	0x3af8844d	0.0018960327
243	0x3ce0ccbe	0.027441379
244	0xbd7f39aa	-0.062310852
245	0xbb60b344	-0.0034286538
246	0xbb11fb42	-0.0022275005
247	0xbbc55a47	-0.006022725
248	0x3ba371cd	0.0049879313
249	0xbc7ea1c8	-0.015541501
250	0x3da30aa2	0.079610124
251	0xbb640325	-0.0034791913
252	0xbc3094c2	-0.010777654
253	0xbcaff2b3	-0.021478033
254	0xbaa74118	-0.0012760488
255	0xbc56e51b	-0.013116146

bias f4 [13]
0	0x3d04ddb2	0.032437988
1	0x3d6ea9aa	0.058267273
2	0x3d2d439f	0.042300817
3	0x3d1bcfc9	0.038039956
4	0x3d0badde	0.03410136
5	0x3d24ad47	0.040204313
6	0x3d0d1b5a	0.034449913
7	0x3d3b5527	0.045735504
8	0x3d2a9233	0.041643333
9	0x3d46fce7	0.04858103
10	0x3d50f995	0.05101927
11	0x3d131d87	0.03591683
12	0x3d8acbc8	0.067771494

weight f4 [13]
0	0x3d128828	0.03577438
1	0x3e88cd7d	0.26719275
2	0x3d740a1e	0.05957996
3	0x3d808bd9	0.06276674
4	0x3d64cf83	0.05586196
5	0x3d8a1793	0.06742778
6	0x3d8a3f8d	0.067504026
7	0x3d8bc993	0.068255566
8	0x3d90d13a	0.07071157
9	0x3dafddca	0.08587225
10	0x3dde18c6	0.10844569
11	0x3d5f6dc6	0.054548047
12	0x3e9a5375	0.30141798

bias f4 [13]
0	0xbcca4a7f	-0.024693726
1	0x3d2e62f8	0.042574853
2	0xbde1a25a	-0.11017294
3	0x3d04c65a	0.032415725
4	0x3da7e5ac	0.08198103
5	0x3c8339af	0.016018717
6	0x3dcdec3f	0.10054826
7	0x3cd1b2b6	0.025597911
8	0x3cfd081f	0.030887662
9	0x3d70c609	0.05878261
10	0x3d316245	0.043306608
11	0x3d30aa9b	0.043131452
12	0xbd390e40	-0.045179605

running_mean f4 [13]
0	0x3d01aa84	0.031656757
1	0x3d2076a6	0.039175652
2	0x3d0be522	0.034154065
3	0x3d94f352	0.07272972
4	0x3d808915	0.06276146
5	0x3d54965d	0.05190121
6	0x3dc3b7fe	0.09556578
7	0x3dc7da4c	0.09758434
8	0x3d7df096	0.06199702
9	0x3d911410	0.07083905
10	0x3de5b589	0.11216266
11	0x3d1448dd	0.0362023
12	0x3dbc0366	0.09180336

running_var f4 [13]
0	0x38b46725	8.602281e-05
1	0x3acf7a7a	0.0015829348
2	0x38f6d111	0.00011769136
3	0x3957f30a	0.00020594537
4	0x396e467e	0.00022723709
5	0x39696e1a	0.00022261628
6	0x39a060a8	0.00030589593
7	0x39493be1	0.0001919116
8	0x3967529d	0.00022060653
9	0x39830f48	0.00024997653
10	0x39bef80f	0.00036424442
11	0x3935d976	0.00017342516
12	0x3ac81f19	0.0015268057
