pre-trained-tp3/layer_inspector_tiny_Strangled2_DnCNN_1000.pt (torch, 683054 bytes, 59 tensors)

inspector0weight f4 [1, 13, 1, 1]
000000 18 64 c6 3d 6a a6 3f 3d 07 18 08 3d 37 0f c2 3e
       0.0968706 0.046789564 0.03322604 0.37902233
000010 ce 1e 01 be a3 42 c1 be eb 52 76 be 3c a2 f6 bd
       -0.12609407 -0.37746152 -0.24055068 -0.120426625
000020 d4 6b 55 bd 79 21 d3 be 3b 6e 82 be 71 5c ac 3f
       -0.052104786 -0.41236475 -0.25474724 1.3465711
000030 87 a3 96 be
       -0.29421636

inspector1weight f4 [1, 13, 1, 1]
000000 87 fa c9 3f 2e 86 a4 be b5 47 c0 bc 96 a5 7d 3e
       1.577958 -0.3213362 -0.023471693 0.24770197
000010 6a 9b da be 21 db 99 3e 32 82 42 3e ec 8c a2 3d
       -0.42696697 0.30049995 0.18994978 0.07937035
000020 d2 80 54 be a1 ed f8 3e 67 59 49 3e b1 ee 80 bd
       -0.20752266 0.48618796 0.1966301 -0.06295527
000030 01 50 e4 3d
       0.11148072

inspector2weight f4 [1, 13, 1, 1]
000000 2f 0a 0e 3f d7 ee 6a be d4 12 23 3f e4 97 0e bf
       0.5548429 -0.22942673 0.63700604 -0.55700517
000010 3a fd 93 3e 4d 2a 2b be b4 ba f7 be 65 e2 96 3f
       0.28904134 -0.16715355 -0.4838463 1.178784
000020 27 61 1a bd e5 4b 46 bf 6c 39 64 bf 2c d2 b7 3e
       -0.037690308 -0.77459556 -0.8915012 0.35902536
000030 ed 96 28 3f
       0.65855294

inspector4weight f4 [1, 13, 1, 1]
000000 51 71 cd bd 00 34 14 c0 47 49 a5 3c 8a e0 3e 3e
       -0.10031379 -2.3156738 0.020176543 0.18640342
000010 70 bb a4 bf 9f aa 67 3e c2 fc a1 bf 6c 4c f5 bd
       -1.2869701 0.2262368 -1.265526 -0.11977467
000020 d4 b7 49 3f 32 e7 0d 3e f4 05 1f bd 8c dc 6e 3e
       0.78796124 0.13857725 -0.038824037 0.2332632
000030 22 1a 14 40
       2.314095

inspector5weight f4 [1, 13, 1, 1]
000000 99 d2 d3 bd c2 f0 8d 3e 00 60 6d 40 10 97 75 3f
       -0.10342903 0.27722746 3.7089844 0.9593363
000010 69 22 53 bf a7 78 dd bf 66 a0 36 3e a3 d2 06 be
       -0.8247438 -1.7302445 0.17834625 -0.13166289
000020 06 dd b0 3d 1b b3 fc 3c 14 6b 05 be 2f f4 18 bf
       0.08635907 0.030847123 -0.13029128 -0.59747595
000030 48 ee c8 3e
       0.39244294

inspector6weight f4 [1, 13, 1, 1]
000000 88 c5 ba 3d f7 65 cc bf d3 60 72 3e 19 2a 05 be
       0.09119707 -1.5968617 0.23669748 -0.1300434
000010 ff b1 98 bc f0 77 4b c0 e9 e7 87 3e 93 00 27 be
       -0.018639563 -3.1791954 0.2654412 -0.16308813
000020 ef ff 10 3e b2 e2 e6 bd f8 a3 a4 bf 93 1f 96 3d
       0.14160131 -0.112737074 -1.2862539 0.07330241
000030 26 e3 82 be
       -0.25563926

inspector8weight f4 [1, 13, 1, 1]
000000 0f 6e bc 3f cb 99 bc 3f d0 e3 75 bf de 52 0e be
       1.4721087 1.4734434 -0.9605074 -0.13898799
000010 f8 37 79 be 36 fe 08 bd 4b 9d 5b be 3a 47 36 3e
       -0.24337757 -0.03344556 -0.21446721 0.17800608
000020 41 d2 c2 3e 07 cc 43 40 70 49 47 bf ce 4d 9f 3f
       0.38051036 3.0593278 -0.7784643 1.2445619
000030 7a fb 31 bd
       -0.043452717

inspector9weight f4 [1, 13, 1, 1]
000000 80 69 86 be 34 cf 0f c0 fc 05 21 3f 00 d0 6c be
       -0.26252365 -2.2470217 0.62899756 -0.2312622
000010 dc ab 31 3e 65 f4 3c bd 69 fb be be 30 ba b2 bd
       0.17350715 -0.04613151 -0.37301186 -0.08726919
000020 56 f3 1c bf ed e3 02 3f 4b 9a f9 be 9a dc 16 c0
       -0.613088 0.5112904 -0.4875053 -2.3572145
000030 0c 94 60 3f
       0.877259

weight f4 [13, 1, 3, 3]
000000 0d b9 98 bd 9f 8d 25 bd 85 44 9f 3c 4a 47 bc bc
       -0.07457171 -0.040418264 0.019441852 -0.022983212
000010 7b 1e 27 bd 43 12 54 3c 57 72 8a bd 36 3f e3 ba
       -0.040800553 0.012943807 -0.0676009 -0.0017337564
000020 e9 31 21 3d cf e6 10 3d 71 67 fb 3c f4 a4 22 3d
       0.03935424 0.035376366 0.030688973 0.039708093
000030 cb b1 79 3d d5 66 11 be d5 1f e1 bd 71 28 ac 3d
       0.060960572 -0.14199384 -0.109923996 0.08406151
000040 62 a8 ac bc 0e f1 69 3c 72 d9 1a bd 6a 02 51 bc
       -0.021076385 0.014278663 -0.03780503 -0.012756923
000050 cf 19 81 3d 49 f8 26 be cc 28 d2 bc 47 a0 32 3e
       0.06303751 -0.16305651 -0.02565422 0.17443953
000060 2b 4b d0 bd e5 3d 0b bc 64 c9 f4 3d 15 0b 15 bb
       -0.10170587 -0.0084986435 0.11952475 -0.00227422
000070 e2 d8 ee 3c e2 a3 50 bc ca 23 85 bd e3 7b eb bd
       0.029156152 -0.012734385 -0.06500967 -0.11498239
000080 7c 9d c7 bd de 62 4f 3d 2f d1 f5 3d 00 54 c8 3d
       -0.09746835 0.050631396 0.12002789 0.09781647
000090 ff 1e 05 00 1d 6f 04 00 33 81 04 80 66 24 01 80
       4.70297e-40 4.07202e-40 -4.1369e-40 -1.04893e-40
0000a0 1b 2f 02 00 09 c4 05 80 c1 51 05 80 6f e4 06 00
       2.00569e-40 -5.29502e-40 -4.88505e-40 6.3296e-40
0000b0 c6 d2 00 80 29 a7 81 b9 4a dc 80 3b 9c de da 3b
       -7.5611e-41 -0.0002472934 0.0039325105 0.006679369
0000c0 3e cf 82 bb 55 55 9c bb 0a aa dc 3b 8b e2 8a ba
       -0.0039919904 -0.0047709146 0.0067341374 -0.001059608
0000d0 13 e4 fe bb 99 09 df 39 6a 27 1e bc 96 4e 69 3b
       -0.0077786534 0.00042541025 -0.009652952 0.003559982
0000e0 c5 37 9c bc 1e 4a 9f 3b be 15 49 3d 9b 99 df 3c
       -0.019069562 0.0048611304 0.049093 0.027294924
0000f0 86 48 cf 3c d7 22 0c 3e cb 4b 8f 3a 91 aa fe bd
       0.025303137 0.13685165 0.0010932622 -0.12434877
000100 a1 49 52 bc 0f af 0b 3e 91 06 55 3c a2 86 bb bc
       -0.012834937 0.13640998 0.013002054 -0.022891346
000110 6c 29 05 bc 6d 96 15 3e 6d e4 71 38 9a 11 12 be
       -0.0081275515 0.14608164 5.7671616e-05 -0.14264527
000120 7f 55 93 3c 95 ba cd bd ce fe e6 3c 0b 64 ee ba
       0.017985104 -0.10045353 0.028197672 -0.0018187774
000130 d6 d1 e3 bd 4f a4 05 3e c2 20 fd bb 31 7e 0b bd
       -0.111240074 0.1305096 -0.0077248523 -0.034055892
000140 cd 50 d2 3d 15 dc 11 bd 07 59 1a 3d 66 ce 14 3d
       0.10269318 -0.035610277 0.03768256 0.03632965
000150 ec 40 b8 bd 96 3c 25 3d 6c 67 83 3d ac ad a6 bd
       -0.08996758 0.040340982 0.064162105 -0.08138594
000160 3b 51 93 bc 0f 89 4e 3d 1a 94 cb 3d df d5 0f 3e
       -0.01798307 0.050423678 0.099403575 0.14046429
000170 8c 5b 88 3d 91 1b 74 bd a1 86 0a bd c2 fb 87 bb
       0.06658086 -0.059596602 -0.0338198 -0.004149885
000180 6d 80 a3 bd 3d 82 b0 bd c2 f3 4d bd a6 01 0e bd
       -0.0798348 -0.08618591 -0.050281294 -0.03466954
000190 d3 17 85 bd b1 5e cc bb 2e 6a 27 bd 4a c3 9b 3e
       -0.06498685 -0.006236874 -0.040872745 0.3042243
0001a0 ef f5 36 bd 20 75 aa bc e9 ca 01 bd bd 36 d0 bc
       -0.044668134 -0.020807803 -0.03168765 -0.025416726
0001b0 17 b6 4e bd 30 fa fa bd 1d 6b 8c bd 0a c1 3f bd
       -0.050466623 -0.12254751 -0.06856368 -0.046814956
0001c0 03 e5 d2 bd c6 ee 25 bd 90 d1 c6 3d 7e 34 55 3e
       -0.10297587 -0.040510915 0.097079396 0.20820805
0001d0 25 5f 03 3e
       0.12829264

bias f4 [13]
000000 f3 30 3f 3c e0 24 21 3c ae 82 2e 3c 21 0f 90 3c
       0.011669385 0.009835452 0.010651274 0.017585339
000010 3a 47 05 00 c4 69 74 be c7 2d 98 3c c5 43 66 3c
       4.84729e-40 -0.23868471 0.018576516 0.014054243
000020 a6 26 87 3c fc 4f 9c 3c 53 4a 36 3c f5 36 4a 3c
       0.016497921 0.019081108 0.011126119 0.012342204
000030 05 e6 1a 3c
       0.009454255

weight f4 [13]
000000 79 ff 8d 3d c8 bd 45 3d 4e a2 ab 3d d9 ab d5 3d
       0.06933493 0.048276693 0.083805665 0.10433168
000010 a4 00 06 80 ad 06 3c be ec be fe 3d ab 88 9e 3d
       -5.51243e-40 -0.18361922 0.12438759 0.07740911
000020 1a 33 bd 3d a8 67 bb 3d 15 21 9a 3d e0 dc 9c 3d
       0.092382625 0.0915063 0.07525841 0.07659316
000030 89 8d ac 3d
       0.08425433

bias f4 [13]
000000 68 f7 f1 bb e3 4d 78 3e 38 e8 c6 3d 19 da bb bd
       -0.0073842295 0.24248461 0.09712261 -0.09172458
000010 06 a0 77 a8 09 cf 0d be df 66 24 be 19 1b f5 bc
       -1.3745954e-14 -0.13848509 -0.16054867 -0.029920148
000020 17 14 81 bd 7d 60 9c bd 49 f1 f4 3c b8 5d 91 3e
       -0.0630266 -0.07635591 0.02990021 0.28391814
000030 43 71 b8 3d
       0.09005978

running_mean f4 [13]
000000 48 3b 80 bd 35 cf 4a 3b 3a e1 55 3c 68 bc 8c 3c
       -0.06261307 0.003094626 0.0130541865 0.017179683
000010 d2 bf 4e 15 1c 86 74 be b2 82 e5 3d 9b 74 ea 3b
       4.1752688e-26 -0.23879284 0.11206569 0.0071550137
000020 8c 1f c4 3c e6 05 b0 3c 5e 57 ed 3b 33 7e 00 3d
       0.023940824 0.021487188 0.007243081 0.031370353
000030 71 05 03 3c
       0.007996903

running_var f4 [13]
000000 33 04 00 3b c6 aa 9e 3a a1 38 5d 3b d1 78 bd 3a
       0.0019533753 0.0012105338 0.0033755677 0.0014455562
000010 f5 41 8c 09 92 93 e5 36 e0 9f 37 3b a0 59 ae 3a
       3.37658e-33 6.8419113e-06 0.0028018877 0.0013301857
000020 7d 87 ba 3a 4e 33 8a 3a 69 b6 0e 3b 38 20 01 3b
       0.0014231052 0.0010543854 0.0021776205 0.0019703042
000030 4e 16 81 3b
       0.0039394265

weight f4 [13, 13, 3, 3]
000000 3a a6 03 bb 7f 98 0d 3b 5f c2 8a bb 47 bb 1a 3b
       -0.0020088092 0.0021605787 -0.0042345966 0.002361016
000010 f2 9d 8b 3b 42 95 aa 3b a4 9d 12 b9 76 cc fb ba
       0.004260772 0.005205781 -0.00013982371 -0.0019210714
000020 db 9e 57 bb d3 45 d3 3c 3c 9a 77 3d 50 e9 32 3d
       -0.0032901082 0.02579013 0.060449824 0.043679535
000030 ec b3 07 bd 15 3e 47 bd 67 51 16 3e de da ec bb
       -0.03313057 -0.04864319 0.1467949 -0.0072282394
000040 c6 3f ac bc f1 25 90 3d c4 38 91 3b ef 6e 95 bc
       -0.021026503 0.07038487 0.004431816 -0.018241374
000050 f4 af 47 bc b9 52 f2 3c 20 0a 43 bd 19 ad 71 bd
       -0.012187947 0.02958046 -0.047617078 -0.05900297
000060 a2 60 f7 3a 78 dc 1f bd 25 6b 0e bd 56 be 1c bc
       0.0018873403 -0.039028615 -0.03477015 -0.009566864
000070 33 4c 94 bc c2 c1 33 bc 54 b5 ad 3b f1 3c b6 3b
       -0.01810274 -0.010971488 0.005301157 0.005561464
000080 21 74 d4 3b a0 68 fc 3b 1d 21 9a 3b 77 87 29 3c
       0.00648357 0.007702902 0.0047036544 0.010347239
000090 cd 21 00 00 e2 33 01 00 56 14 06 00 64 33 01 00
       1.2125e-41 1.10448e-40 5.58308e-40 1.10271e-40
0000a0 b3 8b 06 00 50 95 01 80 ae 99 05 80 3b c5 06 00
       6.01128e-40 -1.45399e-40 -5.14307e-40 6.21766e-40
0000b0 da a9 05 80 1c 46 34 bc 46 37 e3 bc 62 98 40 bb
       -5.20109e-40 -0.0110030435 -0.027736317 -0.0029387702
0000c0 30 3f 93 bb bb 47 25 bd b1 6a d1 bb a0 c8 19 3c
       -0.0044936165 -0.04035161 -0.0063908924 0.009386212
0000d0 d2 0f 88 bb 1b 7c 29 bb 7b 2c eb ba 25 ff d4 3b
       -0.0041522766 -0.0025861326 -0.0017942333 0.006500142
0000e0 07 15 45 bb 0a 44 bd b8 6f 72 aa 39 b3 51 00 bb
       -0.0030072348 -9.0248956e-05 0.00032510186 -0.0019579947
0000f0 74 e1 32 3b db 97 26 bb 6a 4b b0 ba 0f b4 54 3b
       0.0027295025 -0.0025420103 -0.001345021 0.0032455956
000100 57 7f 90 3b 5a a2 68 3b 4c 70 9e 3b de 63 0f 3c
       0.0044097113 0.003549716 0.004835164 0.008751838
000110 37 50 a6 3b b6 61 7d 3b 5e 62 e1 3b 8c f2 d5 3b
       0.0050754803 0.0038662977 0.0068781814 0.006529158
000120 c5 b8 a8 ba e9 f0 af 3a 3e 31 6d 3b 1a 94 80 3b
       -0.0012872448 0.0013423237 0.003619268 0.003923905
000130 43 fc 96 3c f4 80 f2 3b 4e fc c6 3b 8e 29 46 3c
       0.018430835 0.0074006263 0.0060725575 0.012094868
000140 e1 ad c9 3b 0a 84 77 bc 13 42 b5 3b 66 cb a1 3c
       0.006154761 -0.015107164 0.0055315583 0.019750308
000150 9b 8b 20 bc 5e fa f7 3b 54 d2 db 3c 44 8f 57 bc
       -0.00979891 0.007567688 0.02683369 -0.013156716
000160 59 49 c5 3b 70 18 b3 3c f4 26 9a bc 63 f7 ae bc
       0.0060207066 0.021862239 -0.018817402 -0.021358198
000170 b0 a4 4f bc 03 0c d7 bc ab a9 d4 bc 27 ff a6 bc
       -0.012673542 -0.026250845 -0.02595981 -0.020385338
000180 c2 65 5c 3b f0 1b ed 3b 9d 86 09 3c d1 d8 28 bc
       0.0033629988 0.0072359964 0.008393911 -0.010305599
000190 8b a4 00 be 2a df 41 3b 9a 13 f7 3c 07 24 b1 3e
       -0.12562768 0.002958248 0.030160714 0.345978
0001a0 a8 99 c5 bd 3e 02 f2 3b f4 41 38 bc 7f 71 2f bd
       -0.09648448 0.007385521 -0.011246193 -0.042832848
0001b0 a5 df 84 3d 96 5a d5 3d 14 2a 20 3d e4 0b 3f bc
       0.06487969 0.104176685 0.03910263 -0.01166055
0001c0 1c 88 c8 b9 a6 12 14 bc b4 42 f0 bc d5 9b 51 bd
       -0.00038248382 -0.009037649 -0.029328682 -0.051174004
0001d0 2a 72 dd bc 9c 37 f2 3c c1 60 37 bc 57 4e 54 3d
       -0.027031977 0.029567532 -0.0111925015 0.051832523
0001e0 5a 6b 94 bb 6e c1 85 bd fb 4b 3d bd 17 73 ce 3c
       -0.004529399 -0.065310344 -0.04621504 0.025201363
0001f0 fa 33 f2 bc 42 b8 de 3b fc 16 2c bd 03 58 f4 3b
       -0.0295658 0.0067968676 -0.042014107 0.007456781
000200 5d 11 54 3d 69 e7 b4 bc b7 fe 14 3d 83 c6 b6 3d
       0.05177437 -0.022083001 0.036375728 0.08924582
000210 fe 66 03 bc 3a 76 d9 3c e2 4c 53 3c 05 8c 16 bd
       -0.008020161 0.026545633 0.012896748 -0.036754627
000220 c9 06 88 3b 3d 63 05 3c b4 0c 99 bd f4 0f 9b bd
       0.0041511995 0.008141336 -0.07473126 -0.07571402
000230 2d fb 64 bd 88 ee a0 3b e1 16 ab 3c b3 7c 9f 3b
       -0.055903602 0.0049112476 0.020884933 0.00486716
000240 54 e5 6a 3c 4f c0 d3 bb ed ce bf 38 e9 1c 78 3c
       0.014336903 -0.006462134 9.146133e-05 0.0151436115
000250 61 68 41 3c 87 2e 23 39 a9 e8 68 3a 98 61 95 3b
       0.011804671 0.00015562224 0.0008884767 0.004558753
000260 7d 7b f2 3c e3 93 03 00 dc 29 06 80 38 ed 00 80
       0.0295999 3.28558e-40 -5.66029e-40 -8.5098e-41
000270 dd 64 00 80 ab 7e 05 00 b2 fd 02 80 b9 87 06 80
       -3.6183e-41 5.04617e-40 -2.7468e-40 -5.99701e-40
000280 da da 06 00 69 9e 02 00 e1 62 7d 3c 55 38 9e 3b
       6.29522e-40 2.40498e-40 0.015465469 0.0048284926
000290 04 d6 c8 b9 2f b4 ab 3b c9 c7 a6 3b 5d be 98 bc
       -0.00038306427 0.0052399854 0.005089734 -0.01864546
0002a0 38 58 09 bd fc c3 39 bb ef 70 1b 3c a0 c0 f0 3a
       -0.033531398 -0.0028345576 0.009487375 0.0018367954
0002b0 6c f8 ab 3a aa 32 b8 ba b4 50 93 b9 4d de a7 bc
       0.00131203 -0.0014053185 -0.00028098153 -0.020491743
0002c0 4f 2a 37 bd 96 70 6e 3c 89 31 01 3b 36 1f 94 3c
       -0.044718083 0.01455321 0.0019713363 0.018081289
0002d0 2c 80 c6 bb 20 04 3d 3c d1 d1 8a 3c 5c 2a d9 3c
       -0.0060577597 0.011536628 0.016945751 0.026509456
0002e0 80 ef ee ba 58 5c 81 bc 41 aa 64 3c 07 d3 0a 3c
       -0.0018229336 -0.015791103 0.013956607 0.008473164
0002f0 0b 28 a2 3c 7e f2 62 3d f1 f3 8e 3d 21 46 63 3d
       0.019794485 0.05540704 0.06980122 0.055486802
000300 4d 11 ec 3b 3c eb a3 bc 63 d8 8d bb b6 04 ba 3d
       0.007204211 -0.02000963 -0.004328774 0.0908293
000310 ff 0a 97 3d 18 96 06 3d a4 a7 03 bb fd 6b 10 3c
       0.07375144 0.032857984 -0.0020088935 0.008814809
000320 83 71 85 3c 9f 21 6d 3c c2 c3 3e 3c d0 73 13 3c
       0.016289478 0.014473348 0.011643352 0.00899978
000330 fd dd a6 3c a0 7a 1d 3d 2a 23 67 3d 14 e9 d0 3b
       0.020369524 0.038447022 0.05643002 0.0063754413
000340 c7 63 e6 3c 36 3a 09 bd 64 12 3a bd c4 fe 9c 3c
       0.02812375 -0.03350278 -0.045427695 0.01916445
000350 cb 70 22 bc c3 b7 15 bd 5d 79 e2 3c 1c 5b fc bb
       -0.009914587 -0.036552202 0.027645761 -0.007701291
000360 b8 31 b9 3a 0c 6d ab bb b6 88 dc 3b 60 f4 6e 3d
       0.0014129197 -0.0052315053 0.0067301644 0.058338523
000370 53 9c 08 3d 71 18 04 bd 3e 3f 01 3d aa 2f 99 bc
       0.033352207 -0.03224987 0.031554453 -0.018699486
000380 d6 19 3c bd a6 4a 37 bd 2d e1 56 bd ad 7c 4d 3d
       -0.045923077 -0.044748925 -0.052460838 0.05016773
000390 1c ce eb bc 36 74 0d 3d e9 ce 9d bc 54 5e 08 3d
       -0.028784804 0.034534656 -0.019263702 0.033293083
0003a0 78 c4 7e bc 0e f4 98 bd 13 17 3a bd 28 75 01 3c
       -0.0155497715 -0.07468425 -0.04543216 0.007901467
0003b0 24 9b 49 3d 29 5d 87 bc 1e d2 9c bb 09 dc 9c 3c
       0.04922022 -0.016523914 -0.00478579 0.01914789
0003c0 65 71 c5 bc ab 6d 59 3c de 2a 14 3d ea d9 3d 3c
       -0.024101922 0.013270776 0.036173694 0.011587599
0003d0 aa 4c dd 3b 63 ab 9a 3b 5b 4f 52 bb 35 55 c7 3b
       0.006753524 0.004720138 -0.0032090757 0.0060831555
0003e0 d8 81 d4 3a 59 f4 c0 b9 9c 14 0e 3a 6e 73 b8 3b
       0.0016213013 -0.00036803147 0.0005419941 0.0056289947
0003f0 48 50 8a ba 0e 96 72 bc 1a 9d b0 bb 79 2a 7d 3c
       -0.001055249 -0.014806284 -0.0053898217 0.015452021

bias f4 [13]
000000 e9 43 20 3c c4 b9 71 3d 9e 55 22 3d 62 b4 02 3d
       0.009781816 0.05901505 0.039632432 0.031910308
000010 a7 42 22 3d 1c d0 06 3d 9c ff e2 bd 89 ad 2e 3d
       0.039614346 0.032913312 -0.1108391 0.042645965
000020 62 ac fa 3c 0f e3 d6 3c f8 e1 2e 3d 0c e9 06 80
       0.030599777 0.026231317 0.04269597 -6.34614e-40
000030 73 70 44 3d
       0.047958802

weight f4 [13]
000000 ec ae 82 3d b1 cd cb 3d 89 fe 67 3d ff b8 90 3d
       0.0638102 0.09951342 0.056639228 0.07066535
000010 71 c2 85 3d 0e 79 4c 3d 84 ae b8 bd 3b 83 bb 3d
       0.065312274 0.049920134 -0.09017661 0.091558896
000020 c5 dc 61 3d 3c c1 66 3d e1 4c b8 3d 5e c0 9c 2c
       0.055142183 0.056336626 0.089990385 4.4551437e-12
000030 f3 7b b1 3d
       0.086662196

bias f4 [13]
000000 58 14 95 3e 47 7f be bd 2f 31 1b be 0c 80 9a bb
       0.29117084 -0.0930162 -0.15155481 -0.0047149714
000010 9f 85 08 bd 30 90 bd 3b d1 f4 3d bd ec e9 f9 bd
       -0.033330556 0.0057850108 -0.046376053 -0.1220282
000020 62 d8 00 3d 16 e4 55 3d e4 d2 a9 bd 3d 13 3a 9c
       0.03145636 0.052219473 -0.08292177 -6.15671e-22
000030 52 a3 41 bd
       -0.047274895

running_mean f4 [13]
000000 c0 92 ac 3d 9a d2 9b 3d 29 f9 9a 3d 72 fa 91 3d
       0.08426428 0.076085284 0.07567055 0.07127847
000010 e0 c9 5a 3d 34 69 ad 3c cb 35 ee bd c9 cb 98 3c
       0.05341518 0.021168329 -0.11631354 0.01865186
000020 b0 a3 07 3d 14 0f db 3c a1 35 65 3d d0 2c b6 1c
       0.03311509 0.026740588 0.055959348 1.2055333e-21
000030 a9 1a 37 3d
       0.04470316

running_var f4 [13]
000000 d7 db 11 3b bb 77 e9 38 6d 88 f3 38 83 15 63 39
       0.002225628 0.00011132607 0.00011612554 0.0002165642
000010 2b 8a e3 38 37 81 da 38 52 70 d4 36 99 0a 95 39
       0.00010849939 0.00010419118 6.331168e-06 0.0002842739
000020 d4 57 0d 39 1f dc 5b 39 85 2c 2d 39 ec 25 36 11
       0.00013479526 0.00020967469 0.0001651515 1.4368954e-28
000030 bf 8e 0a 39
       0.00013213883

weight f4 [13, 13, 3, 3]
000000 42 9c 13 3d ed 47 32 3d de f9 b5 3c dd 85 7b 3d
       0.03603769 0.043525625 0.022213873 0.06140696
000010 4f 25 57 3d fa ee 4a 3c 7f e8 2a 3d c8 a3 05 3d
       0.052525815 0.012386078 0.04172563 0.032626897
000020 09 26 4f 3b a5 ad 02 bd 39 ff 27 bd a1 c7 af bc
       0.0031608364 -0.03190388 -0.041014884 -0.021457495
000030 d5 7f 8d ba fd 9a d7 3c 13 f6 3f bc e4 9c 83 bd
       -0.0010795543 0.026319021 -0.0117163835 -0.06426409
000040 dd e3 0d bc 27 46 03 3a a4 b9 20 bc 98 94 4b 3c
       -0.008660284 0.0005007707 -0.009809885 0.012425564
000050 6f 14 99 bc 8f 02 9f bc 47 de b8 3b 2d 17 93 3c
       -0.018686501 -0.0194104 0.005641732 0.017955387
000060 58 05 9c bc 91 cd f6 3b 31 36 0d 3c 9e 08 8b bd
       -0.019045517 0.0075318296 0.008618877 -0.06788753
000070 f9 fc 40 bd a2 91 63 bd d2 e9 40 bc db d8 6c 3c
       -0.047116254 -0.05555881 -0.011774497 0.014455999
000080 71 d5 80 bc fd 37 64 bd 0d 5d 50 bc 1d 84 18 bd
       -0.015726777 -0.055717457 -0.012717498 -0.037235368
000090 58 2b cb bb d2 ee 16 3c c5 74 df ba 9d ff a5 3b
       -0.0062002353 0.009212213 -0.001704835 0.005065872
0000a0 99 c6 97 3c be a6 ac bc 7b 06 d1 bc 77 e3 26 3b
       0.018527316 -0.021075603 -0.025515785 0.002546517
0000b0 49 21 01 bc 99 a1 f4 bb b9 64 ea bc 3a c3 35 bd
       -0.007881471 -0.007465553 -0.028612481 -0.044375636
0000c0 7f f1 6b bd e0 f7 84 bc 3f 76 35 3c 11 49 98 3c
       -0.057603355 -0.016231477 0.011075555 0.018589528
0000d0 4e 72 6b bc 14 a3 64 bc 6b 08 a5 3c bd 0e 78 3c
       -0.014370514 -0.0139548965 0.020145616 0.015140233
0000e0 66 44 d4 3b 31 88 c5 3c fe 7c 2b bb 72 a5 ff 3b
       0.0064778803 0.024112793 -0.002616703 0.007801705
0000f0 af f9 22 3b e6 fb 74 3a 0c e4 c7 3c 75 8f c1 3b
       0.0024868061 0.0009345397 0.024400733 0.005906994
000100 65 6c 87 3c 2a 03 2f 3d c4 83 de 3c d5 67 e3 3c
       0.016531179 0.042727627 0.02716244 0.027759472
000110 af 82 16 bd aa da 75 ba c8 03 d9 3c 0a a0 64 bc
       -0.036745723 -0.0009378592 0.02649106 -0.013954172
000120 4c 05 60 bb 4b 3d 65 bd 82 c0 2b bd 52 50 5e 3c
       -0.0034182845 -0.055966657 -0.041931637 0.013568955
000130 1b 1b 32 3d 49 ca d4 3c 81 3c 37 bc 12 57 3a bd
       0.04348288 0.025975363 -0.011183859 -0.045493193
000140 af 37 27 bd 7a 9d 24 3d f7 cd b5 3c df 6a e9 3c
       -0.04082459 0.040189244 0.022192938 0.028493343
000150 42 45 63 bc f6 99 35 bd b4 99 41 bc 34 27 20 bd
       -0.013871493 -0.04433628 -0.011816431 -0.039099887
000160 5a 95 f2 bc 83 f7 1f 3d ae e6 ee bc 2f 41 0e bc
       -0.029612232 0.039054405 -0.029162731 -0.008682533
000170 0d 14 c9 bc 54 8c 78 3c 70 6b 60 3b 0f d6 d8 bb
       -0.024545694 0.015170176 0.0034243725 -0.0066173146
000180 b9 79 60 bd 36 82 fd bc bf 70 ef bc 7e 14 03 00
       -0.054803584 -0.030945878 -0.029228566 2.82858e-40
000190 40 53 04 80 a8 54 01 00 58 ae 01 00 83 4c 00 80
       -3.97206e-40 1.22204e-40 1.54378e-40 -2.7447e-41
0001a0 d0 f1 00 00 8b 14 01 80 af 6e 02 00 00 9a 05 80
       8.6746e-41 -9.9205e-41 2.23377e-40 -5.14422e-40
0001b0 85 67 f2 bc d5 10 88 3c 03 d4 12 3d 29 d7 ce bc
       -0.029590378 0.016609589 0.03584672 -0.02524908
0001c0 ed f4 13 bb 78 8b a3 3c 07 cf ac 3c a1 f8 cc ba
       -0.0022576407 0.019963965 0.021094812 -0.0015638062
0001d0 65 19 2d bc 43 bc 06 00 1f 0f 05 00 69 b9 00 00
       -0.010565137 6.18549e-40 4.64602e-40 6.6513e-41
0001e0 b0 f5 05 80 fb f5 05 80 b3 b7 05 80 cd 63 02 80
       -5.47314e-40 -5.47419e-40 -5.25076e-40 -2.19473e-40
0001f0 4d 24 01 80 3a e4 02 00 09 4b 02 00 63 1a 03 80
       -1.04858e-40 2.65543e-40 2.10589e-40 -2.84972e-40
000200 68 5a 06 00 3c d1 04 80 85 73 00 00 f8 31 01 80
       5.83445e-40 -4.42401e-40 4.144e-41 -1.09761e-40
000210 98 f9 04 80 e6 0f 04 00 bc a1 00 80 1f 70 01 80
       -4.5688e-40 3.73045e-40 -5.802e-41 -1.32057e-40
000220 aa 38 02 80 16 0b 00 00 2b b9 02 00 d0 09 03 00
       -2.03998e-40 3.977e-42 2.50097e-40 2.79027e-40
000230 a4 11 06 80 62 d2 05 80 8d ab 02 80 f4 18 04 80
       -5.57341e-40 -5.34649e-40 -2.45212e-40 -3.76293e-40
000240 a5 9f 01 00 ff b4 06 00 ea 0d 04 80 03 e5 03 00
       1.49105e-40 6.15942e-40 -3.72333e-40 3.5766e-40
000250 e6 39 01 80 16 a0 05 80 b7 f6 02 00 a1 78 01 80
       -1.12606e-40 -5.16605e-40 2.72176e-40 -1.35109e-40
000260 1d 9b 00 80 e0 bb 05 80 a3 4d 05 80 e8 18 00 80
       -5.5644e-41 -5.26574e-40 -4.87028e-40 -8.935e-42
000270 85 2e 06 00 22 5d 00 00 8e 15 05 00 23 83 00 00
       5.67701e-40 3.341e-41 4.6691e-40 4.7043e-41
000280 da 9c 06 00 b9 da 00 00 fc fc 02 80 d8 78 02 00
       6.07281e-40 7.8463e-41 -2.74425e-40 2.27022e-40
000290 e8 34 06 00 44 d5 00 00 78 b4 01 00 46 14 06 00
       5.69992e-40 7.6505e-41 1.56575e-40 5.58286e-40
0002a0 1d fb 02 00 ef 0d 06 80 f0 72 03 00 28 bb 04 00
       2.73753e-40 -5.56011e-40 3.16738e-40 4.34481e-40
0002b0 c6 73 03 80 74 cf 06 80 ce e7 02 80 51 24 06 80
       -3.17038e-40 -6.25433e-40 -2.66827e-40 -5.64041e-40
0002c0 54 b6 00 00 6c 04 01 00 1f 58 00 00 27 a1 04 00
       6.5407e-41 9.3422e-41 3.1612e-41 4.25153e-40
0002d0 c3 08 03 00 40 b2 04 80 3e 33 01 80 84 cd 03 80
       2.7865e-40 -4.31286e-40 -1.10218e-40 -3.49232e-40
0002e0 35 e3 00 80 25 bb 06 80 61 4d 02 00 a1 6a 02 00
       -8.1507e-41 -6.18148e-40 2.1143e-40 2.21922e-40
0002f0 eb a9 06 00 c9 6b 03 80 21 8f 01 00 5e dc 02 00
       6.11968e-40 -3.14173e-40 1.4318e-40 2.62724e-40
000300 11 38 03 80 b6 5a 01 00 2f d7 02 00 6e e7 04 00
       -2.9562e-40 1.24376e-40 2.60864e-40 4.50363e-40
000310 fe 73 06 00 42 dc 05 00 e7 18 02 80 3c 58 00 80
       5.92623e-40 5.38191e-40 -1.92604e-40 -3.1653e-41
000320 4e c4 02 00 f6 3e 00 80 0c 21 04 80 f7 3a 04 00
       2.54092e-40 -2.2586e-41 -3.79197e-40 3.88495e-40
000330 a0 e7 05 80 74 4b 00 00 e8 da 04 00 45 0f 02 00
       -5.42269e-40 2.7067e-41 4.45871e-40 1.89149e-40
000340 f6 e3 06 80 03 96 01 80 0f 02 02 00 a3 54 02 00
       -6.3279e-40 -1.4565e-40 1.8441e-40 2.14033e-40
000350 e6 8a 02 80 0a 56 06 00 e8 ee 03 80 3d 7b 03 00
       -2.33498e-40 5.81878e-40 -3.6121e-40 3.19716e-40
000360 00 0d 04 80 76 99 06 80 b2 d2 04 80 ec 01 03 00
       -3.72006e-40 -6.06064e-40 -4.42925e-40 2.76196e-40
000370 b1 a5 06 80 26 0b 05 80 37 5e 04 80 99 69 05 80
       -6.10452e-40 -4.63177e-40 -4.0114e-40 -4.97059e-40
000380 24 29 06 00 73 67 05 00 7a aa 00 80 b6 0c 06 80
       5.65771e-40 4.96288e-40 -6.1155e-41 -5.55573e-40
000390 46 be 02 80 cf 97 04 80 be 1c 02 00 3e 18 00 00
       -2.51928e-40 -4.218e-40 1.93982e-40 8.696e-42
0003a0 4c 5d 06 00 fc 67 04 00 1a 66 b1 3a 5d dd 5c 3c
       5.84482e-40 4.04645e-40 0.0013534457 0.0134805115
0003b0 90 ca cf 3c 1f b2 51 bb 54 0c 18 bc 59 a9 41 3c
       0.025365144 -0.0031997038 -0.009280283 0.011820161
0003c0 57 9b a0 3c c0 6d 6c bc 9d 30 35 3b 5b 15 8b bc
       0.019605322 -0.014430463 0.0027647384 -0.016977957
0003d0 b4 54 ab 3a 23 4b ad 3c 6c 63 d5 3c 60 cc 06 ba
       0.0013071508 0.021153992 0.026048385 -0.00051421486
0003e0 31 c3 93 3a 13 59 06 bc 44 ee 85 bc b8 1f 69 bb
       0.0011273382 -0.008199948 -0.016348965 -0.0035571884
0003f0 0d dd db bb 50 7a 10 bd 79 a1 9e 3a 56 a9 ec 3c
       -0.006709701 -0.035272896 0.0012102566 0.02888934

bias f4 [13]
000000 23 b2 a8 3c f3 dd 01 00 fa be 9c 3c ef 13 b0 3c
       0.020592755 1.71456e-40 0.019134033 0.02149388
000010 d6 ab 0d 3d 49 6e 93 3c 8f 03 a0 3c 10 1f ac 3c
       0.034587704 0.017996924 0.019532947 0.021010906
000020 f5 53 af be c3 df b1 3c 9c cc a9 3c 30 fb 94 3c
       -0.34243742 0.021713143 0.020727448 0.018186182
000030 3f c4 9c 3c
       0.019136546

weight f4 [13]
000000 d1 fb 11 3d 47 c9 00 00 09 ef ef 3c 84 8f 08 3d
       0.03564054 7.2205e-41 0.029288786 0.033339992
000010 16 3b 66 3d 24 04 e8 3c 8a 52 f8 3c 83 6c 92 3d
       0.056208692 0.028322287 0.030312795 0.07149603
000020 67 f5 fa be 57 b6 51 3d be 38 e0 3c dd c4 f1 3c
       -0.49015352 0.051199283 0.027370807 0.029512817
000030 c3 c1 eb 3c
       0.028778916

bias f4 [13]
000000 df f4 5c 3b ea 58 db 95 60 b4 81 3c ca ba 0a 3d
       0.003371529 -8.859368e-26 0.01583308 0.033869542
000010 f6 ca a3 bd 75 ab 89 3c 28 d0 da 3b 72 19 8b 3e
       -0.07997696 0.01680539 0.006677646 0.2716785
000020 8c a0 e3 bd 60 de 11 3d e2 9a 54 bb 60 e2 a9 ba
       -0.11114606 0.035612464 -0.003244095 -0.0012961142
000030 87 b0 93 3b
       0.0045071277

running_mean f4 [13]
000000 86 b8 be 3d 19 ea 5a 17 af 7d b8 3c 1e 03 ce 3c
       0.09312539 7.073507e-25 0.022520868 0.02514797
000010 16 2f c1 3d 1e 49 05 3b 78 4b de 3b 34 fc eb 3d
       0.09432809 0.002033777 0.006783899 0.11522713
000020 b5 6e af be c7 8d cc 3d 4a f5 20 3d 8d 04 9b bb
       -0.3426415 0.099879794 0.039296426 -0.004730767
000030 5c b2 05 3d
       0.0326408

running_var f4 [13]
000000 ad 57 1e 39 f7 e4 7f 0b c2 7f f5 38 97 c3 12 39
       0.00015100716 4.9283468e-32 0.00011706307 0.00013996508
000010 fd 4e e7 38 6f 46 fc 38 f5 81 f7 38 2a 0c 2e 3a
       0.00011029651 0.00012029416 0.00011802084 0.0006639386
000020 36 c9 a3 34 8d 98 95 39 87 f5 a9 38 59 ba 07 39
       3.0507516e-07 0.00028533154 8.104281e-05 0.00012944023
000030 9a 57 e7 38
       0.000110312554

weight f4 [1, 13, 3, 3]
000000 d3 bc 91 bd a8 c1 ec 3c 09 4a 27 3d 07 6c bd bd
       -0.071160935 0.028900936 0.04084209 -0.0924912
000010 90 84 67 3c 8d e1 86 3d 40 74 cd bc fa a9 31 3c
       0.014130726 0.06585989 -0.025079846 0.010843748
000020 32 86 70 3c 6e 01 01 00 f0 50 03 80 28 23 06 80
       0.014680432 9.2348e-41 -3.04541e-40 -5.63625e-40
000030 8d 29 06 80 1c fb 04 80 85 2b 01 80 11 ed 04 00
       -5.65919e-40 -4.57423e-40 -1.07447e-40 4.52385e-40
000040 90 90 05 80 2a 20 01 00 8f c4 c4 bb 9f e2 e9 bd
       -5.11037e-40 1.03374e-40 -0.006004877 -0.11420178
000050 de 5c c1 bc e5 45 73 bb 1c 98 2e 3b e8 e5 06 3c
       -0.023603853 -0.0037120518 0.0026640957 0.008233525
000060 92 f3 82 3c 91 ee ba 3d b1 89 db 3c 4d 86 8a 3c
       0.015985284 0.09127534 0.026799055 0.016909743
000070 0c f9 e3 3d da 59 9a 3b e0 ab 1e bd 23 8c ea bd
       0.11131486 0.004710418 -0.03873813 -0.1145251
000080 49 d9 e0 bc 5f d1 a8 3c b6 72 b3 3c 7a a4 05 3c
       -0.02744736 0.020607648 0.021905284 0.00815689
000090 92 13 0f bc 6d 9f 74 bd c6 2a 26 3c 88 8f 43 3d
       -0.008732693 -0.059722353 0.010142034 0.047744304
0000a0 c5 0d 27 3a 08 a2 23 bd 13 6b ba 3c b3 0e 36 3d
       0.0006372596 -0.039949447 0.022756135 0.044447612
0000b0 71 08 af bc 63 2e ce 3d 70 ed 4f bd 8d 1a 65 bd
       -0.02136633 0.10067441 -0.050763547 -0.055933524
0000c0 60 33 87 3d 53 fb 5d bd 6b 71 85 bc 81 02 7a bb
       0.06601596 -0.05419476 -0.016289433 -0.0038148465
0000d0 57 c3 0c bc 07 f0 36 3d d0 de 00 bd 6b c8 7b 3d
       -0.0085914945 0.0446625 -0.03146249 0.06147043
0000e0 e2 98 83 bb aa b1 48 3c 47 a6 d8 3b 0e 1e 44 3d
       -0.004016028 0.01224939 0.0066116187 0.047880225
0000f0 7b 6b 33 3c 0c 0a ff bd ad 9d 9e bc 10 23 13 3d
       0.010950918 -0.12453088 -0.019362295 0.03592211
000100 50 4e 24 be ea 0f b4 3c 13 4f a4 bd 53 2d aa 3e
       -0.16045499 0.021980245 -0.08022895 0.33237705
000110 0f d4 99 bd eb 14 5a bd a5 56 f9 3c 79 07 37 bd
       -0.0751115 -0.053242605 0.030436823 -0.04468486
000120 95 95 31 3c db 86 93 ba c2 f9 85 ba 15 be f0 bc
       0.010838886 -0.00112554 -0.0010221528 -0.029387513
000130 cb f6 7c 3b 1d f5 a2 3a 9c 07 88 3c 88 ee e6 3b
       0.0038599249 0.0012432669 0.016605191 0.007047478
000140 b2 ee ed bb b4 e6 6c bc 3b 31 ba 3b ff b9 4c ba
       -0.0072611207 -0.014459301 0.0056821383 -0.0007809698
000150 cb 6e 43 3d 28 9d df bd 1e c4 8d 3d 9f b1 a9 3c
       0.047713082 -0.10918647 0.06922172 0.02071458
000160 d0 03 cd bd e3 4a 8e 3d 93 3f 93 3d c9 65 cf 3b
       -0.10010493 0.06947877 0.0718986 0.0063292724
000170 f0 8a b2 bd b8 4e e0 3c 64 fd 32 bc 77 88 ec bc
       -0.087179065 0.027381286 -0.010924671 -0.028873665
000180 79 ea 0b 3d 86 4d 14 bb a8 19 14 bd a6 69 68 3d
       0.034159157 -0.0022629215 -0.03615728 0.05674138
000190 d2 a1 87 3d 31 a5 32 3d 88 08 b5 3a fa 26 41 3c
       0.06622662 0.04361457 0.0013811747 0.011789078
0001a0 41 81 ec bc 30 90 20 bd dd 08 ed bc 8f 82 d0 bc
       -0.028870227 -0.039200008 -0.02893489 -0.02545288
0001b0 79 95 65 bc 7b 88 86 38 81 98 ce 3c 32 8d 8f 3d
       -0.014012688 6.4150394e-05 0.025219204 0.07009353
0001c0 df 73 87 3c 81 75 89 bd 64 d3 0f 3d 4c 17 c7 3c
       0.016534744 -0.06711865 0.035113707 0.024303101
0001d0 a6 7a 87 bd
       -0.0661519

weight f4 [13, 1, 3, 3]
000000 43 45 06 00 89 24 06 80 b2 62 06 00 9d d8 03 00
       5.7586e-40 -5.6412e-40 5.86418e-40 3.53213e-40
000010 8c 8a 02 80 1f d2 01 00 1b bb 04 00 9a 37 00 80
       -2.33372e-40 1.67213e-40 4.34463e-40 -1.9946e-41
000020 72 4f 01 80 5e ba af bc 8d a1 e0 bc 7d f5 c1 bc
       -1.20335e-40 -0.021451171 -0.027420783 -0.023676628
000030 9e e1 27 bd bd 94 79 bd b8 99 37 bd 45 de dc 3c
       -0.04098665 -0.060932864 -0.044824332 0.026961455
000040 0a 64 4d 3d 00 08 bc 3c ae 38 02 80 63 18 01 00
       0.050144233 0.022953033 -2.04004e-40 1.00584e-40
000050 ff b3 04 00 e5 e9 02 80 e9 91 00 80 d2 e6 03 80
       4.31912e-40 -2.67577e-40 -5.2343e-41 -3.58309e-40
000060 fe 12 00 80 9a 6e 05 80 4e 04 01 00 6b 75 80 3c
       -6.813e-42 -4.98854e-40 9.338e-41 0.01568099
000070 82 b4 b4 bb 23 07 0b 3b 57 40 84 bd f0 d0 23 3e
       -0.0055146823 0.002121397 -0.06457584 0.15997672
000080 78 37 8d bd 77 45 4e bc f5 3d 0d 3d c4 00 47 bc
       -0.068953454 -0.012589804 0.034482915 -0.012146179
000090 00 53 d4 3b 45 5e 27 3c 9c 13 ab 3b 0a 38 98 bd
       0.006479621 0.010215347 0.0052208435 -0.074325636
0000a0 80 99 92 be ca cd 29 bd e6 3b e5 bc 47 a8 cd bd
       -0.28632736 -0.04145602 -0.027982663 -0.10041862
0000b0 ac a1 a8 bc ce a5 c8 0d 93 20 04 00 03 6a 01 00
       -0.020584904 1.2365868e-30 3.79027e-40 1.29865e-40
0000c0 74 8d 04 00 5a 33 03 00 52 aa 13 89 ec 94 e2 8f
       4.18086e-40 2.93928e-40 -1.7774566e-33 -2.2342683e-29
0000d0 58 0d e5 0c c4 23 02 00 28 ac 38 3b ce 63 b9 3c
       3.5291068e-31 1.96501e-40 0.0028178785 0.022630598
0000e0 0b 59 f4 3b a6 13 cd 3b e3 08 28 bd b7 db b2 3c
       0.007456904 0.006258446 -0.0410241 0.021833284
0000f0 b5 10 ab 3d 63 7c 50 3e 4c 70 8d 3d d9 68 06 80
       0.08352796 0.2035995 0.069061846 -5.88625e-40
000100 6f 82 05 00 0a 40 03 00 1d b1 01 00 c1 92 04 00
       5.05968e-40 2.9848e-40 1.55372e-40 4.19987e-40
000110 61 a3 03 80 18 b8 03 80 30 e1 02 80 f4 56 02 80
       -3.34116e-40 -3.41547e-40 -2.64453e-40 -2.14864e-40
000120 9a 7a d3 b9 80 3a c0 ba 18 de 3c ba 20 a9 b9 ba
       -0.000403364 -0.0014665872 -0.00072047254 -0.0014164783
000130 0b 1c 80 bb 40 07 f0 ba 5f 12 cb ba 3d 74 5d bb
       -0.003909593 -0.0018312708 -0.0015493146 -0.0033791207
000140 c1 b9 d3 ba b8 2d 02 80 a5 cb 03 80 9a c3 00 80
       -0.0016153381 -2.00072e-40 -3.4856e-40 -7.0169e-41
000150 31 59 04 80 76 de 03 00 18 bb 01 00 e2 90 06 80
       -3.99338e-40 3.5531e-40 1.58952e-40 -6.02987e-40
000160 10 80 03 80 91 1d 02 80 28 bb 05 00 83 09 04 80
       -3.21447e-40 -1.94277e-40 5.26316e-40 -3.70754e-40
000170 d8 4f 01 80 b3 83 02 00 ae 97 04 00 9c 27 05 00
       -1.20478e-40 2.30916e-40 4.21754e-40 4.73387e-40
000180 e7 ca 01 80 65 3e 06 80 b2 9c 03 00 7c 8b 05 8c
       -1.64623e-40 -5.73396e-40 3.31718e-40 -1.0287922e-31
000190 1c 74 06 8b 60 d3 be 8c e1 2d 51 86 49 d0 2d 80
       -2.5894812e-32 -2.9401352e-31 -3.9342238e-35 -4.207316e-39
0001a0 6c 2b 40 87 ac 71 84 87 10 04 49 82 11 f2 b5 87
       -1.4457235e-34 -1.9927963e-34 -1.4768314e-37 -2.7376127e-34
0001b0 a8 da 74 3d aa e3 33 3d 31 b2 fc 3c 46 a2 1c 3d
       0.05977884 0.04391829 0.030846687 0.038240694
0001c0 11 d8 09 3d 24 31 a3 39 27 92 1b 3d c7 ff c7 3c
       0.033653323 0.00031126395 0.03798118 0.024413956
0001d0 b0 21 e2 3b
       0.0069009885

bias f4 [13]
000000 9f 4d 01 80 3d 84 67 3c 50 a7 06 00 16 c9 66 3c
       -1.1968e-40 0.014130649 6.11033e-40 0.014086029
000010 21 62 ad 3c e8 e9 06 00 f2 18 9e 3c 99 c9 03 00
       0.021164956 6.34923e-40 0.019299004 3.47826e-40
000020 26 c9 2d be 04 12 01 00 03 91 06 00 30 ce 01 80
       -0.16971263 9.8298e-41 6.03033e-40 -1.65802e-40
000030 c3 43 44 3c
       0.011979046

weight f4 [13]
000000 d3 96 02 00 82 aa 86 3c 86 5d 03 00 c2 4b fe 3c
       2.37777e-40 0.016438726 3.09056e-40 0.031041984
000010 79 47 4a 3d 3a 96 43 29 69 8c 55 3d d8 d9 01 00
       0.049384568 4.3429e-14 0.05213586 1.69983e-40
000020 5c 52 d9 be 6e ac 02 ba 53 d8 06 00 bc 9b 58 b9
       -0.42445648 -0.00049848005 6.28615e-40 -0.00020657381
000030 6d 49 6b 3c
       0.014360768

bias f4 [13]
000000 d3 1f 32 8c ed b5 65 bc ce c4 32 87 82 0d f3 3d
       -1.3722198e-31 -0.014020425 -1.3449067e-34 0.11867811
000010 d0 d7 48 3e 2a 36 05 aa 92 33 0c 3e 78 d9 24 84
       0.19613576 -1.1831565e-13 0.13691548 -1.9377964e-36
000020 88 56 00 bd 34 2e d0 af 90 34 a8 a1 b5 c7 e0 94
       -0.031332523 -3.786781e-10 -1.1398036e-18 -2.269699e-26
000030 ca bb a7 3c
       0.020475287

running_mean f4 [13]
000000 a7 0d 27 0d 25 67 83 bc 04 00 00 00 3e 98 e0 3c
       5.147728e-31 -0.016040394 6e-45 0.027416345
000010 1c d7 e6 bd 04 00 00 00 b2 b4 e4 3d 42 73 35 2b
       -0.112714976 6e-45 0.111672774 6.446407e-13
000020 88 ef 31 be 04 00 00 00 ad a8 27 20 04 00 00 80
       -0.1737653 6e-45 1.420126e-19 -6e-45
000030 17 f6 a3 3d
       0.08005922

running_var f4 [13]
000000 57 35 95 01 6d ac 95 38 04 00 00 00 8f f9 72 39
       5.4810495e-38 7.1369905e-05 6e-45 0.00023171886
000010 33 4a 93 39 04 00 00 00 ef 6c ce 39 f4 cc 17 1f
       0.00028093308 6e-45 0.00039372544 3.2145027e-20
000020 8f b4 f2 33 04 00 00 00 72 d3 27 13 04 00 00 00
       1.13018466e-07 6e-45 2.1182614e-27 6e-45
000030 41 dc 8e 38
       6.812113e-05

weight f4 [13, 13, 3, 3]
000000 70 e0 01 80 c3 d9 02 00 fd 01 06 80 86 51 02 00
       -1.72349e-40 2.61789e-40 -5.51726e-40 2.12916e-40
000010 7c db 02 00 e0 2f 00 00 06 ef 03 80 90 78 00 80
       2.62407e-40 1.7174e-41 -3.61252e-40 -4.325e-41
000020 f1 34 05 00 ca 21 10 9f 26 80 30 9e 82 c4 4e 9e
       4.78169e-40 -3.0521136e-20 -9.343863e-21 -1.0946186e-20
000030 c8 b2 ae 9e dd 15 ab 9d 93 5b e5 9d fd a8 c3 9e
       -1.8496909e-20 -4.528593e-21 -6.071048e-21 -2.071632e-20
000040 89 c1 f0 9e fb e0 e3 9e 78 1d 04 80 29 cf 00 00
       -2.5491033e-20 -2.412761e-20 -3.77913e-40 7.4315e-41
000050 f3 7c 05 00 4d bc 01 80 f4 21 03 80 2c 56 06 80
       5.04001e-40 -1.59385e-40 -2.87687e-40 -5.81926e-40
000060 f2 1b 06 80 90 a9 03 00 c3 ed 05 80 f1 f5 a6 a3
       -5.61038e-40 3.36334e-40 -5.4447e-40 -1.8101916e-17
000070 0f 49 e9 a2 62 69 02 a4 c9 92 b2 a2 fe c5 ca a3
       -6.323213e-18 -2.827852e-17 -4.840241e-18 -2.1984737e-17
000080 dd b8 e6 a2 5d cf 6f a3 b5 1d 14 a3 09 d6 04 a3
       -6.2537357e-18 -1.3000127e-17 -8.029387e-18 -7.201058e-18
000090 08 a2 40 a5 96 37 ff a5 cc 71 1b a6 95 dc 3c a4
       -1.6708244e-16 -4.4273115e-16 -5.393065e-16 -4.0952842e-17
0000a0 83 0c 14 a6 1c 7a ac a5 7f f4 25 a5 72 b8 c3 a4
       -5.136477e-16 -2.9919988e-16 -1.4394307e-16 -8.488023e-17
0000b0 9c 0d 2b a4 22 84 03 80 8c 1f 06 00 fa a3 01 80
       -3.7091242e-17 -3.22907e-40 5.6233e-40 -1.50659e-40
0000c0 f4 3f 06 80 e7 4d 06 80 b3 3b 04 00 03 0e 02 80
       -5.73955e-40 -5.78959e-40 3.88758e-40 -1.88697e-40
0000d0 21 14 01 80 33 6a 06 80 33 64 3f a4 7b 01 90 a3
       -9.9056e-41 -5.8911e-40 -4.1501395e-17 -1.5613138e-17
0000e0 a9 0e 2d a4 22 14 45 a4 d6 28 1f a3 fe 1d 82 a4
       -3.7525813e-17 -4.273462e-17 -8.628055e-18 -5.642932e-17
0000f0 dc be a6 a3 ff 56 6c a3 f7 6c 07 a4 71 85 01 80
       -1.8078588e-17 -1.2812008e-17 -2.9365755e-17 -1.39705e-40
000100 84 2b 00 80 61 92 06 00 4c 9e 03 00 ed a0 06 00
       -1.561e-41 6.03524e-40 3.32293e-40 6.08742e-40
000110 c0 0f 06 00 3f 65 04 80 84 ca 06 80 ae 32 04 80
       5.56663e-40 -4.03662e-40 -6.23662e-40 -3.85522e-40
000120 48 fe 9d 9f de fc 98 9f a8 d4 ca 9f 3d 64 15 a0
       -6.691276e-20 -6.479284e-20 -8.590214e-20 -1.2653957e-19
000130 a7 1e 0c a0 74 11 1b a0 40 80 3c a0 80 d6 1c a0
       -1.1868603e-19 -1.3134785e-19 -1.5966654e-19 -1.3284686e-19
000140 15 63 03 a0 0b 42 00 00 d6 eb 01 80 69 eb 05 00
       -1.1128915e-19 2.3692e-41 -1.76437e-40 5.43627e-40
000150 49 d2 03 80 d2 65 05 00 c0 62 05 00 7f b3 05 80
       -3.50943e-40 4.95704e-40 4.94602e-40 -5.23569e-40
000160 47 5f 04 80 67 a1 00 00 a4 ec 04 00 b1 36 00 00
       -4.01521e-40 5.79e-41 4.52233e-40 1.962e-41
000170 e1 23 05 80 d7 af 02 80 ab 33 05 00 99 44 05 80
       -4.72048e-40 -2.4675e-40 4.77712e-40 -4.83786e-40
000180 90 8a 01 00 65 89 05 80 d8 34 05 00 71 31 05 80
       1.41542e-40 -5.08465e-40 4.78134e-40 -4.76914e-40
000190 bf 51 05 80 a1 d4 03 00 99 06 02 00 2e 65 01 80
       -4.88502e-40 3.51783e-40 1.86038e-40 -1.28132e-40
0001a0 0c 6a 04 00 6d dc 04 00 72 f4 03 80 8d 93 02 00
       4.05384e-40 4.46416e-40 -3.63197e-40 2.36602e-40
0001b0 1e 73 7c a1 a9 eb 7f a1 de 4b 46 a1 ca cb 5a a1
       -8.5533277e-19 -8.6709254e-19 -6.718542e-19 -7.4130986e-19
0001c0 d0 59 47 a1 de 6d 15 a1 1c ab 39 a1 df 93 51 a1
       -6.754269e-19 -5.062857e-19 -6.29069e-19 -7.100766e-19
0001d0 89 d6 03 a1 f0 84 03 80 60 b5 03 00 ca 17 02 00
       -4.466846e-19 -3.23195e-40 3.40572e-40 1.92205e-40
0001e0 59 49 05 00 2e ac 03 00 51 67 01 00 ae 68 01 00
       4.8549e-40 3.37273e-40 1.28898e-40 1.29387e-40
0001f0 df 64 05 00 e5 be 04 80 59 35 04 00 ee 3d 03 00
       4.95363e-40 -4.35822e-40 3.8648e-40 2.97723e-40
000200 74 f4 01 80 57 dc 03 80 2f 9e 05 80 06 ba 01 80
       -1.79529e-40 -3.5455e-40 -5.15923e-40 -1.58568e-40
000210 49 8d 04 00 52 b5 05 00 73 59 06 00 fe 51 02 00
       4.18026e-40 5.24223e-40 5.83101e-40 2.13084e-40
000220 37 fa 04 80 84 90 01 80 8b 83 03 00 d0 81 04 80
       -4.57102e-40 -1.43678e-40 3.22695e-40 -4.1391e-40
000230 e7 8a 00 00 cc f8 01 00 45 81 04 00 7a 6a 06 00
       4.9829e-41 1.81087e-40 4.13715e-40 5.8921e-40
000240 83 19 88 2d 47 ab 81 2f b5 e4 18 ac 0d e8 8a af
       1.547274e-11 2.3586663e-10 -2.1727457e-12 -2.5266936e-10
000250 90 cf 5f b2 a2 a5 e3 af 13 14 02 aa 93 ed 2d 2b
       -1.3027503e-08 -4.140875e-10 -1.1553284e-13 6.1791647e-13
000260 26 f5 ad a6 66 d3 27 2e 41 f7 93 2e f8 62 22 30
       -1.2070734e-15 3.8159163e-11 6.728707e-11 5.90759e-10
000270 c2 ec 2d af 29 32 f2 b1 86 b3 1b b0 3a 1c 5b ad
       -1.5818372e-10 -7.0488295e-09 -5.664379e-10 -1.2454976e-11
000280 44 5d e0 2b cb 25 00 a9 06 5e 03 00 e6 39 05 00
       1.5942044e-12 -2.845449e-14 3.09236e-40 4.79948e-40
000290 d0 2e 06 00 c4 3f 05 80 9b a4 05 00 a7 85 06 00
       5.67806e-40 -4.82052e-40 5.18227e-40 5.98958e-40
0002a0 34 f8 05 80 12 3a 00 80 e0 55 03 00 27 fb 94 a5
       -5.48216e-40 -2.0832e-41 3.06313e-40 -2.5844095e-16
0002b0 e0 38 ac 24 e3 c7 7e a6 8d b3 19 a5 86 35 c2 27
       7.468946e-17 -8.839485e-16 -1.3331469e-16 5.3903847e-15
0002c0 27 d8 99 a4 4c 52 04 ac 0c 7a 71 2e 90 6c cd aa
       -6.671935e-17 -1.8804012e-12 5.4905455e-11 -3.6490646e-13
0002d0 33 6d 00 00 ea 87 05 80 99 95 05 80 62 5d 04 80
       3.9173e-41 -5.07934e-40 -5.12843e-40 -4.00841e-40
0002e0 b6 df 01 80 ee bd 03 80 70 81 01 80 57 01 01 80
       -1.72088e-40 -3.4364e-40 -1.38269e-40 -9.2316e-41
0002f0 42 b6 04 80 db c4 05 00 f2 d3 03 80 96 ab 02 80
       -4.32724e-40 5.29796e-40 -3.51538e-40 -2.45224e-40
000300 03 67 03 80 f0 87 05 80 4a de 00 80 17 84 00 80
       -3.1246e-40 -5.07943e-40 -7.9742e-41 -4.7385e-41
000310 da 01 06 00 6f be 04 00 13 f3 04 00 a2 1f 00 80
       5.51677e-40 4.35657e-40 4.5454e-40 -1.1348e-41
000320 a5 fe 00 00 60 b5 05 80 7a 40 06 80 c4 74 06 00
       9.1349e-41 -5.24243e-40 -5.74143e-40 5.929e-40
000330 53 ba 03 80 25 5c 04 80 a1 f6 02 80 47 93 05 00
       -3.42347e-40 -4.00397e-40 -2.72145e-40 5.1201e-40
000340 e6 dd 01 00 fb ae 06 00 80 cd 05 80 a6 a6 02 80
       1.71438e-40 6.13784e-40 -5.32897e-40 -2.43453e-40
000350 3a c9 04 00 08 59 05 00 3d d9 06 00 9c 92 04 00
       4.39528e-40 4.91116e-40 6.28943e-40 4.19936e-40
000360 e4 48 02 00 2f 7b 03 80 4d 07 00 00 b2 25 01 80
       2.09819e-40 -3.19696e-40 2.619e-42 -1.05358e-40
000370 0f 52 00 80 da 7e 01 80 74 48 06 80 c0 d2 04 00
       -2.9437e-41 -1.37341e-40 -5.77004e-40 4.42945e-40
000380 0c 3a 03 00 bc 74 0a 8b 8b c2 ff 16 0e cb 64 14
       2.9633e-40 -2.6665654e-32 4.1320246e-25 1.1551104e-26
000390 00 f1 8f 8b e2 c9 e5 1c bd 18 ab 8f 45 2e b3 86
       -5.544421e-32 1.5206134e-21 -1.687143e-29 -6.7400303e-35
0003a0 9e db 05 80 16 ff 69 8a 87 bf 03 00 72 7d 02 00
       -5.37961e-40 -1.1266518e-32 3.44214e-40 2.28672e-40
0003b0 33 e4 06 00 e3 ae 04 00 b8 ac 00 00 f7 16 04 00
       6.32875e-40 4.3008e-40 6.196e-41 3.7558e-40
0003c0 aa a0 05 00 74 24 06 80 8a 8e 06 80 d0 39 c9 3c
       5.16813e-40 -5.6409e-40 -6.02146e-40 0.0245637
0003d0 ce 26 ed 3c 6b 8e 29 3c 25 b9 8e bc 46 11 33 bd
       0.028949168 0.0103488965 -0.017422268 -0.043717645
0003e0 0e eb eb bc 1b 87 9f 3b 0e 3e b7 3a 99 d4 dc 39
       -0.028798606 0.0048684007 0.0013980286 0.00042120068
0003f0 ed 9c 06 00 29 93 04 00 24 e8 04 80 eb 26 00 00
       6.07307e-40 4.20133e-40 -4.50618e-40 1.3961e-41

bias f4 [13]
000000 60 c1 c1 a3 1e 7d 01 00 6f 87 20 3c 1b 15 97 3c
       -2.1007e-17 1.36719e-40 0.009797915 0.018442681
000010 41 d3 52 3c 94 c3 73 3c 66 98 54 89 1d 78 00 00
       0.01286775 0.014878172 -2.559023e-33 4.3089e-41
000020 1b 81 05 80 22 60 04 00 2e 26 04 00 b5 c2 9b 3c
       -5.05492e-40 4.01828e-40 3.81038e-40 0.019013742
000030 bf 00 ab 3c
       0.02087438

weight f4 [13]
000000 2f a2 e0 b9 b4 71 e1 93 25 db f8 3c a8 f7 2b 3d
       -0.00042845446 -5.6910105e-27 0.030377934 0.04198423
000010 1e fc 48 3c 56 f7 66 3c 98 bc fd b9 7f b0 03 80
       0.012267141 0.014097055 -0.00048396434 -3.38821e-40
000020 ac 83 4a 06 e4 3e 01 80 94 0b 4b 2b 1f b8 38 3d
       3.8088715e-35 -1.14396e-40 7.2136156e-13 0.045097467
000030 f6 9d 0c 3d
       0.03433033

bias f4 [13]
000000 bd 1b ee ad 8c 1c 6d 93 b4 06 1c 3e 9b e4 a0 3c
       -2.7069786e-11 -2.992768e-27 0.15236932 0.019640258
000010 49 65 7f bc 30 91 9f 3c cb 64 cb 9a be 06 a8 95
       -0.015588113 0.01947841 -8.412167e-23 -6.78653e-26
000020 e1 70 ff 90 ee 40 d2 94 5d 01 2d a9 6a 95 04 bc
       -1.0075368e-28 -2.1230191e-26 -3.84149e-14 -0.008092264
000030 da 07 85 bc
       -0.016239095

running_mean f4 [13]
000000 04 00 00 80 04 00 00 80 d2 a0 ca 3c ec e6 87 bc
       -6e-45 -6e-45 0.024734888 -0.016589604
000010 12 9f 01 bc f0 08 33 3d 04 00 00 80 fc bd 29 26
       -0.0079114605 0.043709695 -6e-45 5.889113e-16
000020 71 1d ef 25 9f 71 ab 26 04 1e bc 1d 7b 07 ee bb
       4.1479841e-16 1.1896306e-15 4.979422e-21 -0.0072640753
000030 92 9d 78 bd
       -0.060697146

running_var f4 [13]
000000 04 00 00 00 3f bd 43 23 2f 55 fd 39 6f 1d 8d 39
       6e-45 1.0611046e-17 0.00048319387 0.00026915545
000010 5d 47 26 38 e3 98 08 38 04 00 00 00 69 0e 8e 1a
       3.9643946e-05 3.2567314e-05 6e-45 5.8753104e-23
000020 5d 14 6f 1a 1d 6b 2b 1b dd 16 3c 12 60 77 82 39
       4.944049e-23 1.4179399e-22 5.935052e-28 0.00024884474
000030 ef 47 02 39
       0.00012424563
