pre-trained-tp3/tiny_Strangled1_DnCNN_2000.pt (torch, 177885 bytes, 104 tensors)

dncnn.0.conv.weight f4 [13, 1, 3, 3]
-0.019160917 -0.030655337 0.010138134 -0.018576488 -0.06899463 -0.06877944 0.04522669 0.151256
0.020177022 0.0074551995 0.022276713 0.052662365 0.0012248135 -0.17889147 -0.017179236 0.021419477
-0.0106659895 0.06204083 0.12834288 -0.0035156184 -0.15155974 -0.025716448 0.031728562 0.03005326
-0.12333626 0.029248 0.0821853 -0.014234936 0.011051752 0.017742066 -0.13074233 -0.04185005
0.022825945 -0.018718952 0.005187114 0.026958182 2.2125445e-17 2.0752086e-17 -7.06161e-17 2.0998504e-17
2.2172811e-17 -3.0576312e-16 2.0883665e-17 1.9964285e-17 1.2648291e-17 -0.070897676 -0.04024154 0.10506339
-0.07976224 -0.01654199 0.14937122 -0.056692436 -0.026390541 0.057366826 0.117238306 0.1671876
0.07708037 -0.058651656 -0.087166205 -0.05144325 -0.048169523 -0.08257504 -0.033365157 0.071865045
0.0010138387 -0.08811147 0.112345606 0.010387778 -0.10233837 0.058490686 0.0037050352 -0.065202504
-0.03186784 -0.023014566 -0.010732881 -0.0031614988 0.28568423 -0.085921265 -0.03729097 -0.023355735
-0.016641602 -0.012561744 0.020321706 -0.008926911 0.01699035 0.1341997 0.019924168 -0.010604064
0.017730022 -0.011067823 -0.023047978 -0.07647424 -0.012893562 -0.0657825 -0.12654929 -0.06437464
0.10454363 0.18172608 0.08699203 0.052683055 0.13424997 0.07627958 -0.026059074 -0.018933462
-0.020387543 -0.04817456 -0.07101951 -0.053419977 0.078944296 -0.009866627 -0.066206306 0.2068591
-0.04502517 -0.1881762 0.10534794 -0.020159855 -0.067199804
00000000: 5bf7 9cbc e720 fbbc 6a1a 263c b82d 98bc
00000010: 0e4d 8dbd 3cdc 8cbd 9f3f 393d dae2 1a3e
00000020: 484a a53c bf4a f43b a77d b63c 7eb4 573d
00000030: ec89 a03a 532f 37be 78bb 8cbc e677 af3c
00000040: 67c0 2ebc 861e 7e3d 516c 033e 4a66 66bb
00000050: 7a32 1bbe 4dab d2bc cff5 013d 4132 f63c
00000060: b997 fcbd 8099 ef3c c450 a83d a639 69bc
00000070: 6812 353c cf57 913c 51e1 05be f56a 2bbd
00000080: 7afd ba3c 7d58 99bc aaf8 a93b 68d7 dc3c
00000090: 3b12 cc23 7a67 bf23 63d4 a2a4 51ad c123
000000a0: 1282 cc23 ac42 b0a5 299e c023 5623 b823
000000b0: de51 6923 cd32 91bd 50d4 24bd 7a2b d73d
000000c0: 635a a3bd 1183 87bc c5f4 183e 5436 68bd
000000d0: fa30 d8bc 7af9 6a3d a31a f03d 3a33 2b3e
000000e0: 50dc 9d3d b83c 70bd 3284 b2bd 28b6 52bd
000000f0: 684d 45bd 1a1d a9bd e7a9 08bd fb2d 933d
00000100: c8e2 843a c973 b4bd 7415 e63d 8031 2a3c
00000110: c896 d1bd ee93 6f3d 2dd0 723b e488 85bd
00000120: da87 02bd 0b89 bcbc f7d8 2fbc 2631 4fbb
00000130: 3445 923e 7df7 afbd 6bbe 18bd 8754 bfbc
00000140: f853 88bc c6cf 4dbc b579 a63c 2e42 12bc
00000150: 592f 8b3c a56b 093e 0238 a33c abbc 2dbc
00000160: 8d3e 913c d055 35bc 1dcf bcbc 879e 9cbd
00000170: 853f 53bc fab8 86bd 2396 01be dad6 83bd
00000180: f81a d63d 6716 3a3e e128 b23d 30ca 573d
00000190: d378 093e 7838 9c3d d779 d5bc 591a 9bbc
000001a0: c703 a7bc b052 45bd ad72 91bd e8ce 5abd
000001b0: 8cad a13d a2a7 21bc 2c97 87bd dfd2 533e
000001c0: 506c 38bd 43b1 40be a9c0 d73d 4826 a5bc
000001d0: 0da0 89bd

dncnn.0.conv.bias f4 [13]
0.019420773 0.010208305 0.013804038 0.019050188 3.1945864e-17 0.015426123 0.009476312 0.019516068
0.010249926 0.018949632 0.008672285 0.016911017 0.009747132
00000000: 5018 9f3c bc40 273c 552a 623c 240f 9c3c
00000010: 0553 1324 d9bd 7c3c 8942 1b3c 29e0 9f3c
00000020: 4eef 273c 423c 9b3c 3316 0e3c f988 8a3c
00000030: 6fb2 1f3c

dncnn.0.bn.weight f4 [13]
0.09040091 0.044801965 0.06469039 0.08978283 -0.00076092104 0.09800592 0.06618491 0.11894959
0.061642766 0.10035078 0.06318862 0.09955662 0.086971045
00000000: 1d24 b93d 4482 373d 657c 843d 0fe0 b73d
00000010: 8c78 47ba 54b7 c83d f48b 873d d89b f33d
00000020: 207d 7c3d b684 cd3d 0969 813d 57e4 cb3d
00000030: e01d b23d

dncnn.0.bn.bias f4 [13]
-0.0762004 0.22007029 -0.02415312 -0.096335046 -1.1143724e-16 -0.051560625 0.0695399 -0.09778992
0.23492084 -0.19307855 0.082030244 -0.072143994 0.11578079
00000000: f50e 9cbd 1b5a 613e c4dc c5bc 4f4b c5bd
00000010: 787a 00a5 3c31 53bd ef6a 8e3d 1546 c8bd
00000020: 178f 703e 62b6 45be 79ff a73d 3bc0 93bd
00000030: 7b1e ed3d

dncnn.0.bn.running_mean f4 [13]
0.02709119 -0.010748353 0.013712074 -0.034854464 -6e-45 0.024022212 0.007231635 0.02092715
0.037996292 0.093532 0.007415571 0.027327107 0.006398255
00000000: 58ee dd3c dc19 30bc 9ba8 603c 8ec3 0ebd
00000010: 0400 0080 3bca c43c 5af7 ec3b 6a6f ab3c
00000020: 00a2 1b3d b58d bf3d 51fe f23b 19dd df3c
00000030: 74a8 d13b

dncnn.0.bn.running_var f4 [13]
0.0010591942 0.000947928 0.0011298714 0.0013306496 6e-45 0.0022007215 0.0026491326 0.0018891447
0.0019051599 0.001702578 0.0027814803 0.0016041357 0.0042165834
00000000: a9d4 8a3a 5f7e 783a 3118 943a 3169 ae3a
00000010: 0400 0000 fb39 103b 129d 2d3b 2d9d f73a
00000020: 8fb6 f93a 0a29 df3a 7f49 363b dd41 d23a
00000030: 442b 8a3b

dncnn.1.conv.weight f4 [13, 13, 3, 3]
0.047066797 -0.029237952 -0.024080364 -0.019443197 -0.026308589 0.006502637 -0.021946145 -0.010954164
-0.0049958806 -0.013261057 0.02505745 0.011066271 -0.026050096 0.043875623 0.0066019637 -0.008699941
0.04024041 -0.029122785 0.008452777 -0.013730155 0.014040455 -0.007972494 -0.004139881 -0.008524456
-0.023105033 -0.014409214 -0.019355817 0.00033237066 0.0073489626 0.0009893243 -0.0003304574 0.046163764
-0.048978653 -0.004779427 -0.003154583 -0.015793815 -5.387946e-22 -2.9115316e-22 -7.0269483e-22 -1.4619473e-23
-3.8041814e-23 -1.2075235e-22 -4.033968e-22 2.152449e-22 4.629276e-22 -0.023826683 -0.0072645876 0.00837389
-0.0042004776 -0.035491742 -0.010956693 -0.021672783 -0.025519298 0.0010535409 0.0484241 -0.030672155
-0.028458092 0.039368253 -0.008749083 -0.028119693 -0.030584125 0.03464001 0.01825237 0.03568976
0.04411947 0.0021207833 -0.021062814 -0.007887823 -0.035852026 0.03665641 0.03317656 -0.014546266
0.037787914 -0.046446763 0.0056927507 0.115486115 -0.10435145 -0.0024317973 0.029167382 -0.029046673
0.00012980776 0.03898744 -0.010307627 0.0010283121 0.023475083 0.01695703 0.003772522 -0.0006780943
-0.026854912 -0.028935688 -0.013085885 0.03733374 0.007884109 0.07644704 -0.024199959 -0.027612688
0.074322015 -0.04018378 -0.0012513832 0.010447573 0.0067252982 0.024711568 0.028960994 -0.020084163
0.008929975 0.033515606 -0.019222451 -0.021366604 -0.02085078 -0.021417757 -0.0027359584 0.04247761
0.077095546 0.07230692 -0.028401665 -0.036416136 -0.017606927 -0.009818175 -0.0031216173 -0.0041437736
-0.00024607222 0.014381596 -0.052757815 -0.006195206 0.027215768 0.05338894 -0.011546613 -0.0153480545
0.0025533463 -0.03617136 0.0023536761 0.050322715 -0.045303285 -0.028176287 0.045542154 -0.005217161
0.002670787 0.004534141 0.012519666 -0.009322459 -0.0057070884 0.017737575 0.0075987517 0.03054951
0.012476232 -0.013223947 -0.022985289 -0.005110686 0.0038219604 -0.019991044 0.0013871526 0.027384985
-0.03974851 3.3443626e-23 -3.0520602e-24 -2.0620313e-24 -2.1348239e-23 3.1323923e-24 -4.945939e-23 -3.3875348e-24
9.537095e-24 -1.704384e-23 -0.010619424 0.022994738 0.012157795 0.02394258 -0.009443291 0.020883689
0.0251583 -0.031936657 0.03893459 0.00095505663 0.008675322 -0.0027911607 0.00492798 0.01175513
-0.027501265 -0.03903678 -0.006476797 0.038227037 -0.016093442 -0.011943145 -0.017505113 -0.030039988
-0.028268134 -0.028076475 -0.026092868 0.046087034 -0.032225702 -0.01926585 -0.0029545354 0.0042559486
0.002728951 0.008792488 0.0069165137 -0.004877852 -0.019851122 -0.042032257 0.024791712 0.005686624
-0.0052430485 -0.015246249 -0.043939646 0.017430007 -0.052223183 -0.014589634 -0.0071159126 0.014652578
-0.013542211 0.00064204796 -0.007775269 0.008665464 -0.0057638516 0.028856589 0.0015619335 -0.06690512
-0.0065568145 0.002550005 0.0055965926 0.007023174 -0.00020350913 0.0066179982 -0.008894172 0.042198494
-0.012629367 0.01346216 0.016762823 0.018097427 0.0457275 0.030818421 0.059239674 0.056600973
0.028767284 0.0745252 -0.035550684 -0.0001781713 -0.0043027927 0.0035478736 -0.013121952 -0.014842665
0.00029521747 -0.0042365887 -0.027933862 0.03949319 -0.010242853 -0.0049664285 0.085283384 -0.01109873
-0.020681946 0.043843713 -0.02765963 -0.0052040396 -0.0056524607 -0.0050768363 -0.0013700589 -0.0025581655
00000000: 1dc9 403d 6e84 efbc 2f44 c5bc 5747 9fbc
00000010: 1c85 d7bc 1314 d53b 67c8 b3bc 1879 33bc
00000020: 7cb4 a3bb e844 59bc 4845 cd3c 4e4f 353c
00000030: 0367 d5bc edb6 333d 4955 d83b 338a 0ebc
00000040: 21d3 243d e892 eebc 847d 0a3c 72f4 60bc
00000050: f009 663c 109f 02bc d7a7 87bb 29aa 0bbc
00000060: c446 bdbc a014 6cbc 1790 9ebc 0942 ae39
00000070: 91cf f03b 37ac 813a 3e41 adb9 3716 3d3d
00000080: d79d 48bd bd9c 9cbb 1fbd 4ebb 0862 81bc
00000090: 37d7 229c c5fd af9b 6160 549c 1064 8d99
000000a0: 7cf5 379a 0bfb 119b a2d6 f39b 891b 821b
000000b0: 4ae9 0b1c 2d30 c3bc c70b eebb a432 093c
000000c0: 29a4 89bb ca5f 11bd b483 33bc 1f8b b1bc
000000d0: d90d d1bc f716 8a3a 5958 463d 2c44 fbbc
000000e0: f220 e9bc 9b40 213d 5058 0fbc 455b e6bc
000000f0: 8f8b fabc afe2 0d3d ff85 953c 6d2f 123d
00000100: 9eb6 343d d7fc 0a3b ec8b acbc ed3b 01bc
00000110: 93d9 12bd 0825 163d 25e4 073d 7653 6ebc
00000120: 80c7 1a3d f63e 3ebd 418a ba3b fc83 ec3d
00000130: 37b6 d5bd ca5e 1fbb 6ff0 ee3c 4af3 edbc
00000140: 011d 0839 4bb1 1f3d 52e1 28bc 6ec8 863a
00000150: d14e c03c 78e9 8a3c 6b3c 773b 23c2 31ba
00000160: d5fe dbbc 890a edbc 2e66 56bc 44eb 183d
00000170: 5a2c 013c 4490 9c3d fe3e c6bc 0134 e2bc
00000180: 2436 983d bf97 24bd 7405 a4ba 4c2c 2b3c
00000190: e45f dc3b ea6f ca3c 9b3f ed3c 8b87 a4bc
000001a0: 084f 123c a947 093d 6778 9dbc 0409 afbc
000001b0: 41cf aabc 4b74 afbc c44d 33bb 01fd 2d3d
000001c0: 45e4 9d3d a715 943d 9caa e8bc 1629 15bd
000001d0: 673c 90bc 69dc 20bc 0c94 4cbb 7ec8 87bb
000001e0: 4103 81b9 c9a0 6b3c 9418 58bd 2801 cbbb
000001f0: 9af3 de3c 5cae 5a3d 012e 3dbc 6876 7bbc
00000200: 0b56 273b 6c28 14bd 2240 1a3b 311f 4e3d
00000210: f08f 39bd f5d1 e6bc 698a 3a3d b8f4 aabb
00000220: 5f08 2f3b 2293 943b 491f 4d3c 3abd 18bc
00000230: 8702 bbbb 644e 913c f3fe f83b f742 fa3c
00000240: 1c69 4c3c 41a9 58bc a54b bcbc 8b77 a7bb
00000250: db79 7a3b 42c4 a3bc 1ed1 b53a 7a56 e03c
00000260: 55cf 22bd 34b9 211a 4824 6c98 bd8a 1f98
00000270: ae77 ce99 6c5b 7218 c22b 6f9a 850c 8398
00000280: 6879 3819 81d6 a499 18fd 2dbc 765f bc3c
00000290: 7d31 473c 3b23 c43c 09b8 1abc 4514 ab3c
000002a0: c718 ce3c 03d0 02bd e079 1f3d c45c 7a3a
000002b0: f022 0e3c e8eb 36bb e47a a13b 9798 403c
000002c0: 554a e1bc 08e5 1fbd 503b d4bb f493 1c3d
000002d0: 65d6 83bc 2ead 43bc e266 8fbc 6c16 f6bc
000002e0: 9392 e7bc a300 e6bc b6c0 d5bc c2c5 3c3d
000002f0: 19ff 03bd 6ad3 9dbc e1a0 41bb 7c75 8b3b
00000300: 33d8 323b 5e0e 103c eca3 e23b 63d6 9fbb
00000310: d29e a2bc 042a 2cbd fd17 cb3c dc56 ba3b
00000320: e1cd abbb 67cb 79bc 0ffa 33bd 60c9 8e3c
00000330: fae7 55bd 5c09 6fbc 9a2c e9bb 5e11 703c
00000340: 26e0 5dbc 1c4f 283a afc7 febb 97f9 0d3c
00000350: b1de bcbb a764 ec3c cbb9 cc3a 8d05 89bd
00000360: 8cda d6bb fc1d 273b 9f63 b73b a722 e63b
00000370: 1165 55b9 cbdb d83b dcb8 11bc 54d8 2c3d
00000380: 68eb 4ebc 6490 5c3c 3052 893c 0e41 943c
00000390: c24c 3b3d ea76 fc3c 4da5 723d 6cd6 673d
000003a0: 5ea9 eb3c aba0 983d 989d 11bd 7fd3 3ab9
000003b0: 71fe 8cbb 7183 683b 75fd 56bc a62e 73bc
000003c0: 6bc7 9a39 15d3 8abb 8ed5 e4bc 9cc3 213d
000003d0: a4d1 27bc 6cbd a2bb 0ea9 ae3d 73d7 35bc
000003e0: 2f6d a9bc 7795 333d 7396 e2bc a686 aabb
000003f0: 4738 b9bb 975b a6bb 8c93 b3ba e5a6 27bb

dncnn.1.conv.bias f4 [13]
0.0223592 0.03107857 0.028617932 0.029909736 0.03747353 0.03070049 0.03657123 0.03443788
0.012939502 0.030478057 0.033248235 0.038441025 0.027587922
00000000: a42a b73c 7c98 fe3c 2770 ea3c 4305 f53c
00000010: d87d 193d 987f fb3c b7cb 153d bc0e 0d3d
00000020: 3400 543c 1ead f93c 4d2f 083d 5674 1d3d
00000030: 1100 e23c

dncnn.1.bn.weight f4 [13]
0.054739505 0.05586716 0.046976924 0.06396041 0.058806743 0.051114485 0.057495873 0.065493755
0.06426438 0.058640093 0.038094454 0.05342371 0.050273154
00000000: 8836 603d f7d4 643d e06a 403d adfd 823d
00000010: 57df 703d 6c5d 513d cb80 6b3d 9721 863d
00000020: 0b9d 833d 9830 703d ee08 1c3d d2d2 5a3d
00000030: 39eb 4d3d

dncnn.1.bn.bias f4 [13]
0.07914303 -0.007038908 0.04498177 0.069582835 -0.034483425 0.021898555 -0.009324166 -0.027063156
0.24306285 -0.004370243 0.060039483 -0.029609574 -0.030419828
00000000: be15 a23d a4a6 e6bb ce3e 383d 7281 8e3d
00000010: 7e3e 0dbd 9964 b33c 63c4 18bc 8db3 ddbc
00000020: 78e5 783e 4134 8fbb f6eb 753d c78f f2bc
00000030: 0133 f9bc

dncnn.1.bn.running_mean f4 [13]
0.047821324 0.045437705 0.01805795 0.07012579 0.022934591 0.042173337 0.038783014 0.068989344
-0.04871547 0.064527765 0.0320317 0.010069076 -0.051272016
00000000: 4be0 433d e31c 3a3d 44ee 933c 1c9e 8f3d
00000010: 53e1 bb3c f3bd 2c3d f0da 1e3d 494a 8d3d
00000020: df89 47bd 2227 843d ac33 033d c4f8 243c
00000030: 9b02 52bd

dncnn.1.bn.running_var f4 [13]
0.00029478248 0.0001444309 0.00013009796 0.00023119863 0.00013865196 0.00013745841 0.000113145645 0.000154932
0.0012283947 0.000171067 6.347914e-05 9.023286e-05 0.00014939507
00000000: 098d 9a39 6072 1739 e86a 0839 e96d 7239
00000010: 1a63 1139 b622 1039 9b48 ed38 3e75 2239
00000020: 1602 a13a 7360 3339 1b20 8538 663b bd38
00000030: efa6 1c39

dncnn.2.conv.weight f4 [13, 13, 3, 3]
-5.34752e-40 -5.86208e-40 2.70764e-40 3.26535e-40 -5.17757e-40 -4.06863e-40 -1.32256e-40 1.99356e-40
-2.61345e-40 9.6573e-41 -3.8732e-40 -4.61003e-40 5.26258e-40 4.8938e-41 -8.8067e-41 5.43403e-40
-3.6599e-41 6.12687e-40 -5.19104e-40 5.787e-41 -2.0476e-41 4.62801e-40 -5.317e-42 2.84029e-40
-5.96827e-40 4.10229e-40 -5.86599e-40 5.80154e-40 -2.82706e-40 2.9501e-40 2.34717e-40 -3.11165e-40
-1.14274e-40 -1.96989e-40 3.54733e-40 1.56106e-40 -5.9209e-40 -5.3618e-40 6.4953e-41 5.54024e-40
4.16763e-40 5.953e-41 -2.79213e-40 -5.65352e-40 -5.5176e-41 5.33902e-40 6.21861e-40 -5.40841e-40
5.59023e-40 3.3061e-40 7.799e-41 7.1993e-41 2.69744e-40 -4.81525e-40 -3.07954e-40 -6.01353e-40
-1.4576e-41 -3.539e-41 4.3777e-41 -4.3539e-40 -2.22861e-40 -2.59446e-40 4.41321e-40 -5.91093e-40
5.1272e-40 -4.56146e-40 4.81083e-40 6.21643e-40 3.57613e-40 6.21449e-40 -1.30577e-40 4.2117e-41
-4.8127e-40 -5.96002e-40 -1.6311e-41 -1.00323e-40 3.4476e-41 -1.19934e-40 -1.39917e-40 -5.30083e-40
4.58946e-40 -2.80513e-40 -2.20113e-40 -5.18207e-40 -3.52515e-40 3.2448e-41 4.09616e-40 3.40049e-40
-1.8913e-40 -3.45129e-40 2.8315e-40 -3.0164e-41 -2.0973e-41 4.61463e-40 6.27828e-40 -3.98323e-40
2.7062e-40 4.96553e-40 -4.59699e-40 -5.02017e-40 4.77683e-40 6.32545e-40 -5.08678e-40 -3.45525e-40
5.92753e-40 1.98202e-40 -3.15876e-40 3.23117e-40 -3.21008e-40 1.32637e-40 -5.29971e-40 -3.49407e-40
4.26698e-40 -2.1173e-40 -5.77069e-40 -3.45431e-40 -3.65546e-40 0.016209945 0.020886127 0.019567518
0.034012336 0.02336986 0.01579432 -0.012688309 0.024534531 -0.013860472 -0.0041063707 -0.013520259
-0.020746162 -0.010661656 0.002820265 0.020038292 0.0123714795 0.01897956 -0.0003282616 0.02526861
-0.0030572948 0.01072678 0.020335706 0.028529122 0.04914977 -0.012976994 -0.007129105 0.00992193
0.018604187 -0.0011810195 -0.022837194 -0.007231496 0.0033295322 -0.027784452 -0.016686223 -0.005896501
-0.023801634 0.011386047 -0.026651924 -0.013199745 -0.03494848 -0.023664529 -0.020711916 -0.012107567
0.00060408824 -0.0011039835 0.02074991 0.024046073 -0.028873138 -0.020343134 0.012977275 -0.022378916
-0.049221173 -0.0039080787 0.0013881457 -0.042634778 0.0134779345 0.0040860693 -0.0300584 0.067453906
-0.012226447 0.0019874969 0.03242327 -0.023114642 0.03909239 -0.0012750846 0.03074864 0.06286424
0.0059800576 -0.03002741 0.037676867 0.003798872 0.036640864 -0.035976492 0.0022958878 -0.0046839253
0.009662121 0.064595364 -0.00061104906 0.0038637375 -0.029469887 -0.009477919 0.03749178 0.013713442
0.040842563 0.008420956 0.07743232 0.07354595 -0.03123984 0.032168698 0.05957405 -0.017546443
-0.051153984 -0.02382062 -0.048402365 -0.05238028 0.005722423 -0.014497522 0.034619212 0.0044161757
-0.031698223 -0.008179535 0.018152514 0.021798484 0.012815119 -0.032015048 0.011790331 0.0013215074
-0.019674929 0.01773806 -0.008472005 -0.0032734652 -0.01184603 -0.04621171 -0.02331315 0.019695882
0.00722987 -0.017463116 0.015052925 0.013570873 -0.0022671272 0.0005627789 0.009223928 0.001942801
0.013397386 -0.013582142 -0.057382885 -0.047855534 -0.00018651811 0.018095559 0.030821238 0.040546846
0.014966039 0.009460994 0.006132331 -0.0031393263 -0.004881293 0.005903991 -0.039765283 0.02508554
00000000: acd2 0580 1c62 0680 c8f2 0200 3f8e 0300
00000010: 4ca3 0580 2b6e 0480 ad70 0180 b92b 0200
00000020: 86d8 0280 350d 0100 b137 0480 1705 0580
00000030: feba 0500 6b88 0000 7ff5 0080 c9ea 0500
00000040: 0666 0080 ecab 0600 0da7 0580 51a1 0000
00000050: 1439 0080 1a0a 0500 d20e 0080 c217 0300
00000060: b67f 0680 8d77 0400 3363 0680 3c51 0600
00000070: 1214 0380 5e36 0300 4c8e 0200 6763 0380
00000080: 8d3e 0180 2025 0280 dadc 0300 29b3 0100
00000090: 8272 0680 a7d6 0580 10b5 0000 6508 0600
000000a0: c489 0400 f2a5 0000 550a 0380 f927 0680
000000b0: cf99 0080 4dd0 0500 7fc5 0600 a5e3 0580
000000c0: 5416 0600 9b99 0300 68d9 0000 b0c8 0000
000000d0: f0ef 0200 4c3e 0580 735a 0380 548c 0680
000000e0: a228 0080 a762 0080 087a 0000 b1bd 0480
000000f0: 3f6d 0280 3bd3 0280 39ce 0400 ba6f 0680
00000100: 4195 0500 8df7 0480 103d 0500 e3c4 0600
00000110: e1e4 0300 59c4 0600 ff6b 0180 6875 0000
00000120: 963d 0580 697d 0680 782d 0080 a917 0180
00000130: 1b60 0000 544e 0180 0886 0180 a8c5 0580
00000140: 5bff 0400 f50d 0380 9665 0280 8da4 0580
00000150: abd6 0380 745a 0000 d875 0400 ebb3 0300
00000160: 380f 0280 14c2 0380 4f15 0300 1654 0080
00000170: 773a 0080 5f06 0500 21d6 0600 5d56 0480
00000180: 61f2 0200 3068 0500 7401 0580 6b77 0580
00000190: 9633 0500 47e3 0600 fd89 0580 2fc3 0380
000001a0: 5b74 0600 8228 0200 8970 0380 b884 0300
000001b0: d77e 0380 bd71 0100 58c5 0580 01ce 0380
000001c0: 76a5 0400 384e 0280 a248 0680 ecc2 0380
000001d0: fefa 0380 b8ca 843c 6219 ab3c 0f4c a03c
000001e0: 8550 0b3d 2672 bf3c 1763 813c a0e2 4fbc
000001f0: a4fc c83c 0817 63bc bc8e 86bb 1484 5dbc
00000200: dbf3 a9bc 3aae 2ebc 32d4 383b 5827 a43c
00000210: bfb1 4a3c 067b 9b3c 871a acb9 1e00 cf3c
00000220: e55c 48bb 60bf 2f3c 1197 a63c e8b5 e93c
00000230: 4551 493d 759d 54bc 449b e9bb 978f 223c
00000240: cf67 983c 70cc 9aba 1115 bbbc 2ff6 ecbb
00000250: 4834 5a3b 389c e3bc 8cb1 88bc 6f37 c1bb
00000260: a5fb c2bc 8b8c 3a3c 2355 dabc be43 58bc
00000270: 2326 0fbd 1ddc c1bc 09ac a9bc d15e 46bc
00000280: ad5b 1e3a 8ab3 90ba b7fb a93c 45fc c43c
00000290: 5c87 ecbc a5a6 a6bc a39e 543c fd53 b7bc
000002a0: 249c 49bd 570f 80bb 71f2 b53a cea1 2ebd
000002b0: 8ed2 5c3c 6fe4 853b 093d f6bc 4625 8a3d
000002c0: 7051 48bc aa40 023b 43ce 043d eb5a bdbc
000002d0: 581f 203d bd20 a7ba 92e4 fb3c f7be 803d
000002e0: 5cf4 c33b 0bfc f5bc 0f53 1a3d 7ff6 783b
000002f0: bb14 163d 165c 13bd 9b76 163b 9d7b 99bb
00000300: df4d 1e3c 934a 843d cf2e 20ba c236 7d3b
00000310: d56a f1bc 4649 1bbc fb90 193d 58ae 603c
00000320: 884a 273d 0df8 093c d694 9e3d 429f 963d
00000330: b1ea ffbc 53c3 033d eb03 743d 8fbd 8fbc
00000340: d786 51bd 7623 c3bc 8f41 46bd b48c 56bd
00000350: 2a83 bb3b 0487 6dbc e0cc 0d3d 91b5 903b
00000360: ffd5 01bd 7503 06bc 95b4 943c bc92 b23c
00000370: 81f6 513c 3622 03bd 3c2c 413c 6e36 ad3a
00000380: 512d a1bc 684f 913c 2ace 0abc a287 56bb
00000390: da15 42bc 7d48 3dbd 38fb bebc 4259 a13c
000003a0: 8ce8 ec3b cf0e 8fbc 8ba0 763c 5e58 5e3c
000003b0: 1594 14bb 7487 133a f51f 173c 96a5 fe3a
000003c0: b680 5b3c a287 5ebc 510a 6bbd 2a04 44bd
000003d0: 1394 43b9 233d 943c d27c fc3c 7314 263d
000003e0: 1e34 753c 4902 1b3c b9f1 c83b 28bd 4dbb
000003f0: 41f3 9fbb 4476 c13b ece0 22bd 3180 cd3c

dncnn.2.conv.bias f4 [13]
-4.76852e-40 0.047284562 0.05532473 0.030118965 0.026843473 0.030713713 0.03419416 0.01582225
0.024011357 0.045645833 0.044250205 0.031965215 0.036850333
00000000: 4531 0580 75ad 413d 2f9c 623d 0cbc f63c
00000010: d8e6 db3c 539b fb3c 2d0f 0c3d aa9d 813c
00000020: 77b3 c43c 20f7 3a3d b43f 353d f5ed 023d
00000030: 60f0 163d

dncnn.2.bn.weight f4 [13]
-5.6594e-41 0.07632104 0.0918697 0.032742772 0.035835244 0.051007163 0.04622142 0.060574792
0.048225556 0.056123696 0.062215384 0.05183738 0.05638617
00000000: c39d 0080 354e 9c3d 2e26 bc3d 491d 063d
00000010: fac7 123d e3ec 503d ac52 3d3d 461d 783d
00000020: 2988 453d f6e1 653d 8fd5 7e3d 6f53 543d
00000030: 2ff5 663d

dncnn.2.bn.bias f4 [13]
-8.464223e-29 -0.05796304 -0.12800676 0.08371451 0.12282629 0.018216189 0.045496713 0.22864492
0.08738105 -0.019003415 0.036793765 0.021374814 0.039101563
00000000: f397 d690 a76a 6dbd 3414 03be 8372 ab3d
00000010: 5a8c fb3d 1e3a 953c c35a 3a3d e521 6a3e
00000020: d6f4 b23d 0dad 9bbc 0fb5 163d 3c1a af3c
00000030: f628 203d

dncnn.2.bn.running_mean f4 [13]
1.7116758e-20 0.052625414 0.03242137 0.02972718 -0.0045971684 0.04016351 0.014882806 -0.0976806
0.028907018 0.03323379 0.03107127 0.013087566 0.046667304
00000000: c8a9 a11e bf8d 573d 45cc 043d 6a86 f33c
00000010: d8a3 96bb 7e82 243d 03d7 733c c40c c8bd
00000020: 69ce ec3c 2820 083d 2d89 fe3c 3b6d 563c
00000030: 3726 3f3d

dncnn.2.bn.running_var f4 [13]
7.3454824e-28 0.00011298388 0.00010552643 5.5272965e-05 7.9549696e-05 0.00012680673 7.884562e-05 0.0007749319
0.00018170952 6.702014e-05 0.00010229885 0.00012376526 0.000120089244
00000000: a2c9 6812 c2f1 ec38 124e dd38 e5d4 6738
00000010: ebd3 a638 6cf7 0439 eb59 a538 cd24 4b3a
00000020: 4789 3e39 2a8d 8c38 4789 d638 fcc6 0139
00000030: 6cd8 fb38

dncnn.3.conv.weight f4 [13, 13, 3, 3]
2.64653e-40 4.00861e-40 -4.47395e-40 6.15904e-40 -2.2531e-40 5.59293e-40 4.27134e-40 -2.473e-40
-2.08561e-40 0.045529474 -0.013813799 -0.010442052 -0.014416168 -0.024787065 0.022321044 -0.007276924
0.0046662604 0.015055328 -0.02592324 -0.029993149 0.010421763 0.019592086 -0.02051953 -0.02168798
0.017152183 0.009040759 -0.0074103232 -0.029280169 0.00013615885 0.037907496 -0.006360161 0.032831907
0.018881124 -0.0061357287 0.021859922 0.03836777 -0.06123565 -0.046470873 -0.00838922 0.019325785
-0.031820446 -0.03568728 -0.024397692 -0.04303995 -0.016820816 0.0040292894 -0.019089568 -0.010652602
0.023071814 -0.045646172 0.018300584 0.02305818 -0.032474916 -0.0046849507 0.012748531 -0.0036181011
-0.011283018 -0.049620192 -0.05012473 -0.04727588 0.0016815201 -0.0050663915 0.010169243 0.0340883
0.0065276837 -0.015753224 0.033687536 0.00366312 -0.008090113 0.03694976 0.0034808528 -0.014910895
0.010156051 0.027954174 0.010053027 -0.043118328 -0.03514373 0.0025861033 0.026066037 -0.019886514
-0.014482704 -0.020307174 -0.02577653 -0.027169753 0.01597316 0.0056488262 0.029587593 0.021242537
0.004878741 0.021088451 0.03924423 0.011383048 0.048904665 0.01108982 0.0047735516 0.00805937
0.037765853 0.031742062 0.055512123 -0.036745105 0.027626082 0.050921954 -0.0024975976 -0.020293424
0.010371406 0.05592872 -0.039858345 -0.05067727 0.05862977 0.025604798 0.017473977 -0.020477327
-0.014505772 -0.03349452 -0.048083764 -0.023163527 -0.003596168 1.16608e-40 5.77482e-40 2.03854e-40
2.09931e-40 5.13409e-40 6.8343e-41 -4.93324e-40 -4.26166e-40 5.68264e-40 -0.008875488 -0.049516667
-0.03838436 -0.047721818 -0.003678889 -0.0031584832 -0.0082767755 -0.0064283498 -0.07407415 0.018710919
0.022592504 0.021966117 0.004455168 -0.03192333 -0.0059385607 0.010612989 -0.026911085 0.021178272
-0.005585583 -0.004662699 0.04771875 -0.0026082187 0.032289248 0.026315382 0.015182479 0.024142746
-0.015041102 -0.004760535 -0.03751973 -0.010674426 -0.047978472 0.026567208 -0.011832443 0.008961003
0.03210551 0.0022502553 0.005460235 0.0045636864 0.024369426 0.026614703 0.015544763 0.010618925
0.014913473 0.0065655215 0.0065461034 -0.004495314 -0.027385395 -0.040195473 -0.0009992674 -0.0060232226
-0.009859159 0.03315505 0.025789533 0.017473835 0.0049371575 0.026910374 -0.016860858 0.026168428
-0.054617446 -0.016055495 -0.025748124 -0.053539347 0.042660132 -0.005772969 0.013234237 0.016039234
0.0074763456 0.022570351 0.025547069 0.038820177 0.010840958 0.026622098 -0.011303671 -0.013813379
-0.037424948 0.016318949 0.019292539 -0.0015034807 -0.006925536 0.03321482 0.023009282 0.006318478
0.00515517 0.005445867 0.006604242 -0.008563674 0.006365126 0.010858317 0.01092864 0.012589006
-0.02253964 -0.0043604523 0.037178263 -0.015987465 -0.007270844 0.01317545 -0.009371193 0.01145465
0.015149207 0.028458962 0.0027858675 0.032486256 -0.008858569 -0.017910443 -0.006157737 -0.004992568
-0.042038526 -0.029610664 4.26006e-40 -3.67573e-40 3.20631e-40 1.37567e-40 -5.06107e-40 -1.86535e-40
5.67969e-40 -5.38672e-40 -5.65683e-40 -0.001755129 -0.02245033 0.0046255793 -0.0048075267 0.012278389
0.0089198835 -0.02357444 0.00014844505 -0.017329738 -0.0016385539 -0.017992653 0.020516394 -0.001819962
00000000: bfe1 0200 705d 0400 28df 0480 e4b4 0600
00000010: 1374 0280 1517 0600 ada6 0400 5fb1 0280
00000020: 6245 0280 1d7d 3a3d 4653 62bc 2415 2bbc
00000030: cb31 6cbc 3e0e cbbc 9fda b63c 4373 eebb
00000040: 6ee7 983b 9faa 763c fa5c d4bc 31b4 f5bc
00000050: 0bc0 2a3c 957f a03c 9318 a8bc feaa b1bc
00000060: bc82 8c3c b11f 143c 4cd2 f2bb f7dc efbc
00000070: ddc5 0e39 e444 1b3d e668 d0bb c07a 063d
00000080: 96ac 9a3c 390e c9bb 9413 b33c 8627 1d3d
00000090: 3cd2 7abd 3e58 3ebd f072 09bc 1c51 9e3c
000000a0: 2856 02bd d32c 12bd abdd c7bc a94a 30bd
000000b0: cfcb 89bc 2108 843b ba61 9cbc 4088 2ebc
000000c0: 1a01 bd3c 7bf7 3abd 1beb 953c 82e4 bc3c
000000d0: 6b04 05bd 3784 99bb 37df 503c aa1d 6dbb
000000e0: 68dc 38bc 8b3e 4bbd 974f 4dbd 5aa4 41bd
000000f0: 7466 dc3a f903 a6bb e69c 263c 2ca0 0b3d
00000100: 2ee6 d53b e80c 81bc f1fb 093d f510 703b
00000110: 658c 04bc a258 173d 051f 643b d44c 74bc
00000120: 9165 263c 2700 e53c 74b5 243c d89c 30bd
00000130: dff2 0fbd 9d7b 293b 7188 d53c 0be9 a2bc
00000140: dd48 6dbc 3b5b a6bc 4d29 d3bc 1a93 debc
00000150: 25da 823c ca19 b93b ae61 f23c d404 ae3c
00000160: d9dd 9f3b b0c1 ac3c 8fbe 203d f77f 3a3c
00000170: 4250 483d 14b2 353c 746b 9c3b 730b 043c
00000180: 5eb0 1a3d f703 023d ae60 633d 0982 16bd
00000190: 1850 e23c 8a93 503d bcae 23bb 653e a6bc
000001a0: d4ec 293c 8315 653d 8142 23bd f892 4fbd
000001b0: c525 703d 27c1 d13c 9625 8f3c 11c0 a7bc
000001c0: 9ea9 6dbc 8d31 09bd 7bf3 44bd 70c1 bdbc
000001d0: b0ad 6bbb 0e45 0100 c949 0600 4338 0200
000001e0: 3449 0200 2d97 0500 83be 0000 305f 0580
000001f0: faa3 0480 1730 0600 7f6a 11bc fdd1 4abd
00000200: eb38 1dbd f477 43bd 8419 71bb 8efe 4ebb
00000210: 509b 07bc e8a4 d2bb 30b4 97bd a447 993c
00000220: ea13 b93c 49f2 b33c a8fc 913b 0ac2 02bd
00000230: 4298 c2bb 1ae2 2d3c a374 dcbc 0e7e ad3c
00000240: 4407 b7bb 8ec9 98bb bc74 433d a6ee 2abb
00000250: bb41 043d 5b93 d73c efbf 783c 02c7 c53c
00000260: f46e 76bc 43fe 9bbb 4aae 19bd cae3 2ebc
00000270: 1385 44bd 79a3 d93c dddc 41bc 2cd1 123c
00000280: 1181 033d 0579 133b c5eb b23b fa8a 953b
00000290: 64a2 c73c 1407 da3c 76af 7e3c 00fb 2d3c
000002a0: a457 743c 9623 d73b b280 d63b 6d4d 93bb
000002b0: 5657 e0bc 02a4 24bd daf9 82ba 745e c5bb
000002c0: 4f88 21bc 97cd 073d 9244 d33c 4a25 8f3c
000002d0: e1c7 a13b 2573 dc3c c81f 8abc 2c5f d63c
000002e0: 8bb6 5fbd d086 83bc bbed d2bc 134c 5bbd
000002f0: 64bc 2e3d 2d2b bdbb 6ad4 583c b664 833c
00000300: 22fc f43b 75e5 b83c 1648 d13c e801 1f3d
00000310: 469e 313c 9616 da3c 0833 39bc 8351 62bc
00000320: e74a 19bd 51af 853c 630b 9e3c 7110 c5ba
00000330: 9bef e2bb 430c 083d f67d bc3c 3c0b cf3b
00000340: b3ec a83b 3e73 b23b 6668 d83b a74e 0cbc
00000350: 8c92 d03b 15e7 313c 0a0e 333c 1e42 4e3c
00000360: 0da5 b8bc 20e2 8ebb 3c48 183d 25f8 82bc
00000370: 4340 eebb d8dd 573c a289 19bc 49ac 3b3c
00000380: 6134 783c c522 e93c 1a93 363b 4f10 053d
00000390: 8823 11bc ecb8 92bc d8c6 c9bb b298 a3bb
000003a0: 9730 2cbd 1092 f2bc 88a3 0400 a500 0480
000003b0: ca7d 0300 7b7f 0100 d282 0580 fc07 0280
000003c0: 442f 0600 99dd 0580 e528 0680 5b0c e6ba
000003d0: c1e9 b7bc 2c92 973b 7588 9dbb 4c2b 493c
000003e0: b424 123c 2f1f c1bc eaa7 1b39 18f7 8dbc
000003f0: bfc4 d6ba 5465 93bc ff11 a83c cb8b eeba

dncnn.3.conv.bias f4 [13]
0.019478662 0.021741336 0.01803247 0.021877954 5.25177e-40 0.018485093 0.025545115 0.018920897
0.020431664 0.023844061 0.018132234 0.0211832 0.016479539
00000000: b791 9f3c e31a b23c d5b8 933c 6539 b33c
00000010: fbb7 0500 0d6e 973c fd43 d13c ffff 9a3c
00000020: 4e60 a73c 9f54 c33c 0d8a 943c 6488 ad3c
00000030: 1900 873c

dncnn.3.bn.weight f4 [13]
0.025445074 0.03169669 0.029332628 0.029258447 -3.63005e-40 0.023835655 0.030866664 0.02288849
0.032429963 0.030549465 0.024884019 0.079200685 0.019546315
00000000: 3072 d03c 63d4 013d fb4a f03c 69af ef3c
00000010: e9f3 0380 fe42 c33c 16dc fc3c a580 bb3c
00000020: 48d5 043d df42 fa3c 92d9 cb3c f833 a23d
00000030: 981f a03c

dncnn.3.bn.bias f4 [13]
0.011909812 0.045778915 0.012204022 0.033954903 -2.5588703e-25 0.00031746575 0.027482167 0.013724875
0.0050300253 0.03388058 0.0024758212 0.29101044 0.0031326888
00000000: 5f21 433c ac82 3b3d 61f3 473c 4c14 0b3d
00000010: eb62 9e96 8871 a639 4822 e13c 4cde 603c
00000020: e9d2 a43b 5dc6 0a3d 6341 223b 52ff 943e
00000030: cc4d 4d3b

dncnn.3.bn.running_mean f4 [13]
0.014422457 0.026282782 0.058995817 0.028065966 1.2206025e-22 0.027230758 0.037392892 0.052130572
0.030147918 0.05287417 0.027061762 0.04906114 0.028733058
00000000: 2b4c 6c3c fd4e d73c 99a5 713d 99ea e53c
00000010: d18f 131b 0a13 df3c 4a29 193d de86 553d
00000020: c4f8 f63c 9692 583d a1b0 dd3c 55f4 483d
00000030: 9761 eb3c

dncnn.3.bn.running_var f4 [13]
8.5177264e-05 0.000116663265 0.0001341391 7.8484496e-05 1.8206521e-30 6.6942004e-05 7.413222e-05 6.6641944e-05
0.00012814363 8.268431e-05 9.602665e-05 0.00066230336 6.42743e-05
00000000: 32a1 b238 1da9 f438 b1a7 0c39 0b98 a438
00000010: 77b5 130e 3763 8c38 6f77 9b38 1fc2 8b38
00000020: 4b5e 0639 cd66 ad38 ea61 c938 6d9e 2d3a
00000030: 01cb 8638

dncnn.4.conv.weight f4 [1, 13, 3, 3]
-0.033131987 -0.022352172 0.052509293 -0.053534966 -0.016851684 0.09746135 -0.01892616 -0.028556453
0.03381867 0.10173549 -0.036591873 -0.03628896 -0.0025584733 -0.11254708 0.053354356 -0.010063493
0.024361905 0.02591689 0.028303528 0.086596794 0.045304604 0.0009629683 -0.013359983 -0.0167686
-0.032586146 -0.08283547 -0.03345799 0.03692976 0.034943704 0.049183216 -0.039826 -0.0890827
-0.06253977 0.00853155 0.059177257 0.025646713 5.17288e-40 -6.2771e-40 -2.16093e-40 1.33591e-40
-2.67968e-40 -7.136e-41 3.46e-42 -3.2014e-40 -3.30526e-40 -0.1254537 0.025336968 0.018891033
0.034344543 0.017909927 -0.014321605 0.037531506 -0.012236106 0.00063753035 -0.01716956 0.028331105
-0.009108534 -0.09367753 0.06534317 -0.006261129 -0.02361688 0.08958593 -0.04374297 -0.030162824
-0.08291873 -0.003776719 0.016352283 -0.032408528 0.0101073105 0.026660163 0.10318922 -0.01636035
0.04065757 -0.025216183 -0.033507396 0.12144343 -0.0571062 -0.0118036475 0.04312515 -0.036910154
-0.013551655 0.025891693 0.058736004 -0.11170666 -0.048882253 0.07189999 0.03483883 -0.019511506
-0.033805408 0.023737237 0.0015782316 0.011128886 0.018086808 0.026088247 0.026348667 -0.11623274
0.018230315 0.03015991 -0.052856322 -0.0142486505 -0.08234963 -0.012808066 -0.10907721 0.34471032
-0.05589924 -0.022104315 -0.040745042 -0.012795168 -0.04541065 -0.031189539 -0.056274585 -0.011687948
-0.0048532076 -0.0010193681 0.035277076 0.049619503 0.06314181
00000000: 68b5 07bd e71b b7bc fc13 573d 7b47 5bbd
00000010: 8b0c 8abc d199 c73d 090b 9bbc 39ef e9bc
00000020: 7285 0a3d b25a d03d 5ce1 15bd bca3 14bd
00000030: 0fac 27bb 157f e6bd 198a 5a3d 59e1 24bc
00000040: 9e92 c73c a84f d43c cddc e73c a959 b13d
00000050: 5291 393d b56f 7c3a d5e3 5abc 4e5e 89bc
00000060: 0d79 05bd a5a5 a9bd 3f0b 09bd a943 173d
00000070: 2121 0f3d 5774 493d 9620 23bd fe70 b6bd
00000080: da14 80bd eac7 0b3c da63 723d 0e19 d23c
00000090: fda1 0500 cdd5 0680 615a 0280 6674 0100
000000a0: fcea 0280 ecc6 0080 a509 0000 6c7c 0380
000000b0: 5f99 0380 ef76 00be 798f cf3c 5ec1 9a3c
000000c0: ddac 0c3d d7b7 923c 2aa5 6abc a3ba 193d
000000d0: f379 48bc f01f 273a 2da7 8cbc a216 e83c
000000e0: f63b 15bc 01da bfbd a4d2 853d 282a cdbb
000000f0: 3078 c1bc d478 b73d d42b 33bd 0718 f7bc
00000100: 4cd1 a9bd d582 77bb 39f5 853c cebe 04bd
00000110: 2299 253c 6a66 da3c df54 d33d 2406 86bc
00000120: 8d88 263d 2b92 cebc 0d3f 09bd 55b7 f83d
00000130: 31e8 69bd 1664 41bc ffa3 303d 1a2f 17bd
00000140: c307 5ebc d11a d43c 2a95 703d 76c6 e4bd
00000150: c238 48bd 4d40 933d 29b3 0e3d 98d6 9fbc
00000160: 8a77 0abd 9874 c23c aadc ce3a ee55 363c
00000170: c92a 943c 05b7 d53c 29d9 d73c 6e0b eebd
00000180: be57 953c ea11 f73c df7f 58bd 2c73 69bc
00000190: eca6 a8bd ecd8 51bc df63 dfbd df7d b03e
000001a0: 9af6 64bd 1c14 b5bc 46e4 26bd d3a2 51bc
000001b0: 8500 3abd 3481 ffbc 2e80 66bd cf7e 3fbc
000001c0: a807 9fbb 519c 85ba b27e 103d d23d 4b3d
000001d0: 7e50 813d

dncnn.5.conv.weight f4 [13, 1, 3, 3]
-0.024801528 -0.047980484 -0.03208631 0.0013773871 0.055219665 0.0053871656 -0.021267697 -0.03929323
-0.024078127 -4.1199145e-12 -2.366527e-14 -2.7669214e-11 -1.088772e-11 -5.2165884e-12 -8.887796e-16 1.4609874e-11
-6.0402805e-10 -5.4686013e-11 -2.3134524e-22 -3.4121304e-22 -3.27895e-22 -1.0322877e-21 -6.7309434e-22 -5.690532e-22
-7.23945e-22 -1.0730739e-21 -1.0057329e-21 -0.027523983 -0.05214043 -0.010065727 -0.060786597 -0.32871598
-0.060736846 -0.021857983 -0.036129367 -0.024070352 2.3125669e-38 5.83309e-40 -1.7163829e-28 -2.13698e-40
-1.252e-41 -2.3654476e-29 -2.98252e-40 -3.62048e-40 6.896176e-28 -5.04945e-40 -3.7329e-40 -6.13675e-40
5.62544e-40 -5.4339e-40 1.4659164e-35 -2.6548e-40 -1.4896e-41 3.05236e-40 -4.106618e-27 -1.2585622e-26
-1.5715388e-24 -5.3796833e-28 -2.8955162e-30 -8.844506e-25 -3.754772e-26 -2.6013103e-25 -1.9443049e-26 4.41807e-40
-4.07652e-40 3.31815e-40 6.23488e-40 -8.0526e-41 -4.87414e-40 5.1484e-40 1.88196e-40 2.23155e-40
-0.0017033209 -0.004178316 -0.0023331468 -0.0038679147 -0.0082782945 -0.0047958167 -0.0013949696 -0.00374356
-0.0018470796 -0.034009438 -0.05219786 -0.030575586 -0.056499578 -0.08509716 -0.054297585 -0.032424714
-0.04461374 -0.0216718 -0.063985385 0.019367307 0.018764218 -0.09048166 0.07946443 0.035357133
-0.056222226 0.023302972 0.014605008 -0.00993124 0.034096997 0.0012745273 0.047303766 0.12202998
0.016275162 0.004561831 0.01222316 -0.006293616 -8.87e-41 -5.12282e-40 -2.01442e-40 8.3866e-41
1.85055e-40 5.27467e-40 5.3088e-41 -5.59454e-40 1.01315e-40
00000000: 932c cbbc 2f87 44bd ef6c 03bd 7189 b43a
00000010: 042e 623d d286 b03b 9839 aebc f0f1 20bd
00000020: 7e3f c5bc e4f4 90ac 6628 d5a8 8861 f3ad
00000030: ef89 3fad da8a b7ac 2e16 80a6 8382 802d
00000040: b208 26b0 fa82 70ae f1d6 8b9b 2940 ce9b
00000050: 4b33 c69b b2fe 9b9c 276e 4b9c 5cfc 2b9c
00000060: 88cc 5a9c 8928 a29c 68fb 979c fa79 e1bc
00000070: 3491 55bd b8ea 24bc 5efb 78bd 764d a8be
00000080: 33c7 78bd 830f b3bc 63fc 13bd 302f c5bc
00000090: f5d0 fb00 075a 0600 cf93 5991 b453 0280
000000a0: e722 0080 88e2 ef8f 683f 0380 3ef1 0380
000000b0: 6d8c 5a12 957f 0580 9510 0480 adae 0680
000000c0: 2520 0600 c0ea 0580 0ae2 9b05 0de4 0280
000000d0: 8629 0080 e052 0300 0eae a293 af48 7994
000000e0: 112f f397 2d7d 2a92 85e9 6a8e b3dc 8897
000000f0: 64ed 3995 6803 a196 fc8d c094 94cf 0400
00000100: 5e70 0480 f79c 0300 08ca 0600 79e0 0080
00000110: b64e 0580 2a9b 0500 9d0c 0200 116e 0200
00000120: f741 dfba 41ea 88bb b5e7 18bb d77c 7dbb
00000130: afa1 07bc 3a26 9dbb 6ad7 b6ba 8456 75bb
00000140: b519 f2ba 7b4d 0bbd 6ccd 55bd a779 fabc
00000150: 1a6c 67bd 6b47 aebd 2567 5ebd c7cf 04bd
00000160: e6bc 36bd 0f89 b1bc c50a 83bd 30a8 9e3c
00000170: 6bb7 993c 734e b9bd 3fbe a23d a4d2 103d
00000180: 4749 66bd e0e5 be3c d849 6f3c a4b6 22bc
00000190: 4ba9 0b3d 0a0e a73a 98c1 413d dbea f93d
000001a0: 7d53 853c 697b 953b a643 483c ad3a cebb
000001b0: 42f7 0080 0994 0580 8a31 0280 c9e9 0000
000001c0: dc03 0200 5dbe 0500 fd93 0000 8817 0680
000001d0: 6d1a 0100

dncnn.5.conv.bias f4 [13]
0.012475884 7.3853e-41 -2.3183371e-23 0.016671313 -4.27975e-40 -3.05695e-40 -6.4104387e-37 7.127e-42
-0.113383554 0.02088632 0.023769844 0.010930148 -5.9925024e-37
00000000: a667 4c3c dfcd 0000 3f37 e099 4792 883c
00000010: 05a9 0480 2754 0380 cc22 5a83 de13 0000
00000020: a335 e8bd ca19 ab3c fab8 c23c 5d14 333c
00000030: 0fea 4b83

dncnn.5.bn.weight f4 [13]
0.017006898 -9.9516144e-24 -2.4049164e-18 0.03775793 1.6199677e-12 -3.4152606e-18 -4.878754e-13 4.5409633e-33
-0.14812064 0.025764685 0.04735094 0.01009292 -1.869145e-17
00000000: 0d52 8b3c 027e 4099 9673 31a2 0fa8 1a3d
00000010: 7dfd e32b 7300 7ca2 2153 09ab ce9f bc09
00000020: f0ac 17be 7610 d33c 0ff3 413d c65c 253c
00000030: f065 aca3

dncnn.5.bn.bias f4 [13]
-0.02099759 -9.099985e-21 -4.3949435e-09 0.19915804 -8.492983e-22 -6.781642e-33 -5.3396698e-21 -2.4077021e-23
-0.0056670327 -0.07419802 -0.063844174 0.09560882 -1.71146e-30
00000000: 2303 acbc d4e4 2b9e 5502 97b1 16f0 4b3e
00000010: a357 809c 65d9 0c8a 1eba c99d d1db e899
00000020: 84b2 b9bb 22f5 97bd bcc0 82bd 8fce c33d
00000030: a2d9 0a8e

dncnn.5.bn.running_mean f4 [13]
-0.021839071 -6e-45 -6e-45 -0.15901564 6e-45 6e-45 6e-45 5.445183e-12
-0.12237429 -0.09367621 0.019518692 0.07389125 2.3735144e-36
00000000: dae7 b2bc 0400 0080 0400 0080 ffd4 22be
00000010: 0400 0000 0400 0000 0400 0000 d995 bf2c
00000020: 5f9f fabd 50d9 bfbd aae5 9f3c 4c54 973d
00000030: 91ea 4904

dncnn.5.bn.running_var f4 [13]
7.565804e-05 6e-45 6e-45 0.00024456604 6e-45 6e-45 6e-45 6.4901987e-19
3.3798423e-07 6.710463e-05 0.0001967776 3.520313e-05 1.18e-43
00000000: 9aaa 9e38 0400 0000 0400 0000 1939 8039
00000010: 0400 0000 0400 0000 0400 0000 8e8e 3f21
00000020: 3374 b534 86ba 8c38 1656 4e39 13a7 1338
00000030: 5400 0000

dncnn.6.conv.weight f4 [13, 13, 3, 3]
-0.016420044 -0.018094093 -0.012482252 0.033992216 -0.020260414 0.02351678 -0.023512902 -0.019188983
-0.010587903 -2.1845535e-31 -1.8335546e-33 6.20446e-40 -2.3727949e-33 3.1553393e-34 3.7720256e-29 2.357692e-28
-8.1125275e-36 2.4740323e-29 -1.5861902e-34 -7.289543e-35 3.995149e-38 2.0823995e-36 -7.905116e-33 -3.9685297e-29
-2.1948239e-36 1.1875805e-24 1.7978486e-37 -0.011788018 0.006781942 -0.006948833 -0.012079742 0.31081054
-0.0051588113 -0.016185233 0.021310434 -0.0054177633 -9.0260024e-35 2.346692e-36 2.494564e-37 6.2938416e-30
1.4248587e-26 -1.1295549e-28 -1.123382e-38 1.8558116e-38 -1.071902e-39 -4.51096e-40 -9.3989043e-32 1.66157e-39
-3.251527e-27 -5.277521e-29 -1.0408517e-37 -4.9302e-41 1.4152626e-30 5.66216e-40 6.21057e-40 4.51326e-40
-4.66864e-40 -1.69409e-40 4.9352e-40 1.07658e-40 -2.25556e-40 3.2298e-40 5.07625e-40 -3.5792e-41
-1.61787e-40 -4.79816e-40 -5.614e-41 5.01368e-40 -1.42036e-40 -5.46394e-40 -1.50675e-40 -5.76043e-40
-0.006625491 -0.0028263906 -0.0034107054 -0.00038786454 0.011285388 0.0002590647 -0.0055096843 -0.0015815834
-0.002203686 0.0050441194 -0.00538031 0.00016418989 -0.0013758645 0.12693638 0.0022663383 -0.022652717
0.0011435084 0.0055815955 -0.0040738196 -0.011963965 -0.0010135745 -0.0010963249 -0.01747062 0.0008089981
0.0009795262 0.0011380259 0.0063200016 -0.03105046 -0.05151802 0.0036943383 -0.025400212 -0.055693127
-0.009053977 -0.029296726 -0.04303823 -0.012723947 -6.1821805e-23 1.1412371e-23 1.6992414e-23 -8.3656774e-23
9.490284e-26 -1.1242043e-24 -2.0382208e-22 -1.3563188e-22 -1.3215058e-22 3.3027645e-28 3.8247e-41 6.037784e-24
3.746241e-35 -2.422657e-33 6.7763096e-26 4.392735e-25 -1.2363046e-27 3.1395538e-22 3.47158e-40 2.1798e-40
4.98568e-40 -2.66827e-40 -4.3726e-40 -3.74253e-40 7.4532e-41 2.80234e-40 4.04985e-40 -1.82991e-40
5.7357e-40 1.984543e-39 -5.64611e-40 3.83338e-40 -2.9371e-41 -4.98347e-40 -4.35753e-40 2.2116807e-28
1.88085e-40 3.98982e-40 -2.743542e-39 2.27296e-40 2.59407e-40 -3.23455e-40 2.80738e-40 1.62474e-40
1.83586e-40 -4.57381e-40 6.32518e-40 -3.12516e-40 4.66761e-40 3.99032e-40 2.39705e-40 1.33964e-40
3.206441e-37 4.35594e-40 4.5343e-41 -4.7614e-40 -6.117e-42 -6.05355e-40 1.91339e-40 1.7722e-40
5.24938e-40 -5.7709e-40 -2.96299e-40 -4.93683e-40 -5.13247e-40 3.31848e-40 1.79254e-40 -2.78168e-40
4.43798e-40 -9.9805e-41 4.53525e-40 -6.28355e-40 1e-45 3.126e-41 -5.08411e-40 -8.672e-41
1.5162e-41 2.8317e-41 -3.9033e-40 -1.98677e-40 -1.86077e-40 1.2510693e-36 -1.9347608e-31 -1.0110321e-28
2.47364e-40 5.602344e-35 4.0283e-40 -3.81821e-23 1.686592e-24 -3.7897e-41 -4.02508e-40 4.6997e-41
5.14956e-40 -5.18779e-40 7.5439e-41 -1.4323e-41 5.03381e-40 -8.4708e-41 -1.50754e-40 2.6922253e-21
-6.322304e-35 1.0767969e-22 1.3680287e-23 -1.961714e-34 -1.8895043e-21 2.6639656e-27 -8.9744e-25 -4.0999947e-23
4.9994e-40 3.815e-40 5.3767e-40 5.52643e-40 4.14613e-40 -4.23821e-40 -1.14717e-40 3.447e-42
-8.5647e-41 2.19995e-40 3.36e-40 9.9145e-41 4.35431e-40 -1.18526e-40 4.63493e-40 -1.42282e-40
-5.74467e-40 8.7927e-41 0.0054106936 -0.019784193 -0.0006730446 -0.019056946 -0.037376486 -0.022107549
-0.0011651464 -0.0017267385 0.0020687764 3.74341e-40 2.5713e-40 -3.25481e-40 -7.778e-41 1.11892e-40
4.26183e-40 4.16167e-40 -5.56121e-40 -6.18609e-40 -5.47513e-40 3.11151e-40 -3.17084e-40 -3.73546e-40
00000000: 5483 86bc 103a 94bc 5c82 4cbc 6c3b 0b3d
00000010: 2bf9 a5bc 43a6 c03c 219e c0bc 3732 9dbc
00000020: e278 2dbc 1fc9 8d8c 6553 1889 8dc1 0600
00000030: c41f 4589 51b5 d107 b143 3f10 bd6f 9511
00000040: cd88 2c85 8de5 fa0f 41d7 5287 0fca c186
00000050: 4084 5901 a526 3104 ce2e 248a 763a 4990
00000060: 08b7 3a84 e9c4 b717 e1b5 7402 8822 41bc
00000070: 0e3b de3b 09b3 e3bb 1cea 45bc 8f22 9f3e
00000080: 3f0b a9bb e596 84bc 3893 ae3c 7e87 b1bb
00000090: caf3 ef86 6da2 4704 6fc5 a902 fd4e ff0e
000000a0: 761c 8d14 2730 0f91 5253 7a80 7a14 ca00
000000b0: 07ac 0b80 79e9 0480 6f02 f48b c817 1200
000000c0: 67ce 8093 12cd 8590 63ac 0d82 6f89 0080
000000d0: b5a3 e50d 612a 0600 41c3 0600 1dea 0400
000000e0: 6d15 0580 3ed8 0180 bc5f 0500 1b2c 0100
000000f0: c274 0280 5684 0300 0d87 0500 c663 0080
00000100: ffc2 0180 8839 0580 7f9c 0080 9c75 0500
00000110: f08b 0180 20f3 0580 05a4 0180 c645 0680
00000120: a61a d9bb f73a 39bb 2486 5fbb 4c5a cbb9
00000130: 59e6 383c 13d3 8739 958a b4bb 224d cfba
00000140: b76b 10bb 2449 a53b 504d b0bb 632a 2c39
00000150: 5a56 b4ba 9cfb 013e d986 143b 3192 b9bc
00000160: c6e1 953a d1e5 b63b ad7d 85bb 8204 44bc
00000170: ebd9 84ba 8fb2 8fba 8c1e 8fbc f212 543a
00000180: 7263 803a d029 953a 0418 cf3b 895d febc
00000190: 8f04 53bd b61c 723b 1b14 d0bc 7a1e 64bd
000001a0: 2257 14bc b0ff efbc db48 30bd 1a78 50bc
000001b0: d879 959a 53bf 5c19 2e57 a419 0945 ca9a
000001c0: d2f7 ea15 52f6 ad97 e167 769b 09f8 239b
000001d0: a0c2 1f9b 6b56 d111 9e6a 0000 5193 e918
000001e0: 312f 4706 3744 4989 f7c5 a715 d5f2 0717
000001f0: 79e6 c392 3ec6 bd1b bcc7 0300 a45f 0200
00000200: ce6d 0500 cee7 0280 e7c2 0480 4413 0480
00000210: c4cf 0000 2e0d 0300 ef68 0400 1bfe 0180
00000220: e13e 0600 199c 1500 e825 0680 972c 0400
00000230: e051 0080 306d 0580 b4be 0480 922e 8c11
00000240: 4e0c 0200 3358 0400 e1df 1d80 9c79 0200
00000250: 1fd3 0200 a985 0380 950e 0300 e9c4 0100
00000260: c3ff 0100 fefa 0480 34e3 0600 2b67 0380
00000270: 2415 0500 5758 0400 339c 0200 7075 0100
00000280: 1538 da02 42be 0400 667e 0000 492f 0580
00000290: 0d11 0080 7c97 0680 6015 0200 04ee 0100
000002a0: 50b7 0500 b148 0680 f639 0380 3060 0580
000002b0: b996 0580 0f9d 0300 b0f3 0100 6b07 0380
000002c0: 21d5 0400 3716 0180 3ef0 0400 99d7 0680
000002d0: 0100 0000 2457 0000 3e89 0580 bdf1 0080
000002e0: 442a 0000 f04e 0000 1540 0480 d529 0280
000002f0: b506 0280 c1db d403 7525 7b8c de29 0091
00000300: 8db1 0200 94ef 9406 ed62 0400 26a3 389a
00000310: 657e 0218 a469 0080 0762 0480 0283 0000
00000320: 7d9b 0500 25a6 0580 4bd2 0000 ed27 0080
00000330: 397b 0500 22ec 0080 3ea4 0180 366b 4b1d
00000340: 5f13 a886 402d 021b c04e 8419 d660 8287
00000350: 54c4 0e9d a40f 5313 43df 8a97 7a43 469a
00000360: a171 0500 7727 0400 ceda 0500 8b04 0600
00000370: c683 0400 719d 0480 c93f 0180 9c09 0000
00000380: c0ee 0080 4265 0200 a2a8 0300 6014 0100
00000390: cebd 0400 674a 0180 080c 0500 a08c 0180
000003a0: 6141 0680 1bf5 0000 304c b13b 7612 a2bc
000003b0: 426f 30ba 501d 9cbc 1618 19bd e41a b5bc
000003c0: d3b7 98ba bb53 e2ba 4f94 073b 8313 0400
000003d0: c6cc 0200 4f8b 0380 d2d8 0080 e937 0100
000003e0: 06a4 0400 1b88 0400 3d0e 0680 6ebc 0680
000003f0: 3ef6 0580 5d63 0300 e773 0380 4b11 0480

dncnn.6.conv.bias f4 [13]
0.0399343 -4.16621e-40 -0.4929415 0.029228207 -6.31546e-40 0.019125087 0.050469596 0.026055124
0.032015216 3.63811e-40 -0.59592974 -1.1377037 -2.8701008e-33
00000000: 2692 233d 5f89 0480 d462 fcbe fe6f ef3c
00000010: 7ee0 0680 37ac 9c3c 35b9 4e3d 8e71 d53c
00000020: 6322 033d 28f6 0300 da8e 18bf 46a0 91bf
00000030: 4b70 6e89

dncnn.6.bn.weight f4 [13]
0.07229169 -1.5357593e-10 -0.87606776 0.030858813 -9.66753e-11 0.014402927 0.07925559 0.028419618
0.044749703 -0.00040932893 -1.0005064 -1.2515585 -7.2991757e-10
00000000: aa0d 943d c8db 28af fa45 60bf 9fcb fc3c
00000010: 5b97 d4ae 41fa 6b3c c150 a23d 42d0 e83c
00000020: 774b 373d 339b d6b9 9810 80bf 1233 a0bf
00000030: 62a3 48b0

dncnn.6.bn.bias f4 [13]
0.45524177 -1.1105066e-25 0.000587315 -0.038426273 -3.3144495e-31 -0.029937314 0.37040403 -0.024107635
-0.039372906 -2.1518243e-13 -0.035144377 -0.05554085 -7.0597104e-22
00000000: 7315 e93e 5c79 0996 0bf6 193a de64 1dbd
00000010: bd1e d78c 193f f5bc 99a5 bd3e 607d c5bc
00000020: 7c45 21bd 1d46 72aa 8df3 0fbd cd7e 63bd
00000030: dd5d 559c

dncnn.6.bn.running_mean f4 [13]
0.07249451 6e-45 -0.52798074 0.008059257 -6e-45 -0.025685016 -0.06224544 0.010086217
-0.05802358 -6e-45 -0.6285434 -1.1756834 -6e-45
00000000: 0078 943d 0400 0000 bf29 07bf f90a 043c
00000010: 0400 0080 6269 d2bc 13f5 7ebd a940 253c
00000020: 22aa 6dbd 0400 0080 38e8 20bf cb7c 96bf
00000030: 0400 0080

dncnn.6.bn.running_var f4 [13]
0.00015865343 6e-45 6.8868296e-08 5.239826e-05 6e-45 2.1034108e-05 9.650692e-05 5.441152e-05
8.514919e-05 6e-45 9.563341e-08 6.0351255e-08 6e-45
00000000: 355c 2639 0400 0000 bfe4 9333 34c6 5b38
00000010: 0400 0000 6772 b037 c263 ca38 ed37 6438
00000020: 2092 b238 0400 0000 065f cd33 749a 8133
00000030: 0400 0000
